saved_files/ckpt/nyc4/a2c_gnn_test_imitate-test.pth (torch, 90321 bytes, 60 tensors)

actor.log_rate f4 [16, 16]
0	0x40a01979	5.0031095
1	0x40a017ad	5.00289
2	0x40a0246c	5.004446
3	0x40a01f75	5.00384
4	0x40a02a80	5.005188
5	0x40a029e3	5.005113
6	0x40a026ed	5.0047517
7	0x40a02153	5.004068
8	0x40a0219a	5.0041018
9	0x40a02a88	5.005192
10	0x40a02035	5.0039315
11	0x40a025e3	5.004625
12	0x40a02548	5.004551
13	0x40a02171	5.004082
14	0x40a02319	5.0042844
15	0x40a021f0	5.0041428
16	0x40a01ed3	5.0037627
17	0x40a02435	5.00442
18	0x40a02661	5.004685
19	0x40a025e4	5.0046253
20	0x40a02807	5.004886
21	0x40a02734	5.0047855
22	0x40a02d61	5.0055394
23	0x40a02696	5.00471
24	0x40a027e8	5.0048714
25	0x40a0274f	5.0047984
26	0x40a02647	5.0046725
27	0x40a02944	5.0050373
28	0x40a02996	5.0050764
29	0x40a022a8	5.0042305
30	0x40a0245d	5.004439
31	0x40a02040	5.003937
32	0x40a02826	5.004901
33	0x40a0287f	5.0049434
34	0x40a027dc	5.0048656
35	0x40a0257d	5.004576
36	0x40a02a62	5.0051737
37	0x40a02bf9	5.0053678
38	0x40a02bad	5.0053315
39	0x40a029c9	5.0051007
40	0x40a023cc	5.0043697
41	0x40a0290e	5.0050116
42	0x40a02f62	5.005784
43	0x40a024d1	5.004494
44	0x40a02083	5.0039687
45	0x40a02b2d	5.0052705
46	0x40a02225	5.004168
47	0x40a02a8e	5.0051947
48	0x40a01f25	5.003802
49	0x40a025bb	5.004606
50	0x40a02114	5.004038
51	0x40a01c8d	5.003485
52	0x40a02933	5.005029
53	0x40a02e26	5.0056334
54	0x40a02d8e	5.005561
55	0x40a0284e	5.00492
56	0x40a027ca	5.004857
57	0x40a02c45	5.005404
58	0x40a02cea	5.0054827
59	0x40a02249	5.004185
60	0x409ffe0a	4.9997606
61	0x40a01bcb	5.0033927
62	0x40a01d62	5.003587
63	0x40a0146a	5.002492
64	0x40a02887	5.004947
65	0x40a02916	5.0050154
66	0x40a02d05	5.0054955
67	0x40a027c9	5.0048566
68	0x40a023af	5.004356
69	0x40a02dc6	5.0055876
70	0x40a028f7	5.0050006
71	0x40a02853	5.0049224
72	0x40a02ba2	5.0053263
73	0x40a02e12	5.005624
74	0x40a0264b	5.0046744
75	0x40a010c4	5.0020466
76	0x40a02251	5.004189
77	0x40a027d6	5.004863
78	0x40a02cd6	5.005473
79	0x40a02667	5.004688
80	0x40a02739	5.004788
81	0x40a02cd8	5.005474
82	0x40a02b83	5.0053115
83	0x40a0286b	5.004934
84	0x40a02bf4	5.0053654
85	0x40a02da3	5.005571
86	0x40a02ab0	5.005211
87	0x40a02c4d	5.005408
88	0x40a02a78	5.005184
89	0x40a02cef	5.005485
90	0x40a0299f	5.0050807
91	0x40a02b88	5.005314
92	0x40a025fa	5.004636
93	0x40a02d77	5.00555
94	0x40a02ad0	5.005226
95	0x40a0290c	5.0050106
96	0x40a02817	5.004894
97	0x40a01e2e	5.003684
98	0x40a026a7	5.0047183
99	0x40a02bce	5.0053473
100	0x40a02c6c	5.0054226
101	0x40a02c4d	5.005408
102	0x40a02c99	5.005444
103	0x40a02b50	5.005287
104	0x40a02c8a	5.005437
105	0x40a02e21	5.005631
106	0x40a02879	5.0049405
107	0x40a02c2e	5.005393
108	0x40a02373	5.0043273
109	0x40a02c06	5.005374
110	0x40a02979	5.0050626
111	0x40a02795	5.004832
112	0x40a025f7	5.0046344
113	0x40a02c2c	5.005392
114	0x40a02c53	5.0054107
115	0x40a028f7	5.0050006
116	0x40a02bf1	5.005364
117	0x40a02e66	5.005664
118	0x40a028ee	5.0049963
119	0x40a02d8b	5.0055594
120	0x40a02b76	5.0053053
121	0x40a02f42	5.005769
122	0x40a026e3	5.004747
123	0x40a02a8d	5.005194
124	0x40a01354	5.0023594
125	0x40a02e6f	5.005668
126	0x40a02bfc	5.005369
127	0x40a0294d	5.0050416
128	0x40a02898	5.0049553
129	0x40a0232f	5.004295
130	0x40a0262e	5.0046606
131	0x40a01870	5.002983
132	0x40a026d4	5.0047398
133	0x40a02a31	5.0051503
134	0x40a02a2d	5.0051484
135	0x40a02c7d	5.0054307
136	0x40a023bc	5.004362
137	0x40a01ef8	5.0037804
138	0x40a02d62	5.00554
139	0x40a02bfa	5.005368
140	0x40a01f61	5.0038304
141	0x40a02a59	5.0051694
142	0x40a0272a	5.004781
143	0x40a02746	5.004794
144	0x40a02d25	5.005511
145	0x40a02783	5.004823
146	0x40a02ce2	5.005479
147	0x40a02bbb	5.005338
148	0x40a028b7	5.00497
149	0x40a02c9d	5.005446
150	0x40a02e4a	5.0056505
151	0x40a02c0c	5.005377
152	0x40a0298e	5.0050726
153	0x40a02e61	5.0056615
154	0x40a02ab9	5.005215
155	0x40a02d35	5.0055184
156	0x40a02041	5.0039372
157	0x40a02e2c	5.005636
158	0x40a02c22	5.0053873
159	0x40a0298d	5.005072
160	0x40a027cc	5.004858
161	0x40a02b51	5.0052876
162	0x40a0270f	5.004768
163	0x40a02dd0	5.0055923
164	0x40a02584	5.0045795
165	0x40a029d1	5.0051045
166	0x40a027ef	5.0048747
167	0x40a02b2f	5.0052714
168	0x40a028b7	5.00497
169	0x40a028f8	5.005001
170	0x40a02ad3	5.0052276
171	0x40a02763	5.004808
172	0x40a02639	5.004666
173	0x40a0274b	5.0047965
174	0x40a0292b	5.0050254
175	0x40a024b2	5.0044794
176	0x40a02ae4	5.0052357
177	0x40a02be8	5.0053596
178	0x40a0250c	5.0045223
179	0x40a02fc3	5.0058303
180	0x40a02968	5.0050545
181	0x40a02928	5.005024
182	0x40a020b8	5.003994
183	0x40a02adb	5.0052314
184	0x40a02777	5.0048175
185	0x40a02d52	5.0055323
186	0x40a02adf	5.0052333
187	0x40a02b2e	5.005271
188	0x40a01635	5.002711
189	0x40a01c4d	5.0034547
190	0x40a0220f	5.0041575
191	0x40a02b8e	5.0053167
192	0x40a0060d	5.0007386
193	0x40a0062f	5.000755
194	0x40a00f9c	5.0019054
195	0x409fffe1	4.999985
196	0x40a02551	5.004555
197	0x40a02235	5.0041757
198	0x40a019f3	5.0031676
199	0x40a023aa	5.0043535
200	0x40a025cf	5.0046153
201	0x40a01413	5.0024505
202	0x40a02a54	5.005167
203	0x409ff115	4.998179
204	0x40a027dc	5.0048656
205	0x40a02b0f	5.005256
206	0x40a01d4e	5.003577
207	0x409ffc80	4.9995728
208	0x40a0165a	5.0027285
209	0x40a021ce	5.0041265
210	0x40a029c8	5.0051003
211	0x40a023e4	5.004381
212	0x40a00d0d	5.001593
213	0x40a028e0	5.0049896
214	0x40a0237f	5.004333
215	0x40a02325	5.00429
216	0x40a02518	5.004528
217	0x40a029e2	5.0051126
218	0x40a00f6f	5.001884
219	0x40a0274e	5.004798
220	0x40a02dc4	5.0055866
221	0x40a026f5	5.0047555
222	0x40a02502	5.0045176
223	0x40a02835	5.004908
224	0x40a02788	5.0048256
225	0x40a022d0	5.0042496
226	0x40a0279a	5.004834
227	0x40a01f55	5.0038247
228	0x40a0294e	5.005042
229	0x40a028d9	5.0049863
230	0x40a02bc9	5.005345
231	0x40a02945	5.005038
232	0x40a02710	5.0047684
233	0x40a02755	5.0048013
234	0x40a023bd	5.0043626
235	0x40a01fc8	5.0038795
236	0x40a022ef	5.0042644
237	0x40a02e1e	5.0056295
238	0x40a026ba	5.0047274
239	0x40a02343	5.0043044
240	0x40a01b1a	5.0033083
241	0x40a01f3f	5.003814
242	0x40a0204d	5.003943
243	0x40a01f58	5.003826
244	0x40a02303	5.004274
245	0x40a022c4	5.004244
246	0x40a019d1	5.0031514
247	0x40a028fa	5.005002
248	0x40a01c34	5.003443
249	0x40a02779	5.0048184
250	0x40a02462	5.0044413
251	0x40a01e6c	5.0037136
252	0x40a008fc	5.0010967
253	0x40a014a3	5.002519
254	0x40a011a3	5.002153
255	0x40a0288a	5.0049486

actor.conv1.bias f4 [21]
0	0xbb583758	-0.0032991972
1	0xbb39fa5a	-0.002837798
2	0xbd146e75	-0.036238153
3	0x3b9d92ca	0.0048087584
4	0x3d7b71d5	0.061387856
5	0xbb55aeb7	-0.003260536
6	0x3ddcfa48	0.10789925
7	0x3df086e9	0.11744482
8	0x3de09289	0.10965449
9	0xbbb29519	-0.0054499027
10	0xbcf4b690	-0.029872209
11	0xbc8091cf	-0.015694527
12	0x3d1590fd	0.036515225
13	0xbb56f500	-0.003279984
14	0x3b4c17c8	0.0031142104
15	0x3ac777d4	0.0015218207
16	0xbbdfe250	-0.0068323985
17	0x3d8ad59c	0.06779024
18	0x3bb59cd7	0.0055423784
19	0x3db49f3d	0.08819435
20	0xbc79dd0e	-0.015250457

actor.conv1.lin.weight f4 [21, 21]
0	0x3ea94ccf	0.33066413
1	0xbd9613e2	-0.07328011
2	0x3da8c753	0.08241143
3	0x3df21bcf	0.1182171
4	0x3ea5cbdd	0.32382098
5	0xbe92b928	-0.28656888
6	0xbeb08b2f	-0.3448119
7	0x3d93c1d4	0.07214704
8	0xbe60dbd5	-0.2195886
9	0x3dd4ef92	0.10397257
10	0xbc3c6a83	-0.011500004
11	0xbd81d449	-0.06339318
12	0xbe8d7a9c	-0.27632606
13	0xbddfbab9	-0.109242864
14	0x3ddc9e65	0.10772399
15	0xbec1683d	-0.3777484
16	0x3da4ce64	0.080471784
17	0x3e9cf64b	0.30656657
18	0x3e0ea8ee	0.13931629
19	0x3dbb9f50	0.09161246
20	0xbd6b9ad8	-0.057520717
21	0xbe13254d	-0.14369698
22	0xbd885355	-0.06656519
23	0xbe403f89	-0.18774237
24	0x3d313dc1	0.043271784
25	0xbe932733	-0.28740844
26	0xbe981fe9	-0.29711846
27	0xbe69cfeb	-0.2283322
28	0x3cfed9cf	0.031109719
29	0x3e8ca7bb	0.27471718
30	0x3dece2f1	0.11566723
31	0x3e82a2f8	0.2551496
32	0x3e58af13	0.21160536
33	0xbe65625f	-0.22400807
34	0xbcb6ab89	-0.022298591
35	0x3eab79c3	0.33491334
36	0xbde9b6a6	-0.114117905
37	0xbe293fee	-0.16528293
38	0x3dc231d0	0.09482157
39	0xbec03686	-0.37541598
40	0x3e4cdcd7	0.20006119
41	0xbe80fa7d	-0.25191107
42	0xbccd89e6	-0.02509017
43	0x3ded929b	0.116002284
44	0xbd2e1e81	-0.04250956
45	0x3e0b033e	0.13575456
46	0x3e4ef16f	0.20209287
47	0x3ca259c5	0.019818196
48	0xbead22c4	-0.33815587
49	0xbbd9d17d	-0.0066472874
50	0xbe61d596	-0.22054133
51	0x3da37eba	0.079831555
52	0xbe903eec	-0.28173006
53	0x3e250c82	0.16118053
54	0x3baffc85	0.005370679
55	0x3e14d29b	0.14533465
56	0xbe6f8713	-0.2339137
57	0xbd40b846	-0.047050737
58	0x3e802e15	0.25035158
59	0xbe3b1a1a	-0.18271676
60	0xbec50288	-0.38478494
61	0x3d663eea	0.056212343
62	0x3e0b7245	0.13617809
63	0x3d1ad741	0.03780294
64	0x3eb4f231	0.35341027
65	0xbe92e739	-0.28692034
66	0x3e21236b	0.15736167
67	0xbe22326b	-0.15839545
68	0x3e97b69a	0.296315
69	0x3e4ce13e	0.20007798
70	0xbdab452a	-0.083628014
71	0xbdab33cf	-0.08359491
72	0x3e5032cd	0.20331879
73	0xbea9987f	-0.33124158
74	0xbd06d711	-0.032919947
75	0xbe4e0420	-0.20118761
76	0x3e4e8aae	0.2017009
77	0xbe867386	-0.26260012
78	0xbe6c91f8	-0.23102558
79	0xbea413f4	-0.32046473
80	0x3da9acd0	0.082849145
81	0xbe8cff01	-0.27538303
82	0xbd9a84fc	-0.07544896
83	0xbca3cd40	-0.019995332
84	0x3ef004f6	0.46878785
85	0x3ebf97a4	0.3742038
86	0x3ed3a280	0.41334915
87	0x3ec681a0	0.3877077
88	0xbd036499	-0.03207836
89	0x3eae4cf2	0.3404308
90	0x3ec743a1	0.38918784
91	0x3ef3087c	0.4746741
92	0x3f024d62	0.50899327
93	0x3e3e1e83	0.18566327
94	0x3de6df92	0.112731114
95	0x3ec0569c	0.37566078
96	0x3eaaca31	0.33357385
97	0x3eba7cac	0.36423242
98	0xbe8b0cb4	-0.2715813
99	0x3ec319f2	0.38105732
100	0x3e6f950a	0.23396698
101	0xbd9d0dcd	-0.07668648
102	0x3eae9509	0.3409808
103	0x3eace9dd	0.33772174
104	0x3e9a8d4f	0.30185935
105	0x3df29556	0.1184489
106	0xbe74a079	-0.2388934
107	0x3d18307b	0.03715561
108	0xbe06df36	-0.13171086
109	0xbd69586a	-0.056969084
110	0x3e21869e	0.15774009
111	0x3c33c507	0.010972268
112	0x3dc92ddc	0.098232
113	0xbe84f80e	-0.259705
114	0x3e750310	0.2392695
115	0xbe6ec541	-0.23317434
116	0xbe094513	-0.13405256
117	0x3ea1698e	0.31525844
118	0x3ea13f39	0.31493548
119	0xbe5fdbb6	-0.21861157
120	0x3e1f9d9e	0.1558747
121	0xbe7933bc	-0.24336141
122	0x3e8e1231	0.27748254
123	0xbd5a7f90	-0.05334431
124	0xbec0109d	-0.37512675
125	0xbe83f0a8	-0.25769544
126	0x3dfe01c3	0.1240268
127	0x3e15d510	0.14632058
128	0x3ecc89cc	0.3994888
129	0xbe04d692	-0.12972477
130	0x3e854a12	0.26033074
131	0xbb5bd690	-0.0033544637
132	0x3f0bb1c4	0.54568124
133	0x3cb1f775	0.021724442
134	0x3d986ff0	0.074432254
135	0x3f17e2c0	0.5933037
136	0x3e20dde1	0.1570964
137	0x3dd9a05d	0.1062629
138	0x3e3c1485	0.18367203
139	0x3de786e2	0.11305024
140	0x3e7c06f3	0.24612026
141	0x3e8ed99b	0.27900395
142	0x3db0b9d1	0.08629192
143	0x3ee8f3d7	0.45498535
144	0x3eade150	0.33960962
145	0xbe6f9a88	-0.23398793
146	0xbd609efb	-0.054839116
147	0xbd886136	-0.066591665
148	0x3ebbe421	0.36697486
149	0x3ec26abb	0.37972054
150	0x3eefdfd9	0.4685047
151	0x3f03d3f4	0.5149529
152	0x3ccbf7c5	0.02489842
153	0x3ef5a34a	0.47976142
154	0x3e98320f	0.29725692
155	0x3e2e71b7	0.17035566
156	0x3ed9da1f	0.42549226
157	0x3de8f4a4	0.113747865
158	0xbe4f2ebf	-0.20232676
159	0x3e5a377c	0.21310228
160	0x3e6c525a	0.2307829
161	0x3d2d5c1e	0.042324178
162	0x3ef43cff	0.47702786
163	0x3e93ea91	0.28889897
164	0x3d8dc62d	0.06922565
165	0xbbeb3346	-0.007177743
166	0x3e8a23b1	0.26980355
167	0x3ed4c9fc	0.41560352
168	0x3d073ba6	0.03301587
169	0x3e3db900	0.18527603
170	0x3e370bc9	0.1787559
171	0x3ef96298	0.48708034
172	0x3f102714	0.5630963
173	0x3e404a32	0.18778303
174	0x3f0571e2	0.52126896
175	0x3f0c8c46	0.5490154
176	0x3d4691c5	0.04847886
177	0xbd732b91	-0.05936772
178	0x3f07339a	0.5281311
179	0x3e44e8ba	0.19229403
180	0xbe698cf1	-0.22807671
181	0x3ed85af1	0.42256883
182	0x3ef74ce1	0.4830084
183	0x3ecfa4d3	0.40555438
184	0x3dc6849b	0.09693261
185	0x3e99a65b	0.30009732
186	0x3eade901	0.3396683
187	0xbe03cfc4	-0.12872225
188	0x3d9a8ea3	0.07546737
189	0x3e680530	0.22658229
190	0xbe91b263	-0.2845641
191	0x3e971b62	0.2951308
192	0x3e60869d	0.21926351
193	0x3d5d985a	0.054100372
194	0xbe7cf199	-0.24701537
195	0xbead29ff	-0.33821103
196	0x3e8f9f33	0.28051147
197	0x3e85f2ae	0.26161712
198	0x3db2e618	0.08735293
199	0x3ea0b13b	0.31385216
200	0xbe8c6495	-0.27420488
201	0x3dc92b11	0.098226674
202	0xbea8a989	-0.32941845
203	0x3d05a90c	0.03263192
204	0xbcc8a4ed	-0.024492705
205	0x3e5e535d	0.21711488
206	0xbe433304	-0.1906243
207	0xbea76768	-0.3269608
208	0x3dd77ad9	0.10521478
209	0xbd8ebcdc	-0.06969616
210	0x3b9f24b7	0.0048566717
211	0xbe81eeb6	-0.25377434
212	0x3e7e5033	0.24835281
213	0x3e911098	0.28332973
214	0xbe1c20e2	-0.15246919
215	0xbe91b2f1	-0.28456834
216	0x3e54712f	0.20746301
217	0xbe98a783	-0.298153
218	0xbe3540bc	-0.17700475
219	0xbebe12ac	-0.3712362
220	0xbe814701	-0.25249484
221	0xbd5dd130	-0.054154575
222	0x3e0d3b58	0.13792169
223	0xbe526e6f	-0.2054994
224	0x3e8e43be	0.27786058
225	0xbd99c3bd	-0.07508037
226	0x3ce48782	0.027896646
227	0xbe524a31	-0.20536114
228	0x3e8cb6a0	0.27483082
229	0xbe515b89	-0.20445074
230	0x3d8c3525	0.06846074
231	0x3e5731ee	0.2101514
232	0x3d9e85f3	0.077403925
233	0x3dde4594	0.10853115
234	0xbea3a2fa	-0.3196028
235	0x3e1be7e1	0.15225174
236	0x3eb038f1	0.34418443
237	0xbc0bf775	-0.008542885
238	0x3dde2380	0.10846615
239	0xbe453fcb	-0.19262616
240	0x3dbfa247	0.09357124
241	0x3d194201	0.03741646
242	0xbe0136d0	-0.12618566
243	0x3da0e954	0.07857004
244	0x3d1da5dd	0.038488258
245	0xbeb49afe	-0.352745
246	0x3e6e06ed	0.2324483
247	0xbd880e22	-0.066433206
248	0x3def2a49	0.11677987
249	0xbeb89770	-0.36053038
250	0xbe068afd	-0.13138957
251	0xbca781c4	-0.02044762
252	0x3ebe5dd3	0.37180957
253	0xbcf754e9	-0.030191856
254	0x3e816ec4	0.2527982
255	0x3e92cc65	0.28671566

actor.lin1.weight f4 [32, 21]
0	0xbda8de63	-0.08245542
1	0xbdc89c61	-0.09795452
2	0xbe175034	-0.14776689
3	0x3e671028	0.22564757
4	0xbd63c342	-0.055606134
5	0xbbfd71af	-0.0077344994
6	0xbca8309e	-0.020530995
7	0xbdc79e39	-0.097469755
8	0x3e0bef95	0.13665612
9	0xbdce27ad	-0.10066161
10	0x3dba4bd3	0.090964936
11	0x3e0ca4df	0.13734768
12	0xbdf849ce	-0.12123452
13	0xbc068bc4	-0.008212034
14	0xbdcef573	-0.101054095
15	0xbdf1b5f4	-0.11802283
16	0xbdf9c029	-0.12194855
17	0xbd87b129	-0.066255875
18	0xbdb66e56	-0.08907764
19	0x3dcf4de1	0.10122276
20	0x3c90f78e	0.017696168
21	0x3ebc0a29	0.36726502
22	0x3e9b0798	0.3027923
23	0x3b0441c3	0.0020180799
24	0x3de865fe	0.113475785
25	0x3eafb97f	0.3432121
26	0x3ecc685b	0.39923367
27	0x3cbbe597	0.022936625
28	0x3ebb883a	0.3662737
29	0x3ed1aa5a	0.4095028
30	0x3e9bd8bd	0.30438796
31	0x3ed2fedd	0.4121007
32	0xbdf1afbc	-0.11801097
33	0xbe0e7233	-0.13910751
34	0xbdadabae	-0.08480011
35	0xbde18410	-0.11011517
36	0xbea785d9	-0.32719305
37	0xbd35e2cd	-0.044405747
38	0x3e324ace	0.17411348
39	0x3dfbb687	0.12290674
40	0x3e296680	0.16543007
41	0xbe0c9799	-0.13729705
42	0x3ebf3d6a	0.37351543
43	0x3dbb596b	0.091479145
44	0x3d15b165	0.03654613
45	0x3ea8d2ca	0.3297332
46	0x3dda0a63	0.10646512
47	0x3eddda7e	0.4333076
48	0x3e4f9db0	0.20274997
49	0x3e9aa5d0	0.3020463
50	0x3e481f55	0.19543202
51	0x3e94b2a5	0.29042545
52	0x3e3141df	0.17310284
53	0xbdc3ac6c	-0.09554371
54	0xbcfa5dc0	-0.030562282
55	0xbe72f051	-0.23724486
56	0xbe45a213	-0.19300108
57	0xbdc6f76d	-0.097151615
58	0x3de5c9ae	0.11220108
59	0x3d020269	0.03174058
60	0x3aef61bf	0.0018263384
61	0x3dff9b22	0.12480761
62	0x3d4c871d	0.04993354
63	0x3e6e8a7c	0.23295015
64	0x3e821e6a	0.2541383
65	0x3df54f36	0.11977999
66	0x3ef8c0b9	0.48584536
67	0x3e92c2dd	0.28664294
68	0x3e832571	0.25614503
69	0x3eb9abee	0.36263984
70	0x3e94d7a4	0.2907077
71	0x3eaa94ed	0.33316746
72	0x3f061fff	0.5239257
73	0x3ee7a4cb	0.45242915
74	0xbe5a7e44	-0.21337229
75	0xbd33e1da	-0.04391656
76	0xbcd64725	-0.026156971
77	0xbd0abc5e	-0.033871047
78	0x3df0e19d	0.11761782
79	0xbce3a2c7	-0.02778758
80	0xbe632fb6	-0.22186169
81	0xbe2abb6c	-0.16673058
82	0x3df4c958	0.11952466
83	0xbd995b03	-0.07488062
84	0xbd24503a	-0.040115573
85	0x3db2c973	0.0872983
86	0xbe0d6377	-0.13807474
87	0x3dc8aaba	0.097981885
88	0xbe5bae08	-0.21453106
89	0xbe1120e4	-0.14172703
90	0x3d99e164	0.07513693
91	0xbda6c99b	-0.08143922
92	0xbe627444	-0.22114664
93	0xbb09abfc	-0.0021007052
94	0xbd8d11f5	-0.06888191
95	0xbe011147	-0.12604247
96	0x3dbee2a7	0.09320574
97	0xbdb1b3e3	-0.08676889
98	0xbe027998	-0.12741697
99	0x3df073b1	0.117408164
100	0x3de1fe8b	0.11034878
101	0x3ca51145	0.020149836
102	0xbd4221c4	-0.047395483
103	0x3e2dd895	0.1697715
104	0xbdf7c93e	-0.12098931
105	0x3d1339b8	0.035943717
106	0x3eafcdd5	0.34336725
107	0x3dbb3152	0.091402665
108	0x3d96569b	0.073407374
109	0xbc47dd84	-0.0121988095
110	0x3e8d96dd	0.27654162
111	0x3ebe06dc	0.37114608
112	0x3e52ad11	0.20573832
113	0xbd2d4955	-0.042306263
114	0x3e81ae9c	0.2532853
115	0x3e27cb57	0.16386162
116	0xbd4a51eb	-0.04939453
117	0x3da74471	0.08167351
118	0x3d969f67	0.07354622
119	0xbe3779ad	-0.1791751
120	0xbc54d791	-0.012990848
121	0x3d43a171	0.047761384
122	0x3e1003dc	0.14063972
123	0x3da5777f	0.08079433
124	0xbdc043cb	-0.093879305
125	0xbcd9fe61	-0.026610555
126	0xbe42544e	-0.18977472
127	0xbe5f951a	-0.21834221
128	0x3df41658	0.11918324
129	0xbd5fd167	-0.05464306
130	0xbd6a130c	-0.05714707
131	0x3e3c9b32	0.18418577
132	0x3de915e6	0.1138113
133	0xbe4e39c9	-0.20139231
134	0x3dfba818	0.12287921
135	0xbe47be5a	-0.19506207
136	0x3d3b8637	0.045782294
137	0xb96c1ec0	-0.00022518169
138	0x3d087477	0.033314195
139	0xbd9935a4	-0.07480934
140	0x3e3eb624	0.18624169
141	0xbe234617	-0.15944706
142	0xbd53aa60	-0.051676154
143	0x3c2cb178	0.010540359
144	0x3d14357d	0.036183823
145	0xbd3d5929	-0.046227608
146	0xbd329ab2	-0.04360456
147	0x3ec9158c	0.3927425
148	0x3ea2025b	0.31642422
149	0x3ea2c114	0.31787932
150	0x3e1f6c02	0.15568545
151	0x3e3315e0	0.17488813
152	0x3ee48084	0.446293
153	0x3ed919ae	0.42402405
154	0x3e7faeb4	0.24968988
155	0x3ed0783f	0.4071674
156	0x3ec01ea1	0.37523368
157	0x3ecfed57	0.40610763
158	0xbd75c489	-0.060001884
159	0x3d2337bd	0.039848078
160	0x3b179bf2	0.0023133722
161	0xbe172a5a	-0.1476225
162	0xbe6324bb	-0.2218198
163	0xbd891928	-0.06694251
164	0x3daa3b15	0.0831205
165	0xbe553d9b	-0.20824282
166	0x3de935f5	0.113872446
167	0xbe1215b4	-0.14266092
168	0xbdffcedf	-0.124906294
169	0x3e1e2167	0.1544243
170	0x3ad69c60	0.0016373508
171	0x3e2acc7e	0.1667957
172	0xbe1cadf8	-0.15300739
173	0xbe3d4adf	-0.18485592
174	0xbe2c3c40	-0.16819859
175	0x3d9de839	0.077103086
176	0x3c71bb85	0.014754181
177	0x3e3bd0c1	0.18341352
178	0xbcfc06bd	-0.030764932
179	0xbdd56507	-0.1041966
180	0xbdc29c6a	-0.0950249
181	0xbe0c413a	-0.13696757
182	0xbc496646	-0.01229245
183	0xbe2aa3ab	-0.16663997
184	0xbd5b391b	-0.053521257
185	0x3d32b156	0.043626152
186	0x3dca6beb	0.09883865
187	0x3d2da988	0.042398006
188	0x3e308d20	0.17241335
189	0x3e8b5072	0.27209812
190	0x3ecaba25	0.39595142
191	0x3d0bec47	0.03416088
192	0x3d89e879	0.06733794
193	0x3e321502	0.17390826
194	0x3e2a77cc	0.16647261
195	0x3eda5768	0.4264481
196	0x3eaa9a2c	0.3332075
197	0x3ed207f3	0.4102169
198	0x3f0c115e	0.54714
199	0x3e431b5c	0.19053406
200	0xbe77e5d6	-0.24208769
201	0xbe7c6539	-0.24647988
202	0xbe0d2f15	-0.13787492
203	0x3dafaf98	0.08578414
204	0xbc496e1f	-0.012294321
205	0xbe93f23c	-0.28895748
206	0x3d470824	0.048591748
207	0xbc7f0d6a	-0.015567163
208	0x3ccbeb15	0.02489237
209	0x3d9be106	0.07611279
210	0xbe55ed9a	-0.20891419
211	0xbdd203e4	-0.10254648
212	0x3db1b3b5	0.086768545
213	0x3e373810	0.1789248
214	0xbe5cc7b9	-0.21560563
215	0x3d070ad5	0.032969315
216	0x3e56e987	0.20987521
217	0x3d33119b	0.04371796
218	0x3de04dc5	0.10952333
219	0xbe0ef553	-0.13960771
220	0xbe4cb45d	-0.19990678
221	0x3dcb5b4d	0.099295236
222	0xbe0d7a24	-0.13816124
223	0xbe1a67b5	-0.15078624
224	0x3cb79d2b	0.02241381
225	0x3e4e35ab	0.2013766
226	0x3d81ba8d	0.0633441
227	0xbd2498e3	-0.040184867
228	0xbc5b85b3	-0.013398576
229	0xbdd2df67	-0.10296517
230	0xbde0d52e	-0.10978161
231	0x3d391cdc	0.045193538
232	0xbe2272bc	-0.1586408
233	0xbe8a0348	-0.26955628
234	0xbe8bf5f6	-0.2733609
235	0xbe849ccb	-0.25900874
236	0xbe049de6	-0.12950858
237	0xbe64d350	-0.22346234
238	0x3dcf1676	0.10111706
239	0xbe5d9c87	-0.21641742
240	0xbdeca27b	-0.11554428
241	0x3d98ff93	0.07470622
242	0x3e05ed80	0.1307888
243	0x3e3ee4c7	0.18641959
244	0xbdd2fae1	-0.103017576
245	0x3c8e8266	0.017396163
246	0x3e4524ee	0.19252369
247	0xbbc7dbab	-0.0060991845
248	0xbe2f144c	-0.17097586
249	0x3e125539	0.14290322
250	0x3de2a225	0.11066083
251	0x3e50745d	0.20356889
252	0x3f095a46	0.5365337
253	0x3ec73de4	0.38914406
254	0x3e6a5713	0.22884779
255	0x3e094e32	0.13408735

actor.lin1.bias f4 [32]
0	0x3e1ef1cb	0.15521924
1	0x3d124007	0.035705592
2	0x3d89a423	0.0672076
3	0x3de826f1	0.113355525
4	0x3e3282b9	0.17432679
5	0x3cb00f76	0.021491747
6	0xbe208584	-0.15675932
7	0x3dcc9ba7	0.09990626
8	0xbd833208	-0.06406027
9	0x3da43d21	0.08019472
10	0xbd8c5952	-0.06852974
11	0x3d3e6b28	0.04648891
12	0x3e3da875	0.18521293
13	0x3dc4c65b	0.09608146
14	0xbbe3cace	-0.0069516664
15	0x3d5e55d3	0.054281067
16	0x3e2980b9	0.1655301
17	0x3e75e552	0.2401326
18	0x3e474d52	0.19463089
19	0x3ea1ece4	0.31626046
20	0xbe4588b4	-0.1929043
21	0x3d2b4d61	0.04182184
22	0x3e2e8b98	0.17045438
23	0x3e2885d4	0.16457301
24	0xbc987498	-0.018610284
25	0xbd25ab34	-0.040446475
26	0xbd5a6824	-0.053321972
27	0x3e7fd22e	0.24982521
28	0x3d5b7419	0.053577516
29	0x3d40e6a4	0.047094956
30	0x3e7bde86	0.24596605
31	0xbe57502e	-0.2102668

actor.lin2.weight f4 [32, 32]
0	0xbddd48ea	-0.10804923
1	0x3e198534	0.14992219
2	0x3e9018da	0.2814396
3	0x3eb39d55	0.35080972
4	0xbe221181	-0.1582699
5	0x3e041bae	0.12901184
6	0xbc6c86e4	-0.014436457
7	0x3ea1ebcf	0.3162522
8	0xbe19dc4d	-0.15025444
9	0x3e66e456	0.22548041
10	0x3d7ac205	0.061220188
11	0x3c7a6f08	0.015285261
12	0x3ec229d2	0.3792253
13	0x3dd5c019	0.1043703
14	0x3e88d706	0.2672655
15	0x3df9e3de	0.12201665
16	0xbe1a92b6	-0.15095028
17	0xbcd43ffe	-0.02590942
18	0x3e2043c1	0.15650846
19	0x3eb72fd7	0.35778686
20	0xbd1f82e7	-0.038943198
21	0x3e817956	0.25287884
22	0x3c57d053	0.013172227
23	0x3e1c879c	0.15286106
24	0x3d00e9ac	0.031472847
25	0xbdca0415	-0.0986406
26	0xbda2414b	-0.0792261
27	0x3e81e8b5	0.25372854
28	0x3dcb12d7	0.09915703
29	0x3d84b812	0.06480421
30	0x3e662d79	0.22478284
31	0xbdce5aab	-0.10075887
32	0xbdbb1ee5	-0.09136752
33	0xbe306adb	-0.17228262
34	0xbe09a6e6	-0.13442573
35	0xbd0f28c0	-0.03495097
36	0x3e27c27b	0.16382782
37	0xbd93d3ab	-0.07218107
38	0xbd27a090	-0.04092461
39	0xbe2ea0da	-0.17053548
40	0xbe2a1181	-0.1660824
41	0xbd6037c4	-0.054740682
42	0xbd76976c	-0.060203
43	0x3e0c1afb	0.13682167
44	0xbdd6ab30	-0.1048187
45	0xbdec9dc2	-0.115535274
46	0x3d2d0a74	0.042246297
47	0xbd397030	-0.045273006
48	0x3e323e75	0.17406638
49	0x3d952c0e	0.072837934
50	0xbc8538c8	-0.016262427
51	0x3c769c00	0.015051842
52	0xbe27ef48	-0.16399872
53	0x3d3bcf9c	0.04585229
54	0xbdeae62c	-0.11469683
55	0xbd92a9de	-0.07161306
56	0xbd0c7210	-0.034288466
57	0xbd85bb2f	-0.06529843
58	0xbc944680	-0.018100023
59	0xbd921919	-0.07133693
60	0x3ba00be0	0.004884228
61	0x3c645090	0.013935223
62	0xbcaeb428	-0.02132614
63	0x3dc46196	0.095889255
64	0xbd8b4154	-0.0679957
65	0xbd3034b9	-0.04301903
66	0xbc1952cb	-0.009358118
67	0x3c92d1bb	0.017922273
68	0xbc19f64d	-0.009397102
69	0x3e302316	0.17200884
70	0x3e18946f	0.14900373
71	0xbe185a95	-0.14878304
72	0xbe17f53d	-0.14839645
73	0xbde49182	-0.11160566
74	0xbd4e8988	-0.05042413
75	0x3e0fa779	0.1402873
76	0xbd5e7041	-0.054306272
77	0xbdc07e93	-0.09399142
78	0xbca373a6	-0.019952606
79	0x3d988b18	0.07448405
80	0xbc11808f	-0.008880748
81	0x3d07ad8e	0.0331245
82	0x3de7a1a6	0.11310129
83	0xbddfe3a2	-0.109320894
84	0xbdf73130	-0.12069929
85	0xbe0d1fc2	-0.13781646
86	0xbd6e4f66	-0.05818119
87	0x3dd81f7d	0.10552881
88	0x3d2aa844	0.041664377
89	0xbdb75462	-0.089516416
90	0xbdf298be	-0.118455395
91	0x3de8697b	0.11348244
92	0xbc390891	-0.011293546
93	0x3d9a7eae	0.075436935
94	0xbd8ab94a	-0.06773622
95	0x3da2de26	0.07952528
96	0xbe1c33c6	-0.15254125
97	0x3e706a55	0.23478062
98	0x3da4c6e0	0.08045745
99	0x3e06ed64	0.13176495
100	0x3e131f7a	0.14367476
101	0x3e2bb59f	0.16768502
102	0x3d0cf957	0.034417477
103	0x3e464b28	0.19364607
104	0xbda6d88d	-0.081467725
105	0x3e190b04	0.14945608
106	0xbb5d35a9	-0.0033753908
107	0xbdb2490d	-0.087053396
108	0x3e5a20c3	0.2130156
109	0xbe350ead	-0.1768138
110	0xbcce46d9	-0.025180267
111	0x3d352929	0.044228707
112	0x3df05839	0.11735577
113	0x3e150a2d	0.14554663
114	0x3d8d1bcb	0.06890067
115	0x3eb9e1f8	0.36305213
116	0xbdf81104	-0.121126205
117	0x3e6748c1	0.22586347
118	0x3c8204dd	0.01587146
119	0x3e168000	0.14697266
120	0x3d11efe0	0.035629153
121	0xbe2b062b	-0.16701572
122	0x3de21114	0.11038414
123	0x3e6af581	0.22945215
124	0xbdcb10bd	-0.09915302
125	0xbdc80f06	-0.097684905
126	0x3e1a4235	0.15064318
127	0x3e326e4e	0.1742489
128	0xbe137a98	-0.14402235
129	0xbe2f3fe0	-0.1711421
130	0x3d7210b6	0.059097968
131	0x3e1d7593	0.15376882
132	0x3df92026	0.12164335
133	0xb8b38884	-8.560813e-05
134	0x3d87c72b	0.06629785
135	0xbdacce1e	-0.08437751
136	0xbc7e5ab2	-0.015524553
137	0x3d984985	0.07435898
138	0xbd3b564f	-0.045736607
139	0xbd3ede7b	-0.046598893
140	0xbcfbbf84	-0.03073097
141	0xbd88d2ab	-0.06680807
142	0x3d87ca69	0.066304035
143	0xbb9924ae	-0.004673562
144	0x3dd924de	0.10602735
145	0xbc82623f	-0.015915988
146	0x3df43348	0.119238436
147	0xbdd4e65d	-0.10395501
148	0xbd3b05d4	-0.045659855
149	0x3e03c832	0.12869337
150	0x3b842240	0.004032403
151	0xbe1ed653	-0.15511446
152	0x3db9b386	0.090674445
153	0xbe10bb35	-0.14133914
154	0xbda77d36	-0.08178179
155	0x3de23964	0.11046103
156	0x3e1b187a	0.15146056
157	0xbe14e8d5	-0.14541943
158	0xbe3923b4	-0.18080026
159	0xbcad0f98	-0.0211256
160	0xbe01c3e7	-0.12672387
161	0x3e87e6a6	0.26543158
162	0x3e301083	0.17193799
163	0x3ec4166c	0.38298357
164	0xbdb865d2	-0.09003796
165	0x3e31f80b	0.17379777
166	0xbd8b86f3	-0.06812849
167	0x3ecb679b	0.39727482
168	0xbe06ca44	-0.13163096
169	0x3e35e672	0.17763689
170	0xbe110fe5	-0.1416622
171	0xbe34c7c1	-0.17654325
172	0x3ea76680	0.3269539
173	0xbd8a4d86	-0.06753068
174	0x3de27ba2	0.11058737
175	0x3e9b9a40	0.3039112
176	0xbe149e65	-0.14513548
177	0x3e5bdaf5	0.21470244
178	0xbd8400cb	-0.06445464
179	0x3e63ea7b	0.22257416
180	0x3d7bd153	0.061478924
181	0x3e674ca8	0.22587836
182	0xbe0105cc	-0.12599868
183	0x3d6fa521	0.05850709
184	0xbe25dd5d	-0.16197725
185	0x3d212d46	0.039349817
186	0xbe154441	-0.14576818
187	0x3c8c732c	0.017144762
188	0xbe31c6ae	-0.17360947
189	0x3db4f10e	0.0883504
190	0x3eb1f80e	0.34759563
191	0xbdef9c2a	-0.11699708
192	0xbe0e1ec8	-0.1387893
193	0xbe364bd6	-0.17802367
194	0xba80b7e9	-0.0009820434
195	0x3c250474	0.0100718625
196	0xbe015d88	-0.12633336
197	0xbd7e2e2b	-0.062055748
198	0xbe2cf04f	-0.16888545
199	0xbe35e481	-0.17762949
200	0xbca0d798	-0.019634053
201	0x3d3a0ca5	0.045422215
202	0xbd80ef61	-0.06295658
203	0x3dd95a10	0.10612881
204	0x3df01c4b	0.117241465
205	0x3d534a48	0.051584512
206	0x3cf3ccae	0.029760685
207	0xbcb39b92	-0.021924768
208	0x3c5b8f42	0.013400855
209	0xbe373347	-0.17890655
210	0x3e1d43b9	0.15357865
211	0xbe39f71f	-0.18160675
212	0xbd8923e8	-0.06696302
213	0x3da0e74c	0.078566164
214	0x3e12b933	0.1432846
215	0xbe2b8852	-0.16751221
216	0xbd5c7f74	-0.053832486
217	0x3e27fe77	0.16405664
218	0xbe42e9f3	-0.19034557
219	0x3dc4560e	0.09586726
220	0x3d7efc30	0.062252223
221	0x3d74fae4	0.05980958
222	0xbe1b0071	-0.15136887
223	0xbe09cba0	-0.13456583
224	0x3e003ae9	0.12522472
225	0x3e549abf	0.20762156
226	0x3dcc472c	0.099745125
227	0x3ecaa811	0.3958135
228	0x3e0c2f38	0.13689888
229	0x3e1224bc	0.14271826
230	0x3dc23a5f	0.0948379
231	0x3eacaea1	0.3372698
232	0x3e2daa7d	0.16959567
233	0x3e24121f	0.16022538
234	0xbe308f74	-0.17242223
235	0xbe137ba6	-0.14402637
236	0x3e60eb15	0.21964677
237	0x3e003e20	0.12523699
238	0xbdb8a992	-0.09016718
239	0x3e7f5244	0.24933726
240	0x3df1d7eb	0.11808761
241	0x3e7e9ea1	0.248652
242	0x3d085fa4	0.033294335
243	0x3e835b6e	0.25655693
244	0xbd900098	-0.07031363
245	0x3e8fcd6a	0.28086406
246	0xbcad7004	-0.021171577
247	0x3de4e172	0.11175813
248	0xbe02d2bb	-0.127757
249	0x3d9edc1b	0.077568255
250	0xbde4e5cf	-0.11176645
251	0x3e6768b1	0.2259853
252	0xbcad0eb1	-0.02112517
253	0x3d960b76	0.07326405
254	0x3e97fcff	0.29685208
255	0x3d9d7b5c	0.076895446

actor.lin2.bias f4 [32]
0	0xbd0c455a	-0.034245826
1	0xbb4f1040	-0.003159538
2	0xbddae600	-0.106884
3	0x3e802490	0.25027895
4	0xbe26c7e6	-0.16287193
5	0x3e8c8bcb	0.27450404
6	0xbd85411b	-0.065065585
7	0x3e65f3e3	0.22456317
8	0x3d59ebb8	0.053203315
9	0xbdc40a35	-0.09572259
10	0xbd912612	-0.070873395
11	0x3df4b82a	0.11949189
12	0x3d5f34ed	0.054493833
13	0x3daf0e52	0.08547653
14	0x3e35b2dd	0.17744012
15	0x3e6db4ed	0.23213549
16	0x3d7a6bde	0.061138026
17	0x3e30e874	0.17276174
18	0x3de4f2d2	0.11179127
19	0xbc542696	-0.012948653
20	0x3e6ecf18	0.23321187
21	0x399277ee	0.00027936645
22	0xbbd7f1f0	-0.0065901205
23	0x3e104e81	0.14092447
24	0xbdd1a6b5	-0.10236875
25	0x3d6360f9	0.055512402
26	0xbd24f036	-0.040268146
27	0x3e1b1a99	0.15146865
28	0xba92e900	-0.0011208355
29	0x3daa2f0c	0.08309755
30	0x3e0d10bc	0.13775915
31	0x3c397ce8	0.011321284

actor.lin3.weight f4 [1, 32]
0	0x3eb8334f	0.35976645
1	0x3e19e0c7	0.15027152
2	0xbe0d1d7a	-0.13780776
3	0x3e54c0c3	0.20776658
4	0xbd1d17a0	-0.03835261
5	0x3e8860e8	0.26636434
6	0x3bad5819	0.005290043
7	0x3eaf39c2	0.34223753
8	0xbe12b838	-0.14328086
9	0xbdc6fbfe	-0.097160324
10	0x3ea2ffce	0.31835788
11	0xbdbc775a	-0.09202452
12	0x3ed403e7	0.41409227
13	0x3d8351ab	0.06412061
14	0x3e651cd9	0.22374286
15	0x3e69d966	0.22836837
16	0xbe00bb12	-0.12571362
17	0xbc3f1f27	-0.011665142
18	0x3e9568fd	0.29181662
19	0xbdc07b1e	-0.09398483
20	0x3e95f869	0.29291084
21	0xbcc23a94	-0.023709573
22	0xbdde98bd	-0.10868976
23	0xbdcab13b	-0.09897085
24	0xbdb96724	-0.09052876
25	0xbc7acc78	-0.015307538
26	0x3e971488	0.29507852
27	0x3ead84d9	0.33890417
28	0xbd6d15e4	-0.057882205
29	0x3ec53b06	0.38521594
30	0x3e81023c	0.25197017
31	0x3ed21dec	0.41038454

actor.convp.bias f4 [21]
0	0xbb9a6129	-0.0047112894
1	0xbb8fe3a8	-0.0043911524
2	0xbbaf7b1c	-0.005355252
3	0xbbadf942	-0.005309255
4	0x3b985029	0.0046482277
5	0x3b56f4fc	0.003279983
6	0xbba0c97d	-0.004906832
7	0x00000000	0.0
8	0xbb9acde5	-0.0047242516
9	0xbbad4d31	-0.005288743
10	0xbb9ea624	-0.004841583
11	0xbbacf3a1	-0.0052780663
12	0x3ba5eb30	0.005063437
13	0xbb9ce34b	-0.0047878376
14	0xbb9f1c60	-0.0048556775
15	0x3bae0798	0.005310964
16	0x3a08debc	0.0005221178
17	0x3ba8eb9e	0.005155041
18	0x3b1c86ec	0.002388413
19	0x3ba725c4	0.0051009376
20	0xbb857d3c	-0.004073767

actor.convp.lin.weight f4 [21, 21]
0	0xbd9d3d6e	-0.076777324
1	0xbe2344c7	-0.15944205
2	0xbe477dcb	-0.1948158
3	0x3d912116	0.07086389
4	0x3db21dda	0.086971
5	0xbc9b70dd	-0.018974716
6	0x3eb9c9aa	0.3628667
7	0x3e9c2457	0.30496475
8	0x3e839337	0.25698254
9	0x3ebaa07b	0.36450562
10	0xbd1212f1	-0.035662595
11	0x3b92cadf	0.0044797505
12	0x3d0993b5	0.03358813
13	0x3e9a2b2b	0.3011106
14	0xbe08dda0	-0.13365793
15	0xbe91c512	-0.28470665
16	0xbe2af79e	-0.16696021
17	0xbe5399c5	-0.20664127
18	0x3eb589c5	0.35456672
19	0x3dbd29ab	0.09236463
20	0x3eb88af0	0.360435
21	0x3e3cc3ac	0.18434018
22	0x3eab4bfc	0.3345641
23	0xbea127ae	-0.31475586
24	0xbdd59f49	-0.10430772
25	0xbe98fa3e	-0.2987842
26	0x3e5fbbaa	0.21848932
27	0x3e577d23	0.2104383
28	0x3e126ac0	0.14298534
29	0x3eb5996e	0.3546862
30	0x3e6956fa	0.22787085
31	0xbe05bbf1	-0.13059975
32	0x387531f0	5.845906e-05
33	0xbeaa8e31	-0.33311608
34	0x3e0d777b	0.1381511
35	0xbe7deb69	-0.24796833
36	0x3e394c74	0.18095571
37	0x3e7d2de6	0.2472454
38	0xbe414dc4	-0.18877321
39	0x3e993144	0.299204
40	0x3e7678eb	0.24069564
41	0xbe5b0409	-0.21388258
42	0x3e8c1834	0.27362216
43	0xbd964b01	-0.073385246
44	0xbe7775dc	-0.24166054
45	0x3ea22b8f	0.31673858
46	0x3c964739	0.018344508
47	0x3d31886d	0.043342996
48	0xbea89c4a	-0.3293174
49	0x3e1aeacc	0.1512863
50	0xbea0b549	-0.3138831
51	0xbe421f9a	-0.18957368
52	0xbdbad597	-0.0912277
53	0xbe9f27ad	-0.31084958
54	0x3e77f29a	0.24213639
55	0x3e3ef9e0	0.18650007
56	0x3e77a094	0.2418235
57	0xbdcc59a6	-0.099780366
58	0x3eb62b09	0.35579708
59	0x3dc51652	0.09623398
60	0x3de5166a	0.11185916
61	0xbe4a866f	-0.19777845
62	0xbe819cd2	-0.25314957
63	0x3ea8ef81	0.32995227
64	0xbea68650	-0.32524347
65	0xbc089034	-0.008335162
66	0x3e9cfff4	0.30664027
67	0xbd58268a	-0.05277113
68	0x3d8f54f5	0.06998626
69	0x3e54eb14	0.207928
70	0xbe662dcc	-0.22478408
71	0x3ebc94ca	0.36832267
72	0x3e9c484d	0.3052391
73	0x3e434e5f	0.19072865
74	0xbc2089ac	-0.0097984485
75	0xbd01b1a8	-0.031663567
76	0x3e361697	0.17782055
77	0x3eaf0a0d	0.34187356
78	0x3eb3d536	0.35123605
79	0x3e0f3ab1	0.13987233
80	0xbe945f32	-0.28978878
81	0xbe5eba95	-0.21750863
82	0xbe98a6b4	-0.29814684
83	0xbdd62cb3	-0.104577444
84	0x3d9b36cc	0.07578811
85	0xbea4424b	-0.32081828
86	0x3e5d134c	0.21589392
87	0x3dc067f8	0.093948305
88	0xbd8fd375	-0.07022754
89	0xbea0c00c	-0.3139652
90	0x3e86e7e1	0.26348785
91	0x3da25fe8	0.07928449
92	0x3e4b472a	0.19851366
93	0xbe83b840	-0.2572651
94	0xbc166e06	-0.009181505
95	0x3d8aeb9c	0.0678322
96	0x3e3f35e2	0.18672898
97	0x3e641120	0.22272158
98	0x3eb1d406	0.34732074
99	0x3de3a50f	0.11115467
100	0x3e932a40	0.28743172
101	0xbe9b9a89	-0.30391338
102	0x3e1bd173	0.15216617
103	0x3db66827	0.08906584
104	0xbe032f11	-0.12810923
105	0x3e1d2682	0.15346721
106	0xbc29bee2	-0.010360451
107	0xbe858fe8	-0.26086354
108	0x3e8ccf1e	0.27501768
109	0xbd0f4a26	-0.034982823
110	0x3e267fde	0.16259715
111	0x3d98dac1	0.07463599
112	0xbe01ab68	-0.12663043
113	0xbdae48d8	-0.085099876
114	0xbe9d4f1b	-0.30724415
115	0xbea2950d	-0.31754342
116	0xbe4b6b54	-0.19865161
117	0xbe84a09c	-0.25903785
118	0x3e5cfbda	0.21580449
119	0x3cc8e680	0.024523973
120	0xbe4fca85	-0.20292099
121	0x3ea02717	0.31279823
122	0xbd5403d8	-0.05176148
123	0xbe10c677	-0.14138208
124	0xbd6d7950	-0.05797702
125	0xbe66ebf5	-0.22550948
126	0x3e602b03	0.21891408
127	0xbddaa26b	-0.1067551
128	0x3e08ef63	0.13372569
129	0x3e8b5e65	0.27220455
130	0xbd74f805	-0.059806842
131	0x3dcba4b4	0.09943524
132	0xbe81f95f	-0.25385568
133	0x3e96891f	0.2940149
134	0x3e3c5d54	0.18394977
135	0x3ea2ede4	0.3182212
136	0xbebeb475	-0.37247053
137	0xbe8e3f90	-0.2778287
138	0x3c1c9548	0.009557076
139	0x3eb44673	0.35209998
140	0xbea68501	-0.3252335
141	0x3e6673ce	0.22505113
142	0x3eb58299	0.354512
143	0x3dd03418	0.10166186
144	0x3ea6ee64	0.32603753
145	0x3e84d890	0.25946474
146	0xbdbcfea2	-0.09228255
147	0xbdaac0d8	-0.08337563
148	0x3b30bf00	0.0026969314
149	0xbe8618ee	-0.26190895
150	0x380fa000	3.424287e-05
151	0x3e1b16f6	0.15145478
152	0xbd691670	-0.056906164
153	0xbe41c18a	-0.18921486
154	0x3e009c62	0.12559655
155	0xbc26eec0	-0.010188758
156	0x3e866673	0.26250038
157	0xbd86bb98	-0.065787494
158	0xbe6eae6f	-0.23308729
159	0x3dc184c0	0.09449148
160	0xbd112e58	-0.035444587
161	0xbcbad140	-0.022804856
162	0xbe99c7f8	-0.30035377
163	0xbd2eea10	-0.04270369
164	0xbd8e12fc	-0.06937215
165	0x3e47443a	0.1945962
166	0xbe6c9020	-0.23101854
167	0x3d95860c	0.07300958
168	0xbebd199a	-0.36933595
169	0x3e9fabba	0.31185704
170	0xbe623ab9	-0.22092713
171	0xbeb96c93	-0.36215648
172	0xbe0b28bb	-0.13589756
173	0x3c70c06c	0.014694314
174	0xbeac1596	-0.3361022
175	0x3e8f7a5c	0.2802304
176	0x3e217a43	0.15769295
177	0xbe9ee5de	-0.3103475
178	0x3e12a650	0.14321256
179	0xbe288d5c	-0.16460174
180	0x3ba8efb6	0.005155529
181	0x3ea2bf2d	0.3178648
182	0x3d6f7b77	0.058467355
183	0x3ea6ecf5	0.3260266
184	0x3b3a8679	0.00284615
185	0xbdc1bfbe	-0.094604
186	0x3d9573a8	0.0729745
187	0x3d91f6fc	0.07127187
188	0x3dbd88a9	0.092545815
189	0x3e15a470	0.14613509
190	0x3e417059	0.18890513
191	0x3ebb342d	0.36563244
192	0xbe19e605	-0.15029152
193	0xbe1dcfb4	-0.15411264
194	0x3e985e0e	0.29759258
195	0xbe71cbd1	-0.23612906
196	0xbce542c4	-0.027985938
197	0xbcf271da	-0.029595304
198	0xbe5fc964	-0.21854168
199	0xbea6b6ab	-0.3256124
200	0x3ea4150f	0.32047316
201	0xbe62772e	-0.22115776
202	0x3eb398fb	0.35077652
203	0x3e83fcb2	0.2577873
204	0x3d4b55bb	0.049642306
205	0x3e6d3209	0.23163618
206	0x3c91ca4c	0.017796658
207	0xbe02cfa7	-0.12774526
208	0xbeb52aba	-0.3538416
209	0x3da75035	0.08169595
210	0xbe78c04d	-0.24292107
211	0x3ea5f866	0.32416075
212	0xbdc523a6	-0.0962594
213	0x3da8b8c9	0.0823837
214	0xbe8bf658	-0.27336383
215	0x3eb6be7b	0.356922
216	0xbd7c4656	-0.061590515
217	0xbe684036	-0.22680745
218	0x3e4fb9e4	0.20285755
219	0x3d55cef4	0.05219932
220	0x3e47933a	0.19489756
221	0x3e90fb0d	0.28316537
222	0x3e43e144	0.19128901
223	0x3e698386	0.22804078
224	0xbd90d9db	-0.07072803
225	0xbdfde6b8	-0.12397522
226	0x3ebc43b4	0.36770403
227	0xbe75b2b5	-0.23993953
228	0xbd478c88	-0.048718005
229	0x3e83001e	0.25586027
230	0x3e482365	0.19544752
231	0xbe9f2c2b	-0.31088385
232	0xbea34eac	-0.3189596
233	0xbea4d490	-0.32193422
234	0xbe9e8c13	-0.30966243
235	0xbe772c4b	-0.2413799
236	0x3e888269	0.26661995
237	0x3eae8f2b	0.34093603
238	0x3e46f18b	0.19428079
239	0xbe49ca3e	-0.19706056
240	0x3dc1b778	0.09458822
241	0xbe8410fa	-0.25794202
242	0x3e3548c3	0.17703538
243	0x3ea9cec2	0.33165556
244	0xbebbe0e8	-0.36695027
245	0xbe55621f	-0.20838211
246	0x3e2fcc81	0.17167856
247	0xbebddc69	-0.37082222
248	0xbe1ec044	-0.15503031
249	0xbd11c5fb	-0.0355892
250	0x3dd6a169	0.10480005
251	0x3e1d3658	0.15352762
252	0x3ec0ea9d	0.37678996
253	0x3e5e693c	0.21719831
254	0x3e4825d8	0.19545686
255	0x3eb88159	0.36036184

actor.lin1p.weight f4 [8, 21]
0	0x3de77d29	0.11303169
1	0x3e2d719b	0.16937868
2	0x3dfc24ea	0.12311728
3	0x3de07b67	0.10961037
4	0xbe228947	-0.1587268
5	0x3e43b10b	0.19110505
6	0x3e1abaf3	0.15110378
7	0xbdb92119	-0.09039516
8	0x3a6ea1a8	0.0009103068
9	0x3e0d137c	0.13776964
10	0x3e0c5278	0.13703334
11	0x3d767e85	0.060179252
12	0x3e33adeb	0.17546813
13	0xbd2c2081	-0.042023186
14	0x3e2cbcfd	0.16868968
15	0x3db72273	0.089421175
16	0xbe302746	-0.17202482
17	0x3dc2b8ea	0.09507926
18	0x3d815343	0.06314709
19	0xbe24e09f	-0.16101311
20	0x3d86d841	0.06584216
21	0xbd8bda97	-0.06828802
22	0xbe4c2a48	-0.19938004
23	0x3c1c8e6e	0.009555442
24	0xbdcbaa1f	-0.099445574
25	0x3bb4269d	0.005497767
26	0x3e399f1e	0.18127105
27	0xbdafd860	-0.08586192
28	0x3e02c731	0.12771298
29	0xbe017333	-0.12641601
30	0x3d732302	0.059359558
31	0x3da93a49	0.0826307
32	0xbe249cf3	-0.16075496
33	0x3e092ceb	0.13396041
34	0xbd01f9c8	-0.03173235
35	0x3d76ee21	0.06028569
36	0x3defe82f	0.117142074
37	0xbe07c125	-0.13257273
38	0x3e3c1b97	0.183699
39	0x3d95522c	0.07291064
40	0x3d569726	0.05239024
41	0x3c945c3a	0.018110383
42	0x3d80d456	0.062905
43	0xbd9425ff	-0.0723381
44	0x3d4eddbc	0.05050443
45	0xbc8e91ea	-0.017403562
46	0x3e389e46	0.18029127
47	0xbc542b7e	-0.0129498225
48	0x3e065aad	0.13120528
49	0xba9ac43d	-0.0011807751
50	0xbd95650c	-0.07294664
51	0x3c1551e1	0.00911376
52	0xbe03f810	-0.12887597
53	0x3bbcc001	0.0057601933
54	0x3e219e74	0.15783101
55	0x3dcad093	0.099030636
56	0x3d55b6d2	0.052176304
57	0x3dda01d8	0.10644883
58	0x3e102362	0.14075997
59	0xbc86a8a7	-0.016437842
60	0xbdc35e67	-0.0953949
61	0xbd9ce027	-0.07659941
62	0xbe40fb8c	-0.18845958
63	0x3da11b65	0.07866553
64	0xbdb4a4ef	-0.08820521
65	0x3d95460f	0.07288753
66	0xbdab54ab	-0.083657585
67	0x3c4f9874	0.012670625
68	0xbe1d4ae1	-0.15360595
69	0xbe0d13bc	-0.1377706
70	0xbe53d01f	-0.2068486
71	0xbd1c9f64	-0.038237944
72	0xbe5ad244	-0.21369272
73	0x3d9add8f	0.0756179
74	0x3d90b222	0.07065226
75	0xbdccbb68	-0.099966824
76	0x3e4ceea3	0.20012908
77	0xbe0770a6	-0.13226566
78	0xbd8bf931	-0.06834639
79	0x3e2fc28c	0.17164057
80	0xbe166e8e	-0.14690611
81	0x3e3a5293	0.18195562
82	0xbc8e80ab	-0.017395338
83	0xbe5a95cf	-0.2134621
84	0x3e4ea941	0.20181753
85	0xbde42c8c	-0.11141309
86	0x3e420afc	0.18949503
87	0x3d012504	0.03152944
88	0xbb636d68	-0.0034702662
89	0x3cc821e2	0.02443022
90	0x3e0a3493	0.13496618
91	0x3e2dfddb	0.1699137
92	0xbe3aa1cf	-0.18225788
93	0x3e511fde	0.20422313
94	0xbe3f5f9e	-0.18688819
95	0xbd7a3c52	-0.061092682
96	0x3d5f4196	0.054505907
97	0xbcc84e94	-0.024451531
98	0xbde72587	-0.11286455
99	0xbc887068	-0.016655162
100	0x3e02ab5b	0.1276068
101	0x3e183098	0.14862287
102	0x3deff9bf	0.11717557
103	0xbd3f6947	-0.04673126
104	0xbdd9efb8	-0.10641426
105	0x3af9f3b9	0.0019069827
106	0xbe2cf238	-0.16889274
107	0x3dbfb7c9	0.09361226
108	0xbdc477d5	-0.09593169
109	0xbe0c48bb	-0.1369962
110	0x3ccb317e	0.024803873
111	0xbda5b3e8	-0.08090955
112	0xbc8912aa	-0.016732533
113	0x3e074421	0.13209583
114	0x3d0d2968	0.034463316
115	0x3e3989e2	0.18119004
116	0xbd2e7b86	-0.04259827
117	0xbe3fd564	-0.18733746
118	0x3e3de367	0.18543778
119	0x3d0ef4e6	0.034901522
120	0xbd26798f	-0.04064327
121	0xbd5f565c	-0.054525718
122	0x3d8bce09	0.068264075
123	0xbe4bfc37	-0.19920431
124	0x3bd62a90	0.0065358356
125	0x3e5892d0	0.21149755
126	0xbe640ee4	-0.22271305
127	0xbda84101	-0.082155235
128	0xbd5f8192	-0.054566927
129	0x3b152a1c	0.0022760695
130	0x3e48c49c	0.1960625
131	0xbd89a5f9	-0.0672111
132	0xbe26c910	-0.16287637
133	0x3cf2d33d	0.029641742
134	0xbe260e77	-0.16216455
135	0xbe0d1c05	-0.1378022
136	0xbe58ca1a	-0.21170846
137	0x3e50f63a	0.20406428
138	0x3de864dc	0.113473624
139	0x3d309628	0.04311195
140	0xbd82d0c1	-0.06387473
141	0xbe0ffe87	-0.14061938
142	0x3e15d9eb	0.1463391
143	0x3c92a1a4	0.017899342
144	0x3d90f802	0.07078554
145	0x3b89e867	0.0042086127
146	0xbe2b7e07	-0.16747294
147	0xbddacfed	-0.1068419
148	0xbe4caf2f	-0.19988702
149	0x3d216252	0.039400406
150	0x3e10eb2a	0.14152208
151	0x3c61d602	0.013783934
152	0x3d75b34e	0.05998545
153	0xbdb0696b	-0.08613857
154	0xbd7ef5cc	-0.06224613
155	0xbd6fe9e9	-0.058572683
156	0x3da733c7	0.081641726
157	0x3e4d64ee	0.20058033
158	0x3dacd1d3	0.08438458
159	0xbd54581d	-0.051841844
160	0xbbb7a207	-0.005604032
161	0x3c83018c	0.015991949
162	0xbe2ede2a	-0.17076936
163	0xbd9eb29f	-0.07748913
164	0xbe22a9cb	-0.15885083
165	0x3e33af39	0.17547311
166	0xbb06a06c	-0.0020542396
167	0xbda43919	-0.08018703

actor.lin1p.bias f4 [8]
0	0xbe01c206	-0.1267167
1	0x3e151464	0.1455856
2	0xbdc34242	-0.09534122
3	0xbe21c388	-0.15797246
4	0xbe2d5e5d	-0.16930528
5	0x3e58ccef	0.21171926
6	0xbe2172a3	-0.15766387
7	0x3d5ad042	0.053421266

actor.bilinp.weight f4 [8, 8]
0	0xbe7012ea	-0.23444715
1	0x3e33f1dc	0.17572731
2	0xbdd4dba5	-0.10393456
3	0x3ea55500	0.32291412
4	0x3e538505	0.20656212
5	0x3d002afc	0.031290993
6	0xbe225490	-0.1585257
7	0xbe18fa60	-0.1493926
8	0x3d95d2b7	0.07315581
9	0x3e532766	0.20620498
10	0x3e98015e	0.29688543
11	0xbde2b58e	-0.11069785
12	0xbd79f1aa	-0.061021484
13	0x3daf4688	0.08558375
14	0x3c0776c4	0.008268062
15	0x3e3182ec	0.17335099
16	0x3e14feb3	0.14550285
17	0x3daca001	0.08428956
18	0xbded5189	-0.11587817
19	0x3e96b661	0.2943602
20	0x3c11fb7d	0.008910057
21	0x3d1c45b5	0.038152415
22	0x3e30315e	0.17206332
23	0xbe3df980	-0.18552208
24	0xbe2a2d14	-0.16618758
25	0xbda34c99	-0.07973594
26	0xbdee9277	-0.1164903
27	0xbe2cb404	-0.16865546
28	0xbe0100af	-0.12597917
29	0x3e9df3b7	0.30850002
30	0x3e82665a	0.25468713
31	0xbe952b1b	-0.2913445
32	0x3d9bc52b	0.07605966
33	0x3ea5b978	0.32368064
34	0x3aeb9190	0.0017972458
35	0xbd9818a2	-0.07426573
36	0x3e4c041b	0.19923441
37	0x3e283d47	0.16429625
38	0xbdc50e3d	-0.09621856
39	0x3e0bfe49	0.13671221
40	0xbe1d6ac7	-0.15372764
41	0x3ea40176	0.32032365
42	0x3e894dae	0.26817077
43	0xbe24fc30	-0.16111827
44	0x3e600897	0.21878277
45	0xbdf510f9	-0.11966128
46	0x3c9d4503	0.019197946
47	0xbd9b9221	-0.07596231
48	0x3db01c64	0.08599165
49	0xbead491c	-0.3384484
50	0xbe591866	-0.21200714
51	0xbea917fc	-0.3302611
52	0x3e83901e	0.2569589
53	0xbe62724c	-0.22113913
54	0x3e757624	0.23970848
55	0x3d0116db	0.031515937
56	0xbe8902b3	-0.26759872
57	0x3e0c5451	0.13704039
58	0x3e820e99	0.25401762
59	0xbe95e27c	-0.29274356
60	0x3dc7ad5e	0.09749864
61	0xbe7b1dcb	-0.24523084
62	0xbe9a02b6	-0.30080193
63	0xbe859e2a	-0.26097232

critic.conv1.bias f4 [21]
0	0xbe34f8ad	-0.17672987
1	0xbbc05cbc	-0.00587043
2	0x3eba879d	0.3643159
3	0x3bc3b024	0.0059719253
4	0xbe9164c6	-0.28397197
5	0x3e8e5250	0.27797174
6	0xbe98454e	-0.29740375
7	0x3bc10f7c	0.0058917385
8	0xbd75075b	-0.059821468
9	0x3e980e6c	0.29698503
10	0xbbbd521a	-0.0057776095
11	0x3e62f3af	0.2216327
12	0xbe4c6117	-0.19958912
13	0xbe658eff	-0.2241783
14	0x3e4a8e28	0.19780791
15	0x3e659939	0.22421731
16	0xbe73821d	-0.23780103
17	0x3ebb3f4a	0.36571723
18	0xbe71e08f	-0.23620819
19	0xbebeabee	-0.37240547
20	0xbe9b15ec	-0.30290163

critic.conv1.lin.weight f4 [21, 21]
0	0x3ea6a7fb	0.32550034
1	0x3eba909f	0.36438462
2	0x3ea33ba4	0.3188144
3	0xbdb2744b	-0.087135874
4	0x3e5a2c8e	0.21306059
5	0x3dfc4a33	0.1231884
6	0x3d991fc4	0.07476762
7	0x3ed24cce	0.41074222
8	0xbbec15ac	-0.007204732
9	0x3ed64c94	0.418553
10	0x3eaf499e	0.34235853
11	0xbebb5ae0	-0.3659277
12	0xbe3b8de0	-0.1831584
13	0x3ddbc2a6	0.107304856
14	0xbeb9d2d7	-0.3629367
15	0xbe87bacc	-0.26509702
16	0xbe353b22	-0.17698339
17	0x3e73f6a5	0.23824556
18	0x3e86a168	0.26295018
19	0xbdcd10ee	-0.10012995
20	0x3e1c4672	0.15261248
21	0x3e6b186d	0.22958536
22	0xbd0e7fae	-0.034789734
23	0xbe19d285	-0.15021713
24	0x3d193ede	0.03741347
25	0xbeacd909	-0.33759335
26	0xbe9e0949	-0.3086646
27	0xbb5f8edd	-0.0034112253
28	0x3e091d94	0.1339019
29	0x3e6eb44b	0.23310964
30	0xbea03494	-0.31290114
31	0x3d2e1c41	0.042507414
32	0xbe378aa4	-0.17923981
33	0xbd63b747	-0.05559471
34	0xbe7a95ee	-0.24471256
35	0xbeb06f54	-0.34459937
36	0x3e7da878	0.24771297
37	0xbe1c46e7	-0.15261422
38	0x3e5f7017	0.21820103
39	0xbe936a19	-0.28791884
40	0xbd174a49	-0.03693608
41	0x3e70880d	0.23489399
42	0xbc30e138	-0.010795884
43	0x3ef4bd93	0.47800884
44	0xbdc785cb	-0.09742316
45	0x3ed683db	0.41897473
46	0xbccc3257	-0.024926348
47	0x3e5b3a83	0.21409039
48	0xbe342692	-0.17592838
49	0x3e6c8d68	0.23100817
50	0xbeb52669	-0.35380867
51	0x3e2227b8	0.15835464
52	0xbea3ea74	-0.3201481
53	0x3e47e514	0.1952098
54	0x3ec7c43b	0.390169
55	0x3e5ff40a	0.21870437
56	0x3e12d5cc	0.1433937
57	0xbe910c85	-0.28329864
58	0xbe2b343e	-0.16719148
59	0xbe83d8e3	-0.2575141
60	0x3e72d6de	0.23714778
61	0xbabed690	-0.0014559794
62	0xbe810055	-0.25195566
63	0x3e9353b1	0.2877479
64	0xbd12c8fe	-0.035836212
65	0xbe79ea13	-0.24405698
66	0xbe2960a2	-0.16540769
67	0xbdac22d3	-0.0840508
68	0xbcfae37e	-0.030626055
69	0x3d6bcaed	0.057566572
70	0x3ea57839	0.32318285
71	0xbdf6cee9	-0.12051184
72	0xbd1bfb0c	-0.038081214
73	0x3da737e7	0.081649594
74	0x3d798440	0.06091714
75	0xbe8a0d5d	-0.2696332
76	0xbe7e46e6	-0.24831733
77	0xbe93f971	-0.28901246
78	0x3e721aeb	0.23643081
79	0xbe6cb185	-0.23114593
80	0xbdc04d84	-0.09389785
81	0xbe7486c6	-0.23879537
82	0xbeb9636f	-0.36208674
83	0x3eb4a378	0.35280967
84	0xbe474039	-0.19458093
85	0xbe79e745	-0.24404629
86	0xbd81e9ba	-0.06343408
87	0xbe8c8f76	-0.27453202
88	0x3ea5628d	0.3230175
89	0xbe65fd0a	-0.22459808
90	0x3c2944db	0.010331358
91	0x3e9af74e	0.30266804
92	0xbe8b310b	-0.27185854
93	0xbe217fe8	-0.15771449
94	0xbeb95148	-0.36194825
95	0xbe48307d	-0.19549747
96	0x3e983e97	0.29735252
97	0xbead6142	-0.33863264
98	0x3d55cc75	0.05219694
99	0x3e1a146f	0.15046857
100	0x3ea8982d	0.329286
101	0x3ea2d3b1	0.31802133
102	0x3e4cf33b	0.2001466
103	0xbe4d8654	-0.20070773
104	0xbd3c0c54	-0.045910195
105	0x3dbb128a	0.091343954
106	0xbd9ecf58	-0.077543914
107	0x3e534c56	0.20634589
108	0x3e2c1ea6	0.16808566
109	0xbc77847f	-0.015107273
110	0xbe37467a	-0.17897978
111	0xbe31e455	-0.17372258
112	0xbb2c5b24	-0.0026299441
113	0xbde2b636	-0.1106991
114	0xbe18b564	-0.14912945
115	0xbeba8ef9	-0.36437204
116	0x3dfe6466	0.12421493
117	0xbe880b02	-0.26570898
118	0xbe25d215	-0.16193421
119	0xbc942c09	-0.018087404
120	0x3eae7dde	0.34080404
121	0x3dd720d6	0.1050431
122	0x3db94bc4	0.09047654
123	0xbe406d13	-0.18791609
124	0x3e8a8832	0.27057034
125	0x3d263a81	0.040583137
126	0xbe3a39c9	-0.18186106
127	0x3e2a48b9	0.16629304
128	0xbe9cb4ac	-0.30606592
129	0xbed33210	-0.41249132
130	0x3e8987cf	0.26861426
131	0x3e2e8103	0.17041402
132	0x3eb9fa91	0.3632398
133	0x3e9f096c	0.31061876
134	0x3ec22723	0.37920484
135	0xbcc67a25	-0.024228165
136	0xbead04b3	-0.33792648
137	0x3ea5cc88	0.32382607
138	0x3d5b3c2a	0.053524174
139	0xbeb49598	-0.3527038
140	0xbe1bfbd6	-0.15232787
141	0xbeb58ed4	-0.35460532
142	0x3e381977	0.17978464
143	0x3ec8a7ed	0.39190617
144	0x3e0e50a5	0.13897951
145	0x3e937619	0.2880104
146	0xbdd44c16	-0.10366075
147	0x3e3c5536	0.1839188
148	0xbdc627da	-0.0967557
149	0x3e88f445	0.26748863
150	0x3e2c1898	0.16806257
151	0xbea8ddbf	-0.3298168
152	0x3e193d31	0.14964749
153	0xbeae5754	-0.34051
154	0x3e1ebcb2	0.15501669
155	0xbd86ac46	-0.06575827
156	0xbe9ce3ec	-0.3064264
157	0x3ae2251c	0.0017253491
158	0xbe416a35	-0.18888171
159	0xbeb7de90	-0.3591199
160	0x3d51d220	0.05122578
161	0x3e0000f6	0.12500367
162	0xbdebe1a4	-0.11517647
163	0xbe7ed193	-0.24884634
164	0xbebac7ed	-0.36480656
165	0x3e876ca1	0.26450065
166	0xbe83dcda	-0.25754434
167	0x3dc7f7dc	0.09764072
168	0xbda057dc	-0.07829258
169	0x3e4705f0	0.19435859
170	0x3e8f2bd0	0.27963114
171	0x3e9ad2e4	0.30239022
172	0xbe19802b	-0.14990298
173	0xbc4b2f39	-0.0124013955
174	0xbd044681	-0.0322938
175	0xbe9e0433	-0.3086258
176	0x3e88268f	0.26591918
177	0xbdbe4637	-0.09290736
178	0xbe68fa20	-0.22751665
179	0x3e968055	0.29394785
180	0xbe461963	-0.19345622
181	0x3dedd847	0.11613517
182	0x3ead60ef	0.33863017
183	0xbe7c0263	-0.24610285
184	0xbe6f6230	-0.233773
185	0xbe58c7fe	-0.21170041
186	0x3e280621	0.16408588
187	0x3ea1d6fa	0.31609327
188	0x3e74b1f3	0.23896007
189	0x3e1062b9	0.1410016
190	0x3ef2ccc2	0.47421843
191	0xbe32c5ad	-0.1745822
192	0xba07617e	-0.0005164369
193	0x3e91e432	0.28494412
194	0x3da4b9bd	0.08043239
195	0xbe268165	-0.16260298
196	0x3ddb9d17	0.10723322
197	0x3e8da47a	0.27664548
198	0x3e6d4aae	0.2317302
199	0x3e44bcf8	0.19212711
200	0xbdc86ee8	-0.09786779
201	0xbebe4670	-0.37163115
202	0x3ba7b170	0.0051175877
203	0xbe2bdc62	-0.16783288
204	0x3ca07ed8	0.019591734
205	0x3e235ec7	0.15954123
206	0xbc3884f5	-0.011262168
207	0x3db7d8c3	0.08976891
208	0x3ca7da54	0.02048985
209	0x3d1dc855	0.03852113
210	0x3dab53e3	0.083656095
211	0xbe1e34f4	-0.15449888
212	0x3e96aa1b	0.29426655
213	0xbe51d1c2	-0.20490173
214	0x3e00066c	0.1250245
215	0xbd387dfb	-0.04504202
216	0x3e4d535e	0.20051333
217	0xbdf8b1e2	-0.121433035
218	0xbead47dd	-0.3384389
219	0xbeb8b7e8	-0.3607781
220	0xbdc234d1	-0.0948273
221	0x3da0cce2	0.07851578
222	0xbe56af82	-0.20965388
223	0xbe6f95ed	-0.23397036
224	0xbe7b5b51	-0.24546553
225	0xbe659d21	-0.22423221
226	0x3ea023d7	0.31277344
227	0xbeba1d76	-0.36350602
228	0x3dc3b1cc	0.095553964
229	0xbe8e877f	-0.2783775
230	0x3e0ada92	0.1355994
231	0xbe87ad00	-0.26499176
232	0x3e8ec605	0.27885452
233	0x3e3a5f52	0.18200424
234	0x3ec99bc9	0.39376667
235	0x3ebcfe96	0.36912984
236	0xbde7ead5	-0.113240875
237	0x3e93946e	0.2882418
238	0x3d9b60ca	0.075868204
239	0x3e65b93f	0.22433947
240	0x3d02d617	0.031942453
241	0x3da53729	0.080671616
242	0xbd8f3a04	-0.069934875
243	0xbe5c5d88	-0.21520054
244	0x3d529a76	0.051416837
245	0x3e9e7aea	0.3095315
246	0xbd0f2fef	-0.034957822
247	0xbd84ce79	-0.06484694
248	0x3de7268e	0.112866506
249	0x3d932676	0.0718507
250	0xbe37a06a	-0.17932287
251	0x3e95dfa7	0.29272196
252	0x3e4f8f9d	0.20269628
253	0xbe3fb92b	-0.1872298
254	0xbe68d8ca	-0.22738948
255	0x3e5c4558	0.21510828
