saved_files/ckpt/nyc4/a2c_gnn_test_price-variable.pth (torch, 286706 bytes, 55 tensors)

log_rate f4 [16, 16]
20.0 20.0 20.0 20.0 20.0 20.0 20.0 20.0
20.0 20.0 20.0 20.0 20.0 20.0 20.0 20.0
20.0 20.0 20.0 20.0 20.0 20.0 20.0 20.0
20.0 20.0 20.0 20.0 20.0 20.0 20.0 20.0
20.0 20.0 20.0 20.0 20.0 20.0 20.0 20.0
20.0 20.0 20.0 20.0 20.0 20.0 20.0 20.0
20.0 20.0 20.0 20.0 20.0 20.0 20.0 20.0
20.0 20.0 20.0 20.0 20.0 20.0 20.0 20.0
20.0 20.0 20.0 20.0 20.0 20.0 20.0 20.0
20.0 20.0 20.0 20.0 20.0 20.0 20.0 20.0
20.0 20.0 20.0 20.0 20.0 20.0 20.0 20.0
20.0 20.0 20.0 20.0 20.0 20.0 20.0 20.0
20.0 20.0 20.0 20.0 20.0 20.0 20.0 20.0
20.0 20.0 20.0 20.0 20.0 20.0 20.0 20.0
20.0 20.0 20.0 20.0 20.0 20.0 20.0 20.0
20.0 20.0 20.0 20.0 20.0 20.0 20.0 20.0
20.0 20.0 20.0 20.0 20.0 20.0 20.0 20.0
20.0 20.0 20.0 20.0 20.0 20.0 20.0 20.0
20.0 20.0 20.0 20.0 20.0 20.0 20.0 20.0
20.0 20.0 20.0 20.0 20.0 20.0 20.0 20.0
20.0 20.0 20.0 20.0 20.0 20.0 20.0 20.0
20.0 20.0 20.0 20.0 20.0 20.0 20.0 20.0
20.0 20.0 20.0 20.0 20.0 20.0 20.0 20.0
20.0 20.0 20.0 20.0 20.0 20.0 20.0 20.0
20.0 20.0 20.0 20.0 20.0 20.0 20.0 20.0
20.0 20.0 20.0 20.0 20.0 20.0 20.0 20.0
20.0 20.0 20.0 20.0 20.0 20.0 20.0 20.0
20.0 20.0 20.0 20.0 20.0 20.0 20.0 20.0
20.0 20.0 20.0 20.0 20.0 20.0 20.0 20.0
20.0 20.0 20.0 20.0 20.0 20.0 20.0 20.0
20.0 20.0 20.0 20.0 20.0 20.0 20.0 20.0
20.0 20.0 20.0 20.0 20.0 20.0 20.0 20.0
00000000: 0000 a041 0000 a041 0000 a041 0000 a041
00000010: 0000 a041 0000 a041 0000 a041 0000 a041
00000020: 0000 a041 0000 a041 0000 a041 0000 a041
00000030: 0000 a041 0000 a041 0000 a041 0000 a041
00000040: 0000 a041 0000 a041 0000 a041 0000 a041
00000050: 0000 a041 0000 a041 0000 a041 0000 a041
00000060: 0000 a041 0000 a041 0000 a041 0000 a041
00000070: 0000 a041 0000 a041 0000 a041 0000 a041
00000080: 0000 a041 0000 a041 0000 a041 0000 a041
00000090: 0000 a041 0000 a041 0000 a041 0000 a041
000000a0: 0000 a041 0000 a041 0000 a041 0000 a041
000000b0: 0000 a041 0000 a041 0000 a041 0000 a041
000000c0: 0000 a041 0000 a041 0000 a041 0000 a041
000000d0: 0000 a041 0000 a041 0000 a041 0000 a041
000000e0: 0000 a041 0000 a041 0000 a041 0000 a041
000000f0: 0000 a041 0000 a041 0000 a041 0000 a041
00000100: 0000 a041 0000 a041 0000 a041 0000 a041
00000110: 0000 a041 0000 a041 0000 a041 0000 a041
00000120: 0000 a041 0000 a041 0000 a041 0000 a041
00000130: 0000 a041 0000 a041 0000 a041 0000 a041
00000140: 0000 a041 0000 a041 0000 a041 0000 a041
00000150: 0000 a041 0000 a041 0000 a041 0000 a041
00000160: 0000 a041 0000 a041 0000 a041 0000 a041
00000170: 0000 a041 0000 a041 0000 a041 0000 a041
00000180: 0000 a041 0000 a041 0000 a041 0000 a041
00000190: 0000 a041 0000 a041 0000 a041 0000 a041
000001a0: 0000 a041 0000 a041 0000 a041 0000 a041
000001b0: 0000 a041 0000 a041 0000 a041 0000 a041
000001c0: 0000 a041 0000 a041 0000 a041 0000 a041
000001d0: 0000 a041 0000 a041 0000 a041 0000 a041
000001e0: 0000 a041 0000 a041 0000 a041 0000 a041
000001f0: 0000 a041 0000 a041 0000 a041 0000 a041
00000200: 0000 a041 0000 a041 0000 a041 0000 a041
00000210: 0000 a041 0000 a041 0000 a041 0000 a041
00000220: 0000 a041 0000 a041 0000 a041 0000 a041
00000230: 0000 a041 0000 a041 0000 a041 0000 a041
00000240: 0000 a041 0000 a041 0000 a041 0000 a041
00000250: 0000 a041 0000 a041 0000 a041 0000 a041
00000260: 0000 a041 0000 a041 0000 a041 0000 a041
00000270: 0000 a041 0000 a041 0000 a041 0000 a041
00000280: 0000 a041 0000 a041 0000 a041 0000 a041
00000290: 0000 a041 0000 a041 0000 a041 0000 a041
000002a0: 0000 a041 0000 a041 0000 a041 0000 a041
000002b0: 0000 a041 0000 a041 0000 a041 0000 a041
000002c0: 0000 a041 0000 a041 0000 a041 0000 a041
000002d0: 0000 a041 0000 a041 0000 a041 0000 a041
000002e0: 0000 a041 0000 a041 0000 a041 0000 a041
000002f0: 0000 a041 0000 a041 0000 a041 0000 a041
00000300: 0000 a041 0000 a041 0000 a041 0000 a041
00000310: 0000 a041 0000 a041 0000 a041 0000 a041
00000320: 0000 a041 0000 a041 0000 a041 0000 a041
00000330: 0000 a041 0000 a041 0000 a041 0000 a041
00000340: 0000 a041 0000 a041 0000 a041 0000 a041
00000350: 0000 a041 0000 a041 0000 a041 0000 a041
00000360: 0000 a041 0000 a041 0000 a041 0000 a041
00000370: 0000 a041 0000 a041 0000 a041 0000 a041
00000380: 0000 a041 0000 a041 0000 a041 0000 a041
00000390: 0000 a041 0000 a041 0000 a041 0000 a041
000003a0: 0000 a041 0000 a041 0000 a041 0000 a041
000003b0: 0000 a041 0000 a041 0000 a041 0000 a041
000003c0: 0000 a041 0000 a041 0000 a041 0000 a041
000003d0: 0000 a041 0000 a041 0000 a041 0000 a041
000003e0: 0000 a041 0000 a041 0000 a041 0000 a041
000003f0: 0000 a041 0000 a041 0000 a041 0000 a041

actor.conv1.bias f4 [21]
-0.008348773 0.0 -0.03314347 0.0 0.03745329 0.0 0.08378519 0.089369126
0.08586826 -0.009092042 -0.03204981 -0.010311661 0.018080391 0.0 0.0 0.0
-0.0066347276 0.04503012 -0.015060828 0.06484232 -0.011766463
00000000: 4bc9 08bc 0000 0000 72c1 07bd 0000 0000
00000010: 9f68 193d 0000 0000 9297 ab3d 2907 b73d
00000020: b3db af3d caf6 14bc a946 03bd 3ef2 28bc
00000030: 541d 943c 0000 0000 0000 0000 0000 0000
00000040: 2168 d9bb 8171 383d b1c1 76bc 0dcc 843d
00000050: 1fc8 40bc

actor.conv1.lin.weight f4 [21, 21]
0.32805222 -0.07654834 0.07863165 0.11510208 0.32109427 -0.28929284 -0.34742045 0.069605924
-0.22219127 0.10127815 -0.014111923 -0.06418336 -0.2761524 -0.10964574 0.10690724 -0.3818213
0.07662771 0.30261567 0.135244 0.08776633 -0.0614938 -0.14404422 -0.066218436 -0.18866828
0.04415551 -0.28750825 -0.29727072 -0.22860795 0.030765235 0.27436945 0.11532 0.25480232
0.21195707 -0.22523946 -0.022505403 0.3341758 -0.117672056 -0.16420893 0.09788647 -0.374468
0.19795391 -0.2540594 -0.023355562 0.11661925 -0.04402932 0.1392374 0.20455761 0.021675924
-0.33620918 -0.0049833627 -0.21880782 0.08156709 -0.2799955 0.16169491 0.0031672788 0.14724515
-0.23111705 -0.04669283 0.25530112 -0.17838234 -0.38124138 0.058818545 0.13781734 0.03429413
0.34904954 -0.2912528 0.15326378 -0.16204223 0.29278573 0.19657794 -0.08713707 -0.087103724
0.19980666 -0.33475038 -0.03672898 -0.2047862 0.19808647 -0.26260012 -0.23102558 -0.32046473
0.082849145 -0.27538303 -0.07544896 -0.019995332 0.42345196 0.34646106 0.36354095 0.3496193
-0.08441133 0.29301777 0.3461534 0.42879358 0.4633982 0.13931528 0.06815258 0.3503427
0.30951017 0.3371773 -0.29544342 0.36987364 0.22850884 -0.07951039 0.35101143 0.35486582
0.31638587 0.117081136 -0.23871268 0.034735233 -0.12948342 -0.059082687 0.1558474 0.009688318
0.096767336 -0.2610918 0.23790601 -0.23453951 -0.13493317 0.31139013 0.31595573 -0.21769036
0.15480348 -0.23882104 0.28174815 -0.05520737 -0.37565368 -0.25859168 0.08037688 0.120129965
0.35200816 -0.16604023 0.21025044 -0.048932526 0.50419307 -0.022327399 0.030576557 0.54871815
0.11411593 0.08636569 0.16624112 0.09146852 0.22754507 0.27132377 0.083238155 0.45369703
0.34986967 -0.21694432 -0.04062418 -0.10983558 0.34078956 0.33296916 0.43011343 0.46545622
-0.020227376 0.43859288 0.2536067 0.12690696 0.38133046 0.071164645 -0.22287197 0.19396663
0.20958255 0.023894155 0.46922743 0.28569603 0.06760177 0.002592658 0.2863543 0.429346
-0.0107407905 0.15902622 0.13127333 0.45083565 0.5130568 0.1420998 0.47961095 0.50483125
0.0045097955 -0.10405384 0.4850456 0.17310002 -0.24490285 0.4015695 0.46482235 0.39810148
0.09393418 0.29862264 0.349746 -0.111840695 0.08949046 0.22421813 -0.28795105 0.2912147
0.21870019 0.054124396 -0.25001428 -0.34071013 0.2781473 0.25925297 0.08497701 0.311488
-0.27619046 0.0962411 -0.33140403 0.030646345 -0.02647828 0.2151293 -0.19260988 -0.32894638
0.10322921 -0.07168173 0.0032948642 -0.25616887 0.24547604 0.28248417 -0.15433428 -0.2861393
0.20601985 -0.29968697 -0.17857 -0.3727998 -0.2540685 -0.056856364 0.13524885 -0.20737845
0.27638105 -0.07772989 0.030654017 -0.20400368 0.27610037 -0.203233 0.06924571 0.21367118
0.08203324 0.11322451 -0.3156676 0.15591471 0.3478382 -0.0049924525 0.11199656 -0.18910639
0.09709244 0.04093623 -0.1228053 0.08194926 0.041940853 -0.35229874 0.23268466 -0.06616322
0.11677091 -0.35953632 -0.13067088 -0.018738167 0.35300884 -0.04282704 0.23281066 0.26536217
00000000: 76f6 a73e 60c5 9cbd a109 a13d a4ba eb3d
00000010: 7866 a43e 311e 94be 18e1 b1be 8d8d 8e3d
00000020: 1c86 63be eb6a cf3d b235 67bc 9172 83bd
00000030: d963 8dbe f28d e0bd 2ff2 da3d 157e c3be
00000040: fdee 9c3d 71f0 9a3e 677d 0a3e d5be b33d
00000050: ece0 7bbd 5480 13be 889d 87bd 4232 41be
00000060: 68dc 343d 4834 93be de33 98be 3418 6abe
00000070: 6007 fc3c 277a 8c3e e42c ec3d 7375 823e
00000080: 460b 593e 2ca5 66be 405d b8bc 1719 ab3e
00000090: 0cfe f0bd 6326 28be b478 c83d 45ba bfbe
000000a0: 6eb4 4a3e 1314 82be 2a54 bfbc 13d6 ee3d
000000b0: 1758 34bd 4094 0e3e 8d77 513e b591 b13c
000000c0: 9c23 acbe 7a4b a3bb 280f 60be a50c a73d
000000d0: 925b 8fbe 5a93 253e 1f92 4f3b 6fc7 163e
000000e0: f3a9 6cbe fb40 3fbd d4b6 823e dca9 36be
000000f0: 1232 c3be b7eb 703d fd1f 0d3e 0078 0c3d
00000100: 9fb6 b23e 161f 95be 2ef1 1c3e 66ee 25be
00000110: 03e8 953e ba4b 493e ec74 b2bd 7063 b2bd
00000120: 1e9a 4c3e 6764 abbe 2071 16bd 79b3 51be
00000130: 2ed7 4a3e 8673 86be f891 6cbe f413 a4be
00000140: d0ac a93d 01ff 8cbe fc84 9abd 40cd a3bc
00000150: b2ce d83e 5863 b13e 0a22 ba3e 4d01 b33e
00000160: d9df acbd 6d06 963e 053b b13e d58a db3e
00000170: 8742 ed3e aaa8 0e3e 9493 8b3d 1e60 b33e
00000180: 1e78 9e3e 81a2 ac3e 5c44 97be 1460 bd3e
00000190: 39fe 693e 58d6 a2bd c5b7 b33e f9b0 b53e
000001a0: 54fd a13e 3cc8 ef3d 1971 74be 8846 0e3d
000001b0: 4d97 04be b000 72bd 7696 1f3e c0bb 1e3c
000001c0: f42d c63d d3ad 85be a29d 733e 202b 70be
000001d0: ec2b 0abe 876e 9f3e f3c4 a13e 39ea 5ebe
000001e0: ce84 1e3e 818d 74be 4b41 903e 2021 62bd
000001f0: ae55 c0be 2166 84be a29c a43d b306 f63d
00000200: 6a3a b43e 7306 2abe e44b 573e 796d 48bd
00000210: cc12 013f f3e7 b6bc b07b fa3c cb78 0c3f
00000220: 9db5 e93d 7fe0 b03d 1d3b 2a3e d953 bb3d
00000230: 9301 693e f3ea 8a3e c478 aa3d fa4a e83e
00000240: 1e22 b33e a726 5ebe 8a65 26bd 7af1 e0bd
00000250: f87b ae3e ef7a aa3e d437 dc3e 4750 ee3e
00000260: e2b3 a5bc 3f8f e03e bdd8 813e e6f3 013e
00000270: bf3d c33e c5be 913d 8d38 64be 309f 463e
00000280: cf9c 563e adbd c33c 943e f03e c046 923e
00000290: cc72 8a3d 95e9 293b 089d 923e 3dd3 db3e
000002a0: 24fa 2fbc c5d7 223e 846c 063e eed3 e63e
000002b0: b157 033f 9c82 113e 918f f53e 9f3c 013f
000002c0: e8c6 933b 2e1a d5bd e657 f83e 2241 313e
000002d0: d0c7 7abe 849a cd3e 32fd ed3e f5d3 cb3e
000002e0: 9060 c03d 11e5 983e e811 b33e bc0c e5bd
000002f0: c646 b73d 7099 653e 526e 93be 181a 953e
00000300: f1f2 5f3e 8bb1 5d3d df01 80be 8f71 aebe
00000310: 5369 8e3e cebc 843e 6d08 ae3d 5b7b 9f3e
00000320: d668 8dbe 0e1a c53d caad a9be 0b0e fb3c
00000330: fae8 d8bc db4a 5c3e 863b 45be a96b a8be
00000340: d669 d33d dfcd 92bd a6ee 573b 9128 83be
00000350: 125e 7b3e c4a1 903e ce09 1ebe da80 92be
00000360: def6 523e 9270 99be 0edb 36be 9edf bebe
00000370: 4415 82be 38e2 68bd ad7e 0a3e 045b 54be
00000380: d181 8d3e d930 9fbd 221e fb3c 57e6 50be
00000390: 075d 8d3e 501c 50be b2d0 8d3d 9ecc 5a3e
000003a0: 0b01 a83d 40e2 e73d 2f9f a1be 1ba8 1f3e
000003b0: d917 b23e ba97 a3bb 745e e53d 1ba5 41be
000003c0: 67d8 c63d c0ac 273d 5881 fbbd 03d5 a73d
000003d0: 2cca 2b3d 8060 b4be e344 6e3e 9580 87bd
000003e0: 9625 ef3d 2515 b8be 96ce 05be c980 99bc
000003f0: 93bd b43e 686b 2fbd eb65 6e3e 8ddd 873e

actor.lin1.weight f4 [32, 21]
-0.084401846 -0.09994132 -0.14964639 0.22393757 -0.057653952 -0.00981755 -0.022553507 -0.09947089
0.1346514 -0.10271132 0.088897705 0.1328327 -0.12580386 -0.012718662 -0.10560561 -0.11767322
-0.122045815 -0.06813044 -0.09094733 0.09924597 0.021527195 0.2948975 0.28092596 -0.02118437
0.07209994 0.31807292 0.34651235 -0.016987078 0.33612376 0.3763704 0.23298325 0.34274313
-0.04004639 -0.07338543 -0.0018984454 -0.024605706 -0.2388273 0.046356577 0.24055822 0.20767526
0.22898197 -0.043679077 0.30392495 0.070624456 0.013597766 0.29000762 0.081888646 0.38229877
0.16436149 0.27290854 0.1636084 0.2218918 0.10637142 -0.019484805 0.03369524 -0.15646467
-0.10970706 -0.011322197 0.20059216 0.09668576 0.084901944 0.18685113 0.14138679 0.1641349
0.23238936 0.09562743 0.44600645 0.26330155 0.20539045 0.3243725 0.26221865 0.30221564
0.45615706 0.38648188 -0.13769908 0.01947216 0.054308187 0.04864486 0.20218767 0.05923471
-0.15784304 -0.08536564 0.18140173 0.016367516 -0.03683088 0.09011428 -0.13544229 0.10115468
-0.21132492 -0.13854817 0.078354225 -0.078261234 -0.21794441 0.0010228299 -0.06570877 -0.124472894
0.09645815 -0.08647607 -0.12449804 0.12055258 0.11351925 0.023367612 -0.044123277 0.1730227
-0.11775724 -0.019842042 0.32848907 0.07148159 0.040162247 -0.03079315 0.2329366 0.34356254
0.1832867 -0.066019654 0.19878943 0.11124302 0.016893432 0.13899073 0.14351013 -0.106176764
0.060485736 0.12483079 0.19898699 0.15396039 -0.039144896 0.053017672 -0.18909426 -0.21494484
0.121285155 -0.051940605 -0.054673076 0.1868973 0.11632748 -0.19887546 0.12562044 -0.19438109
0.047444835 0.0018904805 0.0343004 -0.07314965 0.18832092 -0.1568394 -0.049877986 0.012916565
0.03769748 -0.04344727 -0.046730965 0.32434672 0.29529005 0.294057 0.11611394 0.15211406
0.39569306 0.38599086 0.22158171 0.37680757 0.30785018 0.34054142 0.015291569 0.102445684
0.08202876 -0.065821975 -0.13802552 0.019398501 0.14670162 -0.1277495 0.17539436 -0.05198466
-0.12650314 0.1575369 0.003242055 0.16519122 -0.154706 -0.18618725 -0.17065197 0.075249314
0.012503427 0.18205401 -0.03210298 -0.104704455 -0.09701634 -0.14033963 -0.016692713 -0.17033738
-0.056198876 0.04183977 0.0997984 0.041122258 0.17518562 0.19742784 0.3735205 0.010055832
0.026664821 0.14731985 0.10973349 0.3849356 0.30211022 0.37570217 0.4735099 0.11879008
-0.16353779 -0.18012618 -0.05364623 0.17242381 0.07734713 -0.1971874 0.115614735 0.070198536
0.08928126 0.17111644 -0.20545658 -0.09679377 0.08781178 0.18187402 -0.21100679 0.03749706
0.21429415 0.047638103 0.113962635 -0.13615134 -0.19705248 0.10411365 -0.13327101 -0.14594254
0.026356384 0.20611243 0.058413193 -0.035814643 -0.012856051 -0.09832912 -0.10978161 0.042265553
-0.16393527 -0.27395302 -0.27584365 -0.26307705 -0.13481918 -0.2253535 0.09740427 -0.22027002
-0.1209294 0.071883515 0.12977314 0.18161944 -0.10864055 0.013067847 0.19211748 -0.0059152874
-0.1713633 0.14251003 0.10763388 0.20029001 0.4606413 0.36603877 0.20465341 0.0900805
00000000: e0da acbd 09ae ccbd e73c 19be e44f 653e
00000010: 8d26 6cbd cad9 20bc 22c2 b8bc 65b7 cbbd
00000020: 0ee2 093e 505a d2bd 0010 b63d 4c05 083e
00000030: bad2 00be ef61 50bc c147 d8bd a8fe f0bd
00000040: 28f3 f9bd f987 8bbd 9842 babd 7941 cb3d
00000050: cd59 b03c cefc 963e 87d5 8f3e d88a adbc
00000060: 22a9 933d 74da a23e 116a b13e 7c28 8bbc
00000070: 6a18 ac3e 9fb3 c03e 2993 6e3e 077c af3e
00000080: af07 24bd 1a4b 96bd 42d5 f8ba e891 c9bc
00000090: 258f 74be 65e0 3d3d e554 763e d3a8 543e
000000a0: 407a 6a3e d5e8 32bd 0d9c 9b3e 8ea3 903d
000000b0: 2ac9 5e3c e17b 943e 3cb5 a73d aabc c33e
000000c0: 614e 283e abba 8b3e f688 273e 9b37 633e
000000d0: 42d9 d93d 999e 9fbc 0504 0a3d 4638 20be
000000e0: 18ae e0bd bc80 39bc 0868 4d3e 2f03 c63d
000000f0: 12e1 ad3d e755 3f3e b3c7 103e fb12 283e
00000100: 7af7 6d3e 50d8 c33d f55a e43e 76cf 863e
00000110: e051 523e 2714 a63e 8641 863e 02bc 9a3e
00000120: 6b8d e93e f4e0 c53e fd00 0dbe 1484 9f3c
00000130: 4372 5e3d d53f 473d 490a 4f3e 18a0 723d
00000140: 9ba1 21be 2ed4 aebd 60c1 393e 2b15 863c
00000150: fadb 16bd d68d b83d 62b1 0abe 2f2a cf3d
00000160: 8f65 58be 92df 0dbe 2e78 a03d 6d47 a0bd
00000170: d22c 5fbe 7a10 863a 5292 86bd a5eb febd
00000180: da8b c53d 5e1a b1bd d4f8 febd 45e4 f63d
00000190: c87c e83d 6f6d bf3c 9cba 34bd dd2c 313e
000001a0: b52a f1bd c78b a2bc b82f a83e f164 923d
000001b0: 2b81 243d eb41 fcbc ef86 6e3e 6ee7 af3e
000001c0: 82af 3b3e 5035 87bd 758f 4b3e 61d3 e33d
000001d0: 1864 8a3c 9653 0e3e 52f4 123e 3473 d9bd
000001e0: e4bf 773d 49a7 ff3d 3fc3 4b3e cba7 1d3e
000001f0: 6656 20bd 0f29 593d eda1 41be 801a 5cbe
00000200: 5a64 f83d acbf 54bd e0f0 5fbd 0162 3f3e
00000210: 1a3d ee3d 02a6 4bbe a5a2 003e d60b 47be
00000220: 8455 423d 00ca f73a 947e 0c3d 7ccf 95bd
00000230: 33d7 403e 829a 20be dc4c 4cbd 00a0 533c
00000240: ac68 1a3d c4f5 31bd f868 3fbd c610 a63e
00000250: 4230 973e a48e 963e 25cd ed3d cac3 1b3e
00000260: 4898 ca3e 98a0 c53e 51e6 623e ecec c03e
00000270: 8a9e 9d3e 725b ae3e 7d89 7a3c 0bcf d13d
00000280: b2fe a73d accd 86bd 9056 0dbe 9be9 9e3c
00000290: f338 163e c4d0 02be 949a 333e deed 54bd
000002a0: 0a8a 01be 5a51 213e a878 543b e327 293e
000002b0: 406b 1ebe dfa7 3ebe 64bf 2ebe 501c 9a3d
000002c0: 2ddb 4c3c 5e6c 3a3e 6a7e 03bd 4a6f d6bd
000002d0: 81b0 c6bd 31b5 0fbe 28bf 88bc ec6c 2ebe
000002e0: cb30 66bd 2e60 2b3d 1b63 cc3d d06f 283d
000002f0: dc63 333e 862a 4a3e 143e bf3e 37c1 243c
00000300: 2f70 da3c 04db 163e f4bb e03d 4716 c53e
00000310: 31ae 9a3e 095c c03e e46f f23e 3748 f33d
00000320: 7376 27be ff72 38be 26bc 5bbd de8f 303e
00000330: 2c68 9e3d 7eeb 49be 6bc7 ec3d 40c4 8f3d
00000340: 18d9 b63d 2639 2f3e 3663 52be d03b c6bd
00000350: aad6 b33d 2f3d 3a3e 2a12 58be 8496 193d
00000360: ed6f 5b3e 2c20 433d 3e65 e93d 426b 0bbe
00000370: 20c8 49be 8a39 d53d 3278 08be f671 15be
00000380: 58e9 d73c 230f 533e ac42 6f3d 60b2 12bd
00000390: 30a2 52bc c760 c9bd 2ed5 e0bd a51e 2d3d
000003a0: a6de 27be 9243 8cbe 613b 8dbe 09b2 86be
000003b0: 0a0e 0abe 11c3 66be e47b c73d 778e 61be
000003c0: d5a9 f7bd aa37 933d 40e3 043e 72fa 393e
000003d0: f07e debd 861a 563c 72ba 443e 07d5 c1bb
000003e0: dc79 2fbe 26ee 113e 276f dc3d d318 4d3e
000003f0: 2dd9 eb3e 6f69 bb3e aa90 513e 207c b83d

actor.lin1.bias f4 [32]
0.15379886 0.01411897 0.045237396 0.09090877 0.17671365 0.0012124573 -0.15399146 0.07870001
-0.061176296 0.058581896 -0.06577648 0.04184707 0.16321717 0.093777105 -0.03354093 0.03124426
0.1621811 0.2185397 0.19670747 0.29369482 -0.19094798 0.019448075 0.1694174 0.14335044
-0.018610284 -0.03841358 -0.049181458 0.22813942 0.049033556 0.047094956 0.22285385 -0.2101344
00000000: 737d 1d3e 4153 673c d94a 393d 612e ba3d
00000010: 6cf4 343e 51eb 9e3a f0af 1dbe 792d a13d
00000020: ff93 7abd 92f3 6f3d d2b5 86bd d567 2b3d
00000030: 6722 273e 360e c03d 3762 09bd f6f3 ff3c
00000040: cd12 263e dfc8 5f3e af6d 493e 2b5f 963e
00000050: de87 43be 9251 9f3c c17b 2d3e 75ca 123e
00000060: 9874 98bc 8f57 1dbd 7f72 49bd 619d 693e
00000070: 69d7 483d a4e6 403d cd33 643e 792d 57be

actor.lin2.weight f4 [32, 32]
-0.10502775 0.13069873 0.27060902 0.30817607 -0.15489748 0.1516492 -0.013741225 0.27437025
-0.14940113 0.18445128 0.06583454 0.01583855 0.31601602 0.10746358 0.27974275 0.09334886
-0.15190378 -0.04955909 0.1561383 0.29600582 -0.03663526 0.21076512 0.015629083 0.16288213
0.031472847 -0.09547301 -0.07914397 0.24408069 0.101886965 0.06480421 0.16261539 -0.10076043
-0.09136752 -0.17228262 -0.13442573 -0.03495097 0.16382782 -0.07218107 -0.04092461 -0.17053548
-0.1660824 -0.054740682 -0.060203 0.13682167 -0.1048187 -0.115535274 0.042246297 -0.045273006
0.17406638 0.072837934 -0.016262427 0.015051842 -0.16399872 0.04585229 -0.11469683 -0.07161306
-0.034288466 -0.06529843 -0.018100023 -0.07133693 0.004884228 0.013935223 -0.02132614 0.095889255
-0.0679957 -0.043704074 -0.010158895 0.01766018 -0.00991922 0.17153591 0.1494539 -0.14881322
-0.15116777 -0.11237015 -0.05042413 0.13966526 -0.050792754 -0.0921418 -0.020641983 0.07379342
-0.010032793 0.03335548 0.11355844 -0.10694723 -0.12069929 -0.13811691 -0.05773551 0.10559657
0.041664377 -0.08805699 -0.118592165 0.11297106 -0.010846837 0.075436935 -0.06833255 0.07952528
-0.14952333 0.20946735 0.068966195 0.08222211 0.14704509 0.19600607 0.035103798 0.14391832
-0.08061601 0.10201215 0.0012470484 -0.0864994 0.1453421 -0.17372282 -0.009952971 0.011984007
0.11659881 0.11937291 0.06852042 0.29552302 -0.11962744 0.18105155 0.01832129 0.1594044
0.035629153 -0.16385162 0.11046282 0.21852846 -0.09642679 -0.097684905 0.08138242 0.1742614
-0.14402235 -0.17479175 0.05561478 0.14959161 0.12164335 -0.004004382 0.06301786 -0.08850643
-0.01800777 0.07069306 -0.0500302 -0.04869927 -0.034931734 -0.06680807 0.062435195 -0.008325806
0.10384394 -0.019869747 0.115958445 -0.10825506 -0.045659855 0.124479115 0.004032403 -0.15915851
0.090674445 -0.14461914 -0.08506178 0.10647563 0.14818056 -0.14541943 -0.18407708 -0.0211256
-0.12370479 0.24035765 0.15978229 0.33453217 -0.08666697 0.1999302 -0.067440666 0.34891754
-0.13078032 0.13104637 -0.1370416 -0.17598954 0.26020074 -0.06443895 0.12422495 0.27141738
-0.14597021 0.18796198 -0.06483374 0.15618409 0.06319349 0.18143584 -0.123547286 0.06957622
-0.16197725 0.04251317 -0.14569066 0.0054637785 -0.1708836 0.0883504 0.27966568 -0.11698835
-0.1387893 -0.17802367 -0.0009820434 0.0100718625 -0.12633336 -0.062055748 -0.16888545 -0.17762949
-0.019634053 0.045422215 -0.06295658 0.10612881 0.117241465 0.051584512 0.029760685 -0.021924768
0.013400855 -0.17890655 0.15357865 -0.18160675 -0.06696302 0.078566164 0.1432846 -0.16751221
-0.053832486 0.16405664 -0.19034557 0.09586726 0.062252223 0.05980958 -0.15136887 -0.13456583
0.12824613 0.18849997 0.08901644 0.35301977 0.14027119 0.16571592 0.095533386 0.29523265
0.17044945 0.1190108 -0.16780782 -0.14347294 0.15597066 0.12833022 -0.07736334 0.22060727
0.11713273 0.22499053 0.032924477 0.19438022 -0.0680058 0.2385355 -0.01871489 0.12206038
-0.127757 0.08073641 -0.111683704 0.21649942 -0.018394865 0.07326405 0.23429036 0.0768943
00000000: ca18 d7bd e3d5 053e 448d 8a3e 41c9 9d3e
00000010: 729d 1ebe ee49 1b3e e022 61bc 427a 8c3e
00000020: 9cfc 18be cce0 3c3e 42d4 863d d9bf 813c
00000030: dacc a13e de15 dc3d 713a 8f3e b02d bf3d
00000040: aa8c 1bbe 79fe 4abd b8e2 1f3e 138e 973e
00000050: db0e 16bd d0d2 573e 9008 803c 93ca 263e
00000060: ace9 003d 5a87 c3bd 3c16 a2bd 4af0 793e
00000070: 1daa d03d 12b8 843d a684 263e 7c5b cebd
00000080: e51e bbbd db6a 30be e6a6 09be c028 0fbd
00000090: 7bc2 273e abd3 93bd 90a0 27bd daa0 2ebe
000000a0: 8111 2abe c437 60bd 6c97 76bd fb1a 0c3e
000000b0: 30ab d6bd c29d ecbd 740a 2d3d 3070 39bd
000000c0: 753e 323e 0e2c 953d c838 85bc 009c 763c
000000d0: 48ef 27be 9ccf 3b3d 2ce6 eabd dea9 92bd
000000e0: 1072 0cbd 2fbb 85bd 8046 94bc 1919 92bd
000000f0: e00b a03b 9050 643c 28b4 aebc 9661 c43d
00000100: 5441 8bbd 0b03 33bd 7e71 26bc 15ac 903c
00000110: 3984 22bc 1ca7 2f3e 710a 193e 7e62 18be
00000120: b9cb 1abe 5222 e6bd 8889 4ebd 6904 0f3e
00000130: 100c 50bd d7b4 bcbd 6019 a9bc 0121 973d
00000140: 9560 24bc c19f 083d 5491 e83d 2607 dbbd
00000150: 3031 f7bd 856e 0dbe 127c 6cbd 0443 d83d
00000160: 44a8 2a3d 3957 b4bd 73e0 f2bd 5f5d e73d
00000170: efb6 31bc ae7e 9a3d f0f1 8bbd 26de a23d
00000180: a51c 19be 9c7e 563e 263e 8d3d 1164 a83d
00000190: fd92 163e d1b5 483e 00c9 0f3d 535f 133e
000001a0: 021a a5bd bfeb d03d 0074 a33a 9926 b1bd
000001b0: 8fd4 143e 65e4 31be c911 23bc 9258 443c
000001c0: 5bcb ee3d c979 f43d 6f54 8c3d cb4e 973e
000001d0: 3bff f4bd 9465 393e 8816 963c e83a 233e
000001e0: e0ef 113d b8c8 27be 553a e23d edc5 5f3e
000001f0: 697b c5bd 060f c8bd d4ab a63d 9571 323e
00000200: 987a 13be 9cfc 32be 53cc 633d 8b2e 193e
00000210: 2620 f93d 3137 83bb 820f 813d dc42 b5bd
00000220: 0885 93bc 86c7 903d 78ec 4cbd e378 47bd
00000230: 9414 0fbd abd2 88bd 0cbc 7f3d f668 08bc
00000240: 22ac d43d e1c5 a2bc 9f7b ed3d d4b4 ddbd
00000250: d405 3bbd e8ee fe3d 4022 843b 73fa 22be
00000260: 86b3 b93d 0a17 14be df34 aebd e50f da3d
00000270: a5bc 173e d5e8 14be b47e 3cbe 980f adbc
00000280: f058 fdbd 5120 763e f89d 233e cd47 ab3e
00000290: 747e b1bd 81ba 4c3e 551e 8abd 52a5 b23e
000002a0: 47eb 05be 0531 063e a254 0cbe 9a36 34be
000002b0: 0839 853e 91f8 83bd a769 fe3d 38f7 8a3e
000002c0: 3779 15be 1b79 403e 8dc7 84bd b9ee 1f3e
000002d0: 976b 813d 51ca 393e 5c06 fdbd fa7d 8e3d
000002e0: 5ddd 25be 4a22 2e3d ef2f 15be 7f09 b33b
000002f0: 1cfc 2ebe 0ef1 b43d 5730 8f3e 9797 efbd
00000300: c81e 0ebe d64b 36be e9b7 80ba 7404 253c
00000310: 885d 01be 2b2e 7ebd 4ff0 2cbe 81e4 35be
00000320: 98d7 a0bc a50c 3a3d 61ef 80bd 105a d93d
00000330: 4b1c f03d 484a 533d aecc f33c 929b b3bc
00000340: 428f 5b3c 4733 37be b943 1d3e 1ff7 39be
00000350: e823 89bd 4ce7 a03d 33b9 123e 5288 2bbe
00000360: 747f 5cbd 77fe 273e f3e9 42be 0e56 c43d
00000370: 30fc 7e3d e4fa 743d 7100 1bbe a0cb 09be
00000380: f452 033e 2306 413e 404e b63d 02bf b43e
00000390: 40a3 0f3e 6fb1 293e 02a7 c33d bc28 973e
000003a0: 4d8a 2e3e efbb f33d d0d5 2bbe 92ea 12be
000003b0: c6b6 1f3e ff68 033e ac70 9ebd dfe6 613e
000003c0: 49e3 ef3d eb63 663e d1db 063d 9c0b 473e
000003d0: a046 8bbd a642 743e f84f 99bc cbfa f93d
000003e0: bbd2 02be 2259 a53d 6dba e4bd 06b2 5d3e
000003f0: d4b0 96bc 760b 963d d0e9 6f3e c27a 9d3d

actor.lin2.bias f4 [32]
-0.051372327 -0.003159538 -0.10659169 0.2301666 -0.1670738 0.25487605 -0.065065585 0.2074735
0.05321651 -0.0913674 -0.090473756 0.11949189 0.03715377 0.08547653 0.15622897 0.2122161
0.06441801 0.17257944 0.091513656 -0.014885052 0.21426539 0.00027936645 -0.010294203 0.13887632
-0.10236875 0.059748325 -0.059509896 0.13470367 -0.0011208355 0.06522926 0.11855693 -0.0061789653
00000000: ca6b 52bd 4010 4fbb be4c dabd cbb0 6b3e
00000010: 6515 2bbe 1d7f 823e 1b41 85bd ef73 543e
00000020: 8ef9 593d d51e bbbd 4e4a b9bd 2ab8 f43d
00000030: 8d2e 183d 520e af3d 7dfa 1f3e 2d4f 593e
00000040: 97ed 833d aab8 303e 836b bb3d 6fe0 73bc
00000050: 6368 5b3e ee77 9239 04a9 28bc 9835 0e3e
00000060: b5a6 d1bd a9ba 743d a6c0 73bd c2ef 093e
00000070: 00e9 92ba eb96 853d facd f23d eb78 cabb

actor.lin3.weight f4 [1, 32]
0.32755336 0.15027152 -0.1371856 0.1692682 -0.034393635 0.22575758 0.005290043 0.3047181
-0.14416003 -0.096192166 0.27466774 -0.09202452 0.37591705 0.06412061 0.18218616 0.19196852
-0.12899362 -0.012418226 0.24724399 -0.09203412 0.25073153 -0.023709573 -0.105661884 -0.09584325
-0.09052876 -0.014916272 0.25472024 0.30645224 -0.057882205 0.34638202 0.21414204 0.36459222
00000000: 13b5 a73e c7e0 193e 627a 0cbe a554 2d3e
00000010: 57e0 0cbd ff2c 673e 1958 ad3b 0304 9c3e
00000020: b09e 13be 6600 c5bd 40a1 8c3e 5a77 bcbd
00000030: 3378 c03e ab51 833d 028f 3a3e 6593 443e
00000040: e716 04be d175 4bbc 872d 7d3e 627c bcbd
00000050: e25f 803e 943a c2bc 4265 d8bd 7749 c4bd
00000060: 2467 b9bd 6163 74bc b16a 823e 4fe7 9c3e
00000070: e415 6dbd fc58 b13e 0d48 5b3e d5ab ba3e

actor.lin4.weight f4 [32, 32]
-0.06982104 -0.15609153 -0.018133203 -0.1989395 0.09652403 -0.08487409 0.1347545 -0.049657274
0.14011495 0.10223317 -0.14686887 0.03056594 -0.16914959 -0.07718719 -0.08481676 -0.07805598
0.09843613 0.065106794 0.06762679 -0.1284929 0.13625644 0.1428307 0.0365476 0.052477065
0.13015129 0.050058927 -0.03481661 -0.012139387 -0.15967166 -0.096318044 0.13510895 -0.10711331
-0.037863333 0.1170173 0.04663691 -0.11108238 0.07585988 0.029932644 -0.07011505 -0.15095863
-0.1288338 -0.05563942 0.047164932 -0.11452844 0.08038858 0.102605835 -0.10918052 0.08271482
-0.13438308 0.15054707 0.16653113 0.07975802 -0.13388768 0.0004053436 0.13184921 -0.09200508
-0.04901488 -0.106851496 -0.10412047 0.04918178 0.14774941 0.07877542 -0.14411673 0.032300293
-0.086362176 0.03916867 0.10851093 -0.026829183 0.16411598 0.08353339 -0.04297328 -0.10767461
0.124995634 0.056517065 -0.10480433 0.10758357 0.121705666 0.0071021616 -0.16342945 -0.02777031
-0.14623797 -0.14699198 0.03041707 -0.026743412 -0.092992194 0.16373153 -0.03223802 -0.118924156
0.16752298 0.13834803 0.04575059 -0.16505928 0.15220465 -0.115869924 0.04275419 -0.03358081
-0.11689541 0.010511493 0.06266612 -0.1404762 -0.12090595 -0.05514572 -0.16321881 0.07712552
-0.16864225 0.08944168 0.03939262 -0.032183506 0.004478639 -0.13743228 -0.013527051 0.10822408
-0.026499553 0.047389016 -0.12024571 0.106117085 -0.059651855 0.033762272 -0.096719384 -0.1312409
0.15845357 -0.04623431 -0.10708862 -0.20041563 0.14343528 0.056535184 -0.050171904 0.10015552
-0.051128194 -0.13033983 0.04590911 -0.04693874 -0.038012087 -0.15166396 -0.056662664 -0.055452734
0.16811348 -0.060925562 -0.124877736 0.11033257 -0.13379681 -0.12920666 0.1681167 -0.05345235
0.035998464 -0.025395928 -0.012306582 0.02836285 0.0892297 -0.0103515275 0.022746801 -0.098110646
-0.08279116 0.06277016 0.10345048 0.040878527 -0.10254627 0.02215755 0.17454843 0.053927824
-0.14656381 -0.16729288 0.011660835 0.059781633 0.009760827 0.10133676 -0.027810767 -0.15785462
-0.0104121715 -0.028241303 -0.0014333129 -0.106457606 0.08953404 0.1606281 -0.08767819 -0.07319849
-0.04568398 -0.20024161 0.042115003 0.07208656 -0.049847305 0.1332404 -0.0056965053 -0.20346813
-0.14156385 -0.12085402 0.13762541 -0.03679391 -0.16363677 -0.1683856 0.07040662 -0.07334411
0.13386132 0.11846632 -0.18104579 0.041287843 -0.07625665 0.030218018 0.03658709 -0.18105757
-0.16541077 -0.052024283 0.15168302 -0.0034638166 -0.08948294 0.16202901 0.118830435 0.10203954
-0.029732121 -0.15698314 -0.18286657 0.0542667 -0.12950988 0.04486348 -0.05096136 0.07362041
0.15673245 -0.14394516 0.04312833 0.01982172 -0.014234866 -0.07796309 -0.10475649 0.123340294
0.16496022 0.018775195 -0.09549304 -0.111247346 0.102453366 0.07542531 0.115305886 0.0029108077
-0.15739277 -0.0710391 -0.022772864 -0.15231746 -0.13704029 -0.11662501 -0.1456756 -0.03843616
0.04734707 0.06996754 0.031998158 0.06849159 -0.17675862 -0.030679718 -0.003314361 -0.024528787
-0.072471775 0.08188178 -0.045991585 -0.07595134 0.10918374 -0.06697157 -0.023454547 -0.002872184
00000000: 55fe 8ebd 75d6 1fbe 158c 94bc ccb6 4bbe
00000010: 64ae c53d 78d2 adbd 15fd 093e 6d65 4bbd
00000020: 4b7a 0f3e a05f d13d cb64 16be 6c65 fa3c
00000030: 8d35 2dbe 5114 9ebd 69b4 adbd d0db 9fbd
00000040: e298 c93d b656 853d ea7f 8a3d a593 03be
00000050: cf86 0b3e 3642 123e f0b2 153d 31f2 563d
00000060: 6146 053e 970a 4d3d dd9b 0ebd 48e4 46bc
00000070: f880 23be 6542 c5bd 005a 0a3e 395e dbbd
00000080: 9516 1bbd c4a6 ef3d 5806 3f3d 297f e3bd
00000090: 6d5c 9b3d 4e35 f53c 7b98 8fbd e694 1abe
000000a0: 02ed 03be 29e6 63bd 0430 413d e38d eabd
000000b0: c5a2 a43d 0223 d23d 099a dfbd 6366 a93d
000000c0: b89b 09be 0329 1a3e 2387 2a3e 2c58 a33d
000000d0: da19 09be 4c84 d439 7b03 073e 296d bcbd
000000e0: d4c3 48bd f5d4 dabd 1d3d d5bd d672 493d
000000f0: 9f4b 173e 0255 a13d 5693 13be 504d 043d
00000100: a7de b0bd 546f 203d fa3a de3d e0c8 dbbc
00000110: 050e 283e 8e13 ab3d c004 30bd 8284 dcbd
00000120: b6fd ff3d 707e 673d a7a3 d6bd c654 dc3d
00000130: d240 f93d 40b9 e83b 0d5a 27be 907e e3bc
00000140: 68bf 15be 1185 16be 382d f93c 0015 dbbc
00000150: b172 bebd 3da9 273e 040c 04bd 828e f3bd
00000160: 258b 2b3e 1bab 0d3e f864 3b3d 4d05 29be
00000170: 89db 1b3e 364d edbd 041f 2f3d 088c 09bd
00000180: dc66 efbd 6638 2c3c 1857 803d fed8 0fbe
00000190: 8a9d f7bd 7ae0 61bd d522 27be fcf3 9d3d
000001a0: 8eb0 2cbe 332d b73d 285a 213d dad2 03bd
000001b0: 8cc1 923b 0cbb 0cbe 90a0 5dbc 96a4 dd3d
000001c0: 9715 d9bc fc1a 423d 6243 f6bd ea53 d93d
000001d0: 8155 74bd 4f4a 0a3d d014 c6bd 0464 06be
000001e0: a741 223e 3060 3dbd 4751 dbbd c139 4dbe
000001f0: b3e0 123e 7091 673d 0e81 4dbd 561e cd3d
00000200: cc6b 51bd ce77 05be 310b 3c3d d642 40bd
00000210: 90b2 1bbd cc4d 1bbe 1c17 68bd 6822 63bd
00000220: f125 2c3e 158d 79bd e6bf ffbd 0bf6 e13d
00000230: 0802 09be c04e 04be c926 2c3e daf0 5abd
00000240: 2073 133d 1f0b d0bc 8ca1 49bc 3559 e83c
00000250: 10be b63d 7499 29bc 8057 ba3c 3cee c8bd
00000260: 698e a9bd a48d 803d d8dd d33d 3e70 273d
00000270: c703 d2bd c083 b53c d3bc 323e 6ce3 5c3d
00000280: d314 16be d34e 2bbe 160d 3f3c 96dd 743d
00000290: e0eb 1f3c a689 cf3d 68d3 e3bc a4a4 21be
000002a0: d097 2abc 4e5a e7bc 00de bbba 7206 dabd
000002b0: 9f5d b73d b17b 243e 9f90 b3bd 17e9 95bd
000002c0: 201f 3bbd 230c 4dbe c880 2c3d 1ea2 933d
000002d0: b02c 4cbd 2c70 083e c0a9 babb f359 50be
000002e0: 1df6 10be 5082 f7bd aded 0c3e 36b5 16bd
000002f0: 6690 27be 466d 2cbe 5931 903d 7035 96bd
00000300: f112 093e 789e f23d 1164 39be 711d 293d
00000310: 722c 9cbd c78b f73c 58dc 153d 2867 39be
00000320: 7161 29be 6a17 55bd cb52 1b3e 3301 63bb
00000330: d542 b7bd efea 253e 5f5d f33d 1bfa d03d
00000340: c790 f3bc 30c0 20be 6041 3bbe c246 5e3d
00000350: 3d9e 04be c5c2 373d dcbc 50bd 4cc6 963d
00000360: 797e 203e 5c66 13be 55a7 303d 2961 a23c
00000370: 5b39 69bc 1dab 9fbd 928a d6bd d699 fc3d
00000380: 55eb 283e 70ce 993c db91 c3bd a6d5 e3bd
00000390: 12d3 d13d 9678 9a3d 7e25 ec3d 40c3 3e3b
000003a0: 922b 21be f37c 91bd 288e babc 1cf9 1bbe
000003b0: 4a54 0cbe 18d9 eebd fc2b 15be 3c6f 1dbd
000003c0: 00ef 413d 244b 8f3d 8010 033d 5245 8c3d
000003d0: 3600 35be 0854 fbbc c035 59bb 98f0 c8bc
000003e0: 156c 94bd a2b1 a73d ac61 3cbd 608c 9bbd
000003f0: ba9b df3d 6428 89bd c023 c0bc 403b 3cbb

actor.lin4.bias f4 [32]
-0.1597633 -0.0977298 -0.098370425 -0.15346585 -0.08257231 -0.13591614 0.009009809 -0.05965233
-0.17327952 -0.15267862 -0.10560068 -0.03190927 0.074938215 -0.21375258 0.14053512 -0.104499675
0.08005758 -0.015440908 -0.08470677 0.07247542 -0.010983632 -0.1251171 0.12690368 -0.060025197
-0.16482633 0.06950823 -0.15541264 0.09652308 0.11987162 0.0507154 -0.16507947 0.026078152
00000000: fe98 23be 9026 c8bd 6f76 c9bd 2726 1dbe
00000010: ac1b a9bd 9a2d 0bbe e19d 133c 0056 74bd
00000020: 3070 31be c957 1cbe 2b45 d8bd 4bb3 02bd
00000030: 3579 993d f5e1 5abe 70e8 0f3e ed03 d6bd
00000040: 3af5 a33d ddfb 7cbc be7a adbd fe6d 943d
00000050: b1f4 33bc b21e 00be 0af3 013e fbdc 75bd
00000060: 3cc8 28be 555a 8e3d 7e24 1fbe e4ad c53d
00000070: 407f f53d f4ba 4f3d 980a 29be d9a1 d53c

actor.bilin.weight f4 [16, 32, 32]
0.15387261 -0.059376042 0.035256043 -0.087147005 0.07892527 0.016213894 0.07863633 -0.105212085
0.16377911 0.081331275 -0.13901585 0.06752878 0.06342344 -0.14466287 -0.17186303 -0.030399904
0.0017302483 0.07539691 -0.1807611 0.1348568 0.08139944 -0.12992103 -0.1251454 0.11914641
-0.1477106 -0.02072923 -0.094872616 -0.15658161 -0.1051741 0.04052289 -0.09074276 0.12618785
-0.077249475 0.15549825 0.067147404 0.16469832 0.15604666 -0.058915496 -0.13520841 0.05062388
0.15196054 -0.020042656 -0.00416255 0.1757622 0.04537856 -0.0662575 -0.07123609 0.012830645
-0.05627066 -0.0058999406 0.035532344 0.119766876 -0.02983004 -0.1097084 0.21741596 0.038662832
0.007629644 0.121132135 0.120822564 -0.14261827 0.1241638 -0.04427977 -0.015722856 -0.13437511
-0.16553788 -0.15596847 -0.15186405 -0.13047044 0.005101502 0.16433845 0.0874529 -0.108579345
-0.11397869 0.13003458 0.04509753 -0.06144239 -0.032919824 0.113254175 0.1126077 -0.10376497
-0.12539405 -0.00087948143 -0.020928904 -0.14953719 -0.1199466 0.062217534 0.13109566 -0.1526618
0.05599244 -0.04226774 -0.11995241 -0.047702685 -0.1333886 -0.16996321 0.16424058 0.055273905
0.0896061 0.1632079 -0.07026775 -0.09149055 0.07319036 0.050890848 -0.04416599 -0.022905976
0.1553916 0.14733677 0.012070611 -0.08761089 -0.13412821 0.029432122 -0.16845642 -0.0060329884
-0.06377328 -0.12686339 0.16734043 0.1506555 -0.14699063 -0.15696067 0.059585672 -0.08421573
-0.10415081 -0.16660325 0.081912085 -0.06764662 -0.114113405 -0.1274476 0.1650334 0.0123937335
0.009354398 0.11469487 0.018520162 0.011010565 0.12704723 -0.05358862 0.06856481 -0.076736726
0.04386571 -0.018509662 0.00632371 -0.060928646 0.025636375 0.018257888 -0.09212069 0.11841802
0.11444868 0.13765413 -0.030500825 -0.14636815 0.07332166 0.16525221 -0.012578089 -0.118535556
0.16942123 -0.08495927 0.05558172 0.090162694 0.0044211196 -0.049325317 0.055081774 -0.10278029
0.1176901 -0.12584575 -0.123584546 0.036400646 -0.10964079 -0.15757164 -0.0146482885 0.10963024
-0.14672068 0.061925236 0.031390786 0.13491939 0.09435643 0.13321657 0.17675965 -0.019928887
-0.061631992 -0.06507222 -0.10996506 0.1543781 -0.074665755 0.040780574 -0.14473478 -0.13391529
0.10765223 0.15314098 -0.12957321 -0.16713436 0.023214906 0.14958651 -0.16791704 0.028597668
0.14481036 0.03348995 0.054607928 0.023792678 0.06152881 0.09931524 0.20537955 0.16226064
-0.025783995 -0.03535989 -0.009534031 0.18239649 -0.14165083 0.0036133546 0.063276045 0.044964537
-0.0388671 0.16842522 0.06806678 0.1292397 -0.095304094 -0.056215048 0.10534423 -0.090735756
0.19589248 0.16780287 0.07284658 0.13822584 0.15964599 -0.12463781 -0.10064052 0.06770825
-0.13071257 0.044299617 0.024091497 -0.13846216 0.03364727 0.12444751 -0.17477748 -0.021714821
0.04353498 0.078219935 -0.0959873 0.094131574 -0.023529828 0.102329984 -0.17210951 -0.0024896562
0.09232707 -0.107330956 0.036244586 -0.084133685 0.08015533 -0.10758558 0.10764624 -0.06698021
-0.041599482 -0.045863926 -0.14143397 0.13546072 -0.03989917 0.13047378 0.14431657 -0.06165228
00000000: c890 1d3e 4b34 73bd a468 103d 217a b2bd
00000010: 92a3 a13d 00d3 843c 160c a13d 6f79 d7bd
00000020: b6b5 273e 0391 a63d 2c5a 0ebe 874c 8a3d
00000030: 26e4 813d 8122 14be ddfc 2fbe 3809 f9bc
00000040: 80c9 e23a b269 9a3d 7019 39be e717 0a3e
00000050: c0b4 a63d 050a 05be 1e26 00be 0803 f43d
00000060: 7341 17be 59d0 a9bc 934c c2bd ee56 20be
00000070: 8565 d7bd 54fb 253d 57d7 b9bd 6337 013e
00000080: f934 9ebd ef3a 1f3e 9484 893d ada6 283e
00000090: b2ca 1f3e 6051 71bd 1374 0abe fc5a 4f3d
000000a0: 8b9b 1b3e 7f30 a4bc 0066 88bb 02fb 333e
000000b0: dede 393d 03b2 87bd 3ae4 91bd a037 523c
000000c0: 107c 66bd 4a54 c1bb 5d8a 113d 5648 f53d
000000d0: 215e f4bc ccae e0bd 4aa2 5e3e eb5c 1e3d
000000e0: 1802 fa3b 2014 f83d d271 f73d 860a 12be
000000f0: 9749 fe3d b45e 35bd 38cd 80bc a199 09be
00000100: c382 29be 33b6 1fbe 4082 1bbe 0b9a 05be
00000110: 802a a73b 5748 283e 821a b33d d95e debd
00000120: a96d e9bd c927 053e 30b8 383d 04ab 7bbd
00000130: f0d6 06bd cef1 e73d de9e e63d bb82 d4bd
00000140: 4c67 00be 008d 66ba 1873 abbc 4720 19be
00000150: 90a6 f5bd d0d7 7e3d f13d 063e 6053 1cbe
00000160: 5458 653d f020 2dbd 9ca9 f5bd e463 43bd
00000170: 0597 08be d60a 2ebe af2e 283e e466 623d
00000180: 6783 b73d f91f 273e 8ae8 8fbd 665f bbbd
00000190: d4e4 953d ec72 503d 66e7 34bd 50a5 bbbc
000001a0: fa1e 1f3e 73df 163e d0c3 453c 576d b3bd
000001b0: e858 09be a21b f13c d77f 2cbe 60b0 c5bb
000001c0: 919b 82bd 7ae8 01be 4a5b 2b3e 6f45 1a3e
000001d0: b684 16be 4cba 20be 1b10 743d 4c79 acbd
000001e0: 054d d5bd 0b9a 2abe 86c1 a73d 508a 8abd
000001f0: 4ab4 e9bd a081 02be 84fe 283e 160f 4b3c
00000200: 3043 193c 25e5 ea3d 98b7 973c a865 343c
00000210: ab18 023e be7f 5bbd b56b 8c3d 2528 9dbd
00000220: 88ac 333d 93a1 97bc 2037 cf3b 5190 79bd
00000230: 6003 d23c 9191 953c c6a9 bcbd 2685 f23d
00000240: 1264 ea3d 34f5 0c3e dedc f9bc 88e1 15be
00000250: ab29 963d e037 293e 5414 4ebc c5c2 f2bd
00000260: c27c 2d3e 20ff adbd a8a9 633d 38a7 b83d
00000270: 0adf 903b 5809 4abd 6d9d 613d 797e d2bd
00000280: 8207 f13d b5dd 00be e519 fdbd d818 153d
00000290: 5a8b e0bd 765a 21be 60ff 6fbc d285 e03d
000002a0: f23d 16be 51a5 7d3d a093 003d 4f28 0a3e
000002b0: f23d c13d ed69 083e 7b00 353e e841 a3bc
000002c0: d471 7cbd 9644 85bd 5d35 e1bd 4b15 1e3e
000002d0: 5cea 98bd 8809 273d 5b35 14be 1721 09be
000002e0: c678 dc3d fdd0 1c3e d7ae 04be 4525 2bbe
000002f0: 302d be3c 352d 193e 72f2 2bbe a845 ea3c
00000300: 2b49 143e c22c 093d 90ac 5f3d dde8 c23c
00000310: a205 7c3d ca65 cb3d 044f 523e a727 263e
00000320: f538 d3bc 88d5 10bd a034 1cbc 25c6 3a3e
00000330: ea0c 11be 08ce 6c3b df96 813d bc2c 383d
00000340: 1c33 1fbd a977 2c3e 9966 8b3d 6957 043e
00000350: cb2e c3bd c041 66bd b7be d73d abd3 b9bd
00000360: 0a98 483e 84d4 2b3e 9630 953d 138b 0d3e
00000370: 3d7a 233e 1c42 ffbd 9e1c cebd 9faa 8a3d
00000380: 84d9 05be 8473 353d 885b c53c 06c9 0dbe
00000390: b8d1 093d 56de fe3d def8 32be 48e3 b1bc
000003a0: bc51 323d c631 a03d fd94 c4bd 0ec8 c03d
000003b0: a0c1 c0bc 6292 d13d 7a3d 30be 8029 23bb
000003c0: fa15 bd3d 55d0 dbbd 3475 143d 484e acbd
000003d0: 7a28 a43d d455 dcbd a275 dc3d ec2c 89bd
000003e0: 3864 2abd d0db 3bbd 11d4 10be 37b6 0a3e
000003f0: 506d 23bd eb9a 053e b9c7 133e 1a87 7cbd

actor.bilin.bias f4 [16]
-0.05866142 -0.04896055 0.077908285 -0.06856719 0.18210658 -0.062217295 0.13341902 0.004624254
0.087949485 0.20342453 0.004321214 0.20543635 -0.07059281 -0.18563579 -0.051858585 0.052678116
00000000: f546 70bd dc8a 48bd 618e 9f3d f46c 8cbd
00000010: 267a 3a3e 90d7 7ebd ff9e 083e 0e87 973b
00000020: dc1e b43d 854e 503e f898 8d3b e85d 523e
00000030: f792 90bd 4f17 3ebe ab69 54bd 02c5 573d

critic.conv1.bias f4 [21]
-0.16495673 0.0 0.33106035 0.0 -0.22270417 0.24858133 -0.2683887 0.0
-0.047972433 0.2376658 0.0 0.1665526 -0.19735283 -0.18947737 0.19027293 0.18215205
-0.21094374 0.34013537 -0.19444534 -0.3365701 -0.26659334
00000000: 6bea 28be 0000 0000 be80 a93e 0000 0000
00000010: 900c 64be 1b8c 7e3e 3e6a 89be 0000 0000
00000020: be7e 44bd aa5e 733e 0000 0000 c48c 2a3e
00000030: dc16 4abe 5b06 42be e8d6 423e 1186 3a3e
00000040: a301 58be 3926 ae3e ae1c 47be eb52 acbe
00000050: ec7e 88be

critic.conv1.lin.weight f4 [21, 21]
0.33313107 0.37214905 0.33203244 -0.073349364 0.22905365 0.13544433 0.0845727 0.41893023
0.000479868 0.4262341 0.35004863 -0.36037028 -0.17447415 0.112244315 -0.35888845 -0.26022306
-0.17441125 0.23979178 0.2628721 -0.09437511 0.1562159 0.23541436 -0.028929502 -0.1443693
0.043252945 -0.33176005 -0.30283397 0.0024180114 0.1397309 0.23893747 -0.30707154 0.048336416
-0.17329623 -0.049754947 -0.23899397 -0.33901843 0.25326607 -0.14696571 0.22390774 -0.2821392
-0.031137556 0.24073038 0.00662071 0.4705167 -0.099868916 0.4213704 -0.010440238 0.22574393
-0.16199677 0.24781996 -0.33644143 0.17571865 -0.3027889 0.2066212 0.39932632 0.23100862
0.15812922 -0.2727105 -0.1628437 -0.25095117 0.24261834 -0.0013214822 -0.24921073 0.28819278
-0.041739255 -0.24998276 -0.17121261 -0.08822268 -0.032485902 0.05778575 0.32347527 -0.12006694
-0.037635505 0.08209449 0.054925382 -0.2643883 -0.2429611 -0.28365222 0.2418361 -0.22578923
-0.08845243 -0.23419893 -0.3578947 0.35809383 -0.19462852 -0.20866288 -0.036016732 -0.25458774
0.32442233 -0.2183144 0.014203402 0.3031184 -0.27186123 -0.1577016 -0.3619359 -0.18724807
0.30668044 -0.3334821 0.055471804 0.15900354 0.34979331 0.33583698 0.21758354 -0.17403916
-0.021420216 0.10586348 -0.08254275 0.20547839 0.17024246 -0.0041751782 -0.17009059 -0.16242637
0.011200369 -0.09622481 -0.13465883 -0.34990782 0.13202897 -0.26085138 -0.15283026 -0.0065634614
0.34748593 0.10573038 0.091965325 -0.18614788 0.2667824 0.03805108 -0.18803498 0.17438057
-0.30007133 -0.40845582 0.26648778 0.16965592 0.36069226 0.30508116 0.3731148 -0.030367797
-0.34404975 0.31872335 0.051056456 -0.35697457 -0.15663467 -0.35730883 0.17966864 0.39186665
0.14154208 0.29486838 -0.10615052 0.17825505 -0.10265809 0.26159367 0.1622133 -0.33555287
0.14395812 -0.34618464 0.14935294 -0.07142204 -0.31209826 -0.0039384067 -0.18888171 -0.3591199
0.05122578 0.12500367 -0.11517647 -0.24884634 -0.36480656 0.26450065 -0.25754434 0.09764072
-0.092997916 0.19371538 0.28200182 0.29368395 -0.1663453 -0.027402138 -0.047828086 -0.3234763
0.25107738 -0.107602686 -0.24222916 0.2766929 -0.20827654 0.09300512 0.32241613 -0.2487758
-0.23184367 -0.2065697 0.16237837 0.3193671 0.26118404 0.14923216 0.44661453 -0.19510363
-0.011164065 0.29334724 0.083394475 -0.1577366 0.115236424 0.28487265 0.23990251 0.20030063
-0.08966718 -0.3664392 0.013861161 -0.15955514 0.020161586 0.15373132 -0.0168971 0.082619414
0.0027924227 0.018064797 0.08935684 -0.14869662 0.29954723 -0.1989786 0.130671 -0.039366007
0.206301 -0.115760624 -0.33273816 -0.35508072 -0.08912656 0.08450106 -0.20965388 -0.23397036
-0.24546553 -0.22423221 0.31277344 -0.36350602 0.095553964 -0.2783775 0.1355994 -0.25834712
0.25089222 0.16068403 0.38170022 0.3764864 -0.11208369 0.2910576 0.08226 0.23095962
0.03853236 0.08726378 -0.051071048 -0.19787292 0.072219014 0.33178437 -0.017641341 -0.060791377
0.11278761 0.06775284 -0.19177586 0.28436658 0.20463717 -0.18533754 -0.22538218 0.21722086
00000000: 2890 aa3e 528a be3e 2800 aa3e 3138 96bd
00000010: 0a8d 6a3e ebb1 0a3e 7434 ad3d 067e d63e
00000020: cb96 fb39 5b3b da3e 9339 b33e 7482 b8be
00000030: 5aa9 32be 59e0 e53d 3ac0 b7be f53b 85be
00000040: dd98 32be fa8b 753e 2c97 863e bd47 c1bd
00000050: 10f7 1f3e 7610 713e 90fd ecbc 8cd5 13be
00000060: 002a 313d 74dc a9be 0e0d 9bbe 8077 1e3b
00000070: 9e15 0f3e 06ac 743e 7b38 9dbe 68fc 453d
00000080: 9174 31be d8cb 4bbd d6ba 74be d393 adbe
00000090: 17ac 813e 2e7e 16be 1248 653e 8d74 90be
000000a0: 3014 ffbc 0682 763e 8af2 d83b 91e7 f03e
000000b0: 1388 ccbd dcbd d73e 880d 2bbc 6b29 673e
000000c0: 7be2 25be 84c4 7d3e 0d42 acbe 97ef 333e
000000d0: 2607 9bbe 8294 533e 8074 cc3e 868d 6c3e
000000e0: a0ec 213e b6a0 8bbe 80c0 26be ac7c 80be
000000f0: f170 783e 9635 adba 1931 7fbe 018e 933e
00000100: c8f6 2abd 7bfb 7fbe 5c52 2fbe 18ae b4bd
00000110: f00f 05bd c0b0 6c3d 8d9e a53e a8e5 f5bd
00000120: b027 1abd 2821 a83d 70f9 603d e75d 87be
00000130: cbca 78be dd3a 91be e2a3 773e 4b35 67be
00000140: 8c26 b5bd d8d1 6fbe f93d b7be 1358 b73e
00000150: b34c 47be b9ab 55be 4886 13bd 5359 82be
00000160: af1a a63e cf8d 5fbe 63b5 683c 5632 9b3e
00000170: 6531 8bbe 877c 21be aa4f b9be f5bd 3fbe
00000180: 3805 9d3e 2abe aabe 6736 633d d3d1 223e
00000190: 1c18 b33e d3f2 ab3e 38ce 5e3e 5237 32be
000001a0: 7379 afbc f4ce d83d 2c0c a9bd ed68 523e
000001b0: 0a54 2e3e efcf 88bb 3a2c 2ebe 1953 26be
000001c0: c181 373c 8311 c5bd 01e4 09be 1e27 b3be
000001d0: 9a32 073e 508e 85be 897f 1cbe 4e12 d7bb
000001e0: ade9 b13e 2b89 d83d 5158 bc3d 8d9d 3ebe
000001f0: b497 883e 73db 1b3d 3e8c 40be d290 323e
00000200: f3a2 99be 1f21 d1be 1671 883e 48ba 2d3e
00000210: a8ac b83e 9933 9c3e e708 bf3e e3c5 f8bc
00000220: 4a27 b0be b52f a33e 9320 513d 5fc5 b6be
00000230: d764 20be 2ff1 b6be 0efb 373e bfa2 c83e
00000240: 68f0 103e fdf8 963e 7265 d9bd 7e88 363e
00000250: 683e d2bd 9bef 853e 3e1b 263e 96cd abbe
00000260: c269 133e 1d3f b1be faef 183e b845 92bd
00000270: 58cb 9fbe c00d 81bb 356a 41be 90de b7be
00000280: 20d2 513d f600 003e a4e1 ebbd 93d1 7ebe
00000290: edc7 babe a16c 873e dadc 83be dcf7 c73d
000002a0: b175 bebd 535d 463e 8b62 903e be5d 963e
000002b0: 6c56 2abe 737a e0bc 62e7 43bd b09e a5be
000002c0: 378d 803e cc5e dcbd ec0a 78be b1aa 8d3e
000002d0: 7246 55be 7879 be3d ba13 a53e 15bf 7ebe
000002e0: 6d68 6dbe 0287 53be 8446 263e 1684 a33e
000002f0: eab9 853e 51d0 183e a9aa e43e 3fc9 47be
00000300: 7ce9 36bc 9c31 963e b9ca aa3d b485 21be
00000310: 1301 ec3d d4da 913e 01a9 753e 9c1b 4d3e
00000320: 6da3 b7bd eb9d bbbe ec19 633c 6c62 23be
00000330: e929 a53c be6b 1d3e c96b 8abc 5e34 a93d
00000340: 1401 373b a0fc 933c b800 b73d ed43 18be
00000350: 415e 993e 0cc1 4bbe 9ece 053e 403e 21bd
00000360: 9240 533e e813 edbd a85c aabe 24cd b5be
00000370: fc87 b6bd e40e ad3d 82af 56be ed95 6fbe
00000380: 515b 7bbe 219d 65be d723 a03e 761d babe
00000390: ccb1 c33d 7f87 8ebe 92da 0a3e 1346 84be
000003a0: f274 803e 5b8a 243e 366e c33e d3c2 c03e
000003b0: 228c e5bd 8005 953e ee77 a83d ae80 6c3e
000003c0: 1cd4 1d3d 5ab7 b23d e02f 51bd 339f 4abe
000003d0: 90e7 933d a4df a93e 9384 90bc 6100 79bd
000003e0: 31fd e63d 00c2 8a3d e460 44be 7f98 913e
000003f0: 688c 513e 20c9 3dbe 96ca 66be 256f 5e3e
