saved_files/ckpt/nyc4/a2c_gnn_test_default.pth (torch, 71653 bytes, 42 tensors)

actor.conv1.bias f4 [21]
000000 53 68 5e 3d b4 90 e0 3c 2f c8 21 bc a4 47 a7 bb
       0.05429871 0.02741275 -0.009874388 -0.005104976
000010 1c 8d af 3d 62 6f 7b 3d 00 00 00 00 31 c5 29 bb
       0.08571836 0.06138552 0.0 -0.0025904889
000020 a5 e1 be bc 00 00 00 00 5a 2f 23 3d e7 86 00 3c
       -0.023300955 0.0 0.03984008 0.007844663
000030 88 d9 0a bc e0 eb bd 3c 6d 86 8a 3d 00 00 00 00
       -0.008474715 0.023183763 0.06763921 0.0
000040 00 00 00 00 02 51 24 3d 00 00 00 00 c9 6e 68 3d
       0.0 0.040116318 0.0 0.056746278
000050 bb c0 8e 3c
       0.017425885

actor.conv1.lin.weight f4 [21, 21]
000000 a9 80 ef bd a7 7a 78 3e 88 3b be bd 51 c1 23 3e
       -0.11694462 0.24265538 -0.092886984 0.15991713
000010 8c 82 50 be fa d1 70 be 56 69 59 be 7d e5 db 3e
       -0.203623 -0.235176 -0.21231589 0.42948523
000020 f9 3b dc 3d c4 60 6e bc 4a f9 8d bc b9 52 1b 3c
       0.107536264 -0.014549438 -0.017330784 0.009480172
000030 49 87 91 be f1 38 9f be 87 07 d3 3e 3b 0e ab 3e
       -0.28423527 -0.3109813 0.4121668 0.33409294
000040 88 dd 80 3e 7d fc 9e 3e aa 6c b7 3e 5c d5 18 3e
       0.25169015 0.31052008 0.35825092 0.1492514
000050 57 2b bc 3d df 97 70 3e de 2b 96 3e fa 36 9b 3e
       0.09187954 0.23495434 0.29330343 0.3031538
000060 7c 16 8a be de 4a ad 3d 73 57 87 be 24 bf 48 be
       -0.2697028 0.084615454 -0.26433906 -0.19604164
000070 05 5b 7a 3d 87 22 02 3d f4 de 2f be 7d e6 d0 bc
       0.06112196 0.03177121 -0.17174894 -0.02550053
000080 cb 7f 92 3e 08 27 c2 3e 62 8d c3 3e a0 b9 43 be
       0.28613123 0.37920403 0.38193804 -0.19113779
000090 9b ef 07 3d e2 a3 85 be b6 34 c1 3c bf 22 88 3e
       0.03318749 -0.26101595 0.023584705 0.2658901
0000a0 1b e6 84 be 5f fd 83 be 84 46 74 be f8 ca 8b be
       -0.25956807 -0.25779244 -0.23855025 -0.2730329
0000b0 aa 8d 4f 3d fc 30 a9 3e f3 7c 32 be 59 14 5a be
       0.05067221 0.33045185 -0.17430477 -0.21296825
0000c0 8d ad fb 3d 09 ef 4b be 50 b9 8c 3e e9 c7 ac 3b
       0.122889616 -0.19915403 0.27485132 0.0052728546
0000d0 47 21 f9 3d e6 4b 06 3e bf a6 92 3e 56 7a ce 3d
       0.1216455 0.1311489 0.28642842 0.100819275
0000e0 19 d8 88 bd 12 a8 2d be d3 73 85 be c9 22 28 3e
       -0.06681842 -0.16958645 -0.2606493 0.1641952
0000f0 61 b7 a2 be dc 03 50 be 7d 3d 99 3e 3b 0c 2f bd
       -0.31780532 -0.20313972 0.29929724 -0.042736273
000100 e4 20 c3 bd 1d 52 ce 3d 57 54 1b bd 25 e6 5b be
       -0.09527758 0.100742556 -0.03792223 -0.21474512
000110 8e 6a b6 be 67 ef b0 be a6 bd bd 3e 4e 95 a2 3e
       -0.3562817 -0.3455765 0.37058753 0.31754535
000120 3c ec 9d 3e 55 03 65 3e 52 35 51 3e 75 fb 14 3e
       0.30844295 0.22364552 0.20430496 0.14549048
000130 39 e4 cf 3d c4 9c 55 be ea 19 9c be 72 59 4d be
       0.10150952 -0.20860583 -0.3048852 -0.20053652
000140 93 12 82 3d ca ef aa be 11 75 2d 3e f4 fe a7 bd
       0.06351199 -0.3338607 0.16939189 -0.08202925
000150 1d b3 0b 3e 01 4a c7 bd f7 24 a7 3e 03 72 ef ba
       0.13642545 -0.09730912 0.3264539 -0.0018268231
000160 a3 d6 85 be 91 30 f1 3e 5a e3 24 be 16 66 3f be
       -0.26140317 0.47107366 -0.16102353 -0.18691286
000170 f1 ef 8c bd 85 06 b4 3d ef 4f f3 3e c6 86 e1 3e
       -0.06881703 0.08790306 0.47521922 0.44048136
000180 f1 43 68 bc 5b b2 3a be ab dc 98 3e 7c c6 58 bc
       -0.014176355 -0.182321 0.29855856 -0.013230916
000190 3a c2 7f 3d d3 7b 57 3e fb 2e 92 3e 78 a0 a0 3d
       0.06244109 0.21043329 0.28551468 0.07843107
0001a0 af 02 b7 bd d1 f6 d4 3d 26 e2 da 3e cf 90 2a be
       -0.08936059 0.10398639 0.42750663 -0.16656803
0001b0 4d 68 8b 3e e8 ec c5 3c 9b 5f a3 3e e9 e7 84 be
       0.27228013 0.024160817 0.3190888 -0.25958183
0001c0 2e 03 ce 3e ed 9b 88 3c 9a 92 ae 3e a6 b3 af 3e
       0.402368 0.016675914 0.34096223 0.34316748
0001d0 be ab 1e be 86 47 25 be 3c 0d a8 3e c3 6e ab 3e
       -0.15495202 -0.16140565 0.32822597 0.33482942
0001e0 70 d6 9f 3e 8e 9a e2 3d 1a 21 9a be 28 51 2d be
       0.3121829 0.11064635 -0.3010338 -0.1692549
0001f0 02 30 d7 3e 99 d9 aa 3e 61 48 33 be 34 83 ae be
       0.42028815 0.3336914 -0.17508079 -0.34084475
000200 91 18 8c 3e 78 81 af bd 58 82 ab be 7c a0 9b be
       0.27362493 -0.08569616 -0.33497882 -0.30395877
000210 78 72 a1 be ee 09 77 3e 86 89 1d 3e c8 70 16 3d
       -0.31532645 0.24124882 0.15384492 0.03672865
000220 94 c7 cc bd b9 a2 2a be 52 26 8f be fb f1 3a be
       -0.09999004 -0.16663636 -0.27958924 -0.1825637
000230 c1 4c 84 3e a8 8a a5 bd 41 b8 85 3e 00 2c 63 3a
       0.2583981 -0.08083087 0.26117137 0.00086659193
000240 ef f6 b0 be 3c 32 94 bd 93 e0 ab be e2 42 aa 3e
       -0.34563395 -0.07236144 -0.33569774 0.33254153
000250 0c e4 b8 be 7a e1 b8 be 92 58 99 3e de 5e 40 3e
       -0.36111486 -0.36109525 0.29950386 0.18786189
000260 99 8b 21 be fd eb 89 3e 79 08 9d be 7e 01 6b be
       -0.15775909 0.26937857 -0.30670527 -0.22949788
000270 ba 27 f1 3c 93 46 12 be 1c 32 aa be e7 ec 9e be
       0.029437888 -0.14284734 -0.33241355 -0.31040117
000280 a1 93 94 3e c1 86 59 3d 6e d3 a5 3e 1b 26 05 be
       0.29018882 0.053107027 0.3238787 -0.13002817
000290 ce cc 8c be d5 d6 ba 3e 3a 7f b9 be 32 da a0 3e
       -0.27500004 0.3649203 -0.3622988 0.3141647
0002a0 44 00 63 be 0a cf 46 3e 86 93 b0 be 3d c8 07 3e
       -0.2216807 0.19414917 -0.3448755 0.13259979
0002b0 4c 1e 76 bd ed 2d 98 3e 9d 2c 99 3d b9 ea c8 be
       -0.060087487 0.2972254 0.074792124 -0.3924158
0002c0 3e 71 5b be a5 19 b6 3e cd ce 24 bd 1d 7c 5e 3d
       -0.21429917 0.3556644 -0.040236283 0.054317582
0002d0 03 96 32 be ac 5d 80 bd 8b a8 f9 3c 02 39 28 be
       -0.17440037 -0.062678665 0.030475875 -0.16427997
0002e0 62 83 86 3e 4b 6d ec bd 69 b2 e5 3c 3a 2a 8c 3e
       0.26272112 -0.115442835 0.028039174 0.27375966
0002f0 bd 8a fa bd 60 ba d3 3c f1 c5 84 3e a7 51 51 be
       -0.122334935 0.025845706 0.25932267 -0.20441304
000300 20 4c dd 3d 23 09 9a 3e 97 15 54 be 20 3c ae be
       0.10805535 0.30085096 -0.20711361 -0.34030247
000310 22 bf 12 3e 92 c4 55 3e 28 56 8b bd ca e8 b8 be
       0.14330724 0.20875767 -0.068035424 -0.36115104
000320 22 a0 7e 3e ae c3 56 be 38 a9 33 3d 70 5c 8d 3d
       0.24865773 -0.20973083 0.04386255 0.06902397
000330 28 f0 c6 bd 72 07 8f be 00 ab 92 3b 7b d3 07 be
       -0.09713775 -0.27935368 0.004475951 -0.13264267
000340 d0 33 cc bd 27 bf 0a be 7e 9f 3e 3e 1e 15 8a bd
       -0.0997082 -0.13549481 0.18615529 -0.06742309
000350 a6 94 8b 3e 0a 95 25 be 78 08 ca 3d fd 10 77 3e
       0.27261847 -0.16170135 0.098648965 0.24127574
000360 aa a8 00 3d 73 36 45 3e 93 c9 78 3e aa 90 d1 3e
       0.03141085 0.19259052 0.24295644 0.40930682
000370 d7 93 1d 3e d8 4a 61 be 45 e6 49 be 27 40 9c 3e
       0.15388428 -0.22001207 -0.19716747 0.30517694
000380 c5 df 18 be 86 5e 29 3e 1f 33 a6 3d 62 df ba bd
       -0.14929111 0.16539964 0.08115219 -0.09124638
000390 db ff 50 be 27 8a 98 3e 08 a6 3a be 41 d5 4e be
       -0.20410101 0.29792902 -0.18227398 -0.20198537
0003a0 88 1e 38 3b dd 01 e6 bd ea c5 9a 3e 92 47 5f 3e
       0.002809437 -0.11230824 0.3022912 0.21804646
0003b0 6d 09 04 3e 53 4d b7 be 5e f2 92 3e 1f 38 88 3e
       0.1289422 -0.3580118 0.28700536 0.26605317
0003c0 85 d1 a3 3e 5a 67 86 be 76 f3 f4 3d a5 d7 79 bd
       0.31995788 -0.26250726 0.11960499 -0.06099667
0003d0 b0 7b 85 3e 66 69 9b 3d ac 80 1a 3e 57 0d 72 bd
       0.2607093 0.075884625 0.15088147 -0.059094753
0003e0 43 dc 46 3e 45 a5 3d 3d 46 ed 9f be 7b 2b 6c 3d
       0.1941996 0.04630019 -0.31235713 0.057658654
0003f0 4b d0 52 be ac 99 8e 3e 55 2b 88 be 21 0c a4 3e
       -0.2058727 0.27851617 -0.2659556 0.32040504

actor.lin1.weight f4 [32, 21]
000000 d0 08 04 be 22 94 66 3e 80 a0 da bd 84 8c 1e be
       -0.12893987 0.22517446 -0.10675144 -0.1548329
000010 fe cb 0b be 19 f0 56 3e 0b 65 8f bd ed 64 07 be
       -0.13652036 0.20990027 -0.07001694 -0.13222094
000020 66 bd 6f 3d 8a 08 23 be 4e c6 a2 3d ce 91 48 3d
       0.058530234 -0.15921226 0.0794798 0.048967175
000030 c0 eb 33 3e 76 c1 0b be 2f 2c 00 be cc 58 0a 3e
       0.175704 -0.13648018 -0.12516855 0.13510436
000040 48 ab 4e 3d 8c 9c 47 3e 97 19 de 3d f6 1d 50 3e
       0.050456315 0.19493312 0.108447246 0.20323929
000050 21 45 94 3c 13 78 eb bd 38 66 30 3d 98 77 40 bb
       0.01809937 -0.11497512 0.043066233 -0.0029368158
000060 dc 2e f6 bd 5c 06 13 3e 42 89 25 bd bd 93 81 bd
       -0.120206565 0.14357895 -0.040414102 -0.06327007
000070 c4 2a b3 bd 31 98 a7 bc 04 09 15 3e 17 bb 03 bd
       -0.08748391 -0.020458313 0.1455422 -0.032160845
000080 d1 17 80 bd 1e 41 ce 3c fd cd 00 3d 4d a7 62 be
       -0.062545426 0.025177535 0.031446446 -0.22134133
000090 40 3c 51 3e 83 1f 09 3d 1a b6 c4 3d bc af 8c 3d
       0.2043314 0.033477318 0.096050456 0.06869456
0000a0 9e 79 0f be ec aa 4f 3c df 67 2e bd e1 ae 39 3e
       -0.14011237 0.012675028 -0.042579528 0.18133117
0000b0 28 5a 13 be 58 7d 48 3e 20 a0 e7 3c 11 de 52 3e
       -0.1438986 0.19579065 0.028274596 0.20592524
0000c0 64 50 16 be 89 7f 70 3e ee f5 81 3d 9d f9 f8 bd
       -0.14679104 0.23486151 0.063457355 -0.12156985
0000d0 b8 f7 96 3d 99 ef e4 3d 2a 7a 1b be 73 c6 c7 bd
       0.07371467 0.11178512 -0.1518332 -0.09754648
0000e0 f5 09 d8 bd ba 96 35 3e 3d 67 30 be 1c e4 4a 3e
       -0.10548774 0.17733279 -0.17226882 0.1981358
0000f0 c6 6f a4 3d 84 f3 58 3e 20 69 6e bd 58 18 b6 bd
       0.080291316 0.21186644 -0.058205724 -0.08891362
000100 c1 c8 ba 3d b6 b2 58 bd 74 75 2b be 9a 01 4f bd
       0.09120322 -0.052904807 -0.16744024 -0.050538637
000110 55 4f 8d bd f2 c1 3e 3e 1a 90 16 be 4e c3 cb 3d
       -0.06899897 0.18628672 -0.14703408 0.09949361
000120 e8 dc 43 3e e4 24 fe 3d 1d 91 df bd 8d 87 74 3d
       0.19127238 0.1240938 -0.1091635 0.059699584
000130 4a 5b 11 be ac 5b 4a 3e 64 93 08 bd 7d d2 cc bd
       -0.1419498 0.19761533 -0.033343688 -0.10001085
000140 34 48 1b bd b2 1b 39 3d 85 a8 ed bd 4f 30 cc bd
       -0.037910655 0.045192428 -0.11604408 -0.09970152
000150 d7 11 6d 3e 16 a5 19 3a fa ca 58 3e 56 1e d3 3d
       0.23151337 0.00058610865 0.2117118 0.103085205
000160 2d c7 55 bd 9c dc 36 3e 51 5e bc 3d 56 d4 45 be
       -0.052191902 0.17857593 0.09197677 -0.19319281
000170 ef 38 ff 3d 26 7c 20 3e d7 e0 09 3e 5a 8b e7 bd
       0.12462031 0.15672359 0.13464676 -0.11305876
000180 ca cc 42 be 6c b5 4b be c3 e9 17 be ed a3 07 be
       -0.19023433 -0.19893426 -0.14835267 -0.13246126
000190 05 21 04 3e b5 23 52 be 99 85 aa 3b bb 8a bb bd
       0.12903221 -0.20521434 0.0052039144 -0.0915732
0001a0 1f a0 f9 3d f2 61 26 3e 10 83 67 bc 9c 2a 25 be
       0.12188744 0.162483 -0.014130369 -0.16129535
0001b0 22 70 59 3d 7c b8 8f 3d 97 97 89 3d 7d 79 28 3e
       0.053085454 0.070176095 0.067183666 0.16452594
0001c0 13 b6 dd 3d 45 0b 47 bd 78 e2 31 3c f9 4b 91 3d
       0.108257435 -0.04859473 0.010857217 0.07094569
0001d0 88 f0 da bd 66 3a 70 3e f5 64 02 be 2e 77 a8 3c
       -0.10690409 0.23459777 -0.12733825 0.020564642
0001e0 bb 52 5c 3e 63 25 7e 3e ac 88 5d 3e 95 35 41 bd
       0.21515934 0.2481895 0.21634167 -0.04717024
0001f0 b3 bc 33 3d 21 64 53 3e f8 f4 e4 3d cc 2f 81 bb
       0.04388113 0.20643665 0.111795366 -0.0039424654
000200 49 ed ea 3a 10 9d 28 bd 92 97 64 3e 68 11 13 3e
       0.00179235 -0.04116541 0.22323444 0.14362109
000210 1d 9e 16 be f8 2a 1a be 80 75 b3 bd 42 17 e1 3d
       -0.14708753 -0.15055454 -0.08762646 0.10990764
000220 81 d4 89 bd b7 72 3e 3d ab 46 cb bd 58 a9 1b 3e
       -0.06729985 0.04649612 -0.09925588 0.15201318
000230 c0 fe 9f bb 57 93 5f 3e 2c a0 97 3d 4d a9 80 3e
       -0.0048826635 0.2183355 0.07403597 0.25129166
000240 92 ae da 3d 3f 9b 81 3e 91 79 41 3e ce 8b 3b be
       0.10677828 0.25313756 0.1889403 -0.1831505
000250 8e 0b 37 be 7f fb 14 be c2 0b 4a be 24 93 1d 3e
       -0.17875502 -0.14549063 -0.19731048 0.15388161
000260 d5 b6 1f be d9 a8 db 3c 76 62 1c 3e 18 a9 33 3e
       -0.15597089 0.026813911 0.15271935 0.17544973
000270 e4 ac 36 bd df b3 ac 3d 5f 9d 79 3d c9 51 90 3d
       -0.044598475 0.08432745 0.060941096 0.07046849
000280 83 b3 bc bd db b7 81 3d 06 15 a0 bc 8e a4 10 be
       -0.09213927 0.06333896 -0.019541275 -0.14125273
000290 b9 83 cc 3c 5a f1 95 bc 19 8b a1 bc f5 e1 1b be
       0.024965154 -0.018303562 -0.019719647 -0.15222915
0002a0 7f 20 62 3d af 0d 82 3d 94 58 de bd 22 4a 14 3e
       0.055206772 0.06350266 -0.10856739 0.14481404
0002b0 18 9f 98 3d d0 74 3d be 09 d9 7d bd 78 5e 60 bd
       0.0745222 -0.18501592 -0.06197456 -0.054777592
0002c0 f1 e1 d1 bd 19 2a 48 be 5b b2 dd 3d d4 ff 0d be
       -0.10248173 -0.19547309 0.10825034 -0.13867122
0002d0 d0 a2 c9 bd 16 18 f6 3d bd 27 a1 3d ea d1 21 be
       -0.09845507 0.12016313 0.078689076 -0.15802732
0002e0 ad c7 90 bd ec 92 0f 3e de 6b b4 3d 62 fa c3 3d
       -0.07069335 0.1402089 0.088096365 0.09569241
0002f0 3e 9e e6 3d 6e 37 54 3e 27 2c c2 bc 92 f3 dd 3d
       0.11260651 0.2072427 -0.023702694 0.10837473
000300 90 9d 48 3e 55 e2 0d be 4f 4e a7 3d f8 f8 75 3b
       0.19591355 -0.1385587 0.08169233 0.003753243
000310 e3 7c 38 3e cd bb b7 3d 37 17 2c 3e c4 d8 2f 3e
       0.1801639 0.08971367 0.16805731 0.17172533
000320 61 03 fe bd b2 cc cf 3d b5 0c 0b 3d e0 a6 eb 3c
       -0.12402988 0.101464644 0.033947665 0.028766096
000330 b0 37 39 bd 39 63 5c 3e fe e7 02 bd d6 9d ac bb
       -0.045219123 0.21522225 -0.031959526 -0.005267839
000340 3f 5c 44 3d ed ef 0f 3e 0b a2 35 3d e5 eb 5d 3e
       0.047939535 0.14056368 0.04434399 0.21672018
000350 8e cb 42 be a0 cc 2a 3e e7 de 63 3d 8e 51 78 ba
       -0.19022962 0.1667962 0.055632498 -0.0009472602
000360 c1 2f 15 bd 2c 97 ca bd 92 40 b9 3d 66 11 34 3e
       -0.036422495 -0.09892115 0.09045519 0.17584762
000370 e1 7e d8 bd 7a ff b2 3d 5c 48 30 be 12 e9 66 bb
       -0.10571075 0.087401345 -0.17215103 -0.0035234136
000380 68 2b 0b 3d 97 05 a0 bd 4e d6 77 3d ff 7a 28 3e
       0.033976942 -0.07813566 0.06050711 0.1645317
000390 14 4b db 3b 06 61 57 3e de c1 07 3d 46 7d 3b 3d
       0.0066922996 0.21033105 0.03314387 0.045773767
0003a0 5b 4b 56 3e eb 57 7a bc 06 ea da 3d 7a be 02 be
       0.20927183 -0.01527975 0.10689168 -0.12767974
0003b0 13 73 01 3e 8a a3 30 be c2 e0 c0 bd b7 1a 14 3d
       0.12641554 -0.17249885 -0.09417869 0.03615829
0003c0 c5 1f 84 bd 35 49 13 be d4 07 4c 3e cd ae 6b be
       -0.06451372 -0.14383395 0.19924861 -0.230159
0003d0 6b 6a 08 be 69 63 1f 3d b6 f2 ff bd 83 55 bc 3d
       -0.13321845 0.038913164 -0.12497465 0.091959976
0003e0 43 48 42 3c df 91 ce bd cb ef 3e 3e d1 a8 2f be
       0.011858049 -0.100864165 0.18646161 -0.17154242
0003f0 bf 88 37 bd e0 a9 42 3e 6c 42 97 bd 64 95 38 3e
       -0.044808146 0.19010115 -0.07385716 0.18025738

actor.lin1.bias f4 [32]
000000 db 0e a7 bd 97 ce dc 3d 7e 8b 7e 3e 4e e7 06 3d
       -0.0815713 0.107815914 0.248579 0.032935433
000010 73 bc cb 3d 07 a2 2a be c3 dd 28 be cf b4 4f 3e
       0.09948053 -0.16663371 -0.16490845 0.20283817
000020 78 a1 f8 bd dc fa 08 be ea 07 f6 3d e1 73 1e be
       -0.12140173 -0.13376945 0.12013228 -0.15473892
000030 13 2e 01 3d 98 f5 09 3e b1 a6 17 bd d0 ed 61 3d
       0.03153808 0.13472593 -0.037024204 0.055158436
000040 77 b2 62 3e f2 47 40 3e 4f 6c ae 3d 3a b5 fd bd
       0.22138391 0.18777445 0.08516752 -0.12388082
000050 e0 ef 9e bd 1a 4e 2a 3e 43 fc fe 3d 50 0a 9a 3d
       -0.07760596 0.16631356 0.12450459 0.07521498
000060 6f 8d 77 3e 73 aa 53 3e d1 f1 33 3d 08 27 bc bd
       0.24175046 0.2067049 0.043931786 -0.09187132
000070 34 ab 2e 3e 07 d1 1f be 42 a2 81 3d 2c 0e fb 3d
       0.17057496 -0.15607081 0.06329776 0.122585624

actor.lin2.weight f4 [32, 32]
000000 c3 6e c8 bd 32 b8 0f 3d 40 56 10 3e 69 48 74 bd
       -0.09786751 0.03508777 0.14095402 -0.05963937
000010 0f f1 44 bd f3 2c d8 bd b9 65 86 bd 44 49 df bd
       -0.048081454 -0.105554484 -0.06562371 -0.10902646
000020 81 bc 09 be 08 7b ce 3d 16 d9 95 3d 3b b6 e0 bc
       -0.13450815 0.1008206 0.073167965 -0.027430644
000030 ff 7a 98 3d af f6 2a be 02 05 d1 bd 48 e9 7e 3d
       0.07445335 -0.16695665 -0.10206033 0.062234193
000040 98 19 c5 3d 5b df 94 bd 51 39 ee 3d 60 70 81 3d
       0.09624022 -0.07269164 0.11632026 0.06320262
000050 e5 72 e8 3c 52 d4 ca 3d 07 02 0a 3d a2 14 e3 bd
       0.028375098 0.09903778 0.03369334 -0.1108792
000060 49 05 1d be 52 87 0f 3e d8 51 91 3d 40 86 8b bb
       -0.15334047 0.14016464 0.070956886 -0.004257947
000070 9a 4d 2c 3c b3 7d 21 be d9 84 6e bd 5f f7 e8 3d
       0.0105165485 -0.15770607 -0.058232162 0.11375307
000080 5d ea 92 3d 4b fa 35 3e ce 3b 61 3e 2d 7f 01 3e
       0.071736075 0.1777126 0.2199547 0.1264617
000090 8b e0 6f bd cc af 24 3e 0f b0 0a 3e d1 68 53 3d
       -0.05856375 0.16082686 0.13543724 0.051613633
0000a0 9f fa ee 3d c3 09 e1 bc 79 07 3c 3e 48 52 09 be
       0.11668896 -0.027470475 0.18362226 -0.13410294
0000b0 e5 ba 5b bc e4 3d 22 be dc b4 77 3e c7 b6 1c 3e
       -0.013411258 -0.15843922 0.24190086 0.15304099
0000c0 d2 35 36 3e d8 9a e4 ba e0 2a ba bd d8 14 5f 3d
       0.17793968 -0.0017441167 -0.09090209 0.054463238
0000d0 37 7a 0e 3d 1d de da bd ee 55 a3 3d 4e 2a 69 bd
       0.034784522 -0.10686896 0.07975374 -0.05692511
0000e0 88 a7 af 3c 55 26 95 bd 75 f9 13 bd 98 16 1f be
       0.02144219 -0.07282702 -0.036126573 -0.15535963
0000f0 33 60 62 3d 9c 0a 0d 3e f8 24 d6 3d f6 e3 b2 3d
       0.055267524 0.13773578 0.1045627 0.08734886
000100 3d 27 d2 bc b8 78 93 3d c8 dd 1f bc 5a 5a d0 bd
       -0.025653476 0.0720076 -0.009757467 -0.10173483
000110 01 51 c8 bd dc e8 e1 3d 32 ad 63 3d 91 fe 19 bb
       -0.09781075 0.110307425 0.055585094 -0.002349768
000120 bb 01 1e 3e 6c b3 80 bd 62 ce 05 3e ef 69 83 3d
       0.15430348 -0.06284222 0.1306701 0.064166896
000130 c6 17 cf 3d 32 5a 02 be 0e 2a 80 3d e8 65 fa bc
       0.10111956 -0.1272972 0.06258021 -0.03056617
000140 8c 69 08 bd 46 3a fb 3d 63 95 0f 3c 6d 83 e9 bd
       -0.033303782 0.12266974 0.008763644 -0.114020206
000150 1e b1 b4 3d 92 2a 5f 3e 02 55 f2 3d 72 be d0 bd
       0.08822845 0.21793583 0.1183262 -0.101925746
000160 ed e5 6d 3e fc a1 4e 3e 78 1e 0d 3e 50 21 8d 3d
       0.23232241 0.2017898 0.13781154 0.068911195
000170 fb a7 19 3e 0b 42 39 3e ab d9 c3 3d ed 98 de bc
       0.15005486 0.180916 0.09563001 -0.02717253
000180 bc 5f 15 bd e0 46 eb bd 59 97 b0 3c 4d 9c be bc
       -0.036468253 -0.11488128 0.021556543 -0.02326789
000190 7a 6c b4 3d f6 d0 61 3d 17 9a 6a bd f8 15 fa 3d
       0.08809753 0.05513092 -0.057275858 0.122112215
0001a0 65 88 15 bc 1f 7f 42 3e 46 21 6c 3e e1 07 df bd
       -0.009126757 0.18993805 0.23059568 -0.10890175
0001b0 39 a6 f7 3d 9e 30 22 be c6 fa b8 bd a4 3b 09 3e
       0.12092251 -0.15838858 -0.09032206 0.13401657
0001c0 1e 15 01 be 3c be 71 bd 19 ee d2 bd c7 c1 27 3e
       -0.12605712 -0.059019312 -0.1029932 0.16382514
0001d0 42 06 0e 3e 99 66 df 3d e2 9b 6a 3e a9 f2 13 3d
       0.13869575 0.10908241 0.22911027 0.03612009
0001e0 69 f2 3b 3d 47 fc a3 3d dd 8d 57 3e f6 8e d6 bd
       0.045885477 0.080071025 0.2105021 -0.104764864
0001f0 ec 60 fb 3d 29 9e a9 3d de bf 35 3e 25 f0 b6 3d
       0.12274346 0.0828212 0.17748973 0.08932523
000200 4b 10 b4 bc bd 1e 01 bb e2 76 aa 3d 8a 12 1c 3d
       -0.021980425 -0.001970216 0.08323456 0.038103618
000210 e2 78 df 3d 0f db ee bd 42 2b fa bd 24 c3 a7 3c
       0.109117284 -0.11662876 -0.12215282 0.020478792
000220 01 5b 94 3d 26 5f c2 bd f4 65 8a 3d b1 ed 23 3e
       0.0724392 -0.094908044 0.06757727 0.16008641
000230 1e 76 fa 3d 6c cd 98 3d 8a 63 76 bd 67 6e e5 3d
       0.1222956 0.07461056 -0.06015352 0.11202698
000240 17 99 64 3d a9 99 27 bd 3a a3 14 be 35 0c df bd
       0.05581006 -0.040918026 -0.14515391 -0.10891
000250 c6 e5 19 3d 37 a5 d3 3d 3c f8 10 3e 44 a9 f4 3d
       0.037572645 0.103342466 0.14157194 0.11946347
000260 10 c2 a1 bd ee 0f 06 bd 52 a5 01 3e 05 63 15 3e
       -0.078983426 -0.032730035 0.12660721 0.14588554
000270 49 2c e6 bd 76 c8 e7 3d e4 35 2a 3d 6e 7f 04 be
       -0.112389155 0.11317532 0.0415553 -0.12939236
000280 5a 1d 1e be 33 5b a8 3d 2c 4f 2a bd 55 60 2b 3e
       -0.15440884 0.0822052 -0.04157941 0.16735967
000290 44 7a 30 3e 87 77 36 be 69 35 45 3d a2 c4 29 be
       0.1723414 -0.17819034 0.04814664 -0.16578916
0002a0 7c ba 0d 3e b4 11 dd bd 15 96 37 3c 3b b1 14 3e
       0.1384067 -0.10794392 0.011205216 0.14520733
0002b0 9f 08 0a 3e 8a 94 fd bd 9a ab a2 3c 84 da 19 3e
       0.13479851 -0.12381847 0.019857217 0.15024763
0002c0 d2 3b 8c 3d 92 dd a1 bd 70 19 0c bc a0 24 73 3d
       0.06847347 -0.07903589 -0.008550987 0.0593611
0002d0 30 cb 05 be be d7 a7 bd c8 6b cb bc 4f cf bb 3d
       -0.13065791 -0.081954464 -0.024831668 0.091704
0002e0 30 e0 30 be 9a e4 8b bc ec b5 f6 bd 16 d8 d7 3d
       -0.1727302 -0.01707678 -0.120464176 0.10539262
0002f0 c8 16 b1 3d ca 0d 2e be d0 cc ce bd dc 76 eb bd
       0.08646923 -0.16997448 -0.10097659 -0.1149728
000300 74 cf bc 3d f4 86 2e 3e 79 87 42 3e 77 fc 9b 3b
       0.09219256 0.17043668 0.18996991 0.0047603208
000310 b3 fc ff 3c 36 b9 ef 3d b6 14 5f 3d 1e 36 ba 3d
       0.031248426 0.11705248 0.05446311 0.09092353
000320 08 07 94 3d a4 55 d4 3c bf 36 80 bd e7 c2 02 3e
       0.072279036 0.025919743 -0.06260442 0.12769662
000330 25 01 12 3e 77 61 28 be d5 89 97 bd d1 5e 6c bd
       0.14258249 -0.1644343 -0.07399336 -0.05770761
000340 42 e9 16 3a 69 dd 59 bd 47 a8 04 be 17 0c 2f 3e
       0.0005756804 -0.05318967 -0.12954818 0.17094456
000350 dd db f2 bd 9d 53 52 3e 3c 63 53 3e 92 a1 bb bd
       -0.11858342 0.20539708 0.20643324 -0.091616765
000360 99 ed c4 3d b4 cb 25 3e 96 33 76 3e 82 9f 0a be
       0.09615631 0.16190988 0.24043116 -0.1353741
000370 1f 28 86 3d 5a b2 8d 3d 9f 43 7d 3d 94 53 68 bc
       0.06550621 0.069187835 0.061832067 -0.014180083
000380 36 c1 06 3e b6 35 d2 3d e4 cb d5 3d 53 01 e7 bd
       0.13159642 0.10264151 0.1043928 -0.112795494
000390 4c 79 66 bd 92 95 60 be 5f 86 56 be bf 37 20 3d
       -0.05626802 -0.21932057 -0.20949696 0.039115664
0003a0 d5 b1 05 be 45 cc 89 3c 91 40 6c bc df cb 80 3d
       -0.13056119 0.016821036 -0.014419691 0.06288885
0003b0 8e 79 04 3e c8 32 97 bd 14 00 09 bd fe a9 c3 3d
       0.12936994 -0.07382733 -0.03344734 0.09553908
0003c0 d2 1d 44 be 28 58 83 bd a6 d0 b5 3d e6 88 7b bd
       -0.19152 -0.06413299 0.08877687 -0.061409853
0003d0 bf 7f 0e be 70 aa 78 bd 65 ca c4 3d aa 14 8f 3c
       -0.13915919 -0.060709417 0.09608916 0.017465908
0003e0 7d 27 ea 3d f3 e6 63 3d 1b a3 87 bb e0 e1 36 bd
       0.11433313 0.055640172 -0.0041393167 -0.044649005
0003f0 4e db e4 3d 30 a6 99 3d 99 2f 1d be 1e 29 50 bd
       0.111746415 0.07502401 -0.15350188 -0.050820462

actor.lin2.bias f4 [32]
000000 1a ec 3b be 7d 65 d0 bb 7d 2d 10 3e 14 15 00 3e
       -0.18351784 -0.0063597546 0.14079852 0.1250804
000010 19 c4 0b be 94 2a 07 3e 3e f3 ca bc de 1b 55 3c
       -0.13649024 0.13199836 -0.02477419 0.013007132
000020 9d c6 36 bd dc 2b c9 bb 1a 15 a7 3d 31 2a 5c 3e
       -0.044623006 -0.0061392616 0.08158322 0.2150047
000030 40 73 d4 bc 15 ad 51 3d f6 70 35 be 76 f6 0d 3e
       -0.025933862 0.051190455 -0.17718872 0.13863549
000040 61 a4 89 bd bc 3a f7 3d 57 54 0f 3e 5e 6b bd 3c
       -0.06720806 0.120717496 0.13997017 0.023122486
000050 a2 fc 2a 3e ac 0a 2b 3d 39 bc 12 be 4d c6 16 bd
       0.16697934 0.041758224 -0.14329614 -0.036810208
000060 86 c4 08 3e c4 b0 63 3d a8 de 1c 3d 4d d6 68 bd
       0.13356218 0.0555885 0.03829828 -0.056845
000070 f6 29 e1 bc 00 d1 e8 bd b2 a2 a5 bd 62 27 ad 3d
       -0.027485829 -0.113679886 -0.08087672 0.08454777

actor.lin3.weight f4 [1, 32]
000000 6a 8d 9d bc 20 de 00 3e cf ff 9a 3d 1e 82 8b 3d
       -0.01923247 0.12584734 0.07568323 0.06811927
000010 9e dc 0b be 23 f6 0c be bf 15 1b 3e f0 22 fe bd
       -0.13658378 -0.13765769 0.15145014 -0.124090075
000020 57 64 0e 3e 14 e4 4f ba 40 5b 94 bd 53 3c 24 3e
       0.13905464 -0.00079304096 -0.07243967 0.16038637
000030 4c b5 f6 bd a2 2c f2 bd 8b 56 94 bd 91 46 99 3d
       -0.120462984 -0.11824919 -0.07243069 0.074841626
000040 47 fa 47 3e a5 05 b3 bc 3f 62 cb 3d 71 64 ab bd
       0.19529067 -0.021853277 0.09930848 -0.08368767
000050 b1 15 c0 3d ce 60 26 be b0 bf 81 bc 3d f6 52 3e
       0.09379137 -0.16247866 -0.015838474 0.20601745
000060 78 7e 15 3e 91 2f bb 3d 41 15 00 be 6f b8 30 bd
       0.14599025 0.09139932 -0.12508108 -0.04314464
000070 b3 0c 8d 3d ea aa 06 3e e9 8f 17 be c3 d6 3a ba
       0.06887188 0.13151136 -0.14800991 -0.0007127339

critic.conv1.bias f4 [21]
000000 00 00 00 00 d6 1d 06 bc c5 3b df 3d 0d 66 8a bd
       0.0 -0.008185824 0.10900072 -0.06757746
000010 85 c4 f1 3b 7f 2a 01 3e f3 4c 2b 3a fb c6 4d 3c
       0.0073781633 0.12613867 0.00065345987 0.012559648
000020 c2 e5 b5 b9 50 bd eb 3d 5e d9 05 be 08 b3 aa bd
       -0.00034694193 0.11510718 -0.130712 -0.08334929
000030 f7 0f 1e bd 1c 4e dc 3d e4 aa ce 3b 00 00 00 00
       -0.038589444 0.10757086 0.006306993 0.0
000040 bd ed 07 3e 61 4e 84 bc 3c 63 37 be 44 d3 c5 3d
       0.13274284 -0.016150655 -0.17908949 0.09659436
000050 00 00 00 00
       0.0

critic.conv1.lin.weight f4 [21, 21]
000000 42 73 88 be e0 20 d0 3c 9b e4 a7 3e 1e 3c 72 3e
       -0.26650435 0.025406301 0.327916 0.23655745
000010 5b 9b 57 be 18 97 7f 3d f6 1a 7f 3e 31 17 9f 3e
       -0.21055357 0.062399954 0.24912629 0.3107238
000020 a7 28 36 be 19 96 16 be 40 7b c0 3c 0e 51 59 3e
       -0.17788945 -0.14705695 0.02349627 0.21222326
000030 30 26 d9 3c 93 4a 85 be 60 d3 4b bd 76 cb 33 3e
       0.026507467 -0.26033458 -0.04976213 0.17558083
000040 bb f1 43 be 14 81 90 be b8 e6 f5 bd 6e d7 77 be
       -0.19135182 -0.2822348 -0.12006897 -0.24203274
000050 10 6e 8f be 0c 55 a5 3c 1d 65 17 3e 8d 2b c6 3c
       -0.2801366 0.020182155 0.14784665 0.024190689
000060 ad 0f b6 be e0 8e 2c be 0e dd 94 3d 5a f7 a1 3e
       -0.35558835 -0.16851377 0.07268725 0.31634027
000070 9c 2e ad 3e 45 0b b7 be a6 24 cc 3d a2 1d 89 3d
       0.33824623 -0.35750785 0.09967928 0.06695105
000080 23 f7 94 3e 9c ca d2 bd d6 14 8e be 7d 10 1e be
       0.290948 -0.10292551 -0.27750272 -0.15435977
000090 f4 21 96 3e 17 fd d4 bd 26 42 8d bc 78 58 0e 3c
       0.2932278 -0.103998356 -0.017243456 0.008688085
0000a0 af 59 b2 be a5 8a ab bd f5 c2 92 be 49 34 95 3e
       -0.34834048 -0.08376054 -0.28664365 0.29141453
0000b0 58 ee 95 be d5 a6 41 be 06 b4 89 be 50 b8 9a 3e
       -0.29283404 -0.18911298 -0.2689516 0.30218744
0000c0 4e b5 9e 3d 42 2e f1 bd 50 fa 99 be e3 d2 0d be
       0.07749425 -0.11776401 -0.30073786 -0.13849978
0000d0 4c 7d b4 3e 78 7c 28 be b5 a8 22 be 8a 96 24 3e
       0.35251844 -0.16453731 -0.15884669 0.16073051
0000e0 29 05 7c 3e 25 2a 01 3d 0f 20 6f 3d 2c 7f 1a 3e
       0.24611343 0.031534333 0.058380183 0.15087575
0000f0 db 31 d3 3d ef e9 29 be ce e7 8c 3e 73 cd a1 be
       0.103122436 -0.16593145 0.27520603 -0.31602058
000100 ef 98 dd 3c 56 21 a8 3e be f7 a8 be 4f ef a4 3e
       0.027050463 0.32837933 -0.33001512 0.32213828
000110 fe 87 23 be 4a 6a 90 be d5 f3 fa 3c ea 18 ea bd
       -0.15969846 -0.28206092 0.030633846 -0.11430533
000120 d8 a6 47 3c af 21 fc bd 7b 8b d0 bd aa 79 cf bc
       0.012185775 -0.12311112 -0.10182854 -0.025326569
000130 27 35 e4 bd 59 63 03 3e e9 24 80 3e 9f e8 55 3e
       -0.111429505 0.12830867 0.2502816 0.20889519
000140 96 f2 2f bd 89 b1 9e 3e 7c 7e a8 be 39 38 35 3e
       -0.042955957 0.30994824 -0.32909 0.17697228
000150 26 58 a3 3e 7b d6 0c 3e a5 e0 05 be b9 bb 8b 3e
       0.3190319 0.13753693 -0.13073976 0.2729166
000160 22 0e 87 3e c4 cc aa 3e 19 e3 a6 3d cd cd c9 bd
       0.2637797 0.3335935 0.08148784 -0.098537065
000170 58 e0 d4 bd 78 ce aa 3e 89 76 ef bd 38 40 a9 be
       -0.10394353 0.33360648 -0.11692531 -0.33056808
000180 ff ba 0b 3e 90 72 be 3d b5 6e bf be b1 86 95 bd
       0.13645552 0.09299195 -0.3738915 -0.07301081
000190 6d 34 27 3d 01 d3 a5 3e f7 13 b1 be d8 d1 87 3e
       0.04082148 0.32387546 -0.34585544 0.26527286
0001a0 8e 51 6f be a4 c8 a5 3e 7f 64 b0 bc 3e dc 60 bd
       -0.23370954 0.3237964 -0.021532295 -0.05489754
0001b0 73 b8 66 bb 8d 59 24 bd d7 ac 41 3d fa 8f 78 be
       -0.0035205155 -0.040124465 0.047283974 -0.24273673
0001c0 28 29 26 be a5 0b 1a 3e d6 d9 0c be 90 85 f8 bd
       -0.16226637 0.15043505 -0.13754973 -0.1213485
0001d0 b9 d4 9c 3e 92 88 99 3e 02 0f b5 3e bc cf ba be
       0.30631045 0.29987007 0.35363013 -0.36486614
0001e0 fb 50 b2 3e c0 37 ad be 83 f2 12 be bd f1 05 3e
       0.34827408 -0.33831596 -0.14350323 0.13080497
0001f0 28 06 bb bd bd 6e c0 3d 1c 09 17 3e 25 4b b6 3d
       -0.091320336 0.09396122 0.14749569 0.089010514
000200 6a c1 fa 3d c7 5c af 3e 59 3b b2 3d b4 39 18 3e
       0.12243922 0.3425047 0.08702726 0.14865762
000210 e0 af 12 3e 1c 43 bf bd 65 e7 e5 be 8b 0b 08 3e
       0.14324903 -0.09338972 -0.44903103 0.13285653
000220 4d c1 0d 3e d6 55 ba 3e 44 3b ab 3e 68 94 5e 3e
       0.1384327 0.36393613 0.33443654 0.217363
000230 d5 0d ae 3e 2b 64 87 3e d8 aa 03 be 89 b3 91 be
       0.33994928 0.2644361 -0.1285814 -0.28457287
000240 51 0c 9c 3e 09 4d 50 3e b0 dc 04 bc 6a 41 9b bc
       0.30478147 0.20341887 -0.008109257 -0.01895209
000250 93 5e 4d 3e 31 4c 5d be e7 e2 24 3e 69 8a 29 be
       0.20055608 -0.21611096 0.16102181 -0.16556706
000260 59 a0 bb be cc bb 2e 3e d9 dc 03 3d 38 aa a9 be
       -0.36645773 0.17063826 0.03219304 -0.3313768
000270 dd 09 39 3e 89 88 65 3e b1 44 5b be b1 20 c3 be
       0.18070169 0.22415365 -0.21412922 -0.3811088
000280 1a f3 db bd be f4 95 3e a9 66 a4 bd 87 7f 91 3e
       -0.10739727 0.29288286 -0.08027393 0.28417608
000290 62 21 3e 3e 82 f2 7f 3e d2 bf 7b 3d 9e e1 bf 3e
       0.18567422 0.24994853 0.06146223 0.3747682
0002a0 94 25 9d 3e 8b df 30 be 8b f9 b8 be 00 e4 4f be
       0.30692732 -0.17272775 -0.36127886 -0.20301819
0002b0 94 f5 94 be 4f e7 19 3e 75 b6 88 3e 4b 45 02 3e
       -0.2909361 0.15029643 0.26701704 0.12721746
0002c0 08 71 d6 3d f8 69 b8 be 1d 6c 97 3e b2 92 a4 bd
       0.10470778 -0.36018348 0.2957467 -0.080357924
0002d0 2c 9b 1a 3d 29 6b 2a 3e 98 c4 82 be 4b 6c 32 3d
       0.03774564 0.16642441 -0.25540614 0.043560307
0002e0 7e c7 74 3e 0d ad b1 be f1 f5 a4 3e 6b f0 89 3e
       0.23904225 -0.3470234 0.32218888 0.26941237
0002f0 40 07 37 be ed 4a 83 3e 67 c4 a1 be 1e e5 ab 3e
       -0.1787386 0.256431 -0.31595156 0.3357324
000300 3e f7 bd be f2 92 75 3e 50 02 a5 be 72 30 b0 be
       -0.37102693 0.23981836 -0.32228327 -0.3441196
000310 7b 87 82 3e 7e c5 40 be cd 2e 6e be ab 0c 34 be
       0.25493988 -0.18825337 -0.2326004 -0.17582957
000320 18 92 9d bd ed 97 92 3e 24 3e 3b be b5 00 80 be
       -0.07693881 0.28631535 -0.18285424 -0.2500054
000330 5a 12 20 3e f5 1d 92 be 18 d0 6e 3e 94 a5 d2 3c
       0.15632 -0.2853848 0.23321569 0.02571372
000340 f0 e8 2b be 8c b6 a9 3e 2b 57 6a be a6 46 b9 be
       -0.16788077 0.33147085 -0.22884814 -0.36186713
000350 7e 21 17 3e 94 26 b4 3d d4 84 62 bd 52 74 2b be
       0.1475887 0.08796421 -0.055302456 -0.16743591
000360 38 8a 80 3e 91 ab 6c be f6 98 83 3d 31 fe 45 3e
       0.25105453 -0.23112322 0.06425659 0.19335248
000370 a1 e6 0b 3e 86 4d b3 3e 8d c3 a9 be 0a 5e 58 3e
       0.13662197 0.35020083 -0.33157006 0.21129623
000380 63 ca 7c 3d af 3e a7 3e 87 96 28 3e e0 a8 a2 3e
       0.06171645 0.3266501 0.16463672 0.31769466
000390 a2 0b 93 3e eb 33 a6 be 45 8f b5 bd 06 e5 14 3b
       0.28719813 -0.32461485 -0.08865217 0.0022719516
0003a0 21 a2 68 be 6c 2d 29 be 17 92 a0 be 92 51 1d 3e
       -0.22718097 -0.16521233 -0.31361458 0.15363148
0003b0 44 97 c6 3e a2 c2 a4 be c8 9c 6c 3e 26 23 5a be
       0.38787282 -0.32179743 0.23106682 -0.2130247
0003c0 f1 8e 4f be 4f a9 ac 3e 81 08 8f 3d 39 19 4e 3e
       -0.20269372 0.33722922 0.06984044 0.20126809
0003d0 36 aa 81 be 06 61 8a 3e d9 bd aa bd 57 55 ce 3d
       -0.25325173 0.27027148 -0.08336992 0.10074871
0003e0 5a 51 8b 3c cd 1b 7f be 77 1e b3 3e c9 1d 59 3d
       0.017006565 -0.24912949 0.3498418 0.05300692
0003f0 1e 4c ed 3d f8 e3 83 bb e7 95 89 3e 1a 8e 7d 3e
       0.11586784 -0.0040249787 0.2687218 0.24761239

critic.lin1.weight f4 [32, 21]
000000 b6 4d 2a be 19 c3 3e bd 94 be 74 b9 6a ad 42 be
       -0.16631207 -0.04657278 -0.00023340649 -0.19011465
000010 3c da c6 3d 53 b7 32 3e 44 f1 29 3d 01 bd 44 3e
       0.09709594 0.17452745 0.041489854 0.19212724
000020 e4 29 fb bd 30 c8 cc bd 42 fb 0b be 8a b7 5d 3c
       -0.122638494 -0.0999912 -0.13670066 0.013532529
000030 2f 4a 0a be 47 dd 08 be 32 67 3d 3e fb 4c 9a 3d
       -0.13504861 -0.1336566 0.18496397 0.07534214
000040 e4 51 90 3d 0c 38 03 bd fc af 0e 3c 54 77 b9 bd
       0.070468694 -0.032035872 0.00870895 -0.09055963
000050 cd c0 fc bd b7 6d b6 bd 03 78 e5 bd 3c b3 48 3e
       -0.12341461 -0.08907645 -0.11204531 0.19599622
000060 21 6b bf 3d 8f 28 97 bd 4e b3 32 be fd 28 38 3e
       0.09346605 -0.07380783 -0.17451212 0.17984386
000070 95 14 56 be 04 7e 87 bd ff e7 19 bc b3 42 0a be
       -0.20906289 -0.066158324 -0.009393691 -0.13502006
000080 57 42 0f 3e 5c 45 0c 3e a9 0e 18 be f2 e1 f3 3d
       0.1399015 0.13698334 -0.14849342 0.1190833
000090 cf ef 92 3d 55 3c 28 3c 5a 22 da 3d 65 79 3e 3d
       0.07174646 0.0102682905 0.10651083 0.04650249
0000a0 83 d5 2f be a4 a6 12 be f2 69 94 bd 00 82 27 3c
       -0.17171292 -0.14321381 -0.0724677 0.0102238655
0000b0 80 c2 46 bc 6b 65 5e be e4 95 59 3d 37 3b 0b 3e
       -0.012131333 -0.21718375 0.053121462 0.13596807
0000c0 60 2b 12 3c 3f 4b 55 be ad d2 eb bd d4 6f 2d 3d
       0.008921474 -0.20829485 -0.115147926 0.042342976
0000d0 bc 28 43 bd f5 9c 56 be 34 11 62 3d 80 a0 d4 bc
       -0.04764627 -0.20958312 0.055192187 -0.025955439
0000e0 24 1b 90 bd 9b 2f fa bd a6 17 87 bd 50 95 44 3c
       -0.07036427 -0.12216111 -0.065963075 0.0119984895
0000f0 40 30 9e bd fc c1 7d 3d 74 15 14 3d 3c 0c 1f be
       -0.07724047 0.061952576 0.03615327 -0.15532011
000100 b5 c3 3a 3e 8b c1 54 be ba 71 e0 bd 64 49 62 3d
       0.18238719 -0.20776956 -0.109591916 0.055245772
000110 e0 5e 2b be 49 68 4a 3e 12 4d ab 3d 47 ef 3b 3e
       -0.1673541 0.19766344 0.08364309 0.18352996
000120 68 da 27 bd 68 1a b2 3c 97 6e 3c 3e 7c 4d 1c be
       -0.040979773 0.021741107 0.18401562 -0.15263933
000130 1a 76 9f bd 60 9a 42 3c a8 19 fe 3c f0 43 29 bc
       -0.07786198 0.011877626 0.031018093 -0.010331139
000140 bb 84 56 be 52 9f 00 be bc f7 24 be ab 67 54 3e
       -0.2094907 -0.12560776 -0.16110128 0.20742671
000150 8d 1b a4 3a cb ae 0a 3d cd af 9f bd 04 0a 8e 3d
       0.0012520418 0.0338581 -0.07797203 0.06935504
000160 01 e3 26 3e a7 48 f4 3d 7a 4e 01 3e 01 01 49 3d
       0.16297533 0.1192792 0.12627593 0.049073223
000170 ef 3c 45 3e 7c 63 10 3e 25 82 fe bd 6d 38 39 3e
       0.19261526 0.1410045 -0.12427167 0.18087931
000180 0b d2 4a 3e 1d 40 b1 3c 7c ae ff 3d 24 b5 1b 3e
       0.19806688 0.021637017 0.12484452 0.15205818
000190 64 c4 2a bd 65 07 ef 3c 61 8e 50 3d 84 d3 f4 bd
       -0.0416912 0.02917833 0.050917033 -0.11954406
0001a0 2b 37 b2 bd 12 5b a9 bd 97 e5 9b 3e c6 a8 6b 3d
       -0.08701929 -0.082693234 0.304486 0.057534
0001b0 ed 91 06 3e 67 00 a5 3d 49 4e 6b 3e 13 38 a9 3d
       0.13141604 0.08056717 0.22979082 0.082626484
0001c0 88 60 4e be c0 47 25 be 0d 4a cd bd fb f4 6f bc
       -0.20154011 -0.16140652 -0.1002389 -0.01464581
0001d0 34 0a 23 be 4c 75 bc 3d c7 50 ec bd 18 5c 9a bc
       -0.15921861 0.0920206 -0.115388446 -0.018842742
0001e0 86 e9 35 be 0b 6e 46 3e 09 d9 79 bd 10 46 5d be
       -0.17764863 0.19377916 -0.060997996 -0.21608758
0001f0 70 2a 12 3e 83 f8 6e bd 46 74 d7 bd 06 c2 20 3d
       0.14274001 -0.058342468 -0.10520224 0.039247535
000200 e6 79 2f 3e cb 92 97 bd b2 7b 10 3e 1f 62 a6 bd
       0.17136344 -0.074010454 0.14109686 -0.08124184
000210 ed 9d 71 3d b4 a3 11 be 13 5b d4 3c ae 0f 3f 3e
       0.0589885 -0.14222604 0.025922334 0.18658325
000220 07 a9 68 be df be 59 be 73 aa dc bd 17 dc ea bd
       -0.22720729 -0.21264218 -0.10774698 -0.1146776
000230 85 59 01 3e 8e f3 3e 3e a0 c5 18 bd b4 32 53 3e
       0.12631805 0.18647596 -0.037297845 0.2062481
000240 a8 06 e0 3d a0 fd 0c 3d 18 fb 46 3e d7 d5 46 be
       0.109387696 0.034421563 0.19431722 -0.19417511
000250 98 a3 40 be ef 1b 3e 3e 99 5c 04 be eb bd 0d be
       -0.18812406 0.18565343 -0.12925948 -0.13841979
000260 6c ab b1 3c 33 d8 00 3e 83 4a ca bb c9 d4 1a 3e
       0.021688186 0.12582473 -0.0061734333 0.15120234
000270 95 14 08 3e 95 89 45 3e 17 e4 3e 3e a8 2f cb bd
       0.13289101 0.19290765 0.18641697 -0.09921199
000280 83 3a 48 3e 82 ed f1 3d bd ff ad bb 0f be d3 bd
       0.1955357 0.11812879 -0.0053100274 -0.10338985
000290 a4 6d 1a be fd a2 25 3e f4 65 a1 bd 96 1c 6f 3d
       -0.15080887 0.16175456 -0.07880774 0.05837687
0002a0 bc c1 07 be 0a e7 1f be e8 62 ff bc 44 b0 39 be
       -0.13257498 -0.15615478 -0.031175092 -0.18133646
0002b0 ca 78 3c be 4c c7 71 3d 2e 6e 80 3d 6b b4 e1 bd
       -0.18405452 0.059027955 0.06271015 -0.1102074
0002c0 54 c2 1f be 14 a2 71 3d 52 8c 14 be 48 cd c6 bd
       -0.15601474 0.05899246 -0.14506653 -0.09707123
0002d0 fa 67 43 be 51 76 34 3e a8 2b 3d be 71 24 27 3e
       -0.19082633 0.17623259 -0.18473685 0.16322495
0002e0 de 07 36 be ae bf 00 be 80 f2 9a bb c0 cb 02 3b
       -0.17776439 -0.1257312 -0.0047286153 0.001995787
0002f0 20 c6 c8 bb 18 ab 55 bd 33 e4 35 3e 0d 29 3e be
       -0.006127134 -0.05216512 0.17762832 -0.18570347
000300 42 07 f0 3d 00 e0 02 bc ec db 5a 3d 94 ef 5d be
       0.11720134 -0.007987976 0.05343239 -0.21673423
000310 0a 3f a6 3d ec 0b 7d 3d b6 70 b2 bd 78 c8 9a bd
       0.081174925 0.061778948 -0.08712904 -0.07557768
000320 d7 60 f6 bd 55 e2 31 be fa 2f 96 3d 57 04 bf bd
       -0.120301895 -0.17371495 0.073333696 -0.09327
000330 2c d8 7d bd b4 89 3c bd 54 af 58 be a8 30 0d be
       -0.061973736 -0.04602976 -0.21160632 -0.13788092
000340 28 16 a5 3c 4b 8b 51 3e e8 1f bb 3d 04 d3 cb 3d
       0.020152166 0.20463292 0.09136945 0.099523574
000350 51 8e 57 3e 9f 83 6d 3d a1 ee e1 bd 2b ed 2f be
       0.21050383 0.05798685 -0.11031843 -0.17180316
000360 8e 55 c3 3d 44 70 55 3d 13 cd 04 be 75 8d 05 bc
       0.09537803 0.052109018 -0.12968855 -0.008151402
000370 08 e0 4d be a2 33 53 be 9c 3d 0d be 2b 3b cf bd
       -0.20104992 -0.20625165 -0.13793033 -0.10118707
000380 0c 9f 6c 3d 91 51 1b be be 58 5f be 23 60 36 3e
       0.057768866 -0.15167834 -0.21811196 0.17810111
000390 ce 8d b0 3d 4e d7 a6 3d 09 ca f7 3d eb 95 f9 3d
       0.08620797 0.08146535 0.12099082 0.12186798
0003a0 05 39 83 be ac 68 81 3d 0c 50 03 bd af 3f b4 bc
       -0.2562944 0.06318793 -0.03205876 -0.022003023
0003b0 85 97 9c bd 7d b5 b3 bd 13 48 32 3c eb 7a 50 be
       -0.076460876 -0.087748505 0.010881442 -0.2035939
0003c0 5e 5c 2b 3e ea a5 2b 3e 7a ec 53 3e a8 dd 41 3e
       0.16734454 0.1676251 0.20695677 0.18932211
0003d0 df fd 3c 3e 57 4a 67 3d 2f 36 1e be a1 89 34 3e
       0.18456219 0.05646738 -0.15450357 0.17630626
0003e0 6e 57 7e 3b ef af 28 3e f0 44 36 3e 79 0a 2e bd
       0.0038809436 0.16473363 0.17799735 -0.042490456
0003f0 79 67 58 3e c1 17 f9 bd ac 25 48 be 13 eb 1d 3e
       0.21133222 -0.12162734 -0.1954562 0.15421705

critic.lin1.bias f4 [32]
000000 b5 06 2e 3e 89 3f d0 ba 62 ed 8e 3d 04 14 65 bd
       0.16994746 -0.0015888076 0.06978871 -0.05592729
000010 68 a4 43 3e da b8 9d 3d 19 ae 3b 3e 5f b1 19 3e
       0.19105685 0.07701273 0.18328132 0.15009068
000020 e6 b1 d1 3d 4c ab 31 bd fc c2 c6 bd 7f 79 ca 3b
       0.102390096 -0.043376252 -0.09705159 0.0061790342
000030 5e f3 5e be ec b4 9a bd 94 66 1a bd 46 4f 53 be
       -0.21772525 -0.07554039 -0.037695482 -0.20635709
000040 5f e7 e0 bd dc cc 9e 3c 21 0e 0f 3e a8 80 37 bd
       -0.109816305 0.019384794 0.13970234 -0.04480043
000050 3d 9e 8d 3e 2b 8e 36 3e 1b e1 16 bd 30 21 dd 3d
       0.2765979 0.1782767 -0.03683577 0.10797346
000060 0b 13 3f 3e ba ca 97 bd de 83 00 be 14 d4 87 bd
       0.18659608 -0.07411714 -0.12550303 -0.066322476
000070 24 63 db bd e9 b8 d1 bc 8f df 3f 3e cf 95 45 be
       -0.10712269 -0.025600867 0.18737625 -0.19295429

critic.lin2.weight f4 [32, 32]
000000 9a 5b d4 bc e4 e6 0b 3e 02 dd cb 3d 10 d6 74 bc
       -0.025922585 0.13662297 0.09954263 -0.014943615
000010 83 29 2d 3e af 40 10 3e 73 a4 10 bd c6 9f f8 3d
       0.16910367 0.14087175 -0.03531308 0.12139849
000020 f9 be 8f bd 6d 6a 1d 3e dd c5 19 3e 7f da 43 3d
       -0.07018847 0.1537263 0.15016885 0.047815796
000030 20 ee bb bc 1c 3d 2b bd b0 26 32 bc 97 f3 82 3d
       -0.022940695 -0.041806325 -0.010873482 0.06394117
000040 3d 05 5d 3d 91 7e 23 3d 20 ec 1a bc ee 9d 23 3e
       0.053960074 0.039915625 -0.009455711 0.15978214
000050 6a b7 f0 3d 31 40 a7 bd f8 e8 6f 3d 6e 9f 1a be
       0.117537335 -0.081665404 0.058571786 -0.1509988
000060 63 ec ae bd bd b1 e5 3c 9e 39 2d be 0e 8f 60 3d
       -0.08541181 0.028038854 -0.1691651 0.054823928
000070 f9 ef 54 3d 13 7a 25 be 40 f3 fc 3d 2f d0 15 3e
       0.05198667 -0.16159849 0.12351084 0.14630197
000080 cb ae 76 3d 41 28 01 3e 48 00 43 bd 86 75 99 3d
       0.06022529 0.12613012 -0.04760769 0.07493119
000090 b0 53 1d 3d 6c ab 84 3d 94 ce 3f bd 36 ff e4 3c
       0.03840989 0.06478009 -0.046827868 0.027953725
0000a0 af be f9 bd 20 36 48 bd 6a a8 29 3e 38 65 21 3d
       -0.12194573 -0.048879743 0.16568151 0.03940317
0000b0 06 87 23 be c7 36 8b bd 9d 3c 21 be 64 8f cb bc
       -0.15969476 -0.06797557 -0.15745778 -0.024848647
0000c0 ae 85 ca 3d 76 75 25 bd a0 22 b8 bb 56 f6 34 be
       0.098887786 -0.040395223 -0.005619362 -0.17672095
0000d0 16 9b 4a 3e 76 6f 8e bc 15 80 a1 3d 74 20 b7 bc
       0.19785723 -0.017387133 0.07885758 -0.022354342
0000e0 10 68 b2 3c 4d 46 fb 3d 4a 50 59 bd 17 56 00 3e
       0.021778136 0.12269268 -0.053055085 0.1253284
0000f0 c9 97 94 3d 39 7a 05 3e 7f 7a 8a bd 21 05 23 be
       0.07255513 0.13034905 -0.067616455 -0.15919925
000100 91 15 df 3d 0f ff e8 bd c9 af d6 bd 30 63 15 3d
       0.10892785 -0.113767736 -0.10482747 0.036471546
000110 26 b3 41 3d b5 82 ee 3b 40 4b 91 bb 04 3a 81 3d
       0.04728999 0.007278765 -0.0044340193 0.06309894
000120 89 80 0f 3e 77 9e d5 bd 2f 0b 29 bd d4 24 b1 bc
       0.14013876 -0.104306154 -0.04127043 -0.021624006
000130 dc 17 22 bd 4c 84 0b 3d 90 f4 15 bc 6f bf 31 be
       -0.039573535 0.034061715 -0.0091525465 -0.17358182
000140 94 66 1e 3e a9 c5 ad bd 46 98 7c bd 63 61 12 3e
       0.15468818 -0.08484966 -0.061668657 0.14294963
000150 75 e4 60 3e 64 6c f1 3d 6f 78 46 be 18 40 08 be
       0.2196215 0.11788252 -0.1938188 -0.133057
000160 0c 66 0a be fa 3c 6b 3e 76 33 be 3d 2c 98 3f bd
       -0.1351549 0.2297248 0.09287159 -0.04677598
000170 d3 84 aa bd d4 e1 c5 bb 44 49 84 bd 6e a9 a9 3d
       -0.083261155 -0.0060388837 -0.06459287 0.08284269
000180 fd 48 0d 3e 8d f4 74 bd 5a c4 aa 3d 22 c2 f7 3d
       0.13797374 -0.059803534 0.08338232 0.12097575
000190 ae 9c 56 3d 74 d8 6c 3e 9e 2e 1c bd a8 97 9c 3d
       0.052395515 0.23129445 -0.038130395 0.07646114
0001a0 a0 93 84 bc 3c fe ee bd 70 18 09 3e 89 14 e7 bd
       -0.016183674 -0.11669585 0.13388228 -0.11283214
0001b0 4a 9e 0a be 75 88 0e 3e 0a 87 a8 3d 84 28 eb bc
       -0.13536945 0.13919242 0.08228882 -0.028705843
0001c0 91 37 95 3d 4f 5f 85 bd ea 62 b7 3d 69 4b e8 bd
       0.07285989 -0.06512319 0.08954413 -0.11342508
0001d0 18 e5 88 bd 01 1c 17 3e 56 78 ce 3d ff 4f 0e be
       -0.06684321 0.14756776 0.10081546 -0.13897704
0001e0 83 94 87 bd 52 1c 76 bd 90 14 dd bd 33 81 13 be
       -0.06620123 -0.060085602 -0.107949376 -0.14404754
0001f0 d5 69 60 3c 8d 5a b7 3d 6e 15 48 3d ae 1f f3 bc
       0.013697107 0.08952818 0.048848562 -0.029678192
000200 0c 14 8e 3d ef 85 98 3e 80 d5 b3 bc e4 bf 94 3d
       0.069374174 0.29789683 -0.02195239 0.07263163
000210 14 c1 63 3d 65 87 f4 3e 22 a4 d7 bc 79 04 17 3d
       0.055604056 0.47759548 -0.026323382 0.0368695
000220 c8 26 b9 bd 4c 33 1e 3d d8 9b 8a bd 24 26 fc 3c
       -0.090406 0.03862314 -0.06768006 0.030779906
000230 84 5d bb bd 0b fd 32 3e 66 83 30 be 1d 70 c4 bd
       -0.09148696 0.1747934 -0.17237625 -0.095916964
000240 34 f8 09 3d 80 a3 1f bd 50 47 a9 3c 7b 4d 2b be
       0.03368397 -0.038974285 0.020663887 -0.16728775
000250 4b 0a e8 3e a9 90 8a 3c 1e d1 ea bd 2d a9 b0 bb
       0.45320353 0.016914682 -0.11465667 -0.005391261
000260 80 66 20 bb 17 98 68 3e e7 fa 7a bd 53 88 93 3e
       -0.0024475157 0.22714268 -0.061274435 0.28814945
000270 a8 41 33 be 5d 01 07 3c c2 e9 54 be 41 2c 03 3e
       -0.17505515 0.008240071 -0.20792297 0.1280985
000280 ac 2e 83 3b 85 ee 12 bd e6 10 f7 3d 46 93 fc 3d
       0.0040033665 -0.035872 0.1206377 0.12332778
000290 39 56 0c 3d da 0e 29 bd 91 90 6a 3c 79 e0 7a bd
       0.034261916 -0.04127393 0.014316694 -0.06124923
0002a0 6c 9b 4f bd b8 8b 3e bd 11 ad aa 3d 48 29 27 3e
       -0.05068533 -0.046519965 0.08333791 0.16324341
0002b0 0f a8 2f 3e e7 2e 32 3e 9a b7 a7 3d 09 e2 e9 3d
       0.17153953 0.17400704 0.08189316 0.11420066
0002c0 c7 ae 67 3c 4d 9c c1 bd ee e4 04 be 0c 18 13 3d
       0.014140791 -0.0945364 -0.12977955 0.035911605
0002d0 fb e3 32 bd 90 ed 1c be 2a 71 f1 3d 08 3b ca 3d
       -0.04367445 -0.15324998 0.117891625 0.098745406
0002e0 66 45 ca 3d 27 92 61 be 4c 67 31 3e 97 e8 12 3b
       0.09876518 -0.22028409 0.17324561 0.0022416466
0002f0 40 3e 53 bd ed c8 85 bd 71 46 b7 bd 1f 1b 9d 3d
       -0.051573038 -0.06532464 -0.089489825 0.076711886
000300 8a e9 b2 3d 2c 5c 14 3d 00 1e d5 ba 31 56 0f 3e
       0.0873595 0.036220714 -0.0016259551 0.13997723
000310 d3 cd 5b 3b 8e 17 be be bc ed 05 3d f4 1c 28 3e
       0.003353943 -0.37127346 0.032697424 0.16417295
000320 94 64 d2 bd 88 b3 dd bc b7 6a 8d 3d 05 b4 08 bc
       -0.1027309 -0.027063146 0.0690512 -0.008343701
000330 9f dd 25 3e 7c 17 22 be 10 a3 72 3c 82 f7 c9 3d
       0.16197823 -0.15829271 0.014809385 0.098616615
000340 e1 43 7b 3d 21 9b 2b 3e d0 aa d6 bd 16 44 12 be
       0.06134403 0.16758396 -0.10481799 -0.14283785
000350 ed 34 7e be ae f4 87 bd 35 9f 0b bd 3f 98 11 be
       -0.24824877 -0.06638466 -0.03408738 -0.14218234
000360 14 1d 1d 3d 2e f3 dc bd b4 c3 86 3d 88 8a 3e bd
       0.03835781 -0.1078857 0.06580296 -0.046518832
000370 94 d0 6c 3c d4 a2 13 3e ce a2 77 3c 11 b7 39 bd
       0.014454026 0.14417583 0.015114499 -0.0453406
000380 7e 49 f0 bc a6 1c ca 3d fa 5f d7 bd 00 74 ce ba
       -0.029331919 0.098687455 -0.10516353 -0.0015751123
000390 82 d5 47 3d 28 b8 7a be 57 ee 10 3e 23 04 91 3d
       0.0487876 -0.24484313 0.1415342 0.07080867
0003a0 f2 fb e3 3d e4 3f 2e bd 81 aa 70 bb c1 f3 1d 3d
       0.11132039 -0.0425414 -0.0036722722 0.03856254
0003b0 3b 11 11 3e ef 6c 34 be 24 e5 19 3d 8d 70 7f bd
       0.14166729 -0.1761968 0.03757204 -0.062363196
0003c0 9b 08 a0 bd cc 2b 85 3c 2f 21 18 3e 76 58 ad 3c
       -0.07814141 0.016256236 0.14856409 0.021160346
0003d0 83 99 d9 3c 48 10 31 bd 89 cb e2 3d 92 42 06 3e
       0.026562458 -0.043228418 0.110739775 0.13111332
0003e0 95 9b 0b 3e 47 4c 6a be f5 a4 1f 3b c7 54 16 be
       0.13633569 -0.2288066 0.0024359797 -0.14680777
0003f0 15 36 40 3d bc e2 11 bd 1c 6b dc 3b f3 f2 81 bd
       0.046926577 -0.03561662 0.0067266356 -0.06345167

critic.lin2.bias f4 [32]
000000 7d 32 04 3e 33 e2 3a 3d 65 40 5b 3e cb 65 ed 3d
       0.12909885 0.045625877 0.21411283 0.11591681
000010 17 3b 95 3e 0a c2 36 be 7b 40 0c 3d 0e 59 98 3d
       0.29146644 -0.17847458 0.03424118 0.07438861
000020 48 48 44 bd 2e 69 d7 bd 9a 01 fb 3d aa 00 13 be
       -0.047920495 -0.10518108 0.12256165 -0.14355722
000030 44 5e f8 3d b7 3e d7 bd a4 8c 02 be 76 78 74 bd
       0.12127355 -0.10510009 -0.12748963 -0.059685193
000040 b6 2a ef 3d 21 ac a0 bd 02 4d 2f 3c 3f e2 8a bd
       0.11678068 -0.07845331 0.010699512 -0.06781434
000050 69 a7 d8 bd c3 c8 5d 3d 30 ba f9 bc 6f 8e 83 3c
       -0.10578806 0.05414654 -0.030484289 0.016059129
000060 8e 3e 9c 3d e1 eb b7 bc b8 e8 22 3d 20 cd 0a 3d
       0.07629119 -0.022451343 0.03977272 0.03388703
000070 a6 8f d5 bd 5d 02 55 3d 37 39 56 be a2 47 8b 3c
       -0.104277894 0.052004207 -0.20920263 0.01700193

critic.lin3.weight f4 [1, 32]
000000 25 db a0 bd 0d 9a b6 bd 04 00 26 be e8 e9 88 be
       -0.078542985 -0.089161016 -0.16210943 -0.26740956
000010 12 51 ce be 53 ff 20 3e 6d 96 fa 3d 47 2e 62 3c
       -0.40296227 0.15722398 0.12235723 0.013804979
000020 d0 d7 99 3d f2 89 ce bc 96 71 62 bd 23 1e 30 3e
       0.07511866 -0.025212262 -0.055284105 0.17198996
000030 9f c0 10 be ef 0a 29 3e 0a 85 ee 3d b9 71 c1 bd
       -0.14135979 0.16508077 0.11646469 -0.09445519
000040 6e 1c f3 3d 97 30 31 3d de 60 25 be f4 55 3e bd
       0.11870657 0.04325923 -0.16150233 -0.04646869
000050 48 40 05 3d d1 ba b4 bc f0 ae 0b bc 50 bb 02 be
       0.032532007 -0.022061737 -0.008525595 -0.12766767
000060 34 0b f2 bd e7 b4 30 3e 37 4f cc bc 48 32 f4 bd
       -0.11818543 0.17256509 -0.024940116 -0.11923653
000070 71 ee 32 3e ac 93 07 be 35 04 9c 3d 75 d9 b3 3d
       0.1747377 -0.13239926 0.0761799 0.08781711

exp_avg f4 [21]
000000 9c 1d f4 bd 60 07 c6 bd 70 e1 8f 38 4d 88 c3 13
       -0.1191971 -0.096693754 6.8607624e-05 4.9359323e-27
000010 74 df f9 bd b1 68 13 be 00 00 00 00 67 1e 91 29
       -0.122008234 -0.14395405 0.0 6.4445675e-14
000020 69 db 5e bb 00 00 00 00 da 0d 36 bd 7c 49 0f bd
       -0.003400529 0.0 -0.044446804 -0.03498219
000030 42 5f 5a 11 56 c9 c0 bc 95 f9 b6 bd 00 00 00 00
       1.7226521e-28 -0.023533504 -0.08934323 0.0
000040 00 00 00 00 70 0c c8 bd 00 00 00 00 36 37 e3 bd
       0.0 -0.09767997 0.0 -0.11094515
000050 e0 71 2d bd
       -0.042344928

exp_avg_sq f4 [21]
000000 48 8e 9a 3e 57 bb 74 3e b7 12 26 3a 37 1d 8a 32
       0.30186677 0.2389959 0.0006335186 1.60786e-08
000010 a8 3a a1 3e 18 30 f5 3e 00 00 00 00 52 5d 8e 37
       0.31490064 0.47888255 0.0 1.6971175e-05
000020 06 b3 3c 3c 00 00 00 00 21 20 90 3c 4c 94 68 3d
       0.011517292 0.0 0.017593445 0.056782052
000030 7c 87 83 2f 01 ce 96 3c 67 74 31 3e 00 00 00 00
       2.392503e-10 0.018408777 0.1732956 0.0
000040 00 00 00 00 0e c3 65 3e 00 00 00 00 d0 5c 87 3e
       0.0 0.22437689 0.0 0.26437998
000050 0f 89 ba 3c
       0.022770433
