saved_files/ckpt/nyc4/a2c_gnn_test_vdvp.pth (torch, 66201 bytes, 46 tensors)

actor.gamma_rate f4 [16, 16]
1999.9987 2000.0007 1999.9999 2000.0005 1999.9994 1999.9991 2000.0002 1999.9995
1999.9991 1999.9999 1999.9996 2000.0002 2000.0002 2000.0012 2000.0002 2000.0005
2000.0001 1999.9998 1999.9996 2000.0 1999.9996 1999.9998 1999.9996 1999.9999
2000.0001 1999.9999 1999.9999 2000.0004 1999.9998 2000.0002 2000.0002 1999.9996
2000.0 2000.0001 2000.0011 2000.0004 1999.9999 2000.0001 1999.9998 1999.9999
2000.0006 2000.0001 2000.0001 1999.9996 2000.0001 1999.9998 2000.0007 2000.0005
1999.9999 1999.9991 2000.0001 2000.0005 2000.0001 1999.9999 1999.9993 2000.0
1999.9995 1999.9994 2000.0 2000.0001 2000.0001 1999.9995 2000.0002 2000.0002
1999.9996 2000.0005 2000.0005 1999.9996 1999.9996 2000.0001 1999.9999 1999.9991
1999.9995 2000.0002 2000.0005 1999.9998 1999.9998 1999.9996 2000.0002 1999.9995
1999.9999 1999.9999 2000.0002 2000.0012 1999.9998 2000.0001 2000.0007 2000.0002
2000.0006 2000.0006 2000.0001 2000.0005 1999.999 1999.9989 1999.9999 2000.0004
2000.0005 1999.9999 2000.0002 1999.9999 1999.9991 2000.0 2000.0001 2000.0001
2000.0002 1999.9996 1999.9999 2000.0001 2000.0 1999.9991 1999.9998 2000.0001
1999.9999 2000.0005 2000.0006 2000.0 1999.9996 1999.9998 2000.0001 1999.9999
1999.9999 2000.0 1999.9998 2000.0006 2000.0002 1999.9996 1999.9999 2000.0
2000.0001 2000.0002 1999.9999 1999.9998 1999.9999 2000.0009 1999.9999 2000.0004
2000.0002 2000.0006 1999.9998 1999.9989 2000.0001 2000.0002 2000.0006 1999.9995
2000.0004 1999.9999 2000.0004 1999.9996 1999.9996 2000.0 1999.9995 2000.0002
1999.9998 2000.0005 2000.0002 1999.9995 2000.0006 1999.9999 1999.9998 1999.9996
1999.9999 2000.001 2000.0002 1999.9996 2000.0013 1999.9999 1999.9998 2000.0005
2000.0007 1999.9999 1999.9996 1999.9999 2000.0001 2000.0 2000.0001 1999.9996
2000.0002 1999.9999 1999.9993 1999.9999 2000.0001 2000.0007 2000.0005 2000.0002
2000.0004 2000.0006 2000.0 2000.0 2000.0005 2000.0001 2000.0007 1999.9999
2000.0007 1999.9999 2000.0 1999.9998 1999.9998 2000.0002 1999.9999 1999.9998
2000.0002 1999.9998 1999.9995 1999.9995 1999.9999 2000.0 2000.0001 1999.9998
2000.0001 2000.0002 1999.9998 1999.9991 2000.0004 1999.9994 2000.0 2000.0007
2000.0012 2000.0001 2000.0001 1999.9998 2000.0004 1999.9998 2000.0002 1999.9996
2000.0002 2000.0002 1999.9999 2000.0002 2000.0002 1999.9998 1999.9998 2000.0001
2000.0002 2000.0001 1999.9999 2000.0007 2000.001 1999.9996 1999.9998 2000.0002
1999.9999 2000.0005 2000.0004 2000.0001 2000.0 2000.0007 1999.9993 2000.0001
2000.0004 1999.9993 2000.0002 2000.0002 1999.9999 1999.9989 2000.0 2000.0002
00000000: f5ff f944 0600 fa44 ffff f944 0400 fa44
00000010: fbff f944 f9ff f944 0200 fa44 fcff f944
00000020: f9ff f944 ffff f944 fdff f944 0200 fa44
00000030: 0200 fa44 0a00 fa44 0200 fa44 0400 fa44
00000040: 0100 fa44 feff f944 fdff f944 0000 fa44
00000050: fdff f944 feff f944 fdff f944 ffff f944
00000060: 0100 fa44 ffff f944 ffff f944 0300 fa44
00000070: feff f944 0200 fa44 0200 fa44 fdff f944
00000080: 0000 fa44 0100 fa44 0900 fa44 0300 fa44
00000090: ffff f944 0100 fa44 feff f944 ffff f944
000000a0: 0500 fa44 0100 fa44 0100 fa44 fdff f944
000000b0: 0100 fa44 feff f944 0600 fa44 0400 fa44
000000c0: ffff f944 f9ff f944 0100 fa44 0400 fa44
000000d0: 0100 fa44 ffff f944 faff f944 0000 fa44
000000e0: fcff f944 fbff f944 0000 fa44 0100 fa44
000000f0: 0100 fa44 fcff f944 0200 fa44 0200 fa44
00000100: fdff f944 0400 fa44 0400 fa44 fdff f944
00000110: fdff f944 0100 fa44 ffff f944 f9ff f944
00000120: fcff f944 0200 fa44 0400 fa44 feff f944
00000130: feff f944 fdff f944 0200 fa44 fcff f944
00000140: ffff f944 ffff f944 0200 fa44 0a00 fa44
00000150: feff f944 0100 fa44 0600 fa44 0200 fa44
00000160: 0500 fa44 0500 fa44 0100 fa44 0400 fa44
00000170: f8ff f944 f7ff f944 ffff f944 0300 fa44
00000180: 0400 fa44 ffff f944 0200 fa44 ffff f944
00000190: f9ff f944 0000 fa44 0100 fa44 0100 fa44
000001a0: 0200 fa44 fdff f944 ffff f944 0100 fa44
000001b0: 0000 fa44 f9ff f944 feff f944 0100 fa44
000001c0: ffff f944 0400 fa44 0500 fa44 0000 fa44
000001d0: fdff f944 feff f944 0100 fa44 ffff f944
000001e0: ffff f944 0000 fa44 feff f944 0500 fa44
000001f0: 0200 fa44 fdff f944 ffff f944 0000 fa44
00000200: 0100 fa44 0200 fa44 ffff f944 feff f944
00000210: ffff f944 0700 fa44 ffff f944 0300 fa44
00000220: 0200 fa44 0500 fa44 feff f944 f7ff f944
00000230: 0100 fa44 0200 fa44 0500 fa44 fcff f944
00000240: 0300 fa44 ffff f944 0300 fa44 fdff f944
00000250: fdff f944 0000 fa44 fcff f944 0200 fa44
00000260: feff f944 0400 fa44 0200 fa44 fcff f944
00000270: 0500 fa44 ffff f944 feff f944 fdff f944
00000280: ffff f944 0800 fa44 0200 fa44 fdff f944
00000290: 0b00 fa44 ffff f944 feff f944 0400 fa44
000002a0: 0600 fa44 ffff f944 fdff f944 ffff f944
000002b0: 0100 fa44 0000 fa44 0100 fa44 fdff f944
000002c0: 0200 fa44 ffff f944 faff f944 ffff f944
000002d0: 0100 fa44 0600 fa44 0400 fa44 0200 fa44
000002e0: 0300 fa44 0500 fa44 0000 fa44 0000 fa44
000002f0: 0400 fa44 0100 fa44 0600 fa44 ffff f944
00000300: 0600 fa44 ffff f944 0000 fa44 feff f944
00000310: feff f944 0200 fa44 ffff f944 feff f944
00000320: 0200 fa44 feff f944 fcff f944 fcff f944
00000330: ffff f944 0000 fa44 0100 fa44 feff f944
00000340: 0100 fa44 0200 fa44 feff f944 f9ff f944
00000350: 0300 fa44 fbff f944 0000 fa44 0600 fa44
00000360: 0a00 fa44 0100 fa44 0100 fa44 feff f944
00000370: 0300 fa44 feff f944 0200 fa44 fdff f944
00000380: 0200 fa44 0200 fa44 ffff f944 0200 fa44
00000390: 0200 fa44 feff f944 feff f944 0100 fa44
000003a0: 0200 fa44 0100 fa44 ffff f944 0600 fa44
000003b0: 0800 fa44 fdff f944 feff f944 0200 fa44
000003c0: ffff f944 0400 fa44 0300 fa44 0100 fa44
000003d0: 0000 fa44 0600 fa44 faff f944 0100 fa44
000003e0: 0300 fa44 faff f944 0200 fa44 0200 fa44
000003f0: ffff f944 f7ff f944 0000 fa44 0200 fa44

actor.conv1.bias f4 [21]
-0.021320151 -0.010629291 -0.061323486 -0.004683832 0.034678392 -0.015889335 0.08095747 0.086275816
0.08290972 -0.0021727646 -0.04642227 0.010733952 0.047902144 -0.0057816245 0.0 0.0
0.01699319 0.09441301 0.02057054 0.05884424 -0.0028479625
00000000: 99a7 aebc 7a26 2ebc 562e 7bbd d57a 99bb
00000010: ee0a 0e3d 5a2a 82bc 08cd a53d 60b1 b03d
00000020: 92cc a93d f164 0ebb 4725 3ebd 75dd 2f3c
00000030: 0a35 443d c873 bdbb 0000 0000 0000 0000
00000040: 4d35 8b3c 9c5b c13d 8d83 a83c a806 713d
00000050: e2a4 3abb

actor.conv1.lin.weight f4 [21, 21]
0.31778562 -0.08860994 0.07008261 0.10691562 0.31171972 -0.29638025 -0.35760847 0.059182398
-0.23254345 0.09112514 -0.024300875 -0.060407784 -0.26200256 -0.10151369 0.1104647 -0.38075963
0.079671346 0.30223203 0.1338169 0.08052041 -0.06969812 -0.14643016 -0.06709676 -0.19007342
0.03839515 -0.29831976 -0.30262348 -0.23078288 0.028369037 0.27176586 0.11293409 0.2524162
0.20644733 -0.23344526 -0.027920479 0.32514542 -0.12116959 -0.16917118 0.09540057 -0.374468
0.19795391 -0.2540594 -0.011269139 0.1158275 -0.057740796 0.13639179 0.1967893 0.028878903
-0.32935244 0.0069180583 -0.20709784 0.093699746 -0.26793995 0.17061155 0.015309793 0.16581605
-0.2145085 -0.03498588 0.25991124 -0.17659985 -0.37578914 0.06638057 0.15308416 0.07388361
0.35638094 -0.2842444 0.17023931 -0.13494863 0.32919732 0.2355391 -0.048013717 -0.047461476
0.23948087 -0.29516074 -0.03089438 -0.18356118 0.21526475 -0.24491759 -0.18693145 -0.2774822
0.12406271 -0.23824507 -0.045093454 0.005009508 0.47296435 0.37164173 0.3961915 0.38383016
-0.043639805 0.3447127 0.39047518 0.47921172 0.5119703 0.19007729 0.116818726 0.37054157
0.32589325 0.36491194 -0.28164214 0.37511328 0.21833113 -0.09942605 0.31919968 0.31695777
0.27988774 0.12378628 -0.23862755 0.025169533 -0.13371448 -0.059420947 0.1645992 0.016994506
0.10381566 -0.25475368 0.24457304 -0.22783612 -0.13377464 0.31317765 0.32749116 -0.21370634
0.16497739 -0.24299484 0.26678243 -0.06336236 -0.37743405 -0.26870608 0.12844199 0.14387438
0.3823151 -0.13355869 0.24877515 0.0011987998 0.5471999 0.026554305 0.07765354 0.5979576
0.16141656 0.100838445 0.17774427 0.113569215 0.23577952 0.27273571 0.07032609 0.43186283
0.31737205 -0.25505105 -0.077206805 -0.06240282 0.36425367 0.36251795 0.46192342 0.5031602
0.029230317 0.48103866 0.30185857 0.17335327 0.42992207 0.117841646 -0.20860235 0.20530112
0.2313539 0.032005887 0.47074783 0.27294585 0.04598922 -0.029502567 0.24864347 0.39309764
0.037270825 0.18281859 0.16151012 0.483185 0.5514727 0.1921985 0.5226095 0.5536666
0.051535055 -0.054870423 0.5322917 0.187016 -0.23393588 0.42301676 0.4725196 0.39906546
0.08067233 0.27653235 0.31703055 -0.15019867 0.052695278 0.24118026 -0.2677504 0.3045522
0.23417066 0.069064125 -0.23199467 -0.32425287 0.2952824 0.2760789 0.102043726 0.3284499
-0.27693775 0.10173029 -0.3129536 0.052182216 -0.00429159 0.23007336 -0.19200674 -0.33047065
0.0944214 -0.080667265 -0.010062989 -0.2671394 0.23156387 0.26915103 -0.16994572 -0.30220717
0.18527345 -0.31154042 -0.19435126 -0.38576508 -0.26758268 -0.06341886 0.1259441 -0.21187109
0.2706424 -0.08014417 0.02648093 -0.20512594 0.27489558 -0.20396997 0.070427924 0.21398216
0.090341434 0.13096304 -0.30530185 0.16185537 0.34824887 -0.004264746 0.11235716 -0.18858403
0.09732823 0.041247208 -0.11396144 0.082648404 0.03899145 -0.35280547 0.23060413 -0.07626901
0.11026088 -0.35983235 -0.12863941 -0.01693722 0.35978973 -0.039754584 0.2589569 0.28380963
00000000: ccb4 a23e 2179 b5bd 7987 8f3d 94f6 da3d
00000010: ba99 9f3e 27bf 97be 7518 b7be 3e69 723d
00000020: df1f 6ebe d19f ba3d a112 c7bc 276e 77bd
00000030: 3325 86be 69e6 cfbd 513b e23d edf2 c2be
00000040: bb2a a33d 28be 9a3e 4c07 093e e2e7 a43d
00000050: e3bd 8ebd caf1 15be 076a 89bd 9ba2 42be
00000060: 3c44 1d3d 5ebd 98be 77f1 9abe 5952 6cbe
00000070: 2f66 e83c e524 8b3e fd49 e73d b23c 813e
00000080: ee66 533e 460c 6fbe 7db9 e4bc 7679 a63e
00000090: c327 f8bd 363b 2dbe 6061 c33d 45ba bfbe
000000a0: 6eb4 4a3e 1314 82be 32a2 38bc f836 ed3d
000000b0: 9d81 6cbd 4aaa 0b3e 2283 493e 7393 ec3c
000000c0: e2a0 a8be e1b0 e23b 7511 54be a7e5 bf3d
000000d0: 6d2f 89be cbb4 2e3e edd5 7a3c afcb 293e
000000e0: 1ea8 5bbe 5b4d 0fbd 1613 853e 97d6 34be
000000f0: 6f67 c0be 89f2 873d 18c2 1c3e 4a50 973d
00000100: 9077 b63e 7b88 91be 3753 2e3e f92f 0abe
00000110: 8d8c a83e 2931 713e 08aa 44bd f766 42bd
00000120: 793a 753e 4f1f 97be 3616 fdbc 76f7 3bbe
00000130: 5d6e 5c3e adcb 7abe f56a 3fbe 2612 8ebe
00000140: 9714 fe3d 84f6 73be eab3 38bd cd26 a43b
00000150: 6228 f23e d347 be3e 9dd9 ca3e 6385 c43e
00000160: a7bf 32bd 2f7e b03e 5dec c73e 3d5b f53e
00000170: 7c10 033f 9fa3 423e a83e ef3d a0b7 bd3e
00000180: 7bdb a63e bdd5 ba3e 6633 90be d90e c03e
00000190: 3292 5f3e e39f cbbd 246e a33e 4a48 a23e
000001a0: 724d 8f3e a983 fd3d c85a 74be 5630 ce3c
000001b0: 73ec 08be 6163 73bd b18c 283e 1038 8b3c
000001c0: 4e9d d43d 136f 82be 5b71 7a3e df4d 69be
000001d0: 38fc 08be d258 a03e ecac a73e d6d5 5abe
000001e0: d5ef 283e a4d3 78be b597 883e 20c4 81bd
000001f0: 093f c1be d893 89be 4c86 033e ce53 133e
00000200: cebe c33e 9cc3 08be eabe 7e3e 0c21 9d3a
00000210: 4b15 0c3f 6a88 d93c d208 9f3d c013 193f
00000220: 624a 253e 6384 ce3d 9802 363e fa96 e83d
00000230: 3070 713e 04a4 8b3e 2007 903d 201d dd3e
00000240: 977e a23e 0d96 82be 9a1e 9ebd 199a 7fbd
00000250: 757f ba3e f49b b93e 3a81 ec3e 1bcf 003f
00000260: 6b74 ef3c b34a f63e 358d 9a3e 8583 313e
00000270: bf1e dc3e f656 f13d db9b 55be 753a 523e
00000280: 09e8 6c3e 9b18 033d dc05 f13e 8fbf 8b3e
00000290: 315f 3c3d 5eaf f1bc 659c 7e3e 1844 c93e
000002a0: 4ba9 183d cc34 3b3e e962 253e 0664 f73e
000002b0: 512d 0d3f afcf 443e bcc9 053f 18bd 0d3f
000002c0: 6c16 533d cfbf 60bd 4544 083f 1f81 3f3e
000002d0: e38c 6fbe a795 d83e 17ee f13e 4f52 cc3e
000002e0: 8937 a53d a695 8d3e d451 a23e aecd 19be
000002f0: 01d7 573d f5f7 763e 9516 89be 44ee 9b3e
00000300: 6fca 6f3e 7e71 8d3d 0390 6dbe 7904 a6be
00000310: 412f 973e 375a 8d3e 4dfc d03d 962a a83e
00000320: c9ca 8dbe f857 d03d 743b a0be 05bd 553d
00000330: 77a0 8cbb 5a98 6b3e 6a9d 44be 7333 a9be
00000340: 0260 c13d e134 a5bd 3cdf 24bc 7fc6 88be
00000350: 141f 6d3e 2ace 893e 4006 2ebe e6ba 9abe
00000360: 53b8 3d3e 3a82 9fbe 0404 47be 0083 c5be
00000370: 9900 89be bfe1 81bd 7df7 003e bcf4 58be
00000380: a491 8a3e a022 a4bd 89ee d83c 890c 52be
00000390: 1dbf 8c3e 81dd 50be 843c 903d 241e 5b3e
000003a0: ee04 b93d 2d1b 063e 8650 9cbe 6abd 253e
000003b0: ad4d b23e 48bf 8bbb 831b e63d 2c1c 41be
000003c0: 0654 c73d d5f2 283d 9e64 e9bd 9143 a93d
000003d0: 80b5 1f3d eba2 b4be 7d23 6c3e ed32 9cbd
000003e0: 75d0 e13d f23b b8be 0dba 03be edbf 8abc
000003f0: 5c36 b83e b4d5 22bd 0096 843e 7f4f 913e

actor.lin1.weight f4 [32, 21]
-0.10182969 -0.09176558 -0.14716049 0.22305052 -0.042283088 -0.019709542 -0.009741102 -0.085988805
0.14686862 -0.1184969 0.081510566 0.1397909 -0.11369805 -0.014969531 -0.11912316 -0.12908788
-0.093022965 -0.054245412 -0.09827754 0.11601321 0.009613334 0.37817577 0.31338605 0.0237046
0.12266686 0.32985076 0.422325 0.01116098 0.3539387 0.400724 0.32273942 0.42466286
-0.10903598 -0.14248258 -0.07858141 -0.09180548 -0.32534856 -0.050007965 0.15984562 0.11484337
0.14859447 -0.15017195 0.38438147 0.10196071 0.05805643 0.3387876 0.092781805 0.45629796
0.19063337 0.28950393 0.18638994 0.30879655 0.18550885 -0.08687387 -0.034340788 -0.23107138
-0.1748879 -0.09542277 0.10655856 0.01737087 -0.0063474677 0.10778454 0.03689752 0.24425454
0.2641036 0.14105256 0.49503133 0.27266595 0.27979863 0.35017392 0.27800295 0.32373527
0.5427995 0.46523136 -0.20534062 -0.04814874 -0.020127427 -0.015769035 0.11917054 -0.033820175
-0.23663026 -0.17539151 0.101996996 -0.08839905 -0.05380929 0.09209168 -0.14149983 0.10207159
-0.22454877 -0.1352267 0.06753886 -0.087316856 -0.22852391 -0.009561538 -0.08429684 -0.1334478
0.086019784 -0.113625675 -0.14631373 0.09809905 0.101810165 0.014188594 -0.06629427 0.16214919
-0.12606607 0.046204295 0.3529978 0.11240461 0.08219341 -0.026518298 0.2965975 0.3609649
0.1924274 -0.051456135 0.27114776 0.17622304 -0.04044528 0.07883839 0.079643205 -0.15972711
-0.011368322 0.041816697 0.12488347 0.07217934 -0.1120687 -0.040997464 -0.18712687 -0.22832048
0.11001661 -0.05964609 -0.0625762 0.18093692 0.10944571 -0.20524934 0.119002506 -0.18804996
0.0513012 -0.01233238 0.024943274 -0.08738984 0.17475411 -0.1639857 -0.055259984 0.0075019677
0.040058516 -0.051895212 -0.046730965 0.40407452 0.32704225 0.33955547 0.1651804 0.16096784
0.4698442 0.4116527 0.23702773 0.39792788 0.39409858 0.41891328 -0.051615193 0.035755035
0.008382088 -0.12940064 -0.22016037 -0.072902 0.06840187 -0.21682638 0.09645529 -0.1560626
-0.13570297 0.14442444 -0.009118083 0.15734567 -0.16726036 -0.19349982 -0.18341981 0.06271245
0.000292654 0.17995708 -0.03583325 -0.12004143 -0.108470686 -0.1452506 -0.02197095 -0.17487271
-0.068083905 0.030002622 0.094669096 0.029467352 0.1699878 0.2831777 0.40677866 0.055312812
0.07818408 0.16010782 0.18724252 0.41407132 0.32090682 0.4010989 0.565798 0.20317475
-0.23399207 -0.25053057 -0.13176967 0.10386543 -0.010600318 -0.29478037 0.034227535 -0.023895849
0.00787651 0.06298957 -0.20507856 -0.09128643 0.08499625 0.18104705 -0.21492967 0.035192348
0.2106296 0.042950377 0.1095306 -0.13557754 -0.20418172 0.102682 -0.13828889 -0.15179515
0.023603916 0.20246762 0.0567142 -0.038944017 -0.023643509 -0.102203675 -0.10978161 0.042201582
-0.17696254 -0.28688186 -0.2887602 -0.2761736 -0.14773992 -0.23852186 0.08426115 -0.23338208
-0.120993495 0.07181996 0.116742045 0.16850728 -0.12167077 -3.485505e-05 0.179014 -0.019025318
-0.18454148 0.12939139 0.09449619 0.18715055 0.54692316 0.39889467 0.2503083 0.14173093
00000000: 168c d0bd 98ef bbbd 3db1 16be 5b67 643e
00000010: 0831 2dbd e875 a1bc 2599 1fbc e61a b0bd
00000020: ba64 163e 81ae f2bd 03ef a63d 5825 0f3e
00000030: 86da e8bd c442 75bc d8f6 f3bd 9d2f 04be
00000040: d382 bebd 7030 5ebd bc45 c9bd 5598 ed3d
00000050: 3f81 1d3c 41a0 c13e 2374 a03e 2630 c23c
00000060: c338 fb3d 33e2 a83e fb3a d83e 8bdc 363c
00000070: 7437 b53e b22b cd3e 1a3e a53e 696d d93e
00000080: 424e dfbd f4e6 11be 4aef a0bd 8304 bcbd
00000090: 1694 a6be 27d5 4cbd 92ae 233e 0033 eb3d
000000a0: 2629 183e adc6 19be a6cd c43e c7d0 d03d
000000b0: 94cc 6d3d 9175 ad3e 6304 be3d e39f e93e
000000c0: 6535 433e dc39 943e 01dd 3e3e 951a 9e3e
000000d0: 08f6 3d3e edea b1bd eda8 0cbd fa9d 6cbe
000000e0: d015 33be 036d c3bd 603b da3d 5b4d 8e3c
000000f0: 6bfe cfbb 24be dc3d db21 173d dd1d 7a3e
00000100: 9638 873e 1570 103e bf74 fd3e df9a 8b3e
00000110: c441 8f3e ff49 b33e 6756 8e3e a1c0 a53e
00000120: e8f4 0a3f ce32 ee3e d044 52be 9d37 45bd
00000130: 46e2 a4bc 102e 81bc af0f f43d 0687 0abd
00000140: 344f 72be d599 33be cde3 d03d 900a b5bd
00000150: 2167 5cbd 909a bc3d 55e5 10be e90a d13d
00000160: 1df0 65be de78 0abe d051 8a3d 2ed3 b2bd
00000170: 2c02 6abe ffa7 1cbc d2a3 acbd 8aa6 08be
00000180: 242b b03d 94b4 e8bd 44d3 15be 28e8 c83d
00000190: d981 d03d 4777 683c 4ac5 87bd 700a 263e
000001a0: 7717 01be b740 3d3d 21bc b43e 6334 e63d
000001b0: 0555 a83d e73c d9bc a1db 973e 64d0 b83e
000001c0: b00b 453e abc3 52bd e1d3 8a3e d073 343e
000001d0: f3a9 25bd 0676 a13d fa1b a33d 818f 23be
000001e0: 3342 3abc fc47 2b3d e8c2 ff3d c3d2 933d
000001f0: 4684 e5bd f5ec 27bd 309e 3fbe d8cc 69be
00000200: 6350 e13d 754f 74bd f327 80bd 8747 393e
00000210: 1325 e03d e22c 52be 96b7 f33d 2b90 40be
00000220: 3521 523d c00d 4abc d655 cc3c 72f9 b2bd
00000230: bef2 323e deeb 27be 4b58 62bd 11d3 f53b
00000240: 6614 243d 1390 54bd f868 3fbd dbe2 ce3e
00000250: 1572 a73e 37da ad3e 0d25 293e c1d4 243e
00000260: 6b8f f03e 25c4 d23e 66b7 723e 34bd cb3e
00000270: 4ac7 c93e cd7b d63e 746a 53bd df73 123d
00000280: 0655 093c 9a81 04be b871 61be a54d 95bd
00000290: 4816 8c3d bc07 5ebe 5a8a c53d e0ce 1fbe
000002a0: b8f5 0abe 00e4 133e 0364 15bc 391f 213e
000002b0: 4d46 2bbe d124 46be 67d2 3bbe 636f 803d
000002c0: 5b6f 9939 ab46 383e e3c5 12bd 48d8 f5bd
000002d0: e125 debd 93bc 14be 6cfc b3bc d511 33be
000002e0: 936f 8bbd 0fc8 f53c dfe1 c13d 8465 f13c
000002f0: 4811 2e3e abfc 903e 4b45 d03e b08f 623d
00000300: fa1e a03d 4ef3 233e 81bc 3f3e 2801 d43e
00000310: e64d a43e d65c cd3e 23d8 103f 0b0d 503e
00000320: 9e9b 6fbe 8b45 80be a1ee 06be 66b7 d43d
00000330: f5ac 2dbc 74ed 96be 2c32 0c3d 3ac1 c3bc
00000340: 7a0c 013c ad00 813d 1d00 52be 61f4 babd
00000350: 8412 ae3d 6664 393e 8616 5cbe da25 103d
00000360: 49af 573e bcec 2f3d 9451 e03d d7d4 0abe
00000370: 0315 51be f14a d23d 9a9b 0dbe 3070 1bbe
00000380: 005d c13c ac53 4f3e 264d 683d c383 1fbd
00000390: 08b0 c1bc 2950 d1bd 2ed5 e0bd 91db 2c3d
000003a0: ab35 35be 2ee2 92be 60d8 93be a066 8dbe
000003b0: 2249 17be 133f 74be 1c91 ac3d b6fb 6ebe
000003c0: 70cb f7bd 5816 933d 7416 ef3d 2c8d 2c3e
000003d0: 862e f9bd 5331 12b8 724f 373e fcda 9bbc
000003e0: 71f8 3cbe 2d7f 043e 3887 c13d 65a4 3f3e
000003f0: 2803 0c3f ec3b cc3e 6928 803e ea21 113e

actor.lin1.bias f4 [32]
0.18456644 0.010263604 0.041346475 0.08628172 0.16830453 -0.005262884 -0.16727754 0.07371261
-0.073849805 0.05483269 -0.063454404 0.028825717 0.15888385 0.0835371 -0.038288668 0.027873496
0.1507913 0.21419248 0.18153192 0.2891334 -0.20000629 0.015173436 0.16520767 0.1373741
-0.018610284 -0.044106353 -0.057042833 0.22356504 0.045822516 0.047094956 0.21930271 -0.2101344
00000000: fcfe 3c3e ad28 283c ec5a 293d 78b4 b03d
00000010: 0658 2c3e 4574 acbb ce4a 2bbe a3f6 963d
00000020: 913e 97bd 3e98 603d 62f4 81bd e923 ec3c
00000030: 73b2 223e 8015 ab3d 94d4 1cbd f556 e43c
00000040: 0969 1a3e 4655 5b3e 81e3 393e 4b09 943e
00000050: 73ce 4cbe 019a 783c 332c 293e ccab 0c3e
00000060: 9874 98bc dda8 34bd bfa5 69bd 3cee 643e
00000070: 64b0 3b3d a4e6 403d e490 603e 792d 57be

actor.lin2.weight f4 [32, 32]
-0.12735361 0.13801791 0.26753384 0.34718895 -0.1798388 0.122956574 -0.019385953 0.31255916
-0.15555938 0.22103156 0.062165227 0.028695656 0.38474697 0.12466513 0.26319018 0.116751835
-0.14197826 -0.03920843 0.15741657 0.3623219 -0.030631764 0.2597549 0.024314607 0.14314766
0.031472847 -0.09227359 -0.06130447 0.2390414 0.11274409 0.06480421 0.21777776 -0.10076043
-0.09136752 -0.17228262 -0.13442573 -0.03495097 0.16382782 -0.07218107 -0.04092461 -0.17053548
-0.1660824 -0.054740682 -0.060203 0.13682167 -0.1048187 -0.115535274 0.042246297 -0.045273006
0.17406638 0.072837934 -0.016262427 0.015051842 -0.16399872 0.04585229 -0.11469683 -0.07161306
-0.034288466 -0.06529843 -0.018100023 -0.07133693 0.004884228 0.013935223 -0.02132614 0.095889255
-0.0679957 -0.043704074 -0.010158895 0.01766018 -0.00991922 0.17153591 0.1494539 -0.14881322
-0.15116777 -0.11237015 -0.05042413 0.13966526 -0.050792754 -0.0921418 -0.020641983 0.07379342
-0.010032793 0.03335548 0.11355844 -0.10694723 -0.12069929 -0.13811691 -0.05773551 0.10559657
0.041664377 -0.08805699 -0.118592165 0.11297106 -0.010846837 0.075436935 -0.06833255 0.07952528
-0.17191772 0.22290914 0.06659797 0.12807584 0.12216038 0.16166894 0.029443027 0.18992056
-0.08679764 0.14489347 -0.0023615118 -0.073643476 0.2184719 -0.15655318 -0.02925348 0.038918927
0.12625003 0.13226184 0.069875464 0.3674551 -0.112816535 0.23259783 0.02699193 0.13732846
0.035629153 -0.16061856 0.12831806 0.21482694 -0.08565027 -0.097684905 0.14350374 0.1742614
-0.14402235 -0.17479175 0.05561478 0.14959161 0.12164335 -0.004004382 0.06301786 -0.08850643
-0.01800777 0.07069306 -0.0500302 -0.04869927 -0.034931734 -0.06680807 0.062435195 -0.008325806
0.10384394 -0.019869747 0.115958445 -0.10825506 -0.045659855 0.124479115 0.004032403 -0.15915851
0.090674445 -0.14461914 -0.08506178 0.10647563 0.14818056 -0.14541943 -0.18407708 -0.0211256
-0.14603604 0.25356522 0.15807036 0.37931997 -0.1115653 0.1677612 -0.0731093 0.39356008
-0.1369314 0.17314287 -0.14067702 -0.16313319 0.3324277 -0.04726138 0.10651008 0.29861858
-0.13619833 0.20140648 -0.063509226 0.22702853 0.06978911 0.23266937 -0.11487755 0.048822492
-0.16197725 0.045723557 -0.12786824 0.0025103018 -0.16004021 0.0883504 0.34053218 -0.11698835
-0.1387893 -0.17802367 -0.0009820434 0.0100718625 -0.12633336 -0.062055748 -0.16888545 -0.17762949
-0.019634053 0.045422215 -0.06295658 0.10612881 0.117241465 0.051584512 0.029760685 -0.021924768
0.013400855 -0.17890655 0.15357865 -0.18160675 -0.06696302 0.078566164 0.1432846 -0.16751221
-0.053832486 0.16405664 -0.19034557 0.09586726 0.062252223 0.05980958 -0.15136887 -0.13456583
0.10593064 0.19578701 0.085905194 0.3921958 0.115361504 0.13671224 0.089859135 0.33360443
0.16432628 0.15579201 -0.17144255 -0.13061598 0.22515754 0.1455316 -0.09420385 0.24409007
0.12702778 0.23538409 0.034247324 0.26106372 -0.062002167 0.2877192 -0.010049682 0.10209786
-0.127757 0.08393658 -0.09386353 0.21137221 -0.007528754 0.07326405 0.2898358 0.0768943
00000000: fc68 02be 9154 0d3e 32fa 883e c0c2 b13e
00000010: aa27 38be a8d0 fb3d 4acf 9ebc c107 a03e
00000020: f54a 1fbe 1956 623e f7a0 7e3d 2713 eb3c
00000030: 8efd c43e 6f50 ff3d ddc0 863e 961b ef3d
00000040: c062 11be 0599 20bd cf31 213e 4282 b93e
00000050: 77ef fabc 98fe 843e 6d2f c73c 4d95 123e
00000060: ace9 003d f0f9 bcbd 651a 7bbd 45c7 743e
00000070: 60e6 e63d 12b8 843d 2201 5f3e 7c5b cebd
00000080: e51e bbbd db6a 30be e6a6 09be c028 0fbd
00000090: 7bc2 273e abd3 93bd 90a0 27bd daa0 2ebe
000000a0: 8111 2abe c437 60bd 6c97 76bd fb1a 0c3e
000000b0: 30ab d6bd c29d ecbd 740a 2d3d 3070 39bd
000000c0: 753e 323e 0e2c 953d c838 85bc 009c 763c
000000d0: 48ef 27be 9ccf 3b3d 2ce6 eabd dea9 92bd
000000e0: 1072 0cbd 2fbb 85bd 8046 94bc 1919 92bd
000000f0: e00b a03b 9050 643c 28b4 aebc 9661 c43d
00000100: 5441 8bbd 0b03 33bd 7e71 26bc 15ac 903c
00000110: 3984 22bc 1ca7 2f3e 710a 193e 7e62 18be
00000120: b9cb 1abe 5222 e6bd 8889 4ebd 6904 0f3e
00000130: 100c 50bd d7b4 bcbd 6019 a9bc 0121 973d
00000140: 9560 24bc c19f 083d 5491 e83d 2607 dbbd
00000150: 3031 f7bd 856e 0dbe 127c 6cbd 0443 d83d
00000160: 44a8 2a3d 3957 b4bd 73e0 f2bd 5f5d e73d
00000170: efb6 31bc ae7e 9a3d f0f1 8bbd 26de a23d
00000180: 330b 30be 4b42 643e 8464 883d 5026 033e
00000190: 392f fa3d 8b8c 253e 8132 f13c 897a 423e
000001a0: f6c2 b1bd f45e 143e 98c3 1abb 64d2 96bd
000001b0: 19b7 5f3e 7a4f 20be fea4 efbc 7469 1f3d
000001c0: b047 013e a66f 073e de1a 8f3d 1323 bc3e
000001d0: 5b0c e7bd 202e 6e3e 2e1e dd3c d59f 0c3e
000001e0: e0ef 113d 3179 24be cf65 033e 98fb 5b3e
000001f0: 6969 afbd 060f c8bd a5f2 123e 9571 323e
00000200: 987a 13be 9cfc 32be 53cc 633d 8b2e 193e
00000210: 2620 f93d 3137 83bb 820f 813d dc42 b5bd
00000220: 0885 93bc 86c7 903d 78ec 4cbd e378 47bd
00000230: 9414 0fbd abd2 88bd 0cbc 7f3d f668 08bc
00000240: 22ac d43d e1c5 a2bc 9f7b ed3d d4b4 ddbd
00000250: d405 3bbd e8ee fe3d 4022 843b 73fa 22be
00000260: 86b3 b93d 0a17 14be df34 aebd e50f da3d
00000270: a5bc 173e d5e8 14be b47e 3cbe 980f adbc
00000280: 798a 15be 4dd3 813e 32dd 213e 3a36 c23e
00000290: 597c e4bd 98c9 2b3e 54ba 95bd b580 c93e
000002a0: bf37 0cbe 5d4c 313e a30d 10be 630c 27be
000002b0: f733 aa3e 2695 41bd f521 da3d 89e4 983e
000002c0: 9377 0bbe 803d 4e3e 2011 82bd 2b7a 683e
000002d0: 98ed 8e3d e140 6e3e ec44 ebbd 18fa 473d
000002e0: 5ddd 25be a048 3b3d e4ef 02be e083 243b
000002f0: 95e1 23be 0ef1 b43d 3c5a ae3e 9797 efbd
00000300: c81e 0ebe d64b 36be e9b7 80ba 7404 253c
00000310: 885d 01be 2b2e 7ebd 4ff0 2cbe 81e4 35be
00000320: 98d7 a0bc a50c 3a3d 61ef 80bd 105a d93d
00000330: 4b1c f03d 484a 533d aecc f33c 929b b3bc
00000340: 428f 5b3c 4733 37be b943 1d3e 1ff7 39be
00000350: e823 89bd 4ce7 a03d 33b9 123e 5288 2bbe
00000360: 747f 5cbd 77fe 273e f3e9 42be 0e56 c43d
00000370: 30fc 7e3d e4fa 743d 7100 1bbe a0cb 09be
00000380: 2af2 d83d 647c 483e 10ef af3d e3cd c83e
00000390: a742 ec3d 4bfe 0b3e 1108 b83d 33ce aa3e
000003a0: 2645 283e f187 1f3e a38e 2fbe 32c0 05be
000003b0: b38f 663e 3c06 153e f3ed c0bd bff2 793e
000003c0: 9213 023e 8708 713e ec46 0c3d 25aa 853e
000003d0: fcf5 7dbd ee4f 933e 6ca7 24bc af18 d13d
000003e0: bbd2 02be f1e6 ab3d 863b c0bd f571 583e
000003f0: c4b3 f6bb 760b 963d 5c65 943e c27a 9d3d

actor.lin2.bias f4 [32]
-0.060349893 -0.003159538 -0.10659169 0.22419158 -0.1670738 0.24843912 -0.065065585 0.19852558
0.05928433 -0.09790144 -0.096980065 0.11949189 0.028421832 0.08547653 0.15135811 0.20608614
0.06441801 0.1617768 0.085730165 -0.014885052 0.20714433 0.00027936645 -0.010294203 0.134702
-0.10236875 0.08824652 -0.06635802 0.12539266 -0.0011208355 0.057044555 0.11167813 -0.014744929
00000000: 7331 77bd 4010 4fbb be4c dabd 7a92 653e
00000010: 6515 2bbe d366 7e3e 1b41 85bd 4a4a 4b3e
00000020: 20d4 723d 8d80 c8bd 7c9d c6bd 2ab8 f43d
00000030: e7d4 e83c 520e af3d 9ffd 1a3e 3f08 533e
00000040: 97ed 833d d1a8 253e 4c93 af3d 6fe0 73bc
00000050: a51d 543e ee77 9239 04a9 28bc 52ef 093e
00000060: b5a6 d1bd 97ba b43d b7e6 87bd ef66 003e
00000070: 00e9 92ba 8da7 693d 81b7 e43d b794 71bc

actor.lin3.weight f4 [1, 32]
0.3557399 0.15027152 -0.1371856 0.19711871 -0.034393635 0.2573939 0.005290043 0.33447924
-0.12250863 -0.09002842 0.31577724 -0.09202452 0.4091237 0.06412061 0.21754348 0.21843646
-0.12899362 -0.0016155279 0.28683242 -0.09203412 0.28855494 -0.023709573 -0.105661884 -0.092758626
-0.09052876 -0.020668728 0.28899294 0.33013856 -0.057882205 0.37999114 0.24368826 0.40713623
00000000: 8a23 b63e c7e0 193e 627a 0cbe 7dd9 493e
00000010: 57e0 0cbd 22c9 833e 1958 ad3b dd40 ab3e
00000020: cee5 fabd d260 b8bd 8ead a13e 5a77 bcbd
00000030: a978 d13e ab51 833d b8c3 5e3e cfad 5f3e
00000040: e716 04be 1fc0 d3ba b3db 923e 627c bcbd
00000050: 79bd 933e 943a c2bc 4265 d8bd 3cf8 bdbd
00000060: 2467 b9bd 7751 a9bc e2f6 933e ec07 a93e
00000070: e415 6dbd 338e c23e 6a89 793e 2974 d03e

actor.convp.bias f4 [21]
0.35050055 0.14479743 -0.08542186 0.0 0.11428334 -0.067962766 -0.033744708 -0.28134614
-0.13765968 0.33824652 0.14643699 0.16364294 0.09408376 0.20877026 -0.3197716 0.3882622
-0.009256255 -0.024472095 -0.026399044 0.6711276 -0.03959946
00000000: cf74 b33e c745 143e a8f1 aebd 0000 0000
00000010: 620d ea3d 1030 8bbd e437 0abd 9a0c 90be
00000020: a9f6 0cbe a62e ad3e 94f3 153e 0492 273e
00000030: fdae c03d dfc7 553e 1ab9 a3be 4eca c63e
00000040: 8ca7 17bc b479 c8bc cf42 d8bc 05cf 2b3f
00000050: 0b33 22bd

actor.convp.lin.weight f4 [21, 21]
0.22980773 0.11425203 -0.04084318 0.2320008 0.019411637 -0.044390034 0.2738281 -0.28199044
0.23358488 -0.43205434 0.2470207 0.08361852 0.14119259 -0.1662491 0.14427175 0.040362854
0.026604854 0.46847966 0.21739852 0.30657005 -0.11496659 0.24150905 -0.12707181 -0.13286127
-0.030084753 0.056260552 -0.007419649 -0.22262718 -0.19235729 -0.064708985 0.008538125 -0.092618085
0.36078352 -0.078037605 -0.050714917 -0.037904695 0.31957546 -0.007976226 0.18672505 -0.17012042
0.14491871 -0.08711348 -0.056037698 -0.27832088 0.27615732 -0.3027808 -0.2929932 -0.2569443
0.22400887 -0.29296508 0.14783657 -0.11257431 0.22802371 0.16562095 -0.09558172 -0.19122069
0.07473018 -0.08202968 -0.14571382 0.2672323 0.21242256 -0.15747619 -0.17559272 -0.07529351
-0.0760186 -0.31925753 -0.30396372 -0.24537514 -0.27188718 -0.113936126 0.18938908 -0.30843455
0.10263133 -0.15973514 -0.030852526 0.14236447 -0.29170823 0.032780588 0.072080135 -0.3340852
-0.19175057 0.12921098 -0.16061991 0.17997077 0.15434785 -0.26370093 0.2345454 0.26581702
-0.3512635 -0.21808308 -0.08969944 0.04941669 -0.03031714 0.31128368 0.3371147 0.41695532
0.14990757 0.29620656 -0.062585175 0.26014623 -0.18544827 0.05401287 -0.3792967 0.31655782
-0.04376933 0.01951285 0.11716835 -0.112585686 -0.042094525 0.16322204 -0.17088719 -0.163287
0.0695394 -0.2562107 0.27724335 -0.16375117 0.19448343 -0.26838204 0.080430284 -0.37059492
0.038509957 0.0053370395 0.04889623 -0.00831836 -0.26196522 -0.21226262 -0.21934475 0.17746611
-0.005306891 0.25718683 -0.044817433 -0.374903 -0.061856568 -0.16619502 -0.37788722 0.04334688
-0.018178675 -0.36592868 -0.33959982 -0.08090714 0.2833497 0.20159322 0.010223661 -0.117321715
0.059348524 -0.20054558 0.2127886 -0.23344384 0.26549307 0.19807178 0.35525668 -0.2281243
-0.26992065 0.17065531 0.14927001 0.2685201 -0.12000137 0.27848724 -0.004123468 -0.009163712
-0.25529873 0.32534066 0.31079847 -0.0035639245 0.09914491 0.24767286 -0.05466121 -0.32536978
0.26503727 -0.33298188 -0.011811231 0.28525716 0.24309348 -0.0890651 0.047239695 -0.00039337773
-0.18983306 -0.39983264 -0.032584675 0.2298095 -0.32478723 0.20761484 0.24440046 -0.27142835
-0.07458714 0.2674248 0.10834417 -0.2404458 -0.35998824 -0.0005694284 0.3309495 0.24393947
0.11117702 0.1499383 -0.22644973 -0.25815052 0.22638953 0.16130552 -0.16038172 -0.13530585
0.076390825 -0.20973474 0.33651763 -0.07639102 -0.06681292 0.08188166 -0.04185589 -0.24161531
-0.23525897 0.06891762 -0.24245098 0.69133437 0.03571582 0.027880171 -0.18095025 -0.078897044
0.18125305 0.15334293 -0.29196277 -0.4398226 -0.19577216 -0.43323618 0.14687856 -0.092745535
0.27749467 -0.17752016 0.14071375 -0.39883754 -0.07485747 -0.10912557 -0.18411352 -0.075240634
0.11788491 0.0455674 0.1953956 -0.019399712 -0.18605526 -0.29462957 -0.052506138 -0.24496302
-0.18609571 0.2398165 0.2827042 -0.096414395 -0.17937212 0.22117569 0.32509378 0.29077208
-0.2362316 0.2655333 -0.16999644 -0.17049025 0.07534652 0.05455898 0.24680702 0.20548104
00000000: b852 6b3e f8fc e93d 2e4b 27bd 9e91 6d3e
00000010: 2705 9f3c 53d2 35bd 3233 8c3e 0d61 90be
00000020: e030 6f3e 3a36 ddbe fff2 7c3e 3040 ab3d
00000030: ca94 103e 343d 2abe f9bb 133e 8553 253d
00000040: 6cf2 d93c 91dc ef3e b89d 5e3e c0f6 9c3e
00000050: 9b73 ebbd 264e 773e 1d1f 02be c90c 08be
00000060: 4d74 f6bc 7771 663d 8720 f3bb 61f8 63be
00000070: 4ff9 44be 2586 84bd 7ee3 0b3c 8dae bdbd
00000080: 9eb8 b83e 2ed2 9fbd 72ba 4fbd f441 1bbd
00000090: 659f a33e b7ae 02bc da34 3f3e 0c34 2ebe
000000a0: 9265 143e 8d68 b2bd c987 65bd 1380 8ebe
000000b0: 7e64 8d3e 1606 9bbe 3403 96be 348e 83be
000000c0: 9562 653e 85ff 95be 7862 173e 5c8d e6bd
000000d0: 0c7f 693e 8a98 293e 59c0 c3bd 5bcf 43be
000000e0: 230c 993d 2dff a7bd 0136 15be acd2 883e
000000f0: 4d85 593e 7041 21be 94ce 33be 7c33 9abd
00000100: a4af 9bbd b975 a3be 22a1 9bbe 9f43 7bbe
00000110: cc34 8bbe 5857 e9bd 36ef 413e 22eb 9dbe
00000120: 6030 d23d 9c91 23be 70be fcbc fec7 113e
00000130: c85a 95be f044 063d c09e 933d 370d abbe
00000140: 435a 44be e24f 043e 8c79 24be 424a 383e
00000150: 5d0d 1e3e cf03 87be ab2c 703e 2b19 883e
00000160: cfd8 b3be 2c51 5fbe 57b4 b7bd 2869 4a3d
00000170: a75b f8bc 9360 9f3e 4c9a ac3e 2b7b d53e
00000180: 5f81 193e 63a8 973e a82c 80bd e331 853e
00000190: 27e6 3dbe 993c 5d3d 2d33 c2be de13 a23e
000001a0: 7847 33bd 6ad9 9f3c f6f5 ef3d 5393 e6bd
000001b0: 4f6b 2cbd ae23 273e 0dfd 2ebe b534 27be
000001c0: ac6a 8e3d 0d2e 83be d7f2 8d3e 63ae 27be
000001d0: aa26 473e 5f69 89be a2b8 a43d 9ebe bdbe
000001e0: 9ebc 1d3d 55e2 ae3b 6a47 483d bb49 08bc
000001f0: 4e20 86be 5f5b 59be e99b 60be adb9 353e
00000200: 6ee5 adbb fead 833e 7c92 37bd 49f3 bfbe
00000210: 505d 7dbd 072f 2abe 6f7a c1be 7f8c 313d
00000220: 72eb 94bc 015b bbbe 07e0 adbe a5b2 a5bd
00000230: 3613 913e 746e 4e3e 2481 273c 5e46 f0bd
00000240: 7017 733d d25b 4dbe 41e5 593e e70b 6fbe
00000250: b5ee 873e 54d3 4a3e 34e4 b53e 6b99 69be
00000260: 0a33 8abe 44c0 2e3e 3dda 183e 777b 893e
00000270: 47c3 f5bd e195 8e3e 281e 87bb 6523 16bc
00000280: 84b6 82be 0d93 a63e fa20 9f3e bb90 69bb
00000290: 7d0c cb3d f49d 7d3e 6fe4 5fbd de96 a6be
000002a0: f7b2 873e 9a7c aabe e583 41bc 3a0d 923e
000002b0: 7fed 783e c367 b6bd 697e 413d 443e ceb9
000002c0: 9963 42be ddb6 ccbe 8277 05bd 2e53 6b3e
000002d0: 834a a6be fc98 543e 1d44 7a3e a8f8 8abe
000002e0: 24c1 98bd e7eb 883e 8ce3 dd3d 6c37 76be
000002f0: 6150 b8be b145 15ba 3672 a93e 45cb 793e
00000300: c7b0 e33d 6d89 193e 70e2 67be 4e2c 84be
00000310: a8d2 673e 462d 253e 1b3b 24be 9e8d 0abe
00000320: cb72 9c3d b4c4 56be 0a4c ac3e e572 9cbd
00000330: 36d5 88bd 92b1 a73d 1571 2bbd 016a 77be
00000340: bae7 70be ae24 8d3d 1245 78be 4afb 303f
00000350: c04a 123d f564 e43c 064b 39be c694 a1bd
00000360: 669a 393e ee05 1d3e 257c 95be 6e30 e1be
00000370: 7f78 48be 22d1 ddbe 5567 163e 5ff1 bdbd
00000380: c813 8e3e d8c7 35be 4417 103e 6f34 ccbe
00000390: e04e 99bd 3a7d dfbd 4188 3cbe c317 9abd
000003a0: a56d f13d e2a4 3a3d c915 483e 25ec 9ebc
000003b0: 4585 3ebe b0d9 96be ad10 57bd 96d7 7abe
000003c0: e08f 3ebe 7592 753e 9bbe 903e e974 c5bd
000003d0: 53ad 37be e17b 623e b172 a63e 14e0 943e
000003e0: b2e6 71be fbf3 873e 8c13 2ebe ff94 2ebe
000003f0: 474f 9a3d 3d79 5f3d fbba 7c3e 9f69 523e

actor.lin1p.weight f4 [8, 21]
0.04109613 -0.1291553 -0.19908285 0.1650206 -0.06979381 -0.081058994 -0.19633642 -0.037690204
-0.15314773 -0.06482521 0.08814478 -0.14586666 0.028785706 -3.533104e-05 -0.013385063 -0.119362175
0.065984905 0.08123637 0.06981102 0.06058163 -0.12282802 0.025588244 -0.1071121 0.014655893
-0.17154373 -0.15727791 -0.08422123 -0.0822127 0.11064025 -0.075824246 0.062160164 -0.14589635
0.04916158 -0.11046281 -0.05034378 0.16524361 -0.0065642796 -0.20160945 -0.17856275 0.13320701
0.06298608 -0.021492502 -0.18498284 0.25961834 -0.17701684 0.065510154 0.015789656 -0.0046431925
-0.049832653 0.09231788 0.1715476 0.05963628 -0.01078512 0.15226051 0.15648738 0.094277985
0.0947295 -0.003933384 0.12605833 -0.025952293 0.092545286 0.06252989 -0.12523535 0.1629215
0.06264126 -0.09305462 0.07649069 -0.06959097 -0.075305425 -0.18401632 -0.02129238 0.1672966
0.15785377 0.09823529 0.12946366 0.0078731375 0.06392635 -0.12869692 0.17914274 -0.06668845
0.043676805 0.087911986 0.027218923 -0.07052998 -0.008671593 -0.01945867 -0.044642184 -0.13872091
0.08344804 -0.10453604 -0.13546772 -0.18958329 -0.038971473 0.25741637 -0.12936583 0.15158726
0.13278592 0.19048816 0.057752334 -0.0714698 0.10275139 -0.08137961 0.08156873 0.10671494
-0.13016596 0.104948975 -0.025806516 -0.15292847 0.21268494 0.0054615717 0.20251667 -0.0037449822
0.001457599 0.06973339 0.13701244 -0.11813437 0.29541692 0.067543544 -0.15832837 0.008298113
0.16456236 0.03032604 0.069765285 -0.08380173 0.058525898 -0.028019492 -0.010827408 0.041252658
-0.07653345 -0.067094654 -0.13724701 0.19079408 -0.21199928 -0.14284289 0.013271742 0.08338081
0.17320813 0.101656206 -0.06944175 -0.20248748 0.16394949 -0.11821963 0.07525431 0.11883989
0.11346561 -0.20453443 -0.19364195 0.0199589 0.47593242 -0.060774744 0.05263202 -0.06002162
-0.015486589 -0.1392149 0.037526414 -0.059914608 0.31723323 0.011756732 -0.28824082 0.055148777
-0.005141109 0.0021522166 0.044692244 0.045054317 -0.019853815 0.0030999836 0.06101225 -0.0700414
00000000: 6a54 283d 4941 04be 60dc 4bbe 29fb 283e
00000010: 0ff0 8ebd 4202 a6bd 6a0c 49be 0b61 1abd
00000020: c2d2 1cbe 14c3 84bd 4085 b43d 125e 15be
00000030: 00d0 eb3c 6a30 14b8 064d 5bbc 2874 f4bd
00000040: 1823 873d 415f a63d 14f9 8e3d 7124 783d
00000050: 428d fbbd 709e d13c 975d dbbd 451f 703c
00000060: 29a9 2fbe 760d 21be 2e7c acbd 225f a8bd
00000070: 5b97 e23d be49 9bbd a89b 7e3d da65 15be
00000080: a75d 493d 533a e2bd 4835 4ebd 9f35 293e
00000090: 2b19 d7bb b572 4ebe 27d9 36be 6b67 083e
000000a0: d9fe 803d 0b11 b0bc 246c 3dbe b2ec 843e
000000b0: e743 35be 302a 863d 4f59 813c ec25 98bb
000000c0: 531d 4cbd 2811 bd3d 2daa 2f3e 2c45 743d
000000d0: 12b4 30bc 2eea 1b3e 3a3e 203e d114 c13d
000000e0: 8a01 c23d 9ee3 80bb 6f15 013e e799 d4bc
000000f0: 6288 bd3d ac0f 803d b23d 00be e5d4 263e
00000100: 104a 803d 6c93 bebd 27a7 9c3d b685 8ebd
00000110: bb39 9abd c66e 3cbe 5b6d aebc cd4f 2b3e
00000120: 6ba4 213e 952f c93d 1f92 043e 55fe 003c
00000130: d1eb 823d 20c9 03be 3271 373e f493 88bd
00000140: 73e6 323d 330b b43d 38fa de3c 0672 90bd
00000150: 4c13 0ebc ca67 9fbc b9da 36bd db0c 0ebe
00000160: cee6 aa3d fe16 d6bd 0db8 0abe 1f22 42be
00000170: 8da0 1fbd 14cc 833e 7a78 04be b139 1b3e
00000180: 08f9 073e 540f 433e b68d 6c3d c25e 92bd
00000190: 526f d23d 5aaa a6bd 820d a73d 5d8d da3d
000001a0: 3a4a 05be 7def d63d 3068 d3bc 4899 1cbe
000001b0: 15ca 593e fcf6 b23b 8860 4f3e 606e 75bb
000001c0: e80c bf3a 61d0 8e3d fd4c 0c3e 6ff0 f1bd
000001d0: e340 973e 4554 8a3d d520 22be cff4 073c
000001e0: 0983 283e 516e f83c 1ae1 8e3d 3ea0 abbd
000001f0: dab8 6f3d 2289 e5bc 7165 31bc 8cf8 283d
00000200: 92bd 9cbd ec68 89bd 7b8a 0cbe 865f 433e
00000210: 5716 59be 6845 12be b871 593c 8fc3 aa3d
00000220: 795d 313e 2131 d03d 7a37 8ebd e158 4fbe
00000230: 60e2 273e 221d f2bd ef1e 9a3d 5462 f33d
00000240: a860 e83d 7971 51be 134a 46be d980 a33c
00000250: 6aad f33e f0ee 78bd ac94 573d 3bd9 75bd
00000260: 76bb 7dbc 5a8e 0ebe 4cb5 193d 0569 75bd
00000270: 656c a23e 4f9f 403c 4d94 93be afe3 613d
00000280: c076 a8bb 340c 0d3b 370f 373d e08a 383d
00000290: 78a4 a2bc 1829 4b3b fbe7 793d de71 8fbd

actor.lin1p.bias f4 [8]
0.15611416 -0.08168812 -0.5704087 0.10795261 0.27901104 0.19603539 -0.09416089 0.38973144
00000000: 64dc 1f3e 1a4c a7bd 4e06 12bf 4216 dd3d
00000010: 89da 8e3e 80bd 483e 6dd7 c0bd e18a c73e

actor.bilinp.weight f4 [8, 8]
0.2775289 -0.21980937 -0.08716212 -0.1579364 0.297744 -0.26793355 -0.2441528 -0.05154194
-0.22032475 -0.32582733 0.13497153 -0.3007589 0.13573281 0.29546064 0.10396311 0.18383534
0.27930185 0.29800627 0.22582568 -0.14300215 -0.25773257 -0.015347698 0.14082372 -0.07604653
0.18488719 0.15721865 -0.02457074 -0.07413838 0.18133289 0.007129033 -0.16424246 -0.06951646
-0.16386111 -0.13288666 -0.48243687 0.19941339 0.2858801 0.31224406 0.08844761 0.13825506
0.046240266 0.14604376 -0.14086917 0.07636436 0.29768327 -0.15958728 0.28893542 0.4111347
0.0034699803 -0.22528352 -0.105798274 0.11906983 0.1360061 -0.3379443 0.13789 0.20410253
0.09650796 0.17954077 0.40269125 -0.18069348 -0.47378978 -0.049409408 0.2664781 -0.2954518
00000000: 4518 8e3e b515 61be 0e82 b2bd 14ba 21be
00000010: e771 983e 962e 89be 3103 7abe a41d 53bd
00000020: d09c 61be d7d2 a6be fa35 0a3e 12fd 99be
00000030: 8bfd 0a3e 9e46 973e 9cea d43d 553f 3c3e
00000040: a700 8f3e 4794 983e d93e 673e 286f 12be
00000050: 86f5 83be e974 7bbc 1834 103e 48be 9bbd
00000060: 1153 3d3e edfd 203e 9448 c9bc ddd5 97bd
00000070: 54af 393e aa9a e93b 2d2f 28be a55e 8ebd
00000080: 35cb 27be 7113 08be f701 f7be 0633 4c3e
00000090: e05e 923e 74de 9f3e 0524 b53d bc92 0d3e
000000a0: 6f66 3d3d 7f8c 153e 0240 10be eb64 9c3d
000000b0: f169 983e d96a 23be 58ef 933e 3f80 d23e
000000c0: 9c68 633b b9b0 66be c4ac d8bd e2da f33d
000000d0: 2f45 0b3e 0907 adbe 0933 0d3e 4100 513e
000000e0: f7a5 c53d 89d9 373e 8c2d ce3e b607 39be
000000f0: 9394 f2be 8561 4abd d16f 883e 7545 97be

critic.conv1.bias f4 [21]
-0.32653967 0.0 0.3863345 0.1597857 -0.20727338 0.26505685 -0.35164613 0.0020967845
0.006604618 0.21309221 -0.00345634 0.18666944 -0.24674797 -0.27124786 0.30003956 0.12489125
-0.21348718 0.4051922 -0.25552237 -0.32982364 -0.32777134
00000000: 3530 a7be 0000 0000 a3cd c53e dd9e 233e
00000010: 793f 54be 88b5 873e f60a b4be 356a 093b
00000020: 8d6b d83b d834 5a3e c383 62bb 4626 3f3e
00000030: 80ab 7cbe 00e1 8abe c99e 993e fcc6 ff3d
00000040: 629c 5abe 5a75 cf3e d4d3 82be a5de a8be
00000050: a5d1 a7be

critic.conv1.lin.weight f4 [21, 21]
0.3482737 0.32441565 0.26351243 -0.13174413 0.14816938 0.13252579 0.08830973 0.4350962
0.015009426 0.44146553 0.36472726 -0.22384429 -0.07362717 0.18235216 -0.32789814 -0.22690961
-0.22197674 0.25420806 0.30554885 -0.07216772 0.18531817 0.23541436 -0.028929502 -0.1443693
0.043252945 -0.33176005 -0.30283397 0.0024180114 0.1397309 0.23893747 -0.30707154 0.048336416
-0.17329623 -0.049754947 -0.23899397 -0.33901843 0.25326607 -0.14696571 0.22390774 -0.2821392
-0.031137556 0.24073038 -0.022978377 0.46431908 -0.08716234 0.4338726 0.00026974216 0.20095432
-0.18472852 0.21688809 -0.36665586 0.14625774 -0.33216783 0.15712625 0.32310566 0.21154183
0.09828544 -0.3369216 -0.1136893 -0.22853003 0.22635733 -0.05835417 -0.3962535 0.3133587
0.07602782 -0.13019492 -0.093698315 -0.013928511 -0.005736863 0.08461913 0.3487685 -0.09482421
-0.012511633 0.107259855 0.01380448 -0.42364123 -0.5432541 -0.59923553 -0.056418072 -0.4388404
-0.394979 -0.45653287 -0.4660124 0.318734 -0.17191817 -0.34095916 -0.13353758 -0.25623018
0.3459866 -0.00731082 0.12875098 0.36699927 -0.2349129 -0.13509537 -0.33740425 -0.19815953
0.19348557 -0.36874297 0.05417757 0.23855557 0.40231848 0.36040974 0.2087432 -0.21606167
-0.20521776 0.13168193 -0.07467153 0.23712948 0.16774979 -0.04944764 -0.17133717 -0.14473
0.034377757 -0.073521376 -0.108330674 -0.3234684 0.053367686 -0.31282008 -0.15975392 -0.00021574127
0.3149938 0.05474364 0.02799416 -0.24726212 0.2564226 0.017070545 -0.21867459 0.16473523
-0.29694316 -0.48021555 0.2013945 -0.035163235 0.25509262 0.26076213 0.3380764 -0.06408269
-0.37448972 0.2940999 0.09407332 -0.3880538 -0.15428776 -0.39621225 0.16303955 0.40902585
0.22377934 0.37412438 0.06316559 0.14956607 -0.07971496 0.27458718 0.14032154 -0.36132726
0.120505914 -0.37454972 0.120663986 -0.10011094 -0.34027204 -0.032627154 -0.18888171 -0.3591199
0.05122578 0.12500367 -0.11517647 -0.24884634 -0.36480656 0.26450065 -0.25754434 0.09764072
-0.05874353 0.3403432 0.37738612 0.3233196 -0.15203148 -0.11159131 -0.055983327 -0.29820785
0.2803435 -0.07490341 -0.20783822 0.3196826 -0.12543237 0.07248323 0.31110907 -0.2868647
-0.27257085 -0.15519764 0.2266441 0.33779383 0.2286053 0.18689068 0.38838896 -0.18664686
-0.01683729 0.31844077 0.08905987 -0.12837598 0.14464204 0.3205635 0.27636796 0.238258
-0.15409994 -0.42132878 -0.0137800975 -0.16600962 -0.019523619 0.17538646 -0.025366247 0.07759593
0.029963298 0.07461472 0.070055164 -0.12780479 0.30103365 -0.19767143 0.09965483 -0.057329588
0.18629827 -0.13413829 -0.3520409 -0.37441248 -0.10842823 0.07473148 -0.2543082 -0.23397036
-0.24546553 -0.22423221 0.31277344 -0.36350602 0.095553964 -0.2783775 0.1355994 -0.28561446
0.24782369 0.12986183 0.3637039 0.37048167 -0.11459826 0.27660632 0.05583204 0.205108
0.011234097 0.06011719 -0.10947905 -0.2358474 -0.03569366 0.25071153 -0.06092038 -0.076975085
0.10257796 0.041400656 -0.23625958 0.25246963 0.18066387 -0.2278162 -0.26264536 0.18523596
00000000: ee50 b23e cf19 a63e 1aeb 863e efe7 06be
00000010: b7b9 173e d7b4 073e bbdb b43d eec4 de3e
00000020: 18ea 753c c507 e23e 88bd ba3e 7037 65be
00000030: d7c9 96bd 86ba 3a3e 44e2 a7be fe5a 68be
00000040: df4d 63be 8f27 823e e670 9c3e abcc 93bd
00000050: 0cc4 3d3e 7610 713e 90fd ecbc 8cd5 13be
00000060: 002a 313d 74dc a9be 0e0d 9bbe 8077 1e3b
00000070: 9e15 0f3e 06ac 743e 7b38 9dbe 68fc 453d
00000080: 9174 31be d8cb 4bbd d6ba 74be d393 adbe
00000090: 17ac 813e 2e7e 16be 1248 653e 8d74 90be
000000a0: 3014 ffbc 0682 763e 263d bcbc 3bbb ed3e
000000b0: 2b82 b2bd 8d24 de3e 2e6c 8d39 f8c6 4d3e
000000c0: 7929 3dbe e917 5e3e 51ba bbbe 97c4 153e
000000d0: e711 aabe b4e5 203e 1b6e a53e 6c9e 583e
000000e0: e049 c93d fd80 acbe f0d5 e8bd c703 6abe
000000f0: 37ca 673e c804 6fbd bde1 cabe 8d70 a03e
00000100: 79b4 9b3d d151 05be e7e4 bfbd 6934 64bc
00000110: 4bfc bbbb cb4c ad3d c991 b23e 3233 c2bd
00000120: 98fd 4cbc 0eab db3d 302c 623c 81e7 d8be
00000130: b312 0bbf 8067 19bf a316 67bd b0af e0be
00000140: b03a cabe adbe e9be 2d99 eebe 1a31 a33e
00000150: 510b 30be 3392 aebe 13be 08be 9a30 83be
00000160: 2825 b13e 9a8f efbb 4cd7 033e 54e7 bb3e
00000170: 028d 70be 7156 0abe 40c0 acbe 55ea 4abe
00000180: 1521 463e e1cb bcbe 4de9 5d3d e947 743e
00000190: b0fc cd3e a087 b83e c7c0 553e 453f 5dbe
000001a0: 9b24 52be a1d7 063e 63ed 98bd 12d2 723e
000001b0: 9ac6 2b3e 9c89 4abd 0373 2fbe 1a34 14be
000001c0: b1cf 0c3d 6092 96bd 79dc ddbd a69d a5be
000001d0: 1398 5a3d f429 a0be 8896 23be 9b38 62b9
000001e0: de46 a13e de3a 603d 0254 e53c 4832 7dbe
000001f0: d349 833e 87d7 8b3c 3bec 5fbe 5ab0 283e
00000200: ef08 98be d0de f5be 5c3a 4e3e 5307 10bd
00000210: 809b 823e 9d82 853e 5a18 ad3e c93d 83bd
00000220: 1ebd bfbe 4394 963e 83a9 c03d fdae c6be
00000230: 9cfd 1dbe 55dc cabe d7f3 263e d66b d13e
00000240: 6926 653e 3b8d bf3e f65c 813d d927 193e
00000250: 9941 a3bd b196 8c3e 73b0 0f3e e3ff b8be
00000260: cecb f63d fbc4 bfbe ae1e f73d f706 cdbd
00000270: 2338 aebe 0da4 05bd 356a 41be 90de b7be
00000280: 20d2 513d f600 003e a4e1 ebbd 93d1 7ebe
00000290: edc7 babe a16c 873e dadc 83be dcf7 c73d
000002a0: 0e9d 70bd 7741 ae3e c138 c13e 268a a53e
000002b0: 24ae 1bbe fc89 e4bd c64e 65bd b3ae 98be
000002c0: 2f89 8f3e f666 99bd 8bd3 54be 70ad a33e
000002d0: 5871 00be 1672 943d b049 9f3e eedf 92be
000002e0: 688e 8bbe 21ec 1ebe 6415 683e 50f3 ac3e
000002f0: 8217 6a3e 4560 3f3e ebda c63e 5b20 3fbe
00000300: 5bee 89bc ab0a a33e 0565 b63d fe74 03be
00000310: 0b1d 143e e620 a43e 1a80 8d3e e8f9 733e
00000320: 60cc 1dbe 68b8 d7be ebc5 61bc 6dfe 29be
00000330: ffef 9fbc 8298 333e e0cc cfbc 9dea 9e3d
00000340: 9775 f53c 9acf 983d 1579 8f3d 42df 02be
00000350: 1521 9a3e 616a 4abe d517 cc3d 6ed2 6abd
00000360: f9c4 3e3e 8c5b 09be b43e b4be feb2 bfbe
00000370: 9f0f debd d10c 993d af34 82be ed95 6fbe
00000380: 515b 7bbe 219d 65be d723 a03e 761d babe
00000390: ccb1 c33d 7f87 8ebe 92da 0a3e 0f3c 92be
000003a0: 7ec5 7d3e 80fa 043e 6637 ba3e c6af bd3e
000003b0: 7eb2 eabd 589f 8d3e 23b0 643d d507 523e
000003c0: 380f 383c 713d 763d 8d36 e0bd fb81 71be
000003d0: 8433 12bd 435d 803e a687 79bd 1da5 9dbd
000003e0: 6514 d23d bc93 293d 08ee 71be b343 813e
000003f0: f3ff 383e a648 69be 7479 86be 7fae 3d3e
