saved_files/ckpt/nyc4/a2c_gnn_test_price-test.pth (torch, 76886 bytes, 46 tensors)

log_rate f4 [16, 16]
20.0 20.0 20.0 20.0 20.0 20.0 20.0 20.0
20.0 20.0 20.0 20.0 20.0 20.0 20.0 20.0
20.0 20.0 20.0 20.0 20.0 20.0 20.0 20.0
20.0 20.0 20.0 20.0 20.0 20.0 20.0 20.0
20.0 20.0 20.0 20.0 20.0 20.0 20.0 20.0
20.0 20.0 20.0 20.0 20.0 20.0 20.0 20.0
20.0 20.0 20.0 20.0 20.0 20.0 20.0 20.0
20.0 20.0 20.0 20.0 20.0 20.0 20.0 20.0
20.0 20.0 20.0 20.0 20.0 20.0 20.0 20.0
20.0 20.0 20.0 20.0 20.0 20.0 20.0 20.0
20.0 20.0 20.0 20.0 20.0 20.0 20.0 20.0
20.0 20.0 20.0 20.0 20.0 20.0 20.0 20.0
20.0 20.0 20.0 20.0 20.0 20.0 20.0 20.0
20.0 20.0 20.0 20.0 20.0 20.0 20.0 20.0
20.0 20.0 20.0 20.0 20.0 20.0 20.0 20.0
20.0 20.0 20.0 20.0 20.0 20.0 20.0 20.0
20.0 20.0 20.0 20.0 20.0 20.0 20.0 20.0
20.0 20.0 20.0 20.0 20.0 20.0 20.0 20.0
20.0 20.0 20.0 20.0 20.0 20.0 20.0 20.0
20.0 20.0 20.0 20.0 20.0 20.0 20.0 20.0
20.0 20.0 20.0 20.0 20.0 20.0 20.0 20.0
20.0 20.0 20.0 20.0 20.0 20.0 20.0 20.0
20.0 20.0 20.0 20.0 20.0 20.0 20.0 20.0
20.0 20.0 20.0 20.0 20.0 20.0 20.0 20.0
20.0 20.0 20.0 20.0 20.0 20.0 20.0 20.0
20.0 20.0 20.0 20.0 20.0 20.0 20.0 20.0
20.0 20.0 20.0 20.0 20.0 20.0 20.0 20.0
20.0 20.0 20.0 20.0 20.0 20.0 20.0 20.0
20.0 20.0 20.0 20.0 20.0 20.0 20.0 20.0
20.0 20.0 20.0 20.0 20.0 20.0 20.0 20.0
20.0 20.0 20.0 20.0 20.0 20.0 20.0 20.0
20.0 20.0 20.0 20.0 20.0 20.0 20.0 20.0
00000000: 0000 a041 0000 a041 0000 a041 0000 a041
00000010: 0000 a041 0000 a041 0000 a041 0000 a041
00000020: 0000 a041 0000 a041 0000 a041 0000 a041
00000030: 0000 a041 0000 a041 0000 a041 0000 a041
00000040: 0000 a041 0000 a041 0000 a041 0000 a041
00000050: 0000 a041 0000 a041 0000 a041 0000 a041
00000060: 0000 a041 0000 a041 0000 a041 0000 a041
00000070: 0000 a041 0000 a041 0000 a041 0000 a041
00000080: 0000 a041 0000 a041 0000 a041 0000 a041
00000090: 0000 a041 0000 a041 0000 a041 0000 a041
000000a0: 0000 a041 0000 a041 0000 a041 0000 a041
000000b0: 0000 a041 0000 a041 0000 a041 0000 a041
000000c0: 0000 a041 0000 a041 0000 a041 0000 a041
000000d0: 0000 a041 0000 a041 0000 a041 0000 a041
000000e0: 0000 a041 0000 a041 0000 a041 0000 a041
000000f0: 0000 a041 0000 a041 0000 a041 0000 a041
00000100: 0000 a041 0000 a041 0000 a041 0000 a041
00000110: 0000 a041 0000 a041 0000 a041 0000 a041
00000120: 0000 a041 0000 a041 0000 a041 0000 a041
00000130: 0000 a041 0000 a041 0000 a041 0000 a041
00000140: 0000 a041 0000 a041 0000 a041 0000 a041
00000150: 0000 a041 0000 a041 0000 a041 0000 a041
00000160: 0000 a041 0000 a041 0000 a041 0000 a041
00000170: 0000 a041 0000 a041 0000 a041 0000 a041
00000180: 0000 a041 0000 a041 0000 a041 0000 a041
00000190: 0000 a041 0000 a041 0000 a041 0000 a041
000001a0: 0000 a041 0000 a041 0000 a041 0000 a041
000001b0: 0000 a041 0000 a041 0000 a041 0000 a041
000001c0: 0000 a041 0000 a041 0000 a041 0000 a041
000001d0: 0000 a041 0000 a041 0000 a041 0000 a041
000001e0: 0000 a041 0000 a041 0000 a041 0000 a041
000001f0: 0000 a041 0000 a041 0000 a041 0000 a041
00000200: 0000 a041 0000 a041 0000 a041 0000 a041
00000210: 0000 a041 0000 a041 0000 a041 0000 a041
00000220: 0000 a041 0000 a041 0000 a041 0000 a041
00000230: 0000 a041 0000 a041 0000 a041 0000 a041
00000240: 0000 a041 0000 a041 0000 a041 0000 a041
00000250: 0000 a041 0000 a041 0000 a041 0000 a041
00000260: 0000 a041 0000 a041 0000 a041 0000 a041
00000270: 0000 a041 0000 a041 0000 a041 0000 a041
00000280: 0000 a041 0000 a041 0000 a041 0000 a041
00000290: 0000 a041 0000 a041 0000 a041 0000 a041
000002a0: 0000 a041 0000 a041 0000 a041 0000 a041
000002b0: 0000 a041 0000 a041 0000 a041 0000 a041
000002c0: 0000 a041 0000 a041 0000 a041 0000 a041
000002d0: 0000 a041 0000 a041 0000 a041 0000 a041
000002e0: 0000 a041 0000 a041 0000 a041 0000 a041
000002f0: 0000 a041 0000 a041 0000 a041 0000 a041
00000300: 0000 a041 0000 a041 0000 a041 0000 a041
00000310: 0000 a041 0000 a041 0000 a041 0000 a041
00000320: 0000 a041 0000 a041 0000 a041 0000 a041
00000330: 0000 a041 0000 a041 0000 a041 0000 a041
00000340: 0000 a041 0000 a041 0000 a041 0000 a041
00000350: 0000 a041 0000 a041 0000 a041 0000 a041
00000360: 0000 a041 0000 a041 0000 a041 0000 a041
00000370: 0000 a041 0000 a041 0000 a041 0000 a041
00000380: 0000 a041 0000 a041 0000 a041 0000 a041
00000390: 0000 a041 0000 a041 0000 a041 0000 a041
000003a0: 0000 a041 0000 a041 0000 a041 0000 a041
000003b0: 0000 a041 0000 a041 0000 a041 0000 a041
000003c0: 0000 a041 0000 a041 0000 a041 0000 a041
000003d0: 0000 a041 0000 a041 0000 a041 0000 a041
000003e0: 0000 a041 0000 a041 0000 a041 0000 a041
000003f0: 0000 a041 0000 a041 0000 a041 0000 a041

actor.prices f4 [16, 16]
-0.0009999999 0.0009999999 0.0009999999 0.0009999998 -0.0009999999 0.0009999999 0.0009999999 0.0009999999
0.0009999999 0.001 0.0009999999 -0.0009999999 0.0009999998 0.0009999999 0.0009999999 -0.0009999999
-0.0009999999 0.0009999999 -0.0009999999 0.0009999999 0.001 -0.0009999999 -0.001 0.0009999998
-0.0009999999 0.0009999999 -0.0009999999 -0.0009999999 -0.0009999998 -0.0009999999 -0.0009999999 0.0009999999
0.0009999999 0.0009999999 -0.0009999999 -0.0009999999 0.0009999999 -0.0009999999 -0.0009999998 -0.0009999999
-0.001 -0.0009999999 -0.001 0.0009999999 -0.0009999998 -0.0009999999 0.0009999999 0.0009999999
0.0009999999 0.001 0.001 0.0009999998 0.0009999999 0.0009999999 -0.0009999999 0.0009999999
-0.0009999999 0.0009999999 -0.001 -0.0009999999 0.0009999999 -0.0009999999 0.0009999999 0.0009999999
-0.0009999999 -0.0009999999 -0.0009999999 -0.0009999998 -0.0009999999 -0.0009999999 0.0009999999 0.0009999999
-0.0009999999 0.0009999999 -0.0009999999 -0.001 -0.0009999999 0.0009999999 -0.0009999999 -0.0009999999
0.0009999999 0.0009999998 0.0009999999 0.0009999999 -0.001 -0.0009999998 0.0009999999 0.0009999999
0.0009999999 -0.0009999999 0.0009999999 -0.0009999999 0.0009999999 0.0009999999 0.0009999998 0.0009999999
-0.0009999999 0.0009999998 0.0009999999 0.0009999999 0.001 -0.001 -0.0009999999 -0.0009999998
0.0009999999 -0.001 0.0009999999 -0.0009999999 0.0009999998 0.0009999999 0.0009999999 0.001
-0.0009999999 0.0009999999 -0.0009999999 0.0009999999 0.0009999998 0.0009999999 0.0009999999 0.0009999999
0.0009999999 -0.001 0.0009999999 0.0009999999 -0.0009999999 -0.0009999999 0.0009999999 -0.0009999998
0.0009999999 0.0009999998 -0.0009999999 -0.0009999999 0.0009999998 0.0009999998 0.0009999998 0.0009999999
0.0009999998 0.001 0.001 -0.0009999999 -0.0009999998 -0.0009999999 0.0009999999 -0.0009999999
-0.0009999999 0.0009999998 -0.0009999999 0.0009999999 0.0009999999 -0.0009999999 0.0009999998 0.0009999999
0.0009999998 -0.0009999999 -0.0009999998 -0.0009999999 -0.0009999999 -0.0009999999 -0.0009999999 -0.0009999999
-0.0009999999 -0.0009999998 0.0009999999 -0.0009999999 -0.0009999998 0.0009999999 -0.0009999998 -0.0009999999
0.0009999999 -0.001 0.0009999998 -0.0009999999 -0.0009999999 -0.0009999999 0.0009999999 -0.001
-0.0009999999 -0.0009999998 0.0009999998 0.0009999999 -0.0009999999 -0.0009999999 0.0009999999 -0.0009999999
0.0009999998 -0.0009999998 0.0009999998 0.0009999999 -0.0009999998 -0.0009999999 -0.0009999999 0.0009999999
0.0009999999 0.0009999998 -0.0009999999 -0.0009999999 0.0009999999 0.0009999999 -0.0009999999 -0.0009999999
0.0009999999 0.0009999999 0.0009999999 0.0009999999 0.0009999999 0.0009999999 0.0009999999 0.0009999999
0.0009999999 -0.0009999999 -0.001 0.001 -0.0009999999 0.0009999999 0.001 -0.0009999999
-0.0009999998 -0.001 0.0009999998 -0.0009999999 -0.0009999999 -0.0009999999 0.001 0.0009999999
-0.0009999999 0.0009999999 0.0009999999 0.0009999998 0.0009999999 -0.0009999999 -0.0009999999 0.0009999999
-0.0009999999 -0.001 0.001 -0.001 -0.0009999999 0.0009999999 0.0009999999 0.0009999999
0.0009999999 -0.0009999999 -0.0009999999 -0.0009999999 0.0009999999 -0.001 0.0009999998 -0.0009999998
0.0009999999 -0.0009999999 0.0009999999 0.0009999999 -0.0009999999 -0.0009999999 0.0009999999 0.0009999999
00000000: 6e12 83ba 6e12 833a 6e12 833a 6d12 833a
00000010: 6e12 83ba 6e12 833a 6e12 833a 6e12 833a
00000020: 6e12 833a 6f12 833a 6e12 833a 6e12 83ba
00000030: 6d12 833a 6e12 833a 6e12 833a 6e12 83ba
00000040: 6e12 83ba 6e12 833a 6e12 83ba 6e12 833a
00000050: 6f12 833a 6e12 83ba 6f12 83ba 6d12 833a
00000060: 6e12 83ba 6e12 833a 6e12 83ba 6e12 83ba
00000070: 6d12 83ba 6e12 83ba 6e12 83ba 6e12 833a
00000080: 6e12 833a 6e12 833a 6e12 83ba 6e12 83ba
00000090: 6e12 833a 6e12 83ba 6d12 83ba 6e12 83ba
000000a0: 6f12 83ba 6e12 83ba 6f12 83ba 6e12 833a
000000b0: 6d12 83ba 6e12 83ba 6e12 833a 6e12 833a
000000c0: 6e12 833a 6f12 833a 6f12 833a 6d12 833a
000000d0: 6e12 833a 6e12 833a 6e12 83ba 6e12 833a
000000e0: 6e12 83ba 6e12 833a 6f12 83ba 6e12 83ba
000000f0: 6e12 833a 6e12 83ba 6e12 833a 6e12 833a
00000100: 6e12 83ba 6e12 83ba 6e12 83ba 6d12 83ba
00000110: 6e12 83ba 6e12 83ba 6e12 833a 6e12 833a
00000120: 6e12 83ba 6e12 833a 6e12 83ba 6f12 83ba
00000130: 6e12 83ba 6e12 833a 6e12 83ba 6e12 83ba
00000140: 6e12 833a 6d12 833a 6e12 833a 6e12 833a
00000150: 6f12 83ba 6d12 83ba 6e12 833a 6e12 833a
00000160: 6e12 833a 6e12 83ba 6e12 833a 6e12 83ba
00000170: 6e12 833a 6e12 833a 6d12 833a 6e12 833a
00000180: 6e12 83ba 6d12 833a 6e12 833a 6e12 833a
00000190: 6f12 833a 6f12 83ba 6e12 83ba 6d12 83ba
000001a0: 6e12 833a 6f12 83ba 6e12 833a 6e12 83ba
000001b0: 6d12 833a 6e12 833a 6e12 833a 6f12 833a
000001c0: 6e12 83ba 6e12 833a 6e12 83ba 6e12 833a
000001d0: 6d12 833a 6e12 833a 6e12 833a 6e12 833a
000001e0: 6e12 833a 6f12 83ba 6e12 833a 6e12 833a
000001f0: 6e12 83ba 6e12 83ba 6e12 833a 6d12 83ba
00000200: 6e12 833a 6d12 833a 6e12 83ba 6e12 83ba
00000210: 6d12 833a 6d12 833a 6d12 833a 6e12 833a
00000220: 6d12 833a 6f12 833a 6f12 833a 6e12 83ba
00000230: 6d12 83ba 6e12 83ba 6e12 833a 6e12 83ba
00000240: 6e12 83ba 6d12 833a 6e12 83ba 6e12 833a
00000250: 6e12 833a 6e12 83ba 6d12 833a 6e12 833a
00000260: 6d12 833a 6e12 83ba 6d12 83ba 6e12 83ba
00000270: 6e12 83ba 6e12 83ba 6e12 83ba 6e12 83ba
00000280: 6e12 83ba 6d12 83ba 6e12 833a 6e12 83ba
00000290: 6d12 83ba 6e12 833a 6d12 83ba 6e12 83ba
000002a0: 6e12 833a 6f12 83ba 6d12 833a 6e12 83ba
000002b0: 6e12 83ba 6e12 83ba 6e12 833a 6f12 83ba
000002c0: 6e12 83ba 6d12 83ba 6d12 833a 6e12 833a
000002d0: 6e12 83ba 6e12 83ba 6e12 833a 6e12 83ba
000002e0: 6d12 833a 6d12 83ba 6d12 833a 6e12 833a
000002f0: 6d12 83ba 6e12 83ba 6e12 83ba 6e12 833a
00000300: 6e12 833a 6d12 833a 6e12 83ba 6e12 83ba
00000310: 6e12 833a 6e12 833a 6e12 83ba 6e12 83ba
00000320: 6e12 833a 6e12 833a 6e12 833a 6e12 833a
00000330: 6e12 833a 6e12 833a 6e12 833a 6e12 833a
00000340: 6e12 833a 6e12 83ba 6f12 83ba 6f12 833a
00000350: 6e12 83ba 6e12 833a 6f12 833a 6e12 83ba
00000360: 6d12 83ba 6f12 83ba 6d12 833a 6e12 83ba
00000370: 6e12 83ba 6e12 83ba 6f12 833a 6e12 833a
00000380: 6e12 83ba 6e12 833a 6e12 833a 6d12 833a
00000390: 6e12 833a 6e12 83ba 6e12 83ba 6e12 833a
000003a0: 6e12 83ba 6f12 83ba 6f12 833a 6f12 83ba
000003b0: 6e12 83ba 6e12 833a 6e12 833a 6e12 833a
000003c0: 6e12 833a 6e12 83ba 6e12 83ba 6e12 83ba
000003d0: 6e12 833a 6f12 83ba 6d12 833a 6d12 83ba
000003e0: 6e12 833a 6e12 83ba 6e12 833a 6e12 833a
000003f0: 6e12 83ba 6e12 83ba 6e12 833a 6e12 833a

actor.conv1.bias f4 [21]
0.0 0.0 0.0009999998 -0.0009999999 -0.0009999999 0.0 0.0 0.0
0.0 0.0009999998 0.0 -0.0009999999 0.0009999999 0.0 0.001 0.0
-0.0009999999 0.0 0.0009999999 0.0 0.0
00000000: 0000 0000 0000 0000 6d12 833a 6e12 83ba
00000010: 6e12 83ba 0000 0000 0000 0000 0000 0000
00000020: 0000 0000 6d12 833a 0000 0000 6e12 83ba
00000030: 6e12 833a 0000 0000 6f12 833a 0000 0000
00000040: 6e12 83ba 0000 0000 6e12 833a 0000 0000
00000050: 0000 0000

actor.conv1.lin.weight f4 [21, 21]
0.19181582 -0.33894026 -0.028937161 -0.26974767 -0.26881695 -0.15926673 -0.33690822 -0.13815713
0.06828028 0.051320672 0.057853848 -0.19559023 0.29919967 -0.1840745 -0.06620675 0.16508463
-0.22137637 0.22128484 -0.057540953 -0.22119592 0.070476025 -0.15723439 0.08912724 0.241599
-0.07985231 0.06265357 0.07037771 0.35042635 -0.2623239 0.02437833 0.071400374 -0.1330867
-0.26421162 -0.02797535 -0.32668245 -0.31978005 -0.04873821 -0.28085405 -0.20852043 0.056571424
-0.04560724 -0.11109224 -0.03833579 -0.10607071 0.26271656 0.29162982 0.0024256834 -0.18859312
-0.1432203 -0.25022668 0.17216383 -0.22607611 -0.06476624 0.18974368 0.095832214 0.32796606
-0.011945562 0.30386302 -0.045681167 -0.34890717 0.21977626 0.2368 0.2895265 -0.18274198
0.04845367 -0.22827962 0.10739674 0.27825138 -0.36522198 -0.011120843 0.21290444 -0.2440352
-0.046982694 -0.1704438 0.27608725 0.21057092 0.12006925 0.050323527 0.29386386 0.2970079
0.34212306 -0.10799636 -0.35267726 -0.35620376 0.36655232 -0.008681105 -0.018485622 0.1715617
0.3513839 -0.23206088 0.30013618 -0.13890128 -0.19715974 -0.19563572 -0.28651226 -0.15223749
-0.034526486 -0.30667278 -0.079929814 0.33045843 0.002672208 0.023903323 0.123495504 0.030450834
0.20490311 0.00027129054 -0.015847147 -0.0872024 -0.20173639 -0.31736392 -0.35066828 -0.24745528
0.20261523 -0.34046015 -0.094922125 -0.31804764 -0.3632229 0.15221837 0.21628246 -0.27587104
-0.35865697 0.09714505 -0.252311 0.039777458 0.2402524 -0.2912272 -0.08083776 -0.07817954
0.36680642 0.31938294 -0.3250238 0.12817511 -0.25376722 0.1794512 -0.01772356 -0.3047318
-0.12515199 0.35868213 0.0172697 0.14272061 -0.21819098 -0.087869525 -0.089767724 -0.114429235
0.18440226 -0.35413057 -0.3645615 -0.04001361 -0.077605456 0.03501749 0.19414434 -0.23555626
0.25111172 -0.37043482 -0.3644707 0.019801587 0.009700656 -0.036456883 -0.2808144 0.23634276
0.002561301 0.13858137 0.084676504 -0.041006267 -0.18441698 -0.26823568 0.018359601 0.1046513
0.08420801 -0.19839592 -0.1551889 0.023256928 -0.12517285 -0.19271146 -0.33719984 0.27203485
0.21950927 0.1454511 -0.29083478 -0.36447003 -0.3371228 -0.09988433 0.08125949 0.1379843
-0.21375297 -0.28583506 0.20686421 0.14413163 -0.27758217 -0.13860312 0.16181324 -0.098471954
-0.36836123 0.3069106 0.28998902 0.19488789 -0.07204227 0.054098923 0.29200056 0.29353634
0.25689593 0.24696349 0.014451249 0.10559313 -0.027256148 -0.033223588 -0.2393208 0.36401936
0.096801564 -0.08854149 0.19011626 -0.23461512 -0.035863012 -0.21826884 0.09218237 -0.22820263
-0.20498644 -0.09819433 -0.247009 0.16116068 -0.236942 -0.34609488 0.20226058 -0.12667453
-0.079226196 -0.3361378 -0.15041982 0.23365846 0.081014395 -0.1606147 0.23772654 -0.30851412
-0.31815776 -0.28771937 0.0826429 0.28564927 -0.062421124 -0.33270884 0.37436762 -0.32311845
-0.12335919 -0.20453128 -0.22074834 0.3623524 0.22420992 -0.05747978 -0.10149498 -0.049873274
0.12649663 0.27943465 0.32228324 0.20133121 -0.26325494 -0.14457048 -0.34324282 0.08840807
00000000: 5e6b 443e 9489 adbe a00d edbc 5e1c 8abe
00000010: 60a2 89be d116 23be 3c7f acbe 1079 0dbe
00000020: 88d6 8b3d a035 523d 28f8 6c3d ce48 48be
00000030: b330 993e 077e 3cbe 6897 87bd f20b 293e
00000040: 7db0 62be 7e98 623e 10b0 6bbd 2f81 62be
00000050: bc55 903d 0d02 21be 5888 b63d ba65 773e
00000060: 9c89 a3bd 8450 803d 3022 903d 156b b33e
00000070: 514f 86be 10b5 c73c 5c3a 923d e147 08be
00000080: bf46 87be 902c e5bc ec42 a7be 36ba a3be
00000090: b8a1 47bd 1acc 8fbe 6186 55be 70b7 673d
000000a0: a8ce 3abd 5484 e3bd fd05 1dbd 9a3b d9bd
000000b0: c982 863e 8150 953e 37f8 1e3b 8e1e 41be
000000c0: 58a8 12be b61d 80be b74b 303e 7f80 67be
000000d0: 2aa4 84bd 2b4c 423e ae43 c43d 2beb a73e
000000e0: 52b7 43bc ef93 9b3e 2d1c 3bbd f6a3 b2be
000000f0: 070d 613e b37b 723e d13c 943e b720 3bbe
00000100: 5b77 463d 22c2 69be d2f2 db3d f776 8e3e
00000110: 60fe babe 3234 36bc 9f03 5a3e 5de4 79be
00000120: ed70 40bd d288 2ebe 4f5b 8d3e e79f 573e
00000130: dee6 f53d 0b20 4e3d 5375 963e 6b11 983e
00000140: c12a af3e 322d ddbd 1d92 b4be 5760 b6be
00000150: bfac bb3e 323b 0ebc 296f 97bc dfad 2f3e
00000160: 97e8 b33e 5ea1 6dbe 73ab 993e 233c 0ebe
00000170: 3ee4 49be bb54 48be bcb1 92be 25e4 1bbe
00000180: a56b 0dbd 3704 9dbe 3eb2 a3bd d931 a93e
00000190: 3620 2f3b e7d0 c33c 36eb fc3d 0774 f93c
000001a0: 1fd2 513e 003c 8e39 e0d1 81bc 2c97 b2bd
000001b0: fc93 4ebe 867d a2be cb8a b3be eb64 7dbe
000001c0: 5e7a 4f3e cb50 aebe 8866 c2bd 24d7 a2be
000001d0: 5af8 b9be 22df 1b3e 2679 5d3e f83e 8dbe
000001e0: e3a1 b7be fcf3 c63d e82e 81be b0ed 223d
000001f0: ba04 763e bb1b 95be 448e a5bd 981c a0bd
00000200: 0dce bb3e 2986 a33e 8569 a6be 5640 033e
00000210: c7ed 81be 0ec2 373e 0031 91bc ce05 9cbe
00000220: d827 00be 2fa5 b73e 3079 8d3c 5a25 123e
00000230: 756d 5fbe f0f4 b3bd 24d8 b7bd e059 eabd
00000240: f2d3 3c3e 9a50 b5be cea7 babe 50e5 23bd
00000250: 9cef 9ebd 806e 0f3d c6cd 463e a935 71be
00000260: b791 803e a2a9 bdbe e79b babe f036 a23c
00000270: 80ef 1e3c d053 15bd e8c6 8fbe d603 723e
00000280: 80db 273b 46e8 0d3e e06a ad3d 30f6 27bd
00000290: ced7 3cbe 3056 89be e066 963c 6c53 d63d
000002a0: 4075 ac3d 4d28 4bbe d7e9 1ebe 5085 be3c
000002b0: 502d 00be 2756 45be 75a5 acbe 2748 8b3e
000002c0: 0ac7 603e 22f1 143e 4ce8 94be d19b babe
000002d0: 5c9b acbe 2890 ccbd 606b a63d c24b 0d3e
000002e0: 0fe2 5abe f958 92be 36d4 533e 3e97 133e
000002f0: 401f 8ebe faed 0dbe 5fb2 253e aaab c9bd
00000300: d899 bcbe 6323 9d3e 7179 943e b190 473e
00000310: e68a 93bd d596 5d3d 1981 953e 654a 963e
00000320: dd87 833e ffe3 7c3e eec4 6c3c 3641 d83d
00000330: 4948 dfbc 7515 08bd 8310 75be bf60 ba3e
00000340: e63f c63d 3e55 b5bd d6ad 423e f23e 70be
00000350: 18e5 12bd de81 5fbe 1cca bc3d f3ad 69be
00000360: f7e7 51be 1c1a c9bd edef 7cbe 4e07 253e
00000370: eca0 72be 5933 b1be 661d 4f3e f8b6 01be
00000380: 5841 a2bd 411a acbe a707 1abe 2a44 6f3e
00000390: e0ea a53d 2e78 24be 966e 733e 90f5 9dbe
000003a0: 93e5 a2be f44f 93be ae40 a93d 9f40 923e
000003b0: 4bad 7fbd d058 aabe 1dad bf3e c86f a5be
000003c0: bea3 fcbd a670 51be da0b 62be 4186 b93e
000003d0: 4997 653e eb6f 6bbd 9adc cfbd eb47 4cbd
000003e0: 5588 013e 0f12 8f3e 4f02 a53e c529 4e3e
000003f0: 5ac9 86be 490a 14be 86bd afbe 4a0f b53d

actor.lin1.weight f4 [32, 21]
-0.08099352 -0.043910857 0.2117539 0.009315191 -0.047415633 0.1752319 0.20353937 0.09420118
-0.17843783 0.09691706 -0.2059329 -0.03868266 -0.15028735 -0.13972177 -0.013601856 -0.049607117
0.078879595 -0.06870456 -0.03260598 0.14374161 -0.09652015 0.13079846 -0.21233939 0.09526625
-0.05114759 -0.096770115 0.13129017 -0.031156762 -0.12506856 0.054876033 -0.045663577 0.0029407167
0.09646821 -0.036774885 0.1172784 0.21501952 0.030131308 -0.2036319 0.116708934 -0.2132343
0.10829818 -0.043228168 -0.034069028 0.20250103 0.014704613 -0.18138137 0.15968263 -0.005512086
-0.02636586 0.16865635 -0.09307693 -0.033900205 -0.20764728 0.142106 -0.10768344 -0.061923254
0.1574899 0.11039665 -0.15325755 0.12821046 0.18681228 -0.17685041 -0.20665346 -0.05076659
0.10531667 0.10765818 0.1926324 -0.009067552 -0.019228907 -0.11987235 -0.09104684 0.0036739088
-0.10884833 0.006534112 0.11656377 0.16479236 -0.10089506 0.02084398 0.18533877 -0.14268091
0.11975905 0.09680888 -0.11454874 -0.12715857 -0.18403907 0.1624499 -0.15909599 0.13356683
0.036089208 -0.15046062 0.20152661 -0.21175121 0.122371644 0.21568722 0.14334682 0.17251658
0.16276506 -0.21635929 -0.13018492 -0.03530984 -0.057074044 -0.07494317 -0.1148929 -0.15158285
-0.098405145 0.19200464 -0.077607706 -0.065823585 -0.04191993 -0.04567246 -0.19546877 0.10136862
-0.14708889 0.060416326 -0.053199947 0.01789233 -0.04391034 -0.0372604 0.17147718 -0.076339334
-0.0008200556 -0.15633127 -0.035860583 -0.09693588 0.06480621 -0.059393555 0.17090508 -0.13141228
-0.043251526 0.048169676 -0.2159759 -0.1857749 0.21665475 -0.102834195 -0.18843557 -0.004948629
-0.05683775 -0.09158324 0.026901068 0.15416044 0.20049995 0.0911853 -0.18378605 0.20371953
-0.2039285 -0.12414566 0.19957411 -0.1521751 0.1322864 0.14697668 0.050831918 -0.067650676
0.16097984 0.10490474 0.15979955 0.13398832 0.04523078 0.11765176 0.11802122 0.18194741
-0.18108916 -0.19629765 0.091732085 -0.0954333 -0.15479212 -0.18145601 0.017730208 -0.08649506
0.14234126 -0.13702223 -0.17984894 0.093348056 0.14931095 0.05114508 -0.07325627 -0.025292201
0.095835 0.13098884 0.17119798 -0.01492524 -0.1037698 -0.20769915 0.05787069 0.21571738
0.20929202 0.0016106537 -0.17092906 -0.10121511 -0.13876207 0.14669213 0.09594858 0.2096841
-0.013922812 0.01686689 -0.08612119 0.097209364 0.03185333 -0.020103218 0.07856795 0.12851208
0.09876266 0.039318796 -0.004784854 -0.121449865 0.14121649 -0.15003242 0.0009327361 -0.06714705
0.2126601 0.13677543 0.11628321 0.20969868 -0.079194695 -0.06238569 0.09542617 0.20049927
-0.085582346 -0.0050808317 -0.08200018 -0.17449988 -0.096520565 0.061037455 -0.16411729 -0.081129044
0.19620472 -0.18036708 -0.16282257 0.038147096 0.18839803 0.14000413 0.09169045 -0.18545267
-0.21602008 0.016550735 -0.02918616 -0.05907418 0.09840135 0.0057676286 0.066153124 -0.112656996
-0.052292854 -0.1108357 -0.20452355 0.14374723 -0.035661727 -0.18422556 0.11060743 -0.07413085
-0.01264146 -0.19528519 0.20012982 -0.14818794 -0.0029923043 -0.052939568 0.007358996 0.130844
00000000: eedf a5bd dfdb 33bd 04d6 583e be9e 183c
00000010: e536 42bd fe6f 333e a06c 503e 8cec c03d
00000020: 68b8 36be 747c c63d 13e0 52be b571 1ebd
00000030: ede4 19be 3913 0fbe 52da 5ebc d530 4bbd
00000040: a08b a13d fab4 8cbd d98d 05bd 0031 133e
00000050: 5bac c5bd 08f0 053e 7f6f 59be f41a c33d
00000060: 2380 51bd 692f c6bd ee70 063e 773c ffbc
00000070: f911 00be b1c5 603d bb09 3bbd 0ab9 403b
00000080: 2091 c53d 43a1 16bd a82f f03d 142e 5c3e
00000090: efd5 f63c e184 50be 1805 ef3d 185a 5abe
000000a0: 70cb dd3d 0510 31bd f78b 0bbd 6e5c 4f3e
000000b0: 9eeb 703c 0abc 39be d883 233e bb9e b4bb
000000c0: 37fd d7bc 40b4 2c3e 1e9f bebd f1da 0abd
000000d0: 7da1 54be 3c84 113e 2389 dcbd 3da3 7dbd
000000e0: 0845 213e a417 e23d 8cef 1cbe 9a49 033e
000000f0: b84b 3f3e 4618 35be f79c 53be a1f0 4fbd
00000100: 44b0 d73d e47b dc3d 6e41 453e 1290 14bc
00000110: f185 9dbc a27f f5bd c476 babd f6c5 703b
00000120: e0eb debd 1b1c d63b fcb8 ee3d 54bf 283e
00000130: 12a2 cebd ffc0 aa3c 72c9 3d3e f21a 12be
00000140: 3c44 f53d bc43 c63d 8898 eabd db35 02be
00000150: bd74 3cbe 4459 263e 0fea 22be bec5 083e
00000160: 47d2 133d 5912 1abe fe5c 4e3e 4fd5 58be
00000170: fc9d fa3d 1cdd 5c3e 82c9 123e 30a8 303e
00000180: e2ab 263e 4a8d 5dbe 324f 05be 0da1 10bd
00000190: 79c6 69bd ce7b 99bd f84c ebbd 8938 1bbe
000001a0: a388 c9bd dd9c 443e caf0 9ebd 84ce 86bd
000001b0: 3cb4 2bbd 0c13 3bbd f728 48be 5a9a cf3d
000001c0: 789e 16be 1c77 773d 30e8 59bd f092 923c
000001d0: 54db 33bd 5c9e 18bd b797 2f3e cc57 9cbd
000001e0: 00f9 56ba 4e15 20be 8ce2 12bd 5286 c6bd
000001f0: 1eb9 843d a846 73bd be01 2f3e f190 06be
00000200: 8328 31bd 914d 453d c928 5dbe c63b 3ebe
00000210: beda 5d3e bc9a d2bd 41f5 40be 1c28 a2bb
00000220: b3ce 68bd fe8f bbbd a15f dc3c 3cdc 1d3e
00000230: dc4f 4d3e 5cbf ba3d 6932 3cbe da9b 503e
00000240: a2d2 50be 1440 febd 285d 4c3e cad3 1bbe
00000250: 1676 073e 0e81 163e 2135 503d 708c 8abd
00000260: e6d7 243e 4cd8 d63d 7ea2 233e 3c34 093e
00000270: e943 393d 68f3 f03d 1cb5 f13d 6c50 3a3e
00000280: 706f 39be 4002 49be 08de bb3d 8972 c3bd
00000290: d381 1ebe 9bcf 39be f13e 913c 5224 b1bd
000002a0: e8c1 113e 8e4f 0cbe 522a 38be 442d bf3d
000002b0: f8e4 183e 817d 513d 6207 96bd 9731 cfbc
000002c0: 2445 c43d f021 063e 864e 2f3e fe88 74bc
000002d0: 4385 d4bd 16af 54be d109 6d3d 04e5 5c3e
000002e0: a650 563e 921c d33a 0708 2fbe de49 cfbd
000002f0: a517 0ebe 7636 163e b080 c43d 6eb7 563e
00000300: 821c 64bc 6f2c 8a3c 4e60 b0bd b415 c73d
00000310: a378 023d 81af a4bc 3ce8 a03d ac98 033e
00000320: 1444 ca3d bf0c 213d 44ca 9cbb b5ba f8bd
00000330: 0e9b 103e 19a2 19be dc82 743a 6484 89bd
00000340: 92c3 593e dc0e 0c3e e425 ee3d 40bb 563e
00000350: d430 a2bd 2388 7fbd cc6e c33d ae4f 4d3e
00000360: cc45 afbd 1b7d a6bb b6ef a7bd 19b0 32be
00000370: 93ac c5bd 6902 7a3d 5d0e 28be fc26 a6bd
00000380: e4e9 483e 26b2 38be f6ba 26be 2140 1c3d
00000390: 6aeb 403e 3e5d 0f3e 34c8 bb3d 4ee7 3dbe
000003a0: 5e34 5dbe 6895 873c d017 efbc c4f7 71bd
000003b0: a686 c93d 60fe bc3b 4a7b 873d b6b8 e6bd
000003c0: 0831 56bd d4fd e2bd 9f6e 51be 7932 133e
000003d0: 0812 12bd a0a5 3cbe 2686 e23d ead1 97bd
000003e0: 201e 4fbc d7f8 47be d5ee 4c3e 94be 17be
000003f0: 891a 44bb 29d7 58bd bc23 f13b f8fb 053e

actor.lin1.bias f4 [32]
0.09237218 -0.12860484 0.15958568 0.10489541 -0.0712664 0.1386085 -0.09465955 0.19812754
-0.10207572 -0.019523533 0.14614204 -0.0162483 0.025845753 -0.065889746 -0.11062839 0.1321601
-0.11682272 -0.1526616 0.17635688 -0.05418252 -0.06994416 -0.023310648 0.14256474 0.056921247
-0.08544032 -0.059976894 -0.017450942 -0.20023572 -0.108786054 0.16160898 -0.01819527 -0.009779841
00000000: a02d bd3d fdb0 03be 6e6a 233e 68d3 d63d
00000010: 1ef4 91bd 63ef 0d3e dedc c1bd f2e1 4a3e
00000020: 130d d1bd d1ef 9fbc 42a6 153e 281b 85bc
00000030: 79ba d33c 34f1 86bd 2391 e2bd fa54 073e
00000040: c040 efbd 5353 1cbe e696 343e 7dee 5dbd
00000050: e23e 8fbd f9f5 bebc 7efc 113e 4126 693d
00000060: 56fb aebd 55aa 75bd 47f5 8ebc 980a 4dbe
00000070: 39cb debd d37c 253e 3f0e 95bc a03b 20bc

actor.lin2.weight f4 [32, 32]
0.12063739 0.041889306 0.02791862 0.07937986 -0.11596459 -0.14139488 0.006740866 -0.14734302
-0.07494243 0.00085311907 -0.1375221 0.14070438 -0.010498034 0.16558604 0.14335778 -0.1522
-0.07775174 0.10108435 0.06285861 0.094215095 0.15819043 -0.035203684 0.041167084 0.14405471
-0.06517156 0.01575951 0.04721458 0.13636243 -0.1442094 -0.05018449 0.0016777643 -0.067601375
-0.100403845 -0.0960047 -0.15086174 -0.08366828 0.13404424 -0.13373022 -0.17033525 -0.08145584
-0.0061640143 0.043549344 0.10387124 0.063942164 -0.14569822 -0.10958357 0.08159761 -0.06673873
0.16364227 0.100641444 -0.016234338 -0.12281288 0.07446797 -0.045973063 -0.068485044 -0.053603858
0.15292336 -0.07729264 -0.1523703 0.08579613 -0.016352475 -0.1724224 -0.00075006485 0.12849496
0.08977583 -0.17468612 -0.07948721 0.102826 0.014849441 0.0014313906 -0.038722117 0.1249637
0.05753127 0.16801327 0.09408492 0.034604356 0.1391635 -0.091002546 0.06884807 -0.11501439
0.13434708 0.1472418 -0.15524703 -0.021733837 0.10177988 0.17725453 -0.13633312 -0.15974352
-0.15060286 0.009412749 -0.022350596 -0.13902439 0.0665071 0.1456572 -0.049743358 -0.11954036
0.113699734 0.07630733 -0.066685654 -0.11506659 0.17477387 0.012535214 0.10768294 0.13874945
0.038095657 -0.1610163 0.10387075 0.05559057 -0.02664326 0.07428472 -0.13676134 -0.12806337
-0.044437785 0.015749412 0.11541277 0.15308484 -0.13562112 -0.021314172 0.011130678 -0.0844102
0.15636304 0.07524082 0.057816345 0.09388462 0.074614435 -0.08374522 0.054147255 -0.087172434
-0.064063184 0.041589323 -0.15175028 0.07215287 0.13091192 0.00385423 0.070703074 -0.06288916
0.06823453 0.05076996 0.10816434 0.14683874 0.16102067 0.092260644 -0.047484938 0.11652571
-0.16408634 0.076379985 -0.14747281 0.13804495 -0.16782637 -0.12290414 -0.080206245 0.16511858
0.15739423 -0.10018317 -0.15258352 -0.07046863 0.094626635 0.13638274 0.13812515 0.024031356
0.094589114 -0.108503774 -0.08130329 -0.120134845 -0.08204794 0.084337726 0.06871651 -0.041027505
-0.13332896 0.12607622 -0.17267539 0.10987352 0.13442391 0.03329228 -0.10203189 -0.12584047
-0.12973551 -0.019497486 0.118323326 0.14462133 -0.13057381 -0.11124787 -0.1155126 0.10586241
-0.00958723 0.06089587 -0.013462411 -0.03625149 -0.13491376 -0.063059375 0.06329386 -0.10634611
-0.11098608 -0.10298906 -0.062279362 -0.1541643 0.07030955 0.17139946 0.009841679 0.086533874
0.046341244 0.16194299 0.1633884 -0.09919562 0.051008504 -0.15580633 -0.08287177 -0.14086099
-0.14528562 0.13244486 0.054985214 0.09638724 -0.018925218 -0.16202706 -0.06378167 0.15094507
-0.06353953 -0.13177308 0.13610306 0.1710839 0.03177325 -0.042350754 0.07947129 -0.11510028
-0.15369622 0.043312635 -0.12778677 0.11064091 0.06224243 -0.0042936206 -0.0105476845 -0.010356931
0.030197633 -0.007492857 0.060308654 0.17552267 0.008383198 0.11430283 0.10059568 -0.14568987
-0.1576407 0.15332365 -0.13483915 -0.13619979 0.096595734 0.020607753 0.05191845 0.11393675
-0.15092187 0.10594863 0.1631015 -0.056123335 0.05623692 0.013276786 -0.15617801 -0.01435709
00000000: bc10 f73d 1f94 2b3d 97b5 e43c e891 a23d
00000010: d87e edbd d2c9 10be 7ce2 dc3b 17e1 16be
00000020: 6b7b 99bd daa3 5f3a 98d2 0cbe cf14 103e
00000030: f2ff 2bbc 638f 293e 62cc 123e 51da 1bbe
00000040: 4e3c 9fbd 5005 cf3d 04bc 803d d8f3 c03d
00000050: acfc 213e bd31 10bd d19e 283d 1483 133e
00000060: ab78 85bd 171a 813c 1364 413d 98a2 0b3e
00000070: a1ab 13be 408e 4dbd 6ee8 db3a 9772 8abd
00000080: 88a0 cdbd 1d9e c4bd 807b 1abe 465a abbd
00000090: e542 093e 93f0 08be 5d6c 2ebe 52d2 a6bd
000000a0: 80fb c9bb cc60 323d 72ba d43d 1cf4 823d
000000b0: ea31 15be 5a6d e0bd a61c a73d 51ae 88bd
000000c0: d791 273e 1a1d ce3d e0fd 84bc 5285 fbbd
000000d0: aa82 983d 404e 3cbd e341 8cbd b88f 5bbd
000000e0: f197 1c3e 9b4b 9ebd f606 1cbe e2b5 af3d
000000f0: a0f5 85bc 7f8f 30be 00a0 44ba 2f94 033e
00000100: 64dc b73d ebe0 32be 31ca a2bd 7096 d23d
00000110: 124b 733c 809d bb3a 159b 1ebd f8ec ff3d
00000120: e9a5 6b3d ac0b 2c3e 98af c03d 4cbd 0d3d
00000130: e080 0e3e 8b5f babd 3800 8d3d aa8c ebbd
00000140: 4892 093e 8ec6 163e 14f9 1ebe 290b b2bc
00000150: f871 d03d 3682 353e e99a 0bbe ce93 23be
00000160: a337 1abe ee37 1a3c 9918 b7bc 695c 0ebe
00000170: e034 883d 2927 153e b1bf 4bbd 94d1 f4bd
00000180: 68db e83d 0447 9c3d 7d92 88bd 08a8 ebbd
00000190: ecf7 323e 8060 4d3c e088 dc3d 5614 0e3e
000001a0: 310a 1c3d 75e1 24be 30ba d43d f0b2 633d
000001b0: f742 dabc 9622 983d 2a0b 0cbe 0b23 03be
000001c0: 6504 36bd e904 813c 885d ec3d 46c2 1c3e
000001d0: 43e0 0abe 0f9b aebc 725d 363c 41df acbd
000001e0: a21d 203e dc17 9a3d d5d0 6c3d 9446 c03d
000001f0: 74cf 983d 9d82 abbd 83c9 5d3d 7687 b2bd
00000200: 8f33 83bd 9159 2a3d 6d64 1bbe e2c4 933d
00000210: c60d 063e 4097 7c3b c6cc 903d 08cc 80bd
00000220: 8cbe 8b3d 29f4 4f3d 4485 dd3d e55c 163e
00000230: 9ae2 243e 26f3 bc3d 917f 42bd 08a5 ee3d
00000240: 4006 28be 1c6d 9c3d 1d03 17be a85b 0d3e
00000250: adda 2bbe 2ab5 fbbd 2c43 a4bd d814 293e
00000260: f42b 213e d52c cdbd db3e 1cbe db51 90bd
00000270: 9ccb c13d eba7 0b3e ae70 0d3e 68dd c43c
00000280: f0b7 c13d 3a37 debd 5782 a6bd 4209 f6bd
00000290: c008 a8bd 42b9 ac3d 3ebb 8c3d 750c 28bd
000002a0: 6387 08be 201a 013e d1d1 30be 5e05 e13d
000002b0: 6ca6 093e 7c5d 083d 18f6 d0bd 53dc 00be
000002c0: 63d9 04be 31b9 9fbc 8053 f23d 9d17 143e
000002d0: 24b5 05be ecd5 e3bd df91 ecbd 64ce d83d
000002e0: c213 1dbc f36d 793d 7291 5cbc 717c 14bd
000002f0: d526 0abe 4625 81bd 36a0 813d fdcb d9bd
00000300: ab4c e3bd eeeb d2bd a518 7fbd 3fdd 1dbe
00000310: 74fe 8f3d 5783 2f3e fe3e 213c ac38 b13d
00000320: 51d0 3d3d 62d4 253e 4a4f 273e 1327 cbbd
00000330: 4bee 503d b28b 1fbe adb8 a9bd dd3d 10be
00000340: c1c5 14be a09f 073e 2d38 613d ac66 c53d
00000350: 0f09 9bbc 6cea 25be f79f 82bd 5891 1a3e
00000360: 0321 82bd 86ef 06be 9a5e 0b3e 9e30 2f3e
00000370: ab24 023d fc77 2dbd d8c1 a23d b2b9 ebbd
00000380: 8b62 1dbe 9768 313d 89da 02be b497 e23d
00000390: ebf1 7e3d 80b1 8cbb 32d0 2cbc 1eb0 29bc
000003a0: 0761 f73c a486 f5bb 3506 773d 37bc 333e
000003b0: ae59 093c 9a17 ea3d 1c05 ce3d ba2f 15be
000003c0: 906c 21be e000 1d3e 4613 0abe f577 0bbe
000003d0: fcd3 c53d 97d1 a83c 71a8 543d ac57 e93d
000003e0: 438b 1abe 98fb d83d 1404 273e 95e1 65bd
000003f0: af58 663d e086 593c 21ed 1fbe 003a 6bbc

actor.lin2.bias f4 [32]
-0.090474 -0.004070148 -0.05789051 0.049504656 0.1470668 -0.10764328 0.15881407 0.08637977
0.09405255 -0.041213695 -0.069358125 -0.056447692 -0.16875285 -0.17252484 0.11658877 -0.03900065
0.06962845 -0.12161955 -0.16344613 0.04412138 0.122959375 0.06428285 0.01914716 0.046463225
-0.0678142 -0.17372027 -0.09220498 -0.009649441 0.16480157 0.11591688 -0.016684635 -0.0145070385
00000000: 6f4a b9bd e05e 85bb 991e 6dbd 65c5 4a3d
00000010: ae98 163e 1474 dcbd 28a0 223e e0e7 b03d
00000020: a09e c03d b1cf 28bd a20b 8ebd b235 67bd
00000030: 8ccd 2cbe 5aaa 30be 18c6 ee3d 25bf 1fbd
00000040: 5c99 8e3d ac13 f9bd 6c5e 27be 9fb8 343d
00000050: 20d2 fb3d baa6 833d 81da 9c3c 3950 3e3d
00000060: 2ce2 8abd bae3 31be f7d5 bcbd b018 1ebc
00000070: bec1 283e d465 ed3d 37ae 88bc eeae 6dbc

actor.lin3.weight f4 [1, 32]
0.1427581 -0.10825062 0.03522871 0.10249147 -0.093252406 -0.08455004 0.16992006 0.012521533
0.070819646 0.1445845 0.15898937 -0.07087789 0.123009056 -0.12925126 -0.15898368 -0.08346728
-0.1503027 0.13886395 0.08206287 -0.0048387777 -0.045293976 0.08364186 -0.112128 -0.024345087
0.10932115 -0.08109348 0.07955465 -0.08105364 -0.019552486 -0.04592864 0.08361086 0.080890775
00000000: 2e2f 123e 80b2 ddbd fb4b 103d 0ce7 d13d
00000010: 1efb bebd 9228 adbd 86ff 2d3e 1e27 4d3c
00000020: e409 913d f60d 143e 1cce 223e 6d28 91bd
00000030: 2cec fb3d 715a 04be 9ecc 22be e5f0 aabd
00000040: f3e8 19be 5a32 0e3e 9410 a83d 9c8e 9ebb
00000050: 2d86 39bd 6c4c ab3d 5da3 e5bd 596f c7bc
00000060: c4e3 df3d 5714 a6bd 8ced a23d 73ff a5bd
00000070: 892c a0bc ab1f 3cbd 2c3c ab3d 10aa a53d

critic.conv1.bias f4 [21]
0.0009999999 -0.0009999999 0.0 0.0 0.0 -0.0009999999 0.0 0.0
-0.001 0.0 0.0 -0.0009999999 -0.0009999995 0.0 0.0 0.0
0.0 -0.0009999999 0.0009999998 0.0009999999 0.0
00000000: 6e12 833a 6e12 83ba 0000 0000 0000 0000
00000010: 0000 0000 6e12 83ba 0000 0000 0000 0000
00000020: 6f12 83ba 0000 0000 0000 0000 6e12 83ba
00000030: 6a12 83ba 0000 0000 0000 0000 0000 0000
00000040: 0000 0000 6e12 83ba 6d12 833a 6e12 833a
00000050: 0000 0000

critic.conv1.lin.weight f4 [21, 21]
-0.15836234 -0.027413266 0.019868685 -0.21110451 -0.15899074 -0.19857812 -0.32933724 -0.19048789
0.004621131 0.1664894 -0.121930614 -0.105981335 0.15982752 0.1616864 0.08390503 -0.31269464
0.17112677 0.15074836 -0.15247065 0.2692332 -0.2156846 0.07851727 0.09174873 -0.20926555
0.3362328 -0.30573288 0.2571554 -0.19076955 -0.2410538 -0.121241614 0.11445947 0.2750915
0.36459097 -0.29293254 -0.15992592 0.17291303 0.22489001 0.12517418 0.003448861 0.16622825
0.3106468 -0.3182184 0.118760854 0.041926086 0.36095676 -0.122623265 -0.32452485 -0.3607686
0.17317876 -0.37196532 0.0054778755 0.14456674 -0.15115415 0.0030957162 -0.07905406 -0.101751536
-0.120687544 -0.17894568 -0.28116143 0.2786447 -0.20897627 0.032719225 0.29962257 -0.26355848
-0.27594858 -0.04573074 0.008186072 -0.3565227 0.17980614 -0.103289515 -0.08323777 -0.050703943
0.00044170022 0.09710559 0.37518105 -0.22275276 0.2881212 -0.28186035 0.32915834 0.00016397238
-0.25913525 0.28511253 -0.36289588 -0.21233575 -0.3031064 -0.3644449 -0.0312486 0.116785586
0.31304654 0.17272434 0.14826259 0.2827172 0.06637868 -0.07882413 0.23269102 0.20506641
0.14951721 -0.31929582 -0.16477682 -0.12227854 -0.14677705 -0.20486087 -0.065653 0.13860533
-0.06725037 0.23776747 -0.25872093 -0.32211876 -0.02531333 -0.023556722 0.17651911 -0.06713785
-0.13690726 -0.30469546 0.070098534 0.15667792 -0.08661969 0.058568258 0.21977152 0.09402396
0.12874134 -0.24000244 -0.21722741 -0.17955269 0.3014917 0.28751597 -0.036298037 -0.26756734
-0.073427975 -0.062871784 -0.027791262 -0.030365586 -0.17050833 0.22582963 0.21954796 0.17591158
-0.26128155 0.115581244 0.30998912 -0.14499623 -0.017589748 -0.36384517 -0.27233115 0.32259634
-0.34485614 0.19712386 0.0021713674 0.11981073 0.009714097 -0.2803146 0.13783804 -0.07144582
-0.048482925 0.16893539 0.23440048 0.31451526 -0.32614553 0.041002154 -0.14718184 -0.24314776
0.26337388 0.3289679 -0.15645292 0.19716695 -0.3342779 0.026911467 -0.31290832 -0.010076076
-0.08148645 0.09469895 -0.225148 -0.12796168 -0.043083977 0.12193455 -0.011409981 -0.19207954
-0.0804532 0.07096298 0.094613716 0.18570204 0.011735367 -0.15182216 0.27018985 -0.34713444
-0.32526165 0.17281409 0.3394051 0.28550515 0.33442995 0.10894686 -0.123437315 0.12467882
-0.29379773 0.18775824 -0.32171178 0.3194931 0.1610811 -0.3738489 -0.1859495 -0.09691396
-0.017235667 0.20645377 0.045190334 0.19430253 0.20014194 -0.2621609 0.14965263 -0.37788448
-0.23307106 -0.09019157 -0.1504788 0.37443188 -0.16940525 0.071142465 -0.18625025 0.3147237
-0.064829916 0.10810432 -0.0477916 -0.11423901 -0.17865011 -0.06747034 -0.058894426 0.0214158
0.10626325 -0.021295458 -0.24932109 -0.11555967 -0.11245623 0.011334062 -0.039239883 -0.16995963
-0.10140379 -0.3277703 -0.35152847 0.012846308 0.30475554 0.3640261 0.36826912 -0.20241407
0.10804404 0.23760356 0.13127752 0.02815424 0.16156091 -0.05480088 0.140812 0.26249292
0.31104538 0.30981603 -0.24216643 -0.37121034 0.24300446 -0.23675789 0.37362567 0.3588197
00000000: bd29 22be c991 e0bc a7c3 a23c c82b 58be
00000010: 78ce 22be 1058 4bbe e49e a8be 420f 43be
00000020: db6c 973b 337c 2a3e c2b6 f9bd be0c d9bd
00000030: d3a9 233e 1f91 253e 66d6 ab3d 8319 a0be
00000040: db3b 2f3e c75d 1a3e 4421 1cbe efd8 893e
00000050: 6cdc 5cbe aacd a03d c2e6 bb3d b549 56be
00000060: b526 ac3e 0589 9cbe dfa9 833e 1859 43be
00000070: cfd6 76be 864d f8bd ba69 ea3d cbd8 8c3e
00000080: abab ba3e 41fb 95be 9fc3 23be 1d10 313e
00000090: 9149 663e a92d 003e 4906 623b bd37 2a3e
000000a0: 190d 9f3e 86ed a2be e438 f33d b0ba 2b3d
000000b0: 53cf b83e e821 fbbd 1f28 a6be a9b6 b8be
000000c0: c655 313e 3d72 bebe c07f b33b 4e09 143e
000000d0: 27c8 1abe 80e1 4a3b 18e7 a1bd 1c63 d0bd
000000e0: 082b f7bd 893d 37be 64f4 8fbe 85aa 8e3e
000000f0: e0fd 55be 9804 063d 2168 993e 23f1 86be
00000100: 2249 8dbe 2850 3bbd e01e 063c 258a b6be
00000110: 1a1f 383e 7489 d3bd 9078 aabd f0ae 4fbd
00000120: 0094 e739 4cdf c63d bb17 c03e 4d19 64be
00000130: 9f84 933e 0050 90be 7187 a83e 00f0 2b39
00000140: 60ad 84be 45fa 913e 7dcd b9be 8b6e 59be
00000150: c330 9bbe 8698 babe 10fd ffbc 482d ef3d
00000160: a347 a03e a6de 303e 26d2 173e 4fc0 903e
00000170: 8cf1 873d 8c6e a1bd 8e46 6e3e eefc 513e
00000180: 0a1b 193e be7a a3be 41bb 28be 2c6d fabd
00000190: b94c 16be 0cc7 51be 1475 86bd 8eee 0d3e
000001a0: 90ba 89bd 5179 733e 1277 84be c0ec a4be
000001b0: e75d cfbc 07fa c0bc 6dc1 343e 927f 89bd
000001c0: 6b31 0cbe 0b01 9cbe d28f 8f3d 2d70 203e
000001d0: aa65 b1bd 45e5 6f3d c90b 613e a28f c03d
000001e0: c5d4 033e 33c3 75be dd70 5ebe a9dc 37be
000001f0: 1f5d 9a3e 4b35 933e 40ad 14bd 96fe 88be
00000200: 6861 96bd ecc2 80bd 80aa e3bc 40c1 f8bc
00000210: bc99 2ebe e23f 673e 2ed1 603e 2a22 343e
00000220: b2c6 85be dcb5 ec3d e5b6 9e3e e479 14be
00000230: 6018 90bc ea49 babe fd6e 8bbe 592b a53e
00000240: fc90 b0be d6da 493e 804d 0e3b 545f f53d
00000250: e027 1f3c 6585 8fbe 6a25 0d3e 3052 92bd
00000260: 0896 46bd 66fd 2c3e ae06 703e 2508 a13e
00000270: 8cfc a6be e0f1 273d d6b6 16be bafb 78be
00000280: f1d8 863e 7b6e a83e 3235 20be 22e6 493e
00000290: 7926 abbe 7075 dc3c 8535 a0be 2016 25bc
000002a0: 5ee2 a6bd 86f1 c13d 338d 66be 6308 03be
000002b0: d378 30bd d2b8 f93d eef0 3abc 80b0 44be
000002c0: a6c4 a4bd 0a55 913d d6c4 c13d ad28 3e3e
000002d0: b245 403c 4577 1bbe 5356 8a3e 9bbb b1be
000002e0: b288 a6be 2df6 303e 81c6 ad3e bb2d 923e
000002f0: 673a ab3e 881f df3d b4cc fcbd 9c57 ff3d
00000300: a86c 96be b243 403e 68b7 a4be 9994 a33e
00000310: 72f2 243e 1f69 bfbe 8c69 3ebe d47a c6bd
00000320: d031 8dbc 9e68 533e 8019 393d 3ef7 463e
00000330: 02f2 4c3e f439 86be 8a3e 193e 137a c1be
00000340: 2eaa 6ebe 5cb6 b8bd 1d17 1abe 89b5 bf3e
00000350: 9278 2dbe 24b3 913d 63b8 3ebe 7723 a13e
00000360: 8cc5 84bd cc65 dd3d 20c1 43bd 24f6 e9bd
00000370: 0ef0 36be e42d 8abd 483b 71bd 3070 af3c
00000380: 8ca0 d93d d073 aebc 074e 7fbe 8caa ecbd
00000390: 744f e6bd 80b2 393c 00ba 20bd e609 2ebe
000003a0: caac cfbd 82d1 a7be 8afb b3be 5279 523c
000003b0: eb08 9c3e a161 ba3e c58d bc3e a245 4fbe
000003c0: 3246 dd3d 594e 733e 9d6d 063e b9a3 e63c
000003d0: 3970 253e e376 60bd 0531 103e 7965 863e
000003e0: 5741 9f3e 35a0 9e3e 7afa 77be 480f bebe
000003f0: 29d6 783e a970 72be dd4b bf3e 37b7 b73e

critic.lin1.weight f4 [32, 21]
-0.1927248 -0.12661695 0.018387377 -0.017822772 0.005026251 0.062855765 -0.010005042 -0.2002715
0.078173146 -0.060362354 0.110936716 -0.19860142 -0.035172492 0.110991254 -0.18353076 -0.076979235
0.08429159 0.15694152 -0.17103034 0.10363753 -0.047632873 0.14236715 0.019297631 -0.047243055
-0.08725366 0.11335936 -0.09079535 -0.059714954 0.1046212 -0.021828158 -0.08562487 -0.12751023
0.060196523 0.045004282 0.20475468 0.05323595 0.16498968 -0.05986711 -0.0073301177 0.15585566
-0.18664819 -0.2160235 -0.14095472 0.03708084 -0.119522266 0.08571021 -0.15877755 0.15828569
-0.042195275 -0.20594181 -0.09754075 0.08963479 -0.14243418 0.13779269 -0.0380906 -0.037981242
0.053865567 0.09904648 0.16740985 0.0428551 -0.20268992 -0.1719232 -0.19537571 -0.14806032
-0.02518372 0.1947717 -0.030339105 0.087800145 0.18785688 -0.12599696 0.061393324 -0.114996076
-0.0075987703 0.07564524 -0.07501356 -0.060672756 -0.12703182 0.17498845 -0.05789211 0.15997651
0.15471685 -0.0045556403 -0.19021516 0.0036346337 0.019957678 -0.033434253 0.20177105 -0.13028814
-0.18823864 0.057764474 -0.17213625 -0.16176908 0.04765928 0.14968672 -0.14119846 -0.05325299
0.17968366 -0.012830211 0.057491157 0.06909749 0.088799 0.037913207 -0.16883773 0.0538182
-0.098492004 -0.11405735 0.17651719 0.11559546 -0.11996852 -0.05043192 0.0669249 -0.14121516
0.2044464 0.15491518 0.13280112 -0.08139537 0.14717415 0.07962969 -0.13055293 -0.0420555
0.09786865 -0.097712375 0.18400282 0.006128716 -0.12239067 -0.019282145 0.15358588 0.05156639
0.14835936 0.032405537 0.14376846 -0.0503286 0.20667401 0.08586258 -0.14290105 0.08868468
0.0025561578 0.21829295 -0.029270204 0.14578956 -0.14716081 0.09775582 -0.04823755 0.13983086
-0.17958641 0.19359833 0.18855652 0.040446922 -0.044199064 0.18454377 0.13485743 -0.09356202
-0.19407587 -0.15134138 -0.12670363 7.143617e-05 -0.07723656 -0.20952378 0.1448163 0.094687864
-0.06623386 -0.11181795 0.010479599 -0.08801092 -0.121194944 -0.18261367 -0.108377054 0.043783054
-0.10941738 0.04324514 0.20572457 -0.19324665 0.095398635 0.055328343 -0.04438777 -0.08967386
-0.13124776 -0.07153788 0.005385356 0.18379864 0.09193534 0.1838449 -0.04409614 0.018798562
0.0925034 0.10134953 -0.041742634 -0.04615597 -0.018086327 0.0020275093 -0.051856387 0.091196805
0.19144234 0.2143513 -0.032806624 -0.16851395 -0.16747493 -0.08462025 -0.05464733 0.07551974
-0.037598405 -0.15093526 -0.20423236 0.037622984 0.052228566 0.052975442 0.21921417 0.062374886
0.17318591 -0.003416257 0.21616924 0.07256657 -0.13263495 -0.15054329 0.05029666 0.090251654
0.1313388 -0.12972026 0.166643 -0.028144287 0.093667716 -0.1605831 0.12721118 0.16354463
0.033689793 -0.023310693 0.19724068 0.18149117 0.056183603 0.08901572 0.04687166 -0.016488213
-0.019221665 0.119006544 -0.19134267 -0.10946735 -0.030815395 0.08896944 0.10538036 0.16656461
0.051871207 -0.14263164 -0.1743279 0.04787868 -0.042290125 -0.09292741 -0.071545914 -0.01571873
-0.028138356 0.11384931 0.191935 -0.050781507 -0.19389781 -0.18842319 0.15357505 0.037156925
00000000: a659 45be e0a7 01be 20a1 963c 1001 92bc
00000010: 40b3 a43b 86ba 803d 30ec 23bc f913 4dbe
00000020: 3e19 a03d 843e 77bd ca32 e33d 2c5e 4bbe
00000030: 0811 10bd 624f e33d 7def 3bbe 4aa7 9dbd
00000040: 12a1 ac3d 47b5 203e 9422 2fbe ea3f d43d
00000050: b01a 43bd b2c8 113e 1116 9e3c ef81 41bd
00000060: 0cb2 b2bd f428 e83d eaf2 b9bd ab97 74bd
00000070: a443 d63d f7d0 b2bc 185c afbd 0b92 02be
00000080: a190 763d 6956 383d 36ab 513e f10d 5a3d
00000090: 0ef3 283e 3737 75bd 7c31 f0bb a098 1f3e
000000a0: b420 3fbe 4435 5dbe 6f56 10be 14e2 173d
000000b0: 17c8 f4bd d688 af3d 9596 22be a515 223e
000000c0: f4d4 2cbd 69e2 52be 72c3 c7bd 7292 b73d
000000d0: 44da 11be 8719 0d3e e404 1cbd 3892 1bbd
000000e0: 24a2 5c3d e2d8 ca3d 7d6d 2b3e d488 2f3d
000000f0: f28d 4fbe a30c 30be 9210 48be 209d 17be
00000100: 174e cebc 3c72 473e b789 f8bc 90d0 b33d
00000110: 8e5d 403e 5905 01be 9177 7b3d 1083 ebbd
00000120: 1bff f8bb e4eb 9a3d b6a0 99bd ff83 78bd
00000130: a114 02be 2c30 333e 4720 6dbd e2d0 233e
00000140: 186e 1e3e 7b47 95bb c3c7 42be 0933 6e3b
00000150: 497e a33c 5bf2 08bd 129d 4e3e 416a 05be
00000160: a1c1 40be 719a 6c3d 7c44 30be cba6 25be
00000170: 6136 433d 7a47 193e 5496 10be cf1f 5abd
00000180: fefe 373e ce35 52bc d97b 6b3d fc82 8d3d
00000190: 40dc b53d e14a 1b3d cce3 2cbe 7970 5c3d
000001a0: 2db6 c9bd e696 e9bd ecc0 343e 50bd ec3d
000001b0: 0eb2 f5bd b391 4ebd ec0f 893d b59a 10be
000001c0: 665a 513e 16a2 1e3e 04fd 073e 9eb2 a6bd
000001d0: d2b4 163e e414 a33d abaf 05be 6342 2cbd
000001e0: 5c6f c83d 6d1d c8bd 3c6b 3c3e 65d3 c83b
000001f0: f6a7 fabd 97f5 9dbc 9e45 1d3e 4737 533d
00000200: 84eb 173e abbb 043d 0a38 133e 5d25 4ebd
00000210: 5aa2 533e b8d8 af3d a754 12be 50a0 b53d
00000220: 3685 273b 3088 5f3e 11c8 efbc dc49 153e
00000230: 53b1 16be 3434 c83d bd94 45bd d22f 0f3e
00000240: 80e5 37be a43e 463e f614 413e acab 253d
00000250: 140a 35bd 0bf9 3c3e 1118 0a3e 729d bfbd
00000260: d3bb 46be 3cf9 1abe 99be 01be 00d0 9538
00000270: 342e 9ebd 678d 56be b94a 143e b6eb c13d
00000280: 9ea5 87bd cf00 e5bd a0b2 2b3c 123f b4bd
00000290: 0e35 f8bd 14ff 3abe caf4 ddbd dc55 333d
000002a0: 3816 e0bd d121 313d 76a9 523e 73e2 45be
000002b0: 5c60 c33d f99f 623d f3cf 35bd eea6 b7bd
000002c0: d065 06be 7482 92bd a477 b03b b635 3c3e
000002d0: 9848 bc3d d641 3c3e 279e 34bd 71ff 993c
000002e0: 6c72 bd3d 5890 cf3d 53fa 2abd 0b0e 3dbd
000002f0: c729 94bc f6df 043b 5d67 54bd 64c5 ba3d
00000300: 7609 443e e87e 5b3e 3d60 06bd ec8e 2cbe
00000310: 8c7e 2bbe 624d adbd e1d5 5fbd 18aa 9a3d
00000320: c900 1abd c68e 1abe 4a22 51be 8f1a 1a3d
00000330: 9fed 553d c7fc 583d ae79 603e cf7c 7f3d
00000340: a657 313e 48e3 5fbb 785b 5d3e c89d 943d
00000350: 75d1 07be 0528 1abe df03 4e3d dcd5 b83d
00000360: ae7d 063e 63d5 04be 76a4 2a3e d98e e6bc
00000370: dcd4 bf3d e56f 24be a643 023e 3e78 273e
00000380: 4ffe 093d 11f6 bebc 76f9 493e d2d8 393e
00000390: c720 663d e04d b63d 7ffc 3f3d 4a12 87bc
000003a0: c176 9dbc b4b9 f33d 55ef 43be 6b30 e0bd
000003b0: 9170 fcbc 9c35 b63d a8d1 d73d ea8f 2a3e
000003c0: e776 543d 070e 12be 0383 32be 6f1c 443d
000003d0: 6938 2dbd ba50 bebd aa86 92bd 91c4 80bc
000003e0: 6982 e6bc d429 e93d 9c8a 443e 4500 50bd
000003f0: 268d 46be 02f2 40be c742 1d3e dc31 183d

critic.lin1.bias f4 [32]
0.15343876 -0.12574396 -0.1395792 -0.11217781 -0.15598601 0.16341734 -0.12233924 0.13581465
0.023758205 -0.07317431 -0.11245522 0.0017082618 -0.017439201 0.09052397 0.07430084 -0.19183753
-0.04720828 0.09050882 0.17144611 -0.18319693 -0.026919333 -0.053178404 0.117883995 0.21103784
-0.10582869 0.19875154 -0.18115517 -0.17993219 -0.014500156 -0.19764756 0.107900575 -0.06861822
00000000: 0d1f 1d3e 06c3 00be daed 0ebe 7bbd e5bd
00000010: ccba 1fbe e056 273e ff8c fabd ff12 0b3e
00000020: 91a0 c23c 6adc 95bd ec4e e6bd c1e7 df3a
00000030: a8dc 8ebc a264 b93d 0a2b 983d 0f71 44be
00000040: 785d 41bd b05c b93d 928f 2f3e fa97 3bbe
00000050: ef85 dcbc 99d1 59bd 2a6d f13d 4e1a 583e
00000060: b6bc d8bd 8685 4b3e be80 39be 2540 38be
00000070: 1092 6dbc 1f64 4abe fafa dc3d b687 8cbd
