saved_files/ckpt/nyc4/a2c_gnn_test_vdvp.pth (torch, 286706 bytes, 55 tensors)

log_rate f4 [16, 16]
20.0 20.0 20.0 20.0 20.0 20.0 20.0 20.0
20.0 20.0 20.0 20.0 20.0 20.0 20.0 20.0
20.0 20.0 20.0 20.0 20.0 20.0 20.0 20.0
20.0 20.0 20.0 20.0 20.0 20.0 20.0 20.0
20.0 20.0 20.0 20.0 20.0 20.0 20.0 20.0
20.0 20.0 20.0 20.0 20.0 20.0 20.0 20.0
20.0 20.0 20.0 20.0 20.0 20.0 20.0 20.0
20.0 20.0 20.0 20.0 20.0 20.0 20.0 20.0
20.0 20.0 20.0 20.0 20.0 20.0 20.0 20.0
20.0 20.0 20.0 20.0 20.0 20.0 20.0 20.0
20.0 20.0 20.0 20.0 20.0 20.0 20.0 20.0
20.0 20.0 20.0 20.0 20.0 20.0 20.0 20.0
20.0 20.0 20.0 20.0 20.0 20.0 20.0 20.0
20.0 20.0 20.0 20.0 20.0 20.0 20.0 20.0
20.0 20.0 20.0 20.0 20.0 20.0 20.0 20.0
20.0 20.0 20.0 20.0 20.0 20.0 20.0 20.0
20.0 20.0 20.0 20.0 20.0 20.0 20.0 20.0
20.0 20.0 20.0 20.0 20.0 20.0 20.0 20.0
20.0 20.0 20.0 20.0 20.0 20.0 20.0 20.0
20.0 20.0 20.0 20.0 20.0 20.0 20.0 20.0
20.0 20.0 20.0 20.0 20.0 20.0 20.0 20.0
20.0 20.0 20.0 20.0 20.0 20.0 20.0 20.0
20.0 20.0 20.0 20.0 20.0 20.0 20.0 20.0
20.0 20.0 20.0 20.0 20.0 20.0 20.0 20.0
20.0 20.0 20.0 20.0 20.0 20.0 20.0 20.0
20.0 20.0 20.0 20.0 20.0 20.0 20.0 20.0
20.0 20.0 20.0 20.0 20.0 20.0 20.0 20.0
20.0 20.0 20.0 20.0 20.0 20.0 20.0 20.0
20.0 20.0 20.0 20.0 20.0 20.0 20.0 20.0
20.0 20.0 20.0 20.0 20.0 20.0 20.0 20.0
20.0 20.0 20.0 20.0 20.0 20.0 20.0 20.0
20.0 20.0 20.0 20.0 20.0 20.0 20.0 20.0
00000000: 0000 a041 0000 a041 0000 a041 0000 a041
00000010: 0000 a041 0000 a041 0000 a041 0000 a041
00000020: 0000 a041 0000 a041 0000 a041 0000 a041
00000030: 0000 a041 0000 a041 0000 a041 0000 a041
00000040: 0000 a041 0000 a041 0000 a041 0000 a041
00000050: 0000 a041 0000 a041 0000 a041 0000 a041
00000060: 0000 a041 0000 a041 0000 a041 0000 a041
00000070: 0000 a041 0000 a041 0000 a041 0000 a041
00000080: 0000 a041 0000 a041 0000 a041 0000 a041
00000090: 0000 a041 0000 a041 0000 a041 0000 a041
000000a0: 0000 a041 0000 a041 0000 a041 0000 a041
000000b0: 0000 a041 0000 a041 0000 a041 0000 a041
000000c0: 0000 a041 0000 a041 0000 a041 0000 a041
000000d0: 0000 a041 0000 a041 0000 a041 0000 a041
000000e0: 0000 a041 0000 a041 0000 a041 0000 a041
000000f0: 0000 a041 0000 a041 0000 a041 0000 a041
00000100: 0000 a041 0000 a041 0000 a041 0000 a041
00000110: 0000 a041 0000 a041 0000 a041 0000 a041
00000120: 0000 a041 0000 a041 0000 a041 0000 a041
00000130: 0000 a041 0000 a041 0000 a041 0000 a041
00000140: 0000 a041 0000 a041 0000 a041 0000 a041
00000150: 0000 a041 0000 a041 0000 a041 0000 a041
00000160: 0000 a041 0000 a041 0000 a041 0000 a041
00000170: 0000 a041 0000 a041 0000 a041 0000 a041
00000180: 0000 a041 0000 a041 0000 a041 0000 a041
00000190: 0000 a041 0000 a041 0000 a041 0000 a041
000001a0: 0000 a041 0000 a041 0000 a041 0000 a041
000001b0: 0000 a041 0000 a041 0000 a041 0000 a041
000001c0: 0000 a041 0000 a041 0000 a041 0000 a041
000001d0: 0000 a041 0000 a041 0000 a041 0000 a041
000001e0: 0000 a041 0000 a041 0000 a041 0000 a041
000001f0: 0000 a041 0000 a041 0000 a041 0000 a041
00000200: 0000 a041 0000 a041 0000 a041 0000 a041
00000210: 0000 a041 0000 a041 0000 a041 0000 a041
00000220: 0000 a041 0000 a041 0000 a041 0000 a041
00000230: 0000 a041 0000 a041 0000 a041 0000 a041
00000240: 0000 a041 0000 a041 0000 a041 0000 a041
00000250: 0000 a041 0000 a041 0000 a041 0000 a041
00000260: 0000 a041 0000 a041 0000 a041 0000 a041
00000270: 0000 a041 0000 a041 0000 a041 0000 a041
00000280: 0000 a041 0000 a041 0000 a041 0000 a041
00000290: 0000 a041 0000 a041 0000 a041 0000 a041
000002a0: 0000 a041 0000 a041 0000 a041 0000 a041
000002b0: 0000 a041 0000 a041 0000 a041 0000 a041
000002c0: 0000 a041 0000 a041 0000 a041 0000 a041
000002d0: 0000 a041 0000 a041 0000 a041 0000 a041
000002e0: 0000 a041 0000 a041 0000 a041 0000 a041
000002f0: 0000 a041 0000 a041 0000 a041 0000 a041
00000300: 0000 a041 0000 a041 0000 a041 0000 a041
00000310: 0000 a041 0000 a041 0000 a041 0000 a041
00000320: 0000 a041 0000 a041 0000 a041 0000 a041
00000330: 0000 a041 0000 a041 0000 a041 0000 a041
00000340: 0000 a041 0000 a041 0000 a041 0000 a041
00000350: 0000 a041 0000 a041 0000 a041 0000 a041
00000360: 0000 a041 0000 a041 0000 a041 0000 a041
00000370: 0000 a041 0000 a041 0000 a041 0000 a041
00000380: 0000 a041 0000 a041 0000 a041 0000 a041
00000390: 0000 a041 0000 a041 0000 a041 0000 a041
000003a0: 0000 a041 0000 a041 0000 a041 0000 a041
000003b0: 0000 a041 0000 a041 0000 a041 0000 a041
000003c0: 0000 a041 0000 a041 0000 a041 0000 a041
000003d0: 0000 a041 0000 a041 0000 a041 0000 a041
000003e0: 0000 a041 0000 a041 0000 a041 0000 a041
000003f0: 0000 a041 0000 a041 0000 a041 0000 a041

actor.conv1.bias f4 [21]
-0.04752101 -0.055847548 -0.067759395 0.011412568 0.025353504 -0.044465717 0.067583285 0.07265453
0.051179793 -0.078005634 -0.102069594 0.020176249 0.03242471 -0.031764206 0.026268598 0.05400536
0.043781336 0.09397948 0.037167285 0.04977737 -0.0016581861
00000000: 64a5 42bd 66c0 64bd 70c5 8abd c8fb 3a3c
00000010: 27b2 cf3c af21 36bd 1b69 8a3d e6cb 943d
00000020: e7a1 513d 6bc1 9fbd dd09 d1bd a948 a53c
00000030: c6cf 043d 2f1b 02bd 3e31 d73c b934 5d3d
00000040: 0f54 333d 5078 c03d b93c 183d 5be3 4b3d
00000050: 7e57 d9ba

actor.conv1.lin.weight f4 [21, 21]
0.28706786 -0.12160806 0.034318287 0.06515365 0.27742067 -0.3306642 -0.38823214 0.029092122
-0.26323494 0.060783245 -0.055095986 -0.09287385 -0.2867694 -0.15040676 0.05712962 -0.41416836
0.09698224 0.29007062 0.12045578 0.072587565 -0.08398254 -0.17654967 -0.11578238 -0.2502637
-0.0072939037 -0.31269687 -0.33420813 -0.26189366 -0.002106933 0.24164414 0.08281478 0.22229686
0.14776178 -0.29289418 -0.08807129 0.2713268 -0.16537142 -0.1698673 0.059662584 -0.415543
0.15642938 -0.28582358 -0.018513035 0.107306466 -0.053243443 0.12231946 0.20846191 0.024514083
-0.33162728 4.659423e-05 -0.21394917 0.08639099 -0.27515724 0.1399571 -0.019788735 0.12131005
-0.28317922 -0.08489323 0.2576488 -0.18226773 -0.38263452 0.06776951 0.14774758 0.08844839
0.3811291 -0.2463033 0.1847022 -0.12636146 0.34613758 0.25000942 -0.033117224 -0.032949507
0.25388208 -0.2805963 0.016090555 -0.15701482 0.24677165 -0.3036084 -0.28702933 -0.36578956
0.03692487 -0.32813302 -0.09101536 -0.043042555 0.44768286 0.35853124 0.381844 0.35807422
-0.036139548 0.32185578 0.36990592 0.45562232 0.48752648 0.16514729 0.09152154 0.36583623
0.3435177 0.36038548 -0.3202334 0.3909532 0.27280006 -0.041333593 0.37853083 0.35730022
0.30661556 0.10270473 -0.25443882 0.008278277 -0.1436947 -0.06469058 0.14222363 -0.004333245
0.08243169 -0.2756153 0.22357655 -0.24892038 -0.17954117 0.27600995 0.26879588 -0.2847208
0.109736785 -0.23223715 0.26561412 -0.07651889 -0.39332157 -0.26436555 0.10451059 0.12818031
0.3651304 -0.1615075 0.255647 -0.021293735 0.5278441 0.004231086 0.05452994 0.57432944
0.13746971 0.09033425 0.18839963 0.10374177 0.19427383 0.2808624 0.12168284 0.4862086
0.37349823 -0.21528848 -0.050604936 -0.08739047 0.3438601 0.3370054 0.43571043 0.5093562
0.006073423 0.46102235 0.2786585 0.14917856 0.40524036 0.09283773 -0.22436708 0.2164398
0.22207876 -0.012236244 0.4780921 0.32428074 0.100466445 0.027509581 0.289064 0.42013443
0.008462971 0.15171288 0.12645611 0.44182438 0.5526275 0.16445395 0.4981604 0.5264148
0.023541592 -0.08334582 0.5034753 0.15535814 -0.24618092 0.41559678 0.43188357 0.4099863
0.13233335 0.33058167 0.3726368 -0.11029644 0.07882001 0.19832401 -0.3454597 0.23488677
0.17480783 0.017978583 -0.2766017 -0.36706844 0.25225314 0.23335889 0.059159897 0.28559384
-0.30795464 0.06447694 -0.36316815 -0.0011177366 -0.05824242 0.1833652 -0.22437365 -0.36071002
0.07146699 -0.10344478 -0.02987103 -0.3279134 0.17086111 0.21864767 -0.17912434 -0.32242543
0.1701637 -0.33289573 -0.2109172 -0.4055495 -0.2869212 -0.12437315 0.08403819 -0.26367667
0.19861676 -0.12905334 0.048905544 -0.1727398 0.30877903 -0.1709647 0.09603931 0.24524309
0.09818227 0.13265929 -0.2862203 0.18948987 0.37902537 0.026374895 0.14357348 -0.15747957
0.12869653 0.07250807 -0.12613963 0.06757007 0.012916198 -0.39001057 0.19290431 -0.10047143
0.0811719 -0.31404233 -0.10046673 -0.0049457266 0.39175275 -0.027875138 0.26850903 0.3012374
00000000: 8ffa 923e a60d f9bd 5591 0c3d 476f 853d
00000010: 150a 8e3e d14c a9be 5dc6 c6be 9a52 ee3c
00000020: bbc6 86be daf7 783d 54ac 61bd a534 bebd
00000030: 70d3 92be 3b04 1abe c000 6a3d e00d d4be
00000040: a09e c63d 2384 943e 85b1 f63d caa8 943d
00000050: 0aff abbd 70c9 34be 501f edbd 9022 80be
00000060: b301 efbb ce19 a0be 541d abbe ed16 86be
00000070: 7814 0abb 9071 773e cc9a a93d caa1 633e
00000080: dd4e 173e 3af6 95be b85e b4bd 59eb 8a3e
00000090: 2057 29be b2f1 2dbe c160 743d 0dc2 d4be
000000a0: 062f 203e 7857 92be a6a8 97bc 7ec3 db3d
000000b0: cc15 5abd a082 fa3d 0a77 553e c2d1 c83c
000000c0: 0dcb a9be 2c6e 4338 7e15 5bbe c2ed b03d
000000d0: 69e1 8cbe ea50 0f3e fc1b a2bc 6771 f83d
000000e0: defc 90be 80dc adbd 8bea 833e 64a4 3abe
000000f0: ace8 c3be beca 8a3d 244b 173e 6e24 b53d
00000100: 5a23 c33e ef36 7cbe 9322 3d3e e664 01be
00000110: f238 b13e 3c01 803e eda5 07bd 10f6 06bd
00000120: d5fc 813e 51aa 8fbe 57d0 833c 7ec8 20be
00000130: b5b1 7c3e 8f72 9bbe 82f5 92be c548 bbbe
00000140: 883e 173d 0d01 a8be 4366 babd 644d 30bd
00000150: b036 e53e 6891 b73e 0f81 c33e 8155 b73e
00000160: 1007 14bd 48ca a43e 4f64 bd3e 5447 e93e
00000170: 129d f93e 5f1c 293e a56f bb3d e34e bb3e
00000180: 8de1 af3e 7284 b83e a2f5 a3be 052b c83e
00000190: 73ac 8b3e 6a4d 29bd cbce c13e 0ef0 b63e
000001a0: b7fc 9c3e dc56 d23d ce45 82be 9ca1 073c
000001b0: b424 13be 7f7c 84bd 12a3 113e e5fd 8dbb
000001c0: f2d1 a83d 731d 8dbe 40f1 643e fce4 7ebe
000001d0: a4d9 37be 2d51 8d3e 9d9f 893e edc6 91be
000001e0: aebd e03d 93cf 6dbe 93fe 873e f0b5 9cbd
000001f0: 7261 c9be ec5a 87be a609 d63d b341 033e
00000200: 5ff2 ba3e 3962 25be 2ae4 823e 3370 aebc
00000210: ca20 073f eca4 8a3b c95a 5f3d 4107 133f
00000220: dcc4 0c3e 2a01 b93d d5eb 403e 9176 d43d
00000230: b8ef 463e 32cd 8f3e da34 f93d 55f0 f83e
00000240: 293b bf3e 9574 5cbe 1f47 4fbd c6f9 b2bd
00000250: 6e0e b03e f98b ac3e 7015 df3e 2b65 023f
00000260: 9103 c73b 1f0b ec3e 54ac 8e3e 44c2 183e
00000270: aa7b cf3e b521 be3d 7cc0 65be 65a2 5d3e
00000280: 9d68 633e 877a 48bc 7dc8 f43e 2008 a63e
00000290: 5ac1 cd3d c65b e13c 3200 943e dc1b d73e
000002a0: 46a8 0a3c 9f5a 1b3e b67d 013e ce36 e23e
000002b0: ff78 0d3f 9e66 283e e10e ff3e 1fc3 063f
000002c0: 4cda c03c 37b1 aabd c2e3 003f 3416 1f3e
000002d0: da16 7cbe 1ac9 d43e d81f dd3e b9e9 d13e
000002e0: 6582 073e 0042 a93e 40ca be3e 1ae3 e1bd
000002f0: 636c a13d 7315 4b3e 18e0 b0be 2886 703e
00000300: d300 333e d247 933c bd9e 8dbe 65f0 bbbe
00000310: 5327 813e a2f5 6e3e a651 723d 5b39 923e
00000320: 3bac 9dbe 7c0c 843d 2df1 b9be 0481 92ba
00000330: 9b8f 6ebd 16c4 3b3e 35c2 65be fcae b8be
00000340: 495d 923d dbda d3bd 17b4 f4bc 44e4 a7be
00000350: 37f6 2e3e 2de5 5f3e 5f6c 37be f214 a5be
00000360: 653f 2e3e 4f71 aabe aefa 57be 2fa4 cfbe
00000370: 56e7 92be 5ab7 febd 371c ac3d a100 87be
00000380: 3162 4b3e 8f26 04be 2e51 483d b4e2 30be
00000390: 4918 9e3e 5f11 2fbe 42b0 c43d 0121 7b3e
000003a0: c913 c93d d6d7 073e 788b 92be a209 423e
000003b0: 9d0f c23e 2a10 d83c ed04 133e 5342 21be
000003c0: 06c9 033e 1c7f 943d bf2a 01be 2d62 8a3d
000003d0: 769e 533c 77af c7be b588 453e f7c3 cdbd
000003e0: 743d a63d 28ca a0be 80c1 cdbd c30f a2bb
000003f0: d193 c83e 675a e4bc 047a 893e ca3b 9a3e

actor.lin1.weight f4 [32, 21]
-0.098815255 -0.18208195 -0.21612881 0.13786145 -0.11568523 -0.04721705 -0.084868096 -0.13948163
0.06741842 -0.11890599 0.02435478 0.049678564 -0.17786172 -0.06332784 -0.16474462 -0.1408752
-0.14459567 -0.098637186 -0.1358496 0.02113409 -0.013355956 0.3602008 0.27419427 -0.0047970884
0.09248087 0.34698695 0.37500688 0.023907453 0.3628083 0.3974122 0.2764913 0.3711708
-0.111733474 -0.16814008 -0.11451234 -0.11592125 -0.3146712 -0.01471133 0.20232145 0.12672496
0.15803246 -0.14315586 0.36731574 0.08429953 0.052838176 0.33204785 0.14752637 0.41131592
0.23293547 0.34070075 0.21559569 0.28043368 0.14613098 -0.067844614 -0.027249668 -0.26851243
-0.19833186 -0.08018928 0.16273506 0.09345429 0.03882298 0.1462595 0.069165275 0.24039753
0.22370292 0.12178894 0.4696122 0.29951012 0.21998489 0.366699 0.30368498 0.32257473
0.507156 0.41843095 -0.21789902 -0.080141135 -0.06944708 -0.05233965 0.12538907 0.0036758918
-0.1869673 -0.15425426 0.119719096 -0.07268476 -0.07633592 0.047554422 -0.17527135 0.058899947
-0.24819465 -0.17547564 0.040716566 -0.11520955 -0.2556678 -0.03595301 -0.102579065 -0.13533705
0.061787263 -0.11045808 -0.1523106 0.09371637 0.07656582 -0.013118153 -0.08056777 0.13594334
-0.15504922 0.05041111 0.32180074 0.08617939 0.06025907 -0.017285224 0.23051646 0.36279318
0.2076375 -0.05282709 0.24650456 0.13593167 -0.08578223 0.0422112 0.012290688 -0.2144918
-0.020094085 0.07889972 0.16836834 0.09127125 -0.09619344 -0.024761762 -0.21825391 -0.22824709
0.10837607 -0.06522475 -0.07552312 0.17897041 0.103818186 -0.21666183 0.11204882 -0.22109526
0.057848863 0.009048432 0.026827695 -0.07614684 0.18458322 -0.16908763 -0.045010228 -0.008926476
0.02276417 -0.064220905 -0.08597016 0.39500955 0.29036123 0.3138951 0.14275014 0.20942089
0.41244584 0.4554765 0.29628804 0.42375344 0.3652135 0.3793139 -0.07102971 0.014247688
-0.03742631 -0.16208102 -0.20354444 -0.021868544 0.1386251 -0.17465779 0.1302091 -0.13019896
-0.15612492 0.118445314 -0.030391432 0.123438604 -0.1923753 -0.22407022 -0.21602474 0.036967207
-0.032962266 0.14401285 -0.07093872 -0.1550449 -0.1309822 -0.21086124 -0.07892507 -0.21179524
-0.101691246 0.009258866 0.07230328 0.010616986 0.15283825 0.2644907 0.3797335 0.0538162
0.070778616 0.19039933 0.15166889 0.43522874 0.33360487 0.41309044 0.5289453 0.16722567
-0.20572795 -0.24078125 -0.14928274 0.09087728 -0.006302028 -0.26324892 0.069430515 -0.01360863
0.021326251 0.07205217 -0.21064241 -0.10933377 0.10921439 0.19684419 -0.23756294 0.0178877
0.18731551 0.022825249 0.087444104 -0.14178005 -0.18355313 0.08129786 -0.1554096 -0.16179395
0.013117367 0.19198503 0.048674624 -0.074808486 -0.04591751 -0.13139485 -0.16002268 0.06232027
-0.12311288 -0.24108715 -0.24011393 -0.25728 -0.102553464 -0.22725886 0.09663599 -0.22270061
-0.11267976 0.10661177 0.15329233 0.20258617 -0.10693997 0.0079514375 0.16888846 -0.027664715
-0.1887008 0.13011518 0.102545366 0.19295168 0.5000171 0.35724112 0.22082 0.114874974
00000000: a75f cabd b173 3abe df50 5dbe 8d2b 0d3e
00000010: 61ec ecbd aa66 41bd 53cf adbd 46d4 0ebe
00000020: ab12 8a3d fc84 f3bd ad83 c73c c07b 4b3d
00000030: 6221 36be 07b2 81bd d0b2 28be 9741 10be
00000040: e310 14be 4b02 cabd 281c 0bbe 6621 ad3c
00000050: f1d2 5abc 3d6c b83e 3163 8c3e e530 9dbb
00000060: 9c66 bd3d 46a8 b13e e700 c03e 90d9 c33c
00000070: 02c2 b93e 9d79 cb3e 4590 8d3e 190a be3e
00000080: 85d4 e4bd ea2c 2cbe 7285 eabd 1f68 edbd
00000090: 951c a1be ca07 71bc 5b2d 4f3e 30c4 013e
000000a0: 43d3 213e 7397 12be cf10 bc3e 3ba5 ac3d
000000b0: d86c 583d 2d02 aa3e 2711 173e 0098 d23e
000000c0: a386 6e3e 5470 ae3e 1ec5 5c3e 0195 8f3e
000000d0: 5ca3 153e 1ef2 8abd b23a dfbc 767a 89be
000000e0: 8217 4bbe 473a a4bd 05a4 263e f664 bf3d
000000f0: d804 1f3d 0dc5 153e 86a6 8d3d c52a 763e
00000100: 6112 653e 7b6c f93d 0371 f03e 6459 993e
00000110: b843 613e f9bf bb3e 997c 9b3e 8428 a53e
00000120: fad4 013f 953c d63e ec20 5fbe 0921 a4bd
00000130: 453a 8ebd 1a62 56bd fe65 003e 3be7 703b
00000140: 5b74 3fbe d4f4 1dbe 492f f53d bfdb 94bd
00000150: 0256 9cbd 6dc8 423d 557a 33be 1241 713d
00000160: bd26 7ebe e3af 33be 6ac6 263d fcf2 ebbd
00000170: e4e6 82be 7743 13bd f914 d2bd cc95 0abe
00000180: a414 7d3d d937 e2bd 4ff7 1bbe 5eee bf3d
00000190: 8ace 9c3d 86ed 56bc b700 a5bd bb34 0b3e
000001a0: 39c5 1ebe e17b 4e3d 11c3 a43e d27e b03d
000001b0: 37d2 763d be99 8dbc 820c 6c3e 07c0 b93e
000001c0: ed9e 543e 3861 58bd b16b 7c3e ac31 0b3e
000001d0: 98ae afbd a7e5 2c3d e25e 493c bda3 5bbe
000001e0: 5a9c a4bc 2d96 a13d c068 2c3e 6cec ba3d
000001f0: 1101 c5bd 2ed9 cabc f47d 5fbe 9bb9 69be
00000200: 46f4 dd3d 8e94 85bd deab 9abd 0544 373e
00000210: a19e d43d 99dc 5dbe da79 e53d cc66 62be
00000220: eef2 6c3d e03f 143c c1c5 db3c e0f2 9bbd
00000230: 6203 3d3e 4f25 2dbe a55c 38bd 5b40 12bc
00000240: ed7b ba3c 4086 83bd 2011 b0bd b13e ca3e
00000250: 3aaa 943e dcb6 a03e 182d 123e 6e72 563e
00000260: 1a2c d33e 3734 e93e 11b3 973e 36f6 d83e
00000270: 44fd ba3e 6e35 c23e 0678 91bd 236f 693c
00000280: 554c 19bd 91f8 25be f46d 50be a925 b3bc
00000290: bdf3 0d3e 7ed9 32be 8955 053e e052 05be
000002a0: 36df 1fbe 7593 f23d 74f7 f8bc 61cd fc3d
000002b0: 08fe 44be aa72 65be 9735 5dbe ed6a 173d
000002c0: 7103 07bd 1b78 133e 5248 91bd 17c4 1ebe
000002d0: 3320 06be 02ec 57be 78a3 a1bd dae0 58be
000002e0: 8043 d0bd 80b2 173c be13 943d def2 2d3c
000002f0: a181 1c3e 536b 873e 6e6c c23e 606e 5c3d
00000300: 61f4 903d 0bf8 423e 174f 1b3e 4dd6 de3e
00000310: 42ce aa3e 9780 d33e f668 073f 353d 2b3e
00000320: 59aa 52be 5c8f 76be 93dd 18be de1d ba3d
00000330: 3e81 cebb 90c8 86be 9631 8e3d bbf6 5ebc
00000340: 64b4 ae3c 1790 933d a5b2 57be 62ea dfbd
00000350: cbab df3d 8691 493e b343 73be 3a89 923c
00000360: a3cf 3f3e 04fc ba3c e515 b33d ca2e 11be
00000370: 5af5 3bbe 7e7f a63d b223 1fbe 50ad 25be
00000380: 3aea 563c b997 443e 0b5f 473d 3135 99bd
00000390: 0014 3cbd 5f8c 06be fcdc 23be 8a43 7f3d
000003a0: 9b22 fcbd 8ddf 76be 6de0 75be 34ba 83be
000003b0: 8d07 d2bd 8cb6 68be 17e9 c53d a10b 64be
000003c0: a5c4 e6bd 4657 da3d aaf8 1c3e c072 4f3e
000003d0: 5803 dbbd bf46 023c 19f1 2c3e 1da1 e2bc
000003e0: c83a 41be ea3c 053e 4e03 d23d 2095 453e
000003f0: 1f01 003f 4fe8 b63e a31e 623e 9243 eb3d

actor.lin1.bias f4 [32]
0.07870244 -0.0015186141 0.042402644 0.07499684 0.12670608 -0.017725712 -0.1779388 0.056613013
-0.09802187 0.066970855 -0.08451641 0.07743919 0.13784178 0.013994284 -0.07351856 0.022868523
0.1824514 0.20360176 0.15004218 0.26963902 -0.2226412 -0.0020450514 0.1394822 0.12086132
-0.018610284 0.01361393 -0.012645061 0.21416749 0.060710546 0.047094956 0.22168024 -0.2653268
00000000: bf2e a13d 3c0c c7ba 65ae 2d3d f197 993d
00000010: 3dbf 013e 8335 91bc 9735 36be 0ce3 673d
00000020: b1bf c8bd 0428 893d f116 adbd 7098 9e3d
00000030: 6526 0d3e 4848 653c e690 96bd c556 bb3c
00000040: 8ad4 3a3e fb7c 503e a8a4 193e 200e 8a3e
00000050: 0efc 63be 4506 06bb 6cd4 0e3e 2486 f73d
00000060: 9874 98bc f60c 5f3c 3b2d 4fbc b94e 5b3e
00000070: 9fab 783d a4e6 403d 2500 633e ead8 87be

actor.lin2.weight f4 [32, 32]
-0.08275694 0.17535256 0.31411976 0.2933818 -0.13077419 0.16168757 -0.06970063 0.29653788
-0.17507377 0.2129356 0.090987734 0.019526511 0.34316596 0.13605279 0.2732618 0.12572251
-0.11370359 -0.0589034 0.10092137 0.33115247 -0.049963422 0.19646177 -0.044006165 0.10597153
0.031472847 -0.07591706 -0.14369541 0.29989046 0.08456843 0.06480421 0.17646456 -0.11063655
-0.09136752 -0.17228262 -0.13442573 -0.03495097 0.16382782 -0.07218107 -0.04092461 -0.17053548
-0.1660824 -0.054740682 -0.060203 0.13682167 -0.1048187 -0.115535274 0.042246297 -0.045273006
0.17406638 0.072837934 -0.016262427 0.015051842 -0.16399872 0.04585229 -0.11469683 -0.07161306
-0.034288466 -0.06529843 -0.018100023 -0.07133693 0.004884228 0.013935223 -0.02132614 0.095889255
-0.03509708 -0.083303645 -0.06540361 -0.022026487 -0.04151982 0.13999368 0.18250483 -0.16061771
-0.1829319 -0.16347155 0.002735642 0.12892137 -0.029667443 -0.05928121 -0.07049239 0.03075873
-0.04048685 0.02384958 0.15294111 -0.111132264 -0.12069929 -0.1744916 -0.034962147 0.10232663
0.041664377 -0.12490568 -0.13590604 0.08750411 0.03135702 0.075436935 -0.10440508 0.07952528
-0.1269455 0.25992522 0.11268497 0.07366259 0.1712984 0.20007032 -0.020832814 0.17318232
-0.1061352 0.13677189 0.026368445 -0.082005896 0.17748334 -0.14487314 -0.019484878 0.04802214
0.15397668 0.113084614 0.013084167 0.33676335 -0.13601184 0.16977958 -0.042113803 0.09880915
0.035629153 -0.1451733 0.04582066 0.27456912 -0.1143544 -0.097684905 0.1026338 0.16470289
-0.13146235 -0.115338326 0.09581688 0.19579762 0.12164335 0.032001544 0.04818743 -0.04020774
0.0037306633 0.13409987 -0.07770822 -0.035568606 -0.01302452 -0.046871465 0.11307917 0.045431543
0.09898077 0.043642428 0.08117215 -0.09837675 -0.04275001 0.17166321 0.03741307 -0.09105789
0.090674445 -0.17802092 -0.12022918 0.1321262 0.103628 -0.14541943 -0.115740724 0.012902419
-0.101242766 0.29093337 0.20448418 0.32593063 -0.062347203 0.2068377 -0.11740949 0.38293144
-0.15637258 0.16496438 -0.11173287 -0.16689871 0.29155204 -0.035698183 0.116807476 0.3076998
-0.107797414 0.18259828 -0.11244878 0.19770613 0.047210388 0.17139836 -0.16789345 0.013840182
-0.16197725 0.07023983 -0.20032397 0.06329522 -0.1767814 0.0883504 0.29896668 -0.126537
-0.12778151 -0.076561145 0.14626878 0.08276347 -0.12633336 -0.027571635 -0.18435925 -0.0897652
0.008724145 0.06970137 0.015372153 0.0868002 0.25068054 0.0696092 0.04548416 0.1460092
-0.008034338 -0.121042706 0.15836525 -0.093555525 -0.040595476 0.16421056 0.13539568 -0.07035435
-0.053832486 0.1852049 -0.23808186 0.21066953 0.07237453 0.05980958 0.038393065 -0.13456583
0.15051539 0.23308396 0.13243137 0.33813506 0.16442274 0.17549883 0.039539903 0.31745502
0.1447795 0.14767684 -0.14260276 -0.13962479 0.18359143 0.1569031 -0.084131375 0.25309744
0.15536977 0.21559957 -0.022263775 0.22987883 -0.08146665 0.22435282 -0.07819794 0.06472797
-0.127757 0.1002207 -0.17628811 0.2722696 -0.035632007 0.07326405 0.24842842 0.06704307
00000000: 787c a9bd 9f8f 333e 4ed4 a03e 2436 963e
00000010: abe9 05be 6d91 253e 34bf 8ebd d0d3 973e
00000020: 8a46 33be ca0b 5a3e c757 ba3d 10f6 9f3c
00000030: 73b3 af3e 6c51 0b3e f8e8 8b3e 67bd 003e
00000040: 6edd e8bd b144 71bd ddaf ce3d d18c a93e
00000050: 72a6 4cbd 462d 493e cf3f 34bd 9a07 d93d
00000060: ace9 003d 677a 9bbd e424 13be 3e8b 993e
00000070: 3732 ad3d 12b8 843d 20b3 343e 6a95 e2bd
00000080: e51e bbbd db6a 30be e6a6 09be c028 0fbd
00000090: 7bc2 273e abd3 93bd 90a0 27bd daa0 2ebe
000000a0: 8111 2abe c437 60bd 6c97 76bd fb1a 0c3e
000000b0: 30ab d6bd c29d ecbd 740a 2d3d 3070 39bd
000000c0: 753e 323e 0e2c 953d c838 85bc 009c 763c
000000d0: 48ef 27be 9ccf 3b3d 2ce6 eabd dea9 92bd
000000e0: 1072 0cbd 2fbb 85bd 8046 94bc 1919 92bd
000000f0: e00b a03b 9050 643c 28b4 aebc 9661 c43d
00000100: f5c1 0fbd 1a9b aabd 54f2 85bd e470 b4bc
00000110: b010 2abd 815a 0f3e 8ce2 3a3e f878 24be
00000120: 8052 3bbe 1665 27be 7548 333b f703 043e
00000130: 2309 f3bc dbd0 72bd 505e 90bd bbf9 fb3c
00000140: 8ad5 25bd 3260 c33c 989c 1c3e 5099 e3bd
00000150: 3031 f7bd edad 32be 7834 0fbd a090 d13d
00000160: 44a8 2a3d 8dce ffbd f42a 0bbe 5b35 b33d
00000170: 3870 003d ae7e 9a3d 55d2 d5bd 26de a23d
00000180: 00fe 01be eb14 853e 61c7 e63d 69dc 963d
00000190: d968 2f3e 3cdf 4c3e 94a9 aabc b556 313e
000001a0: 695d d9bd ee0d 0c3e a302 d83c b5f2 a7bd
000001b0: 31be 353e a059 14be c09e 9fbc ddb2 443d
000001c0: 10ac 1d3e e898 e73d f95e 563c 3f6c ac3e
000001d0: b046 0bbe b3da 2d3e 867f 2cbd 745c ca3d
000001e0: e0ef 113d 4fa8 14be 72ae 3b3d 5394 8c3e
000001f0: a432 eabd 060f c8bd ab31 d23d e0a7 283e
00000200: 119e 06be 8036 ecbd a43b c43d 2c7f 483e
00000210: 2620 f93d 0d14 033d 2f60 453d dfb0 24bd
00000220: 257e 743b 7a51 093e 7d25 9fbd 63b0 11bd
00000230: cc64 55bc 4bfc 3fbd 0d96 e73d 6d16 3a3d
00000240: 6eb6 ca3d 67c2 323d 963d a63d c079 c9bd
00000250: a21a 2fbd 7bc8 2f3e 733e 193d 8f7c babd
00000260: 86b3 b93d 1e4b 36be b73a f6bd 174c 073e
00000270: eb3a d43d d5e8 14be 7909 edbd ab64 533c
00000280: 5e58 cfbd 38f5 943e 4d64 513e 61e0 a63e
00000290: c85f 7fbd 43cd 533e 6374 f0bd 970f c43e
000002a0: 2220 20be 6cec 283e 34d4 e4bd 7fe7 2abe
000002b0: 4f46 953e 4238 12bd c238 ef3d d48a 9d3e
000002c0: e4c4 dcbd 0bfb 3a3e 8c4b e6bd 7a73 4a3e
000002d0: ae5f 413d 0d83 2f3e 43ec 2bbe eec1 623c
000002e0: 5ddd 25be e6d9 8f3d ba21 4dbe eda0 813d
000002f0: 2f06 35be 0ef1 b43d 2912 993e ea92 01be
00000300: 28d9 02be 17cc 9cbd 7cc7 153e e57f a93d
00000310: 885d 01be e9dd e1bc acc8 3cbe d1d6 b7bd
00000320: b7ef 0e3c 98bf 8e3d 7cdb 7b3c 4ec4 b13d
00000330: 3359 803e 458f 8e3d 994d 3a3d 7083 153e
00000340: 75a2 03bc 3de5 f7bd 802a 223e 0a9a bfbd
00000350: 7147 26bd d026 283e 2aa5 0a3e f115 90bd
00000360: 747f 5cbd 5aa6 3d3e bbcb 73be c1b9 573e
00000370: 1939 943d e4fa 743d 0c42 1d3d a0cb 09be
00000380: b520 1a3e 90ad 6e3e 179c 073e 0a20 ad3e
00000390: 6f5e 283e f7b5 333e 98f4 213d 7789 a23e
000003a0: 1441 143e 9938 173e 7506 12be cdf9 0ebe
000003b0: 64ff 3b3e 35ab 203e 124d acbd fd95 813e
000003c0: 4119 1f3e 22c6 5c3e 8562 b6bc 5b65 6b3e
000003d0: fdd7 a6bd bfbc 653e 3e26 a0bd 1990 843d
000003e0: bbd2 02be 8340 cd3d df84 34be ec66 8b3e
000003f0: def2 11bd 760b 963d 0564 7e3e e14d 893d

actor.lin2.bias f4 [32]
-0.07861709 -0.003159538 -0.10511417 0.20289887 -0.20596547 0.23307748 0.026910601 0.1799765
0.032185815 -0.11094897 -0.11717267 0.118639804 0.010120049 0.08547653 0.13033192 0.18878534
0.050581615 0.1491393 0.06504059 -0.04753403 0.1870401 0.00027936645 -0.03505526 0.13003099
-0.10998234 0.101417854 -0.08368698 0.107287906 -0.032885082 0.037378248 0.09301354 -0.03361223
00000000: ff01 a1bd 4010 4fbb 1946 d7bd b9c4 4f3e
00000010: 9de8 52be ddab 6e3e 9f73 dc3c c24b 383e
00000020: 46d5 033d 3739 e3bd 3af8 efbd 6df9 f23d
00000030: 90ce 253c 520e af3d bb75 053e f250 413e
00000040: ab2e 4f3d f9b7 183e 0034 853d 0bb3 42bd
00000050: 7187 3f3e ee77 9239 1b96 0fbd d826 053e
00000060: 6c3e e1bd 2ab4 cf3d 1464 abbd c3b9 db3d
00000070: 82b2 06bd ef19 193d e27d be3d faac 09bd

actor.lin3.weight f4 [1, 32]
0.31827772 0.15027152 -0.13836776 0.16799903 0.0008971475 0.22452058 -0.053122185 0.30425063
-0.11391209 -0.05867496 0.26832214 -0.091832064 0.3665751 0.06412061 0.18708192 0.19754481
-0.110816635 -0.014801486 0.2507809 -0.048146617 0.24632011 -0.023709573 -0.1609427 -0.08779233
-0.081440926 -0.07792252 0.26487157 0.29479352 -0.026117943 0.34234804 0.20940578 0.35685357
00000000: 4cf5 a23e c7e0 193e 47b0 0dbe f007 2c3e
00000010: 8d2e 6b3a b9e8 653e a696 59bd bdc6 9b3e
00000020: be4a e9bd 2855 70bd 8561 893e 7312 bcbd
00000030: bbaf bb3e ab51 833d 6792 3f3e 3049 4a3e
00000040: d5f3 e2bd ef81 72bc 5b66 803e 6335 45bd
00000050: 573b 7c3e 943a c2bc 2ace 24be 77cc b3bd
00000060: 80ca a6bd d895 9fbd 3f9d 873e 2def 963e
00000070: 4cf5 d5bc 3e48 af3e 786e 563e 83b5 b63e

actor.lin4.weight f4 [32, 32]
-0.06982104 -0.15609153 -0.018133203 -0.1989395 0.09652403 -0.08487409 0.1347545 -0.049657274
0.14011495 0.10223317 -0.14686887 0.03056594 -0.16914959 -0.07718719 -0.08481676 -0.07805598
0.09843613 0.065106794 0.06762679 -0.1284929 0.13625644 0.1428307 0.0365476 0.052477065
0.13015129 0.050058927 -0.03481661 -0.012139387 -0.15967166 -0.096318044 0.13510895 -0.10711331
-0.05020871 0.103019215 0.043679655 -0.12119731 0.07585988 0.01392094 0.01668002 -0.16699517
-0.16833141 -0.06715861 0.08224265 -0.10798987 0.073361576 0.06829388 -0.12424785 0.081265785
-0.16284344 0.13634531 0.1934549 0.06743628 -0.13260841 -0.01518263 0.15527634 -0.10717893
-0.04901488 -0.06714963 -0.07221548 0.03964562 0.18862092 0.07877542 -0.15999682 0.06900961
-0.086362176 0.0056193783 0.17009899 -0.057623297 0.16411598 0.04553676 -0.069091454 -0.13536742
0.124995634 0.019070797 -0.06932951 0.07473903 0.0937904 0.0071021616 -0.19367813 -0.04370342
-0.14623797 -0.19792752 0.0063984003 -0.056322616 -0.092992194 0.13377641 -0.016269319 -0.14916146
0.16752298 0.11660042 0.017481841 -0.19727583 0.13182674 -0.115869924 0.11257739 -0.03358081
-0.11689541 0.00019083834 0.04600381 -0.1514483 -0.12090595 -0.06466711 -0.16321881 0.06505255
-0.16864225 0.07537095 0.03939262 -0.032183506 -0.0126915015 -0.13743228 -0.026505422 0.0949374
-0.026499553 0.036535025 -0.12024571 0.093008704 -0.059651855 0.015409944 -0.096719384 -0.14032394
0.15845357 -0.04623431 -0.10708862 -0.21043605 0.14343528 0.056535184 -0.065559365 0.10015552
-0.051128194 -0.16140012 0.018618202 -0.078770086 -0.038012087 -0.18609 -0.042741604 -0.08908788
0.22815233 -0.09080999 -0.13481078 0.1453072 -0.15143877 -0.12920666 0.13655016 -0.07963291
0.023221174 -0.05144611 -0.0056726458 -0.0074074683 0.14426427 -0.038629558 0.060309563 -0.12050464
-0.08279116 0.055526916 0.12748365 0.0014433844 -0.08096578 0.02215755 0.15263696 0.053927824
-0.14656381 -0.16729288 0.011660835 0.059781633 0.009760827 0.10133676 -0.027810767 -0.15785462
-0.0104121715 -0.028241303 -0.0014333129 -0.106457606 0.08953404 0.1606281 -0.08767819 -0.07319849
-0.04568398 -0.20024161 0.042115003 0.07208656 -0.049847305 0.1332404 -0.0056965053 -0.20346813
-0.14156385 -0.12085402 0.13762541 -0.03679391 -0.16363677 -0.1683856 0.07040662 -0.07334411
0.11357066 0.117897 -0.18352348 0.044988785 -0.12394468 0.026596867 0.062149473 -0.18073057
-0.15360336 -0.049667224 0.1464288 -0.026874153 -0.082208455 0.14184833 0.118189834 0.10169883
-0.062739894 -0.15214351 -0.13498576 0.058876075 -0.13149422 0.049362723 -0.076747164 0.0711191
0.15673245 -0.17983526 0.07068671 0.018053547 0.019241728 -0.07796309 -0.098556675 0.06730932
0.16496022 -0.021125618 -0.09549304 -0.15092158 0.102453366 0.036177892 0.08354549 -0.0363336
-0.15739277 -0.0710391 -0.022772864 -0.18408158 -0.17634192 -0.11662501 -0.1861254 -0.03843616
0.04734707 0.030765783 -0.00703988 0.029107299 -0.17675862 -0.070169695 -0.003314361 -0.06371898
-0.072471775 0.043093573 -0.08490422 -0.115511 0.07012329 -0.06697157 -0.06293337 -0.002872184
00000000: 55fe 8ebd 75d6 1fbe 158c 94bc ccb6 4bbe
00000010: 64ae c53d 78d2 adbd 15fd 093e 6d65 4bbd
00000020: 4b7a 0f3e a05f d13d cb64 16be 6c65 fa3c
00000030: 8d35 2dbe 5114 9ebd 69b4 adbd d0db 9fbd
00000040: e298 c93d b656 853d ea7f 8a3d a593 03be
00000050: cf86 0b3e 3642 123e f0b2 153d 31f2 563d
00000060: 6146 053e 970a 4d3d dd9b 0ebd 48e4 46bc
00000070: f880 23be 6542 c5bd 005a 0a3e 395e dbbd
00000080: a6a7 4dbd bdfb d23d 70e9 323d 4c36 f8bd
00000090: 6d5c 9b3d a814 643c 8aa4 883c c800 2bbe
000000a0: 125f 2cbe 748a 89bd d66e a83d cb29 ddbd
000000b0: 983e 963d a9dd 8b3d a875 febd ad6e a63d
000000c0: 6ec0 26be 1b9e 0b3e 0b19 463e 081c 8a3d
000000d0: 80ca 07be 91c0 78bc c300 1f3e a080 dbbd
000000e0: d4c3 48bd bf85 89bd b6e5 93bd 7263 223d
000000f0: d825 413e 0255 a13d 35d6 23be e954 8d3d
00000100: a7de b0bd c322 b83b 6e2e 2e3e 6806 6cbd
00000110: 050e 283e c184 3a3d d27f 8dbd c29d 0abe
00000120: b6fd ff3d 5c3a 9c3c a1fc 8dbd c710 993d
00000130: 2e15 c03d 40b9 e83b 8f53 46be 5b02 33bd
00000140: 68bf 15be 83ad 4abe aca9 d13b 8bb2 66bd
00000150: b172 bebd affc 083e 3c47 85bc c8bd 18be
00000160: 258b 2b3e 33cc ee3d 1436 8f3c ad02 4abe
00000170: 97fd 063e 364d edbd fa8e e63d 088c 09bd
00000180: dc66 efbd c71b 4839 7e6e 3c3d 4315 1bbe
00000190: 8a9d f7bd 3170 84bd d522 27be 453a 853d
000001a0: 8eb0 2cbe 165c 9a3d 285a 213d dad2 03bd
000001b0: 04f0 4fbc 0cbb 0cbe e621 d9bc 8a6e c23d
000001c0: 9715 d9bc c0a5 153d 6243 f6bd 597b be3d
000001d0: 8155 74bd fd79 7c3c d014 c6bd 14b1 0fbe
000001e0: a741 223e 3060 3dbd 4751 dbbd 8c7c 57be
000001f0: b3e0 123e 7091 673d fd43 86bd 561e cd3d
00000200: cc6b 51bd 1346 25be 3385 983c 3652 a1bd
00000210: 90b2 1bbd 618e 3ebe d211 2fbd b573 b6bd
00000220: c4a0 693e 97fa b9bd d60b 0abe 69cb 143e
00000230: c412 1bbe c04e 04be ced3 0b3e 9416 a3bd
00000240: 553a be3c 28b9 52bd 9ae1 b9bb 59ba f2bb
00000250: 03ba 133e 073a 1ebd 2907 773d 23cb f6bd
00000260: 698e a9bd 3170 633d 138b 023e f22f bd3a
00000270: 63d1 a5bd c083 b53c dd4c 1c3e 6ce3 5c3d
00000280: d314 16be d34e 2bbe 160d 3f3c 96dd 743d
00000290: e0eb 1f3c a689 cf3d 68d3 e3bc a4a4 21be
000002a0: d097 2abc 4e5a e7bc 00de bbba 7206 dabd
000002b0: 9f5d b73d b17b 243e 9f90 b3bd 17e9 95bd
000002c0: 201f 3bbd 230c 4dbe c880 2c3d 1ea2 933d
000002d0: b02c 4cbd 2c70 083e c0a9 babb f359 50be
000002e0: 1df6 10be 5082 f7bd aded 0c3e 36b5 16bd
000002f0: 6690 27be 466d 2cbe 5931 903d 7035 96bd
00000300: bc97 e83d fb73 f13d 94ed 3bbe 2946 383d
00000310: b5d6 fdbd ace1 d93c 7290 7e3d 6f11 39be
00000320: 334a 1dbe dc6f 4bbd 6ef1 153e 2f27 dcbc
00000330: e85c a8bd b040 113e 830d f23d 7a47 d03d
00000340: c67d 80bd 82cb 1bbe b539 0abe 0a28 713d
00000350: 6ca6 06be 9130 4a3d 9e2d 9dbd e4a6 913d
00000360: 797e 203e bc26 38be 32c4 903d 08e5 933c
00000370: d4a0 9d3c 1dab 9fbd 15d8 c9bd 78d9 893d
00000380: 55eb 283e a20f adbc db91 c3bd 308b 1abe
00000390: 12d3 d13d 452f 143d e619 ab3d 8ad2 14bd
000003a0: 922b 21be f37c 91bd 288e babc e27f 3cbe
000003b0: fa92 34be 18d9 eebd a897 3ebe 3c6f 1dbd
000003c0: 00ef 413d 8608 fc3c cbae e6bb 6e72 ee3c
000003d0: 3600 35be 21b5 8fbd c035 59bb 197f 82bd
000003e0: 156c 94bd e382 303d 44e2 adbd 0891 ecbd
000003f0: cd9c 8f3d 6428 89bd 36e3 80bd 403b 3cbb

actor.lin4.bias f4 [32]
-0.1597633 -0.09743425 -0.11665535 -0.15555505 -0.07760963 -0.13591614 0.016909635 -0.098708265
-0.19736607 -0.1907222 -0.15524772 -0.05098122 0.04317399 -0.23316129 0.14053512 -0.13626392
0.048293483 -0.034135014 -0.0998368 0.032548122 -0.05741535 -0.14965437 0.0893232 -0.09465897
-0.19006784 0.049923625 -0.20482008 0.1032786 0.11987162 0.09931813 -0.16507947 0.01579775
00000000: fe98 23be 9c8b c7bd 00e9 eebd d349 1fbe
00000010: ccf1 9ebd 9a2d 0bbe 1386 8a3c 8f27 cabd
00000020: 551a 4abe ae4c 43be 42f9 1ebe afd1 50bd
00000030: 36d7 303d d5c1 6ebe 70e8 0f3e c588 0bbe
00000040: 63cf 453d 28d1 0bbd 3c77 ccbd 2e51 053d
00000050: 5c2c 6bbd ff3e 19be 15ef b63d 90dc c1bd
00000060: 25a1 42be b77c 4c3d 5bbc 51be bb83 d33d
00000070: 407f f53d 4e67 cb3d 980a 29be 486a 813c

actor.bilin.weight f4 [16, 32, 32]
0.15387261 -0.059376042 0.035256043 -0.087147005 0.07892527 0.016213894 0.07863633 -0.105212085
0.16377911 0.081331275 -0.13901585 0.06752878 0.06342344 -0.14466287 -0.17186303 -0.030399904
0.0017302483 0.07539691 -0.1807611 0.1348568 0.08139944 -0.12992103 -0.1251454 0.11914641
-0.1477106 -0.02072923 -0.094872616 -0.15658161 -0.1051741 0.04052289 -0.09074276 0.12618785
-0.077249475 0.14747058 0.09433761 0.16469832 0.02978133 -0.058915496 -0.13411944 0.059161548
0.1677929 -0.021226197 -0.0077867866 0.20837697 0.04537856 -0.0662575 -0.07123609 0.012830645
-0.05627066 -0.0058999406 0.035532344 0.119766876 -0.054757558 -0.13666174 0.21741596 0.025308233
0.007629644 0.17989463 0.110840134 -0.11332354 0.1241638 -0.048854098 -0.015722856 -0.109016776
-0.16553788 -0.12877828 -0.24154209 -0.13047044 -0.0784096 0.16433845 0.037107255 -0.108579345
-0.11397869 0.08452387 0.04509753 -0.06144239 -0.032919824 0.113254175 0.1126077 -0.07202606
-0.12539405 -0.00087948143 -0.020928904 -0.19836779 -0.1199466 0.062217534 0.13109566 -0.1526618
0.07871453 -0.034295674 -0.12340699 -0.017219529 -0.1333886 -0.16603881 0.16424058 0.055273905
0.0896061 0.1632079 -0.07026775 -0.09154781 0.07319036 0.050890848 -0.04920796 -0.022905976
0.1553916 0.14733677 0.012070611 -0.08761089 -0.13412821 0.029432122 -0.16845642 -0.0060329884
-0.06377328 -0.12686339 0.16734043 0.1506555 -0.14699063 -0.15696067 0.059585672 -0.08421573
-0.10415081 -0.16660325 0.081912085 -0.06764662 -0.114113405 -0.15921183 0.1650334 0.0123937335
0.009354398 -0.011570395 -0.06499096 0.011010565 0.10491127 -0.05358862 0.029705059 -0.076736726
0.04386571 -0.018509662 0.00632371 -0.060928646 0.025636375 0.018257888 -0.09212069 0.15018146
0.11444868 0.13765413 -0.030500825 -0.14636815 0.07332166 0.16525221 -0.012578089 -0.118535556
0.19227585 -0.110707544 0.07192532 0.09399417 0.0044211196 -0.016516266 0.055081774 -0.10278029
0.1176901 -0.12584575 -0.123584546 0.036400646 -0.10964079 -0.15757164 -0.0146482885 0.10963024
-0.14672068 0.061925236 0.031390786 0.13491939 0.09435643 0.13321657 0.17675965 -0.019928887
-0.061631992 -0.06507222 -0.10996506 0.1543781 -0.074665755 0.040780574 -0.14473478 -0.13391529
0.10765223 0.15314098 -0.12957321 -0.16713436 0.023214906 0.14958651 -0.16791704 0.028597668
0.14481036 0.034578934 0.004262254 0.018750712 0.022669071 0.09931524 0.14510454 0.16226064
-0.025783995 -0.06889484 0.008301997 0.16111541 -0.17341508 -0.021415412 0.063276045 0.044964537
-0.0388671 0.18048157 0.098791756 0.11364921 -0.082434215 -0.029935922 0.10534423 -0.06366111
0.16754444 0.14781967 0.07284658 0.16863842 0.15964599 -0.14251809 -0.10064052 0.017644024
-0.13071257 0.052837286 0.024091497 -0.13846216 0.03364727 0.12444751 -0.17477748 -0.0057336045
0.04353498 0.078219935 -0.0959873 0.094131574 -0.023529828 0.102329984 -0.17210951 -0.0024896562
0.09232707 -0.107330956 0.036244586 -0.084133685 0.08015533 -0.10758558 0.10764624 -0.06698021
-0.041599482 -0.046199605 -0.14143397 0.13546072 -0.03989917 0.13806026 0.14431657 -0.06165228
00000000: c890 1d3e 4b34 73bd a468 103d 217a b2bd
00000010: 92a3 a13d 00d3 843c 160c a13d 6f79 d7bd
00000020: b6b5 273e 0391 a63d 2c5a 0ebe 874c 8a3d
00000030: 26e4 813d 8122 14be ddfc 2fbe 3809 f9bc
00000040: 80c9 e23a b269 9a3d 7019 39be e717 0a3e
00000050: c0b4 a63d 050a 05be 1e26 00be 0803 f43d
00000060: 7341 17be 59d0 a9bc 934c c2bd ee56 20be
00000070: 8565 d7bd 54fb 253d 57d7 b9bd 6337 013e
00000080: f934 9ebd 8702 173e 1434 c13d ada6 283e
00000090: faf7 f33c 6051 71bd 9b56 09be 6153 723d
000000a0: e7d1 2b3e 90e2 adbc 4d28 ffbb c660 553e
000000b0: dede 393d 03b2 87bd 3ae4 91bd a037 523c
000000c0: 107c 66bd 4a54 c1bb 5d8a 113d 5648 f53d
000000d0: 7649 60bd 0ef1 0bbe 4aa2 5e3e 3653 cf3c
000000e0: 1802 fa3b 4c36 383e 2700 e33d 2c16 e8bd
000000f0: 9749 fe3d 3c1b 48bd 38cd 80bc 3044 dfbd
00000100: c382 29be 74de 03be cf56 77be 0b9a 05be
00000110: 3695 a0bd 5748 283e c7fd 173d d95e debd
00000120: a96d e9bd da1a ad3d 30b8 383d 04ab 7bbd
00000130: f0d6 06bd cef1 e73d de9e e63d 6682 93bd
00000140: 4c67 00be 008d 66ba 1873 abbc ed20 4bbe
00000150: 90a6 f5bd d0d7 7e3d f13d 063e 6053 1cbe
00000160: 1535 a13d 9f79 0cbd cebc fcbd f80f 8dbc
00000170: 0597 08be 1406 2abe af2e 283e e466 623d
00000180: 6783 b73d f91f 273e 8ae8 8fbd 6b7d bbbd
00000190: d4e4 953d ec72 503d 498e 49bd 50a5 bbbc
000001a0: fa1e 1f3e 73df 163e d0c3 453c 576d b3bd
000001b0: e858 09be a21b f13c d77f 2cbe 60b0 c5bb
000001c0: 919b 82bd 7ae8 01be 4a5b 2b3e 6f45 1a3e
000001d0: b684 16be 4cba 20be 1b10 743d 4c79 acbd
000001e0: 054d d5bd 0b9a 2abe 86c1 a73d 508a 8abd
000001f0: 4ab4 e9bd 6d08 23be 84fe 283e 160f 4b3c
00000200: 3043 193c c191 3dbc fb19 85bd a865 343c
00000210: b8db d63d be7f 5bbd 0658 f33c 2528 9dbd
00000220: 88ac 333d 93a1 97bc 2037 cf3b 5190 79bd
00000230: 6003 d23c 9191 953c c6a9 bcbd 2bc9 193e
00000240: 1264 ea3d 34f5 0c3e dedc f9bc 88e1 15be
00000250: ab29 963d e037 293e 5414 4ebc c5c2 f2bd
00000260: f6e3 443e a3ba e2bd 954d 933d 0480 c03d
00000270: 0adf 903b 1f4d 87bc 6d9d 613d 797e d2bd
00000280: 8207 f13d b5dd 00be e519 fdbd d818 153d
00000290: 5a8b e0bd 765a 21be 60ff 6fbc d285 e03d
000002a0: f23d 16be 51a5 7d3d a093 003d 4f28 0a3e
000002b0: f23d c13d ed69 083e 7b00 353e e841 a3bc
000002c0: d471 7cbd 9644 85bd 5d35 e1bd 4b15 1e3e
000002d0: 5cea 98bd 8809 273d 5b35 14be 1721 09be
000002e0: c678 dc3d fdd0 1c3e d7ae 04be 4525 2bbe
000002f0: 302d be3c 352d 193e 72f2 2bbe a845 ea3c
00000300: 2b49 143e a4a2 0d3d 61aa 8b3b 189b 993c
00000310: 7db4 b93c ca65 cb3d 4996 143e a727 263e
00000320: f538 d3bc bd18 8dbd 1905 083c 70fb 243e
00000330: b993 31be 606f afbc df96 813d bc2c 383d
00000340: 1c33 1fbd 29d0 383e 5553 ca3d ebc0 e83d
00000350: 45d3 a8bd 2e3c f5bc b7be d73d c260 82bd
00000360: c590 2b3e 0a5e 173e 9630 953d 8daf 2c3e
00000370: 3d7a 233e 43f0 11be 9e1c cebd 338a 903c
00000380: 84d9 05be e96b 583d 885b c53c 06c9 0dbe
00000390: b8d1 093d 56de fe3d def8 32be f6e0 bbbb
000003a0: bc51 323d c631 a03d fd94 c4bd 0ec8 c03d
000003b0: a0c1 c0bc 6292 d13d 7a3d 30be 8029 23bb
000003c0: fa15 bd3d 55d0 dbbd 3475 143d 484e acbd
000003d0: 7a28 a43d d455 dcbd a275 dc3d ec2c 89bd
000003e0: 3864 2abd cc3b 3dbd 11d4 10be 37b6 0a3e
000003f0: 506d 23bd ab5f 0d3e b9c7 133e 1a87 7cbd

actor.bilin.bias f4 [16]
-0.079590775 -0.13907279 0.07424004 0.006120064 0.26435864 -0.11686425 0.16985632 0.09833701
0.12895861 0.2655236 0.031204065 0.15391165 -0.015018823 -0.12541303 -0.047927417 0.09593475
00000000: 7d00 a3bd 1969 0ebe 290b 983d d18a c83b
00000010: 045a 873e 8656 efbd d1ee 2d3e ea64 c93d
00000020: ba0d 043e b6f2 873e ab9f ff3c 049b 1d3e
00000030: 8211 76bc 466c 00be 8a4f 44bd 7079 c43d

critic.conv1.bias f4 [21]
-0.23063427 -0.054671127 0.36680207 0.039482348 -0.28939575 0.28291264 -0.29673502 -0.052885465
-0.021826914 0.27736366 -0.053024966 0.2174845 -0.227226 -0.23704596 0.2147252 0.20333065
-0.22937863 0.37762612 -0.23720449 -0.36753827 -0.30632982
00000000: 642b 6cbe d5ee 5fbd 7bcd bb3e 3eb8 213d
00000010: ae2b 94be edd9 903e a7ed 97be 6e9e 58bd
00000020: 5bce b2bc 9c02 8e3e b530 59bd 42b4 5e3e
00000030: efad 68be 2dbc 72be ece0 5b3e e935 503e
00000040: 3be2 6abe 3658 c13e bce5 72be fa2d bcbe
00000050: 43d7 9cbe

critic.conv1.lin.weight f4 [21, 21]
0.30404204 0.30452698 0.26703718 -0.11988762 0.18573177 0.10197509 0.053283826 0.3893103
-0.028661195 0.39711633 0.32090154 -0.35588136 -0.17817166 0.106938705 -0.36992723 -0.28066188
-0.20264442 0.2084038 0.22595583 -0.13907965 0.11112408 0.1809391 -0.083312444 -0.1987724
-0.0112278005 -0.38623947 -0.35730863 -0.052056335 0.08525639 0.18446474 -0.36154535 -0.006138898
-0.2275362 -0.10353798 -0.29352453 -0.39074805 0.20086856 -0.1998909 0.17033708 -0.33606404
-0.08576154 0.18551058 -0.011399345 0.47803655 -0.0980642 0.41912326 -0.024641886 0.21311605
-0.17661314 0.23036739 -0.35443038 0.1577369 -0.3207523 0.17791267 0.3735145 0.1969872
0.12514631 -0.30462405 -0.17842579 -0.2640552 0.23608887 -0.0014675348 -0.25633067 0.30763176
-0.008385698 -0.20634776 -0.13779843 -0.064468 -0.01460156 0.07786411 0.3415401 -0.10062815
-0.018205136 0.10153337 0.08310332 -0.20808886 -0.16278534 -0.23461606 0.26599747 -0.21245296
-0.15214042 -0.36818433 -0.44325098 0.32196826 -0.19756235 -0.25432798 -0.0726081 -0.27963707
0.32184178 -0.21891573 0.01065586 0.30066043 -0.27442232 -0.16054767 -0.36490712 -0.19742353
0.2931208 -0.33576736 0.04040438 0.15737972 0.32865405 0.3260506 0.21251446 -0.19061992
-0.03549435 0.090982676 -0.072821885 0.21032654 0.16920096 -0.0151229035 -0.1801235 -0.174521
-0.0030922722 -0.11109692 -0.14950429 -0.36473393 0.12021149 -0.27306342 -0.16732337 -0.020266218
0.33518714 0.10910683 0.10360738 -0.1732829 0.2826562 0.051596347 -0.18626183 0.16227658
-0.30869177 -0.4150053 0.26706326 0.1706961 0.36075363 0.3067636 0.3750041 -0.02855828
-0.3423149 0.34249973 0.07500188 -0.31554827 -0.12757336 -0.3100884 0.21270439 0.415254
0.16131663 0.29878572 -0.091442265 0.12373622 -0.15676287 0.20547332 0.109124154 -0.38504928
0.088320754 -0.40108505 0.09483409 -0.12594084 -0.36667848 -0.058457296 -0.18888171 -0.3591199
0.05122578 0.12500367 -0.11517647 -0.24884634 -0.36480656 0.26450065 -0.25754434 0.09764072
-0.053752016 0.22711734 0.3160148 0.3318405 -0.11984064 0.017203204 -0.005081284 -0.28355518
0.29067105 -0.068283446 -0.20296371 0.30610532 -0.17154486 0.14080518 0.36103722 -0.21382801
-0.2148603 -0.1995706 0.17717753 0.3271872 0.25140992 0.133331 0.45342502 -0.1936261
-0.012545882 0.27573818 0.072671816 -0.17032216 0.0995704 0.26897982 0.2240546 0.18445674
-0.10558201 -0.37792864 -0.0003231716 -0.17222902 0.017714856 0.16161089 -0.008921474 0.09581232
0.026339538 0.045403082 0.022655869 -0.19586436 0.2377308 -0.25452206 0.06805682 -0.10238352
0.13949917 -0.18066452 -0.39943895 -0.4217815 -0.15582782 0.044083033 -0.20965388 -0.23397036
-0.24546553 -0.22423221 0.31277344 -0.36350602 0.095553964 -0.2783775 0.1355994 -0.25989944
0.27227083 0.18104303 0.40061417 0.37717667 -0.10796066 0.2941264 0.08101569 0.22947676
0.03702721 0.08575512 -0.06936264 -0.19960852 0.0612783 0.33351898 -0.00941401 -0.02153154
0.15060957 0.12187722 -0.13083144 0.333965 0.2497795 -0.1766936 -0.21897057 0.23088764
00000000: 66ab 9b3e f6ea 9b3e 19b9 883e a487 f5bd
00000010: 7830 3e3e 51d8 d03d 2440 5a3d ae53 c73e
00000020: e2ca eabc d552 cb3e 354d a43e 1536 b6be
00000030: a272 36be ae02 db3d 1a67 bdbe eab2 8fbe
00000040: 0582 4fbe ce67 553e f760 673e e56a 0ebe
00000050: 0695 e33d 1948 393e b79f aabd fe8a 4bbe
00000060: cff4 37bc 2ec1 c5be 28f1 b6be 0639 55bd
00000070: e79a ae3d 53e4 3c3e 791c b9be cf28 c9bb
00000080: 40ff 68be b80b d4bd d948 96be 2110 c8be
00000090: 7db0 4d3e 33b0 4cbe d86c 2e3e 9610 acbe
000000a0: bfa3 afbd 7cf6 3d3e 51c4 3abc 35c1 f43e
000000b0: e2d5 c8bd 5397 d63e c8dd c9bc 183b 5a3e
000000c0: 13da 34be 6ee5 6b3e e677 b5be c885 213e
000000d0: a539 a4be bd2e 363e 4b3d bf3e 03b7 493e
000000e0: 5b26 003e aff7 9bbe 40b5 36be 3e32 87be
000000f0: 48c1 713e 4c5a c0ba c63d 83be e981 9d3e
00000100: 2b64 09bc d44c 53be 081b 0dbe cc07 84bd
00000110: 623b 6fbc 3877 9f3d 58de ae3e 2216 cebd
00000120: f022 95bc baf0 cf3d 1332 aa3d 3f15 55be
00000130: 33b1 26be 313f 70be d230 883e 458d 59be
00000140: b3ca 1bbe a882 bcbe cbf1 e2be 06d9 a43e
00000150: c94d 4abe 4737 82be 8eb3 94bd 972c 8fbe
00000160: 72c8 a43e 722b 60be eb95 2e3c 2af0 993e
00000170: 1581 8cbe 9c66 24be 1bd5 babe 6529 4abe
00000180: ee13 963e b3e9 abbe 107f 253d 2628 213e
00000190: 5845 a83e 1bf0 a63e 649d 593e de31 43be
000001a0: 8662 11bd 2055 ba3d a423 95bd d75f 573e
000001b0: 0443 2d3e 0ec6 77bc 4b72 38be a2b5 32be
000001c0: b8a7 4abb c886 e3bd a717 19be 68be babe
000001d0: 7131 f63d f8ce 8bbe d156 2bbe 5705 a6bc
000001e0: a69d ab3e 6773 df3d 1b30 d43d 1371 31be
000001f0: 50b8 903e b156 533d 6cbb 3ebe d52b 263e
00000200: d90c 9ebe 937b d4be 84bc 883e f5ca 2e3e
00000210: b3b4 b83e 1e10 9d3e 8a00 c03e 0ef3 e9bc
00000220: e643 afbe 205c af3e 969a 993d 8b8f a1be
00000230: 97a2 02be e8c3 9ebe 2ecf 593e 2c9c d43e
00000240: 3030 253e 71fa 983e 1546 bbbd 6a69 fd3d
00000250: 7286 20be 9967 523e 7c7c df3d 2e25 c5be
00000260: 83e1 b43d 055b cdbe 6038 c23d a3f6 00be
00000270: 48bd bbbe eb70 6fbd 356a 41be 90de b7be
00000280: 20d2 513d f600 003e a4e1 ebbd 93d1 7ebe
00000290: edc7 babe a16c 873e dadc 83be dcf7 c73d
000002a0: 132b 5cbd 7391 683e b1cc a13e ffe6 a93e
000002b0: 026f f5bd bced 8c3c e680 a6bb 252e 91be
000002c0: d6d2 943e 31d8 8bbd b8d5 4fbe d6b9 9c3e
000002d0: 75a9 2fbe 3c2f 103e dfd9 b83e bbf5 5abe
000002e0: 5704 5cbe 3c5c 4cbe 076e 353e 1585 a73e
000002f0: cdb8 803e ec87 083e 5327 e83e ec45 46be
00000300: 3e8d 4dbc 8e2d 8d3e f6d4 943d ef68 2ebe
00000310: 91eb cb3d b9b7 893e 926e 653e 3ae2 3c3e
00000320: 613b d8bd dd7f c1be 5c6f a9b9 ce5c 30be
00000330: bf1e 913c 537d 253e 602b 12bc 4039 c43d
00000340: 04c6 d73c 95f8 393d cd98 b93c ab90 48be
00000350: b46f 733e b750 82be 6061 8b3d 73ae d1bd
00000360: dfd8 0e3e 1f00 39be 4383 ccbe bff3 d7be
00000370: 5491 1fbe 6990 343d 82af 56be ed95 6fbe
00000380: 515b 7bbe 219d 65be d723 a03e 761d babe
00000390: ccb1 c33d 7f87 8ebe 92da 0a3e 8a11 85be
000003a0: 1567 8b3e 5863 393e 4d1d cd3e 4d1d c13e
000003b0: 7a1a ddbd bc97 963e 8eeb a53d f5fb 6a3e
000003c0: d8a9 173d 61a0 af3d 000e 8ebd 2d66 4cbe
000003d0: f4fe 7a3d 00c3 aa3e 383d 1abc ea62 b0bc
000003e0: 6539 1a3e c49a f93d adf8 05be 76fd aa3e
000003f0: 32c6 7f3e 2bef 34be d239 60be cf6d 6c3e
