saved_files/ckpt/nyc4/a2c_gnn_test_price-variable.pth (torch, 286706 bytes, 55 tensors)

log_rate f4 [16, 16]
1.0 1.0 1.0 1.0 1.0 1.0 1.0 1.0
1.0 1.0 1.0 1.0 1.0 1.0 1.0 1.0
1.0 1.0 1.0 1.0 1.0 1.0 1.0 1.0
1.0 1.0 1.0 1.0 1.0 1.0 1.0 1.0
1.0 1.0 1.0 1.0 1.0 1.0 1.0 1.0
1.0 1.0 1.0 1.0 1.0 1.0 1.0 1.0
1.0 1.0 1.0 1.0 1.0 1.0 1.0 1.0
1.0 1.0 1.0 1.0 1.0 1.0 1.0 1.0
1.0 1.0 1.0 1.0 1.0 1.0 1.0 1.0
1.0 1.0 1.0 1.0 1.0 1.0 1.0 1.0
1.0 1.0 1.0 1.0 1.0 1.0 1.0 1.0
1.0 1.0 1.0 1.0 1.0 1.0 1.0 1.0
1.0 1.0 1.0 1.0 1.0 1.0 1.0 1.0
1.0 1.0 1.0 1.0 1.0 1.0 1.0 1.0
1.0 1.0 1.0 1.0 1.0 1.0 1.0 1.0
1.0 1.0 1.0 1.0 1.0 1.0 1.0 1.0
1.0 1.0 1.0 1.0 1.0 1.0 1.0 1.0
1.0 1.0 1.0 1.0 1.0 1.0 1.0 1.0
1.0 1.0 1.0 1.0 1.0 1.0 1.0 1.0
1.0 1.0 1.0 1.0 1.0 1.0 1.0 1.0
1.0 1.0 1.0 1.0 1.0 1.0 1.0 1.0
1.0 1.0 1.0 1.0 1.0 1.0 1.0 1.0
1.0 1.0 1.0 1.0 1.0 1.0 1.0 1.0
1.0 1.0 1.0 1.0 1.0 1.0 1.0 1.0
1.0 1.0 1.0 1.0 1.0 1.0 1.0 1.0
1.0 1.0 1.0 1.0 1.0 1.0 1.0 1.0
1.0 1.0 1.0 1.0 1.0 1.0 1.0 1.0
1.0 1.0 1.0 1.0 1.0 1.0 1.0 1.0
1.0 1.0 1.0 1.0 1.0 1.0 1.0 1.0
1.0 1.0 1.0 1.0 1.0 1.0 1.0 1.0
1.0 1.0 1.0 1.0 1.0 1.0 1.0 1.0
1.0 1.0 1.0 1.0 1.0 1.0 1.0 1.0
00000000: 0000 803f 0000 803f 0000 803f 0000 803f
00000010: 0000 803f 0000 803f 0000 803f 0000 803f
00000020: 0000 803f 0000 803f 0000 803f 0000 803f
00000030: 0000 803f 0000 803f 0000 803f 0000 803f
00000040: 0000 803f 0000 803f 0000 803f 0000 803f
00000050: 0000 803f 0000 803f 0000 803f 0000 803f
00000060: 0000 803f 0000 803f 0000 803f 0000 803f
00000070: 0000 803f 0000 803f 0000 803f 0000 803f
00000080: 0000 803f 0000 803f 0000 803f 0000 803f
00000090: 0000 803f 0000 803f 0000 803f 0000 803f
000000a0: 0000 803f 0000 803f 0000 803f 0000 803f
000000b0: 0000 803f 0000 803f 0000 803f 0000 803f
000000c0: 0000 803f 0000 803f 0000 803f 0000 803f
000000d0: 0000 803f 0000 803f 0000 803f 0000 803f
000000e0: 0000 803f 0000 803f 0000 803f 0000 803f
000000f0: 0000 803f 0000 803f 0000 803f 0000 803f
00000100: 0000 803f 0000 803f 0000 803f 0000 803f
00000110: 0000 803f 0000 803f 0000 803f 0000 803f
00000120: 0000 803f 0000 803f 0000 803f 0000 803f
00000130: 0000 803f 0000 803f 0000 803f 0000 803f
00000140: 0000 803f 0000 803f 0000 803f 0000 803f
00000150: 0000 803f 0000 803f 0000 803f 0000 803f
00000160: 0000 803f 0000 803f 0000 803f 0000 803f
00000170: 0000 803f 0000 803f 0000 803f 0000 803f
00000180: 0000 803f 0000 803f 0000 803f 0000 803f
00000190: 0000 803f 0000 803f 0000 803f 0000 803f
000001a0: 0000 803f 0000 803f 0000 803f 0000 803f
000001b0: 0000 803f 0000 803f 0000 803f 0000 803f
000001c0: 0000 803f 0000 803f 0000 803f 0000 803f
000001d0: 0000 803f 0000 803f 0000 803f 0000 803f
000001e0: 0000 803f 0000 803f 0000 803f 0000 803f
000001f0: 0000 803f 0000 803f 0000 803f 0000 803f
00000200: 0000 803f 0000 803f 0000 803f 0000 803f
00000210: 0000 803f 0000 803f 0000 803f 0000 803f
00000220: 0000 803f 0000 803f 0000 803f 0000 803f
00000230: 0000 803f 0000 803f 0000 803f 0000 803f
00000240: 0000 803f 0000 803f 0000 803f 0000 803f
00000250: 0000 803f 0000 803f 0000 803f 0000 803f
00000260: 0000 803f 0000 803f 0000 803f 0000 803f
00000270: 0000 803f 0000 803f 0000 803f 0000 803f
00000280: 0000 803f 0000 803f 0000 803f 0000 803f
00000290: 0000 803f 0000 803f 0000 803f 0000 803f
000002a0: 0000 803f 0000 803f 0000 803f 0000 803f
000002b0: 0000 803f 0000 803f 0000 803f 0000 803f
000002c0: 0000 803f 0000 803f 0000 803f 0000 803f
000002d0: 0000 803f 0000 803f 0000 803f 0000 803f
000002e0: 0000 803f 0000 803f 0000 803f 0000 803f
000002f0: 0000 803f 0000 803f 0000 803f 0000 803f
00000300: 0000 803f 0000 803f 0000 803f 0000 803f
00000310: 0000 803f 0000 803f 0000 803f 0000 803f
00000320: 0000 803f 0000 803f 0000 803f 0000 803f
00000330: 0000 803f 0000 803f 0000 803f 0000 803f
00000340: 0000 803f 0000 803f 0000 803f 0000 803f
00000350: 0000 803f 0000 803f 0000 803f 0000 803f
00000360: 0000 803f 0000 803f 0000 803f 0000 803f
00000370: 0000 803f 0000 803f 0000 803f 0000 803f
00000380: 0000 803f 0000 803f 0000 803f 0000 803f
00000390: 0000 803f 0000 803f 0000 803f 0000 803f
000003a0: 0000 803f 0000 803f 0000 803f 0000 803f
000003b0: 0000 803f 0000 803f 0000 803f 0000 803f
000003c0: 0000 803f 0000 803f 0000 803f 0000 803f
000003d0: 0000 803f 0000 803f 0000 803f 0000 803f
000003e0: 0000 803f 0000 803f 0000 803f 0000 803f
000003f0: 0000 803f 0000 803f 0000 803f 0000 803f

actor.conv1.bias f4 [21]
0.19578058 0.0 0.010990689 0.18209876 0.18429746 0.21248592 0.21337272 0.20080835
0.19317915 0.20713115 0.23132624 0.2182201 0.20879963 0.21392521 0.20512155 0.19338214
0.0 -0.021777045 0.20520042 0.20987949 0.2434868
00000000: b47a 483e 0000 0000 4a12 343c 1978 3a3e
00000010: 79b8 3c3e e995 593e 617e 5a3e b4a0 4d3e
00000020: c1d0 453e 301a 543e c9e0 6c3e 1775 5f3e
00000030: 92cf 553e 360f 5b3e 620b 523e f805 463e
00000040: 0000 0000 c665 b2bc 0f20 523e a6ea 563e
00000050: 9b54 793e

actor.conv1.lin.weight f4 [21, 21]
0.20634456 -0.12455483 0.406599 0.18287455 0.57423884 0.49164772 0.3891323 0.28333196
0.11485966 0.4220832 0.48150146 0.037777513 0.13548894 0.2988598 -0.13836987 0.2850095
0.043460377 0.2600152 0.42932245 -0.064812995 0.20255181 0.022268564 0.25111404 -0.30654445
-0.13723153 0.30950108 0.014430106 -0.275942 0.3272449 -0.060202032 -0.16039622 0.19100955
-0.15129378 -0.25340924 0.08877519 -0.32653424 0.102850646 0.042801023 -0.37113565 0.20086506
-0.029572487 -0.16758652 0.37428722 0.32219222 0.02685885 0.32906434 -0.21520199 0.16124076
-0.08838444 -0.067317314 0.2282904 0.11521742 0.27360928 -0.35747525 -0.1752704 -0.14597791
-0.078752786 -0.31952974 -0.22049987 0.18317059 -0.37322295 -0.12118536 0.057003755 0.04689099
0.33905473 0.44819674 0.56220174 0.050615303 0.45079032 0.3970904 0.20064752 0.09890893
0.19384041 0.196118 -0.071511745 -0.013339557 0.24591431 0.115270786 0.48524225 0.25322592
0.47677997 0.44029015 -0.2049135 0.08490014 0.37372828 0.26801157 0.3820284 0.43735456
0.3861114 0.18049425 0.04087761 0.36383948 0.16879441 0.33643627 0.5001698 0.29328483
0.14331988 0.09801457 0.07328502 -0.21352412 0.35394737 0.45166174 -0.028016694 0.083823405
0.42481595 0.21913365 0.009278829 0.44341642 0.2185418 0.5825089 0.5799389 0.09560638
0.055439908 0.11224468 0.37908104 0.26076669 0.51008695 0.39173612 0.4113105 0.05578349
0.2012822 -0.08751199 0.0047803745 0.39373043 0.36436877 0.42728347 0.2523122 0.05571456
0.37934545 0.5346554 0.31369156 0.5327858 0.26065302 0.3797025 -0.022270465 0.5367278
0.5933536 -0.14475408 0.10472152 0.114959866 0.48466784 0.48565128 0.19427146 0.3201026
0.38289317 0.42169344 0.3464693 0.07063061 0.5538045 -0.10077777 -0.09362406 -0.0881398
0.417125 0.4354707 0.121539705 -0.07706366 0.20706896 0.3927359 0.4926969 0.3298065
0.019138299 -0.18673287 0.044112097 0.05246971 0.51418483 0.44052342 0.114360094 0.14405061
0.1416081 0.3070515 -0.0137128215 0.036898386 0.3177543 0.08122844 0.55851287 0.0691141
-0.013526336 0.25348073 0.34776026 0.23974185 -0.14828746 0.3277618 0.320656 0.2839109
0.020895118 0.13728637 0.24361846 0.46768877 0.47514337 0.28724197 0.5056668 0.3625905
0.29734278 0.092129655 0.19886571 0.2766955 0.4936932 0.4873172 0.49902883 0.3347599
0.45846403 -0.2054865 0.5000318 0.24326038 0.030476557 -0.04007722 0.5463754 -0.101989254
0.49957925 0.4226498 0.507713 -0.030200848 0.50528306 0.34063447 0.5329274 0.44394803
0.10348416 0.2797527 0.13424353 0.3594165 0.52676743 0.29043892 0.031464543 -0.0627467
0.077882975 0.1754892 0.57611066 0.019780759 0.3077968 0.05919398 -0.063126914 0.01674519
0.48236924 -0.042619176 -0.06432199 0.042859115 -0.047646202 0.10243749 -0.045392506 0.4290458
0.4304188 0.14761083 0.18637724 0.3650256 0.4414648 0.55170953 0.46591926 0.14509901
0.14334962 0.5632775 0.19942392 0.15954196 0.43421796 0.35877818 0.44405407 0.5962772
00000000: fd4b 533e 9a16 ffbd be2d d03e 7743 3b3e
00000010: 5101 133f 40b9 fb3e 593c c73e e310 913e
00000020: 8b3b eb3d 4a1b d83e 5c87 f63e 98bc 1a3d
00000030: 9dbd 0a3e 2704 993e d5b0 0dbe c4ec 913e
00000040: 8203 323d b620 853e 27d0 db3e adbc 84bd
00000050: be69 4f3e 906c b63c 0592 803e 65f3 9cbe
00000060: 6c86 0cbe ed76 9e3e 406c 6c3c 4548 8dbe
00000070: a58c a73e 6896 76bd e83e 24be 0298 433e
00000080: c2ec 1abe dbbe 81be c4cf b53d 7f2f a7be
00000090: 5ca3 d23d 2050 2f3d 7e05 bebe 92af 4d3e
000000a0: 0042 f2bc cd9b 2bbe 93a2 bf3e 61f6 a43e
000000b0: 1707 dc3c 1f7b a83e e95d 5cbe 4c1c 253e
000000c0: e702 b5bd a9dd 89bd f5c4 693e 1cf7 eb3d
000000d0: 8416 8c3e ff06 b7be 157a 33be 3c7b 15be
000000e0: 2449 a1bd 6799 a3be b8ca 61be 1291 3b3e
000000f0: 1417 bfbe 0830 f8bd c57c 693d c410 403d
00000100: 9598 ad3e 0b7a e53e 74ec 0f3f fe51 4f3d
00000110: fdcd e63e 6f4f cb3e 8b76 4d3e c490 ca3d
00000120: 1a7e 463e 28d3 483e c074 92bd 288e 5abc
00000130: f6d0 7b3e 1713 ec3d ac71 f83e d4a6 813e
00000140: 811c f43e b66d e13e d8d4 51be 20e0 ad3d
00000150: 5059 bf3e d038 893e 3a99 c33e f0ec df3e
00000160: 65b0 c53e 7cd3 383e 486f 273d 2b49 ba3e
00000170: 71d8 2c3e 6041 ac3e 210b 003f 6e29 963e
00000180: 72c2 123e ddbb c83d 7516 963d 11a6 5abe
00000190: 9738 b53e 3540 e73e 4483 e5bc 9bab ab3d
000001a0: 7a81 d93e 9264 603e 3b06 183c 7a07 e33e
000001b0: 6cc9 5f3e 4e1f 153f e076 143f 47cd c33d
000001c0: f514 633d 8ae0 e53d e916 c23e 3683 853e
000001d0: 0f95 023f a391 c83e 4a97 d23e 3b7d 643d
000001e0: ec1c 4e3e 7c39 b3bd b0a4 9c3b 0997 c93e
000001f0: 8b8e ba3e e6c4 da3e 112f 813e f334 643d
00000200: 9139 c23e 2ddf 083f 2e9c a03e a664 083f
00000210: 5074 853e 5e68 c23e 8d70 b6bc fe66 093f
00000220: 06e6 173f 6a3a 14be 3c78 d63d 1470 eb3d
00000230: 6226 f83e 49a7 f83e 19ef 463e 7de4 a33e
00000240: 930a c43e 34e8 d73e 6d64 b13e c8a6 903d
00000250: 22c6 0d3f 9364 cebd f9bd bfbd a482 b4bd
00000260: 6891 d53e 04f6 de3e cfe9 f83d 8dd3 9dbd
00000270: e309 543e ae14 c93e c542 fc3e 66dc a83e
00000280: ecc7 9c3c e736 3fbe e3ae 343d 7bea 563d
00000290: 9ea1 033f 498c e13e a035 ea3d 0182 133e
000002a0: b701 113e db35 9d3e beab 60bc c322 173d
000002b0: b1b0 a23e 195b a63d b3fa 0e3f b18b 8d3d
000002c0: 919d 5dbc 3ac8 813e a20d b23e e37e 753e
000002d0: abd8 17be 65d0 a73e 062d a43e c55c 913e
000002e0: 3d2c ab3c cc94 0c3e 1e77 793e e774 ef3e
000002f0: fe45 f33e 6111 933e 6173 013f 76a5 b93e
00000300: 503d 983e 79ae bc3d 74a3 4b3e 08ab 8d3e
00000310: 5bc5 fc3e a481 f93e b580 ff3e a665 ab3e
00000320: ccbb ea3e 0e6b 52be 1602 003f 4019 793e
00000330: f9a9 f93c 0328 24bd 42df 0b3f bedf d0bd
00000340: dac8 ff3e 8e65 d83e 7bf9 013f c567 f7bc
00000350: 3b5a 013f a467 ae3e ee6d 083f 284d e33e
00000360: 81ef d33d bf3b 8f3e 2377 093e 7105 b83e
00000370: 3bda 063f 69b4 943e f7e0 003d 5881 80bd
00000380: 1c81 9f3d 71b3 333e fd7b 133f 420b a23c
00000390: 8b97 9d3e 6375 723d af48 81bd 352d 893c
000003a0: 1af9 f63e 7291 2ebd 3fbb 83bd 0a8d 2f3d
000003b0: aa28 43bd bfca d13d 7eed 39bd e4ab db3e
000003c0: da5f dc3e 4b27 173e add9 3e3e a3e4 ba3e
000003d0: ad07 e23e d63c 0d3f f88c ee3e d694 143e
000003e0: 3eca 123e f432 103f c935 4c3e f85e 233e
000003f0: d151 de3e c6b1 b73e 0e5b e33e 9fa5 183f

actor.lin1.weight f4 [32, 21]
0.22152168 0.35150197 0.11225749 0.35564643 0.051623937 0.39542186 0.2224478 0.29352915
0.42293403 0.01502764 0.35787192 0.21197034 0.24355191 0.3441219 0.12395822 0.29913238
0.06601243 -0.02032798 -0.019818509 0.20080592 0.38590303 0.42176524 -0.04289559 0.05047886
0.08335991 0.04988466 0.1204832 0.2664854 0.25663662 0.31899872 0.33425397 0.33316493
0.08043519 0.10537218 0.16571325 0.3051815 0.3693763 0.19592968 0.11232063 0.0019581628
0.221474 0.1645969 -0.15263167 -0.15898436 -0.033910945 -0.015279368 -0.0068338513 0.085165605
0.21116169 -0.1894719 0.13128321 -0.056338385 0.21218638 0.11440362 -0.19664328 -0.07666665
-0.20560135 -0.173724 -0.11673226 -0.1070353 0.12540118 0.11164208 -0.18011989 0.31346902
0.023783807 0.32144 0.182134 0.2952523 0.41494387 0.16515164 0.27233338 0.13417304
0.094015874 0.143714 0.28075165 0.11805818 0.30749497 0.08291886 0.07506251 0.115806974
0.2536222 0.120975085 -0.022393722 0.24287815 0.1615925 -0.117363155 -0.1930065 -0.16816203
-0.12367288 0.13349561 0.16913383 0.060479354 0.17677738 -0.17441832 -0.032524884 -0.14946473
-0.060870193 -0.06159814 0.15034512 -0.18400452 -0.052335758 0.13334829 -0.049651925 0.16321859
-0.029296592 0.43733245 0.08504319 -0.032261163 0.09457227 0.3508957 0.38637272 0.15304205
0.30078113 0.14620942 0.30195355 0.20276998 0.31438643 0.19641419 0.2695413 0.31586248
0.026757762 -0.06581302 0.19230948 0.23796807 0.27660808 0.33984947 -0.13648933 -0.01587145
-0.10886655 -0.08227759 -0.08734114 -0.03245607 0.004299849 0.03210729 0.11570719 -0.094129235
-0.18042728 -0.017816046 0.0019734656 -0.21353465 0.09693911 -0.19150418 -0.056063384 -0.18033607
0.05050255 0.016399179 0.046526074 -0.0053005167 0.19012448 0.13347259 0.05464054 0.072548114
0.13650201 0.09849843 -0.1825756 0.14361995 -0.097089164 -0.109310985 0.048312534 -0.025054347
0.12479883 -0.12688509 -0.037397712 -0.14033255 -0.07065456 -0.23078702 -0.0632063 -0.16099134
0.4748521 0.13443981 0.13263679 0.10286035 0.42436042 0.2368805 0.14869738 0.44628584
0.30150515 0.14848122 0.35636342 0.0870894 0.28397605 0.08448356 0.101936646 0.28172618
0.06168027 0.20306478 0.16813157 0.17109166 0.026386766 0.13769554 -0.149051 -0.05356848
-0.24124773 -0.0072996533 -0.075676516 0.057643496 -0.044272207 -0.022790989 -0.1705597 -0.010168606
0.08336647 0.17078494 0.05384415 -0.00046057062 -0.22532654 -0.013424477 0.032892063 -0.06393933
-0.15180314 0.16077115 0.14745247 0.03240564 0.12756217 0.17089139 0.16563593 0.3582841
-0.0013127901 0.40066156 0.36781633 0.3305262 0.20484784 0.2273573 0.3562557 0.2619598
0.20084746 -0.055385746 0.20296164 -0.031607836 0.34626868 -0.0507537 0.08947632 0.09193917
-0.06730116 0.13299611 0.38236815 0.006509688 0.11696256 0.29221264 0.097477764 0.35433456
0.28458923 0.3240047 0.01589003 -0.08932733 0.293926 0.18969004 0.016450103 0.04351186
0.12222165 -0.040181346 0.019708779 0.22315894 0.16559248 -0.1277081 0.15642406 -0.046504233
00000000: 94d6 623e 11f8 b33e 41e7 e53d 4a17 b63e
00000010: 9f73 533d bc74 ca3e 5bc9 633e 7449 963e
00000020: cf8a d83e 7e36 763c fd3a b73e c10e 593e
00000030: ac65 793e bf30 b03e cfdd fd3d e127 993e
00000040: 8631 873d dd86 a6bc 6d5a a2bc 11a0 4d3e
00000050: 1595 c53e 9df1 d73e 49b3 2fbd ecc2 4e3d
00000060: 9ab8 aa3d db53 4c3d e5bf f63d c670 883e
00000070: e065 833e cd53 a33e 5623 ab3e 9894 aa3e
00000080: 34bb a43d 5fcd d73d bcb0 293e c040 9c3e
00000090: e41e bd3e caa1 483e 5c08 e63d 8554 003b
000000a0: 15ca 623e 178c 283e 7a4b 1cbe cccc 22be
000000b0: 34e6 0abd 5056 7abc 80ee dfbb 4e6b ae3d
000000c0: c53a 583e ec04 42be 1b6f 063e 14c3 66bd
000000d0: 6347 593e 724c ea3d db5c 49be 6803 9dbd
000000e0: 2989 52be b4e4 31be 5311 efbd 5335 dbbd
000000f0: 2b69 003e 9aa4 e43d 5971 38be 037f a03e
00000100: 42d6 c23c c993 a43e 5681 3a3e 4f2b 973e
00000110: 8673 d43e 831d 293e 486f 8b3e a864 093e
00000120: 658b c03d c329 133e aebe 8f3e 7dc8 f13d
00000130: fb6f 9d3e 5dd1 a93d 60ba 993d 352c ed3d
00000140: c5da 813e c9c1 f73d 0a73 b7bc 0db5 783e
00000150: 8178 253e 185c f0bd 7fa3 45be ab32 2cbe
00000160: 3548 fdbd 13b3 083e 6b31 2d3e 33b9 773d
00000170: 2105 353e b79a 32be d038 05bd 480d 19be
00000180: 0653 79bd 554e 7cbd 12f4 193e ae6b 3cbe
00000190: 055e 56bd 748c 083e d15f 4bbd c622 273e
000001a0: 68ff efbc 0aea df3e 202b ae3d 4824 04bd
000001b0: 1baf c13d 9aa8 b33e a5d2 c53e 0eb7 1c3e
000001c0: fcff 993e ecb7 153e a899 9a3e efa2 4f3e
000001d0: 42f7 a03e cd20 493e 5101 8a3e bab8 a13e
000001e0: 1833 db3c fac8 86bd c7ec 443e e7ad 733e
000001f0: 939f 8d3e c000 ae3e dcc3 0bbe d804 82bc
00000200: 6df5 debd 2781 a8bd e9df b2bd a8f0 04bd
00000210: bfe5 8c3b ef82 033d e4f7 ec3d d4c6 c0bd
00000220: eec1 38be f5f2 91bc 4255 013b d4a8 5abe
00000230: 0388 c63d ac19 44be b8a2 65bd 05aa 38be
00000240: c3db 4e3d 9257 863c 2092 3e3d f5af adbb
00000250: feaf 423e 0aad 083e c2ce 5f3d 1b94 943d
00000260: 2fc7 0b3e 8bb9 c93d 19f5 3abe 1c11 133e
00000270: afd6 c6bd 70de dfbd 5de3 453d c63e cdbc
00000280: 8796 ff3d 2aee 01be 582e 19bd 56b3 0fbe
00000290: 57b3 90bd 6f53 6cbe 4e72 81bd eada 24be
000002a0: d01f f33e 97aa 093e f0d1 073e 72a8 d23d
000002b0: c545 d93e cd90 723e 2044 183e 947f e43e
000002c0: e25e 9a3e 760b 183e 4475 b63e ed5b b23d
000002d0: 4f65 913e b705 ad3d 29c4 d03d 6a3e 903e
000002e0: 73a4 7c3d 37f0 4f3e af2a 2c3e a732 2f3e
000002f0: 0f29 d83c 0f00 0d3e d3a0 18be 9f6a 5bbd
00000300: a509 77be ee31 efbb 4afc 9abd 961b 6c3d
00000310: c656 35bd 2bb4 babc 34a7 2ebe 3a9a 26bc
00000320: 0abc aa3d 3fe2 2e3e af8b 5c3d be78 f1b9
00000330: 00bc 66be 56f2 5bbc d4b9 063d a0f2 82bd
00000340: 4872 1bbe 31a1 243e c8fd 163e c7bb 043d
00000350: a89f 023e 27fe 2e3e 779c 293e 0371 b73e
00000360: ed11 acba 8323 cd3e 6c52 bc3e bb3a a93e
00000370: a2c3 513e 5ad0 683e 2667 b63e 981f 863e
00000380: f5aa 4d3e 2adc 62bd 2dd5 4f3e 3877 01bd
00000390: 214a b13e 1de3 4fbd 5c3f b73d 9b4a bc3d
000003a0: 31d5 89bd 2230 083e c2c5 c33e 394f d53b
000003b0: 118a ef3d e59c 953e 6ca2 c73d 576b b53e
000003c0: aeb5 913e f2e3 a53e cf2b 823c 3ff1 b6bd
000003d0: 787d 963e 1b3e 423e 5ec2 863c 7e39 323d
000003e0: 584f fa3d 3295 24bd 4e74 a13c c783 643e
000003f0: 1391 293e eac5 02be a12d 203e 397b 3ebd

actor.lin1.bias f4 [32]
0.08854533 0.35900202 -0.13317871 -0.04053094 0.09449087 0.22418046 0.2011396 -0.22841269
0.304578 0.13569485 0.3545668 0.06257176 0.06996065 -0.12539656 0.18579145 0.015969703
0.18676092 -0.14234458 -0.01632449 0.25951162 0.036081977 0.29367462 0.030137489 0.11484239
0.039342195 0.20060769 0.28277865 -0.15123045 0.22585283 -0.12102356 0.017746128 0.0010632555
00000000: 4157 b53d 1dcf b73e 0060 08be c503 26bd
00000010: 6e84 c13d 908f 653e 8af7 4d3e 04e5 69be
00000020: a6f1 9b3e 97f3 0a3e c889 b53e 9f25 803d
00000030: 8747 8f3d f567 00be 1d40 3e3e e5d2 823c
00000040: 413e 3f3e c7c2 11be f0ba 85bc b5de 843e
00000050: b2ca 133d 855c 963e e5e2 f63c 7d32 eb3d
00000060: 4825 213d 1a6c 4d3e 5dc8 903e 28dc 1abe
00000070: f745 673e 33db f7bd 5460 913c ef5c 8b3a

actor.lin2.weight f4 [32, 32]
0.07305104 0.17879912 -0.16673686 -0.007724292 -0.006469019 0.25436485 0.033416722 -0.06895819
0.10387714 -0.06107437 0.26924032 0.18472424 -0.13216847 -0.1550068 0.21856612 -0.010312185
-0.09743595 -0.052547347 -0.14062193 0.12244567 -0.13519204 -0.0055436506 0.12079693 0.15074053
0.092630155 0.16265945 0.10712334 0.0540469 0.14879581 0.16338262 -0.14255403 -0.08823339
-0.14192018 -0.05997692 0.1600268 -0.13077508 -0.16210918 0.11513192 -0.050270587 -0.11635767
0.093392186 0.044926964 0.054119524 -0.1110798 0.16716473 0.10792654 -0.02285159 -0.0353865
0.10170105 -0.1443415 0.16611789 0.036690198 0.07641415 -0.10747672 0.01618869 0.13642818
0.111018226 -0.050923925 -0.14700358 0.12208523 -0.07435466 0.021870652 0.111805566 -0.019314969
-0.055493552 -0.0095162885 0.10693203 0.09929616 -0.109162316 -0.11156259 -0.09028335 0.07661061
-0.083182536 -0.0252631 -0.07463582 -0.011528171 0.06367996 0.11613928 -0.036684662 0.04410529
-0.10663692 -0.13177517 -0.17079291 0.07742698 -0.13854375 0.12608825 0.06693168 0.028768554
0.13021852 0.081128284 -0.1194785 -0.08179576 -0.08822756 0.04214126 -0.11714546 0.055555508
0.13827422 0.02168496 0.07107957 -0.017513292 0.056990582 0.083339095 -0.057800766 0.14345369
0.053998444 0.07967926 -0.1616923 -0.032883313 -0.09309338 -0.16402331 -0.032403614 0.11903542
0.062998034 -0.14107339 -0.0015560836 -0.038885683 -0.011658159 -0.18122402 0.072189495 -0.15232623
0.0070837922 0.0030680527 -0.10489695 0.054239973 -0.14531784 0.17249858 0.09089902 0.085888594
-0.010360539 -0.144724 -0.1255371 0.175851 0.07816954 -0.09822024 0.03871323 -0.06141927
-0.093240336 0.102700904 -0.036978573 -0.07996136 -0.14579865 0.030182347 -0.077831045 0.15472715
-0.16188183 -0.02295722 -0.123083696 0.057723314 0.13552539 -0.15769029 0.048753664 0.0021971315
0.117045835 0.0031071752 -0.07638141 0.17068602 -0.10082266 0.17338793 0.074245796 0.060995936
0.3037859 0.17484415 -0.08220079 0.26585075 0.023650361 0.07493151 0.08130287 -0.034927897
0.15051556 0.11409338 0.042598847 0.05977173 0.0076366034 0.02462831 0.21306184 -0.14255752
0.11467176 -0.11362548 0.13190626 0.2815505 -0.14687492 0.08747766 0.05488445 -0.059359435
0.2939115 0.088125065 0.17072734 -0.05011642 0.32038355 0.041381788 -0.055109948 -0.08556232
0.07947881 0.18708251 -0.0062032193 0.1342118 -0.025057064 0.18810205 0.050164774 -0.017487116
0.30315676 -0.032842603 -0.036428344 0.1298263 -0.016774582 0.1748874 0.18006463 -0.13195683
-0.08643441 -0.10012557 -0.058951177 -0.019748308 -0.13696174 0.23473704 0.24918905 0.1421781
0.078435935 0.08801981 -0.05956056 -0.17402054 0.12508486 0.02916571 0.05907622 0.009805098
0.12026688 -0.15285555 -0.08053359 -0.0646616 0.077160574 0.0147884255 0.03747171 0.09302765
-0.16197756 0.00890121 -0.1026272 0.008531154 -0.16224335 -0.11986922 0.12088955 -0.022230137
0.06311756 0.09303737 0.008209497 -0.055792633 -0.13022026 0.13561532 -0.06115019 0.15963393
-0.17731391 -0.11528175 -0.051225822 0.15279071 0.0251482 0.16398875 -0.00722374 0.0669771
00000000: c99b 953d 1e17 373e 11bd 2abe 0f1c fdbb
00000010: 11fa d3bb 1c3c 823e f9df 083d f439 8dbd
00000020: 8abd d43d 1e29 7abd ded9 893e 5a28 3d3e
00000030: 2c57 07be 1aba 1ebe cccf 5f3e 70f4 28bc
00000040: 808c c7bd e33b 57bd 32ff 0fbe ccc4 fa3d
00000050: c86f 0abe 83a7 b5bb 6164 f73d ba5b 1a3e
00000060: e1b4 bd3d 3390 263e 7b63 db3d 4860 5d3d
00000070: ee5d 183e c64d 273e aff9 11be b5b3 b4bd
00000080: 8653 11be 5caa 75bd 11de 233e e7e9 05be
00000090: f3ff 25be 49ca eb3d 88e8 4dbd ee4c eebd
000000a0: 6744 bf3d 5605 383d 6fac 5d3d ce7d e3bd
000000b0: 3b2d 2b3e 9708 dd3d 4233 bbbc 6ff1 10bd
000000c0: a448 d03d 42ce 13be cf1a 2a3e 7648 163d
000000d0: 067f 9c3d c11c dcbd 259e 843c d4b3 0b3e
000000e0: 865d e33d 9b95 50bd 1b88 16be d207 fa3d
000000f0: 4247 98bd 152a b33c 51fa e43d 6d3a 9ebc
00000100: 354d 63bd 35ea 1bbc 2eff da3d c95b cb3d
00000110: 7e90 dfbd ed7a e4bd 7ae6 b8bd 06e6 9c3d
00000120: 9b5b aabd 90f4 cebc aada 98bd a7e0 3cbc
00000130: a46a 823d 6eda ed3d a842 16bd c0a7 343d
00000140: 7564 dabd 12f0 06be 56e4 2ebe 0992 9e3d
00000150: 6ade 0dbe 471d 013e 7a13 893d 08ac eb3c
00000160: 0158 053e 9626 a63d 25b1 f4bd 8984 a7bd
00000170: a7b0 b4bd 509c 2c3d f5e9 efbd 2c8e 633d
00000180: c297 0d3e a8a4 b13c 2a92 913d 0978 8fbc
00000190: f56e 693d b0ad aa3d 7fc0 6cbd 86e5 123e
000001a0: 792d 5d3d e12e a33d ab92 25be a7b0 06bd
000001b0: bea7 bebd baf5 27be a7b9 04bd d8c8 f33d
000001c0: 1d05 813d 8b75 10be 80f5 cbba 9846 1fbd
000001d0: dd01 3fbc ca92 39be 16d8 933d 68fb 1bbe
000001e0: 281f e83b 6211 493b 36d4 d6bd bc2a 5e3d
000001f0: 33ce 14be 78a3 303e 4429 ba3d 5ce6 af3d
00000200: 40bf 29bc 8732 14be cc8c 00be 4912 343e
00000210: 5a17 a03d b127 c9bd c491 1e3d c692 7bbd
00000220: caf4 bebd da54 d23d d876 17bd c8c2 a3bd
00000230: 3e4c 15be f840 f73c e265 9fbd cb70 1e3e
00000240: 5ac4 25be c810 bcbc 4e13 fcbd 486f 6c3d
00000250: 2bc7 0a3e 9079 21be ecb1 473d c0fd 0f3b
00000260: bab5 ef3d c0a1 4b3b db6d 9cbd 51c8 2e3e
00000270: 1c7c cebd 9b8c 313e 2e0e 983d e0d6 793d
00000280: d389 9b3e 580a 333e e358 a8bd 971d 883e
00000290: 67be c13c b175 993d 1e82 a63d 8e10 0fbd
000002a0: c020 1a3e caa9 e93d 217c 2e3d 34d3 743d
000002b0: 793c fa3b 4fc1 c93c e22c 5a3e 99fa 11be
000002c0: 07d9 ea3d 7ab4 e8bd 6f12 073e 6327 903e
000002d0: 6166 16be 7d27 b33d 84ce 603d e122 73bd
000002e0: 917b 963e ea7a b43d 26d3 2e3e e046 4dbd
000002f0: 5009 a43e f37f 293d f8ba 61bd 4c3b afbd
00000300: c9c5 a23d 8f92 3f3e 6044 cbbb d16e 093e
00000310: 7944 cdbc d39d 403e 9479 4d3d 2441 8fbc
00000320: 5d37 9b3e f785 06bd e335 15bd 30f1 043e
00000330: d96a 89bc af15 333e dd62 383e b11f 07be
00000340: 8604 b1bd a30e cdbd ca76 71bd 34c7 a1bc
00000350: b33f 0cbe e85e 703e 6a2b 7f3e 2397 113e
00000360: 05a3 a03d bb43 b43d c6f5 73bd 7132 32be
00000370: 3f16 003e edec ee3c e8f9 713d 90a5 203c
00000380: 7b4e f63d 2a86 1cbe cbee a4bd 4d6d 84bd
00000390: 5d06 9e3d 274b 723c f07b 193d 4885 be3d
000003a0: 72dd 25be 61d6 113c 362e d2bd 41c6 0b3c
000003b0: 1f23 26be fe7d f5bd f194 f73d fa1b b6bc
000003c0: c843 813d 608a be3d 2081 063c d186 64bd
000003d0: 7658 05be bede 0a3e 9f78 7abd 1477 233e
000003e0: c791 35be d718 ecbd 2bd2 51bd 2b75 1c3e
000003f0: 9903 ce3c abec 273e 20b5 ecbb 4a2b 893d

actor.lin2.bias f4 [32]
0.0010591906 0.10011992 -0.16813698 0.021609297 -0.17342496 0.15887909 0.060438134 0.031013954
0.05407703 -0.082551174 -0.15780537 -0.13314454 -0.08701902 0.059434753 -0.12893073 -0.03526959
-0.10958758 -0.03775026 0.09255089 0.06430248 0.3091783 -0.16007872 -0.035597444 -0.12990609
-0.046708878 0.00021105167 0.11621738 -0.101639144 0.05340827 -0.024307612 -0.14563477 0.16239613
00000000: 8ad4 8a3a ac0b cd3d 1a2c 2cbe fb05 b13c
00000010: 5096 31be 33b1 223e fa8d 773d fa10 fe3c
00000020: e07f 5d3d 9710 a9bd bb97 21be 0b57 08be
00000030: 0737 b2bd db71 733d 6b06 04be d876 10bd
00000040: 746f e0bd 04a0 1abd 528b bd3d 05b1 833d
00000050: 9e4c 9e3e adeb 23be a0ce 11bd 1a06 05be
00000060: cf51 3fbd c04d 5d39 6103 ee3d 2f28 d0bd
00000070: a1c2 5a3d c220 c7bc 4821 15be 2c4b 263e

actor.lin3.weight f4 [1, 32]
0.28855157 -0.093228616 -0.14609946 -0.061545096 0.03830205 0.19778869 0.34021735 -0.05517644
-0.01619866 0.16474825 -0.067215495 0.16313834 -0.0923952 -0.025188113 -0.09785213 0.004162895
-0.11408913 0.19920717 -0.11265003 0.17113201 0.15469582 0.079893366 -0.101859614 -0.10734339
0.31688574 0.27244854 -0.07119865 -0.07564662 0.20117605 0.06466136 -0.05722683 0.28410107
00000000: 08bd 933e a5ee bebd 199b 15be b616 7cbd
00000010: 9ce2 1c3d 1e89 4a3e f830 ae3e b100 62bd
00000020: 0db3 84bc c4b3 283e 47a8 89bd bd0d 273e
00000030: b239 bdbd 4d57 cebc b366 c8bd e568 883b
00000040: 90a7 e9bd f7fc 4b3e 0fb5 e6bd 3b3d 2f3e
00000050: 9568 1e3e 229f a33d c69b d0bd dad6 dbbd
00000060: d93e a23e 607e 8b3e 99d0 91bd 9dec 9abd
00000070: 1801 4e3e 2d6d 843d ae66 6abd b275 913e

actor.lin4.weight f4 [32, 32]
0.13600026 -0.14979178 0.10895647 0.13768165 0.076855674 -0.15449992 0.16702057 -0.11232609
-0.16966304 -0.0539883 0.14071836 0.14540394 0.11381225 0.0038478523 0.01212126 -0.08655972
0.021744058 -0.053546183 0.1116579 -0.039300486 0.030363858 -0.08486101 -0.06583409 -0.12220622
0.070949376 -0.07350853 -0.14362137 -0.100548536 0.03900233 0.049030438 0.018217996 -0.038420185
0.1558693 0.2061944 -0.07000813 0.22943652 -0.02872478 0.08207593 0.027262455 -0.12274795
0.20280553 -0.068451986 0.17389223 0.18717104 -0.15709163 0.1642653 0.036409125 0.11395266
0.14001533 0.1441064 0.034464702 0.174455 0.0035275319 0.00037311937 0.098071076 0.14648536
0.18715501 0.2641282 0.14839865 0.067350194 0.050908 0.19258268 0.1261782 0.02088086
0.14042193 -0.115625314 0.11423765 0.11312208 -0.017094707 -0.078481674 -0.016919492 -0.053248238
-0.01707455 -0.11097575 0.10544278 0.0761359 0.08160995 0.091047905 -0.100643516 0.087552615
0.008308616 0.0327373 -0.14490661 -0.10588486 0.13666636 -0.023663202 -0.050717257 0.006103887
0.11410719 0.057838663 -0.024585532 0.06655906 -0.07148224 -0.04334536 0.13099766 0.019289805
0.18473408 0.2558412 -0.14782602 0.283346 0.115027174 0.20786917 -0.08373412 0.06678609
0.14690146 -0.092659615 0.19128959 0.006831033 0.08355818 -0.14505897 0.18892126 0.018430538
0.100831985 0.17150737 0.043226317 0.23379979 -0.0737949 0.29317176 0.017422883 -0.12899998
0.106251515 0.005417632 0.016417768 0.12846382 0.2433126 -0.08709196 -0.14781497 -0.14237787
-0.10966398 0.13308665 -0.11994904 -0.108287625 -0.14155826 -0.17213066 -0.025513975 -0.1337335
0.08215582 -0.0860391 -0.1820384 -0.035306506 0.0578194 0.13011636 0.07829935 0.09309131
0.072255105 -0.06399473 0.0023755282 0.13679622 -0.001316874 -0.015683511 -0.10682815 0.0295489
0.12009177 0.150018 -0.12669943 -0.12082728 0.084535636 0.1737369 -0.12877259 0.06296579
0.06435456 0.22880718 0.11365883 0.121715195 0.017975125 0.10703948 0.18292588 0.14455348
0.26156384 0.015220234 0.19380161 0.28954166 -0.0759629 0.12605762 -0.018953973 0.12867911
-0.074829124 -0.041647702 -0.06702276 0.25996926 -0.0043096966 0.072985336 0.22287104 0.082794435
0.027601913 0.2082111 0.29614466 0.005126193 0.21121238 0.009068779 0.12280826 0.17383671
-0.1531858 -0.06799463 -0.11967696 0.03363149 -0.0280216 0.015906727 0.120523885 0.085218295
0.028143108 -0.04532984 -0.0004340027 0.075590886 -0.033021037 -0.072705 -0.06368721 -0.0938016
0.09822326 0.10371396 -0.14436987 -0.10916562 0.11227829 0.11000373 -0.16983756 -0.023015188
-0.15090916 0.14242089 0.004171401 0.031347364 0.10775553 -0.031582072 -0.06458383 -0.03246187
0.044443894 0.049704764 0.03335032 0.3200877 0.09039528 0.2803288 -0.07825806 -0.025658239
0.29968113 0.16495885 0.04437605 -0.028260788 -0.023181917 -0.04249919 0.21667896 0.030388925
0.09881406 0.04796732 -0.053899392 0.1734162 0.01901138 0.17549586 0.2538136 -0.046454806
0.28398842 0.05401502 0.14899893 -0.12818995 0.007920745 -0.14963137 0.06565685 0.023869665
00000000: a743 0b3e 0463 19be 9224 df3d 6bfc 0c3e
00000010: 8266 9d3d 3a35 1ebe 7107 2b3e 390b e6bd
00000020: 26bc 2dbe d622 5dbd 7918 103e c5e4 143e
00000030: 6616 e93d 402c 7c3b 4098 463c 3946 b1bd
00000040: 9820 b23c 3e53 5bbd e6ac e43d 8cf9 20bd
00000050: a0bd f83c 9ccb adbd 06d4 86bd 4147 fabd
00000060: e84d 913d a48b 96bd 7b11 13be 64ec cdbd
00000070: e8c0 1f3d 24d4 483d e83d 953c 7c5e 1dbd
00000080: 349c 1f3e a024 533e 6c60 8fbd 68f1 6a3e
00000090: 3b50 ebbc 6d17 a83d 8355 df3c 4763 fbbd
000000a0: 41ac 4f3e 8e30 8cbd ce10 323e c4a9 3f3e
000000b0: a1dc 20be 2a35 283e bc21 153d 0360 e93d
000000c0: 2e60 0f3e a190 133e dc2a 0d3d 55a4 323e
000000d0: 2a2e 673b 3c9f c339 7dd9 c83d 4200 163e
000000e0: 90a5 3f3e d03b 873e d1f5 173e e6ee 893d
000000f0: e884 503d 6534 453e dc34 013e 560e ab3c
00000100: c4ca 0f3e f7cc ecbd 6ef5 e93d 8dac e73d
00000110: 330a 8cbc 00bb a0bd bf9a 8abc d31a 5abd
00000120: eddf 8bbc 4147 e3bd 62f2 d73d 24ed 9b3d
00000130: 1e23 a73d 5377 ba3d 301e cebd c94e b33d
00000140: dc20 083c 8c17 063d 6662 14be 29da d8bd
00000150: 44f2 0b3e 55d9 c1bc e6bc 4fbd 1e03 c83b
00000160: 08b1 e93d 3ce8 6c3d 9967 c9bc 1e50 883d
00000170: 4865 92bd e78a 31bd 4024 063e a705 9e3c
00000180: ee2a 3d3e 9efd 823e b45f 17be ba12 913e
00000190: 5e93 eb3d a8db 543e cb7c abbd 25c7 883d
000001a0: 566d 163e 53c4 bdbd 6be1 433e dcd6 df3b
000001b0: 8d20 ab3d 578a 14be 9374 413e a4fb 963c
000001c0: 0081 ce3d a19f 2f3e 140e 313d 3669 6f3e
000001d0: c821 97bd 9c1a 963e 6fba 8e3c 9218 04be
000001e0: 659a d93d 6486 b13b 8e7e 863c 058c 033e
000001f0: f026 793e 455d b2bd cf5c 17be 81cb 11be
00000200: 8297 e0bd de47 083e d8a7 f5bd e7c5 ddbd
00000210: a6f4 10be 0543 30be af02 d1bc 6ff1 08be
00000220: 5041 a83d 4535 b0bd 4668 3abe 8e9d 10bd
00000230: 09d4 6c3d 393d 053e 695b a03d a8a6 be3d
00000240: 7cfa 933d ab0f 83bd c0ae 1b3b 4f14 0c3e
00000250: f69a acba b57a 80bc b8c8 dabd 8910 f23c
00000260: adf2 f53d 529e 193e 7fbd 01be 4b74 f7bd
00000270: 0521 ad3d 16e8 313e f6dc 03be 35f4 803d
00000280: 53cc 833d 6e4c 6a3e f6c5 e83d d145 f93d
00000290: 9240 933c 8437 db3d ec50 3b3e d405 143e
000002a0: b2eb 853e 4a5e 793c ee73 463e ce3e 943e
000002b0: 7092 9bbd 4015 013e 5d45 9bbc 75c4 033e
000002c0: 0340 99bd c896 2abd 3b43 89bd b11a 853e
000002d0: 5b38 8dbb 5679 953d 4e38 643e 2190 a93d
000002e0: 681d e23c 4a35 553e 46a0 973e a0f9 a73b
000002f0: 0f48 583e 3795 143c e682 fb3d 4002 323e
00000300: bddc 1cbe c540 8bbd 3219 f5bd 2cc1 093d
00000310: 8e8d e5bc d34e 823c 3ad5 f63d ee86 ae3d
00000320: 608c e63c c8ab 39bd db8a e3b9 65cf 9a3d
00000330: 1141 07bd 5ce6 94bd 716e 82bd 0e1b c0bd
00000340: 4729 c93d fc67 d43d b2d5 13be 3992 dfbd
00000350: 29f2 e53d a349 e13d e6e9 2dbe 598a bcbc
00000360: ee87 1abe c8d6 113e 3fb0 883b 1866 003d
00000370: eeae dc3d 345c 01bd 8744 84bd bdf6 04bd
00000380: cd0a 363d 3997 4b3d 589a 083d 89e2 a33e
00000390: 2921 b93d 4287 8f3e c345 a0bd 3a31 d2bc
000003a0: ce6f 993e f9ea 283e a9c3 353d 2b83 e7bc
000003b0: 01e8 bdbc a113 2ebd 17e1 5d3e 32f2 f83c
000003c0: 075f ca3d 6179 443d 9cc5 5cbd 0494 313e
000003d0: c1bd 9b3c 30b5 333e dbf3 813e 6547 3ebd
000003e0: ee66 913e db3e 5d3d 2d93 183e 3a44 03be
000003f0: 03c6 013c f738 19be 1977 863d 518a c33c

actor.lin4.bias f4 [32]
-0.05771012 0.13377747 0.0754586 0.0846242 0.09411936 -0.053070545 -0.00469738 0.18854162
-0.11272727 0.027292207 0.057334393 -0.026332935 0.17436385 -0.15691191 -0.028464586 -0.13451204
-0.1498498 0.11622105 -0.004895189 -0.090059415 0.1854902 -0.13009477 -0.08213095 -0.08276307
0.13469769 -0.04728534 -0.14662603 0.12808351 0.0046570003 0.11068936 0.15964638 -0.01863171
00000000: 7261 6cbd f6fc 083e 0a8a 9a3d 744f ad3d
00000010: a7c1 c03d 8060 59bd 7bec 99bb 0e11 413e
00000020: 8edd e6bd e893 df3c 78d7 6a3d 2bb8 d7bc
00000030: 708c 323e 84ad 20be 902e e9bc 86bd 09be
00000040: 3a72 19be 4d05 ee3d d267 a0bb 1271 b8bd
00000050: 25f1 3d3e 9037 05be 4634 a8bd af7f a9bd
00000060: 31ee 093e 46ae 41bd 2225 16be 5328 033e
00000070: c099 983b 1ab1 e23d 577a 233e 87a1 98bc

actor.bilin.weight f4 [16, 32, 32]
-0.01853761 -0.12616464 0.12130444 -0.11388032 -0.0693629 -0.12206343 0.012379095 -0.14029197
0.1601034 -0.07307317 -0.17120788 0.16861893 0.02852571 -0.042717457 -0.08976705 0.08403139
-0.07222625 -0.101418845 -0.1379815 -0.033159554 -0.13896908 -0.028714359 0.11000727 0.1447338
0.10731934 -0.10374626 -0.0076198727 -0.15898794 0.04008524 -0.008131564 -0.13540687 -0.04991913
0.0053652674 0.028829973 0.056608155 0.006233624 0.09785792 -0.12784582 -0.15244237 -0.1639733
0.043170903 -0.092285395 -0.13180974 0.15766078 0.10167045 0.03460613 0.0051705986 -0.024122193
0.021469781 -0.21444 -0.018165367 0.1338004 0.08626664 0.004061437 -0.101223476 -0.13460524
-0.020331971 0.05650638 -0.11695352 0.038669087 0.10483579 0.13792744 -0.10615935 -0.101984225
-0.047166333 -0.061432015 -0.1598484 0.044396285 -0.071273975 0.015921751 -0.11659921 -0.16409813
0.15467492 0.090091094 -0.02834476 -0.12573889 0.10070739 0.14903243 -0.03293416 -0.14569584
-0.08429438 -0.17416213 0.028392045 0.046932083 -0.07359404 -0.037151854 0.15949233 0.12987009
0.038891725 0.04933135 -0.17371336 0.12543704 0.04925011 -0.008611341 0.15838414 0.01236001
0.06982036 -0.17992695 0.03369749 -0.104290195 0.071006425 0.08000775 -9.433795e-05 -0.18647017
0.17219022 0.022571698 -0.19742157 -0.08522527 -0.00816934 0.104826406 -0.10860906 0.1115803
0.15709871 0.1044621 0.0656977 0.11014501 -0.098271504 0.010235877 -0.16034779 0.084536456
-0.16482368 0.0375113 0.0058827996 -0.091809824 -0.12471695 -0.039928824 -0.15382023 0.11320245
-0.06099987 -0.16456376 -0.14956541 0.011571617 -0.07706197 -0.0054278993 -0.14090203 -0.055026863
-0.13208544 -0.05773288 0.050696496 0.012217764 -0.098546855 0.029427916 -0.041965738 -0.03298536
0.02936478 0.072638996 -0.08214725 0.11664242 -0.094111 0.06522083 0.15989809 0.061021645
-0.08845471 0.054054726 -0.12041013 0.09124122 0.16008155 0.064743154 0.15992449 0.12968452
0.017129809 0.096072644 0.06180152 -0.033182655 -0.1492958 0.013644445 -0.18126601 -0.18017186
0.15121289 0.0513079 0.015110373 0.090656355 -0.01962151 -0.17015216 -0.07991546 0.13008578
-0.11774127 -0.17107113 0.07779292 0.14387412 -0.19233774 0.043359026 -9.49353e-05 -0.072913066
0.13001204 -0.1572143 0.041761577 -0.09010372 -0.16824351 -0.084739506 -0.21089408 0.14368406
-0.15824535 -0.13402414 0.11999718 -0.13456552 0.10962859 0.15276253 0.11657216 0.009915097
-0.084092274 0.059317216 0.013653766 0.08675471 -0.095079295 0.020871714 -0.14918047 0.109815225
-0.026073024 0.06382416 0.0710291 -0.07078635 0.066531524 0.086979575 0.083946034 0.027564704
-0.017210994 0.047247093 -0.05149232 0.17181025 -0.051602542 0.14634164 0.17206275 0.12857972
0.042282954 -0.02509017 -0.06459001 0.096744396 0.04208185 0.011188022 -0.03193557 -0.079754926
0.10813132 -0.17014268 -0.09521554 -0.085479796 0.029027015 -0.052266642 -0.09152816 -0.009948179
0.09830823 -0.18719062 0.012879555 -0.053069092 -0.04160383 0.09955221 0.046998546 -0.23009297
-0.1644615 0.008335323 0.07495482 -0.018756768 -0.016625702 -0.04089381 -0.00851935 0.011801465
00000000: 30dc 97bc 4e31 01be 766e f83d 163a e9bd
00000010: 230e 8ebd 64fc f9bd b0d1 4a3c b3a8 0fbe
00000020: 25f2 233e 63a7 95bd 1e51 2fbe 71aa 2c3e
00000030: c0ae e93c 80f8 2ebd cad7 b7bd a618 ac3d
00000040: 5beb 93bd afb4 cfbd 064b 0dbe 50d2 07bd
00000050: e94d 0ebe 603a ebbc 7e4b e13d 1935 143e
00000060: 3eca db3d eb78 d4bd 20b0 f9bb bccd 22be
00000070: 6c30 243d 403a 05bc 19a8 0abe 0078 4cbd
00000080: 20cf af3b d62c ec3c f4dd 673d 6e43 cc3b
00000090: bc69 c83d 04ea 02be da19 1cbe 9ee8 27be
000000a0: f9d3 303d 2000 bdbd 22f9 06be d471 213e
000000b0: 9938 d03d 28bf 0d3d 206e a93b e89b c5bc
000000c0: 65e1 af3c 2996 5bbe 89cf 94bc f902 093e
000000d0: 90ac b03d ce15 853b 414e cfbd f5d5 09be
000000e0: 3c8f a6bc 3c73 673d 5485 efbd 7a63 1e3d
000000f0: 26b4 d63d da3c 0d3e 136a d9bd 1bdd d0bd
00000100: 7c31 41bd 23a0 7bbd 4daf 23be e1d8 353d
00000110: 17f8 91bd 556e 823c 91cb eebd 5709 28be
00000120: 1a63 1e3e ae81 b83d 4533 e8bc b2c1 00be
00000130: ad3f ce3d f59b 183e f8e5 06bd 4a31 15be
00000140: 88a2 acbd 8f57 32be 6f96 e83c db3b 403d
00000150: 79b8 96bd 8b2c 18bd f551 233e aafc 043e
00000160: ee4c 1f3d ab0f 4a3d eae1 31be 9172 003e
00000170: 7cba 493d 9516 0dbc 742f 223e a481 4a3c
00000180: fafd 8e3d c53e 38be 6106 0a3d 1996 d5bd
00000190: d16b 913d 1adb a33d 4dd7 c5b8 09f2 3ebe
000001a0: a252 303e 48e8 b83c e128 4abe 968a aebd
000001b0: b2d8 05bc 3aaf d63d 6d6e debd 3684 e43d
000001c0: 7cde 203e 3af0 d53d 848c 863d b593 e13d
000001d0: 9242 c9bd 61b4 273c 3632 24be 7321 ad3d
000001e0: 8ac7 28be 73a5 193d 80c4 c03b ca06 bcbd
000001f0: 9a6b ffbd 688c 23bd 0d83 1dbe b0d6 e73d
00000200: 00db 79bd 6783 28be ad27 19be e196 3d3c
00000210: abd2 9dbd 85dc b1bb 9f48 10be d963 61bd
00000220: 6841 07be 5079 6cbd 21a7 4f3d 042d 483c
00000230: efd2 c9bd d012 f13c 44e4 2bbd a81b 07bd
00000240: 688e f03c c1c3 943d d13c a8bd 39e2 ee3d
00000250: 45bd c0bd 8092 853d 53bc 233e d5f1 793d
00000260: be27 b5bd 7d68 5d3d 9699 f6bd addc ba3d
00000270: 6bec 233e 0f98 843d 3fc3 233e 05cc 043e
00000280: d053 8c3c bcc1 c43d 9723 7d3d 89ea 07bd
00000290: 00e1 18be f38c 5f3c cc9d 39be f97e 38be
000002a0: 8dd7 1a3e 3c28 523d 7f91 773c 0aaa b93d
000002b0: 4abd a0bc 5e3c 2ebe b7aa a3bd 3535 053e
000002c0: 5622 f1bd 452d 2fbe e551 9f3d bd53 133e
000002d0: 2ff4 44be 3c99 313d 0018 c7b8 7253 95bd
000002e0: e021 053e c9fc 20be 300e 2b3d 4d88 b8bd
000002f0: 0748 2cbe e88b adbd 9ef4 57be ea21 133e
00000300: 120b 22be a03d 09be 15c1 f53d 8bcb 09be
00000310: f484 e03d c86d 1c3e 62bd ee3d ee72 223c
00000320: 9238 acbd 9cf6 723d 0cb4 5f3c 74ac b13d
00000330: efb8 c2bd 28fb aa3c c4c2 18be cee6 e03d
00000340: 1897 d5bc 3eb6 823d b477 913d 6ff8 90bd
00000350: ae41 883d 5922 b23d e6eb ab3d 60cf e13c
00000360: 12fe 8cbc 2b86 413d 9ce9 52bd 07ef 2f3e
00000370: 305d 53bd 95da 153e 3831 303e 67aa 033e
00000380: e430 2d3d e689 cdbc c447 84bd ed21 c63d
00000390: 055e 2c3d f74d 373c dfce 02bd 8d56 a3bd
000003a0: f473 dd3d e239 2ebe 5d00 c3bd 0810 afbd
000003b0: 10ca ed3c 8c15 56bd 1e73 bbbd b0fd 22bc
000003c0: d355 c93d e6ae 3fbe c504 533c fa5e 59bd
000003d0: c768 2abd 07e2 cb3d 8c81 403d 7e9d 6bbe
000003e0: 9868 28be e190 083c ea81 993d cba7 99bc
000003f0: a032 88bc 4580 27bd be94 0bbc ef5a 413c

actor.bilin.bias f4 [16]
-0.16367395 0.063902654 0.018633848 0.07594765 0.1660247 -0.18736899 0.05144362 -0.050579578
-0.08460596 -0.053823013 0.108908564 -0.11320368 0.037941895 -0.04520292 -0.06080119 0.09019377
00000000: 259a 27be 65df 823d 03a6 983c 718a 9b3d
00000010: 6102 2a3e a8dd 3fbe 8cb6 523d 882c 4fbd
00000020: e445 adbd 8575 5cbd 740b df3d 55d7 e7bd
00000030: f668 1b3d b226 39bd ab0a 79bd 83b7 b83d

critic.conv1.bias f4 [21]
-0.004269001 0.0 0.20476654 -0.007860481 -0.19981663 -0.043352805 0.0 -0.20942004
0.0 0.0 0.27064702 0.0 0.0 -0.034725107 -0.012633245 -0.158054
-0.012168044 0.083177425 0.0 -0.015123219 -0.26187253
00000000: fae2 8bbb 0000 0000 52ae 513e 3fc9 00bc
00000010: bb9c 4cbe b692 31bd 0000 0000 3572 56be
00000020: 0000 0000 0000 0000 3f92 8a3e 0000 0000
00000030: 0000 0000 ea3b 0ebd acfb 4ebc e8d8 21be
00000040: 7a5c 47bc ed58 aa3d 0000 0000 61c7 77bc
00000050: 2814 86be

critic.conv1.lin.weight f4 [21, 21]
-0.09474539 0.043524824 -0.23247994 -0.087536916 -0.2252373 -0.020310953 -0.3065439 0.25199422
0.18869185 -0.30083784 0.3583377 -0.0495598 -0.2878206 0.23595282 -0.10108393 -0.29743072
-0.031751566 0.16426553 0.2040319 0.39054355 0.34628522 0.07953268 -0.27696264 0.2077674
-0.3035925 0.016075224 -0.17407152 0.3438498 -0.222916 0.04833445 -0.32143337 -0.33589694
-0.057409346 -0.14539416 -0.3524728 -0.0635387 -0.2578601 -0.02792129 -0.25343987 -0.2706548
-0.20780984 0.3470355 -0.16733006 -0.08041653 -0.2820797 0.04903737 -0.13161252 0.04234058
-0.14576377 0.11179285 0.27698267 0.29807207 -0.068113476 0.35782394 0.2638132 0.27013117
0.3788302 0.020334138 -0.08315804 0.13528529 -0.055706054 -0.13459036 0.038020954 -0.28844598
-0.41983226 0.014395031 -0.2833763 0.43912327 -0.19234486 -0.2672844 -0.20153125 0.18553849
-0.18227306 -0.32881874 0.33859465 0.16878495 0.27913982 0.36986944 0.43385717 -0.011743531
0.17746867 -0.1490044 0.059074964 -0.32704982 0.15407276 -0.37711874 -0.04951903 0.22404706
-0.115581505 -0.12652585 -0.13196346 -0.20487055 0.23703094 0.37287554 -0.33631927 -0.1346651
0.31851003 -0.11230909 0.33415568 -0.14169626 0.044551242 0.28862426 0.2470515 -0.017623156
-0.23557767 0.012044885 -0.10502249 0.28786916 0.31833968 0.24126442 0.05309462 -0.062681645
0.014765191 -0.060863882 0.17510812 -0.099840045 -0.28308696 -0.1406979 -0.2919136 0.13443291
0.11059908 0.29154897 0.13657597 -0.04234388 -0.20501292 0.14700612 0.08149859 -0.25557485
-0.049111485 -0.12867738 -0.25998917 0.057178378 0.1296821 -0.32532477 0.34296897 0.29397014
0.007941514 -0.36668628 0.18848965 -0.23293711 0.07188794 0.33255908 -0.21087681 -0.1623908
-0.046864778 0.033296436 0.27575138 0.36556968 -0.13553053 -0.30469683 -0.16315769 0.26588327
0.1654268 0.16455719 -0.20492192 -0.09685928 -0.036388773 0.22241563 -0.21798478 0.028400395
0.27340177 -0.18572699 0.09093485 -0.017609615 -0.14038154 0.120099336 0.33948693 0.055455975
-0.18512136 0.07700342 0.18042985 0.13856736 -0.07132301 0.0073860884 -0.045567602 -0.3272725
-0.2717766 0.07593882 -0.017684162 -0.13553478 0.007260829 -0.17128637 -0.37121743 0.18560854
-0.29903114 0.2553433 -0.28451115 0.24077484 0.13432875 0.02513498 -0.08421558 0.12638894
-0.105502516 -0.011285275 0.032754898 0.18523267 0.1089901 -0.06247136 -0.22250843 -0.17006595
-0.27956474 -0.109324664 -0.057775438 -0.32755786 -0.36160728 0.37413856 -0.22558852 0.25423405
-0.05237007 0.19271997 -0.066683896 0.23671539 0.22419725 0.13593385 -0.18292475 0.2716335
0.22140272 0.21662484 0.1058876 0.11759184 -0.050901156 0.027887894 0.2677536 -0.04280186
-0.032289527 0.30285788 -0.37245327 0.112649426 -0.31222516 -0.2942514 0.27234417 0.013437301
0.13838753 0.34206834 -0.24364276 -0.029967338 -0.30719227 0.2809737 -0.0805428 0.12887761
-0.16980094 -0.29023144 -0.20057915 0.26340947 -0.36156818 -0.31598446 -0.2233887 0.077650964
-0.22143602 -0.22691935 -0.116615 -0.22070989 0.27191803 -0.10190979 -0.32662237 -0.2059457
00000000: df09 c2bd 1647 323d 390f 6ebe 8e46 b3bd
00000010: 9ba4 66be 2863 a6bc 52f3 9cbe 6305 813e
00000020: 7038 413e 6b07 9abe 0a78 b73e 38ff 4abd
00000030: 395d 93be 9e9d 713e 1705 cfbd d748 98be
00000040: ee0d 02bd 3935 283e bded 503e 53f5 c73e
00000050: 4c4c b13e 08e2 a23d 0cce 8dbe fac0 543e
00000060: 7a70 9bbe 30b0 833c ce3f 32be 150d b03e
00000070: 1844 64be 58fa 453d ea92 a4be affa abbe
00000080: 1026 6bbd 35e2 14be 5177 b4be 9420 82bd
00000090: 3d06 84be 30bb e4bc dfc2 81be 4493 8abe
000000a0: 1acc 54be a3ae b13e 9258 2bbe 6cb1 a4bd
000000b0: c06c 90be 69db 483d 6fc5 06be 516d 2d3d
000000c0: 1943 15be a6f3 e43d acd0 8d3e e79c 983e
000000d0: 147f 8bbd b334 b73e 8612 873e a24e 8a3e
000000e0: 08f6 c13e c793 a63c c34e aabd 3a88 0a3e
000000f0: 082c 64bd 0ed2 09be dcbb 1b3d 31af 93be
00000100: 41f4 d6be 23d9 6b3c b316 91be c4d4 e03e
00000110: 0df6 44be 80d9 88be 355e 4ebe cdfd 3d3e
00000120: caa5 3abe ee5a a8be 475c ad3e f6d5 2c3e
00000130: 6aeb 8e3e 875f bd3e 8722 de3e f067 40bc
00000140: 59ba 353e 9c94 18be 97f8 713d 1373 a7be
00000150: 40c5 1d3e b515 c1be 77d4 4abd 986c 653e
00000160: ffb5 ecbd fe8f 01be 6e21 07be 96c9 51be
00000170: 3db8 723e 8be9 be3e 0a32 acbe a6e5 09be
00000180: bf13 a33e 4f02 e6bd 7416 ab3e d318 11be
00000190: 5d7b 363d 8fc6 933e 12fb 7c3e 705e 90bc
000001a0: 463b 71be e957 453c 0816 d7bd 9663 933e
000001b0: 6bfd a23e 050e 773e bf79 593d 3c5f 80bd
000001c0: b3e9 713c 684c 79bd 8b4f 333e f078 ccbd
000001d0: c6f0 90be 1c13 10be b375 95be c8a8 093e
000001e0: c581 e23d e845 953e 92da 0b3e c770 2dbd
000001f0: e8ee 51be c688 163e bce8 a63d b5da 82be
00000200: 2029 49bd 01c4 03be 4d1d 85be e033 6a3d
00000210: 62cb 043e f890 a6be a199 af3e 4183 963e
00000220: 201d 023c 4ebe bbbe 6e03 413e 1187 6ebe
00000230: fc39 933d 2f45 aa3e 17f0 57be c649 26be
00000240: 48f5 3fbd d861 083d 492f 8d3e f32b bb3e
00000250: 84c8 0abe 3901 9cbe cf12 27be da21 883e
00000260: a565 293e ae81 283e 0dd7 51be 285e c6bd
00000270: 650c 15bd ecc0 633e 6737 5fbe f2a7 e83c
00000280: 51fb 8b3e 372f 3ebe 0d3c ba3d 0a42 90bc
00000290: 2ec0 0fbe a4f6 f53d 3bd1 ad3e ce25 633d
000002a0: 7490 3dbe f8b3 9d3d 9ac2 383e 9ae4 0d3e
000002b0: cc11 92bd 0007 f23b 18a5 3abd 4390 a7be
000002c0: 4d26 8bbe d085 9b3d 60de 90bc a1c9 0abe
000002d0: 40ec ed3b b265 2fbe 3610 bebe 2a10 3e3e
000002e0: 9c1a 99be 5bbc 823e 72ab 91be ae8d 763e
000002f0: 7a8d 093e e0e7 cd3c 3879 acbd 1a6c 013e
00000300: b411 d8bd e0e5 38bc 002a 063d a2ad 3d3e
00000310: 3436 df3d f8e1 7fbd 40d9 63be c525 2ebe
00000320: 1c23 8fbe 9ce5 dfbd f0a5 6cbd aab5 a7be
00000330: 9724 b9be 178f bf3e ad00 67be f72a 823e
00000340: 0082 56bd 6258 453e 9191 88bd 8565 723e
00000350: f793 653e 3e32 0b3e a050 3bbe 8c13 8b3e
00000360: 65b7 623e e7d2 5d3e 99db d83d fed3 f03d
00000370: bb7d 50bd 2775 e43c 0017 893e 0151 2fbd
00000380: 0642 04bd 3010 9b3e 32b2 bebe beb4 e63d
00000390: fadb 9fbe 1fa8 96be b270 8b3e 2028 5c3c
000003a0: 76b5 0d3e 9523 af3e 7d7d 79be 107e f5bc
000003b0: 4e48 9dbe c9db 8f3e a0f3 a4bd 7ef8 033e
000003c0: 4ce0 2dbe 3799 94be 9f64 4dbe 9bdd 863e
000003d0: 771f b9be b7c8 a1be 02c0 64be 7807 9f3d
000003e0: 20c0 62be 8c5d 68be d8d3 eebd c601 62be
000003f0: d738 8b3e 14b6 d0bd 0c3b a7be 6ee3 52be
