saved_files/ckpt/nyc4/a2c_gnn_test_imitate.pth (torch, 90321 bytes, 60 tensors)

actor.log_rate f4 [16, 16]
0	0x409fadef	4.989982
1	0x40a00ebe	5.0017996
2	0x409ffba7	4.9994693
3	0x409fe067	4.996143
4	0x40a02377	5.004329
5	0x40a0a4b4	5.0201054
6	0x40a03739	5.006741
7	0x40a00dd6	5.001689
8	0x40a044f9	5.0084195
9	0x409fda0d	4.9953675
10	0x409ff933	4.99917
11	0x409f8fbf	4.986297
12	0x40a00fdf	5.0019374
13	0x40a01856	5.0029707
14	0x40a04c6f	5.0093303
15	0x409fc762	4.9930887
16	0x409f9ab2	4.9876337
17	0x40a04aa6	5.0091124
18	0x409ff995	4.9992166
19	0x409fed63	4.997728
20	0x409fb254	4.9905186
21	0x40a00018	5.0000114
22	0x409fdc02	4.9956064
23	0x40a03079	5.005917
24	0x40a04b7a	5.0092134
25	0x40a08a08	5.0168495
26	0x40a09b76	5.018977
27	0x409fdd7f	4.995788
28	0x409faa1c	4.9895153
29	0x40a0407d	5.007872
30	0x409f9c3c	4.9878216
31	0x409fc1d6	4.9924116
32	0x40a0a61e	5.020278
33	0x409fefdb	4.998029
34	0x40a00fac	5.001913
35	0x409ff318	4.9984245
36	0x40a02fa4	5.0058155
37	0x40a08792	5.016549
38	0x40a00eb5	5.0017953
39	0x40a07f0d	5.015509
40	0x40a02221	5.004166
41	0x409fba6f	4.991508
42	0x40a03116	5.005992
43	0x40a00855	5.001017
44	0x40a02e63	5.0056624
45	0x409ff189	4.9982343
46	0x40a054e2	5.0103617
47	0x409fe1b9	4.996304
48	0x409f9910	4.9874344
49	0x409fab63	4.989671
50	0x40a08d1b	5.017225
51	0x409ffea4	4.999834
52	0x40a06022	5.011735
53	0x40a02dd3	5.005594
54	0x409f35e4	4.9753284
55	0x409fe9fc	4.9973125
56	0x40a0164b	5.0027213
57	0x409fcfe0	4.9941254
58	0x409fc21c	4.992445
59	0x409f609b	4.9805427
60	0x40a04272	5.008111
61	0x40a05239	5.010037
62	0x409ffa4e	4.999305
63	0x40a00d90	5.0016556
64	0x40a03c16	5.0073347
65	0x409fcccd	4.99375
66	0x40a03622	5.006608
67	0x40a005cf	5.000709
68	0x409fe475	4.996638
69	0x409f8890	4.98542
70	0x40a08482	5.0161753
71	0x40a07662	5.014451
72	0x40a053d8	5.010235
73	0x40a030b6	5.005946
74	0x40a00498	5.0005608
75	0x40a04bc0	5.009247
76	0x409ffcdd	4.999617
77	0x409f6696	4.9812727
78	0x409fe72f	4.9969707
79	0x409fa015	4.9882913
80	0x409fac55	4.9897866
81	0x40a02910	5.0050125
82	0x40a01d0c	5.0035458
83	0x409fe4bb	4.996671
84	0x40a0579a	5.0106936
85	0x409fb393	4.9906707
86	0x40a00010	5.0000076
87	0x409f894a	4.985509
88	0x40a0072b	5.000875
89	0x409fdbf7	4.995601
90	0x40a08013	5.015634
91	0x40a040fa	5.0079317
92	0x409fdaa1	4.995438
93	0x409fed8a	4.9977465
94	0x409fbd9d	4.991896
95	0x409fd85e	4.995162
96	0x40a0078e	5.000922
97	0x409fac5d	4.9897904
98	0x40a093b1	5.0180287
99	0x409ffda3	4.9997115
100	0x40a08948	5.016758
101	0x409fe9a8	4.9972725
102	0x409fcfb8	4.9941063
103	0x409f5ae3	4.9798446
104	0x409f6ec6	4.982272
105	0x40a01661	5.002732
106	0x409fd062	4.9941874
107	0x40a05ddb	5.011457
108	0x40a06918	5.012829
109	0x409f98f5	4.9874215
110	0x409fcc0c	4.993658
111	0x409faafc	4.989622
112	0x409ff17c	4.998228
113	0x40a066bd	5.0125413
114	0x409fb1a4	4.9904346
115	0x409fb9b6	4.99142
116	0x40a01b9e	5.0033712
117	0x409fed11	4.997689
118	0x409fd0c9	4.9942365
119	0x40a06bfe	5.0131826
120	0x409fc659	4.9929624
121	0x40a0243a	5.004422
122	0x409fd2d0	4.994484
123	0x409ff2e6	4.9984007
124	0x409fcd41	4.9938054
125	0x40a082f9	5.015988
126	0x40a01acb	5.0032706
127	0x409fb0ac	4.9903164
128	0x409ff34b	4.998449
129	0x409fc12e	4.9923315
130	0x40a03613	5.006601
131	0x409fb2de	4.9905844
132	0x409fcfb0	4.9941025
133	0x409fa07d	4.988341
134	0x40a002d6	5.000346
135	0x40a064fc	5.012327
136	0x40a05479	5.0103116
137	0x40a016ad	5.002768
138	0x409f8ee2	4.9861917
139	0x40a01b9f	5.0033717
140	0x40a022bb	5.0042396
141	0x409f8daf	4.9860454
142	0x409fbd65	4.9918694
143	0x409ffb7c	4.999449
144	0x40a03d23	5.007463
145	0x40a01ec4	5.0037556
146	0x409fe967	4.9972415
147	0x409fc3b4	4.9926395
148	0x409fa564	4.9889393
149	0x40a08d26	5.01723
150	0x40a020de	5.004012
151	0x409f8a0e	4.9856024
152	0x409f9658	4.9871025
153	0x40a00f4b	5.001867
154	0x40a00759	5.000897
155	0x409fbf9d	4.9921403
156	0x409fe3bb	4.996549
157	0x40a0112d	5.0020967
158	0x409fb850	4.991249
159	0x40a0874a	5.016515
160	0x40a03fc6	5.007785
161	0x409fe061	4.99614
162	0x40a00000	5.0
163	0x409fb98e	4.9914007
164	0x409fbc65	4.9917474
165	0x409fd927	4.995258
166	0x40a02c57	5.0054126
167	0x409fe51a	4.9967165
168	0x409ff2c2	4.9983835
169	0x40a02998	5.0050774
170	0x409fcc1a	4.9936647
171	0x409ff3a9	4.9984937
172	0x409fbaa9	4.9915357
173	0x40a05d91	5.0114217
174	0x40a08032	5.015649
175	0x409ee9fd	4.966063
176	0x40a05b6c	5.01116
177	0x40a05a5d	5.0110307
178	0x409f90cf	4.986427
179	0x40a02736	5.0047865
180	0x40a027f3	5.0048766
181	0x409ffc85	4.999575
182	0x40a02d2d	5.0055146
183	0x40a01bad	5.0033784
184	0x40a00b3f	5.001373
185	0x40a037d5	5.0068154
186	0x409fb7ff	4.9912105
187	0x40a04378	5.008236
188	0x409fea20	4.9973297
189	0x40a02786	5.0048246
190	0x409fc222	4.992448
191	0x409fe25b	4.9963813
192	0x40a07a18	5.014904
193	0x409fcbab	4.993612
194	0x409f8b8b	4.985784
195	0x40a01733	5.002832
196	0x40a05cd2	5.0113306
197	0x409ffcc0	4.9996033
198	0x40a0271b	5.0047736
199	0x409f8b42	4.9857492
200	0x409ffcbf	4.999603
201	0x40a012db	5.0023017
202	0x409fc5e8	4.9929085
203	0x40a081ab	5.0158286
204	0x40a014aa	5.0025225
205	0x409ff49d	4.99861
206	0x40a05e68	5.011524
207	0x40a01b36	5.0033216
208	0x40a02ee9	5.0057263
209	0x409ff4d6	4.998637
210	0x409ff8f6	4.9991407
211	0x409f90f1	4.986443
212	0x40a034a8	5.006428
213	0x409fb191	4.9904256
214	0x40a080f4	5.0157413
215	0x409f9f7b	4.988218
216	0x40a02595	5.0045877
217	0x40a0797c	5.0148296
218	0x40a012e7	5.0023074
219	0x409ff547	4.998691
220	0x40a03100	5.0059814
221	0x409fd992	4.995309
222	0x40a040ac	5.0078945
223	0x409fc9d7	4.9933887
224	0x40a07fd1	5.0156026
225	0x409fcbf8	4.9936485
226	0x409ff274	4.9983463
227	0x40a03791	5.006783
228	0x40a04111	5.0079427
229	0x40a05f8e	5.0116644
230	0x409fc51c	4.992811
231	0x409fbce6	4.991809
232	0x40a06ef2	5.013543
233	0x409ff7a2	4.9989786
234	0x40a03fd5	5.007792
235	0x409ffe93	4.999826
236	0x40a03ff5	5.0078073
237	0x40a08768	5.016529
238	0x40a03ccd	5.007422
239	0x409ff160	4.9982147
240	0x40a00be3	5.001451
241	0x409ff5b0	4.998741
242	0x40a04f69	5.0096936
243	0x409fee06	4.9978056
244	0x409fce37	4.9939227
245	0x40a048c8	5.0088844
246	0x409ff1bd	4.998259
247	0x409fa743	4.9891677
248	0x40a0c196	5.023631
249	0x409fe26c	4.9963894
250	0x40a0587f	5.0108027
251	0x409ff8ce	4.9991217
252	0x40a02f19	5.005749
253	0x40a0005f	5.0000453
254	0x40a0338a	5.0062914
255	0x40a00bc0	5.0014343

actor.conv1.bias f4 [21]
0	0xbc936729	-0.017993527
1	0xbc19faea	-0.0093982015
2	0xbcefb496	-0.029260915
3	0xbc46a220	-0.012123615
4	0x3d639cb7	0.055569377
5	0x3c5d5271	0.013508425
6	0x3dd15bc7	0.10222583
7	0x3ddbb5bb	0.10728022
8	0x3dd4ea8f	0.10396301
9	0x3ae84244	0.0017719944
10	0xbd1b0aea	-0.037852205
11	0xbc37b73d	-0.011213121
12	0x3d16806a	0.03674356
13	0xbbb08cf6	-0.0053878976
14	0x00000000	0.0
15	0x00000000	0.0
16	0xbbade697	-0.0053070295
17	0x3d95332d	0.07285152
18	0x3a3ea9ab	0.00072732073
19	0x3da811d5	0.08206526
20	0xbbd04060	-0.0063553303

actor.conv1.lin.weight f4 [21, 21]
0	0x3ea7c4eb	0.32767424
1	0xbd9b2fa0	-0.07577443
2	0x3d993b4d	0.07482014
3	0x3de2097c	0.11036965
4	0x3ea3ada5	0.31968418
5	0xbe94bc53	-0.2904993
6	0xbeb23cca	-0.34812003
7	0x3d8d8611	0.06910337
8	0xbe63dd20	-0.22252321
9	0x3dce91d2	0.10086407
10	0xbc6d6a40	-0.014490664
11	0xbd8cef42	-0.06881572
12	0xbe8b9c58	-0.27267718
13	0xbdd8d19a	-0.10586853
14	0x3dde86f6	0.108655855
15	0xbec28e0d	-0.37999
16	0x3da001bf	0.07812833
17	0x3e9d2d43	0.30698594
18	0x3e0e3d0f	0.1389048
19	0x3db58370	0.0886296
20	0xbd8161c3	-0.06317475
21	0xbe18bfd1	-0.14916922
22	0xbd98e85f	-0.07466196
23	0xbe49d9f7	-0.19712053
24	0x3d0ec196	0.034852587
25	0xbe96ae30	-0.2942977
26	0xbe9b459a	-0.3032654
27	0xbe6fa6fe	-0.23403546
28	0x3cd0f599	0.025507735
29	0x3e89d604	0.26921093
30	0x3de1ade4	0.11019495
31	0x3e7fab5e	0.24967715
32	0x3e4fe910	0.2030375
33	0xbe7279ec	-0.23679322
34	0xbd10e2fc	-0.03537272
35	0x3ea550b9	0.3228815
36	0xbe101dcd	-0.14073868
37	0xbe42742a	-0.18989626
38	0x3d92a927	0.071611695
39	0xbebfba45	-0.374468
40	0x3e4ab46e	0.19795391
41	0xbe821413	-0.2540594
42	0xbc5188ed	-0.012788993
43	0x3df92131	0.12164534
44	0xbd22eaa4	-0.039774552
45	0x3e168cc2	0.14702132
46	0x3e5d0238	0.21582878
47	0x3d00d5d2	0.031453915
48	0xbea6f8b5	-0.32611623
49	0x3bb956fd	0.0056561218
50	0xbe553ce0	-0.20824003
51	0x3dbc8ebd	0.09206913
52	0xbe89f255	-0.26942697
53	0x3e22c9d1	0.158973
54	0x3c208594	0.0097974725
55	0x3e059094	0.13043433
56	0xbe82562f	-0.25456378
57	0xbd8d7496	-0.06907003
58	0x3e72c86f	0.23709272
59	0xbe47ce87	-0.19512378
60	0xbed03af5	-0.4066998
61	0x3d19cbcb	0.037547868
62	0x3df483fe	0.11939238
63	0x3d1452b4	0.036211684
64	0x3eb1a128	0.34693265
65	0xbe974acb	-0.2954925
66	0x3e17f2aa	0.14838663
67	0xbe270250	-0.16309476
68	0x3e96699d	0.29377452
69	0x3e4a903f	0.19781588
70	0xbdaeb369	-0.085303135
71	0xbdae762a	-0.08518632
72	0x3e4e770f	0.20162605
73	0xbeaa690d	-0.33283272
74	0xbd3c3777	-0.045951333
75	0xbe592369	-0.21204914
76	0x3e44bae5	0.1921192
77	0xbe89c848	-0.26910615
78	0xbe6b9615	-0.2300647
79	0xbea2891c	-0.3174523
80	0x3db2a551	0.08722938
81	0xbe89caaa	-0.26912433
82	0xbd88aac1	-0.06673194
83	0xbc32e573	-0.010918963
84	0x3ef11497	0.4708602
85	0x3ebd74d3	0.37003192
86	0x3ecf6006	0.40502948
87	0x3ec6ed69	0.38853005
88	0xbd05b939	-0.032647345
89	0x3ead09b5	0.33796468
90	0x3ec8135f	0.3907728
91	0x3ef3dcdc	0.4762944
92	0x3f02c944	0.51088357
93	0x3e4026a8	0.18764746
94	0x3deb05b0	0.11475694
95	0x3ebc88f8	0.3682325
96	0x3eaa8e59	0.33311728
97	0x3eb2d3ff	0.34927365
98	0xbe9001f3	-0.28126487
99	0x3ebd4f65	0.36974636
100	0x3e68d1e5	0.22736318
101	0xbdb2bb99	-0.08727188
102	0x3eaadff5	0.3337399
103	0x3ea884af	0.3291373
104	0x3e928f0a	0.28624755
105	0x3e00f1a8	0.12592185
106	0xbe6864ab	-0.22694652
107	0x3d41d693	0.047323775
108	0xbdef7d50	-0.11693823
109	0xbd477991	-0.04869992
110	0x3e2836e9	0.16427197
111	0x3c98efa6	0.01866896
112	0x3dd8726b	0.105686985
113	0xbe812109	-0.25220516
114	0x3e7cab3e	0.24674699
115	0xbe671998	-0.22568357
116	0xbe01449b	-0.12623827
117	0x3ea39031	0.31945947
118	0x3ea05424	0.31314194
119	0xbe598fde	-0.21246287
120	0x3e1b65fa	0.1517562
121	0xbe750e82	-0.23931316
122	0x3e9464c9	0.28983143
123	0xbd2e5bcb	-0.04256801
124	0xbebdca19	-0.3706825
125	0xbe8737fd	-0.26409903
126	0x3e0143e5	0.12623556
127	0x3e11c3d7	0.14234863
128	0x3ec86bc9	0.39144734
129	0xbe03da47	-0.12876235
130	0x3e851582	0.25992972
131	0xbbb80ccc	-0.00561676
132	0x3f0c2416	0.5474256
133	0x3cc0a9f1	0.023518534
134	0x3d9c9d4a	0.07647188
135	0x3f186d70	0.5954199
136	0x3e23142a	0.1592566
137	0x3dca9365	0.098913945
138	0x3e3dc812	0.18533352
139	0x3dc9da09	0.0985604
140	0x3e72930a	0.23688903
141	0x3e8947b4	0.26812518
142	0x3da3da49	0.08000619
143	0x3ee3c86a	0.4448884
144	0x3eaa5e90	0.3327527
145	0xbe77f16f	-0.24213193
146	0xbd8f460b	-0.069957815
147	0xbd844f33	-0.064604186
148	0x3eb9a8b3	0.3626152
149	0x3ebe4201	0.37159732
150	0x3eeeeeae	0.46666473
151	0x3f03a7bd	0.51427823
152	0x3cb78c9f	0.02240592
153	0x3ef6684f	0.48126456
154	0x3e98ff60	0.29882336
155	0x3e304de5	0.17217214
156	0x3edad2ab	0.42738852
157	0x3deced61	0.11568714
158	0xbe57b634	-0.21065599
159	0x3e59e83d	0.21279998
160	0x3e5d6c74	0.21623403
161	0x3d071f32	0.032988735
162	0x3eee9538	0.4659822
163	0x3e909c13	0.28244075
164	0x3d70f080	0.05882311
165	0xbc6a0297	-0.014282844
166	0x3e85d967	0.26142427
167	0x3ecce82e	0.4002089
168	0x3d0f699c	0.035012826
169	0x3e399028	0.18121397
170	0x3e2ea613	0.1705554
171	0x3ef9cbe4	0.4878837
172	0x3f10048f	0.56256956
173	0x3e3dc9b4	0.18533975
174	0x3f05d56f	0.522788
175	0x3f0cf297	0.5505766
176	0x3d4e0869	0.05030099
177	0xbd6b5aef	-0.057459768
178	0x3f07b37a	0.53008235
179	0x3e3d875c	0.18508667
180	0xbe67bbd6	-0.22630247
181	0x3ed0f220	0.40809727
182	0x3ef287ee	0.4736933
183	0x3ec9fc03	0.39450082
184	0x3db8e5cd	0.09028206
185	0x3e943aad	0.28951016
186	0x3eaa2e82	0.33238608
187	0xbe0c95c2	-0.13729003
188	0x3d759330	0.059954822
189	0x3e62a066	0.221315
190	0xbe8d709b	-0.27624974
191	0x3e98f535	0.29874578
192	0x3e6288e7	0.22122537
193	0x3d570fd7	0.05250534
194	0xbe81945c	-0.25308502
195	0xbeafeb44	-0.3435918
196	0x3e8cf554	0.2753092
197	0x3e8346b6	0.25639886
198	0x3da808a0	0.0820477
199	0x3e9dff05	0.30858627
200	0xbe8aa284	-0.27077115
201	0x3dcfa5ed	0.1013907
202	0xbeac85e6	-0.33695906
203	0x3ca76e66	0.020438384
204	0xbd1da84d	-0.038490582
205	0x3e4f8102	0.20264056
206	0xbe505a92	-0.2034705
207	0xbeadc6e8	-0.33940816
208	0x3dbaf349	0.09128434
209	0xbda4dd24	-0.08049992
210	0x3bab86a3	0.005234556
211	0xbe8562c5	-0.26051918
212	0x3e779b33	0.24180298
213	0x3e8f34f8	0.279701
214	0xbe1fa88c	-0.1559164
215	0xbe91f0ff	-0.28504178
216	0x3e55cbdf	0.20878552
217	0xbe98b097	-0.29822227
218	0xbe34b057	-0.17645393
219	0xbebdb207	-0.37049887
220	0xbe811df8	-0.25218177
221	0xbd5fd9ca	-0.05465106
222	0x3e0eb7a2	0.13937238
223	0xbe4e1b81	-0.2012768
224	0x3e8fa21f	0.28053376
225	0xbd94a283	-0.07257559
226	0x3d2a8af8	0.041636437
227	0xbe45ac57	-0.19304024
228	0x3e92a5bf	0.2864208
229	0xbe567de1	-0.20946456
230	0x3d7ec609	0.06220058
231	0x3e5ea7c1	0.2174368
232	0x3da59b4f	0.080862634
233	0x3de96c60	0.11397624
234	0xbea14627	-0.31498834
235	0x3e22c187	0.15894137
236	0x3eb42575	0.35184827
237	0xba8d8c3c	-0.0010799239
238	0x3decf407	0.11569982
239	0xbe3dd5ab	-0.18538539
240	0x3dce9ef0	0.10088909
241	0x3d37154c	0.044698045
242	0xbdff4df5	-0.12466041
243	0x3d9de6dc	0.077100486
244	0x3d469a5f	0.048487063
245	0xbeb1bfaf	-0.34716555
246	0x3e75131c	0.23933071
247	0xbd73d941	-0.05953336
248	0x3dfbb429	0.12290222
249	0xbeb541cc	-0.35401762
250	0xbdfef11c	-0.12448332
251	0xbc586c07	-0.0132093495
252	0x3ebad80b	0.36492953
253	0xbcfac085	-0.030609379
254	0x3e8384a4	0.25687134
255	0x3e901394	0.28139937

actor.lin1.weight f4 [32, 21]
0	0xbda69f6d	-0.08135877
1	0xbdbb9c90	-0.09160721
2	0xbe11ed5e	-0.14250705
3	0x3e6349d4	0.22196132
4	0xbd55fc97	-0.05224284
5	0xbc04f612	-0.008115308
6	0xbc880bac	-0.016607128
7	0xbdbef3ea	-0.09323867
8	0x3e0f6ed9	0.14007129
9	0xbdd36e11	-0.10323728
10	0x3db99843	0.09062245
11	0x3e07d2f2	0.13264063
12	0xbe0193f1	-0.12654091
13	0xbbbf2f5f	-0.0058345045
14	0xbdf11987	-0.11772447
15	0xbe05475d	-0.13015504
16	0xbde9009e	-0.11377071
17	0xbd8130fb	-0.063081704
18	0xbd91c5b2	-0.071177855
19	0x3dd82353	0.105536126
20	0x3cdc4ca9	0.026892023
21	0x3ebbd9b6	0.36689538
22	0x3e9dd059	0.3082302
23	0xbaf1753c	-0.0018421779
24	0x3e012f41	0.12615682
25	0x3eacd2de	0.3375463
26	0x3ec78775	0.38970533
27	0x3c8a28ca	0.016865153
28	0x3eb835fa	0.3597868
29	0x3ece94f5	0.4034802
30	0x3e9c4f21	0.3052912
31	0x3ed4351f	0.41446778
32	0xbdf24e66	-0.118313596
33	0xbe0ccd3d	-0.13750167
34	0xbdca1b0d	-0.09868441
35	0xbde8dc3c	-0.113701314
36	0xbeab37bd	-0.33440962
37	0xbd3d49cc	-0.046212956
38	0x3e2b2c56	0.16716132
39	0x3dfaff03	0.12255671
40	0x3e22a8ed	0.15884753
41	0xbe102b14	-0.14078933
42	0x3ebeeca1	0.3728991
43	0x3dc5ec05	0.09664158
44	0x3d044f7f	0.032302376
45	0x3eaf34f3	0.34220085
46	0x3dcd6bfc	0.10030362
47	0x3ed8d267	0.42348024
48	0x3e48dffd	0.19616695
49	0x3e972275	0.29518476
50	0x3e41820a	0.18897262
51	0x3e951317	0.29116127
52	0x3e335ae3	0.1751514
53	0xbdc4c0ce	-0.09607087
54	0xbcef25d5	-0.029192844
55	0xbe80a402	-0.25125128
56	0xbe496e5c	-0.19671005
57	0xbdd5d9ec	-0.10441956
58	0x3de20ff1	0.11038197
59	0x3cc8f3c4	0.024530299
60	0x3aa20dfe	0.0012363789
61	0x3df17c30	0.11791265
62	0x3d3d0fd3	0.04615767
63	0x3e6ddb0e	0.23228094
64	0x3e846e92	0.25865608
65	0x3deb791c	0.11497709
66	0x3eff082f	0.4981093
67	0x3e8f8029	0.28027466
68	0x3e7c43e2	0.2463527
69	0x3eb62b12	0.35579735
70	0x3e914a63	0.28377065
71	0x3ea72201	0.3264313
72	0x3f064b9e	0.5245913
73	0x3ee8ab4f	0.45443198
74	0xbe5b5fbc	-0.21423239
75	0xbd2e64b6	-0.042576514
76	0xbd24550e	-0.040120177
77	0xbd19d791	-0.037559096
78	0x3de204d8	0.1103608
79	0xbcf3a44e	-0.029741433
80	0xbe6aa6c5	-0.2291518
81	0xbe2b86e7	-0.1675068
82	0x3de6740c	0.11252603
83	0xbda11aca	-0.07866438
84	0xbbae1814	-0.005312929
85	0x3dcad1ba	0.099032834
86	0xbe005fb1	-0.12536503
87	0x3de115fc	0.10990521
88	0xbe425c49	-0.18980516
89	0xbe0215b9	-0.12703599
90	0x3dcabfd1	0.09899867
91	0xbd6c7b0a	-0.057734527
92	0xbe49d3a7	-0.19709645
93	0x3caf7d74	0.021422125
94	0xbd069bdf	-0.032863494
95	0xbdc05a9c	-0.09392282
96	0x3df97b9d	0.121817805
97	0xbd4988d6	-0.049202763
98	0xbdcc959c	-0.09989473
99	0x3e191527	0.14949475
100	0x3e16ebad	0.1473834
101	0x3d50d53a	0.0509846
102	0xbc705b21	-0.014670164
103	0x3e4d8494	0.20070106
104	0xbdd41691	-0.10355867
105	0x3d14e2f1	0.03634924
106	0x3eb2c28d	0.34914055
107	0x3db3c26d	0.08777318
108	0x3daf67e3	0.08564737
109	0xbc8ddf0d	-0.017318273
110	0x3e87d207	0.26527426
111	0x3ebc7de4	0.36814797
112	0x3e4c75aa	0.1996676
113	0xbd428144	-0.04748656
114	0x3e8288b9	0.25494936
115	0x3e2b3929	0.16721024
116	0xbd4c1edb	-0.049834114
117	0x3daa556e	0.08317076
118	0x3d72d03f	0.05928063
119	0xbe3b29cd	-0.18277664
120	0xbca925d7	-0.020647926
121	0x3d3ca4de	0.046055667
122	0x3e089d1f	0.13341187
123	0x3da61a90	0.08110535
124	0xbdcdc1fe	-0.10046767
125	0xbcfa5a89	-0.030560749
126	0xbe4a6e00	-0.19768524
127	0xbe6a4c28	-0.22880614
128	0x3ddf1146	0.108919665
129	0xbd82c344	-0.063849
130	0xbd858b9c	-0.06520769
131	0x3e346bd9	0.17619266
132	0x3dd84874	0.10560694
133	0xbe55e6d4	-0.20888835
134	0x3debed42	0.11519863
135	0xbe4fd7e9	-0.20297207
136	0x3d12b2f0	0.03581518
137	0xbc2d049c	-0.010560181
138	0x3cc138a0	0.023586571
139	0xbdaf92a7	-0.085728936
140	0x3e3414e5	0.17586096
141	0xbe209a82	-0.1568394
142	0xbd4a9599	-0.049459074
143	0x3b97297e	0.0046131006
144	0x3d4dbaf5	0.050227124
145	0xbd5e09e8	-0.054208666
146	0xbd3f68f8	-0.046730965
147	0x3ec8d8a0	0.39227772
148	0x3ea4bef7	0.32176945
149	0x3ea09dce	0.31370395
150	0x3e2c7c02	0.1684418
151	0x3e2cefec	0.16888398
152	0x3edf82ed	0.43654576
153	0x3ed5cd95	0.4175841
154	0x3e78e5b1	0.2430637
155	0x3ecd4346	0.40090388
156	0x3ec089f0	0.37605238
157	0x3ed10a0f	0.40827987
158	0xbd77df0c	-0.06051545
159	0x3d29018a	0.041261233
160	0xbc3dce56	-0.011584839
161	0xbe1ae26d	-0.15125437
162	0xbe6a8859	-0.22903575
163	0xbd8cf417	-0.06882494
164	0x3d9bc6a3	0.07606246
165	0xbe55d05d	-0.20880266
166	0x3ddb7dad	0.1071733
167	0xbe15c037	-0.14624105
168	0xbdeec1e3	-0.11658075
169	0x3e1cb77f	0.15304373
170	0xba8a8c93	-0.0010570459
171	0x3e29b0db	0.16571371
172	0xbe1ed88d	-0.15512295
173	0xbe368f11	-0.17828013
174	0xbe2f11b3	-0.17096595
175	0x3d98e237	0.07465022
176	0x3c4f892a	0.01266698
177	0x3e435c44	0.19078165
178	0xbcb7434f	-0.022370962
179	0xbddaa80e	-0.10676585
180	0xbdc551ee	-0.096347675
181	0xbe0327b4	-0.12808114
182	0xbc53ebd2	-0.012934642
183	0xbe2a456c	-0.16628045
184	0xbd7adf65	-0.061248202
185	0x3d1f1445	0.03883769
186	0x3dd25185	0.10269455
187	0x3d369cc6	0.044583105
188	0x3e3cdf0e	0.18444464
189	0x3e8af574	0.2714039
190	0x3ecd747b	0.4012793
191	0x3cf06bc9	0.029348271
192	0x3da6885a	0.08131476
193	0x3e2b8c9e	0.1675286
194	0x3e1dd0fb	0.15411751
195	0x3ed6c7e4	0.4194938
196	0x3ea72cf6	0.3265149
197	0x3ecea6ff	0.40361783
198	0x3f0c3fee	0.5478505
199	0x3e4527f9	0.1925353
200	0xbe78ecba	-0.24309054
201	0xbe7b0904	-0.24515158
202	0xbe1b564e	-0.15169641
203	0x3da853b3	0.08219089
204	0xbc9f1e4b	-0.019423625
205	0xbe94e612	-0.2908178
206	0x3d2a1f46	0.04153373
207	0xbc847eeb	-0.0161738
208	0x3c94cbf7	0.018163664
209	0x3d94ac16	0.07259385
210	0xbe523bfc	-0.20530695
211	0xbdc0a541	-0.0940652
212	0x3dcd5ea7	0.10027819
213	0x3e34668a	0.1761724
214	0xbe237c60	-0.15965414
215	0x3d805da6	0.06267862
216	0x3e88a412	0.26687676
217	0x3dd5d5d2	0.104411736
218	0x3e2a92cf	0.16657566
219	0xbe0ab02d	-0.13543768
220	0xbe4c39cc	-0.19943923
221	0x3e081185	0.13287933
222	0xbd8ca8c3	-0.06868126
223	0xbd8db3a9	-0.06919033
224	0x3dd297f3	0.10282888
225	0x3e9249cd	0.2857193
226	0x3dec6f53	0.11544671
227	0x3d198283	0.03747798
228	0x3da1fa96	0.079091236
229	0xbd0a4e2b	-0.033765953
230	0xbd14e954	-0.03635533
231	0x3d3d23e3	0.046176802
232	0xbe23f8d6	-0.16012892
233	0xbe8a43ca	-0.27004844
234	0xbe8b39fc	-0.27192676
235	0xbe84c83b	-0.25934014
236	0xbe060c53	-0.13090639
237	0xbe63023e	-0.22168824
238	0x3dcf0ac5	0.10109476
239	0xbe5dbee1	-0.21654846
240	0xbdefa747	-0.117018275
241	0x3d9b3a8e	0.07579528
242	0x3e08c80f	0.13357566
243	0x3e3dca01	0.1853409
244	0xbdd6b4de	-0.104837164
245	0x3c899d8b	0.016798755
246	0x3e488c47	0.19584762
247	0xbb0fa2c2	-0.002191708
248	0xbe2bbb9c	-0.16770786
249	0x3e15bc02	0.146225
250	0x3de400e0	0.111329794
251	0x3e50e13a	0.20398417
252	0x3f08f3ca	0.5349699
253	0x3ec98c8a	0.39365035
254	0x3e65c30f	0.2243769
255	0x3e1466a2	0.14492276

actor.lin1.bias f4 [32]
0	0x3e2ba7e7	0.16763268
1	0x3cfda8bb	0.030964246
2	0x3d7dd931	0.061974708
3	0x3ddb92b8	0.10721344
4	0x3e464b4f	0.19364665
5	0x3c86af49	0.016441004
6	0xbe2a5dd1	-0.1663735
7	0x3dc2083b	0.09474226
8	0xbd8771c8	-0.06613499
9	0x3d9ab0d5	0.07553259
10	0xbd0e6512	-0.034764357
11	0x3d3b0545	0.045659322
12	0x3e384c78	0.1799792
13	0x3db9557e	0.090495095
14	0xbc8b0fd5	-0.016975323
15	0x3d480893	0.048836302
16	0x3e1e6f44	0.15472132
17	0x3e70995c	0.23496002
18	0x3e479c82	0.19493297
19	0x3e9ec5a9	0.31010178
20	0xbe462b0b	-0.19352357
21	0x3d148842	0.036262758
22	0x3e2652c0	0.16242504
23	0x3e22a2bc	0.1588239
24	0xbc987498	-0.018610284
25	0xbd1d578f	-0.03841358
26	0xbd42f6f0	-0.04759878
27	0x3e7a2d71	0.24431397
28	0x3d613324	0.054980412
29	0x3d40e6a4	0.047094956
30	0x3e75c249	0.23999895
31	0xbe572d79	-0.2101344

actor.lin2.weight f4 [32, 32]
0	0xbde73da0	-0.11291051
1	0x3e139b6b	0.14414756
2	0x3e8ef632	0.27922207
3	0x3eb11a26	0.34590262
4	0xbe30a748	-0.17251313
5	0x3dfcf3d2	0.123511925
6	0xbccb1158	-0.024788544
7	0x3e9fb4e3	0.31192693
8	0xbe11590e	-0.14194128
9	0x3e6224e9	0.22084393
10	0x3ce2428a	0.027619619
11	0x3c425bb7	0.011862687
12	0x3ec3587c	0.38153446
13	0x3dd73496	0.10508077
14	0x3e83fc05	0.25778213
15	0x3df2c645	0.11854223
16	0xbe1773b3	-0.1479023
17	0xbcf54780	-0.02994132
18	0x3e2a4fb2	0.16631964
19	0x3eb639aa	0.3559087
20	0xbd06ed1c	-0.03294097
21	0x3e7d1e62	0.24718621
22	0x3cae3d0d	0.021269346
23	0x3e19de6b	0.15026252
24	0x3d00e9ac	0.031472847
25	0xbdc3875a	-0.09547301
26	0xbda450ff	-0.08023261
27	0x3e7fb8ec	0.24972886
28	0x3dd05c60	0.10173869
29	0x3d84b812	0.06480421
30	0x3e5ee5c6	0.21767339
31	0xbdce5b7c	-0.10076043
32	0xbdbb1ee5	-0.09136752
33	0xbe306adb	-0.17228262
34	0xbe09a6e6	-0.13442573
35	0xbd0f28c0	-0.03495097
36	0x3e27c27b	0.16382782
37	0xbd93d3ab	-0.07218107
38	0xbd27a090	-0.04092461
39	0xbe2ea0da	-0.17053548
40	0xbe2a1181	-0.1660824
41	0xbd6037c4	-0.054740682
42	0xbd76976c	-0.060203
43	0x3e0c1afb	0.13682167
44	0xbdd6ab30	-0.1048187
45	0xbdec9dc2	-0.115535274
46	0x3d2d0a74	0.042246297
47	0xbd397030	-0.045273006
48	0x3e323e75	0.17406638
49	0x3d952c0e	0.072837934
50	0xbc8538c8	-0.016262427
51	0x3c769c00	0.015051842
52	0xbe27ef48	-0.16399872
53	0x3d3bcf9c	0.04585229
54	0xbdeae62c	-0.11469683
55	0xbd92a9de	-0.07161306
56	0xbd0c7210	-0.034288466
57	0xbd85bb2f	-0.06529843
58	0xbc944680	-0.018100023
59	0xbd921919	-0.07133693
60	0x3ba00be0	0.004884228
61	0x3c645090	0.013935223
62	0xbcaeb428	-0.02132614
63	0x3dc46196	0.095889255
64	0xbd8b4154	-0.0679957
65	0xbd33030b	-0.043704074
66	0xbc26717e	-0.010158895
67	0x3c90ac15	0.01766018
68	0xbc228439	-0.00991922
69	0x3e2fa71c	0.17153591
70	0x3e190a71	0.1494539
71	0xbe18627e	-0.14881322
72	0xbe1acbb9	-0.15116777
73	0xbde62252	-0.11237015
74	0xbd4e8988	-0.05042413
75	0x3e0f0469	0.13966526
76	0xbd500c10	-0.050792754
77	0xbdbcb4d7	-0.0921418
78	0xbca91960	-0.020641983
79	0x3d972101	0.07379342
80	0xbc246095	-0.010032793
81	0x3d089fc1	0.03335548
82	0x3de89154	0.11355844
83	0xbddb0726	-0.10694723
84	0xbdf73130	-0.12069929
85	0xbe0d6e85	-0.13811691
86	0xbd6c7c12	-0.05773551
87	0x3dd84304	0.10559657
88	0x3d2aa844	0.041664377
89	0xbdb45739	-0.08805699
90	0xbdf2e073	-0.118592165
91	0x3de75d5f	0.11297106
92	0xbc31b6ef	-0.010846837
93	0x3d9a7eae	0.075436935
94	0xbd8bf1f0	-0.06833255
95	0x3da2de26	0.07952528
96	0xbe21396b	-0.1574456
97	0x3e6a7535	0.22896273
98	0x3da02652	0.07819809
99	0x3e01db9e	0.12681434
100	0x3e0472b2	0.12934378
101	0x3e260970	0.16214538
102	0x3cc50876	0.024051886
103	0x3e41d07a	0.18927184
104	0xbd95d0c7	-0.07315212
105	0x3e143dda	0.1447672
106	0xbd1780b8	-0.03698799
107	0xbdb94b70	-0.09047592
108	0x3e5c7923	0.21530585
109	0xbe3450f7	-0.1760901
110	0xbd0e30db	-0.03471456
111	0x3d26ca7f	0.04072046
112	0x3df6ae1c	0.120449275
113	0x3e10dd5f	0.14146946
114	0x3da12a46	0.07869391
115	0x3eb8e7e9	0.36114433
116	0xbdebdd1f	-0.11516785
117	0x3e61683d	0.2201242
118	0x3cc43a99	0.023953723
119	0x3e13c7c3	0.14431672
120	0x3d11efe0	0.035629153
121	0xbe27c8b8	-0.16385162
122	0x3de007a7	0.109389596
123	0x3e66d21e	0.22541091
124	0xbdc5c64a	-0.09656961
125	0xbdc80f06	-0.097684905
126	0x3e12f011	0.1434939
127	0x3e327195	0.1742614
128	0xbe137a98	-0.14402235
129	0xbe32fc9c	-0.17479175
130	0x3d63cc53	0.05561478
131	0x3e192e8b	0.14959161
132	0x3df92026	0.12164335
133	0xbb833731	-0.004004382
134	0x3d810f82	0.06301786
135	0xbdb542dc	-0.08850643
136	0xbc938508	-0.01800777
137	0x3d90c786	0.07069306
138	0xbd4cec78	-0.0500302
139	0xbd4778e3	-0.04869927
140	0xbd0f1494	-0.034931734
141	0xbd88d2ab	-0.06680807
142	0x3d7fbc0c	0.062435195
143	0xbc0868f6	-0.008325806
144	0x3dd4ac22	0.10384394
145	0xbca2c5e1	-0.019869747
146	0x3ded7b9f	0.115958445
147	0xbdddb4d4	-0.10825506
148	0xbd3b05d4	-0.045659855
149	0x3dfeeee8	0.124479115
150	0x3b842240	0.004032403
151	0xbe22fa73	-0.15915851
152	0x3db9b386	0.090674445
153	0xbe14170a	-0.14461914
154	0xbdae34df	-0.08506178
155	0x3dda0fe5	0.10647563
156	0x3e17bca5	0.14818056
157	0xbe14e8d5	-0.14541943
158	0xbe3c7eb4	-0.18407708
159	0xbcad0f98	-0.0211256
160	0xbe06c0f5	-0.13159545
161	0x3e84eff8	0.25964332
162	0x3e2dc6d3	0.16970377
163	0x3ec1900f	0.3780522
164	0xbdd59ea0	-0.10430646
165	0x3e2c52a2	0.16828397
166	0xbda0bf25	-0.07848958
167	0x3ec92d5c	0.3929242
168	0xbdfc90f0	-0.12332332
169	0x3e312024	0.17297417
170	0xbe3373f1	-0.17524697
171	0xbe3848fa	-0.17996588
172	0x3ea89218	0.3292396
173	0xbd88d736	-0.06681673
174	0x3dcf0624	0.10108593
175	0x3e99d056	0.3004176
176	0xbe1179d8	-0.14206636
177	0x3e57b465	0.21064909
178	0xbd5fe5c2	-0.054662473
179	0x3e61f80d	0.2206728
180	0x3d8a2b05	0.067464866
181	0x3e61718c	0.22015971
182	0xbdf17941	-0.117907055
183	0x3d64e708	0.05588439
184	0xbe25dd5d	-0.16197725
185	0x3d2e224a	0.04251317
186	0xbe164aa6	-0.14676914
187	0x3c5724fd	0.013131377
188	0xbe2f2314	-0.17103225
189	0x3db4f10e	0.0883504
190	0x3eae5156	0.3404643
191	0xbdef9797	-0.11698835
192	0xbe0e1ec8	-0.1387893
193	0xbe364bd6	-0.17802367
194	0xba80b7e9	-0.0009820434
195	0x3c250474	0.0100718625
196	0xbe015d88	-0.12633336
197	0xbd7e2e2b	-0.062055748
198	0xbe2cf04f	-0.16888545
199	0xbe35e481	-0.17762949
200	0xbca0d798	-0.019634053
201	0x3d3a0ca5	0.045422215
202	0xbd80ef61	-0.06295658
203	0x3dd95a10	0.10612881
204	0x3df01c4b	0.117241465
205	0x3d534a48	0.051584512
206	0x3cf3ccae	0.029760685
207	0xbcb39b92	-0.021924768
208	0x3c5b8f42	0.013400855
209	0xbe373347	-0.17890655
210	0x3e1d43b9	0.15357865
211	0xbe39f71f	-0.18160675
212	0xbd8923e8	-0.06696302
213	0x3da0e74c	0.078566164
214	0x3e12b933	0.1432846
215	0xbe2b8852	-0.16751221
216	0xbd5c7f74	-0.053832486
217	0x3e27fe77	0.16405664
218	0xbe42e9f3	-0.19034557
219	0x3dc4560e	0.09586726
220	0x3d7efc30	0.062252223
221	0x3d74fae4	0.05980958
222	0xbe1b0071	-0.15136887
223	0xbe09cba0	-0.13456583
224	0x3df681d9	0.12036485
225	0x3e4eb0ed	0.2018468
226	0x3dc7bc71	0.09752739
227	0x3ec824bd	0.3909053
228	0x3dfb328b	0.122655
229	0x3e0c83d0	0.13722157
230	0x3dad0761	0.08448673
231	0x3eaa778b	0.3329433
232	0x3e362d73	0.17790775
233	0x3e1f520e	0.15558645
234	0xbe52f73f	-0.2060213
235	0xbe16fcd9	-0.14744891
236	0x3e63479a	0.22195283
237	0x3e00f867	0.12594758
238	0xbdcc139f	-0.0996468
239	0x3e7bc33b	0.24586193
240	0x3df81418	0.121132076
241	0x3e7a7d17	0.2446178
242	0x3d30904a	0.043106355
243	0x3e8264e9	0.25467613
244	0xbd83b41e	-0.06430839
245	0x3e8ce31c	0.2751702
246	0xbc56225e	-0.013069717
247	0x3ddf8f7a	0.10916038
248	0xbe02d2bb	-0.127757
249	0x3da55922	0.08073641
250	0xbde6f4af	-0.112771384
251	0x3e63501e	0.22198531
252	0xbc97eb81	-0.018544914
253	0x3d960b76	0.07326405
254	0x3e945882	0.28973776
255	0x3d9d7ac2	0.0768943

actor.lin2.bias f4 [32]
0	0xbd2153af	-0.039386448
1	0xbb4f1040	-0.003159538
2	0xbdda4cbe	-0.10659169
3	0x3e7af27c	0.24506563
4	0xbe2b1565	-0.1670738
5	0x3e89e581	0.2693291
6	0xbd85411b	-0.065065585
7	0x3e60aebd	0.21941657
8	0x3d59f98e	0.05321651
9	0xbdb40f81	-0.0879202
10	0xbd9bb066	-0.07602005
11	0x3df4b82a	0.11949189
12	0x3d4a2e4e	0.049360566
13	0x3daf0e52	0.08547653
14	0x3e306615	0.17226441
15	0x3e6864bc	0.22694677
16	0x3d83ed97	0.06441801
17	0x3e30b8aa	0.17257944
18	0x3dda6556	0.106638595
19	0xbc73e06f	-0.014885052
20	0x3e69898b	0.22806375
21	0x399277ee	0.00027936645
22	0xbc28a904	-0.010294203
23	0x3e01cb58	0.12675226
24	0xbdd1a6b5	-0.10236875
25	0x3d5c722e	0.053819828
26	0xbd3a120a	-0.04542736
27	0x3e15d3cf	0.1463158
28	0xba92e900	-0.0011208355
29	0x3d9facbe	0.0779662
30	0x3e07c4b9	0.13258637
31	0x3bcaec2a	0.0061927037

actor.lin3.weight f4 [1, 32]
0	0x3eb62bba	0.35580236
1	0x3e19e0c7	0.15027152
2	0xbe0c7a62	-0.1371856
3	0x3e4e1b65	0.20127638
4	0xbd0ce057	-0.034393635
5	0x3e852f51	0.26012662
6	0x3bad5819	0.005290043
7	0x3ead21f5	0.3381497
8	0xbe139eb0	-0.14416003
9	0xbdcf565f	-0.10123896
10	0x3ea10562	0.3144942
11	0xbdbc775a	-0.09202452
12	0x3ed1f827	0.41009638
13	0x3d8351ab	0.06412061
14	0x3e60dce0	0.21959257
15	0x3e631b63	0.22178416
16	0xbe0416e7	-0.12899362
17	0xbc4b75d1	-0.012418226
18	0x3e936676	0.2878911
19	0xbdbc7c62	-0.09203412
20	0x3e939181	0.28821948
21	0xbcc23a94	-0.023709573
22	0xbdd86542	-0.105661884
23	0xbdcc7316	-0.099828884
24	0xbdb96724	-0.09052876
25	0xbc419bb3	-0.011816907
26	0x3e93fbc9	0.28903034
27	0x3eaa22ac	0.33229578
28	0xbd6d15e4	-0.057882205
29	0x3ec2ccd7	0.38046905
30	0x3e7af301	0.24506761
31	0x3ed01edb	0.4064854

actor.convp.bias f4 [21]
0	0x3c556468	0.013024427
1	0x3bda6fed	0.0066661746
2	0x00000000	0.0
3	0xbc9163f6	-0.01774786
4	0x3bcd57b4	0.0062665585
5	0x396d3178	0.0002262051
6	0x3a463fa1	0.0007562582
7	0x00000000	0.0
8	0xbc356751	-0.011071996
9	0x00000000	0.0
10	0xbb923740	-0.0044621527
11	0xbc14ce4a	-0.009082386
12	0xbc1f25c9	-0.0097135985
13	0xbc054c7f	-0.008135914
14	0x3bdbcde0	0.006707892
15	0xbc8276d5	-0.015925804
16	0xbc276ab4	-0.010218311
17	0x3c37747f	0.011197208
18	0xba6f12a7	-0.0009119906
19	0x3c7e91b1	0.015537665
20	0xbb9c9f07	-0.0047796997

actor.convp.lin.weight f4 [21, 21]
0	0xbd7e1a01	-0.062036518
1	0x3d26591e	0.040612333
2	0xbd3e2c21	-0.046428803
3	0x3e708c6a	0.23491064
4	0x3e5fb0e2	0.21844819
5	0xbd37c44f	-0.04486495
6	0xbc924e16	-0.0178595
7	0xbe5a96af	-0.21346544
8	0x3e89ec74	0.26938212
9	0x3e8978c7	0.26849958
10	0x3d8b415a	0.06799574
11	0x3c2345d5	0.00996538
12	0x3e9c4f4c	0.3052925
13	0x3e22492e	0.15848228
14	0xbe7c49ab	-0.24637477
15	0xbeabb1e2	-0.3353415
16	0xbdea059f	-0.114268534
17	0xbdde74b7	-0.10862105
18	0xbd866d63	-0.065638326
19	0xbeb2b3f8	-0.3490293
20	0x3e2c30f8	0.16815555
21	0xbdf9c968	-0.12196618
22	0xbe52db48	-0.20591462
23	0x3e8dd82a	0.27703983
24	0xbe0a6760	-0.13515997
25	0x3e5f124a	0.2178432
26	0xbd8b3f01	-0.067991264
27	0xbdc60319	-0.096685596
28	0xbe9bd2cd	-0.30434266
29	0x3e637378	0.22212017
30	0x3dcfb35f	0.10141634
31	0xbe4a267a	-0.1974124
32	0x3e77f2d2	0.24213722
33	0x3db5c36c	0.088751644
34	0xbeaa0d91	-0.33213475
35	0xbe34293e	-0.17593858
36	0xbe2e1588	-0.17000401
37	0xbdb2d16c	-0.0873135
38	0xbe483786	-0.1955243
39	0xbe58c58c	-0.21169108
40	0x3e4a454e	0.19753
41	0xbdd9c4ac	-0.10633215
42	0xbe44fe86	-0.19237718
43	0xbe38743f	-0.18013094
44	0xbe3ce83f	-0.1844797
45	0xbeb9460c	-0.36186254
46	0x3de8c3bc	0.11365458
47	0xbe0e23db	-0.13880865
48	0xbe9b3190	-0.3031125
49	0x3dece7d8	0.11567658
50	0x3e91329f	0.28358933
51	0xbd404bc0	-0.04694724
52	0x3e38ace6	0.18034706
53	0xbde2d72c	-0.11076197
54	0xbe6da9d3	-0.23209314
55	0xbe9f0c7c	-0.31064212
56	0xbe4e816e	-0.20166561
57	0x3e1ff6fa	0.15621558
58	0x3dde7474	0.108620554
59	0xbe94150c	-0.28922307
60	0x3c7e5360	0.015522808
61	0x3cdf4e40	0.027258992
62	0xbe92e7f3	-0.28692588
63	0xbec74964	-0.3892318
64	0xbe02ce02	-0.12773898
65	0x3e99c18f	0.30030486
66	0xbebb9698	-0.3663833
67	0xbebf986f	-0.37420985
68	0xbe11958b	-0.14217202
69	0xbd6cbda7	-0.057798054
70	0xbe05d36c	-0.13068932
71	0xbea8b18e	-0.32947963
72	0x3ea19e45	0.31566063
73	0xbdc3d886	-0.09562783
74	0xbe18b980	-0.14914513
75	0x3ca18e1b	0.019721081
76	0x3e706735	0.2347687
77	0xbe3d27ff	-0.18472289
78	0x3e22cb54	0.15897876
79	0xbddd6d21	-0.1081183
80	0xbea5ed51	-0.3240762
81	0xbd4de150	-0.050263703
82	0x3d7e4728	0.06207958
83	0xbd073d50	-0.033017457
84	0xbead7e11	-0.33885244
85	0xbe21f5fd	-0.15816493
86	0xbe0333a0	-0.12812662
87	0xbb85756c	-0.0040728357
88	0x3d78bf3a	0.060729243
89	0xbeb9e97a	-0.3631094
90	0x3e59c4f2	0.21266535
91	0xbe92a678	-0.2864263
92	0x3eb5e85a	0.35528833
93	0x3ea4561d	0.3209695
94	0xbeb12726	-0.3460018
95	0xbd232d1f	-0.039837953
96	0xbd9a5c04	-0.07537082
97	0x3e58da26	0.21176967
98	0x3e5d2232	0.21595076
99	0x3e0bfbcb	0.1367027
100	0xbe982ec2	-0.29723173
101	0xbe5050bc	-0.20343298
102	0x3d7d69d0	0.06186849
103	0xbd5245a9	-0.051335964
104	0x3eba942c	0.3644117
105	0x3eb07c75	0.34469953
106	0xbe92c441	-0.28665355
107	0x3e7a3d8b	0.2443754
108	0xbe9f304f	-0.31091544
109	0xbd9a2b11	-0.075277455
110	0xbeb9bfb1	-0.3627906
111	0x3df5e56a	0.12006648
112	0x3d5769d0	0.052591145
113	0xbe077396	-0.13227686
114	0xbe8a74a1	-0.27042106
115	0xbe854178	-0.2602651
116	0xbe245e70	-0.1605165
117	0xbe7d3c73	-0.24730091
118	0x3e4eeb42	0.20206931
119	0xbe8b669f	-0.2722673
120	0x3e2c276e	0.16811916
121	0x3e8c3718	0.27385783
122	0xbd79bd8b	-0.060971778
123	0x3e86e9ca	0.26350242
124	0xbe533e3f	-0.20629214
125	0xbd982e94	-0.07430759
126	0x3e2f61d3	0.1712716
127	0x3e95aaf1	0.2923198
128	0x3e1cdfd1	0.15319754
129	0x3e1e40e3	0.1545444
130	0xbe08861d	-0.1333241
131	0x3ebb7a09	0.36616543
132	0x3e40246c	0.18763894
133	0xbea672ff	-0.3250961
134	0xbde726f2	-0.11286725
135	0x3e015a89	0.12632193
136	0x3e8eed30	0.27915335
137	0x3de27120	0.11056733
138	0xbbd66377	-0.006542619
139	0xbe266d3d	-0.16252609
140	0x3e854251	0.26027158
141	0x3cf8f7f4	0.03039167
142	0xbe9ea972	-0.30988652
143	0x3e283295	0.16425546
144	0x3e7128f5	0.2355078
145	0x3e8f8776	0.28033036
146	0x3e1da9f8	0.15396869
147	0xbd9d689c	-0.07685968
148	0xbe0d7025	-0.13812311
149	0xbe6ec51f	-0.23317383
150	0x3eb3e0b9	0.35132387
151	0xbe31c1f4	-0.17359143
152	0x3e00b4f2	0.12569025
153	0xbdcc9ebc	-0.09991214
154	0xbe7d2097	-0.24719463
155	0xbea95ebd	-0.33080092
156	0x3df6ebe8	0.12056714
157	0x3d1b3250	0.03788978
158	0xbe5ae46c	-0.21376199
159	0x3df524c4	0.11969903
160	0xbe1f07bf	-0.15530299
161	0x3d94b714	0.07261482
162	0xbe9309e8	-0.28718495
163	0xbe60880e	-0.219269
164	0xbeb98b11	-0.36238912
165	0x3e8a5e0b	0.27024874
166	0xbeb4935f	-0.35268685
167	0xbcd73a70	-0.026272982
168	0xbe125cb8	-0.14293182
169	0x3e41e0d5	0.18933423
170	0xbebc00a0	-0.36719227
171	0x3e5a7353	0.21333055
172	0x3e8f4328	0.27980924
173	0x3e7f7b1a	0.24949303
174	0xbd8e24ad	-0.06940589
175	0xbdfd4f8f	-0.1236869
176	0xbec0fdba	-0.37693578
177	0xbd512a53	-0.051065754
178	0x3d2dac26	0.0424005
179	0x3e02a7c0	0.12759304
180	0x3e8add5e	0.27122015
181	0x3d997b72	0.074942484
182	0xbe8834ef	-0.26602885
183	0x3e899e63	0.26878652
184	0x3e89844f	0.26858756
185	0x3dd15c09	0.102226324
186	0xbe36058f	-0.17775558
187	0x3c74a5e1	0.014932127
188	0xbe39ec96	-0.18156657
189	0x3dfaa9bc	0.122394055
190	0x3d7ecf00	0.06220913
191	0xbe482a0c	-0.1954729
192	0xbd8b5f58	-0.06805295
193	0xbe753ced	-0.23949023
194	0x3e4cc57e	0.19997212
195	0xbe7deabb	-0.24796574
196	0xbdd1d940	-0.10246515
197	0x3db6dfe4	0.089294225
198	0xbe3299de	-0.17441508
199	0xbe51fbdb	-0.20506231
200	0xbebe990d	-0.37226143
201	0xbbe09780	-0.0068539977
202	0xbeb83f12	-0.3598562
203	0x3e318536	0.17335972
204	0x3ce35620	0.027751029
205	0x3da92168	0.08258325
206	0xbe19e973	-0.1503046
207	0xbd817534	-0.06321183
208	0x3e876a4b	0.26448283
209	0xbd0cdc30	-0.034389675
210	0x3e8addab	0.27122244
211	0x3eb94692	0.36186653
212	0xbe65e215	-0.22449525
213	0xbe7cd8b2	-0.24692038
214	0x3d928262	0.07153775
215	0xbb54356a	-0.003238047
216	0x3eb533ab	0.35390982
217	0x3e310ca9	0.17289986
218	0x3da72b12	0.08162512
219	0x3de91205	0.1138039
220	0x3e313f4d	0.17309304
221	0x3e5c3600	0.21504974
222	0xbe24850d	-0.1606638
223	0xbd128afe	-0.035777085
224	0x3e2e2c90	0.17009187
225	0x3e6a481a	0.22879067
226	0x3e9b8b06	0.30379504
227	0x3e52c4e4	0.2058292
228	0xbdb420c9	-0.08795316
229	0x3cdb6a66	0.026784133
230	0x3e481220	0.19538164
231	0x3d474ce5	0.048657317
232	0xbea1ca16	-0.31599492
233	0xbea6eb24	-0.32601273
234	0x3e9514b8	0.2911737
235	0x3ea050d4	0.31311667
236	0x3d936647	0.07197242
237	0xbe30993e	-0.17245957
238	0x3e6ee01e	0.23327681
239	0x3ea4eab6	0.3221032
240	0xbd3a7dbd	-0.04553007
241	0x3e561d5b	0.20909636
242	0x3e43ba96	0.19114146
243	0x3e6f0a7c	0.23343843
244	0x3e3d9352	0.1851323
245	0xbd84d368	-0.06485635
246	0x3e525d9c	0.20543522
247	0x3d836d5a	0.064173415
248	0x3dd03e6f	0.10168158
249	0xbe819d20	-0.2531519
250	0x3e90a0ae	0.2824759
251	0xbe24f59b	-0.16109316
252	0x3eb08b8d	0.3448147
253	0x3dd2ada8	0.102870286
254	0xbe1bca54	-0.15213901
255	0x3e4d16d4	0.2002824

actor.lin1p.weight f4 [8, 21]
0	0x3e3f88d0	0.18704534
1	0xbdbf61e4	-0.09344843
2	0xbddafe60	-0.106930494
3	0xbe4915ab	-0.19637172
4	0x3e403f65	0.18774183
5	0x3e3ade0f	0.18248771
6	0x3dc97770	0.09837234
7	0x3de04065	0.10949782
8	0xbdaf730a	-0.08566864
9	0x3bedd4e0	0.0072580427
10	0x3e3a9894	0.18222266
11	0xbd1f8317	-0.038943376
12	0xbdb4ee01	-0.08834458
13	0xbe417059	-0.18890513
14	0x3e19ed0a	0.1503183
15	0xbe1e168a	-0.15438285
16	0xbd79d353	-0.06099255
17	0xbd463379	-0.048388932
18	0x3e13b24e	0.14423487
19	0x3e0bed92	0.13664845
20	0xbe0afe04	-0.13573462
21	0xbe2b5b89	-0.16734137
22	0x3b534baf	0.0032241156
23	0x3e2250fe	0.15851209
24	0x3d9249f5	0.071430124
25	0xbcf451c2	-0.029824141
26	0xbd6953c6	-0.05696466
27	0xbde7d24a	-0.11319406
28	0xbd401940	-0.04689908
29	0x3e2af9ab	0.16696803
30	0xbd7dd420	-0.061969876
31	0x3df0d593	0.11759486
32	0xbe0abc37	-0.13548361
33	0x3dad99e3	0.08476617
34	0x3da85f29	0.08221275
35	0xbcbae8b4	-0.02281604
36	0x3e2bffe0	0.16796827
37	0xbe1356db	-0.14388601
38	0x3e4b8389	0.19874395
39	0x3e20a0ec	0.15686387
40	0xbd21c439	-0.039493773
41	0x3e47be96	0.19506297
42	0x3ddad48c	0.10685071
43	0x3ce519a7	0.027966334
44	0x3cebd789	0.028789299
45	0xbd4912d2	-0.049090214
46	0xbd3e4a15	-0.04645737
47	0x3e490e81	0.19634439
48	0x3e474e26	0.19463405
49	0x3e07e5fb	0.13271324
50	0xbdad2b37	-0.08455508
51	0xbdc7f15f	-0.09762835
52	0x3e220fd2	0.15826347
53	0xbde71a53	-0.11284318
54	0xbd9bd68b	-0.0760928
55	0xbe034d1e	-0.12822387
56	0x3dd7ed5c	0.105433196
57	0xbb5a7643	-0.003333465
58	0xbe2b26b5	-0.16713984
59	0x3df919d0	0.121631265
60	0x3e42e683	0.19033246
61	0xbd857866	-0.06517105
62	0x3e3f9230	0.1870811
63	0xbcb5994a	-0.02216782
64	0x3de6c00d	0.112670995
65	0xbd845ffc	-0.0646362
66	0xbe2f86fb	-0.17141335
67	0xbe4ca5a7	-0.19985066
68	0x3dd1ee63	0.10250547
69	0x3e4ab3f0	0.19795203
70	0xbe34fd3b	-0.17674725
71	0xbd35067b	-0.044195633
72	0x3e31ab46	0.17350492
73	0xbd9559de	-0.072925314
74	0xbe107bcc	-0.14109725
75	0xbdd70738	-0.10499424
76	0x3be41e62	0.0069616297
77	0xbe2b3c76	-0.16722283
78	0x3decd2cd	0.115636446
79	0x3c82840f	0.015932111
80	0xbc827ffe	-0.015930172
81	0x3e5f4c88	0.21806538
82	0xbdfb01ea	-0.122562245
83	0x3de66356	0.112494156
84	0xbb1dc397	-0.002407288
85	0xbe01f650	-0.12691617
86	0xbe0bf428	-0.13667357
87	0xbd8e5cdb	-0.069513045
88	0x3e461627	0.19344388
89	0xbda7b589	-0.08188922
90	0x3e2160d4	0.15759593
91	0x3ddcdcad	0.10784278
92	0xbd1f3fe4	-0.03887929
93	0xbd07dbb7	-0.03316852
94	0x3e17a62d	0.14809485
95	0x3e12239d	0.14271398
96	0x3e2ae006	0.1668702
97	0xbe1ddfde	-0.1541743
98	0x3dea11c5	0.114291705
99	0x3c10c808	0.008836754
100	0x3e2cb32d	0.16865225
101	0xbdcfff0d	-0.10156069
102	0x3cfad6f1	0.03062007
103	0xbd87f4a6	-0.0663846
104	0xbe25a5c0	-0.1617651
105	0xbcca0c6d	-0.024664128
106	0x3e25c869	0.16189732
107	0x3e0ae06e	0.13562176
108	0x3dee6718	0.11640757
109	0x3e1ec2cc	0.15503997
110	0xbd93f6e0	-0.07224822
111	0x3e4f44cb	0.20241086
112	0x3e57ebb0	0.21086001
113	0xbe4bb932	-0.19894865
114	0x3d68079a	0.056647874
115	0x3e20df54	0.15710193
116	0x3d9cf24e	0.076634035
117	0x3e065f62	0.13122323
118	0x3de41155	0.11136118
119	0xbe362923	-0.1778913
120	0x3e43e4a2	0.19130185
121	0xbe01ec65	-0.12687834
122	0xbddb345c	-0.10703346
123	0x3db73e5d	0.08947442
124	0xbda4bf5c	-0.080443114
125	0x3e13fe97	0.14452587
126	0xbe59a229	-0.21253265
127	0xbda06cf6	-0.07833283
128	0xbe234c8a	-0.15947166
129	0x3e06c78d	0.1316206
130	0xbe393379	-0.18086042
131	0xbbf016e0	-0.0073269457
132	0xbe511352	-0.20417526
133	0x3d98a05a	0.0745246
134	0xbdf634e6	-0.12021808
135	0x3e1114b9	0.14168061
136	0x3da581ee	0.08081423
137	0x3d9245a6	0.07142191
138	0xbe003259	-0.12519206
139	0x3e2b555b	0.1673178
140	0xbe0bd1b9	-0.13654222
141	0x3e1ef71f	0.15523957
142	0xbe4fce6c	-0.20293587
143	0xbcdcffa8	-0.026977375
144	0x3e1bdf69	0.15221943
145	0x3dad2472	0.08454217
146	0xbe0145d0	-0.12624288
147	0x3e13f909	0.14450468
148	0xbe105964	-0.140966
149	0x3dbd7afe	0.092519745
150	0x3e063d65	0.13109358
151	0x3a833e80	0.0010013133
152	0xbe4d3f06	-0.20043573
153	0xbe42d517	-0.190266
154	0xbe1dcfe4	-0.15411335
155	0x3e4e969d	0.20174642
156	0xbdfccd4e	-0.12343846
157	0x3dcdf2c2	0.10056068
158	0xbce0e9c8	-0.027455226
159	0xbe1a3400	-0.15058899
160	0x3c4c2160	0.012459129
161	0xbd93d058	-0.07217473
162	0x3cff2940	0.0311476
163	0x3cbc00b8	0.022949561
164	0xbd0d1e28	-0.034452587
165	0xbcc20150	-0.023682266
166	0xbca26a28	-0.01982601
167	0xbd8e5db0	-0.06951463

actor.lin1p.bias f4 [8]
0	0x3d4a0104	0.049317375
1	0xbd94989d	-0.07255671
2	0xbe4e208f	-0.20129608
3	0x3e0ac63d	0.13552184
4	0x3dfa8fb1	0.12234438
5	0x3d8e4b54	0.069479614
6	0xbe214d7d	-0.15752216
7	0xbe231130	-0.15924525

actor.bilinp.weight f4 [8, 8]
0	0xbea3d66e	-0.31999534
1	0xbcc66886	-0.024219763
2	0x3e98bb0a	0.298302
3	0x3da1ff5b	0.07910033
4	0xbd0c4e3c	-0.034254298
5	0xbeb32b6b	-0.34994063
6	0xbe7517f6	-0.23934922
7	0xbdbf29c8	-0.09334141
8	0x3d528dd7	0.0514048
9	0xbe07b39c	-0.1325211
10	0xbe3843db	-0.17994635
11	0xbc71687c	-0.014734384
12	0x3e5aaccc	0.2135498
13	0xbccf4328	-0.025300577
14	0x3e8e31df	0.27772424
15	0x3e0451ac	0.1292178
16	0x3e5aca6d	0.21366282
17	0xbea8cc5f	-0.32968423
18	0xbea61d43	-0.324442
19	0x3e921ffc	0.28540027
20	0x3e885eb0	0.2663474
21	0xbe74117c	-0.23834795
22	0xbe4ea53e	-0.20180222
23	0xbd9051b0	-0.07046831
24	0x3bed3805	0.007239344
25	0xbe6897b1	-0.22714116
26	0x3e06bfa4	0.13159043
27	0x3e899a8b	0.2687572
28	0xbd350abc	-0.04419969
29	0x3e8de1cc	0.27711332
30	0x3e8c2d71	0.2737842
31	0x3e3e89da	0.18607274
32	0x3df39e6d	0.11895452
33	0x3e145da0	0.1448884
34	0xbd2e1a2a	-0.04250542
35	0x3ca6bb70	0.020353049
36	0x3e4f79fc	0.20261377
37	0x3eac4d43	0.33652696
38	0xbd83b8cc	-0.064317316
39	0x3e9317e3	0.28729162
40	0xbe718489	-0.23585714
41	0x3ea7f937	0.32807323
42	0xbe8baf83	-0.27282342
43	0x3eaee500	0.34159088
44	0xbe86a49e	-0.26297468
45	0x3d095296	0.033526026
46	0xbe41f942	-0.1894274
47	0x3c664100	0.014053583
48	0xbeb0323c	-0.34413326
49	0xbe20b03c	-0.15692228
50	0xbded08ca	-0.11573942
51	0x3e50b53e	0.20381638
52	0x3e20f2c2	0.15717605
53	0x3e234b02	0.15946582
54	0x3e4b9bc2	0.19883636
55	0xbdd68628	-0.10474807
56	0xbe190061	-0.14941551
57	0xbe3c215d	-0.18372102
58	0x3e1ba22e	0.15198585
59	0xbe22a3b2	-0.15882757
60	0xbdde3640	-0.10850191
61	0x3e6ecbb6	0.23319897
62	0xbe1f02bc	-0.15528387
63	0xbdca7540	-0.09885645

critic.conv1.bias f4 [21]
0	0xbe150591	-0.14552905
1	0x3b37a248	0.002802031
2	0x3eb68169	0.35645607
3	0x3d3ae2ce	0.045626454
4	0xbeab0beb	-0.3340753
5	0x3e8598f3	0.26093253
6	0xbe747c9d	-0.23875661
7	0xbd3df6c4	-0.046377912
8	0xbdfe3036	-0.12411539
9	0x3ea73598	0.32658076
10	0x3d8f6370	0.07001388
11	0x3e6fef17	0.2343105
12	0xbe32255a	-0.17397061
13	0xbe45abef	-0.19303869
14	0x3e3f1131	0.18658902
15	0x3e6bf11c	0.23041195
16	0xbe69c485	-0.22828873
17	0x3eb04d4e	0.3443398
18	0xbe862a76	-0.2620427
19	0xbead6829	-0.3386853
20	0xbe9e0b9c	-0.30868232

critic.conv1.lin.weight f4 [21, 21]
0	0x3eb90874	0.36139262
1	0x3ecd212c	0.4006437
2	0x3eb4493d	0.35212126
3	0xbd6088fc	-0.05481814
4	0x3e7c0922	0.24612859
5	0x3e2299a7	0.15878926
6	0x3de31404	0.11087802
7	0x3ee4ccae	0.44687408
8	0x3ceba7bd	0.028766507
9	0x3ee8b0d2	0.45447403
10	0x3ec1ac22	0.3782664
11	0xbea617a8	-0.32439923
12	0xbe14a5d1	-0.14516379
13	0x3e011bfb	0.1260833
14	0xbeb3c42a	-0.351106
15	0xbe8533ff	-0.26016232
16	0xbe3e0084	-0.18554884
17	0x3e636ce2	0.22209504
18	0x3e763dae	0.24046966
19	0xbde4e508	-0.11176497
20	0x3e262506	0.16225061
21	0x3e7654ec	0.24055833
22	0xbcd8ad96	-0.02644996
23	0xbe0f688f	-0.1400473
24	0x3d45bb43	0.04827429
25	0xbea732b0	-0.3265586
26	0xbe9866ab	-0.2976583
27	0x3bf8c56f	0.0075918953
28	0x3e145aeb	0.14487807
29	0x3e79f175	0.24408515
30	0xbe9a97c3	-0.3019391
31	0x3d5b0e39	0.05348036
32	0xbe362fbb	-0.17791645
33	0xbd5aaf8a	-0.053390063
34	0xbe743839	-0.23849572
35	0xbea9d60d	-0.3317112
36	0x3e8b3415	0.27188173
37	0xbdf61a3e	-0.12016724
38	0x3e80f900	0.25189972
39	0xbe8497a2	-0.25896937
40	0xbc731a63	-0.014837834
41	0x3e7fa524	0.2496534
42	0xbce547a2	-0.027988259
43	0x3eee1540	0.46500587
44	0xbddd0380	-0.10791683
45	0x3ecfe376	0.40603226
46	0xbd254f03	-0.040358555
47	0x3e489ae4	0.19590336
48	0xbe4689eb	-0.19388549
49	0x3e5a7ad5	0.21335919
50	0xbebe07b6	-0.37115258
51	0x3e10804c	0.14111441
52	0xbeacbac5	-0.33736244
53	0x3e27006d	0.16308756
54	0x3eb7f12b	0.35926184
55	0x3e49c9ee	0.19705936
56	0x3dfe46ab	0.124158226
57	0xbe989013	-0.2979742
58	0xbe2802c4	-0.16407305
59	0xbe7d15bb	-0.24715321
60	0x3e81e42c	0.25369394
61	0x3be0cfdd	0.0068607167
62	0xbe875aec	-0.26436555
63	0x3e9f4b0e	0.3111195
64	0xba9ec277	-0.0012112398
65	0xbe60dc1c	-0.21958965
66	0xbe154055	-0.14575322
67	0xbd857f0a	-0.065183714
68	0xbc1bd459	-0.009511077
69	0x3da54fde	0.08071874
70	0x3eb15b60	0.34640026
71	0xbdc6f322	-0.09714343
72	0xbc710a0a	-0.014711866
73	0x3dd71544	0.10502103
74	0x3df98b7f	0.1218481
75	0xbe56d49c	-0.20979542
76	0xbe4d43f0	-0.20045447
77	0xbe88329f	-0.2660112
78	0x3e75a900	0.2399025
79	0xbe6db065	-0.2321182
80	0xbdc60a58	-0.09669942
81	0xbe752ce1	-0.23942901
82	0xbeb0a4ef	-0.34500834
83	0x3ec210cf	0.3790345
84	0xbe700518	-0.23439443
85	0xbe953fe4	-0.29150307
86	0xbde32fee	-0.11093126
87	0xbea51f0c	-0.3225025
88	0x3e8de107	0.27710745
89	0xbe888970	-0.26667356
90	0xbcf6601f	-0.030075131
91	0x3e867f6a	0.26269084
92	0xbe9f98bd	-0.31171218
93	0xbe4a39be	-0.1974859
94	0xbecdb42b	-0.4017652
95	0xbe766071	-0.24060227
96	0x3e818dd4	0.2530352
97	0xbec3f215	-0.3827063
98	0x3bbd9c30	0.0057864413
99	0x3dd2cd61	0.10293079
100	0x3e8fd73f	0.28093907
101	0x3e898592	0.2685972
102	0x3e19c1e2	0.15015367
103	0xbe75f472	-0.2401903
104	0xbdafcadf	-0.085836165
105	0x3d9c7454	0.07639375
106	0xbdc68587	-0.09693437
107	0x3e3fa8a3	0.18716674
108	0x3e1d645f	0.1537032
109	0xbcded0dd	-0.027199203
110	0xbe4490e7	-0.19195901
111	0xbe4032b7	-0.18769346
112	0xbc8d698a	-0.017262239
113	0xbe008ff5	-0.12554915
114	0xbe28028d	-0.16407223
115	0xbec234fe	-0.37931055
116	0x3dea601a	0.11444111
117	0xbe8ed24a	-0.27894813
118	0xbe1e1702	-0.15438464
119	0xbc44b0a1	-0.012005002
120	0x3eae8635	0.34086767
121	0x3dd3f8b2	0.10350169
122	0x3db32dd9	0.08748979
123	0xbe499469	-0.1968552
124	0x3e8611dc	0.261855
125	0x3cf1bc14	0.029508628
126	0xbe17d944	-0.14828974
127	0x3e5e4541	0.21706106
128	0xbe8567aa	-0.26055652
129	0xbebe7e0d	-0.37205544
130	0x3e9ba9a3	0.3040286
131	0x3e51bfc9	0.20483316
132	0x3ecb7d34	0.3974396
133	0x3eb05ce0	0.34445858
134	0x3ed36495	0.41287675
135	0x3c198738	0.009370618
136	0xbe9bd327	-0.30434534
137	0x3ebc59fb	0.367874
138	0x3dc58c4f	0.09645902
139	0xbeadd496	-0.33951253
140	0xbe08d50a	-0.13362518
141	0xbeab6bd8	-0.33480716
142	0x3e4c29a8	0.19937766
143	0x3ed40df2	0.4141689
144	0x3e24bd24	0.16087776
145	0x3e9f2c29	0.3108838
146	0xbd93f4af	-0.07224404
147	0x3e266207	0.16248332
148	0xbe16c549	-0.14723696
149	0x3e5da712	0.21645764
150	0x3e016ccd	0.1263916
151	0xbeba2e78	-0.36363578
152	0x3e01d4bc	0.12678808
153	0xbeb9c9ff	-0.36286923
154	0x3e08cd10	0.13359475
155	0xbdb292a6	-0.08719377
156	0xbea7f23b	-0.32801995
157	0xbca1770c	-0.019710086
158	0xbe334379	-0.17506208
159	0xbeb7de90	-0.3591199
160	0x3d51d220	0.05122578
161	0x3e0000f6	0.12500367
162	0xbdebe1a4	-0.11517647
163	0xbe7ed193	-0.24884634
164	0xbebac7ed	-0.36480656
165	0x3e876ca1	0.26450065
166	0xbe83dcda	-0.25754434
167	0x3dc7f7dc	0.09764072
168	0xbd171fc0	-0.036895514
169	0x3e427b0a	0.18992248
170	0x3e86e9d1	0.26350263
171	0x3e9f3423	0.31094465
172	0xbdf95f51	-0.12176383
173	0x3ce84416	0.028352778
174	0x3c1cf838	0.009580664
175	0xbe88873a	-0.2666567
176	0x3e9d7616	0.30754155
177	0xbd52cc70	-0.051464498
178	0xbe3e8d63	-0.18608622
179	0x3ead1bfc	0.33810413
180	0xbe098ee9	-0.13433422
181	0x3e395c3d	0.18101592
182	0x3eccff4e	0.40038532
183	0xbe4d793e	-0.20065781
184	0xbe79a298	-0.24378431
185	0xbe6a0671	-0.2285402
186	0x3e048581	0.12941553
187	0x3e9a4950	0.30134058
188	0x3e8694a8	0.2628529
189	0x3e06ed51	0.13176467
190	0x3efb79e5	0.49116436
191	0xbe22badc	-0.15891594
192	0x399416a9	0.00028245643
193	0x3e8dbb02	0.27681738
194	0x3d8f0259	0.0698287
195	0xbe30e152	-0.17273453
196	0x3dc7d1ef	0.097568385
197	0x3e88dc3a	0.2673052
198	0x3e63ce7f	0.22246741
199	0x3e3b4103	0.18286519
200	0xbdad2d4d	-0.08455906
201	0xbeb668a0	-0.35626698
202	0xbc46a172	-0.0121234525
203	0xbe408f79	-0.1880473
204	0xba25bcfe	-0.00063224125
205	0x3e13dd8e	0.14439985
206	0xbcbbbe13	-0.022917783
207	0x3da65138	0.0812096
208	0x3caa88b5	0.02081714
209	0x3d4c2703	0.049841892
210	0x3e093ba3	0.13401656
211	0xbda35a04	-0.079761535
212	0x3eb864e2	0.36014467
213	0xbe04b310	-0.12958932
214	0x3e3d79de	0.1850352
215	0x3bd7314a	0.006567155
216	0x3e80db18	0.25167155
217	0xbd915d59	-0.07097883
218	0xbe936800	-0.28790283
219	0xbe9ef764	-0.3104812
220	0xbd3622e1	-0.044466857
221	0x3e38083a	0.17971888
222	0xbddde0ec	-0.10833916
223	0xbe582ef4	-0.21111661
224	0xbe4a44a0	-0.19752741
225	0xbe4e1ee0	-0.20128965
226	0x3eae1725	0.34002033
227	0xbe9ded35	-0.30845037
228	0x3d9b9710	0.07597172
229	0xbe8b4831	-0.27203515
230	0x3e161094	0.14654762
231	0xbe99e8eb	-0.30060515
232	0x3e870d78	0.26377463
233	0x3e2ef0d2	0.17084053
234	0x3ebdba68	0.3705628
235	0x3eaca9c2	0.33723265
236	0xbe19f6f2	-0.15035608
237	0x3e80b609	0.25138882
238	0x3d21e190	0.039521754
239	0x3e40ffa1	0.18847515
240	0xbb753eed	-0.003742154
241	0x3d3868e2	0.0450219
242	0xbe01f7e1	-0.12692215
243	0xbe8b3d06	-0.27194995
244	0xbb0ffd52	-0.002197106
245	0x3e86dc0d	0.2633976
246	0xbd8e5b6d	-0.06951032
247	0xbd9363ec	-0.07196793
248	0x3de0eb1a	0.10982342
249	0x3da1ff95	0.079100765
250	0xbe3a74ac	-0.1820857
251	0x3e88df1b	0.26732716
252	0x3e5a4c00	0.21318054
253	0xbe30db71	-0.1727121
254	0xbe5b40a1	-0.21411373
255	0x3e67b9aa	0.22629419
