saved_files/ckpt/nyc4/a2c_gnn_test_vdvp.pth (torch, 93497 bytes, 66 tensors)

actor.gamma_rate f4 [16, 16]
00000000: 37ff 9f41 0dfa 9f41 0afe 9f41 ab02 a041
00000010: fa01 a041 f20b a041 5eed 9f41 1a0b a041
00000020: 7ff7 9f41 01f7 9f41 87fb 9f41 c6fe 9f41
00000030: 5211 a041 a6ef 9f41 4810 a041 bcf5 9f41
00000040: ef01 a041 a70f a041 81fc 9f41 08f1 9f41
00000050: 93ed 9f41 22e3 9f41 4204 a041 89f5 9f41
00000060: 76f4 9f41 faf4 9f41 a0fe 9f41 4c15 a041
00000070: ef0e a041 1bf5 9f41 530c a041 3302 a041
00000080: d009 a041 33ff 9f41 46f2 9f41 3f0b a041
00000090: 9806 a041 a8fd 9f41 b8f8 9f41 faf5 9f41
000000a0: fee6 9f41 6720 a041 e5f8 9f41 edf6 9f41
000000b0: a6f8 9f41 49fb 9f41 6c06 a041 c9f4 9f41
000000c0: f2f2 9f41 f2f5 9f41 cbe0 9f41 3c0e a041
000000d0: 8e0e a041 9f00 a041 f303 a041 52f4 9f41
000000e0: 75f5 9f41 e5fc 9f41 9be4 9f41 d510 a041
000000f0: 60fc 9f41 6cf3 9f41 ae10 a041 e7f5 9f41
00000100: c421 a041 4bfe 9f41 c808 a041 a409 a041
00000110: e5fc 9f41 eeea 9f41 3d01 a041 99fb 9f41
00000120: d313 a041 42fa 9f41 bf0a a041 a0fc 9f41
00000130: 28fb 9f41 d606 a041 cdf6 9f41 5d16 a041
00000140: 110a a041 5d01 a041 8eff 9f41 7cf5 9f41
00000150: aafa 9f41 5f00 a041 5f19 a041 8501 a041
00000160: e1f4 9f41 1b03 a041 7d06 a041 1112 a041
00000170: dce9 9f41 d2ee 9f41 fa0a a041 50f1 9f41
00000180: 8612 a041 a404 a041 3508 a041 d2fd 9f41
00000190: c4f5 9f41 0cf7 9f41 7105 a041 10ef 9f41
000001a0: 340e a041 0a01 a041 caf8 9f41 c3f3 9f41
000001b0: dd06 a041 b7f9 9f41 ab16 a041 99eb 9f41
000001c0: 3606 a041 23f9 9f41 e602 a041 291f a041
000001d0: fe0d a041 11ef 9f41 cf03 a041 02fa 9f41
000001e0: 9c0c a041 a0e4 9f41 0dff 9f41 5e0a a041
000001f0: d917 a041 e806 a041 0506 a041 1804 a041
00000200: e106 a041 eeed 9f41 d9f5 9f41 2afe 9f41
00000210: 0613 a041 f9f5 9f41 6517 a041 dc0f a041
00000220: d7ff 9f41 fafa 9f41 a8f0 9f41 70f9 9f41
00000230: 9be7 9f41 adfd 9f41 d00f a041 8803 a041
00000240: 6c0e a041 8b11 a041 12f6 9f41 ad09 a041
00000250: b9fb 9f41 6704 a041 b806 a041 881d a041
00000260: e5f9 9f41 8512 a041 7b07 a041 fb00 a041
00000270: daed 9f41 5c1b a041 5fe4 9f41 eafb 9f41
00000280: faf4 9f41 1efb 9f41 57f6 9f41 a00a a041
00000290: eef8 9f41 2607 a041 8af7 9f41 7f09 a041
000002a0: 1616 a041 460a a041 c3ec 9f41 cce4 9f41
000002b0: ad19 a041 76e1 9f41 3c13 a041 92ed 9f41
000002c0: 4805 a041 3116 a041 bffc 9f41 6dee 9f41
000002d0: 0d0f a041 3cfe 9f41 5800 a041 c507 a041
000002e0: a20e a041 7a12 a041 fafa 9f41 f200 a041
000002f0: 50f7 9f41 0ef1 9f41 abf1 9f41 bb0e a041
00000300: a00c a041 660d a041 8a14 a041 7f27 a041
00000310: 19fa 9f41 4216 a041 b0fe 9f41 0c0d a041
00000320: d20d a041 88f3 9f41 d8fd 9f41 7efe 9f41
00000330: 66ed 9f41 a1ff 9f41 390d a041 f60c a041
00000340: ab12 a041 340e a041 7d06 a041 dbf4 9f41
00000350: b5ff 9f41 fd10 a041 5b0b a041 6e10 a041
00000360: 0103 a041 14fb 9f41 2204 a041 4c14 a041
00000370: 7305 a041 43fc 9f41 51ec 9f41 feff 9f41
00000380: fd02 a041 3504 a041 a102 a041 b5ef 9f41
00000390: b40b a041 c6fa 9f41 681b a041 a70a a041
000003a0: 0af3 9f41 d8ed 9f41 462c a041 3cfe 9f41
000003b0: a4ff 9f41 170d a041 a901 a041 5e00 a041
000003c0: 6bee 9f41 fc18 a041 7e04 a041 fa05 a041
000003d0: d2e6 9f41 7ef6 9f41 970c a041 e60c a041
000003e0: 60e3 9f41 f3e4 9f41 ffdd 9f41 e5f5 9f41
000003f0: 10f7 9f41 4f04 a041 d0fa 9f41 3b0a a041
19.999617 19.997095 19.999043 20.001303 20.000965 20.005833 19.990902 20.00542
19.995848 19.995607 19.997816 19.999401 20.008457 19.992016 20.00795 19.994987
20.000944 20.007643 19.998293 19.992691 19.991003 19.985905 20.002079 19.99489
19.994366 19.994617 19.999329 20.010399 20.007292 19.99468 20.006018 20.001074
20.004791 19.999609 19.993298 20.005491 20.00322 19.998856 19.996445 19.995106
19.98779 20.015821 19.99653 19.99557 19.99641 19.997698 20.003136 19.994524
19.993626 19.99509 19.984762 20.00695 20.007107 20.000303 20.001928 19.994297
19.994852 19.998484 19.986624 20.008219 19.99823 19.993858 20.008144 19.99507
20.016487 19.999166 20.004288 20.004707 19.998484 19.989712 20.000605 19.99785
20.00968 19.997196 20.005247 19.998352 19.997635 20.003338 19.995508 20.01092
20.004915 20.000666 19.999783 19.994865 19.997395 20.000181 20.012388 20.000742
19.99457 20.001516 20.003168 20.008821 19.98919 19.991611 20.00536 19.992828
20.009045 20.002266 20.004007 19.998936 19.995003 19.995628 20.002657 19.99173
20.006935 20.000507 19.996479 19.994024 20.003351 19.996931 20.011068 19.990038
20.003033 19.996649 20.001415 20.015215 20.006832 19.991732 20.00186 19.997074
20.006157 19.986633 19.999537 20.005062 20.011644 20.003372 20.00294 20.001999
20.003359 19.991177 19.995043 19.999104 20.009289 19.995104 20.011423 20.007744
19.999922 19.997547 19.992508 19.996796 19.988089 19.998865 20.00772 20.001724
20.007042 20.008566 19.995152 20.004725 19.997911 20.00215 20.00328 20.01442
19.997019 20.009043 20.003653 20.000479 19.991138 20.01336 19.98651 19.998005
19.994617 19.997616 19.995283 20.005188 19.996548 20.00349 19.995869 20.004637
20.010784 20.005016 19.990606 19.986717 20.012537 19.985088 20.009392 19.991001
20.002579 20.010836 19.998411 19.991419 20.007349 19.999138 20.000168 20.003794
20.007145 20.009022 19.997547 20.000462 19.995758 19.992702 19.993002 20.007193
20.006165 20.006542 20.010029 20.019285 19.997118 20.010868 19.99936 20.00637
20.006748 19.993912 19.998947 19.999264 19.990917 19.999819 20.006456 20.006329
20.009115 20.006935 20.003168 19.994558 19.999857 20.008295 20.005545 20.008022
20.001467 19.997597 20.002018 20.00991 20.00266 19.998175 19.990389 19.999996
20.00146 20.002054 20.001284 19.992044 20.005714 19.997448 20.013382 20.005201
19.993671 19.991135 20.021618 19.999138 19.999825 20.006392 20.00081 20.00018
19.991415 20.0122 20.002193 20.002918 19.987705 19.995358 20.006147 20.006298
19.986023 19.986792 19.983397 19.995066 19.995636 20.002104 19.997467 20.004995

actor.conv1.bias f4 [21]
00000000: e546 c83a 5129 deba 13bc cdbc af3b 36ba
00000010: d4af 893d b108 e7bb 0fc0 e83d 473b f33d
00000020: 4263 ec3d 88d9 c3bb b584 e6bc 0034 44bc
00000030: 9e0f d33c 748c adbb 0000 0000 0000 0000
00000040: 1d98 2fbc 128f 803d c575 0fbc 51aa bf3d
00000050: b4e2 80bc
0.0015279917 -0.0016949569 -0.025114095 -0.00069516426 0.0672299 -0.0070505966 0.11364757 0.11876541
0.115423694 -0.0059768595 -0.028139452 -0.011975288 0.025764283 -0.0052962843 0.0 0.0
-0.010717419 0.062772885 -0.008756106 0.09358657 -0.0157331

actor.conv1.lin.weight f4 [21, 21]
00000000: dfc3 ab3e 5027 72bd 0c2f c43d 8b6a 053e
00000010: 00ee a73e 5b0a 90be 5515 aebe 28c3 9d3d
00000020: 20e4 5bbe 0093 de3d 6410 dbbb cc85 60bd
00000030: 2e50 91be 8e23 f1bd fd00 cc3d 6cac c6be
00000040: 421e 8f3d 72c7 973e 73f9 073e fc6e a53d
00000050: 50d9 85bd 6910 1abe ad31 9bbd 4a89 44be
00000060: 3bbb 0d3d 732d 98be 9ea6 9bbe 045f 70be
00000070: 2454 c23c 023a 893e c60c df3d cf5a 7e3e
00000080: 1062 543e af41 6abe f70a cdbc bbab a93e
00000090: 8452 f6bd 276e 29be 2c49 c33d 45ba bfbe
000000a0: 6eb4 4a3e 1314 82be a6cd c3bc 1bac fb3d
000000b0: 8910 1dbd 13a3 153e 5075 593e 7418 e23c
000000c0: 59d2 aabe c6d6 88bb 80ce 5fbe 581c a63d
000000d0: 9a78 8fbe 1000 2e3e faa3 233c e37c 203e
000000e0: f2b3 63be 52d5 1abd 0900 883e a88f 2abe
000000f0: f0a5 bcbe c930 923d 7f87 1a3e c6ad d13c
00000100: 1dcb b43e 3161 92be 8e0d 1b3e 98c1 2bbe
00000110: 0c46 913e 8014 403e 3299 c5bd f933 c4bd
00000120: c4a7 433e 8fd8 afbe a3bf 07bd 1aaf 52be
00000130: 6764 463e e63a 89be 68ed 6fbe 5409 a7be
00000140: e7b8 a33d 4185 93be 5135 b5bd 41aa fdbc
00000150: d207 ed3e 4819 c03e 54e8 d33e 676b c93e
00000160: 412c d1bc 53ba af3e 178f c43e 3191 f03e
00000170: b5f5 003f 5e0b 383e d494 db3d 4fd2 c33e
00000180: 6709 ac3e 617f bf3e a956 86be 2bc1 c73e
00000190: 54eb 793e 9cd6 85bd 1a42 b43e 88d6 b23e
000001a0: bf82 9f3e 76aa e43d f325 7fbe ff38 db3c
000001b0: 8eff 10be a664 8bbd 704a 163e b8b1 783b
000001c0: 3496 ba3d bb73 88be 3e10 6e3e 89b1 75be
000001d0: d9a6 14be f51a 9a3e 2ffc 9e3e 5435 66be
000001e0: 8e1e 183e d52f 75be 71b5 8f3e 3129 55bd
000001f0: 2f0b c1be 2c51 81be a325 f23d 7fd4 163e
00000200: b8d8 cc3e 6819 febd 5f9b 883e b3ff 07ba
00000210: 195c 0a3f 2113 8b3c 20cd 8d3d a560 163f
00000220: 0644 1b3e 3981 e73d e2a3 403e bae7 fb3d
00000230: 5fd9 823e 199a 933e f79b c53d e8d8 ee3e
00000240: 4c9b b33e d79b 63be 559f 38bd b2c3 94bd
00000250: 7336 bc3e c0b4 c23e 5f56 f13e d666 053f
00000260: 09d1 e03c b9d2 f23e 22a0 953e e2db 283e
00000270: 8cb4 d63e fc39 dd3d 9644 49be c1b6 5c3e
00000280: ba77 763e 0ead 533d fdec f83e 4012 993e
00000290: 84c9 a43d 74b7 783b d707 903e 01ab d93e
000002a0: 6d48 dd3c 24a6 3e3e ad87 373e 8735 fc3e
000002b0: 01c5 113f a4f2 423e 130c 043f 1245 0b3f
000002c0: 7563 303d 8114 86bd 33bf 053f 9cf7 4b3e
000002d0: dced 64be da72 dd3e a11b fc3e 9e55 d43e
000002e0: 28db da3d 9054 9f3e 6677 b33e 8e5e f0bd
000002f0: 1bdd ad3d 5ee9 6e3e 9e97 8dbe 4844 9a3e
00000300: 896c 6a3e 7504 803d 9c12 76be 08b6 a9be
00000310: 710f 933e dd66 893e 15af c03d 4c23 a43e
00000320: 8d43 89be 1cd2 d23d 312a aabe 6c4b f13c
00000330: 6162 dcbc eb64 5c3e 0f52 42be 08cf a5be
00000340: 56f6 d63d 694a 8cbd 64e9 473b 450d 84be
00000350: ff38 7c3e 381c 923e 1fae 1abe aa06 90be
00000360: f474 513e f007 99be 8f96 36be f510 bfbe
00000370: d013 82be 6c80 69bd b530 0a3e 4d68 52be
00000380: 1612 8e3e 6a1a 9cbd f662 163d 1a1c 49be
00000390: c655 913e f45d 48be 9bbe a23d 42ff 5f3e
000003a0: a8a0 a63d bd5b ea3d 8fb5 a0be 1aa8 243e
000003b0: a2a3 b43e 1e90 41b9 9a9d ef3d 748b 3cbe
000003c0: 3d46 d13d 5177 3c3d ddbe f5bd 1fff ad3d
000003d0: a173 323d ce9a aebe 10da 7a3e 0b35 6bbd
000003e0: e47d fb3d 4f77 b6be 3bdf 00be e895 6cbc
000003f0: d3d9 be3e 8b43 2bbd 627b 7d3e 0864 8d3e
0.33547875 -0.059119523 0.09579286 0.13028924 0.32798767 -0.281329 -0.3400065 0.07703239
-0.21473742 0.10867882 -0.0066853035 -0.0548151 -0.28381485 -0.1177436 0.09961126 -0.38803422
0.06988193 0.29644352 0.13278751 0.08077809 -0.0653559 -0.15045322 -0.07577834 -0.19192997
0.034602385 -0.29722175 -0.30400556 -0.23473746 0.023721762 0.2680207 0.10891108 0.24839328
0.20740533 -0.22876619 -0.025029643 0.33138832 -0.12027457 -0.16545926 0.09535441 -0.374468
0.19795391 -0.2540594 -0.023901772 0.12288686 -0.038345847 0.14612989 0.21236157 0.02759955
-0.33363608 -0.0041759936 -0.21856117 0.08110875 -0.280217 0.16992211 0.0099878255 0.1567264
-0.22236612 -0.037801094 0.26562527 -0.16656363 -0.3684535 0.07138211 0.1509075 0.025595557
0.35311213 -0.28589776 0.1514189 -0.16773069 0.28373754 0.1875782 -0.0964836 -0.095802255
0.19106966 -0.3434491 -0.033141743 -0.20574608 0.19374238 -0.26802748 -0.23430407 -0.32624304
0.07994252 -0.28812602 -0.0884806 -0.030964972 0.4629503 0.37519288 0.4138819 0.39339754
-0.025533797 0.34321842 0.3839042 0.46985772 0.5037492 0.17973086 0.10721746 0.3824639
0.33600923 0.3740187 -0.2623799 0.39014563 0.24406177 -0.06535074 0.3520668 0.349293
0.3115444 0.11165325 -0.2491682 0.026760576 -0.14159986 -0.068063065 0.14676833 0.0037947726
0.0911068 -0.26650795 0.23248383 -0.23993506 -0.14516772 0.30098692 0.31051776 -0.2248128
0.14855406 -0.23944028 0.28068116 -0.052041236 -0.37703845 -0.25257242 0.11823585 0.14729498
0.40009093 -0.124071896 0.2668104 -0.00051879435 0.5404678 0.016976895 0.0692389 0.5874122
0.15162668 0.11303944 0.18812516 0.12300058 0.25556466 0.28828505 0.096488886 0.4664986
0.3507942 -0.22227417 -0.045073826 -0.072638884 0.3676029 0.38028526 0.47136208 0.5211004
0.027443426 0.47426394 0.29223734 0.16490129 0.4193462 0.10802075 -0.1965507 0.2155409
0.2406911 0.05167871 0.48618308 0.29896736 0.080462486 0.0037951143 0.2813098 0.42513278
0.027012074 0.18618065 0.1792285 0.49259588 0.5694123 0.19037873 0.51580924 0.5440227
0.0430636 -0.065468796 0.5224487 0.19918674 -0.22356361 0.43251687 0.4923983 0.4147157
0.10686332 0.31119204 0.3505203 -0.11736785 0.08489438 0.2333121 -0.27654737 0.3013022
0.22892965 0.0625085 -0.24030536 -0.3314669 0.28722718 0.2683629 0.09408394 0.3205818
-0.2680935 0.102939814 -0.33235314 0.02945491 -0.02690238 0.21522872 -0.18976615 -0.32384515
0.104962036 -0.0685013 0.0030504102 -0.25791374 0.24631117 0.28537154 -0.15105484 -0.28130084
0.2045477 -0.29888868 -0.17830871 -0.37317625 -0.2540574 -0.05700724 0.13495143 -0.205476
0.27748173 -0.076222256 0.03671547 -0.19639626 0.28385752 -0.1956709 0.07946511 0.21874717
0.081361115 0.11443279 -0.31388518 0.1607975 0.35281092 -0.00018459602 0.11699982 -0.18412572
0.10218475 0.046012226 -0.11999295 0.08495926 0.043567304 -0.34102482 0.24497247 -0.057423633
0.12279871 -0.356379 -0.12585156 -0.014440037 0.37275562 -0.04181246 0.24754098 0.2761538

actor.lin1.weight f4 [32, 21]
00000000: 9e55 aebd 10f6 d2bd 74ac 1abe 15fe 623e
00000010: 6998 78bd 3178 d9bb b584 d0bc fd5b d3bd
00000020: 143f 073e 84d5 d3bd 9224 b53d 0ded 073e
00000030: d7cb 03be 4aa4 06bc c51f dcbd 3248 ecbd
00000040: 66a6 02be 7245 94bd d0b1 c1bd 13b3 c63d
00000050: cd59 b03c 98aa b43e 961c a03e 4f9c 303c
00000060: 5979 023e a6e8 b33e 3648 c53e 6212 ed3c
00000070: 82d5 be3e f9c5 d63e 9057 953e a418 cb3e
00000080: 7f30 e0bd d971 06be 9753 a9bd 4a5f c0bd
00000090: 409e 9fbe 1429 e7bc 7f44 413e 0bfe 0d3e
000000a0: cd34 353e 0ce5 00be d9d3 b73e 2923 cf3d
000000b0: cc0d 383d 5ce5 af3e 593e ea3d be9b d63e
000000c0: 698c 553e fde1 9d3e b62c 523e 962c 8e3e
000000d0: 534c 213e dbb8 b2bd 465a bcbc 09f7 70be
000000e0: b822 35be 4a76 a7bd 3d78 033e 639d 3d3d
000000f0: edcc 8f3c 8e7d 0b3e a0f1 7a3d 5fda 5f3e
00000100: 0fc6 863e 5fca 023e 37c4 ff3e a1d5 963e
00000110: 1ef1 773e 53ac bc3e 0d2a 983e 1f99 af3e
00000120: 4de3 023f ccbf df3e 244d 52be 3487 14bd
00000130: 5578 c6bc d5c4 90bc 403b 083e 5939 40bc
00000140: 9649 54be 5aab 1abe 3323 063e 7c15 82bd
00000150: f5d3 43bd 2998 a93d 51c2 11be 3e09 bf3d
00000160: b6cf 5fbe 8f64 16be d80d 8b3d 83ba aebd
00000170: 2860 66be e25b 06bc 2e9c 91bd d6dd 09be
00000180: 95ce b73d 50ce a4bd d4f8 febd 45e4 f63d
00000190: e2c8 da3d 7a00 873c 9cba 34bd c61a 2a3e
000001a0: b52a f1bd ffc3 aa3c b520 b53e 433d cd3d
000001b0: 9f5d b23d f466 8bbb 0f02 853e 71ed c13e
000001c0: 68d6 583e 9e83 05bd 13c1 753e 0f65 173e
000001d0: 3da7 26bd 9d2c b73d 3fa8 9b3d 4f1f 27be
000001e0: 3bb2 113b c15e 843d 770a 1f3e 55aa c63d
000001f0: 3564 a9bd d54e 7dbc e68f 39be 159a 61be
00000200: 409d f83d b26c 3abd bd45 79bd 12f0 3c3e
00000210: 96c3 e13d 11be 51be 30d1 f43d ef0a 3fbe
00000220: 8d32 543d 027b 8fbb 0488 e33c b167 a3bd
00000230: c23c 393e 0307 27be 9142 63bd e8bf bb3b
00000240: 4790 043d 09b6 4abd f868 3fbd c9c1 c13e
00000250: e208 a73e 9716 a73e 40c0 2d3e 5449 3b3e
00000260: 4753 dd3e 791f dc3e 452a 833e 3c90 d53e
00000270: 15a7 b93e 1506 c83e 5fcf 53bd fe7a 423d
00000280: 217b 8d3b 9f94 06be 7056 53be e05a 50bd
00000290: 5f19 c83d a62c 45be b66b 003e f962 06be
000002a0: 66b4 f8bd ded9 1e3e d4aa 7b3a eebf 273e
000002b0: 2088 1ebe dc92 38be ae40 2fbe f042 993d
000002c0: e822 563c 2fe0 3d3e 12a0 e8bc 5d38 e0bd
000002d0: 45c8 c4bd 9d01 12be 156e 23bc d4e9 28be
000002e0: e95e 5fbd 7cce 323d 0051 d73d c439 2a3d
000002f0: 73c2 333e 94fc 833e e0cb cf3e da45 2c3d
00000300: f18a a93d a710 3a3e 4a87 193e 2439 dd3e
00000310: 8afa ad3e 730d d73e e8db 083f 5d63 333e
00000320: 1cea 6fbe 19a9 74be fb2d 0bbe adde d03d
00000330: 1f30 4f3b 21bb 8bbe 0166 813d 9190 1039
00000340: d866 153d c24f b33d 8252 52be 208e d0bd
00000350: 25c1 a83d da5a 363e 0aec 55be 4699 223d
00000360: aa10 5e3e ccfa 513d 34ca ef3d 370f 0bbe
00000370: e97e 47be 4b6a d13d cacb 0abe c587 16be
00000380: 3b4c ce3c 8f47 4e3e fac8 493d 7912 1fbd
00000390: 7b67 abbc 6f47 c3bd 2ed5 e0bd 91db 2c3d
000003a0: f20a 28be d94c 8cbe 0b43 8dbe 4ad1 86be
000003b0: 6b1e 0abe 5a14 67be 8de6 c63d fdd0 61be
000003c0: 70cb f7bd 5816 933d f3b5 043e e5b7 393e
000003d0: 16d9 debd 5419 523c 2b7a 443e e514 cabb
000003e0: b8cd 2fbe e6a9 113e a8dc db3d 1ecf 4c3e
000003f0: ee69 053f fecf cb3e 22c0 723e 299a 153e
-0.08512424 -0.10300839 -0.15104848 0.22167237 -0.060692225 -0.0066366424 -0.025453905 -0.1032028
0.13207656 -0.10343459 0.08844866 0.13274021 -0.12870727 -0.0082178805 -0.10748247 -0.11537208
-0.12758788 -0.07239808 -0.09457743 0.097021244 0.021527195 0.35286403 0.3127181 0.010779454
0.12741603 0.35138434 0.38531655 0.02893943 0.3727227 0.41947916 0.29168367 0.39667237
-0.1094675 -0.13129367 -0.082678966 -0.09393175 -0.31175423 -0.02821783 0.18873785 0.13866441
0.17695923 -0.12587374 0.35903814 0.10114128 0.044935033 0.34354675 0.11437673 0.41915697
0.20854343 0.30836478 0.20524868 0.2776839 0.15751772 -0.08726665 -0.022992264 -0.23531736
-0.17689025 -0.08176859 0.12838836 0.046292674 0.01755377 0.13622114 0.061265588 0.21860646
0.26322982 0.12772511 0.49954388 0.2945986 0.24213073 0.36850223 0.29719582 0.3429651
0.51128083 0.43701017 -0.2053724 -0.036261752 -0.0242273 -0.017671982 0.13303852 -0.011732423
-0.20731196 -0.15104428 0.13099365 -0.06351754 -0.04780956 0.08280975 -0.14234282 0.09327935
-0.21856579 -0.14686798 0.0678975 -0.08531668 -0.22497618 -0.0082006175 -0.07109867 -0.1346353
0.08974949 -0.080471635 -0.12449804 0.12055258 0.106828466 0.01647972 -0.044123277 0.16611776
-0.11775724 0.020845411 0.35376516 0.1002145 0.08709263 -0.0042542163 0.25978133 0.37876466
0.2117554 -0.032596223 0.23999433 0.14784645 -0.040686835 0.08944056 0.0760045 -0.16320537
0.0022231478 0.064633854 0.15531336 0.09700457 -0.08271066 -0.01546069 -0.18121299 -0.22031434
0.12139368 -0.045513816 -0.060857523 0.18450955 0.11023633 -0.20482661 0.11953962 -0.18656515
0.05180602 -0.0043786773 0.027774818 -0.07978762 0.18089584 -0.16311269 -0.055483405 0.005729664
0.032364156 -0.04949001 -0.046730965 0.3784316 0.32623965 0.32634422 0.16967869 0.18289691
0.43227598 0.42992762 0.25618187 0.41711605 0.36260286 0.3906714 -0.051711436 0.047480576
0.0043176566 -0.13142632 -0.20638442 -0.050867915 0.09770464 -0.19255313 0.12541088 -0.13123693
-0.12143783 0.15512797 0.00096003455 0.16381809 -0.15481615 -0.18024772 -0.17114517 0.074834704
0.013069846 0.1854255 -0.02839664 -0.109482504 -0.09608511 -0.14258428 -0.009974976 -0.16495448
-0.054533873 0.04365395 0.105134964 0.041558996 0.17554645 0.2577864 0.40585232 0.042058803
0.08278454 0.18170415 0.14993015 0.43207657 0.3398021 0.42002448 0.5346055 0.17518373
-0.2342915 -0.2389263 -0.13591759 0.10198722 0.0031614376 -0.27291206 0.06318284 0.00013786765
0.036475033 0.08755447 -0.20539287 -0.10183358 0.082399644 0.17808095 -0.20890823 0.039696954
0.21686044 0.05126457 0.11708489 -0.13580023 -0.19482006 0.10225352 -0.13554302 -0.1470023
0.025182834 0.20144485 0.04926393 -0.038835976 -0.020923367 -0.09535109 -0.10978161 0.042201582
-0.16410425 -0.2740238 -0.27590212 -0.2633155 -0.13488166 -0.22566357 0.09711943 -0.22052379
-0.120993495 0.07181996 0.12960033 0.18136556 -0.108812496 0.0128234215 0.19187228 -0.0061670416
-0.17168319 0.14224967 0.10735446 0.20000884 0.5211476 0.39807123 0.23706105 0.14609589

actor.lin1.bias f4 [32]
00000000: d2ae 183e a9b8 2d3d cd43 963d b2e9 f23d
00000010: 9651 2d3e 1647 ea3c 2522 22be 144c d93d
00000020: fc77 81bd 32de b13d 37b6 87bd d5bc 2a3d
00000030: 6a08 443e f175 b73d 86c0 b6bb 10de 763d
00000040: 0534 283e 4672 7c3e 0a10 493e cba1 a43e
00000050: e300 3bbe e929 433d 6f01 303e 06a7 2e3e
00000060: 9874 98bc 9abd 13bd dde6 4abd 5df9 823e
00000070: de37 4e3d a4e6 403d bcb0 803e 792d 57be
0.14910439 0.042412434 0.07337151 0.1186098 0.16925654 0.02859835 -0.15833338 0.10610214
-0.06321713 0.086849585 -0.066265516 0.04168399 0.19143835 0.089580424 -0.00557715 0.06027037
0.16426094 0.24652967 0.19635025 0.32154688 -0.18262057 0.04764739 0.17188047 0.17055902
-0.018610284 -0.03606949 -0.049536575 0.25580874 0.050346248 0.047094956 0.25134838 -0.2101344

actor.lin2.weight f4 [32, 32]
00000000: d5ca c0bd 9306 223e 4672 943e 3343 b63e
00000010: a89f 24be 16f0 0e3e 52f0 d1bc 5f83 a43e
00000020: bdc2 1ebe 1b97 6d3e a241 993d b7be 813c
00000030: 0864 c13e e63c df3d 5d53 8d3e f71d 023e
00000040: 2c96 22be 7122 c3bc ec7f 1e3e be44 b73e
00000050: 3e78 55bd 8046 833e aa99 533c 5d0c 263e
00000060: ace9 003d b31e c7bd f300 a2bd 4acf 873e
00000070: 5b42 cf3d 12b8 843d 4f6a 653e 7c5b cebd
00000080: e51e bbbd db6a 30be e6a6 09be c028 0fbd
00000090: 7bc2 273e abd3 93bd 90a0 27bd daa0 2ebe
000000a0: 8111 2abe c437 60bd 6c97 76bd fb1a 0c3e
000000b0: 30ab d6bd c29d ecbd 740a 2d3d 3070 39bd
000000c0: 753e 323e 0e2c 953d c838 85bc 009c 763c
000000d0: 48ef 27be 9ccf 3b3d 2ce6 eabd dea9 92bd
000000e0: 1072 0cbd 2fbb 85bd 8046 94bc 1919 92bd
000000f0: e00b a03b 9050 643c 28b4 aebc 9661 c43d
00000100: 5441 8bbd 0b03 33bd 7e71 26bc 15ac 903c
00000110: 3984 22bc 1ca7 2f3e 710a 193e 7e62 18be
00000120: b9cb 1abe 5222 e6bd 8889 4ebd 6904 0f3e
00000130: 100c 50bd d7b4 bcbd 6019 a9bc 0121 973d
00000140: 9560 24bc c19f 083d 5491 e83d 2607 dbbd
00000150: 3031 f7bd 856e 0dbe 127c 6cbd 0443 d83d
00000160: 44a8 2a3d 3957 b4bd 73e0 f2bd 5f5d e73d
00000170: efb6 31bc ae7e 9a3d f0f1 8bbd 26de a23d
00000180: 38f1 0dbe e0eb 783e 822d b63d 0931 0c3e
00000190: 7a8c 103e 5c88 363e 44ff bd3c 4572 4b3e
000001a0: 8aae b0bd 20b5 1f3e a828 283c 3a27 b1bd
000001b0: 708f 583e 4548 30be 9a8e 86bc cec7 493d
000001c0: 5f56 e03d 762a 173e c690 893d ccf2 b93e
000001d0: bf82 09be 2dd9 6a3e 0a8c 7f3c 3f01 203e
000001e0: e0ef 113d 4090 29be 865b e23d 38c6 763e
000001f0: 27df c6bd 060f c8bd 8879 193e 9571 323e
00000200: 987a 13be 9cfc 32be 53cc 633d 8b2e 193e
00000210: 2620 f93d 3137 83bb 820f 813d dc42 b5bd
00000220: 0885 93bc 86c7 903d 78ec 4cbd e378 47bd
00000230: 9414 0fbd abd2 88bd 0cbc 7f3d f668 08bc
00000240: 22ac d43d e1c5 a2bc 9f7b ed3d d4b4 ddbd
00000250: d405 3bbd e8ee fe3d 4022 843b 73fa 22be
00000260: 86b3 b93d 0a17 14be df34 aebd e50f da3d
00000270: a5bc 173e d5e8 14be b47e 3cbe 980f adbc
00000280: 3e08 e7bd 0a28 8c3e a5c4 383e a5ba c63e
00000290: 2386 bdbd e1cb 3c3e 367b a2bd 4cfd cd3e
000002a0: 18b3 0bbe 7d95 3c3e 471c 03be df36 34be
000002b0: e99e a63e 49cc 80bd a26c f43d 662f 9e3e
000002c0: a09f 1cbe 8ffd 5d3e 8a8c 87bd 9010 643e
000002d0: 80e4 453d 90e2 6a3e ae4b 01be 1ad8 8a3d
000002e0: 5ddd 25be e2f7 263d d522 15be e3ed ea3c
000002f0: 9daf 2fbe 0ef1 b43d 8a95 b13e 9797 efbd
00000300: c81e 0ebe d64b 36be e9b7 80ba 7404 253c
00000310: 885d 01be 2b2e 7ebd 4ff0 2cbe 81e4 35be
00000320: 98d7 a0bc a50c 3a3d 61ef 80bd 105a d93d
00000330: 4b1c f03d 484a 533d aecc f33c 929b b3bc
00000340: 428f 5b3c 4733 37be b943 1d3e 1ff7 39be
00000350: e823 89bd 4ce7 a03d 33b9 123e 5288 2bbe
00000360: 747f 5cbd 77fe 273e f3e9 42be 0e56 c43d
00000370: 30fc 7e3d e4fa 743d 7100 1bbe a0cb 09be
00000380: 6379 0e3e 101c 5d3e 5fac dd3d f44d cd3e
00000390: fda0 093e 32f9 1c3e 4a4f ab3d 3846 af3e
000003a0: f8c3 283e f4c4 2a3e 3d9f 22be bdea 12be
000003b0: 575f 5f3e 8dfb 043e 93b7 a6bd 1b3f 823e
000003c0: b2d0 e13d fd60 803e 354f 013d 4470 833e
000003d0: 05fa aabd a29a 913e 348c afbc a2ea f73d
000003e0: bbd2 02be 07c1 a13d 09a5 e4bd 9b35 733e
000003f0: c152 9cbc 760b 963d 379b 973e c27a 9d3d
-0.09413687 0.1582282 0.28993434 0.35598144 -0.16076529 0.13958773 -0.025627289 0.32131478
-0.15503974 0.23202173 0.074832216 0.01583801 0.3777163 0.10900287 0.27602664 0.12706743
-0.15877599 -0.023820134 0.15478486 0.35794634 -0.052116625 0.25639725 0.012915054 0.16215654
0.031472847 -0.09722652 -0.07910337 0.26525337 0.10120078 0.06480421 0.22403835 -0.10076043
-0.09136752 -0.17228262 -0.13442573 -0.03495097 0.16382782 -0.07218107 -0.04092461 -0.17053548
-0.1660824 -0.054740682 -0.060203 0.13682167 -0.1048187 -0.115535274 0.042246297 -0.045273006
0.17406638 0.072837934 -0.016262427 0.015051842 -0.16399872 0.04585229 -0.11469683 -0.07161306
-0.034288466 -0.06529843 -0.018100023 -0.07133693 0.004884228 0.013935223 -0.02132614 0.095889255
-0.0679957 -0.043704074 -0.010158895 0.01766018 -0.00991922 0.17153591 0.1494539 -0.14881322
-0.15116777 -0.11237015 -0.05042413 0.13966526 -0.050792754 -0.0921418 -0.020641983 0.07379342
-0.010032793 0.03335548 0.11355844 -0.10694723 -0.12069929 -0.13811691 -0.05773551 0.10559657
0.041664377 -0.08805699 -0.118592165 0.11297106 -0.010846837 0.075436935 -0.06833255 0.07952528
-0.13861549 0.24308729 0.08895399 0.1369058 0.14116088 0.17825454 0.02319301 0.19867809
-0.08627041 0.15596437 0.010263599 -0.0865006 0.21148467 -0.17215069 -0.01642542 0.049262814
0.10953974 0.14762291 0.067170665 0.36318052 -0.13428782 0.22934408 0.015597353 0.15625475
0.035629153 -0.16558933 0.11052613 0.24099052 -0.09710532 -0.097684905 0.14987767 0.1742614
-0.14402235 -0.17479175 0.05561478 0.14959161 0.12164335 -0.004004382 0.06301786 -0.08850643
-0.01800777 0.07069306 -0.0500302 -0.04869927 -0.034931734 -0.06680807 0.062435195 -0.008325806
0.10384394 -0.019869747 0.115958445 -0.10825506 -0.045659855 0.124479115 0.004032403 -0.15915851
0.090674445 -0.14461914 -0.08506178 0.10647563 0.14818056 -0.14541943 -0.18407708 -0.0211256
-0.11280869 0.27374297 0.18043764 0.38814273 -0.092541 0.18437149 -0.07933657 0.40232313
-0.13642538 0.184164 -0.12803756 -0.17599057 0.32543114 -0.06288964 0.119347826 0.30895537
-0.15295267 0.21678756 -0.066186026 0.22271943 0.048313618 0.22937989 -0.12626526 0.06779499
-0.16197725 0.040763743 -0.14564069 0.028677886 -0.17156835 0.0883504 0.34684402 -0.11698835
-0.1387893 -0.17802367 -0.0009820434 0.0100718625 -0.12633336 -0.062055748 -0.16888545 -0.17762949
-0.019634053 0.045422215 -0.06295658 0.10612881 0.117241465 0.051584512 0.029760685 -0.021924768
0.013400855 -0.17890655 0.15357865 -0.18160675 -0.06696302 0.078566164 0.1432846 -0.16751221
-0.053832486 0.16405664 -0.19034557 0.09586726 0.062252223 0.05980958 -0.15136887 -0.13456583
0.13913493 0.21592736 0.10823893 0.40098536 0.13440318 0.15329435 0.083647326 0.3423326
0.16481006 0.16676694 -0.15881057 -0.14347358 0.21813713 0.12986584 -0.08140483 0.2543877
0.110261336 0.25073996 0.03156968 0.2567159 -0.08348469 0.28438288 -0.021429159 0.121052995
-0.127757 0.07898145 -0.111642905 0.23750918 -0.019082429 0.07326405 0.29610607 0.0768943

actor.lin2.bias f4 [32]
00000000: 2bfc e5bc 4010 4fbb be4c dabd 974b 833e
00000010: 6515 2bbe b4b2 8f3e 1b41 85bd 9e44 6c3e
00000020: 8ef9 593d fd99 b1bd 0c83 84bd 2ab8 f43d
00000030: 2877 783d 520e af3d f305 3c3e d203 743e
00000040: 97ed 833d aab8 303e 5e96 f13d 6fe0 73bc
00000050: be20 753e ee77 9239 04a9 28bc 9835 0e3e
00000060: b5a6 d1bd f07f 7b3d c0b5 0bbd 2e69 213e
00000070: 00e9 92ba 97d0 b63d f25e 133e ea40 8f3c
-0.028074345 -0.003159538 -0.10659169 0.25643608 -0.1670738 0.28066027 -0.065065585 0.2307305
0.05321651 -0.08671949 -0.06470308 0.11949189 0.06066051 0.08547653 0.18361644 0.23829582
0.06441801 0.17257944 0.117962584 -0.014885052 0.23938271 0.00027936645 -0.010294203 0.13887632
-0.10236875 0.061401308 -0.034108877 0.15762779 -0.0011208355 0.08926504 0.14391688 0.017487008

actor.lin3.weight f4 [1, 32]
00000000: 397f bb3e c7e0 193e 627a 0cbe 4eb7 583e
00000010: 57e0 0cbd 1e2a 8a3e 1958 ad3b 5916 b23e
00000020: b09e 13be f4ca d0bd b0a4 a53e 5a77 bcbd
00000030: 88fe d63e ab51 833d e100 6b3e fb1b 6e3e
00000040: e716 04be d175 4bbc 6a3f 983e 627c bcbd
00000050: 329e 983e 943a c2bc 4265 d8bd 7749 c4bd
00000060: 2467 b9bd 0191 bbbc a830 993e 2f99 af3e
00000070: e415 6dbd 0dfc c73e f1d2 823e 08d5 d43e
0.366205 0.15027152 -0.1371856 0.21163675 -0.034393635 0.26985258 0.005290043 0.34782675
-0.14416003 -0.1019496 0.3235221 -0.09202452 0.41991067 0.06412061 0.22949554 0.23252861
-0.12899362 -0.012418226 0.2973588 -0.09203412 0.29808193 -0.023709573 -0.105661884 -0.09584325
-0.09052876 -0.022896292 0.29919934 0.34296557 -0.057882205 0.39059487 0.2555156 0.4156878

actor.convp.bias f4 [21]
00000000: 9891 8f3c 220d 5abc 0000 0000 d53c f13b
00000010: 14b8 823c c851 f7bb 21e4 703c 679a deba
00000020: e268 283b a167 cdbb 7a3f 1f3c d26d 813c
00000030: 603f 7b3c 22e7 16bc a40f dd3c 0d11 5dbc
00000040: a69b 5dbc 12de 633c 0000 0000 b861 edbb
00000050: ef13 d03b
0.01752548 -0.013308795 0.0 0.007361988 0.015956916 -0.007547591 0.014702828 -0.0016983271
0.002569728 -0.006268457 0.009719724 0.015799437 0.015334934 -0.00921038 0.026984997 -0.013492835
-0.013525879 0.013907926 0.0 -0.007244315 0.0063500325

actor.convp.lin.weight f4 [21, 21]
00000000: d4bc 7abe ded7 58bc ff27 a8be 1459 633d
00000010: 5dcb a0be 2702 8ebe 643e 11be f420 7bbe
00000020: 1095 31be 136c 093e 085d 86be 34e0 ad3e
00000030: 3c65 b0be 9c60 8d3e 3da0 563e d8cb 663e
00000040: 8814 bb3e 8d46 10be 5b36 823e 204e 893e
00000050: e3fa cc3d beb4 8d3e db4c ad3e 7b5b 9e3c
00000060: ba8c 9fbd c5c4 af3d e16d 083e d5a4 b73d
00000070: 4684 74be ba44 bcbd 9cec cabd b07b f4bd
00000080: 7b9d 46be 8919 2a3c efd7 3d3e dcf1 7cbe
00000090: 864a 703e c47f 883e f696 d73d f011 18be
000000a0: 55dd 7abd 6454 433e 7643 373e 6446 febd
000000b0: 1771 11be 9ce0 97be 283b a13d 58ac 553d
000000c0: c762 a0be 8a48 98be 54a3 4fbe f2d2 bebe
000000d0: fbb3 ab3e 78db 623d 9fe7 30be 1f6b 79be
000000e0: 1020 113d f940 b63e b889 8dbe f1ac abbe
000000f0: 9c5b 54be 2bf6 14be 5090 803d 514b c1be
00000100: 7d1d afbe 85f8 aebe 15ec 0b3c f1a4 4bbe
00000110: a76e a03d 803e d5b9 4b29 053d a7cb 953e
00000120: f478 b4be 3613 3b3c 36d7 733e 17b3 30bd
00000130: 180f e7bd 07bd 1dbe 1a3c 883e b20a 6c3e
00000140: 0653 953e c2c0 5c3e 4e53 523e e3bf 66bd
00000150: eba1 c03e 7078 693e 07e4 88be ed94 3a3e
00000160: d402 ca3c ac36 a43d c5a7 e7bc eef9 05be
00000170: 3abc afbe 696b 46be ca7a b4bc b196 fcbd
00000180: 6fe3 863e 0f72 9dbe 02d6 c83e 15db 453e
00000190: 3d75 b3be ecbe 413e 447d 2c3c 6e63 1bbe
000001a0: 1deb 013e f406 943e cf50 c0bc 994c 27bd
000001b0: 6876 213e 8901 01be 96af 44be ab08 9cbe
000001c0: 239f 3d3d f9f5 283d f23e 93be 6355 61be
000001d0: a6d7 e3bd 9c52 003e 5616 393e 6ad8 77be
000001e0: c0f9 813d b554 a23e d740 b33e 5866 28be
000001f0: 4785 b03e 90da 6b3d 5175 8c3e c8af 4e3e
00000200: a609 15bd de10 a5be 47a2 bb3d 2db9 c2bd
00000210: f681 edbd 8101 b43e eeb8 ee3d 6d85 923e
00000220: b60c 3c3e b957 b33e b49e 8fbd 2685 c2bd
00000230: 1cf7 83bd afaf 9dbd 73b6 8e3e fa66 90be
00000240: 0b3c 85be fe24 92be 0fa3 a2bb ad2a 7e3e
00000250: 7737 fb3d 0dbd 85be 467e 7f3d cacc 2d3b
00000260: b107 873e d80d 09be 58c6 5e3e 3146 473e
00000270: ecff 97be 2f5e aebc f92a 25be 56f6 6abe
00000280: 7df8 353e 78fa 733e 38ee b33d aa47 9d3e
00000290: 22d6 9f3e d590 6b3e ee3b 0fbe b258 83be
000002a0: 80f3 91be 6aa5 67bd 0820 ebbd 3f9f a23e
000002b0: b0f7 863e 6318 dc3d 54ac 8abe 36f5 223e
000002c0: e20b 97be b717 8fbe 78db 2c3e 4b4a 8c3e
000002d0: a85e 783e 044b 2cbe 0fe8 8c3d ddb2 0e3e
000002e0: 020c 18be 3ce3 9ebc b65e b7be def7 41be
000002f0: a6e2 203e 9d00 133e 2ccd 8bbe 7bae ae3e
00000300: 750d b9be 294e b5bc e3c1 883e 1052 1ebe
00000310: 0a08 8f3d 7342 51be 421b bbbe bcd5 cc3d
00000320: bbe9 9b3d 3b61 b9be 9df2 63be 55ae 093e
00000330: f883 ffbc 933b b8be 2363 a23e 8808 ad3e
00000340: 7755 df3d 52eb 723e a13b 95bd e35c d33d
00000350: 82c7 b93e 6608 873e bb43 d3bc 84d6 47be
00000360: 4432 8f3e de71 86be 2771 273e f861 34be
00000370: 6a0c b4be 74e9 9fbe cecb bd3d 8e98 993e
00000380: 3098 40bd 9a10 a93e f890 54be 39d9 793e
00000390: a026 0b3e 815e 77bc d9fe ce3d 4b9e 08bc
000003a0: f747 963e 0bba 17be 495e 1abe 8cb1 c8bd
000003b0: b476 d0bc 6f5e 32bd 95ea 7cbe 74a6 6ebe
000003c0: 104f 41bd 4a73 af3d 2dbf 2abe 008a 8f3a
000003d0: 3f52 bebe 1ecb 07be 7a19 3b3e 40ca febc
000003e0: 9c6f b53d 5069 8bbe f835 3cbd 88b1 96bd
000003f0: a943 8ebe 0b4f 53bd 6812 943e b525 b1be
-0.24486095 -0.0132350605 -0.32843015 0.055504873 -0.31405154 -0.27736017 -0.14183956 -0.2452429
-0.17342019 0.13420133 -0.26242852 0.33960116 -0.34452236 0.2761277 0.20959564 0.22538698
0.36539102 -0.14089413 0.25432095 0.26817417 0.1000879 0.27676958 0.338477 0.01933073
-0.07790513 0.08582453 0.13323165 0.08966986 -0.23878583 -0.09192796 -0.09908411 -0.11937654
-0.19396012 0.010382065 0.18539403 -0.24701637 0.23465928 0.26659977 0.105268404 -0.14850593
-0.061246235 0.19075161 0.17896828 -0.1241577 -0.14203297 -0.2966355 0.07872611 0.052166313
-0.3132536 -0.29742843 -0.20277148 -0.37270314 0.33535752 0.055385083 -0.17275856 -0.2435727
0.035430968 0.35596445 -0.27644134 -0.3353038 -0.20738071 -0.1454703 0.062775254 -0.37752774
-0.34202185 -0.3417398 0.008540173 -0.19887139 0.07833605 -0.00040673092 0.032510083 0.29256937
-0.3524853 0.011418154 0.23812565 -0.043139543 -0.11282176 -0.1540414 0.26608354 0.23050955
0.29164904 0.21557906 0.2053959 -0.05633534 0.37623534 0.2279985 -0.2673647 0.18220873
0.024659552 0.0801824 -0.028278241 -0.13083622 -0.34323293 -0.19376911 -0.022031207 -0.123334296
0.26345393 -0.30751082 0.39225775 0.19321854 -0.35050383 0.18920487 0.0105279125 -0.15174648
0.12687345 0.28911555 -0.023476033 -0.040844534 0.15767825 -0.12598242 -0.19207606 -0.30475363
0.046294343 0.041250203 -0.2875896 -0.22005229 -0.11125116 0.12531513 0.18074927 -0.24203649
0.06346464 0.3170525 0.35010406 -0.16445291 0.34476683 0.057581484 0.27433255 0.20184243
-0.036386155 -0.3223943 0.09161811 -0.09507976 -0.11597054 0.35157397 0.11656366 0.2861742
0.18364224 0.35027865 -0.07012692 -0.09498052 -0.06443617 -0.076995246 0.27873573 -0.28203565
-0.26022372 -0.28543848 -0.0049632858 0.24820967 0.122664385 -0.26120797 0.062376283 0.002651977
0.26373056 -0.13384187 0.2175535 0.1946037 -0.2968744 -0.021285145 -0.16129674 -0.22945532
0.17770572 0.23826015 0.08785671 0.30718738 0.31218058 0.23004468 -0.13987705 -0.25653607
-0.28506088 -0.056554236 -0.11480719 0.3176212 0.26360846 0.10746839 -0.270846 0.15913853
-0.29501253 -0.2794778 0.16880596 0.2740043 0.24254858 -0.16825491 0.06880199 0.13935418
-0.1484833 -0.019395463 -0.35814446 -0.1894221 0.1571146 0.14355703 -0.2730497 0.34117493
-0.3614308 -0.022131996 0.26710424 -0.15460992 0.06983955 -0.20435505 -0.36544234 0.10001704
0.0761294 -0.36206993 -0.22260518 0.13445409 -0.031190857 -0.35982952 0.3171626 0.3379557
0.10904973 0.2372258 -0.07286764 0.10320451 0.36285025 0.26373595 -0.025789132 -0.19515425
0.27968037 -0.2625875 0.16351758 -0.17615497 -0.3516572 -0.31232798 0.09267388 0.29999202
-0.047020137 0.33020478 -0.20758426 0.2439927 0.13588953 -0.015098215 0.10107202 -0.008338521
0.2935178 -0.14817064 -0.1507503 -0.097994894 -0.025447227 -0.04354709 -0.24698861 -0.23305684
-0.04719454 0.085669115 -0.1667449 0.0010951161 -0.37172124 -0.13261077 0.18271437 -0.0311023
0.088591784 -0.27228785 -0.045949906 -0.0735808 -0.27785996 -0.051589053 0.28920293 -0.3459908

actor.lin1p.weight f4 [8, 21]
00000000: 6778 363e b5b6 03bd 084b b03d 65b4 a7bb
00000010: 4942 e23c 9476 473e 6156 353c 7674 c8bd
00000020: a6ea 5c3d 44bb 223d ff48 6dbd 2d80 53be
00000030: 7ea6 02be f29f 14be fa7c 3abd 3e25 97bd
00000040: 9fbb 453e 0aa2 bc3d ce22 0ebe f104 793c
00000050: c350 4fbe c66a 1dbe 98d2 3f3d c996 c7bd
00000060: 1b50 e3bc 0d23 203c e7ee 063d a9c3 403e
00000070: 3c0e 083d d621 ccbd 08fa e43d 8d18 c9bc
00000080: 3e1b 233e 22f5 bdbc d560 50be 375a 36be
00000090: fe33 d1bd bddf 4f3d ea32 f23d 04cd 03be
000000a0: 3f29 243e f889 e3bd 293c e0bc 6378 8dbc
000000b0: 9b5a 66bd d20f db3d e4ac 0c3e 566c c03d
000000c0: 8123 f23d 5e5d fc3c dab3 1c3e 15c4 f8bd
000000d0: ef1e b4bd f36a f03d c51d f8bd f11c 8c3c
000000e0: 0fc4 ae3c ce7b 09be a309 833d 3d8c 0cbd
000000f0: 71c1 083e 2f34 353e 1230 0d3e 5baa 14be
00000100: 7dd2 0abd e756 53be f1e5 5bbe 093c a7bd
00000110: bd9b f4bd b46d 2bbe b5b0 48be dc03 1dbc
00000120: 4f9f a8bc c038 a3bc 520f 2bbe d488 453d
00000130: a462 4d3e fe26 923d a84e a93d 66e8 cc3d
00000140: 5626 68bd 044a 52bd e87c 153e 183c 04bd
00000150: 2328 8fbd 6937 a43d 82a8 e23d 9ee8 2ebe
00000160: 7337 e6bd 7245 2d3e cb14 163d 8dd1 0e3e
00000170: a648 093e f59e f9bc eee8 033e 7088 5c3e
00000180: 57ca 14be 4832 cf3d cda9 e5bd 40af 143e
00000190: 189a 5e3d b057 fcbd 88f3 383e bc07 683d
000001a0: 45a8 f33d c7db ed3d 7459 1bbd 3747 3b3d
000001b0: c491 0bbe 0caf 233d 8078 adbd 0fe2 073e
000001c0: 606c 7abd d7b3 f93d 1b26 003c fe6b 613d
000001d0: bcb7 36be cf7c 423e dc3a 1a3e 33a6 9c3d
000001e0: 3b70 76bd 267e bf3d af0e 483e 65e4 0e3e
000001f0: 5120 053e c15f 113e 7c94 093e f897 29be
00000200: 1cb5 9fbd cee1 223c e264 a43b cb20 c7bc
00000210: 58fe 6d3d 246a 0cbe 56fc c33d 68cc 38be
00000220: e90a d63c c4a0 bebd a045 50be 9399 2f3e
00000230: f1fc af3d 6a28 45be a304 d5bd 5445 223e
00000240: 389f d83d 372e f53d 2509 5e3e 5686 df3d
00000250: c3cf fabd 075c 153e d62a febd 2219 df3d
00000260: 0c4b 0abe b8cd 4d3e 639e 323e 0d54 9c3d
00000270: 0c2a 8f3d 0c4b 1f3e 0a6b 4b3e 2cdf 94bd
00000280: 45c2 363e 4898 a3bd ee64 da3d a561 42be
00000290: 80a9 163e 6b42 d5bd 4115 d5bd 757b 433e
0.17819367 -0.032156665 0.08608061 -0.0051179403 0.027619498 0.19478828 0.011067958 -0.09787838
0.053934716 0.03972937 -0.057930943 -0.20654364 -0.12758824 -0.1451414 -0.045529343 -0.0738015
0.19309853 0.09210594 -0.13880464 0.015198932 -0.20245652 -0.15372762 0.046831697 -0.09745557
-0.027748158 0.009773982 0.03294268 0.18824638 0.0332167 -0.09967391 0.11180502 -0.02454784
0.15928361 -0.023188177 -0.20349438 -0.17807852 -0.10214995 0.050750483 0.11826117 -0.12871176
0.16031359 -0.111103 -0.027372437 -0.017269319 -0.05623875 0.10696377 0.13737828 0.093956634
0.11823178 0.03080624 0.15302983 -0.12146775 -0.087949626 0.11739149 -0.12115053 0.017103644
0.021333722 -0.13426134 0.063983224 -0.03431343 0.13355042 0.17695688 0.13787869 -0.1451811
-0.033892144 -0.2063862 -0.21474434 -0.08165748 -0.11943767 -0.16741067 -0.19598658 -0.00958344
-0.020583777 -0.019924521 -0.16705063 0.048226193 0.2005716 0.071363434 0.082669556 0.10005264
-0.056677185 -0.051340118 0.14598429 -0.032283872 -0.06990077 0.08018381 0.110672966 -0.17080924
-0.11241045 0.16921023 0.036640923 0.13947125 0.1340662 -0.030471304 0.12881824 0.21536422
-0.14530312 0.10117012 -0.112140276 0.14519978 0.054346174 -0.123214126 0.1806165 0.056648
0.11897329 0.11614185 -0.037927106 0.045722213 -0.13629824 0.03996186 -0.08470249 0.13269828
-0.06113851 0.12192505 0.007821585 0.05503463 -0.17843527 0.18992923 0.15061516 0.076488875
-0.060165625 0.09350233 0.19536851 0.13954313 0.13000609 0.14196683 0.13435549 -0.16561878
-0.07798216 0.009941531 0.005016909 -0.02430763 0.05810389 -0.13712364 0.09569614 -0.18046725
0.02612825 -0.09308007 -0.2033906 0.17148428 0.085931666 -0.19253698 -0.10401275 0.15846759
0.105772436 0.119717054 0.21683176 0.109142944 -0.12246659 0.14585887 -0.12410514 0.108934656
-0.1350519 0.20098007 0.17443232 0.07633219 0.06990442 0.15555972 0.19865051 -0.07269129
0.17847545 -0.0798803 0.10663782 -0.18982561 0.14713097 -0.10413059 -0.104044445 0.19090064

actor.lin1p.bias f4 [8]
00000000: c531 8b3c d065 9cbd 603a e33b 8123 333e
00000010: ea30 40be 325b 25bc eec7 623e ee79 453e
0.016991505 -0.07636607 0.006934449 0.17494012 -0.18768659 -0.010092543 0.2214658 0.19284794

actor.lin2p.weight f4 [8, 8]
00000000: 30a8 93bc b023 1fbd 2a09 003e 18b3 62be
00000010: 3329 a6be 423d 87be 716b b13e 2c3f 25be
00000020: 87cc 15be 5340 94be fc0e 5ebe 3d05 a93d
00000030: 3d28 623e 3ee1 b13e 8e76 9abe dbfb 98be
00000040: fb7c 9d3e e019 89be 51b0 823e 3d2c a63e
00000050: e6e8 b63e 9098 53be 2516 953e 1444 943e
00000060: ea16 6d3e 59f9 b13d f2c2 acb9 2167 6abe
00000070: 3581 52be 5f54 083d 4bf2 c2bd dd6b c0bc
00000080: ba2c 663e 19de 38be 96ae 94be f247 d93d
00000090: f3d4 a2be 30b6 4d3e 49b7 a0be ecc8 873e
000000a0: 8d1b a3be 2cb5 98bd 7ac0 593e 5e65 92be
000000b0: 3857 9cbd 510e 8c3e 44ad 17bd 265e 9b3e
000000c0: a8e2 14bd 688b 493d b347 08be 64f4 a43d
000000d0: d6dd fcbd 719b 823e 048e 9bbd fa93 a2be
000000e0: 46d1 b23e 79d3 3f3e a483 e3bd 53ba 883d
000000f0: 6fd4 e5bd 6bbc b2bd 3f88 5dbe 1ade 8a3d
-0.018024534 -0.038852394 0.12503496 -0.22138631 -0.32453308 -0.26413924 0.34652284 -0.1613738
-0.14628802 -0.28955325 -0.21685404 0.08252952 0.22085662 0.3474216 -0.30168575 -0.2987965
0.30759415 -0.26777554 0.25525144 0.32455626 0.35724562 -0.20663667 0.29118457 0.2895819
0.23153272 0.086901374 -0.00032951642 -0.22890903 -0.20557101 0.033283588 -0.0951887 -0.023488933
0.22478 -0.18053474 -0.29039448 0.106094256 -0.31803092 0.2008903 -0.31389835 0.2652048
-0.31856957 -0.07456431 0.2126483 -0.28592962 -0.07633823 0.27354673 -0.037030473 0.30345267
-0.03634897 0.049205214 -0.13308601 0.08054426 -0.12346999 0.25509217 -0.07595447 -0.31753522
0.34925288 0.18733014 -0.11109093 0.066761635 -0.11222159 -0.08727344 -0.21634005 0.06780644

actor.lin2p.bias f4 [8]
00000000: 76c1 17be 9adb 993e 347c 4fbe 0982 623e
00000010: c4c3 9bbb aed2 9b3e 3081 adbe b08c b63e
-0.14819893 0.30050355 -0.20262223 0.22119917 -0.0047535617 0.30434173 -0.33887625 0.3565421

actor.bilinp.weight f4 [8, 8]
00000000: 609e a8bc 0081 79be e48f b33d c216 7fbe
00000010: 65b9 b3be 4a82 f7bd 5cad e2bd 0593 953e
00000020: d04a ae3d e3fd 3f3d 259e a2be fab2 ab3e
00000030: 6779 193e e5b6 8e3e 58a3 91be 50a8 a9be
00000040: 4058 9e3d d308 12be 57ef 0f3e 07a0 953e
00000050: e649 0a3d ee42 583e 0046 e83d c6fe 3bbe
00000060: fb4c 803e f86b 9bbe 4532 cfbc 6e36 883e
00000070: 16b2 96be 687f 82bb 6a43 543e ddfe 843e
00000080: 6e3a 21be ebfd a43e 81e9 38bb a44e 55be
00000090: 1aad 1fbd aa19 95be b448 df3d 151d 153e
000000a0: a850 f93d 21f7 99be 0a1a b7bd ed27 91be
000000b0: 7386 6dbe 0437 c73d ae59 b1be b03b 8bbd
000000c0: 4ada 023e 2a08 573e 8a30 183e 7d61 60be
000000d0: bcb6 95be 3950 72be 6d41 963e c0c9 0ebc
000000e0: 8e13 193e b363 6f3d 2a80 933d 879b 973e
000000f0: d1aa febc 2a53 b3be ff36 9c3e cedb 49be
-0.020583332 -0.24365616 0.08767679 -0.24911025 -0.35102382 -0.120853975 -0.11068222 0.2921373
0.08510363 0.046872985 -0.3176128 0.33534986 0.14987718 0.27873912 -0.28444934 -0.33136225
0.07731676 -0.14261179 0.14056145 0.29223654 0.03376188 0.21119282 0.113414764 -0.18358907
0.2505873 -0.3035581 -0.025292525 0.26604027 -0.29432744 -0.003982473 0.20728841 0.25975695
-0.15744945 0.32224974 -0.002821535 -0.2083078 -0.038983442 -0.29121143 0.10902539 0.14561875
0.12173587 -0.30071357 -0.089405134 -0.28350773 -0.2319582 0.0972729 -0.34638733 -0.06798494
0.12778583 0.20999208 0.14862266 -0.21912189 -0.29240978 -0.23663415 0.2934679 -0.008715093
0.14948866 0.05844469 0.0720218 0.29610845 -0.031087311 -0.35024387 0.3051071 -0.19712755

critic.conv1.bias f4 [21]
00000000: bcdb 49be 0000 0000 810b b53e c677 62ba
00000010: bb81 8abe 74e1 853e 8961 92be 9ab0 ccbc
00000020: 83d1 acbc c0c5 883e ebeb 8cbb eaa5 483e
00000030: f9d4 50be d065 68be c03e 4c3e 31d1 4a3e
00000040: b8da 84be 2fe3 b43e 2340 65be e4c7 babe
00000050: 49bb 97be
-0.19712728 0.0 0.3536034 -0.00086390635 -0.27052101 0.2614857 -0.28590038 -0.024986554
-0.021095997 0.2671337 -0.0043005846 0.19594541 -0.20393743 -0.22695088 0.19945812 0.19806363
-0.2594812 0.35329577 -0.22387747 -0.3648063 -0.29635075

critic.conv1.lin.weight f4 [21, 21]
00000000: 4007 a53e 36d3 b13e f0f2 9b3e f93b c8bd
00000010: c395 513e 879c f53d ba48 923d e2b2 d03e
00000020: 072c 2abc 3ca9 d43e 68a8 ad3e c3f1 b0be
00000030: dd38 2bbe 4797 f63d bbea b3be 9ef0 82be
00000040: 5a0c 2ebe 28fa 793e cd56 8a3e 3604 b9bd
00000050: 4e9d 283e 7610 713e 90fd ecbc 8cd5 13be
00000060: 002a 313d 74dc a9be 0e0d 9bbe 8077 1e3b
00000070: 9e15 0f3e 06ac 743e 7b38 9dbe 68fc 453d
00000080: 9174 31be d8cb 4bbd d6ba 74be d393 adbe
00000090: 17ac 813e 2e7e 16be 1248 653e 8d74 90be
000000a0: 3014 ffbc 0682 763e 25c7 ebbb dcbe ef3e
000000b0: 3025 dabd aff5 d13e 35c2 01bd ed7c 583e
000000c0: b23f 33be 0406 6f3e 8781 b3be 72bf 253e
000000d0: 5a17 a2be ec50 3a3e 2d33 c13e fb05 553e
000000e0: 8a2f 073e e081 97be e0cd 33be 0104 89be
000000f0: 8cea 663e 2580 43bc c5bb 86be 2bbf 923e
00000100: dbff 32bd bdc3 80be 23fc 30be 80e7 b7bd
00000110: 8267 0bbd 5e3a 663d b7cf a43e d420 f9bd
00000120: 129e 20bd fae5 a43d 3709 573d a693 88be
00000130: 4a6d 79be 9159 91be a639 763e d84c 69be
00000140: c219 bbbd 916c 73be c0ed b8be e986 b63e
00000150: 35b4 50be 2a3b 70be 652d 57bd f436 86be
00000160: fdf9 ab3e 616d 55be b733 9f3c e4ac 9a3e
00000170: bbe3 8dbe cee6 29be 8ad1 bdbe 7375 38be
00000180: 5cc6 9f3e d580 a5be d2b1 893d cabf 2a3e
00000190: 97e7 b03e eab1 aa3e e435 5c3e 8ae9 40be
000001a0: efa9 0cbd 1d1d a23d c421 c5bd 0a13 423e
000001b0: eb0f 1b3e 259a fbbc 056c 48be b251 41be
000001c0: 10bd 85bc 79c2 fcbd bb4d 25be ddd1 c0be
000001d0: cab3 d43d d9f8 91be 4cf1 34be 04f3 05bd
000001e0: e26d a63e 7dd2 c73d 856e a23d 1d74 4cbe
000001f0: d6c9 843e 0c57 df3c 3472 3cbe d2b7 313e
00000200: d925 99be f9c9 cfbe 1e99 8c3e e968 323e
00000210: c01c ba3e 5c65 9e3e 2b35 c13e efb2 d7bc
00000220: 5b1e aebe 71a2 ac3e f875 893d fe22 afbe
00000230: e436 0ebe 0c84 adbe 200d 4a3e 2c22 d23e
00000240: 922f 223e 293a 9d3e 10bf a8bd 13f9 1e3e
00000250: 9461 02be a4cb 713e 57d0 0c3e 607e b8be
00000260: 5888 f63d 6645 bdbe 9b60 013e 8364 c1bd
00000270: a2a0 abbe adbe dcbc c511 3cbe 90de b7be
00000280: 20d2 513d f600 003e a4e1 ebbd 93d1 7ebe
00000290: edc7 babe a16c 873e dadc 83be dcf7 c73d
000002a0: cb01 b8bd df60 663e c164 9b3e 6569 a73e
000002b0: 526a 06be 023b 10ba 3800 0cbd 7237 a2be
000002c0: 56cf 823e ef63 d5bd 02b5 74be 9ef0 a93e
000002d0: f8cd 23be 7d53 103e e4d2 b73e 1cad 5cbe
000002e0: 4807 6bbe 1748 4bbe 63a8 333e 9159 a83e
000002f0: f440 833e 7e39 0f3e f289 e53e d728 4bbe
00000300: 4d19 99bc 6fe2 8b3e 4042 9a3d 6048 29be
00000310: 5f37 d83d 6cf9 8c3e c117 6c3e 628f 433e
00000320: dcab f5bd 3011 c9be 6e29 29bc b064 3cbe
00000330: 41b8 763b 27a1 133e beca d8bc abb8 983d
00000340: f5e2 b83b 5296 c13c 551b b43d 44de 1ebe
00000350: 73e4 973e 306c 4bbe f651 fb3d a393 1dbd
00000360: d0ec 503e 0f19 eebd 0016 abbe 0397 b6be
00000370: 5f6d b9bd e804 e83d 2d0e 4cbe ed95 6fbe
00000380: 515b 7bbe 219d 65be d723 a03e 761d babe
00000390: ccb1 c33d 7f87 8ebe 92da 0a3e 4894 7ebe
000003a0: a082 893e 96ad 2b3e 49a7 c53e 4e5f be3e
000003b0: de05 cbbd 73b0 9b3e 8c02 bd3d ac7d 763e
000003c0: bcd3 453d 2aba c63d 96f4 aabd 2a8c 6ebe
000003d0: 2e9a e03c b69e 963e 450c 24bd 9ec6 babd
000003e0: 9e27 ba3d 197a 3f3d 9726 51be 3b5c 8a3e
000003f0: ad8e 3c3e da95 4ebe 9fb0 77be 0b96 4d3e
0.32232094 0.34731454 0.30458784 -0.09777064 0.20467286 0.11992746 0.07142778 0.40761477
-0.0103864735 0.41535366 0.33917546 -0.3455945 -0.1672091 0.120405726 -0.35140023 -0.255742
-0.16996899 0.24411833 0.2701935 -0.09034006 0.16466257 0.23541436 -0.028929502 -0.1443693
0.043252945 -0.33176005 -0.30283397 0.0024180114 0.1397309 0.23893747 -0.30707154 0.048336416
-0.17329623 -0.049754947 -0.23899397 -0.33901843 0.25326607 -0.14696571 0.22390774 -0.2821392
-0.031137556 0.24073038 -0.0071953707 0.46825302 -0.10651624 0.41007754 -0.03167935 0.21141405
-0.17504767 0.23342139 -0.3505976 0.16186312 -0.3165844 0.18194932 0.37734357 0.20803063
0.13201728 -0.29591274 -0.17559004 -0.26760867 0.2255041 -0.0119324075 -0.26315132 0.28661475
-0.043701034 -0.25149336 -0.17283683 -0.08979702 -0.03403426 0.056208007 0.32189724 -0.121644646
-0.039213248 0.08051677 0.052499022 -0.26675147 -0.24358097 -0.28388646 0.24045429 -0.2278322
-0.09135772 -0.23771884 -0.3611889 0.35649803 -0.20381244 -0.2346007 -0.052533526 -0.262138
0.33589163 -0.20842506 0.01943384 0.3021003 -0.27712807 -0.16591951 -0.37073928 -0.18013553
0.31206024 -0.32324854 0.0672337 0.16674724 0.3455169 0.33338863 0.21504933 -0.18839088
-0.03434175 0.07915709 -0.09625581 0.18952575 0.15142791 -0.03071315 -0.19572456 -0.1887882
-0.016325504 -0.1234178 -0.16142933 -0.37660113 0.103858545 -0.28510168 -0.17670172 -0.03270246
0.3250571 0.09756944 0.07931236 -0.19966169 0.2593524 0.027263187 -0.1840294 0.17355278
-0.29911688 -0.4058378 0.2746057 0.17422833 0.3635006 0.30936706 0.37735876 -0.02633044
-0.34007534 0.33717683 0.06711954 -0.34206384 -0.13888127 -0.33889806 0.1973157 0.41041696
0.15838459 0.30708435 -0.08239567 0.15524702 -0.12732536 0.23612839 0.1375135 -0.36033916
0.12037724 -0.3696701 0.12634508 -0.09442999 -0.3352099 -0.02694639 -0.18366154 -0.3591199
0.05122578 0.12500367 -0.11517647 -0.24884634 -0.36480656 0.26450065 -0.25754434 0.09764072
-0.08984717 0.22497891 0.30350307 0.32697597 -0.13126495 -0.0005501957 -0.034179896 -0.31682926
0.2554881 -0.104194514 -0.23897174 0.3319139 -0.1599654 0.14094348 0.35903084 -0.21550411
-0.22951996 -0.19851719 0.17544703 0.32880834 0.25635493 0.13986775 0.44831806 -0.19839798
-0.018688822 0.27321193 0.075321674 -0.16531515 0.10557436 0.27534044 0.23055936 0.19097665
-0.1199567 -0.39270926 -0.010324819 -0.18397784 0.0037646445 0.14416943 -0.026463863 0.074570976
0.0056422898 0.023631249 0.08794276 -0.15514475 0.2966648 -0.19865489 0.12271492 -0.038470875
0.20402837 -0.11625873 -0.33415222 -0.35662088 -0.09054064 0.11329061 -0.19927283 -0.23397036
-0.24546553 -0.22423221 0.31277344 -0.36350602 0.095553964 -0.2783775 0.1355994 -0.24861252
0.2685747 0.16765437 0.3860419 0.37182087 -0.099132285 0.30408058 0.092290014 0.24071378
0.04829763 0.09703477 -0.08347432 -0.23295656 0.027417269 0.29417962 -0.040050764 -0.091199145
0.09089588 0.0467473 -0.20424877 0.2702349 0.18413801 -0.20174351 -0.2418847 0.20076768
