saved_files/ckpt/nyc4/a2c_gnn_test_vdvp.pth (torch, 90321 bytes, 60 tensors)

actor.gamma_rate f4 [16, 16]
19.994345 19.998428 20.009388 20.012644 20.010958 20.002394 20.004473 20.00396
19.996658 20.004831 20.01467 19.960688 20.014221 19.982044 20.001158 19.994707
20.014643 20.0116 19.993137 20.006948 19.990208 19.98525 19.975256 19.997492
19.986286 19.997513 20.004349 20.001436 20.011866 20.006233 19.993563 20.010763
19.998135 19.995699 20.02412 20.008307 19.98287 20.01039 20.008419 20.004517
19.999826 19.999687 19.99416 19.992214 20.004974 20.009819 20.00623 19.998508
19.992552 20.005823 19.996786 19.996073 20.011797 19.98675 19.983936 19.992352
20.005404 19.982704 19.993956 20.00564 20.022861 20.015669 20.031668 19.984365
19.998602 20.010622 20.004663 19.97895 19.999409 19.984467 20.010082 20.004871
19.966078 20.00167 19.984383 19.97312 20.002192 19.975136 20.002388 20.011723
19.99411 19.999514 19.982262 20.007317 19.991892 19.995333 20.000967 19.992994
20.005505 19.981441 19.990099 19.985853 19.995855 19.997574 19.99485 20.004446
20.014618 20.00643 20.014257 20.005053 19.998861 19.980402 20.0068 20.016197
20.011444 19.999445 19.991108 19.981863 20.00938 20.005753 20.031012 19.997694
19.97851 19.9967 19.987856 19.992332 20.03494 20.003557 19.99829 19.975061
19.990692 20.002316 20.01044 19.988073 20.011208 20.024654 20.000484 19.989527
20.001884 19.996536 20.009533 19.99241 20.022038 19.985262 20.011343 20.015755
20.022367 19.993603 19.983412 19.998278 20.012123 20.008059 19.988249 19.991278
19.99943 19.973763 19.993963 19.97323 20.002363 19.97573 20.008095 20.00599
19.999733 19.988918 20.003576 20.003859 19.972296 19.982676 20.013165 19.997765
20.002825 19.987732 19.997486 20.004377 19.994108 20.011875 20.018574 19.999893
20.01253 19.996002 20.008207 20.029816 19.998611 19.976406 19.990095 20.006838
19.986694 20.004648 19.991964 19.984137 20.008944 20.004122 20.005068 19.9995
19.99891 20.01554 19.988686 20.007019 20.019121 20.002512 20.020668 19.986046
19.99535 19.99975 20.018148 20.011269 20.006142 19.996847 19.989553 19.985926
19.997017 19.997784 20.005402 19.980646 19.983103 19.999128 20.000996 19.993883
20.025578 20.017075 20.013708 20.002296 20.001768 20.001781 19.995226 19.993292
20.001474 19.991613 19.995975 20.010332 19.998173 20.002798 19.997156 19.995188
19.998186 19.995655 19.991417 20.000532 19.980766 20.0003 19.998714 20.014711
19.999073 19.9998 20.009935 19.99663 19.988974 19.99836 19.98757 19.987383
20.029314 19.999773 19.977394 20.005054 19.9749 19.995106 20.008278 20.012383
20.001896 19.982409 20.002829 20.009975 20.007961 19.99854 20.001127 20.00673
00000000: 6bf4 9f41 c8fc 9f41 3a13 a041 e519 a041
00000010: 7116 a041 e704 a041 2909 a041 1c08 a041
00000020: 28f9 9f41 e509 a041 0b1e a041 7daf 9f41
00000030: 201d a041 3adb 9f41 5f02 a041 29f5 9f41
00000040: fd1d a041 c217 a041 f2f1 9f41 3b0e a041
00000050: f2eb 9f41 cbe1 9f41 53cd 9f41 ddfa 9f41
00000060: eae3 9f41 e8fa 9f41 e808 a041 f102 a041
00000070: 4d18 a041 c40c a041 d1f2 9f41 0b16 a041
00000080: 2efc 9f41 31f7 9f41 6631 a041 0311 a041
00000090: ebdc 9f41 4715 a041 3e11 a041 4009 a041
000000a0: a5ff 9f41 5cff 9f41 0af4 9f41 0ef0 9f41
000000b0: 300a a041 1c14 a041 c20c a041 f2fc 9f41
000000c0: bff0 9f41 ed0b a041 6bf9 9f41 f5f7 9f41
000000d0: 2918 a041 dde4 9f41 1adf 9f41 56f0 9f41
000000e0: 110b a041 94dc 9f41 9ff3 9f41 8d0b a041
000000f0: d22e a041 1720 a041 db40 a041 fbdf 9f41
00000100: 23fd 9f41 c115 a041 8d09 a041 e4d4 9f41
00000110: cafe 9f41 30e0 9f41 a614 a041 fa09 a041
00000120: 87ba 9f41 6c03 a041 04e0 9f41 f3c8 9f41
00000130: 7d04 a041 14cd 9f41 e404 a041 0218 a041
00000140: f0f3 9f41 01ff 9f41 acdb 9f41 fc0e a041
00000150: 65ef 9f41 71f6 9f41 fb01 a041 a7f1 9f41
00000160: 460b a041 fed9 9f41 b9eb 9f41 07e3 9f41
00000170: 83f7 9f41 08fb 9f41 74f5 9f41 1b09 a041
00000180: f01d a041 2b0d a041 331d a041 590a a041
00000190: abfd 9f41 ddd7 9f41 ed0d a041 2c21 a041
000001a0: 7017 a041 ddfe 9f41 caed 9f41 dbda 9f41
000001b0: 3613 a041 c80b a041 833f a041 47fb 9f41
000001c0: fdd3 9f41 3ef9 9f41 21e7 9f41 4cf0 9f41
000001d0: 8f47 a041 4907 a041 7ffc 9f41 edcc 9f41
000001e0: f0ec 9f41 be04 a041 6215 a041 93e7 9f41
000001f0: f416 a041 7e32 a041 fe00 a041 8dea 9f41
00000200: dc03 a041 e8f8 9f41 8613 a041 75f0 9f41
00000210: 222d a041 d1e1 9f41 3b17 a041 4420 a041
00000220: cf2d a041 e6f2 9f41 07de 9f41 79fc 9f41
00000230: d418 a041 8110 a041 efe7 9f41 23ee 9f41
00000240: d5fe 9f41 44ca 9f41 a3f3 9f41 2dc9 9f41
00000250: d704 a041 4cce 9f41 9410 a041 440c a041
00000260: 74ff 9f41 4ee9 9f41 5307 a041 e707 a041
00000270: 43c7 9f41 85dc 9f41 f61a a041 6cfb 9f41
00000280: c905 a041 e0e6 9f41 dafa 9f41 f708 a041
00000290: eff3 9f41 5218 a041 0a26 a041 c8ff 9f41
000002a0: a919 a041 d0f7 9f41 cf10 a041 103d a041
000002b0: 28fd 9f41 aecf 9f41 b7eb 9f41 010e a041
000002c0: c0e4 9f41 8509 a041 8bef 9f41 83df 9f41
000002d0: 5112 a041 7108 a041 610a a041 fafe 9f41
000002e0: c5fd 9f41 d31f a041 d4e8 9f41 600e a041
000002f0: 2927 a041 2505 a041 542a a041 6ce3 9f41
00000300: 7af6 9f41 7dff 9f41 2b25 a041 1417 a041
00000310: 940c a041 8bf9 9f41 9bea 9f41 2de3 9f41
00000320: e4f9 9f41 76fb 9f41 100b a041 5dd8 9f41
00000330: 65dd 9f41 37fe 9f41 0a02 a041 79f3 9f41
00000340: 6234 a041 f822 a041 131c a041 b404 a041
00000350: 9f03 a041 a603 a041 39f6 9f41 43f2 9f41
00000360: 0503 a041 d3ee 9f41 c2f7 9f41 2915 a041
00000370: 42fc 9f41 bb05 a041 2dfa 9f41 25f6 9f41
00000380: 49fc 9f41 1af7 9f41 6cee 9f41 1701 a041
00000390: 9cd8 9f41 9d00 a041 5efd 9f41 211e a041
000003a0: 1afe 9f41 97ff 9f41 5914 a041 19f9 9f41
000003b0: 6be9 9f41 a4fc 9f41 8be6 9f41 29e6 9f41
000003c0: 093c a041 89ff 9f41 b4d1 9f41 5a0a a041
000003d0: 98cc 9f41 faf5 9f41 f410 a041 5c19 a041
000003e0: e203 a041 f9db 9f41 cb05 a041 6e14 a041
000003f0: 4e10 a041 03fd 9f41 4f02 a041 c80d a041

actor.conv1.bias f4 [21]
-0.03885537 -0.024378667 -0.036993302 -0.020774188 0.050456975 -0.004232713 0.09734325 0.10237555
0.09896739 -0.005921188 -0.021695057 -0.012249419 0.03810044 -0.0053878976 0.0 0.0
0.0070648286 0.07674112 0.0027248755 0.07614249 -0.009627457
00000000: cf26 1fbd c5b5 c7bc 4a86 17bd a12e aabc
00000010: f9ab 4e3d 92b2 8abb e65b c73d 46aa d13d
00000020: 6aaf ca3d 8606 c2bb d5b9 b1bc cab1 48bc
00000030: 350f 1c3d f68c b0bb 0000 0000 0000 0000
00000040: 1480 e73b 732a 9d3d d393 323b 98f0 9b3d
00000050: 7bbc 1dbc

actor.conv1.lin.weight f4 [21, 21]
0.31864694 -0.0883829 0.06319569 0.097451866 0.30680984 -0.30129904 -0.35764912 0.06002442
-0.23156083 0.09193751 -0.023520445 -0.08185497 -0.28463933 -0.11856828 0.097896494 -0.38918614
0.06912741 0.30066618 0.1353708 0.08566128 -0.063601576 -0.16398615 -0.08938874 -0.21095434
0.020427106 -0.30734015 -0.31915584 -0.2489001 0.010655941 0.2543939 0.09537801 0.23486023
0.18793479 -0.25082746 -0.050115727 0.3080626 -0.14880359 -0.18989626 0.071611695 -0.374468
0.19795391 -0.2540594 -0.017462747 0.11072872 -0.04664061 0.13928589 0.2066528 0.026491325
-0.33102834 0.0009321861 -0.21290916 0.08732756 -0.27410105 0.14965409 -0.0021923375 0.11642365
-0.26850924 -0.067171074 0.24614853 -0.19288822 -0.41735354 0.029434169 0.108295485 0.045993153
0.34651467 -0.29312336 0.14798193 -0.15921953 0.3027984 0.20730925 -0.075431384 -0.07541393
0.21139424 -0.32305115 -0.04996653 -0.21740972 0.18346019 -0.24781217 -0.20270428 -0.29070428
0.10911804 -0.2548601 -0.054240927 -0.0018938242 0.47398102 0.36639822 0.40689707 0.3879637
-0.03235371 0.34061414 0.39401656 0.47957197 0.5139848 0.19075873 0.1179339 0.3752909
0.33596185 0.35658556 -0.26759097 0.39656824 0.25002787 -0.06157054 0.36289617 0.34891286
0.30510673 0.100634746 -0.2500186 0.025748963 -0.14348733 -0.07228812 0.14058602 -0.0063929465
0.080452666 -0.27747717 0.22143784 -0.25094947 -0.14311682 0.30278158 0.2979118 -0.22475915
0.14737034 -0.24800757 0.2814669 -0.043612503 -0.36723435 -0.25334477 0.12955646 0.13901703
0.39359838 -0.12901857 0.2604971 -0.0027589672 0.55086565 0.02699283 0.07977372 0.59873325
0.16263375 0.10614211 0.18839696 0.1061186 0.2508117 0.2952721 0.102983 0.47096163
0.36221236 -0.2220411 -0.05077673 -0.061323345 0.35920405 0.37364826 0.46633223 0.51475513
0.025227824 0.48466036 0.30225655 0.17543447 0.4306634 0.11902348 -0.20356017 0.21578263
0.22367689 0.046816487 0.49304086 0.3053033 0.08474627 0.014999025 0.28134724 0.41929546
0.03820946 0.1776859 0.17244221 0.48742017 0.5629381 0.18807396 0.52610284 0.5539282
0.053479046 -0.054270275 0.5333348 0.19206752 -0.22347863 0.4153622 0.48732066 0.42135504
0.112966694 0.3152742 0.3615276 -0.11749736 0.07892403 0.2186448 -0.27631122 0.29822007
0.22000904 0.048386145 -0.25669542 -0.34647548 0.27255553 0.25368395 0.07942044 0.30591813
-0.2709225 0.10870096 -0.33623824 0.02802692 -0.032862514 0.20731865 -0.18924938 -0.33235666
0.09462536 -0.0739362 0.007249144 -0.25611275 0.25267106 0.29032597 -0.14137506 -0.27792728
0.21363297 -0.29562443 -0.17409761 -0.36868495 -0.25021592 -0.047023628 0.14360395 -0.19582208
0.28569025 -0.054782655 0.06643888 -0.16114871 0.3169331 -0.17726171 0.08784524 0.21556766
0.07547034 0.108952746 -0.31951386 0.15741958 0.3504347 -0.0028463753 0.11386205 -0.1873133
0.09902874 0.042825095 -0.13500236 0.06570014 0.03575236 -0.36648014 0.22441408 -0.077885896
0.10870386 -0.36089393 -0.13165602 -0.026275305 0.36058885 -0.029400093 0.2500774 0.27915397
00000000: b125 a33e 1802 b5bd be6c 813d d894 c73d
00000010: 2e16 9d3e de43 9abe c91d b7be 2bdc 753d
00000020: 481e 6dbe bc49 bc3d f3ad c0bc 94a3 a7bd
00000030: 3fbc 91be edd3 f2bd f57d c83d 6843 c7be
00000040: ac92 8d3d ebf0 993e a59e 0a3e 2e6f af3d
00000050: 8b41 82bd fceb 27be 7211 b7bd 6a04 58be
00000060: bf56 a73c b05b 9dbe 6568 a3be abdf 7ebe
00000070: 4296 2e3c eb3f 823e 8c55 c33d 337f 703e
00000080: fa71 403e 756c 80be 2646 4dbd 62ba 9d3e
00000090: f85f 18be 2a74 42be 27a9 923d 45ba bfbe
000000a0: 6eb4 4a3e 1314 82be 090e 8fbc bdc5 e23d
000000b0: 390a 3fbd f6a0 0e3e cb9c 533e 5604 d93c
000000c0: 8c7c a9be f35d 743a dc04 5abe cbd8 b23d
000000d0: f956 8cbe ec3e 193e 52ad 0fbb 866f ee3d
000000e0: 0b7a 89be fd90 89bd 5c0e 7c3e 7d84 45be
000000f0: 5daf d5be ed1f f13c 06ca dd3d 5163 3c3d
00000100: 5f6a b13e 4414 96be 9388 173e 720a 23be
00000110: 6408 9b3e e048 543e c57b 9abd 9e72 9abd
00000120: bb77 583e f666 a5be b4a9 4cbd a7a0 5ebe
00000130: fddc 3b3e 79c2 7dbe b691 4fbe 31d7 94be
00000140: 4779 df3d 067d 82be bc2b 5ebd 323a f8ba
00000150: a4ad f23e 8c98 bb3e d054 d03e 2ea3 c63e
00000160: 5385 04bd fa64 ae3e 8abc c93e 758a f53e
00000170: 8294 033f 4256 433e 5487 f13d 2126 c03e
00000180: 3103 ac3e 6292 b63e af01 89be fe0a cb3e
00000190: a703 803e 6431 7cbd 87cd b93e b5a4 b23e
000001a0: f336 9c3e 9719 ce3d 7002 80be 7def d23c
000001b0: 58ee 12be cb0b 94bd c8f5 0f3e ec7b d1bb
000001c0: 5ec4 a43d 7d11 8ebe 9ac0 623e 737c 80be
000001d0: 378d 12be 3006 9b3e e587 983e 4327 66be
000001e0: 40e8 163e b2f5 7dbe 6e1c 903e 06a3 32bd
000001f0: 2406 bcbe 68b6 81be 73aa 043e 7b5a 0e3e
00000200: ba85 c93e 721d 04be e05f 853e cacf 34bb
00000210: 8805 0d3f 1120 dd3c 6760 a33d 9546 193f
00000220: 7689 263e 0961 d93d 22eb 403e b554 d93d
00000230: 646a 803e e82d 973e c0e8 d23d e221 f13e
00000240: e673 b93e be5e 63be 43fb 4fbd 302e 7bbd
00000250: 98e9 b73e d34e bf3e 19c3 ee3e fec6 033f
00000260: 95aa ce3c 6725 f83e 5fc1 9a3e 18a5 333e
00000270: ea7f dc3e 95c2 f33d 1472 50be 1ff6 5c3e
00000280: 8e0b 653e a5c2 3f3d da6f fc3e b750 9c3e
00000290: 748f ad3d 78be 753c bf0c 903e e5ad d63e
000002a0: 8681 1c3d 4bf3 353e b194 303e 238f f93e
000002b0: b61c 103f 7696 403e adae 063f 3dce 0d3f
000002c0: d80c 5b3d 824a 5ebd a188 083f 59ad 443e
000002d0: 95d7 64be 5baa d43e 1882 f93e d9bb d73e
000002e0: 155b e73d 9f6b a13e 251a b93e 75a2 f0bd
000002f0: eca2 a13d 6ce4 5f3e aa78 8dbe 4db0 983e
00000300: 0d4a 613e 8d30 463d 956d 83be 3c65 b1be
00000310: 668c 8b3e dde2 813e 2fa7 a23d 4da1 9c3e
00000320: 5bb6 8abe 9c9e de3d 6b27 acbe b698 e53c
00000330: d89a 06bd 574b 543e 97ca 41be a72a aabe
00000340: f1ca c13d dd6b 97bd 3a8a ed3b 3621 83be
00000350: 1a5e 813e 9ba5 943e a0c4 10be 7c4c 8ebe
00000360: 9ac2 5a3e 165c 97be a546 32be 46c4 bcbe
00000370: 4d1c 80be d99b 40bd ea0c 133e 9585 48be
00000380: fe45 923e c763 60bd 1c11 883d 2b04 25be
00000390: 0e45 a23e 1884 35be 35e8 b33d c5bd 5c3e
000003a0: 3290 9a3d 9e22 df3d 5297 a3be 9932 213e
000003b0: 2d6c b33e 418a 3abb 8230 e93d 0fcf 3fbe
000003c0: 94cf ca3d 5e69 2f3d 0f3e 0abe cc8d 863d
000003d0: 1171 123d 49a3 bbbe cecc 653e a482 9fbd
000003e0: 21a0 de3d 17c7 b8be d6d0 06be 4f3f d7bc
000003f0: 1a9f b83e 77d8 f0bc 250a 803e 45ed 8e3e

actor.lin1.weight f4 [32, 21]
-0.08737064 -0.09015086 -0.15436004 0.21675645 -0.066100016 -0.017065503 -0.030370452 -0.10509361
0.12745439 -0.108209506 0.083184145 0.114906535 -0.13946119 -0.0146068465 -0.12553309 -0.13410378
-0.12041399 -0.074417196 -0.06640853 0.090915516 0.02097177 0.37457347 0.2966121 0.0019764777
0.11270271 0.35009873 0.39294884 0.033837132 0.37350795 0.4186642 0.3061364 0.4207901
-0.1180079 -0.13435914 -0.10639936 -0.11290067 -0.32894832 -0.05134832 0.17324482 0.13317572
0.16183138 -0.15101068 0.3804621 0.0850583 0.036111686 0.32890004 0.11272276 0.42662302
0.21299475 0.3088043 0.20401196 0.29188868 0.18133812 -0.09583175 -0.026099475 -0.25902247
-0.19596867 -0.09896658 0.10540492 0.030678524 0.011900346 0.12089407 0.036104575 0.23981576
0.2469159 0.11872671 0.48505792 0.2921722 0.24947838 0.37198782 0.2969738 0.3408922
0.5254556 0.46055856 -0.21438608 -0.039763257 -0.04788922 -0.037007343 0.115730815 -0.03448372
-0.22305904 -0.15718791 0.11523815 -0.088633984 -0.00534198 0.11885852 -0.10909405 0.13415855
-0.17784952 -0.12957239 0.10997356 -0.045197584 -0.18592559 0.027904326 -0.029114027 -0.0760605
0.13346955 -0.03463899 -0.08427163 0.16695254 0.16920948 0.064090006 -0.004158951 0.21484064
-0.0827821 0.04389304 0.3377605 0.09123719 0.07034335 -0.00300694 0.26815704 0.38696083
0.21470205 -0.03050913 0.25517613 0.17354637 -0.04847347 0.0870051 0.051617853 -0.18184471
-0.015609153 0.0392715 0.13923502 0.09246535 -0.09661661 -0.04162234 -0.19768524 -0.22880614
0.108919665 -0.063849 -0.06520769 0.17619266 0.10560694 -0.20888835 0.11519863 -0.20297207
0.03581518 -0.010560181 0.023586571 -0.085728936 0.17586096 -0.1568394 -0.049459074 0.0046131006
0.050227124 -0.054208666 -0.046730965 0.39987275 0.31005472 0.31747988 0.15535486 0.18098317
0.43974078 0.4340154 0.2564576 0.41559634 0.3769684 0.41448224 -0.060556937 0.04419548
-0.019254405 -0.1505772 -0.22358108 -0.073592104 0.08221417 -0.19837143 0.11000962 -0.15620783
-0.11334812 0.14579135 -0.008540381 0.16018547 -0.16313939 -0.1785688 -0.17896615 0.06652014
0.005190469 0.18827897 -0.020125808 -0.11072121 -0.10366103 -0.13008474 -0.0073368414 -0.16192338
-0.0698439 0.031209286 0.10696924 0.036944147 0.1871565 0.27895793 0.3895757 0.03311564
0.06806286 0.17965104 0.15725167 0.4359477 0.33987463 0.41832006 0.5486633 0.19869943
-0.24305 -0.24221708 -0.15948953 0.08281458 -0.014032136 -0.29571587 0.04760376 -0.005766907
0.020947449 0.062504604 -0.21241276 -0.0819937 0.09668545 0.18762754 -0.17063037 0.059611652
0.2518635 0.09168298 0.153027 -0.1367785 -0.20505276 0.13352124 -0.07164731 -0.062688395
0.101701334 0.27945814 0.11790601 0.03056585 0.06877535 -0.036772046 -0.028422423 0.03150648
-0.15023601 -0.2630467 -0.27111158 -0.2565414 -0.13684781 -0.21924332 0.10485419 -0.21359557
-0.14182858 0.072490476 0.13328092 0.18763566 -0.105292544 0.020649198 0.20137228 0.0059862537
-0.16417854 0.14911895 0.11575026 0.20883924 0.5425157 0.38189653 0.2281046 0.13175178
00000000: 61ef b2bd 04a1 b8bd 8f10 1ebe 67f5 5d3e
00000010: 725f 87bd f4cc 8bbc 74cb f8bc 523b d7bd
00000020: 6783 023e f29c ddbd 735c aa3d 1e54 eb3d
00000030: eace 0ebe 8e51 6fbc bf8b 00be 8052 09be
00000040: 9c9b f6bd 0b68 98bd 3201 88bd ea31 ba3d
00000050: fdcc ab3c 18c8 bf3e 8bdd 973e cb87 013b
00000060: aed0 e63d 2440 b33e 9730 c93e ce98 0a3d
00000070: 6f3c bf3e 275b d63e e9bd 9c3e cd71 d73e
00000080: 20ae f1bd 7195 09be e8e7 d9bd 7738 e7bd
00000090: ea6b a8be 9e52 52bd 1767 313e 375f 083e
000000a0: 20b7 253e 8ba2 1abe eecb c23e 0c33 ae3d
000000b0: d9e9 133d 9665 a83e 31db e63d 556e da3e
000000c0: 4c1b 5a3e 991b 9e3e 83e8 503e 6f72 953e
000000d0: b3b0 393e 7043 c4bd 91ce d5bc 989e 84be
000000e0: 03ac 48be feae cabd 89de d73d 8751 fb3c
000000f0: abf9 423c 4f97 f73d 64e2 133d 4392 753e
00000100: 86d7 7c3e fd26 f33d 8359 f83e 9897 953e
00000110: 4377 7f3e 3075 be3e f30c 983e 6c89 ae3e
00000120: 4284 063f 55ce eb3e 0688 5bbe ccde 22bd
00000130: 7d27 44bd 0395 17bd 4704 ed3d cd3e 0dbd
00000140: 9769 64be def5 20be fb01 ec3d bc85 b5bd
00000150: c70b afbb 196c f33d b46c dfbd dc60 093e
00000160: 2f1e 36be a0ae 04be d139 e13d 1a21 39bd
00000170: 4763 3ebe 9d97 e43c 8a80 eebc 9cc5 9bbd
00000180: 3eac 083e 9de1 0dbd 9b96 acbd 9bf5 2a3e
00000190: 4045 2d3e 9f41 833d cf47 88bb 2fff 5b3e
000001a0: a989 a9bd 30c9 333d f2ee ac3e 90da ba3d
000001b0: 2d10 903d 1510 45bb e14b 893e bb1f c63e
000001c0: dbda 5b3e 48ee f9bc 72a6 823e 24b6 313e
000001d0: 1e8c 46bd bb2f b23d 3e6d 533d 8035 3abe
000001e0: 88bd 7fbc 27db 203d a093 0e3e 795e bd3d
000001f0: eede c5bd 307c 2abd 006e 4abe 284c 6abe
00000200: 4611 df3d 44c3 82bd 9c8b 85bd d96b 343e
00000210: 7448 d83d d4e6 55be 42ed eb3d e9d7 4fbe
00000220: f0b2 123d 9c04 2dbc a038 c13c a792 afbd
00000230: e514 343e 829a 20be 9995 4abd 7e29 973b
00000240: f5ba 4d3d e809 5ebd f868 3fbd 1fbc cc3e
00000250: 7ebf 9e3e b98c a23e 5815 1f3e a753 393e
00000260: b425 e13e 4437 de3e 694e 833e 0bc9 d43e
00000270: 0102 c13e 0437 d43e 8d0a 78bd 5206 353d
00000280: 6abb 9dbc e930 1abe 70f2 64be 75b7 96bd
00000290: e75f a83d e121 4bbe b94c e13d f2f4 1fbe
000002a0: 0f23 e8bd 544a 153e f4ec 0bbc a907 243e
000002b0: 030e 27be bdda 36be e742 37be b63b 883d
000002c0: cf14 aa3b 34cc 403e e1de a4bc cdc1 e2bd
000002d0: 3c4c d4bd ef34 05be e369 f0bb 3ecf 25be
000002e0: 520a 8fbd 9eaa ff3c b012 db3d bf52 173d
000002f0: f4a5 3f3e 93d3 8e3e 7776 c73e 44a4 073d
00000300: 8a64 8b3d 71f6 373e 9506 213e 8934 df3e
00000310: 0c04 ae3e 0c2e d63e 3375 0c3f dd77 4b3e
00000320: 19e2 78be c107 78be 3951 23be b19a a93d
00000330: 0be7 65bc 1268 97be 29fc 423d 52f8 bcbb
00000340: fc99 ab3c 6a02 803d bb82 59be 50ec a7bd
00000350: 0503 c63d 6f21 403e bab9 2ebe 592b 743d
00000360: 41f4 803e 49c4 bb3d 1cb3 1c3e aa0f 0cbe
00000370: 5af9 51be cbb9 083e d3bb 92bd c662 80bd
00000380: ca48 d03d 2315 8f3e b578 f13d 3c65 fa3c
00000390: 17da 8c3d 499e 16bd 24d6 e8bc f00c 013d
000003a0: 78d7 19be 0fae 86be 23cf 8abe 6559 83be
000003b0: d521 0cbe 5281 60be cbbd d63d ccb8 5abe
000003c0: 833b 11be e375 943d cb7a 083e 9023 403e
000003d0: 9ea3 d7bd 8228 a93c 8934 4e3e 5628 c43b
000003e0: 6b1e 28be a3b2 183e 790e ed3d f4d9 553e
000003f0: 4fe2 0a3f f187 c33e 4194 693e f0e9 063e

actor.lin1.bias f4 [32]
0.16265598 0.026107952 0.05718901 0.10249351 0.20707262 0.011196009 -0.1663735 0.090034164
-0.07506439 0.07073779 -0.03075528 0.04955651 0.17526752 0.08525071 -0.021836892 0.044020444
0.14992405 0.23016433 0.19971097 0.30542755 -0.19352357 0.031593993 0.15613453 0.15367898
-0.018610284 -0.03841358 -0.057872333 0.23944934 0.058036584 0.047094956 0.23526871 -0.2101344
00000000: 4a8f 263e 58e0 d53c 063f 6a3d 1ee8 d13d
00000010: d80a 543e 776f 373c d15d 2abe d563 b83d
00000020: 5cbb 99bd f9de 903d 7ff2 fbbc c4fb 4a3d
00000030: 5479 333e ed97 ae3d 48e3 b2bc c84e 343d
00000040: b185 193e 33b0 6b3e 0881 4c3e 0061 9c3e
00000050: 0b2b 46be b468 013d bbe1 1f3e 065e 1d3e
00000060: 9874 98bc 8f57 1dbd 8a0b 6dbd 3532 753e
00000070: c5b7 6d3d a4e6 403d 48ea 703e 792d 57be

actor.lin2.weight f4 [32, 32]
-0.11497675 0.15935166 0.2941118 0.35694203 -0.19868872 0.130167 -0.024788544 0.32465073
-0.14231619 0.2370558 0.037195683 -0.0077547617 0.3942835 0.11026539 0.268675 0.13520835
-0.13990623 -0.021275265 0.1531513 0.36813432 -0.03294097 0.2582748 0.026065564 0.15578616
0.031472847 -0.09547301 -0.06964344 0.26410004 0.09672397 0.06480421 0.23153985 -0.10076043
-0.09136752 -0.17228262 -0.13442573 -0.03495097 0.16382782 -0.07218107 -0.04092461 -0.17053548
-0.1660824 -0.054740682 -0.060203 0.13682167 -0.1048187 -0.115535274 0.042246297 -0.045273006
0.17406638 0.072837934 -0.016262427 0.015051842 -0.16399872 0.04585229 -0.11469683 -0.07161306
-0.034288466 -0.06529843 -0.018100023 -0.07133693 0.004884228 0.013935223 -0.02132614 0.095889255
-0.0679957 -0.043704074 -0.010158895 0.01766018 -0.00991922 0.17153591 0.1494539 -0.14881322
-0.15116777 -0.11237015 -0.05042413 0.13966526 -0.050792754 -0.0921418 -0.020641983 0.07379342
-0.010032793 0.03335548 0.11355844 -0.10694723 -0.12069929 -0.13811691 -0.05773551 0.10559657
0.041664377 -0.08805699 -0.118592165 0.11297106 -0.010846837 0.075436935 -0.06833255 0.07952528
-0.1595564 0.24425451 0.09311595 0.13791725 0.10299602 0.16880587 0.024051886 0.20207758
-0.07355897 0.16110149 -0.027397273 -0.11012379 0.22819822 -0.17090471 -0.02380959 0.057464942
0.12845896 0.15014398 0.065426335 0.3734243 -0.11516785 0.23126312 0.028753811 0.14990725
0.035629153 -0.16385162 0.12007474 0.23986374 -0.10153809 -0.097684905 0.15742083 0.1742614
-0.14402235 -0.17479175 0.05561478 0.14959161 0.12164335 -0.004004382 0.06301786 -0.08850643
-0.01800777 0.07069306 -0.0500302 -0.04869927 -0.034931734 -0.06680807 0.062435195 -0.008325806
0.10384394 -0.019869747 0.115958445 -0.10825506 -0.045659855 0.124479115 0.004032403 -0.15915851
0.090674445 -0.14461914 -0.08506178 0.10647563 0.14818056 -0.14541943 -0.18407708 -0.0211256
-0.13368218 0.27490085 0.18461284 0.38913053 -0.13056715 0.17495283 -0.07848958 0.40569848
-0.12371923 0.1892508 -0.16564551 -0.19960034 0.34206602 -0.06163172 0.11199339 0.3171289
-0.13406265 0.21932526 -0.06788064 0.23293015 0.067464866 0.23127994 -0.11311145 0.06145395
-0.16197725 0.04251317 -0.13612422 0.02755608 -0.17601821 0.0883504 0.35436183 -0.11698835
-0.1387893 -0.17802367 -0.0009820434 0.0100718625 -0.12633336 -0.062055748 -0.16888545 -0.17762949
-0.019634053 0.045422215 -0.06295658 0.10612881 0.117241465 0.051584512 0.029760685 -0.021924768
0.013400855 -0.17890655 0.15357865 -0.18160675 -0.06696302 0.078566164 0.1432846 -0.16751221
-0.053832486 0.16405664 -0.19034557 0.09586726 0.062252223 0.05980958 -0.15136887 -0.13456583
0.1182907 0.21704474 0.11240936 0.40193483 0.09648597 0.14387074 0.08448673 0.34565696
0.17753549 0.1717897 -0.19644885 -0.16706657 0.2346893 0.13113219 -0.088759296 0.26251733
0.12912759 0.25327417 0.029936954 0.26688817 -0.06430839 0.28624764 -0.008277047 0.114678144
-0.127757 0.08073641 -0.1021814 0.23634773 -0.023564791 0.07326405 0.30359355 0.0768943
00000000: ee78 ebbd 152d 233e d295 963e 1bc1 b63e
00000010: 0e75 4bbe 804a 053e 5811 cbbc 9f38 a63e
00000020: 56bb 11be c1be 723e 805a 183d a81b febb
00000030: 87df c93e d2d2 e13d c58f 893e 0f74 0a3e
00000040: 9443 0fbe 7749 aebc b2d3 1c3e 1a7c bc3e
00000050: 1ced 06bd 983c 843e 7387 d53c 6886 1f3e
00000060: ace9 003d 5a87 c3bd 38a1 8ebd 1f38 873e
00000070: 3717 c63d 12b8 843d c818 6d3e 7c5b cebd
00000080: e51e bbbd db6a 30be e6a6 09be c028 0fbd
00000090: 7bc2 273e abd3 93bd 90a0 27bd daa0 2ebe
000000a0: 8111 2abe c437 60bd 6c97 76bd fb1a 0c3e
000000b0: 30ab d6bd c29d ecbd 740a 2d3d 3070 39bd
000000c0: 753e 323e 0e2c 953d c838 85bc 009c 763c
000000d0: 48ef 27be 9ccf 3b3d 2ce6 eabd dea9 92bd
000000e0: 1072 0cbd 2fbb 85bd 8046 94bc 1919 92bd
000000f0: e00b a03b 9050 643c 28b4 aebc 9661 c43d
00000100: 5441 8bbd 0b03 33bd 7e71 26bc 15ac 903c
00000110: 3984 22bc 1ca7 2f3e 710a 193e 7e62 18be
00000120: b9cb 1abe 5222 e6bd 8889 4ebd 6904 0f3e
00000130: 100c 50bd d7b4 bcbd 6019 a9bc 0121 973d
00000140: 9560 24bc c19f 083d 5491 e83d 2607 dbbd
00000150: 3031 f7bd 856e 0dbe 127c 6cbd 0443 d83d
00000160: 44a8 2a3d 3957 b4bd 73e0 f2bd 5f5d e73d
00000170: efb6 31bc ae7e 9a3d f0f1 8bbd 26de a23d
00000180: c162 23be db1d 7a3e 93b3 be3d 2e3a 0d3e
00000190: 94ef d23d 72db 2c3e 7608 c53c 6ded 4e3e
000001a0: 16a6 96bd caf7 243e 3f70 e0bc 9588 e1bd
000001b0: cbac 693e a501 2fbe 540c c3bc 5c60 6b3d
000001c0: bf8a 033e 58bf 193e 3efe 853d 7831 bf3e
000001d0: 1fdd ebbd 3dd0 6c3e 1d8d eb3c 4981 193e
000001e0: e0ef 113d b8c8 27be bfe9 f53d d79e 753e
000001f0: 34f3 cfbd 060f c8bd ed32 213e 9571 323e
00000200: 987a 13be 9cfc 32be 53cc 633d 8b2e 193e
00000210: 2620 f93d 3137 83bb 820f 813d dc42 b5bd
00000220: 0885 93bc 86c7 903d 78ec 4cbd e378 47bd
00000230: 9414 0fbd abd2 88bd 0cbc 7f3d f668 08bc
00000240: 22ac d43d e1c5 a2bc 9f7b ed3d d4b4 ddbd
00000250: d405 3bbd e8ee fe3d 4022 843b 73fa 22be
00000260: 86b3 b93d 0a17 14be df34 aebd e50f da3d
00000270: a5bc 173e d5e8 14be b47e 3cbe 980f adbc
00000280: fbe3 08be cebf 8c3e 260b 3d3e 1e3c c73e
00000290: 65b3 05be d626 333e 25bf a0bd b6b7 cf3e
000002a0: 8260 fdbd f6ca 413e fa9e 29be 0864 4cbe
000002b0: 4723 af3e 8b71 7cbd ca5c e53d b85e a23e
000002c0: b847 09be cd96 603e 0105 8bbd 3e85 6e3e
000002d0: 052b 8a3d a6d4 6c3e faa6 e7bd 23b7 7b3d
000002e0: 5ddd 25be 4a22 2e3d 2664 0bbe 4abd e13c
000002f0: 1e3e 34be 0ef1 b43d ea6e b53e 9797 efbd
00000300: c81e 0ebe d64b 36be e9b7 80ba 7404 253c
00000310: 885d 01be 2b2e 7ebd 4ff0 2cbe 81e4 35be
00000320: 98d7 a0bc a50c 3a3d 61ef 80bd 105a d93d
00000330: 4b1c f03d 484a 533d aecc f33c 929b b3bc
00000340: 428f 5b3c 4733 37be b943 1d3e 1ff7 39be
00000350: e823 89bd 4ce7 a03d 33b9 123e 5288 2bbe
00000360: 747f 5cbd 77fe 273e f3e9 42be 0e56 c43d
00000370: 30fc 7e3d e4fa 743d 7100 1bbe a0cb 09be
00000380: 6542 f23d fa40 5e3e e136 e63d 67ca cd3e
00000390: 709a c53d da52 133e 6107 ad3d f3f9 b03e
000003a0: ddcb 353e a4e9 2f3e e329 49be 8013 2bbe
000003b0: 6452 703e 8447 063e 6fc7 b5bd ac68 863e
000003c0: 063a 043e 27ad 813e 583e f53c 91a5 883e
000003d0: 1eb4 83bd 0d8f 923e 749c 07bc 60dc ea3d
000003e0: bbd2 02be 2259 a53d 7b44 d1bd 2405 723e
000003f0: f30a c1bc 760b 963d 9d70 9b3e c27a 9d3d

actor.lin2.bias f4 [32]
-0.04398657 -0.003159538 -0.10659169 0.24038948 -0.1670738 0.26469555 -0.065065585 0.21480976
0.05321651 -0.082128584 -0.08062601 0.11949189 0.04477134 0.08547653 0.16760741 0.22228941
0.06441801 0.17257944 0.10201721 -0.014885052 0.22344688 0.00027936645 -0.010294203 0.12675226
-0.10236875 0.04952199 -0.050045423 0.14170872 -0.0011208355 0.07337541 0.12794459 0.0016017698
00000000: 432b 34bd 4010 4fbb be4c dabd a928 763e
00000010: 6515 2bbe 2d86 873e 1b41 85bd 17f7 5b3e
00000020: 8ef9 593d 0833 a8bd 401f a5bd 2ab8 f43d
00000030: 2762 373d 520e af3d 47a1 2b3e d69f 633e
00000040: 97ed 833d aab8 303e 66ee d03d 6fe0 73bc
00000050: 42cf 643e ee77 9239 04a9 28bc 58cb 013e
00000060: b5a6 d1bd 92d7 4a3d 6efc 4cbd 171c 113e
00000070: 00e9 92ba d945 963d e803 033e 7af2 d13a

actor.lin3.weight f4 [1, 32]
0.36935452 0.15027152 -0.1371856 0.21349855 -0.034393635 0.27313384 0.005290043 0.3505667
-0.14416003 -0.091406174 0.32807696 -0.09202452 0.42323518 0.06412061 0.23306106 0.23490642
-0.12899362 -0.012418226 0.3014727 -0.09203412 0.30113736 -0.023709573 -0.105661884 -0.099828884
-0.09052876 -0.0012563288 0.30351964 0.34496737 -0.057882205 0.39408618 0.25855646 0.4205601
00000000: 091c bd3e c7e0 193e 627a 0cbe 5d9f 5a3e
00000010: 57e0 0cbd 33d8 8b3e 1958 ad3b 7a7d b33e
00000020: b09e 13be 2933 bbbd b4f9 a73e 5a77 bcbd
00000030: 48b2 d83e ab51 833d 8fa7 6e3e 4f8b 703e
00000040: e716 04be d175 4bbc a15a 9a3e 627c bcbd
00000050: ad2e 9a3e 943a c2bc 4265 d8bd 1673 ccbd
00000060: 2467 b9bd 66ab a4ba ed66 9b3e 909f b03e
00000070: e415 6dbd aac5 c93e 8361 843e a753 d73e

actor.convp.bias f4 [21]
-0.012323699 0.0030754895 0.0 -0.024639616 0.023679812 -0.012023784 -0.0024431308 0.0
0.012158315 0.0 -0.013704024 -0.007325899 0.005669562 -0.01201005 -0.0057326634 0.0058463775
0.0026904193 0.010256569 0.006429136 -0.003135978 -0.013012099
00000000: 57e9 49bc 278e 493b 0000 0000 05d9 c9bc
00000010: 2afc c13c 68ff 44bc ef1c 20bb 0000 0000
00000020: ab33 473c 0000 0000 d886 60bc 180e f0bb
00000030: bcc7 b93b cdc5 44bc 11d9 bbbb f892 bf3b
00000040: bf51 303b 2b0b 283c 80ab d23b fb84 4dbb
00000050: b330 55bc

actor.convp.lin.weight f4 [21, 21]
-0.08461344 0.018268527 -0.07237384 0.21121621 0.19544038 -0.06738135 -0.040463693 -0.23605442
0.24679829 0.24592195 0.045419782 -0.010877271 0.28531918 0.14211684 -0.2603092 -0.34484047
-0.12632374 -0.11621231 -0.07538817 -0.35907483 0.15563172 -0.11684212 -0.20710342 0.2790559
-0.13654369 0.21863447 -0.06326535 -0.091832474 -0.29882303 0.22723825 0.10650785 -0.19228838
0.2391433 0.08880222 -0.33517146 -0.17593858 -0.17000401 -0.0873135 -0.1955243 -0.21169108
0.19753 -0.10633215 -0.19237718 -0.18013094 -0.1844797 -0.36186254 0.11365458 -0.13880865
-0.3031125 0.11567658 0.28358933 -0.04694724 0.18034706 -0.11076197 -0.23209314 -0.31064212
-0.20166561 0.15621558 0.108620554 -0.28922307 0.015522808 0.027258992 -0.28692588 -0.39502263
-0.14514975 0.28285518 -0.3844066 -0.38008693 -0.14893831 -0.074764326 -0.13648014 -0.33527046
0.3098698 -0.101418756 -0.16689481 0.0017675449 0.21674675 -0.2026257 0.1411567 -0.1081183
-0.3240762 -0.050263703 0.06207958 -0.033017457 -0.33950904 -0.14212137 -0.11615981 0.0013345553
0.06262411 -0.36631608 0.21078439 -0.28789848 0.35455617 0.32027194 -0.34670624 -0.02662843
-0.062826335 0.22205652 0.22940783 0.14945033 -0.29044023 -0.19829153 0.06504344 -0.052165393
0.36590585 0.33452246 -0.29819566 0.23183368 -0.32319173 -0.0869191 -0.37321088 0.1097583
0.042413756 -0.14245424 -0.28059813 -0.2704422 -0.17271377 -0.25946763 0.1898052 -0.284595
0.15583225 0.2615576 -0.07323147 0.25114882 -0.20629214 -0.07430759 0.15108316 0.2792833
0.14269762 0.1388572 -0.15130767 0.34629878 0.16751292 -0.34522033 -0.13304228 0.1061534
0.25896126 0.09426598 -0.029253054 -0.18304494 0.2432017 0.014395686 -0.32910177 0.14749147
0.2200273 0.26186305 0.13740508 -0.07685968 -0.13812311 -0.23317383 0.35132387 -0.17359143
0.12569025 -0.09991214 -0.24719463 -0.33080092 0.12056714 0.03788978 -0.21376199 0.11969903
-0.15530299 0.07261482 -0.28718495 -0.219269 -0.36238912 0.27024874 -0.35268685 -0.026272982
-0.12604141 0.20757554 -0.34735563 0.23120646 0.29673764 0.2662883 -0.052599628 -0.10685642
-0.36006504 -0.034181844 0.05929951 0.13955733 0.28189948 0.082137406 -0.26226076 0.27185708
0.27192008 0.10452398 -0.17419177 0.017786585 -0.17844865 0.122394055 0.06220913 -0.1954729
-0.06805295 -0.23949023 0.19997212 -0.24796574 -0.10246515 0.089294225 -0.17441508 -0.20506231
-0.37226143 -0.0068539977 -0.3598562 0.17335972 0.027751029 0.08258325 -0.1503046 -0.06321183
0.26448283 -0.034389675 0.24482083 0.3410032 -0.24508554 -0.27006415 0.046579015 -0.029494468
0.32750446 0.14656734 0.055234633 0.087413184 0.1466874 0.2057593 -0.17513499 -0.0552129
0.14804138 0.20626907 0.27743703 0.18168958 -0.107873686 0.0029329439 0.17644109 0.04198913
-0.32051992 -0.3274214 0.28379127 0.30511913 0.062805474 -0.18140891 0.22448598 0.31542256
-0.052191805 0.20242797 0.18599506 0.2295774 0.17799926 -0.07091006 0.19812897 0.054625325
0.091787934 -0.26059946 0.27151185 -0.17068961 0.34729964 0.110089526 -0.1438185 0.2048796
00000000: d049 adbd e1a7 953c bc38 94bd 1049 583e
00000010: 8621 483e 3cff 89bd 42bd 25bd 40b8 71be
00000020: b1b8 7c3e f7d2 7b3e 180a 3a3d 9536 32bc
00000030: 5b15 923e 1487 113e 3f47 85be ee8e b0be
00000040: 035b 01be b800 eebd 1d65 9abd a8d8 b7be
00000050: ec5d 1f3e ec4a efbd eb12 54be 6ae0 8e3e
00000060: 1cd2 0bbe b7e1 5f3e 4491 81bd aa12 bcbd
00000070: 55ff 98be 25b1 683e ca20 da3d 3fe7 44be
00000080: fbe1 743e f0dd b53d 989b abbe 3e29 34be
00000090: 8815 2ebe 6cd1 b2bd 8637 48be 8cc5 58be
000000a0: 4e45 4a3e acc4 d9bd 86fe 44be 3f74 38be
000000b0: 3fe8 3cbe 0c46 b9be bcc3 e83d db23 0ebe
000000c0: 9031 9bbe d8e7 ec3d 9f32 913e c04b 40bd
000000d0: e6ac 383e 2cd7 e2bd d3a9 6dbe 7c0c 9fbe
000000e0: 6e81 4ebe faf6 1f3e 7474 de3d 0c15 94be
000000f0: 6053 7e3c 404e df3c f3e7 92be 6840 cabe
00000100: 23a2 14be 65d2 903e f1d0 c4be c19a c2be
00000110: 4983 18be 0a1e 99bd 73c1 0bbe 92a8 abbe
00000120: 41a7 9e3e a3b4 cfbd 79e6 2abe f7ac e73a
00000130: dcf2 5d3e 1d7d 4fbe 628b 103e 216d ddbd
00000140: 51ed a5be 50e1 4dbd 2847 7e3d 503d 07bd
00000150: 21d4 adbe 4488 11be 32e5 edbd 3fec ae3a
00000160: 1241 803d c88d bbbe ddd7 573e 6e67 93be
00000170: 6388 b53e affa a33e 7b83 b1be dd23 dabc
00000180: 18ab 80bd c962 633e e3e9 6a3e 8209 193e
00000190: 95b4 94be ef0c 4bbe 7f35 853d 61ab 55bd
000001a0: 0358 bb3e 8746 ab3e 1aad 98be cf65 6d3e
000001b0: 6379 a5be a402 b2bd 7f15 bfbe f6c8 e03d
000001c0: 0cba 2d3d 86df 11be 8faa 8fbe 6677 8abe
000001d0: e1db 30be f1d8 84be 4b5c 423e 70b6 91be
000001e0: 7d92 1f3e e1ea 853e 62fa 95bd 9496 803e
000001f0: 3f3e 53be 942e 98bd 8bb5 1a3e 38fe 8e3e
00000200: 531f 123e 9530 0e3e 66f0 1abe 134e b13e
00000210: 8288 2b3e b8c0 b0be 3c3c 08be f466 d93d
00000220: 9296 843e 860e c13d 1aa4 efbc 2270 3bbe
00000230: de09 793e e2db 6b3c 0780 a8be 0108 173e
00000240: d64e 613e ea12 863e ebb3 0c3e 9c68 9dbd
00000250: 2570 0dbe 1fc5 6ebe b9e0 b33e f4c1 31be
00000260: f2b4 003e bc9e ccbd 9720 7dbe bd5e a9be
00000270: e8eb f63d 5032 1b3d 6ce4 5abe c424 f53d
00000280: bf07 1fbe 14b7 943d e809 93be 0e88 60be
00000290: 118b b9be 0b5e 8a3e 5f93 b4be 703a d7bc
000002a0: 0011 01be af8e 543e 99d8 b1be 63c1 6c3e
000002b0: ffed 973e f156 883e b572 57bd 8ad7 dabd
000002c0: 725a b8be 4302 0cbd 0be4 723d 1ee8 0e3e
000002d0: 2155 903e a837 a83d 0b47 86be da30 8b3e
000002e0: 1c39 8b3e ab10 d63d 545f 32be 2cb5 913c
000002f0: 3ebb 36be bca9 fa3d 00cf 7e3d 0c2a 48be
00000300: 585f 8bbd ed3c 75be 7ec5 4c3e bbea 7dbe
00000310: 40d9 d1bd e4df b63d de99 32be dbfb 51be
00000320: 0d99 bebe 8097 e0bb 123f b8be 3685 313e
00000330: 2056 e33c 6821 a93d 73e9 19be 3475 81bd
00000340: 4b6a 873e 30dc 0cbd 50b2 7a3e f997 ae3e
00000350: b4f7 7abe d945 8abe a3c9 3e3d 629e f1bc
00000360: aaae a73e c015 163e b63d 623d af05 b33d
00000370: 3935 163e 91b2 523e 9656 33be ec26 62bd
00000380: 2998 173e 3338 533e 3a0c 8e3e d50c 3a3e
00000390: e1ec dcbd a236 403b f9ac 343e cbfc 2b3d
000003a0: 301b a4be c7a3 a7be 174d 913e 9338 9c3e
000003b0: 28a0 803d 42c3 39be a7df 653e 117f a13e
000003c0: 13c7 55bd 4749 4f3e 7d75 3e3e 5716 6b3e
000003d0: 7045 363e 4b39 91bd 52e2 4a3e cebe 5f3d
000003e0: 50fb bb3d 4b6d 85be 9a03 8b3e 42c9 2ebe
000003f0: 42d1 b13e 9e76 e13d 2845 13be f5cb 513e

actor.lin1p.weight f4 [8, 21]
0.16375978 -0.11227671 -0.12866774 -0.21596216 0.16978186 0.163806 0.08222873 0.09113967
-0.102059096 -0.011108609 0.16725335 -0.052223995 -0.10242902 -0.20017114 0.13971205 -0.15738979
-0.07125732 -0.052653648 0.13333505 0.12366114 -0.14351186 -0.14868392 0.014839644 0.17356873
0.084244005 -0.019559776 -0.04542594 -0.10339079 -0.035374004 0.17603791 -0.050386142 0.1257481
-0.12803417 0.09253807 0.08393657 -0.022008533 0.16333061 -0.14144829 0.18727256 0.15731095
-0.035716943 0.19408207 0.108393155 0.030167123 0.030223398 -0.042787794 -0.039274804 0.2025241
0.19876279 0.13893592 -0.0787314 -0.091580346 0.16228326 -0.10847027 -0.072557546 -0.123796135
0.10945414 0.003184338 -0.15805456 0.13666882 0.19973148 -0.056615826 0.19071612 -0.012617094
0.11970044 -0.053766742 -0.16325568 -0.19242686 0.110041544 0.20479879 -0.16939759 -0.03723632
0.18095517 -0.06548875 -0.12919532 -0.09872296 0.012354469 -0.15992506 0.11443742 0.015983693
-0.018718567 0.22363164 -0.11703687 0.116050504 0.004618274 -0.12406519 -0.12974235 -0.06641483
0.19320741 -0.08076438 0.15855241 0.10870674 -0.039507408 -0.03223917 0.14793152 0.1413811
0.1669378 -0.15718159 0.11423304 0.0011990723 0.16547954 -0.112031884 0.028863885 -0.0687748
-0.16201751 -0.05470786 0.13779597 0.11198343 0.08667686 0.12695596 -0.10428183 0.17159066
0.17839475 -0.22600241 0.024146756 0.12682666 0.058507808 0.110213034 0.097641535 -0.1935371
0.17760299 -0.15056439 -0.13235472 0.06228681 -0.10675774 0.13092528 -0.21253265 -0.07833283
-0.15947166 0.1316206 -0.18086042 -0.0073269457 -0.20417526 0.0745246 -0.12021808 0.14168061
0.08081423 0.07142191 -0.12519206 0.1673178 -0.13654222 0.15523957 -0.20293587 -0.026977375
0.15221943 0.08454217 -0.12624288 0.14450468 -0.140966 0.092519745 0.13109358 0.0010013133
-0.20043573 -0.190266 -0.15411335 0.20174642 -0.12343846 0.10056068 -0.027455226 -0.15058899
0.012459129 -0.07217473 0.0311476 0.022949561 -0.034452587 -0.023682266 -0.01982601 -0.06951463
00000000: a5b0 273e 55f1 e5bd 7ac1 03be 2f25 5dbe
00000010: 4cdb 2d3e c3bc 273e 8967 a83d 6fa7 ba3d
00000020: 5c04 d1bd e200 36bc 7644 2b3e d4e8 55bd
00000030: 4ec6 d1bd aaf9 4cbe ad10 0f3e ca2a 21be
00000040: 5cef 91bd 5aab 57bd fc88 083e 0d42 fd3d
00000050: c6f4 12be 9940 18be fa21 733c 00bc 313e
00000060: 1f88 ac3d d33b a0bc 8d10 3abd 8dbe d3bd
00000070: 55e4 10bd 4843 343e b361 4ebd 1cc4 003e
00000080: 641b 03be 9a84 bd3d f0e6 ab3d 3d4b b4bc
00000090: 2440 273e d2d7 10be 61c4 3f3e 1f16 213e
000000a0: ee4b 12bd 73bd 463e 3bfd dd3d 0b21 f73c
000000b0: 0f97 f73c 4142 2fbd 9ede 20bd 7a62 4f3e
000000c0: 7988 4b3e 3845 0e3e ee3d a1bd 7a8e bbbd
000000d0: 952d 263e a925 debd 0d99 94bd d488 fdbd
000000e0: 7e29 e03d 54b0 503b 0ed9 21be e9f2 0b3e
000000f0: 6986 4c3e ffe5 67bd 164b 433e eeb7 4ebc
00000100: 8125 f53d 843a 5cbd 7f2c 27be 8c0b 45be
00000110: 765d e13d c6b6 513e 9076 2dbe 1d85 18bd
00000120: 504c 393e f71e 86bd c74b 04be 432f cabd
00000130: 666a 4a3c 65c3 23be 2b5e ea3d 3cf0 823c
00000140: ae57 99bc b1ff 643e 07b1 efbd e3ab ed3d
00000150: e454 973b e415 febd 2edb 04be 8004 88bd
00000160: 2ad8 453e cc67 a5bd 905b 223e a4a1 de3d
00000170: 85d2 21bd 380d 04bd 5c7b 173e 35c6 103e
00000180: bef1 2a3e 36f4 20be 03f3 e93d 312a 9d3a
00000190: 7873 293e f970 e5bd f473 ec3c cdd9 8cbd
000001a0: ebe7 25be 5915 60bd 631a 0d3e 9257 e53d
000001b0: a383 b13d be00 023e b691 d5bd 76b5 2f3e
000001c0: 1dad 363e 2d6d 67be 6bcf c53c d9de 013e
000001d0: e2a5 6f3d 5fb7 e13d 49f8 c73d 972e 46be
000001e0: 8fdd 353e 8d2d 1abe ff87 07be 7420 7f3d
000001f0: cda3 dabd 4711 063e 29a2 59be f66c a0bd
00000200: 8a4c 23be 8dc7 063e 7933 39be e016 f0bb
00000210: 5213 51be 5aa0 983d e634 f6bd b914 113e
00000220: ee81 a53d a645 923d 5932 00be 5b55 2b3e
00000230: b9d1 0bbe 1ff7 1e3e 6cce 4fbe a8ff dcbc
00000240: 69df 1b3e 7224 ad3d d045 01be 09f9 133e
00000250: 6459 10be fe7a bd3d 653d 063e 803e 833a
00000260: 063f 4dbe 17d5 42be e4cf 1dbe 9d96 4e3e
00000270: 4ecd fcbd c2f2 cd3d c8e9 e0bc 0034 1abe
00000280: 6021 4c3c 58d0 93bd 4029 ff3c b800 bc3c
00000290: 281e 0dbd 5001 c2bc 286a a2bc b05d 8ebd

actor.lin1p.bias f4 [8]
0.027470956 -0.04939126 -0.21130475 0.14960049 0.13753712 0.054801494 -0.15752216 -0.15924525
00000000: c50a e13c 7d4e 4abd 4660 58be df30 193e
00000010: 88d6 0c3e 8877 603d 7d4d 21be 3011 23be

actor.bilinp.weight f4 [8, 8]
-0.30432904 -0.018852312 0.30703402 0.0784979 -0.01742123 -0.33277777 -0.23934922 -0.09334141
0.058730032 -0.14178672 -0.19038995 -0.030216025 0.20915665 -0.02916687 0.27772424 0.1292178
0.22440264 -0.33734027 -0.32492623 0.276128 0.2682966 -0.2324686 -0.20180222 -0.07046831
0.012463266 -0.23468958 0.12888691 0.2576248 -0.040275794 0.27960393 0.2737842 0.18607274
0.12973909 0.13680768 -0.051549934 0.0061604814 0.20366834 0.34122542 -0.064317316 0.28729162
-0.22391188 0.3211276 -0.27685922 0.32869184 -0.25783888 0.041314363 -0.1894274 0.014053583
-0.34413326 -0.15692228 -0.11573942 0.20381638 0.15717605 0.15946582 0.19883636 -0.10474807
-0.14941551 -0.18372102 0.15198585 -0.15882757 -0.10850191 0.23319897 -0.15528387 -0.09885645
00000000: 04d1 9bbe 2a70 9abc 9033 9d3e 82c3 a03d
00000010: f8b6 8ebc d961 aabe f617 75be c829 bfbd
00000020: e78e 703d 8a30 11be 95f5 42be 9987 f7bc
00000030: 292d 563e 5cef eebc df31 8e3e ac51 043e
00000040: cec9 653e ddb7 acbe bb5c a6be a660 8d3e
00000050: 2c5e 893e 400c 6ebe 3ea5 4ebe b051 90bd
00000060: ba32 4c3c 7752 70be eefa 033e 66e7 833e
00000070: 3bf8 24bd 3f28 8f3e 712d 8c3e da89 3e3e
00000080: 53da 043e 5017 0c3e 0626 53bd dddd c93b
00000090: 6f8e 503e 19b5 ae3e ccb8 83bd e317 933e
000000a0: 2849 65be d66a a43e 7ec0 8dbe 4c4a a83e
000000b0: 7503 84be 4039 293d 42f9 41be 0041 663c
000000c0: 3c32 b0be 3cb0 20be ca08 edbd 3eb5 503e
000000d0: c2f2 203e 024b 233e c29b 4b3e 2886 d6bd
000000e0: 6100 19be 5d21 3cbe 2ea2 1b3e b2a3 22be
000000f0: 4036 debd b6cb 6e3e bc02 1fbe 4075 cabd

critic.conv1.bias f4 [21]
-0.120499484 -0.0023139883 0.36688337 0.053921107 -0.3340753 0.32064807 -0.1946758 -0.04472547
-0.08801732 0.33141494 0.1946748 0.22366177 -0.18393417 -0.187494 0.25184366 0.2381348
-0.14463767 0.35191017 -0.27858803 -0.25972533 -0.31960893
00000000: 6fc8 f6bd 48a6 17bb 23d8 bb3e 61dc 5c3d
00000010: eb0b abbe fc2b a43e 1859 47be 0e32 37bd
00000020: 6d42 b4bd 38af a93e d558 473e 9707 653e
00000030: 3d59 3cbe 6dfe 3fbe a7f1 803e 9cd9 733e
00000040: e61b 14be 922d b43e 17a3 8ebe b8fa 84be
00000050: c8a3 a3be

critic.conv1.lin.weight f4 [21, 21]
0.36397463 0.42011335 0.3713867 -0.045918223 0.24771509 0.16059828 0.11303694 0.44931832
0.0312794 0.45703864 0.38085037 -0.30518016 -0.15094803 0.10525689 -0.35499993 -0.25582454
-0.18869883 0.219953 0.23907636 -0.11470687 0.1600399 0.23567222 -0.031334426 -0.14494616
0.04337947 -0.3314451 -0.30254316 0.0027045507 0.13999197 0.23919904 -0.30682608 0.04859426
-0.18285911 -0.058505736 -0.24318187 -0.33669764 0.266657 -0.12457129 0.2473066 -0.26389068
-0.019804448 0.24482867 -0.035554443 0.46288595 -0.10447795 0.41054064 -0.03927739 0.19048618
-0.20071816 0.2060352 -0.37866834 0.13360275 -0.3449239 0.15060349 0.3389163 0.18959382
0.0995329 -0.32108855 -0.16083203 -0.24347211 0.25816354 0.018401535 -0.26130095 0.28332916
-0.03020841 -0.22537154 -0.15924343 -0.08872992 -0.03609618 0.05311263 0.31876686 -0.12492704
-0.042487748 0.077230915 0.24412782 -0.23345226 -0.26535136 -0.33863214 0.1753447 -0.30295765
-0.15382461 -0.28717774 -0.39571667 0.3112468 -0.23439443 -0.29150307 -0.11093126 -0.3225025
0.27710745 -0.26667356 -0.030075131 0.26269084 -0.31171218 -0.1974859 -0.4017652 -0.24060227
0.2530352 -0.3827063 0.0057864413 0.10293079 0.28093907 0.2685972 0.15015367 -0.2401903
-0.085836165 0.080385365 -0.03474805 0.24594244 0.1781841 -0.019502526 -0.19454812 -0.18694292
-0.014503835 -0.12199923 -0.16006865 -0.3753323 0.038308494 -0.3716884 -0.22327489 -0.0673231
0.30146378 0.09382707 0.095827535 -0.17323667 0.30031115 0.058766305 -0.105368055 0.2672177
-0.21918976 -0.33941713 0.34128317 0.24917242 0.4416025 0.38784596 0.45599136 0.05232868
-0.2614138 0.3883924 0.1268968 -0.32240263 -0.08267211 -0.28352463 0.21418826 0.43676302
0.18720071 0.30677986 -0.041664682 0.16225395 -0.14537261 0.21907625 0.12808563 -0.361635
0.12650315 -0.36350167 0.13336538 -0.08742304 -0.3282493 -0.019939398 -0.17506208 -0.3591199
0.05122578 0.12500367 -0.11517647 -0.24884634 -0.36480656 0.26450065 -0.25754434 0.09764072
-0.02003017 0.23076628 0.3000454 0.3369263 -0.10769484 0.039094746 0.023448488 -0.2509397
0.32400528 -0.034687713 -0.16924155 0.3702667 -0.0971832 0.21190709 0.42604828 -0.18722287
-0.22493112 -0.21833695 0.13140494 0.3095115 0.2536179 0.1724266 0.50991756 -0.13919164
0.028168485 0.30730593 0.10558346 -0.13407435 0.1374946 0.30778268 0.26305208 0.22350654
-0.049086105 -0.31297186 0.025007717 -0.14871904 0.034342706 0.17369959 0.0019429424 0.102142535
0.041432947 0.06502072 0.14521655 -0.017316576 0.45378453 -0.047302302 0.2285415 0.02308207
0.26415715 -0.05946144 -0.2767094 -0.29915547 -0.033266876 0.29841346 -0.06966944 -0.13615888
-0.34304598 -0.36108372 0.22118047 -0.47767535 -0.078736246 -0.4037802 0.008809238 -0.29598102
0.24771214 0.16074318 0.37306088 0.34554496 -0.14075242 0.2583268 0.045017693 0.1934052
0.0009427328 0.049656596 -0.099576406 -0.24475391 0.020688407 0.28402296 -0.050122794 -0.07046444
0.11406256 0.087564796 -0.1819678 0.27633137 0.21416137 -0.1774627 -0.21720634 0.22517909
00000000: e25a ba3e 1919 d73e 6626 be3e bf14 3cbd
00000010: 06a9 7d3e e073 243e e97f e73d 0d0d e63e
00000020: d41e 003d f800 ea3e d2fe c23e 9340 9cbe
00000030: 1f92 1abe ed90 d73d 8dc2 b5be 6ffb 82be
00000040: 443a 41be 5c3b 613e 6fd0 743e 6feb eabd
00000050: 80e1 233e 0f54 713e 8758 00bd c46c 14be
00000060: acae 313d 2cb3 a9be f0e6 9abe d53e 313b
00000070: 0e5a 0f3e 98f0 743e 4f18 9dbe c60a 473d
00000080: 6b3f 3bbe b6a3 6fbd ab04 79be a263 acbe
00000090: 4487 883e 3c1f ffbd f13d 7d3e ae1c 87be
000000a0: f03c a2bc 5eb4 7a3e 89a1 11bd 63ff ec3e
000000b0: 89f8 d5bd 6232 d23e 54e1 20bd cf0e 433e
000000c0: 1089 4dbe e4fa 523e d1e0 c1be 29cf 083e
000000d0: de99 b0be cd37 1a3e 7086 ad3e e224 423e
000000e0: e8d7 cb3d b865 a4be 27b1 24be c150 79be
000000f0: 032e 843e d1be 963c 3dc9 85be 8510 913e
00000100: a177 f7bc ccc7 66be b610 23be 08b8 b5bd
00000110: 97d9 13bd a18c 593d 6935 a33e bfd9 ffbd
00000120: a207 2ebd 3e2b 9e3d a5fc 793e 1c0e 6fbe
00000130: 22dc 87be 3161 adbe 908d 333e 441d 9bbe
00000140: 3384 1dbe f608 93be 609b cabe be5b 9f3e
00000150: 1805 70be e43f 95be ee2f e3bd 0c1f a5be
00000160: 07e1 8d3e 7089 88be 1f60 f6bc 6a7f 863e
00000170: bd98 9fbe be39 4abe 2bb4 cdbe 7160 76be
00000180: d48d 813e 15f2 c3be 309c bd3b 61cd d23d
00000190: 3fd7 8f3e 9285 893e e2c1 193e 72f4 75be
000001a0: dfca afbd 15a1 a43d f953 0ebd 56d8 7b3e
000001b0: e575 363e c3c3 9fbc 9f37 47be f76d 3fbe
000001c0: 7ea1 6dbc bbda f9bd 09e9 23be 8e2b c0be
000001d0: 5ee9 1c3d f14d bebe 2ca2 64be b2e0 89bd
000001e0: 7659 9a3e 6828 c03d 3a41 c43d f464 31be
000001f0: 62c2 993e f0b4 703d 35cb d7bd c2d0 883e
00000200: 4873 60be 15c8 adbe abbc ae3e 0e27 7f3e
00000210: b919 e23e bf93 c63e b377 e93e 9956 563d
00000220: 08d8 85be 5edb c63e 3cf1 013e f511 a5be
00000230: ff4f a9bd 242a 91be 2b54 5b3e 679f df3e
00000240: 8bb1 3f3e 4012 9d3e 96a8 2abd e625 263e
00000250: 8fdc 14be 8655 603e e128 033e 3928 b9be
00000260: 0b8a 013e e41c babe ef90 083e da0a b3bd
00000270: 4b10 a8be f357 a3bc 7943 33be 90de b7be
00000280: 20d2 513d f600 003e a4e1 ebbd 93d1 7ebe
00000290: edc7 babe a16c 873e dadc 83be dcf7 c73d
000002a0: 5016 a4bc ff4d 6c3e 8d9f 993e 9b81 ac3e
000002b0: 1d8f dcbd d021 203d 0b17 c03c 2b7b 80be
000002c0: 05e4 a53e b414 0ebd a84d 2dbe 9993 bd3e
000002d0: fc07 c7bd 2cfe 583e 0023 da3e 5ab7 3fbe
000002e0: 5854 66be b993 5fbe 048f 063e 4b78 9e3e
000002f0: 35da 813e 9990 303e f589 023f 4188 0ebe
00000300: 98c1 e63c 3457 9d3e 243c d83d c94a 09be
00000310: 62cb 0c3e b195 9d3e c3ae 863e e6de 643e
00000320: 830e 49bd d93d a0be fcdc cc3c ce49 18be
00000330: f0aa 0c3d 4ede 313e 54aa fe3a 1b30 d13d
00000340: 98b5 293d 9529 853d a6b3 143e 7edb 8dbc
00000350: 7256 e83e 0fc0 41bd c806 6a3e 9c16 bd3c
00000360: 9b3f 873e d78d 73bd dbac 8dbe e82a 99be
00000370: d942 08bd a6c9 983e daae 8ebd 3c6d 0bbe
00000380: b9a3 afbe f7df b8be 227d 623e dd91 f4be
00000390: 7840 a1bd 47bc cebe 9f54 103c d38a 97be
000003a0: 40a8 7d3e dc99 243e d601 bf3e 45eb b03e
000003b0: 6721 10be 6943 843e 7964 383d 030c 463e
000003c0: ba21 773a b764 4b3d b7ee cbbd c5a0 7abe
000003d0: bc7a a93c 756b 913e 8f4d 4dbd a94f 90bd
000003e0: a299 e93d 2c55 b33d c455 3abe 4e7b 8d3e
000003f0: 1e4d 5b3e c8b8 35be 576b 5ebe 5995 663e
