saved_files/ckpt/nyc4/a2c_gnn_test_def-10-1.pth (torch, 57445 bytes, 42 tensors)

actor.conv1.bias f4 [12]
0.0 -0.03381062 0.0 0.03021708 -0.01734596 -0.051128827 -0.01793094 0.0
0.0 0.054362543 -0.008774839 -0.008717858
00000000: 0000 0000 017d 0abd 0000 0000 cf89 f73c
00000010: 1d19 8ebc 766c 51bd e8e3 92bc 0000 0000
00000020: 0000 0000 42ab 5e3d 58c4 0fbc 59d5 0ebc

actor.conv1.lin.weight f4 [12, 12]
-0.040796578 0.18801528 -0.48606437 -0.10757738 0.014991522 -0.3103159 -0.08357608 0.34988612
-0.4223839 -0.24344444 0.112256765 -0.31962085 0.41376713 0.37606835 0.023713129 -0.21892656
0.17097591 -0.35516968 0.16691291 -0.159755 0.030793928 -0.047663353 -0.45294482 -0.06729182
-0.225694 -0.4136448 -0.45714146 0.46639377 0.22082937 0.44354898 0.024255991 -0.3356812
-0.24911791 0.03976983 -0.11871117 -0.25318843 0.44824204 -0.26741928 0.2135901 0.33401972
0.07102793 0.26832926 0.239299 -0.33211342 0.4628008 0.33843255 0.09466803 -0.35553774
0.09762563 -0.20384452 -0.0180199 -0.18186423 -0.16367184 0.39331263 0.14302833 0.42857158
-0.050156184 -0.32636464 0.05058504 -0.44323865 0.07892424 -0.22644682 0.21549478 0.14118667
0.31029442 -0.30434966 -0.21300676 0.051183727 0.1354458 0.15045188 0.033163156 -0.16716783
-0.12393675 0.18573213 0.3683248 -0.26635355 -0.316154 -0.20248537 -0.45954672 -0.33575168
0.15308401 -0.15627092 -0.04880727 0.21978211 -0.17526758 -0.12698954 -0.45061767 -0.2839672
-0.28713936 -0.31287587 -0.49228132 0.055841446 -0.2506441 0.29446894 -0.063025 -0.40272188
0.25647038 -0.015028417 -0.45905894 -0.056871295 0.117872596 0.41674256 -0.11765015 -0.27488863
-0.31484598 0.49821436 -0.1607635 -0.05796951 -0.046039864 -0.36278465 -0.22418539 -0.10846434
0.3802598 0.5647745 0.10896585 0.1655906 0.31574538 -0.40023276 0.16595414 0.41538978
0.26694977 -0.43913424 -0.4575128 -0.2949843 -0.3369731 0.24321318 -0.47408333 0.30374286
-0.22688954 0.15473959 0.20571494 0.30208227 -0.023623351 0.40906903 0.23900415 0.039888654
0.33723834 0.12593146 0.085540086 0.12360749 -0.2875334 0.03628421 0.20188493 -0.35395962
00000000: 501a 27bd 1487 403e 6edd f8be 8851 dcbd
00000010: 009f 753c bae1 9ebe f029 abbd 4624 b33e
00000020: b442 d8be 8049 79be e0e6 e53d 58a5 a3be
00000030: 49d9 d33e 088c c03e 0942 c23c 492e 60be
00000040: 4f14 2f3e cdd8 b5be 38eb 2a3e d196 23be
00000050: 8c43 fc3c a63a 43bd 62e8 e7be 4bd0 89bd
00000060: 541c 67be 40c9 d3be 720e eabe 2acb ee3e
00000070: 1821 623e da18 e33e 80b4 c63c 68de abbe
00000080: c418 7fbe b0e5 223d d81e f3bd eaa1 81be
00000090: fb7f e53e 2eeb 88be 5db7 5a3e a204 ab3e
000000a0: 1777 913d 7462 893e cc0a 753e c50a aabe
000000b0: 3af4 ec3e 0847 ad3e 50e1 c13d 0b09 b6be
000000c0: f2ef c73d 9ebc 50be 789e 93bc 9e3a 3abe
000000d0: 9799 27be 4660 c93e 0576 123e bc6d db3e
000000e0: 9270 4dbd 4419 a7be 4232 4f3d 2df0 e2be
000000f0: 08a3 a13d ade1 67be aaaa 5c3e 3d93 103e
00000100: e9de 9e3e b8d3 9bbe 721e 5abe 07a6 513d
00000110: 4eb2 0a3e 0f10 1a3e 17d6 073d 0b2e 2bbe
00000120: 8dd2 fdbd 9030 3e3e 1195 bc3e 7e5f 88be
00000130: f0de a1be 5358 4fbe b549 ebbe a5e7 abbe
00000140: 0ec2 1c3e 7c05 20be 22ea 47bd 900e 613e
00000150: 5879 33be 8c09 02be 5cb7 e6be 2664 91be
00000160: ee03 93be 4431 a0be 4c0c fcbe 00ba 643d
00000170: 6c54 80be a2c4 963e 4013 81bd 9031 cebe
00000180: 1650 833e c039 76bc c609 ebbe e0f1 68bd
00000190: 3067 f13d 485f d53e 90f2 f0bd 34be 8cbe
000001a0: 7e33 a1be f415 ff3e 309f 24be 7071 6dbd
000001b0: 4c94 3cbd e9be b9be db90 65be 8d22 debd
000001c0: 6ab1 c23e 1095 103f 7d29 df3d 9590 293e
000001d0: 61a9 a13e 4feb ccbe e2ef 293e f8ad d43e
000001e0: a4ad 883e 34d6 e0be 1e3f eabe 2f08 97be
000001f0: bd87 acbe e00c 793e 0dbb f2be 2f84 9b3e
00000200: bb55 68be 0e74 1e3e f0a6 523e 87aa 9a3e
00000210: c285 c1bc 7f71 d13e 81bd 743e 4962 233d
00000220: 81aa ac3e 2df4 003e a42f af3d ec25 fd3d
00000230: 9437 93be c09e 143d ecba 4e3e 323a b5be

actor.lin1.weight f4 [32, 12]
-0.26044822 -0.27363724 0.09060286 0.08751135 0.13933371 -0.036569342 0.16278432 -0.2541835
-0.023004092 -0.11507748 0.0058421604 0.09640736 0.008197415 -0.22824375 0.11875083 -0.05400474
0.06264538 -0.239356 0.17210972 0.24387498 -0.27823132 0.08039631 -0.26177084 -0.016967839
0.1805123 0.17478895 -0.27311322 -0.13847445 -0.03655249 0.14857498 -0.12291367 -0.2300598
-0.029349497 0.09259411 0.002626215 -0.027585723 -0.009379779 -0.042079452 -0.13018301 -0.1786058
-0.04930345 -0.095818 0.033116296 -0.18514514 0.115837924 0.26178557 0.15981656 -0.25265867
0.2207629 0.3921343 0.29928353 0.28507215 0.23685142 -0.09784575 -0.10801095 0.3674798
0.2483129 0.09724389 0.16036314 -0.15364972 -0.2153238 -0.045617815 -0.041578654 -0.34109363
-0.26841235 -0.09591537 0.11115602 0.13326657 -0.08900473 -0.14818501 -0.28251773 0.07337156
0.06376336 -0.06624896 -0.25441742 -0.3209791 0.23926148 0.09162767 -0.21355163 -0.14745925
-0.007610434 -0.18274088 0.230578 -0.121376134 0.118675604 0.330877 0.3379168 -0.12332894
0.18413593 0.11411914 -0.18472145 0.3877445 0.415568 0.05784343 0.06864032 0.26581854
0.09134239 0.0856813 0.32979867 0.21197581 -0.07657393 -0.09821868 -0.1106655 -0.030869897
-0.039468035 0.33599263 0.47335243 0.19585219 0.3096467 0.29695863 0.12073167 -0.0587538
0.4102655 0.16957904 0.12160661 0.51952267 0.30486158 0.19221738 0.018499821 0.120058924
0.23222125 0.07722242 0.18232654 0.17411572 -0.20798749 0.13657998 0.039469205 -0.2968831
-0.32156026 -0.13762635 -0.2027686 0.047539674 0.19438031 -0.050888732 0.09214431 -0.17517948
0.0552966 0.08746514 -0.16103931 -0.16252822 -0.26852322 -0.24944524 -0.036572307 -0.18085366
0.4368337 0.19882658 -0.058413457 -0.14650317 0.26980162 0.15702844 0.33487546 -0.018201558
0.22989099 0.31755644 0.28497183 0.17184436 0.20513797 -0.25502768 -0.007995009 -0.045684755
-0.019774526 0.24170196 0.18005863 -0.1832106 -0.17376728 0.04540971 -0.1478817 -0.013427675
0.08453888 0.23492812 0.39823803 0.2648312 -0.04114041 0.14892563 -0.15018705 0.17406677
0.24775225 0.1756653 0.2124671 0.17111836 0.018046161 -0.15092312 0.08026209 -0.009434594
0.4068709 -0.118263066 0.1813981 0.44437453 0.06976567 0.14459522 0.38058376 -0.058316376
-0.16300288 -0.25132692 -0.07746966 -0.04330091 -0.13207135 0.1462684 0.15872422 0.08040011
0.0588935 -0.09581974 -0.23196417 -0.08085927 -0.2431854 -0.32104242 0.20727098 0.091968864
0.19883056 -0.24310979 -0.3225904 -0.07175615 -0.29643953 0.07017315 -0.15750118 -0.23429303
0.242976 0.29625547 0.23488781 0.2946915 0.468932 0.32899633 0.18979748 0.47789708
0.2677628 -0.014121777 0.4165914 -0.14351657 0.44301552 0.3436885 0.30430764 0.38810045
0.3499919 -0.08942096 0.0876573 0.23770827 0.08798036 -0.054067343 0.16767205 0.105412796
0.27158388 0.23068908 0.19590333 -0.17484213 -0.18077801 -0.10580015 -0.23843622 0.015482203
-0.044643722 -0.049792066 -0.27129963 0.031935148 0.22715652 0.27277666 0.43174782 0.14187068
00000000: 7859 85be 2e1a 8cbe fe8d b93d 2739 b33d
00000010: 7fad 0e3e bcc9 15bd efb0 263e 5724 82be
00000020: 1473 bcbc bead ebbd 986f bf3b 3971 c53d
00000030: 734e 063c bbb8 69be a333 f33d 1334 5dbd
00000040: 394c 803d bd19 75be 883d 303e 5dba 793e
00000050: 5674 8ebe d2a6 a43d d406 86be 2300 8bbc
00000060: 37d8 383e e0fb 323e 7fd5 8bbe 3fcc 0dbe
00000070: 10b8 15bd 0a24 183e 2aba fbbd cc94 6bbe
00000080: 5b6e f0bc fba1 bd3d 941c 2c3b 74fb e1bc
00000090: a5ad 19bc 815b 2cbd b24e 05be 70e4 36be
000000a0: 6af2 49bd 3a3c c4bd f4a4 073d b096 3dbe
000000b0: 6f3c ed3d c208 863e f4a6 233e 7a5c 81be
000000c0: ab0f 623e d4c5 c83e b13b 993e faf4 913e
000000d0: 2e89 723e 5a63 c8bd d834 ddbd 5026 bc3e
000000e0: bd45 7e3e ce27 c73d 3c36 243e 5a56 1dbe
000000f0: d87d 5cbe bfd9 3abd 614e 2abd d3a3 aebe
00000100: 586d 89be 476f c4bd c4a5 e33d 0877 083e
00000110: 1d48 b6bd d0bd 17be 2aa6 90be d443 963d
00000120: 5d96 823d 89ad 87bd 0043 82be 5f57 a4be
00000130: f600 753e 4aa7 bb3d 47ad 5abe 8fff 16be
00000140: f360 f9bb 6d20 3bbe a41c 6c3e 0d94 f8bd
00000150: 320c f33d b668 a93e 6e03 ad3e e293 fcbd
00000160: 218e 3c3e 4cb7 e93d 9f27 3dbe 7286 c63e
00000170: 54c5 d43e 3ced 6c3d 4c93 8c3d 5e19 883e
00000180: b811 bb3d ad79 af3d 5fdb a83e 3010 593e
00000190: cbd2 9cbd e026 c9bd 98a4 e2bd dee2 fcbc
000001a0: 3ca9 21bd 3a07 ac3e 405b f23e 7a8d 483e
000001b0: 038a 9e3e f60a 983e 2a42 f73d d3a7 70bd
000001c0: 520e d23e 21a6 2d3e e30c f93d 70ff 043f
000001d0: d116 9c3e a2d4 443e f08c 973c 74e1 f53d
000001e0: 68cb 6d3e ca26 9e3d cfb3 3a3e 644b 323e
000001f0: acfa 54be 9fdb 0b3e 76aa 213d 1001 98be
00000200: 8ca3 a4be eced 0cbe 92a2 4fbe f6b8 423d
00000210: a20b 473e b470 50bd 28b6 bc3d 4062 33be
00000220: b07e 623d ec20 b33d 7de7 24be cc6d 26be
00000230: e07b 89be 936e 7fbe d8cc 15bd b431 39be
00000240: aba8 df3e 3299 4b3e f342 6fbd ed04 16be
00000250: 7023 8a3e 10cc 203e cc74 ab3e 6f1b 95bc
00000260: 8b68 6b3e c296 a23e d4e7 913e f8f7 2f3e
00000270: b00f 523e fd92 82be 80fd 02bc f01f 3bbd
00000280: 30fe a1bc b880 773e 4a61 383e 8f9b 3bbe
00000290: 0df0 31be 88ff 393d 4d6e 17be c0ff 5bbc
000002a0: b822 ad3d ff90 703e dbe5 cb3e f497 873e
000002b0: d982 28bd f67f 183e a2ca 19be 8f3e 323e
000002c0: c4b2 7d3e 9be1 333e fa90 593e a739 2f3e
000002d0: 8bd5 933c 978b 1abe 7360 a43d 8e93 1abc
000002e0: 6251 d03e e833 f2bd 6cc0 393e 0f85 e33e
000002f0: 4ee1 8e3d c510 143e e0db c23e 27dd 6ebd
00000300: 3aea 26be ecad 80be 6aa8 9ebd 4c5c 31bd
00000310: b63d 07be 62c7 153e 9a88 223e d0a8 a43d
00000320: 503a 713d 243d c4bd 0488 6dbe 8c99 a5bd
00000330: 9805 79be ac5f a4be d83e 543e 2c5a bc3d
00000340: 3d9a 4b3e c6f1 78be 922a a5be e3f4 92bd
00000350: ecc6 97be f1b6 8f3d fd47 21be 83ea 6fbe
00000360: b3ce 783e ccae 973e 6e86 703e cee1 963e
00000370: db17 f03e 3572 a83e 455a 423e edae f43e
00000380: 3518 893e 075f 67bc 784b d53e 02f6 12be
00000390: eed2 e23e f0f7 af3e 36ce 9b3e 1ab5 c63e
000003a0: 2332 b33e 5622 b7bd ac85 b33d cc69 733e
000003b0: 0c2f b43d b875 5dbd 39b2 2b3e aae2 d73d
000003c0: 0b0d 8b3e c239 6c3e e29a 483e d109 33be
000003d0: df1d 39be c0ad d8bd a028 74be 11a9 7d3c
000003e0: 56dc 36bd c4f2 4bbd c9e7 8abe 6ece 023d
000003f0: b89b 683e 62a9 8b3e 0d0e dd3e 8c46 113e

actor.lin1.bias f4 [32]
-0.10218989 -0.1978372 0.3411905 -0.04634953 -0.0748412 0.08716508 0.13692488 -0.06653363
0.2504282 0.0973477 0.12412703 -0.20905653 0.17935388 -0.19715296 0.027854253 0.20318708
-0.08482131 0.15237804 -0.000626253 0.12902115 -0.10618511 -0.14186235 0.24983633 -0.09542294
0.3097788 0.23545992 -0.24930538 0.18832059 0.15053007 0.2426543 0.24171129 0.32221413
00000000: ef48 d1bd d695 4abe 85b0 ae3e 01d9 3dbd
00000010: 5846 99bd 9b83 b23d 0936 0c3e c942 88bd
00000020: 2038 803e 3b5e c73d 5036 fe3d ea12 56be
00000030: 8ba8 373e 77e2 49be 9a2e e43c 4610 503e
00000040: ccb6 adbd fd08 1c3e 212b 24ba 1f1e 043e
00000050: 9477 d9bd 5d44 11be 18d5 7f3e 1a6d c3bd
00000060: 549b 9e3e 681c 713e e949 7fbe 1dd7 403e
00000070: 8e24 1a3e 5e7a 783e 2a83 773e 40f9 a43e

actor.lin2.weight f4 [32, 32]
0.04649812 0.108610794 0.14900516 -0.13125284 0.14677037 0.09951279 -0.14283587 0.1527107
-0.13111703 -0.120842345 0.1445041 -0.02954933 -0.038755808 0.032176048 -0.09475908 0.19917387
-0.14923465 -0.12987593 0.0012029794 0.06494106 -0.17354989 0.07475367 -0.027782558 0.14677112
0.07253059 -0.0570634 0.083896175 -0.007434808 -0.12346588 -0.17172024 -0.13993762 -0.041822102
-0.076185584 -0.03469491 0.11854155 -0.13232452 -0.095880024 0.051951766 0.14148335 -0.033333864
-0.19152696 -0.20146306 -0.15906233 -0.05499114 -0.06951289 0.05208777 -0.047343887 -0.05519922
0.0097505 0.12014691 0.14294682 0.0043003503 -0.18132599 0.08462225 -0.17669085 0.12398064
0.0934529 -0.049153905 0.1283818 -0.06427835 0.13461892 -0.10499499 0.03940252 -0.08562822
0.038554635 0.12946568 -0.19432576 0.07309164 0.27566317 -0.16882598 0.08252394 0.12178159
0.062743075 0.17785707 -0.101761356 0.14969365 0.18115965 0.12418468 0.12478992 0.28003928
-0.09724627 -0.12699816 0.29710343 0.26106915 0.002068514 0.29721078 -0.080166444 0.27990034
-0.2538531 0.20080501 0.15581255 0.2877305 0.23119734 -0.028940873 -0.045072604 0.077901155
-0.111487076 0.034757152 -0.00083414075 0.07221639 -0.12567353 -0.00027888315 0.05043898 -0.06932429
-0.19084017 -0.15510425 0.11650586 -0.08590807 0.08864843 0.06477906 -0.17993738 0.13244164
-0.07902317 0.032881264 0.0048570354 0.0019875667 0.15795062 -0.17204995 0.05926973 -0.111304566
-0.034232132 -0.084803574 -0.06040796 -0.13536893 -0.113398455 0.07092793 0.1509839 0.0234789
0.17121822 0.05763326 -0.080583304 -0.065324284 -0.052333117 -0.16776735 -0.020534081 0.10856387
0.021846158 -0.011639136 0.07923086 0.122437194 0.068375416 -0.15868156 -0.11948225 -0.10412334
-0.1364545 0.1540844 -0.033572342 -0.15330707 -0.1273035 0.024024008 0.009353113 -0.029895239
-0.11466627 0.12294151 0.058566794 0.033678506 0.0066223564 0.09894709 -0.085461356 -0.13785282
0.0005343765 0.016170956 0.092925146 0.028282506 -0.048231583 0.13527185 0.061913375 0.0035648874
0.011260302 -0.068945445 -0.02763507 -0.04449089 -0.055151097 0.00064490736 0.055860076 0.124379046
-0.15800075 -0.009432237 -0.0016667251 -0.05466096 0.15167561 -0.02270581 0.07141878 -0.08663566
0.012838979 0.05047305 0.15401031 -0.1540751 0.14820468 -0.11375786 -0.050340753 -0.18843244
0.055960983 -0.08887561 0.10325791 0.02084279 -0.03294672 0.012711495 -0.012174457 -0.05575849
-0.07464057 0.09762685 -0.067386866 0.107505426 0.15907057 0.0057082623 -0.115517974 -0.057466954
-0.12389532 0.17553811 -0.15522914 0.14889114 -0.010523587 -0.07934248 -0.07439273 -0.035097897
-0.15433928 0.08497809 -0.14210495 -0.042532876 0.14689882 -0.09250645 -0.0333602 -0.16140972
-0.10950898 -0.032307327 -0.05125743 -0.06656924 0.049696766 0.14615206 -0.026527897 -0.159986
0.028905854 0.122410476 -0.107559346 0.17170466 -0.061801128 -0.1463219 -0.088953555 0.06775455
-0.17552076 0.009353295 0.11290377 -0.03651179 0.054914817 0.05828788 -0.10656053 0.09868592
-0.0772781 -0.1703902 -0.07338997 -0.13462247 0.112496614 0.10901475 -0.16875507 -0.16916999
00000000: d074 3e3d 566f de3d cf94 183e 2567 06be
00000010: f94a 163e 5dcd cb3d 9143 12be 3260 1c3e
00000020: 8b43 06be 317c f7bd e2f8 133e 7011 f2bc
00000030: 69be 1ebd 08cb 033d 0c11 c2bd 3cf4 4b3e
00000040: f8d0 18be 32fe 04be 4aad 9d3a d2ff 843d
00000050: 10b7 31be 7418 993d 3f98 e3bc 2b4b 163e
00000060: eb8a 943d 50bb 69bd c2d1 ab3d b19f f3bb
00000070: aedb fcbd 6ed7 2fbe cf4b 0fbe a74d 2bbd
00000080: 3007 9cbd 401c 0ebd eac5 f23d 1480 07be
00000090: bf5c c4bd 60cb 543d 03e1 103e 1789 08bd
000000a0: a51f 44be 554c 4ebe 3ce1 22be 643e 61bd
000000b0: c65c 8ebd fc59 553d aaeb 41bd 9418 62bd
000000c0: 90c0 1f3c 950f f63d a760 123e f4e9 8c3b
000000d0: 85ad 39be 6e4e ad3d 72ee 34be 90e9 fd3d
000000e0: 3c64 bf3d 9b55 49bd 8576 033e 5ea4 83bd
000000f0: 8bd9 093e 9d07 d7bd 8964 213d d95d afbd
00000100: 77eb 1d3d a792 043e 55fd 46be 12b1 953d
00000110: b923 8d3e b8e0 2cbe 5002 a93d a068 f93d
00000120: 717f 803d 2a20 363e 4268 d0bd 4b49 193e
00000130: ea81 393e 8a54 fe3d dc91 ff3d 4f61 8f3e
00000140: 0d29 c7bd ce0b 02be f11d 983e dbaa 853e
00000150: e88f 073b 032c 983e 4e2e a4bd 194f 8f3e
00000160: 09f9 81be d49f 4d3e 538d 1f3e 6951 933e
00000170: ffbe 6c3e 6915 edbc 0d9e 38bd a48a 9f3d
00000180: 5653 e4bd 845d 0e3d 3daa 5aba 30e6 933d
00000190: 90b0 00be 1037 92b9 1b99 4e3d e5f9 8dbd
000001a0: 9b6b 43be a6d3 1ebe a09a ee3d 92f0 afbd
000001b0: 4f8d b53d e2aa 843d 8141 38be c89e 073e
000001c0: e6d6 a1bd 81ae 063d c427 9f3b d641 023b
000001d0: cfbd 213e dd2d 30be d1c4 723d a6f3 e3bd
000001e0: fe36 0cbd 7fad adbd 566e 77bd 279e 0abe
000001f0: 733d e8bd aa42 913d 869b 1a3e d256 c03c
00000200: d453 2f3e da10 6c3d dc08 a5bd bdc8 85bd
00000210: 405b 56bd 34cb 2bbe 1737 a8bc bc56 de3d
00000220: b7f6 b23c 13b2 3ebc ca43 a23d 5ac0 fa3d
00000230: 6908 8c3d 6b7d 22be 1cb3 f4bd 9e3e d5bd
00000240: baba 0bbe 4dc8 1d3e 2783 09bd 87fc 1cbe
00000250: d95b 02be ffcd c43c cd3d 193c dce6 f4bc
00000260: 26d6 eabd c2c8 fb3d bce3 6f3d 79f2 093d
00000270: 5a00 d93b c6a4 ca3d 5d06 afbd 4a29 0dbe
00000280: 6615 0c3a f478 843c 8a4f be3d b7b0 e73c
00000290: 7b8e 45bd b484 0a3e e198 7d3d e3a0 693b
000002a0: 217d 383c 4533 8dbd f162 e2bc 143c 36bd
000002b0: 1ee6 61bd 000f 293a 89cd 643d 71ba fe3d
000002c0: f3ca 21be ab89 1abc 0476 daba 2ce4 5fbd
000002d0: da50 1b3e 8901 babc 0244 923d 096e b1bd
000002e0: 955a 523c d4bc 4e3d e1b4 1d3e ddc5 1dbe
000002f0: f8c2 173e e2f9 e8bd 1b32 4ebd 6ff4 40be
00000300: 5837 653d 6a04 b6bd e278 d33d 80be aa3c
00000310: 24f3 06bd e043 503c 6077 47bc 0463 64bd
00000320: 28dd 98bd 96f0 c73d 2002 8abd ce2b dc3d
00000330: 65e3 223e 600c bb3b b094 ecbd 7862 6bbd
00000340: d4bc fdbd 43c0 333e 63f4 1ebe eb76 183e
00000350: 206b 2cbc 4f7e a2bd 375b 98bd d0c2 0fbd
00000360: 1e0b 1ebe fe08 ae3d f683 11be f436 2ebd
00000370: a56c 163e 0674 bdbd b4a4 08bd 9748 25be
00000380: 3e46 e0bd b054 04bd 50f3 51bd 7455 88bd
00000390: d68e 4b3d e3a8 153e 0851 d9bc 5fd3 23be
000003a0: f8cb ec3c 58b2 fa3d 1348 dcbd 59d3 2f3e
000003b0: 2e23 7dbd 68d5 15be 482d b6bd e6c2 8a3d
000003c0: b7bb 33be 903e 193c 173a e73d 638d 15bd
000003d0: 5cee 603d 46bf 6e3d 683c dabd d81b ca3d
000003e0: fb43 9ebd c57a 2ebe 7b4d 96bd 79da 09be
000003f0: a064 e63d 2043 df3d 21ce 2cbe e63a 2dbe

actor.lin2.bias f4 [32]
0.0023827741 0.15210094 -0.018535415 0.08362678 -0.021824488 0.100530796 -0.09377033 -0.14479077
0.11363897 0.09594633 0.010032719 0.021120401 0.17123422 0.001838547 -0.16482657 -0.15370479
0.09329186 -0.009685621 -0.14315629 -0.014311441 0.19266848 0.18310028 -0.033013057 0.13022883
0.1094728 0.1413267 -0.08138723 0.17858876 0.06862998 -0.11712322 0.111859955 -0.12449366
00000000: 5128 1c3b 59c0 1b3e 95d7 97bc 8444 ab3d
00000010: 45c9 b2bc 17e3 cd3d a90a c0bd 0844 14be
00000020: 8cbb e83d 827f c43d 4660 243c b104 ad3c
00000030: 0658 2f3e 66fb f03a 4cc8 28be ca64 1dbe
00000040: cd0f bf3d 70b0 1ebc 9097 12be 897a 6abc
00000050: e34a 453e a47e 3b3e b338 07bd b55a 053e
00000060: 4633 e03d f2b7 103e 59ae a6bd f9df 363e
00000070: e08d 8c3d 4cde efbd d516 e53d 88f6 febd

actor.lin3.weight f4 [1, 32]
-0.052406605 0.14405157 0.32567945 0.16026588 -0.109222785 0.14857419 -0.084520385 -0.06352977
-0.09582935 -0.041150793 -0.034969777 -0.044635877 0.20771652 -0.05775258 0.028433073 0.037906803
0.05142184 -0.021862036 -0.16993977 0.20641555 0.3133054 -0.029872715 0.0690254 -0.025902553
-0.09748804 0.26142025 0.00030815732 0.19088121 0.04291115 -0.03628234 0.20751527 -0.03817202
00000000: 4fa8 56bd 4182 133e 75bf a63e bd1c 243e
00000010: 32b0 dfbd d523 183e 0619 adbd e51b 82bd
00000020: 2e42 c4bd bc8d 28bd 783c 0fbd 1cd4 36bd
00000030: a4b3 543e f88d 6cbd 7aec e83c 2a44 1b3d
00000040: b59f 523d 0318 b3bc b104 2ebe 995e 533e
00000050: 9169 a03e a0b7 f4bc 305d 8d3d 9731 d4bc
00000060: cfa7 c7bd e0d8 853e 2d90 a139 5d76 433e
00000070: 9ac3 2f3d ca9c 14bd e27e 543e 445a 1cbd

critic.conv1.bias f4 [12]
-0.016975218 0.012650089 0.0 -0.028378261 -0.1235768 0.14804414 -0.072061054 0.0
0.18551487 -0.027246794 0.16217153 -0.038349297
00000000: 9d0f 8bbc 5242 4f3c 0000 0000 8779 e8bc
00000010: d515 fdbd e298 173e bf94 93bd 0000 0000
00000020: 9cf7 3d3e ab34 dfbc 4b10 263e 2714 1dbd

critic.conv1.lin.weight f4 [12, 12]
-0.44790843 -0.28497097 -0.032905422 0.17303008 0.10919836 0.24299397 0.10957407 -0.16687776
0.2892612 0.44659576 -0.23891295 -0.4936257 -0.2737997 0.28196326 0.24412751 0.026739532
-0.43389317 0.35153776 -0.39368668 -0.2480265 -0.2379072 -0.18719687 -0.57820106 0.38149253
0.48467034 -0.48192173 -0.3606236 0.1962105 -0.4802034 -0.3625366 -0.08307999 0.46849585
-0.40761685 0.334404 0.040296495 -0.25041413 0.037043773 0.43608606 -0.13018458 -0.33912843
0.47086707 0.28832492 0.29065895 -0.07966217 0.043287907 0.21858484 0.1505358 0.102483734
0.4601932 -0.13093877 0.1469011 0.55506 0.40461555 0.26987275 0.12099467 0.02754371
-0.4540423 0.24036144 -0.22390391 0.3460761 -0.25620818 -0.06243547 0.48645264 0.07351409
-0.06692857 0.37986785 0.0074038478 0.4563488 -0.20332584 -0.026549818 0.38222754 0.38076663
0.17708729 0.11610761 0.47943547 -0.5468591 -0.26819047 -0.15837209 0.2866457 0.23010288
-0.06497082 0.18089977 0.46303442 0.1110407 0.003620565 -0.22389436 -0.36542594 0.07939738
0.34605408 0.042290926 -0.06493622 -0.48800606 0.40300578 -0.0039536357 -0.2658267 -0.34833676
-0.48389575 -0.25411156 0.4064543 0.3633413 0.04291029 -0.40091598 -0.06099226 -0.24573122
-0.041078124 0.3899151 0.3157638 -0.0031915808 -0.50823903 0.30845937 -0.09091504 -0.2158213
-0.39601445 -0.17339459 -0.2290143 -0.41054368 0.4401987 -0.3582504 0.06480652 -0.1765618
0.36524752 0.24106976 0.03211744 0.091464624 -0.5339476 -0.19659992 0.19980516 0.43635136
-0.09428911 0.042140648 0.07812403 -0.42410296 0.26997727 0.08513773 0.3159918 0.60057044
-0.35648903 -0.08212578 0.40945795 -0.5789387 0.16495545 -0.3410563 0.3354009 0.5235602
00000000: 4154 e5be b7e7 91be d6c7 06bd cc2e 313e
00000010: 64a3 df3d 69d3 783e 5f68 e03d 01e2 2abe
00000020: 0b1a 943e 33a8 e43e 99a5 74be 82bc fcbe
00000030: 792f 8cbe 7d5d 903e 90fc 793e dd0c db3c
00000040: 3f27 debe c2fc b33e 4d91 c9be a9fa 7dbe
00000050: f29d 73be 89b0 3fbe fc04 14bf fd52 c33e
00000060: b626 f83e 72be f6be a8a3 b8be 68eb 483e
00000070: 38dd f5be 669e b9be d825 aabd b0de ef3e
00000080: 28b3 d0be 0037 ab3e f00d 253d 4836 80be
00000090: 36bb 173d ac46 df3e 1b4f 05be 3ea2 adbe
000000a0: 7d15 f13e 539f 933e 40d1 943e eb25 a3bd
000000b0: a94e 313d b4d4 5f3e 0f26 1a3e fee2 d13d
000000c0: 719e eb3e d014 06be 3e6d 163e 6a18 0e3f
000000d0: c529 cf3e c32c 8a3e 0ecc f73d 59a3 e13c
000000e0: 3b78 e8be 4f21 763e 1147 65be e330 b13e
000000f0: b82d 83be 56bc 7fbd 5210 f93e 8e8e 963d
00000100: d911 89bd 0a7e c23e fa9b f23b 8da6 e93e
00000110: a634 50be 017f d9bc 54b3 c33e d8f3 c23e
00000120: 5f56 353e d4c9 ed3d 9178 f53e f5fe 0bbf
00000130: 4350 89be 4b2c 22be 3ac3 923e 17a0 6b3e
00000140: 6c0f 85bd ca3d 393e d912 ed3e 4e69 e33d
00000150: 0047 6d3b 9044 65be 1c19 bbbe 189b a23d
00000160: 002e b13e 4039 2d3d 48fd 84bd eedb f9be
00000170: c656 ce3e 808d 81bb 701a 88be 3259 b2be
00000180: 2fc1 f7be e91a 82be c71a d03e df07 ba3e
00000190: b3c2 2f3d dc44 cdbe 05d3 79bd f7a0 7bbe
000001a0: 8941 28bd f4a2 c73e cbab a13e d729 51bb
000001b0: f41b 02bf 63ee 9d3e aa31 babd 4200 5dbe
000001c0: 68c2 cabe 5a8e 31be ba82 6abe c832 d2be
000001d0: b961 e13e 996c b7be 48b9 843d 9ecc 34be
000001e0: b901 bb3e feda 763e 948d 033d ce51 bb3d
000001f0: cab0 08bf 7d51 49be b999 4c3e 7269 df3e
00000200: a61a c1bd ac9b 2c3d 7eff 9f3d 0624 d9be
00000210: 763a 8a3e b15c ae3d adc9 a13e fcbe 193f
00000220: bb85 b6be 9031 a8bd 79a4 d13e 5435 14bf
00000230: 15ea 283e ee9e aebe abb9 ab3e 0b08 063f

critic.lin1.weight f4 [32, 12]
-0.05416466 0.020205833 0.073489115 -0.034847364 0.06062357 -0.03473012 -0.0055141114 0.099725135
-0.08736077 -0.06767221 0.27099603 0.16591008 -0.011933721 -0.12027091 -0.062153492 -0.29883522
-0.042630006 0.11477022 0.1732018 -0.027237153 0.25422955 -0.20956205 0.17127842 -0.14523616
-0.26245213 0.08338818 0.19556853 0.03152962 -0.20659669 0.25837407 -0.020558499 0.0074678455
-0.036921073 -0.317535 -0.03189731 0.30547625 -0.0061097583 0.13990708 -0.2297044 -0.13098162
0.29335314 0.056579303 -0.08028712 -0.16512015 -0.13598971 0.14589389 -0.22337407 0.25508687
-0.19086143 -0.13455117 -0.14993075 -0.25575414 -0.24728519 0.024968237 -0.1261103 0.057270527
0.285604 -0.060211375 -0.022073328 -0.21247199 -0.18765363 0.14295009 0.016649317 -0.070250005
0.17163743 -0.26274005 0.22921544 -0.0877006 -0.23438753 0.07233508 0.35255098 0.15588659
0.16136332 0.10395798 -0.27960745 -0.10093712 -0.24969913 0.16299698 0.07881857 0.20446864
0.06941931 -0.17859663 -0.2695413 0.030029139 0.14202024 -0.19438806 -0.23207918 0.25970754
0.2944062 -0.14531353 0.050191045 -0.061273377 0.102282144 0.18755841 -0.22214371 0.26857963
0.09692345 -0.05845174 -0.23619914 0.30243233 0.21413022 -0.17349212 0.03152005 -0.11355479
-0.28039467 0.12625663 -0.12774813 0.16114658 0.045009404 0.23075473 -0.112160504 0.047676593
-0.263809 0.08749196 0.1607751 0.23361027 -0.2722192 -0.28315172 -0.21704201 -0.21085894
-0.0012252512 -0.056229673 -0.15270738 0.20689867 0.21848482 -0.0714153 0.24457453 -0.17216408
-0.07079944 -0.30161396 -0.005189799 0.09769088 -0.08182776 -0.17598206 0.20248708 -0.06276044
-0.25276813 0.16464156 0.24266464 0.050087005 -0.02267772 0.060016006 -0.2729939 -0.1766707
-0.24634749 0.19778538 -0.07675744 -0.18867333 0.13564867 -0.011235537 -0.097734876 -0.13253462
0.09367551 0.29061344 -0.17004703 0.15030655 -0.000986129 0.2663923 -0.28115794 -0.19587848
0.03209895 -0.26410282 -0.09307811 0.065092325 -0.20506899 -0.12947938 0.016385108 -0.1420876
-0.1487333 -0.14083603 -0.013425213 0.1727239 0.017054256 0.03942681 0.07830608 0.22705221
0.24253994 0.28173515 -0.17640096 -0.0947566 -0.27357322 0.03897631 -0.01712497 -0.1403771
0.028555838 -0.17542088 -0.22568245 0.10175329 -0.23572773 0.048617017 -0.030308507 0.18543178
-0.3202069 -0.07032695 -0.04327829 0.24962951 0.19446251 0.045636512 0.1622007 -0.25533578
0.20444418 0.07163755 0.04044145 0.25218582 0.07397938 0.101279676 0.0437741 -0.2027631
-0.19699593 0.22418225 -0.1552621 0.018389761 -0.16841269 0.12346625 0.17760596 -0.09917626
0.17326206 -0.2048204 -0.06671119 -0.020329326 0.13404322 -0.27040124 -0.120069206 -0.13145739
0.15926275 0.047534972 -0.02512148 -0.24289574 -0.44326723 -0.15842852 -0.3143663 0.14336525
6.720802e-06 0.06994958 -0.21324126 -0.30308923 0.15142274 -0.18625535 -0.13003731 0.24116297
0.24277431 0.003544271 0.21990931 -0.19885638 0.12668967 -0.15994774 0.15351701 0.120180696
0.028844774 0.111020416 -0.14577839 -0.241289 0.027753882 0.17928582 0.009044429 0.03222107
00000000: c3db 5dbd b486 a53c 7681 963d 1cbc 0ebd
00000010: 6c50 783d 2c41 0ebd b8af b4bb b13c cc3d
00000020: 34ea b2bd ba97 8abd febf 8a3e 55e4 293e
00000030: a785 43bc 9850 f6bd a994 7ebd ee00 99be
00000040: cd9c 2ebd a60c eb3d d05b 313e 7320 dfbc
00000050: 602a 823e 6f97 56be 9c63 2f3e cab8 14be
00000060: 2060 86be 6cc7 aa3d 1e43 483e 3425 013d
00000070: 158e 53be 9b49 843e 4c6a a8bc d4b4 f43b
00000080: 8d3a 17bd f393 a2be c1a6 02bd 6267 9c3e
00000090: 5e34 c8bb cd43 0f3e a137 6bbe 0c20 06be
000000a0: 6232 963e b3bf 673d 936d a4bd 4215 29be
000000b0: e340 0bbe 3565 153e 2cbc 64be bf9a 823e
000000c0: 2e71 43be c8c7 09be 7287 19be 35f2 82be
000000d0: 5438 7dbe 308a cc3c 0f23 01be 8094 6a3d
000000e0: b03a 923e 34a0 76bd 20d3 b4bc 4292 59be
000000f0: 4628 40be 8261 123e 2664 883c 3cdf 8fbd
00000100: b9c1 2f3e dd85 86be 74b7 6a3e 5f9c b3bd
00000110: 4903 70be 6a24 943d 9081 b43e bca0 1f3e
00000120: 6d3c 253e ece7 d43d b528 8fbe 1fb8 cebd
00000130: 21b1 7fbe aee8 263e a16b a13d 3a60 513e
00000140: b62b 8e3d 09e2 36be 5101 8abe abff f53c
00000150: c16d 113e aa0d 47be 2aa6 6dbe 63f8 843e
00000160: 69bc 963e 12cd 14be 2095 4d3d cbf9 7abd
00000170: 4d79 d13d 500f 403e a479 63be 4583 893e
00000180: cd7f c63d 176b 6fbd 30de 71be 69d8 9a3e
00000190: f444 5b3e eba7 31be 2b1b 013d 6a8f e8bd
000001a0: e48f 8fbe 6b49 013e 68d0 02be 9c03 253e
000001b0: c85b 383d f84a 6c3e 68b4 e5bd 8848 433d
000001c0: f911 87be fc2e b33d 3aa2 243e 8837 6f3e
000001d0: 5160 8bbe 43f9 90be 4340 5ebe 68eb 57be
000001e0: 9c98 a0ba 1651 66bd 535f 1cbe 3fdd 533e
000001f0: 7cba 5f3e 2f42 92bd bf71 7a3e c84b 30be
00000200: 4cff 90bd 256d 9abe 300f aabb 2812 c83d
00000210: 5095 a7bd a434 34be c658 4f3e 8c88 80bd
00000220: d36a 81be cc97 283e 147d 783e 0828 4d3d
00000230: a0c6 b9bc 58d3 753d dbc5 8bbe 2ae9 34be
00000240: 8442 7cbe 4088 4a3e 0133 9dbd 9533 41be
00000250: 7ce7 0a3e 4215 38bc 3929 c8bd 28b7 07be
00000260: f2d8 bf3d 49cb 943e cf20 2ebe f6e9 193e
00000270: 0041 81ba 9264 883e eff3 8fbe 5e94 48be
00000280: 307a 033d 7c38 87be bc9f bebd 204f 853d
00000290: 9bfd 51be 3e96 04be 103a 863c 697f 11be
000002a0: 8b4d 18be 5237 10be 6df5 5bbc 89de 303e
000002b0: 5eb5 8b3c 027e 213d f05e a03d 6080 683e
000002c0: 645c 783e 973f 903e 74a2 34be c00f c2bd
000002d0: ca11 8cbe a0a5 1f3d aa49 8cbc 04bf 0fbe
000002e0: efed e93c 88a1 33be 4d19 67be 0764 d03d
000002f0: 9c62 71be a322 473d 8c49 f8bc d4e1 3d3e
00000300: 29f2 a3be 9307 90bd 9444 31bd e19e 7f3e
00000310: 2e21 473e 5aed 3a3d f117 263e 5fbb 82be
00000320: d159 513e b5b6 923d efa5 253d 801e 813e
00000330: 8082 973d b86b cf3d 784c 333d 21a1 4fbe
00000340: 4db9 49be 0890 653e 07fd 1ebe 20a6 963c
00000350: 6074 2cbe e0db fc3d 56de 353e ec1c cbbd
00000360: 9c6b 313e 70bc 51be e09f 88bd b089 a6bc
00000370: a042 093e 0872 8abe d8e6 f5bd c49c 06be
00000380: c615 233e 08b4 423d 90cb cdbc a9b9 78be
00000390: ecf3 e2be 163b 22be 9ff4 a0be 57ce 123e
000003a0: 4083 e136 ba41 8f3d eb5b 5abe 832e 9bbe
000003b0: 900e 1b3e b9b9 3ebe 8028 05be 6df3 763e
000003c0: d499 783e 0047 683b e82f 613e 02a1 4bbe
000003d0: f0ba 013e 57c9 23be 9033 1d3e 4c21 f63d
000003e0: e04b ec3c ac5e e33d ee46 15be 7714 77be
000003f0: 1c5c e33c b496 373e 162f 143c 3efa 033d

critic.lin1.bias f4 [32]
0.0018387461 -0.14502415 0.038890216 0.07833565 -0.116937995 -0.110260144 0.2971316 0.080774225
-0.30924356 -0.2346366 -0.13814908 -0.2400902 -0.23009966 0.13467115 0.11229557 0.11131772
0.14967765 0.111807704 0.16990021 0.11014959 -0.14647202 0.00023517935 -0.29164034 -0.01687877
0.18563887 -0.19818498 0.09591314 0.099894 -0.099156484 0.25438982 0.22167295 0.11690813
00000000: 1502 f13a 3681 14be 594b 1f3d 716e a03d
00000010: 307d efbd 12d0 e1bd a221 983e f56c a53d
00000020: 2c55 9ebe 9444 70be f476 0dbe 35da 75be
00000030: 3f9f 6bbe 3ce7 093e 38fb e53d 8bfa e33d
00000040: 1945 193e 70fb e43d 52fa 2d3e 1c96 e13d
00000050: c3fc 15be 7a9a 7639 e251 95be 5945 8abc
00000060: 1e18 3e3e 01f1 4abe 1c6e c43d 3a95 cc3d
00000070: 8e12 cbbd 623f 823e 3cfe 623e 886d ef3d

critic.lin2.weight f4 [32, 32]
-0.19557863 0.14997055 -0.11598676 -0.17993052 -0.0887907 -0.06576899 -0.0074485047 0.10786608
-0.04416874 0.017318875 -0.10875779 -0.09700569 0.10594454 0.06022051 -0.016160656 -0.10395876
0.045649122 0.052887157 -0.11505936 -0.11563971 0.08711754 -0.15246236 -0.04983464 0.120199315
-0.03170672 -0.03110974 0.09242314 -0.18598704 -0.069997795 0.033833683 -0.16135447 -0.03987657
-0.07181275 0.10791843 0.011230118 0.11763055 -0.12330096 0.064267315 0.0884234 0.1367101
-0.08264218 -0.06326758 0.0691706 -0.014526248 0.096017085 -0.059438795 -0.08374462 -0.13031958
-0.037856113 -0.15402228 0.031399146 -0.17934516 0.13007136 0.039410327 0.1544392 -0.10481066
-0.11934137 0.018191239 0.11167825 -0.031523727 0.06193883 0.013421744 -0.10999119 0.16123267
-0.08708571 -0.14597818 -0.15761447 0.186968 0.09296517 0.1316148 -0.1564798 -0.0401764
0.15540911 -0.027117223 -0.073941104 0.08699317 0.11243912 -0.09004507 0.06555949 0.17502207
-0.0056998404 0.10811983 -0.039357617 0.14268045 -0.05106756 -0.008216265 -0.20087509 0.11679619
0.15201242 0.15860976 -0.110003166 -0.1474735 0.07764104 -0.08940836 0.09146427 -0.20264164
0.07812243 0.055656612 -0.18866596 -0.06924513 -0.0036202222 -0.014750239 0.02095805 0.056818176
0.04161291 -0.029558644 0.15714967 0.044758245 0.063082546 0.058871523 0.10581199 -0.18096529
-0.060398266 -0.042657793 0.12827109 -0.49613166 0.022941113 0.03836648 0.30014983 0.072480276
0.078884736 0.18049234 -0.048703056 -0.10475687 0.10815416 -0.14125474 -0.008130492 -0.056296628
0.045868374 0.04184106 -0.13275553 -0.09241348 0.14479719 0.12838028 -0.09211128 -0.09147119
-0.102600984 0.05814685 -0.14264856 0.13776575 -0.3800005 0.027986914 0.22967099 -0.08289555
-0.04368274 -0.14488593 -0.008116886 0.11053311 -0.1354067 -0.14130272 0.22404218 0.020763852
-0.14973246 0.18802084 0.21472566 0.074459225 0.10142504 -0.097605206 -0.15765089 0.11964434
0.020448938 0.09512429 0.082688525 -0.10493983 -0.11435118 -0.17090745 -0.15834756 -0.0677736
0.07163556 0.041438356 -0.05226633 -0.04468055 0.15704305 0.16801335 -0.091621555 0.11186217
-0.063274935 0.15385388 0.0047068894 -0.16097984 -0.06306041 -0.16770855 0.032792628 -0.13702773
-0.08166641 0.1485943 -0.018612802 -0.06706777 0.1239454 -0.17272425 -0.14428395 -0.13862218
0.106838025 0.020179657 0.057114746 -0.1399251 0.17327352 0.055634495 0.13650076 -0.048509225
-0.13611358 -0.15585689 0.08007492 0.10700308 0.13794145 0.049622566 -0.1204477 0.026310313
0.06708331 0.15770756 0.09843849 0.36610025 -0.1109033 -0.030032722 -0.06567244 -0.040140707
0.021535516 -0.114740096 0.037849363 -0.02196555 -0.040023483 0.057413235 -0.052200746 0.13427244
0.11120803 -0.15881328 0.049359515 -0.08355066 0.044436797 0.047918886 0.043794204 0.022567878
-0.08677421 0.16828828 0.061219983 -0.062482618 0.18790099 0.13918509 -0.09934167 -0.09921237
0.07620065 0.13862611 -0.083415374 0.36365744 -0.02386725 -0.09168017 -0.23033956 -0.11535769
0.13175486 -0.18412232 0.066037424 0.11849918 -0.12614004 0.042128175 0.11396477 0.090936475
00000000: c445 48be e191 193e 778a edbd b53f 38be
00000010: e6d7 b5bd e4b1 86bd 9612 f4bb e4e8 dc3d
00000020: 48ea 34bd 50e0 8d3c 67bc debd ebaa c6bd
00000030: 73f9 d83d c8a9 763d 5a63 84bc 55e8 d4bd
00000040: 93fa 3a3d 34a0 583d 3ea4 ebbd 83d4 ecbd
00000050: ae6a b23d 181f 1cbe 681f 4cbd 0f2b f63d
00000060: e8de 01bd dad9 febc 5848 bd3d 6373 3ebe
00000070: 015b 8fbd 3095 0a3d 1b3a 25be 9d55 23bd
00000080: 9012 93bd 5604 dd3d 87fe 373c 49e8 f03d
00000090: 3785 fcbd 959e 833d 5417 b53d bcfd 0b3e
000000a0: 4e40 a9bd 6f92 81bd 51a9 8d3d 80ff 6dbc
000000b0: 9ba4 c43d 1876 73bd 4d82 abbd 7f72 05be
000000c0: 030f 1bbd 04b8 1dbe 649c 003d 42a6 37be
000000d0: 6d31 053e b96c 213d 4f25 1e3e f9a6 d6bd
000000e0: 4069 f4bd cb05 953c 91b7 e43d 061f 01bd
000000f0: 92b3 7d3d e0e6 5b3c 1043 e1bd 2d1a 253e
00000100: fe59 b2bd 4e7b 15be b065 21be 8a74 3f3e
00000110: 8664 be3d 08c6 063e 3e3c 20be 0290 24bd
00000120: 9123 1f3e f024 debc 6f6e 97bd 7a29 b23d
00000130: 7b46 e63d 8d69 b8bd 0e44 863d fc38 333e
00000140: bac5 babb ee6d dd3d 7435 21bd d31a 123e
00000150: 382c 51bd 839d 06bc 33b2 4dbe d732 ef3d
00000160: 25a9 1b3e 996a 223e 5749 e1bd 4b03 17be
00000170: 4402 9f3d bb1b b7bd 9f51 bb3d 4a81 4fbe
00000180: a7fe 9f3d 30f8 633d a631 41be 64d0 8dbd
00000190: 4041 6dbb fdaa 71bc 37b0 ab3c 2dba 683d
000001a0: 4c72 2a3d f824 f2bc d8eb 203e 6c54 373d
000001b0: 6c31 813d 4423 713d f5b3 d83d f74e 39be
000001c0: 2c64 77bd f0b9 2ebd 7f59 033e f804 febe
000001d0: 00ef bb3c 2c26 1d3d 3dad 993e 8a70 943d
000001e0: 528e a13d fcd2 383e db7c 47bd c58a d6bd
000001f0: ee7f dd3d 15a5 10be c135 05bc 4b97 66bd
00000200: 7ae0 3b3d 8861 2b3d 11f1 07be 4743 bdbd
00000210: b745 143e 1f76 033e d7a4 bcbd 3f55 bbbd
00000220: 7720 d2bd 642b 6e3d 7712 12be 7712 0d3e
00000230: 6d8f c2be d044 e53c df2e 6b3e 24c5 a9bd
00000240: acec 32bd fa5c 14be b0fc 04bc 2f5f e23d
00000250: 0ea8 0abe a9b1 10be 506b 653e f418 aa3c
00000260: 7753 19be 8988 403e 0be1 5b3e 147e 983d
00000270: eeb7 cf3d 3de5 c7bd 3c6f 21be 1708 f53d
00000280: 8884 a73c 86d0 c23d 9a58 a93d b2ea d6bd
00000290: f430 eabd 5d02 2fbe dd25 22be e3cc 8abd
000002a0: aab5 923d 44bb 293d 3815 56bd f402 37bd
000002b0: e5cf 203e b10b 2c3e 15a4 bbbd fe17 e53d
000002c0: 4a96 81bd df8b 1d3e 403c 9a3b e6d7 24be
000002d0: d125 81bd cabb 2bbe 9051 063d ff50 0cbe
000002e0: b840 a7bd 1b29 183e e079 98bc d45a 89bd
000002f0: 16d7 fd3d a0de 30be 2cbf 13be f9f2 0dbe
00000300: e5cd da3d cf4f a53c 27f1 693d 8748 0fbe
00000310: 9d6e 313e ffe0 633d dbc6 0b3e 9cb1 46bd
00000320: 5c61 0bbe f398 1fbe 52fe a33d 6e24 db3d
00000330: 8640 0d3e 0841 4b3d 49ad f6bd ba88 d73c
00000340: f962 893d 177e 213e 1e9a c93d 7e71 bb3e
00000350: 4521 e3bd 2f07 f6bc 467f 86bd 956a 24bd
00000360: 406b b03c dbfc eabd ef07 1b3d 19f1 b3bc
00000370: aaef 23bd 242a 6b3d 73d0 55bd b77e 093e
00000380: 09c1 e33d f39f 22be 342d 4a3d 9c1c abbd
00000390: 5c03 363d 9846 443d 8d61 333d 45e0 b83c
000003a0: adb6 b1bd c353 2c3e cec1 7a3d c6ed 7fbd
000003b0: 1e69 403e 8986 0e3e a573 cbbd db2f cbbd
000003c0: 160f 9c3d 01f4 0d3e aed5 aabd 4f31 ba3e
000003d0: 4085 c3bc d0c2 bbbd 22de 6bbe a740 ecbd
000003e0: bfea 063e 908a 3cbe a13e 873d b3af f23d
000003f0: db2a 01be 988e 2c3d 5d66 e93d e73c ba3d

critic.lin2.bias f4 [32]
0.11654083 -0.26356807 -0.09844957 -0.24571002 0.012787134 0.09920345 0.0088720415 0.31223333
-0.23576774 0.012952537 0.22560704 -0.11299351 -0.0902005 0.07844187 -0.14028184 0.14915474
-0.21743003 -0.1442045 0.11167084 0.07387884 -0.29768836 0.040739223 -0.07939109 -0.04495474
0.04792329 -0.04546723 0.08143146 0.19426002 -0.21986654 -0.13035762 -0.09486259 0.151939
00000000: f5ac ee3d 65f2 86be ee9f c9bd 689b 7bbe
00000010: 2181 513c 2e2b cb3d 0a5c 113c 0cdd 9f3e
00000020: 196d 71be e136 543c 8805 673e 2469 e7bd
00000030: 0abb b8bd 22a6 a03d 0ba6 0fbe 05bc 183e
00000040: faa5 5ebe 58aa 13be aeb3 e43d ca4d 973d
00000050: 9c6a 98be 2cde 263d cc97 a2bd 7622 38bd
00000060: 364b 443d d93b 3abd 8ac5 a63d 19ec 463e
00000070: b224 61be 787c 05be 5147 c2bd e695 1b3e

critic.lin3.weight f4 [1, 32]
0.035410136 0.07367564 0.10918836 0.10921025 -0.4031339 -0.09573315 -0.056436922 -0.09123712
0.107543945 -0.13037327 -0.184408 0.14986508 0.15915744 -0.0013894737 0.0060741007 0.021734029
0.20571835 0.074367724 -0.08397386 -0.094899446 0.1138595 -0.11634252 0.10390912 0.07475236
0.0794382 -0.015863476 -0.027074859 -0.15051039 0.124405146 0.10930608 -0.033187844 0.1496761
00000000: 380a 113d 41e3 963d 269e df3d a0a9 df3d
00000010: 9167 cebe be0f c4bd 672a 67bd 87da babd
00000020: 0040 dc3d 9280 05be 73d5 3cbe 3b76 193e
00000030: 2bfa 223e 001f b6ba 4009 c73b 900b b23c
00000040: d5a7 523e 1b4e 983d 7dfa abbd a45a c2bd
00000050: 2b2f e93d fd44 eebd 4ece d43d c417 993d
00000060: 7fb0 a23d 1ff4 81bc 18cc ddbc 651f 1abe
00000070: 20c8 fe3d dedb df3d faef 07bd b144 193e

exp_avg f4 [12]
0.0 -0.04875556 0.0 -0.7289093 8.579368e-16 -0.039621938 0.16053686 0.0
0.0 -0.10906273 0.9084314 -0.03593479
00000000: 0000 0000 e9b3 47bd 0000 0000 cd99 3abf
00000010: 9048 7726 9d4a 22bd c663 243e 0000 0000
00000020: 0000 0000 485c dfbd f68e 683f 5c30 13bd

exp_avg_sq f4 [12]
0.0 4.3051662 0.0 9.460776 3.3952645e-05 4.1260524 9.007426 0.0
0.0 13.29555 9.939896 2.2917013
00000000: 0000 0000 ecc3 8940 0000 0000 575f 1741
00000010: 6068 0e38 9f08 8440 6b1e 1041 0000 0000
00000020: 0000 0000 93ba 5441 d009 1f41 3cab 1240

exp_avg f4 [12, 12]
0.0 0.0 0.0 0.0 0.0 0.0 0.0 0.0
0.0 0.0 0.0 0.0 -0.008391578 -0.02037952 -0.011226762 -0.010028902
-0.00968166 -0.0084793465 -0.008491449 -0.008391592 -0.0083915945 -0.008391578 -0.008391578 -0.030487292
0.0 0.0 0.0 0.0 0.0 0.0 0.0 0.0
0.0 0.0 0.0 0.0 -0.19346505 -0.33978617 -0.2831791 -0.26694322
-0.2518624 -0.22625265 -0.20464014 -0.20273744 -0.1898688 -0.19295554 -0.19540782 -0.643058
7.057974e-16 7.3164e-16 7.319612e-16 7.1566227e-16 7.1223184e-16 7.057974e-16 7.057974e-16 7.057974e-16
7.057974e-16 7.057974e-16 7.057974e-16 3.1545524e-16 -0.019531291 -0.023703003 -0.024388367 -0.018182065
-0.01904905 -0.018814674 -0.019230371 -0.019900806 -0.019467866 -0.01954382 -0.019546151 0.0031255155
-0.031850006 -0.050549526 -0.028779324 -0.03455242 -0.037492875 -0.03714031 -0.034725375 -0.033995856
-0.03218742 -0.032135908 -0.03157497 -0.0040575787 0.0 0.0 0.0 0.0
0.0 0.0 0.0 0.0 0.0 0.0 0.0 0.0
0.0 0.0 0.0 0.0 0.0 0.0 0.0 0.0
0.0 0.0 0.0 0.0 -0.104193464 -0.16367373 -0.12713183 -0.13841364
-0.13719586 -0.13208699 -0.11450533 -0.112105995 -0.101709075 -0.10384159 -0.10570258 -0.11400322
0.120589495 0.22880086 0.20320328 0.17216948 0.15527654 0.13216467 0.12176055 0.12133847
0.12064674 0.12097914 0.121005975 0.87926465 -0.0012299402 -0.0012861833 -0.002690618 -0.0011261064
-0.00661113 -0.008004123 -0.003573737 -0.0024534604 -0.0006564266 -0.0011404081 -0.0015382043 0.025984399
00000000: 0000 0000 0000 0000 0000 0000 0000 0000
00000010: 0000 0000 0000 0000 0000 0000 0000 0000
00000020: 0000 0000 0000 0000 0000 0000 0000 0000
00000030: d47c 09bc f3f2 a6bc 74f0 37bc 4450 24bc
00000040: d39f 1ebc f5ec 0abc b81f 0bbc e37c 09bc
00000050: e67c 09bc d47c 09bc d47c 09bc 7cc0 f9bc
00000060: 0000 0000 0000 0000 0000 0000 0000 0000
00000070: 0000 0000 0000 0000 0000 0000 0000 0000
00000080: 0000 0000 0000 0000 0000 0000 0000 0000
00000090: b41b 46be 74f8 adbe dafc 90be c8ac 88be
000000a0: 1cf4 80be c6ae 67be 2f8d 51be 679a 4fbe
000000b0: f76c 42be 2396 45be fd18 48be 739f 24bf
000000c0: a86e 4b26 81e1 5226 34f9 5226 8e46 4e26
000000d0: 6f49 4d26 a86e 4b26 a86e 4b26 a86e 4b26
000000e0: a86e 4b26 a86e 4b26 a86e 4b26 fad8 b525
000000f0: 1600 a0bc cd2c c2bc 1dca c7bc 8ef2 94bc
00000100: c10c 9cbc 3b21 9abc 0389 9dbc 0407 a3bc
00000110: 137b 9fbc 5c1a a0bc 401f a0bc 73d5 4c3b
00000120: 2775 02bd 050d 4fbd 9ec2 ebbc d786 0dbd
00000130: 2192 19bd 7020 18bd 323c 0ebd 3d3f 0bbd
00000140: f5d6 03bd f1a0 03bd c154 01bd 70f5 84bb
00000150: 0000 0000 0000 0000 0000 0000 0000 0000
00000160: 0000 0000 0000 0000 0000 0000 0000 0000
00000170: 0000 0000 0000 0000 0000 0000 0000 0000
00000180: 0000 0000 0000 0000 0000 0000 0000 0000
00000190: 0000 0000 0000 0000 0000 0000 0000 0000
000001a0: 0000 0000 0000 0000 0000 0000 0000 0000
000001b0: 6263 d5bd 169a 27be d92e 02be 4ebc 0dbe
000001c0: 127d 0cbe d041 07be c581 eabd d497 e5bd
000001d0: d94c d0bd e6aa d4bd 987a d8bd 857a e9bd
000001e0: a0f7 f63d c64a 6a3e 8514 503e 324d 303e
000001f0: d000 1f3e 2d56 073e 985d f93d 4e80 f83d
00000200: a315 f73d e9c3 f73d fbd1 f73d 7d17 613f
00000210: f235 a1ba 2695 a8ba 1455 30bb dc99 93ba
00000220: 2ea2 d8bb ba23 03bc 5c35 6abb 3cca 20bb
00000230: 0b14 2cba bf79 95ba 929d c9ba 3cdd d43c

exp_avg_sq f4 [12, 12]
0.0 0.0 0.0 0.0 0.0 0.0 0.0 0.0
0.0 0.0 0.0 0.0 0.30124855 0.69750166 0.55629563 0.49847594
0.3999476 0.33917332 0.31825313 0.30571052 0.3030319 0.30156556 0.3016281 3.6609316
0.0 0.0 0.0 0.0 0.0 0.0 0.0 0.0
0.0 0.0 0.0 0.0 0.90943235 1.8860536 1.6079233 1.4347364
1.1872234 1.0109245 0.95246935 0.9197647 0.913725 0.91025466 0.90998995 8.725376
2.321849e-05 2.4547928e-05 2.6430554e-05 2.3812165e-05 2.3321072e-05 2.3259432e-05 2.3218494e-05 2.321849e-05
2.321849e-05 2.321849e-05 2.321849e-05 1.0874313e-05 0.5427832 1.0523213 0.92169327 0.83121985
0.69356525 0.6002249 0.5689392 0.5488681 0.54561555 0.543334 0.5431908 3.8591409
0.39938855 1.0976863 0.8538523 0.71547896 0.56793225 0.46020946 0.42682505 0.40715128
0.40228954 0.3999283 0.39971545 8.193166 0.0 0.0 0.0 0.0
0.0 0.0 0.0 0.0 0.0 0.0 0.0 0.0
0.0 0.0 0.0 0.0 0.0 0.0 0.0 0.0
0.0 0.0 0.0 0.0 1.0534956 2.2770147 1.9120587 1.702452
1.3853275 1.1782534 1.106792 1.0667982 1.0590689 1.0546278 1.0541776 12.089813
0.32334417 0.90637267 0.72149897 0.60612285 0.4723664 0.3796203 0.3480267 0.33163992
0.32599562 0.3237631 0.323662 8.729166 0.20155238 0.44378987 0.36823383 0.3266089
0.2660912 0.2258101 0.21189858 0.20409338 0.2025674 0.20173077 0.2016757 2.150436
00000000: 0000 0000 0000 0000 0000 0000 0000 0000
00000010: 0000 0000 0000 0000 0000 0000 0000 0000
00000020: 0000 0000 0000 0000 0000 0000 0000 0000
00000030: 403d 9a3e 788f 323f 6469 0e3f 3d38 ff3e
00000040: efc5 cc3e 20a8 ad3e 13f2 a23e 1786 9c3e
00000050: ff26 9b3e cd66 9a3e 006f 9a3e b44c 6a40
00000060: 0000 0000 0000 0000 0000 0000 0000 0000
00000070: 0000 0000 0000 0000 0000 0000 0000 0000
00000080: 0000 0000 0000 0000 0000 0000 0000 0000
00000090: 8fd0 683f 346a f13f 6ed0 cd3f 71a5 b73f
000000a0: f0f6 973f f965 813f 08d5 733f b375 6b3f
000000b0: e2e9 693f 7306 693f 1af5 683f 249b 0b41
000000c0: 54c5 c237 46ec cd37 2fb7 dd37 3cc0 c737
000000d0: 9fa1 c337 401d c337 56c5 c237 54c5 c237
000000e0: 54c5 c237 54c5 c237 54c5 c237 d270 3637
000000f0: d7f3 0a3f 77b2 863f 17f4 6b3f d3ca 543f
00000100: 7e8d 313f 57a8 193f 00a6 113f 9f82 0c3f
00000110: 76ad 0b3f f017 0b3f 8d0e 0b3f 2afc 7640
00000120: a87c cc3e fc80 8c3f 1096 5a3f a129 373f
00000130: 0264 113f 93a0 eb3e d088 da3e 2276 d03e
00000140: e5f8 cd3e 67c3 cc3e 81a7 cc3e 3517 0341
00000150: 0000 0000 0000 0000 0000 0000 0000 0000
00000160: 0000 0000 0000 0000 0000 0000 0000 0000
00000170: 0000 0000 0000 0000 0000 0000 0000 0000
00000180: 0000 0000 0000 0000 0000 0000 0000 0000
00000190: 0000 0000 0000 0000 0000 0000 0000 0000
000001a0: 0000 0000 0000 0000 0000 0000 0000 0000
000001b0: f2d8 863f 9cba 1140 57be f43f f2e9 d93f
000001c0: 6952 b13f 02d1 963f 5cab 8d3f d88c 883f
000001d0: 928f 873f 0bfe 863f 4bef 863f e06f 4141
000001e0: 5e8d a53e 0a08 683f 28b4 383f de2a 1b3f
000001f0: 02da f13e 985d c23e 8e30 b23e b5cc a93e
00000200: e6e8 a63e 47c4 a53e 07b7 a53e aaaa 0b41
00000210: bf63 4e3e 6d38 e33e 2589 bc3e 4839 a73e
00000220: 1b3d 883e c33a 673e f1fb 583e dbfd 503e
00000230: d46d 4f3e 8392 4e3e 1384 4e3e bea0 0940

exp_avg f4 [32, 12]
-0.0011700495 -0.0028372859 -0.0031729923 -0.0036007548 -0.0025488834 -0.0012386673 -0.0016577357 -0.0011773874
-0.0011759048 -0.005543533 -0.00089826126 -0.020042142 6e-45 6e-45 6e-45 6e-45
6e-45 6e-45 6e-45 6e-45 6e-45 6e-45 6e-45 6e-45
-0.0623968 0.02849114 -0.051003274 -0.029305646 -0.031796627 -0.042093772 -0.048459753 -0.054488484
-0.06077609 -0.044895202 -0.06725568 0.26517698 -3.9084977e-16 -8.2182477e-16 -6.9193285e-16 -4.572238e-16
-4.603879e-16 -4.383391e-16 -1.739924e-15 -3.909648e-16 -3.9084977e-16 -4.4824e-15 -1.86838e-15 -2.2145168e-15
0.042057768 -0.09470743 0.011584234 -0.035756137 -0.00015763614 0.016036872 0.012593387 0.03017827
0.039332017 0.0033129524 0.039968345 -0.4612399 -0.0007944355 -0.00827192 -0.011481089 -0.004811477
-0.0020619864 -0.004087873 -0.0055815857 -0.0011038979 -0.00071063504 -0.027495356 -0.0035053403 -0.066071264
-5.526394e-05 -0.00015361144 -6.85696e-05 5.4375996e-05 0.00010860467 -2.4426094e-05 -0.00011859913 -6.0660568e-05
-5.288919e-05 0.0008893355 -7.705871e-05 0.0010496898 0.031071207 -0.07780077 0.010194441 -0.026731417
-0.0040946 0.0070907553 0.015484816 0.021774113 0.029273838 -0.005128977 0.037004467 -0.33554497
0.0098492745 -0.030024977 0.003199797 -0.0084977895 -0.0033549864 0.000651719 0.0040843813 0.006405564
0.00920406 0.0029866567 0.012176404 -0.10945075 0.04237087 -0.101696044 0.013935577 -0.0355344
-0.004108667 0.010870831 0.021687344 0.030091524 0.039981965 -0.010141466 0.050117873 -0.45281807
-0.06296233 0.004211885 -0.059695803 -0.040599678 -0.04402805 -0.051854853 -0.056465607 -0.057926457
-0.061763406 -0.05964003 -0.06699672 0.19055891 0.0 0.0 0.0 0.0
0.0 0.0 0.0 0.0 0.0 0.0 0.0 0.0
0.030441938 -0.0794014 0.00954089 -0.02759658 -0.0050005256 0.0061612385 0.014745322 0.021057513
0.028629644 -0.004024178 0.036448576 -0.33613774 0.0 0.0 0.0 0.0
0.0 0.0 0.0 0.0 0.0 0.0 0.0 0.0
0.022647938 -0.058896784 0.0075231846 -0.019259127 -0.0038162365 0.0044918545 0.01093849 0.01564823
0.021309538 -0.0016632575 0.027183369 -0.24509877 0.021203496 -0.052560978 0.00677093 -0.019296557
-0.002388916 0.005091677 0.010794851 0.014924675 0.019991634 -0.004574432 0.025204143 -0.23262502
0.0 0.0 0.0 0.0 0.0 0.0 0.0 0.0
0.0 0.0 0.0 0.0 -0.0026342077 -0.0043678856 -0.005070452 -0.008649789
-0.0021668687 -0.0029609534 -0.0032207614 -0.0026534724 -0.0025918626 -0.015127343 -0.0025420226 -0.011890259
0.050360296 -0.14643973 -0.014000849 -0.091336675 -0.0072955145 0.0085932 0.028578578 0.034063447
0.047756907 -0.06127715 0.059961338 -0.7387183 0.035199538 -0.085533984 0.011732256 -0.029595202
-0.0037501776 0.008713352 0.01790373 0.024891967 0.033202004 -0.006798139 0.04173453 -0.37659675
0.0003718698 0.0025297236 0.0009895212 0.0011902974 0.0006913893 0.0004527489 0.00040828326 0.0003753277
0.00037223747 0.002637374 0.00037231366 0.008149793 0.046538383 -0.104629226 0.020301986 -0.018196458
00000000: 595c 99ba c2f1 39bb faf1 4fbb a4fa 6bbb
00000010: 2b0b 27bb c75a a2ba 6148 d9ba 9152 9aba
00000020: d120 9aba 86a6 b5bb 4b79 6bba 6b2f a4bc
00000030: 0400 0000 0400 0000 0400 0000 0400 0000
00000040: 0400 0000 0400 0000 0400 0000 0400 0000
00000050: 0400 0000 0400 0000 0400 0000 0400 0000
00000060: c993 7fbd 4066 e93c cfe8 50bd 6512 f0bc
00000070: 2e3d 02bd 856a 2cbd bc7d 46bd 512f 5fbd
00000080: 59f0 78bd 08e4 37bd 59bd 89bd 47c5 873e
00000090: 3f4f e1a5 f7df 6ca6 a26f 47a6 29c9 03a6
000000a0: a2b2 04a6 6faf fca5 debf faa6 3960 e1a5
000000b0: 3f4f e1a5 d87e a1a7 87a1 06a7 a092 1fa7
000000c0: c444 2c3d f8f5 c1bd cdcb 3d3c 0775 12bd
000000d0: 214b 25b9 c25f 833c 7e54 4e3c 6b38 f73c
000000e0: 9c1a 213d 1e1e 593b d9b5 233d a327 ecbe
000000f0: aa41 50ba f286 07bc 2d1b 3cbc 98a9 9dbb
00000100: 6422 07bb 90f3 85bb bce5 b6bb abb0 90ba
00000110: e949 3aba f13d e1bc dab9 65bb 5f50 87bd
00000120: 34cb 67b8 c212 21b9 06cd 8fb8 c811 6438
00000130: b0c2 e338 a3e6 ccb7 6cb8 f8b8 ca6d 7eb8
00000140: 56d5 5db8 4c22 693a 949a a1b8 bf95 893a
00000150: 0b89 fe3c 0356 9fbd 9606 273c d8fb dabc
00000160: ff2b 86bb 9159 e83b 07b4 7d3c a05f b23c
00000170: b0cf ef3c fa10 a8bb ff91 173d 8dcc abbe
00000180: da5e 213c f1f6 f5bc afb3 513b 503a 0bbc
00000190: 55df 5bbb 1fd8 2a3a 46d6 853b c4e5 d13b
000001a0: a0cc 163c c9bb 433b 8a7f 473c b727 e0bd
000001b0: 148d 2d3d 0446 d0bd 0c52 643c 858c 11bd
000001c0: ffa1 86bb 921b 323c a8a9 b13c 8082 f63c
000001d0: 21c4 233d 6428 26bc 6648 4d3d c5d7 e7be
000001e0: 65f2 80bd da03 8a3b 9683 74bd d94b 26bd
000001f0: c256 34bd c165 54bd 7b48 67bd 4b44 6dbd
00000200: a0fb 7cbd 1b49 74bd 9435 89bd e021 433e
00000210: 0000 0000 0000 0000 0000 0000 0000 0000
00000220: 0000 0000 0000 0000 0000 0000 0000 0000
00000230: 0000 0000 0000 0000 0000 0000 0000 0000
00000240: 5f61 f93c 349d a2bd 6551 1c3c 3912 e2bc
00000250: 73db a3bb 37e4 c93b 5d96 713c ce80 ac3c
00000260: b788 ea3c 40dd 83bb 1a4b 153d 3f1a acbe
00000270: 0000 0000 0000 0000 0000 0000 0000 0000
00000280: 0000 0000 0000 0000 0000 0000 0000 0000
00000290: 0000 0000 0000 0000 0000 0000 0000 0000
000002a0: 2b88 b93c c13d 71bd 0c85 f63b 51c5 9dbc
000002b0: d319 7abb 6830 933b 5a37 333c b830 803c
000002c0: 5791 ae3c a901 daba a8af de3c 2cfb 7abe
000002d0: f4b2 ad3c 2e4a 57bd adde dd3b d013 9ebc
000002e0: 5c8f 1cbb 15d8 a63b e3dc 303c a086 743c
000002f0: 7fc5 a33c 1ee5 95bb eb78 ce3c 4135 6ebe
00000300: 0000 0000 0000 0000 0000 0000 0000 0000
00000310: 0000 0000 0000 0000 0000 0000 0000 0000
00000320: 0000 0000 0000 0000 0000 0000 0000 0000
00000330: aca2 2cbb 7b20 8fbb 0926 a6bb d8b7 0dbc
00000340: 0602 0ebb 8e0c 42bb 6913 53bb e1e5 2dbb
00000350: 3ddc 29bb add8 77bc 1098 26bb 5ccf 42bc
00000360: 9946 4e3d 4cf4 15be d163 65bc b90e bbbd
00000370: 360f efbb 7eca 0c3c 9f1d ea3c 1d86 0b3d
00000380: bf9c 433d c0fd 7abd 059a 753d a41c 3dbf
00000390: 642d 103d 712c afbd a638 403c a371 f2bc
000003a0: 8ac5 75bb 72c2 0e3c d8aa 923c 3dea cb3c
000003b0: d3fe 073d ecc2 debb d4f1 2a3d 4ad1 c0be
000003c0: 85f7 c239 b8c9 253b d2b2 813a c103 9c3a
000003d0: 5a3e 353a ee5e ed39 da0e d639 a2c7 c439
000003e0: de28 c339 cbd7 2c3b 1833 c339 b686 053c
000003f0: 089f 3e3d d947 d6bd 5a50 a63c bd10 95bc
