saved_files/ckpt/nyc4/a2c_gnn_test_price-variable.pth (torch, 286706 bytes, 55 tensors)

log_rate f4 [16, 16]
00000000: 0000 803f 0000 803f 0000 803f 0000 803f
00000010: 0000 803f 0000 803f 0000 803f 0000 803f
00000020: 0000 803f 0000 803f 0000 803f 0000 803f
00000030: 0000 803f 0000 803f 0000 803f 0000 803f
00000040: 0000 803f 0000 803f 0000 803f 0000 803f
00000050: 0000 803f 0000 803f 0000 803f 0000 803f
00000060: 0000 803f 0000 803f 0000 803f 0000 803f
00000070: 0000 803f 0000 803f 0000 803f 0000 803f
00000080: 0000 803f 0000 803f 0000 803f 0000 803f
00000090: 0000 803f 0000 803f 0000 803f 0000 803f
000000a0: 0000 803f 0000 803f 0000 803f 0000 803f
000000b0: 0000 803f 0000 803f 0000 803f 0000 803f
000000c0: 0000 803f 0000 803f 0000 803f 0000 803f
000000d0: 0000 803f 0000 803f 0000 803f 0000 803f
000000e0: 0000 803f 0000 803f 0000 803f 0000 803f
000000f0: 0000 803f 0000 803f 0000 803f 0000 803f
00000100: 0000 803f 0000 803f 0000 803f 0000 803f
00000110: 0000 803f 0000 803f 0000 803f 0000 803f
00000120: 0000 803f 0000 803f 0000 803f 0000 803f
00000130: 0000 803f 0000 803f 0000 803f 0000 803f
00000140: 0000 803f 0000 803f 0000 803f 0000 803f
00000150: 0000 803f 0000 803f 0000 803f 0000 803f
00000160: 0000 803f 0000 803f 0000 803f 0000 803f
00000170: 0000 803f 0000 803f 0000 803f 0000 803f
00000180: 0000 803f 0000 803f 0000 803f 0000 803f
00000190: 0000 803f 0000 803f 0000 803f 0000 803f
000001a0: 0000 803f 0000 803f 0000 803f 0000 803f
000001b0: 0000 803f 0000 803f 0000 803f 0000 803f
000001c0: 0000 803f 0000 803f 0000 803f 0000 803f
000001d0: 0000 803f 0000 803f 0000 803f 0000 803f
000001e0: 0000 803f 0000 803f 0000 803f 0000 803f
000001f0: 0000 803f 0000 803f 0000 803f 0000 803f
00000200: 0000 803f 0000 803f 0000 803f 0000 803f
00000210: 0000 803f 0000 803f 0000 803f 0000 803f
00000220: 0000 803f 0000 803f 0000 803f 0000 803f
00000230: 0000 803f 0000 803f 0000 803f 0000 803f
00000240: 0000 803f 0000 803f 0000 803f 0000 803f
00000250: 0000 803f 0000 803f 0000 803f 0000 803f
00000260: 0000 803f 0000 803f 0000 803f 0000 803f
00000270: 0000 803f 0000 803f 0000 803f 0000 803f
00000280: 0000 803f 0000 803f 0000 803f 0000 803f
00000290: 0000 803f 0000 803f 0000 803f 0000 803f
000002a0: 0000 803f 0000 803f 0000 803f 0000 803f
000002b0: 0000 803f 0000 803f 0000 803f 0000 803f
000002c0: 0000 803f 0000 803f 0000 803f 0000 803f
000002d0: 0000 803f 0000 803f 0000 803f 0000 803f
000002e0: 0000 803f 0000 803f 0000 803f 0000 803f
000002f0: 0000 803f 0000 803f 0000 803f 0000 803f
00000300: 0000 803f 0000 803f 0000 803f 0000 803f
00000310: 0000 803f 0000 803f 0000 803f 0000 803f
00000320: 0000 803f 0000 803f 0000 803f 0000 803f
00000330: 0000 803f 0000 803f 0000 803f 0000 803f
00000340: 0000 803f 0000 803f 0000 803f 0000 803f
00000350: 0000 803f 0000 803f 0000 803f 0000 803f
00000360: 0000 803f 0000 803f 0000 803f 0000 803f
00000370: 0000 803f 0000 803f 0000 803f 0000 803f
00000380: 0000 803f 0000 803f 0000 803f 0000 803f
00000390: 0000 803f 0000 803f 0000 803f 0000 803f
000003a0: 0000 803f 0000 803f 0000 803f 0000 803f
000003b0: 0000 803f 0000 803f 0000 803f 0000 803f
000003c0: 0000 803f 0000 803f 0000 803f 0000 803f
000003d0: 0000 803f 0000 803f 0000 803f 0000 803f
000003e0: 0000 803f 0000 803f 0000 803f 0000 803f
000003f0: 0000 803f 0000 803f 0000 803f 0000 803f
1.0 1.0 1.0 1.0 1.0 1.0 1.0 1.0
1.0 1.0 1.0 1.0 1.0 1.0 1.0 1.0
1.0 1.0 1.0 1.0 1.0 1.0 1.0 1.0
1.0 1.0 1.0 1.0 1.0 1.0 1.0 1.0
1.0 1.0 1.0 1.0 1.0 1.0 1.0 1.0
1.0 1.0 1.0 1.0 1.0 1.0 1.0 1.0
1.0 1.0 1.0 1.0 1.0 1.0 1.0 1.0
1.0 1.0 1.0 1.0 1.0 1.0 1.0 1.0
1.0 1.0 1.0 1.0 1.0 1.0 1.0 1.0
1.0 1.0 1.0 1.0 1.0 1.0 1.0 1.0
1.0 1.0 1.0 1.0 1.0 1.0 1.0 1.0
1.0 1.0 1.0 1.0 1.0 1.0 1.0 1.0
1.0 1.0 1.0 1.0 1.0 1.0 1.0 1.0
1.0 1.0 1.0 1.0 1.0 1.0 1.0 1.0
1.0 1.0 1.0 1.0 1.0 1.0 1.0 1.0
1.0 1.0 1.0 1.0 1.0 1.0 1.0 1.0
1.0 1.0 1.0 1.0 1.0 1.0 1.0 1.0
1.0 1.0 1.0 1.0 1.0 1.0 1.0 1.0
1.0 1.0 1.0 1.0 1.0 1.0 1.0 1.0
1.0 1.0 1.0 1.0 1.0 1.0 1.0 1.0
1.0 1.0 1.0 1.0 1.0 1.0 1.0 1.0
1.0 1.0 1.0 1.0 1.0 1.0 1.0 1.0
1.0 1.0 1.0 1.0 1.0 1.0 1.0 1.0
1.0 1.0 1.0 1.0 1.0 1.0 1.0 1.0
1.0 1.0 1.0 1.0 1.0 1.0 1.0 1.0
1.0 1.0 1.0 1.0 1.0 1.0 1.0 1.0
1.0 1.0 1.0 1.0 1.0 1.0 1.0 1.0
1.0 1.0 1.0 1.0 1.0 1.0 1.0 1.0
1.0 1.0 1.0 1.0 1.0 1.0 1.0 1.0
1.0 1.0 1.0 1.0 1.0 1.0 1.0 1.0
1.0 1.0 1.0 1.0 1.0 1.0 1.0 1.0
1.0 1.0 1.0 1.0 1.0 1.0 1.0 1.0

actor.conv1.bias f4 [21]
00000000: 0000 0000 6e12 833a 6e12 83ba 6f12 833a
00000010: 6e12 833a 6e12 83ba 0000 0000 6e12 833a
00000020: 6d12 833a 6e12 83ba 0000 0000 6e12 83ba
00000030: 6e12 83ba 6e12 83ba 6e12 833a 6e12 83ba
00000040: 6e12 83ba 6e12 833a 6e12 83ba 6e12 833a
00000050: 6e12 83ba
0.0 0.0009999999 -0.0009999999 0.001 0.0009999999 -0.0009999999 0.0 0.0009999999
0.0009999998 -0.0009999999 0.0 -0.0009999999 -0.0009999999 -0.0009999999 0.0009999999 -0.0009999999
-0.0009999999 0.0009999999 -0.0009999999 0.0009999999 -0.0009999999

actor.conv1.lin.weight f4 [21, 21]
00000000: 70da 38be cb9c a6be d646 673e 5289 563e
00000010: 014e a13e 5d09 a73e 0007 10bd 970d 80be
00000020: 8088 6cbc d62a 3b3e 0b2a 07be 109f ea3c
00000030: c4dd da3d 3bdb 26be 60fc 8abe 5fa4 97be
00000040: ea02 543e ca43 8abe f826 82be fd21 82be
00000050: 584c 2f3d 65fd 9bbe 73ce 5b3d b910 68be
00000060: 5551 13bd 977c ff3c 4e69 f13d 89df b8bc
00000070: 533b 8f3e 3128 a1be e5c6 39bd 9208 d33d
00000080: a185 8d3e 3952 a73e c1b0 85be b0f8 a1be
00000090: 6bd5 853e 8918 a8bc 7ec5 aebd 353e 8bbe
000000a0: 22d7 46ba 1ec4 d73d 4eac 99be b268 c63d
000000b0: 44cb 57be 0de3 08be 0e95 cebd c277 49be
000000c0: 3d42 233e 112d 9e3e e924 39be ddbb 5e3e
000000d0: 0982 633e 9d23 643e 19e3 163e fdb8 19be
000000e0: 8617 aebd 48df 0abe abf1 35bd 4fb9 2abe
000000f0: 63a5 36bd 0be8 943e 017d 2c3e 93e1 a33e
00000100: 135b 5f3e aa5d 9dbd a3cc 913e 63ea 8a3e
00000110: 1283 31bc 37ed 943e 8e34 e83d 95c6 98be
00000120: aa67 fbbd c3a6 783e 1ceb ab3b d220 90bd
00000130: fec2 aebd f97b d0bc ced5 103c c273 903d
00000140: 6c86 50be 53e2 0e3d 3f44 083e 871d 6cbe
00000150: 4c67 2cbe c698 89bd a32e 113e c43b bebe
00000160: fd97 8f3e 866a b63d 0b65 673e 657c 993e
00000170: 55ed af3e 7acf a3bd 6511 f5bb 6942 9d3e
00000180: 7534 38bd 78a4 b5be 1b3f ac3e 6929 b1be
00000190: 96db 8a3d 1124 15be 3b2d a4be 5e0a 90bd
000001a0: 73e5 8b3e e969 843c 1c5b c7bb 25fb 853e
000001b0: aaae dfbd d918 ba3e 3269 69be 5935 173e
000001c0: 36c7 90be 6980 303e 5388 a43e 5172 093e
000001d0: 8ff0 a63e c743 a1be ea4e 3abe 3143 85be
000001e0: 9d5d 87be ca45 ad3d 24c1 5d3a 1914 003e
000001f0: bf53 b9be f987 113e 27ce 80be c007 e8bb
00000200: 241f bcbd 3f17 90be bf9a bb3e 74e5 b1be
00000210: 92c6 22be 48cc fcbd 00f3 683b 0dbc c03e
00000220: 0b85 bcbe 0f09 60be 7df5 883e 6664 91be
00000230: e080 6f3d e805 39be ecc4 a2be 7474 afbd
00000240: f40f 9ebe bf89 59be ce80 7cbe 3174 b93e
00000250: 3c5d 26be 815a 17be 4b58 7f3d e9f8 e0bc
00000260: b896 a5be b764 a83e 9200 90ba 5faf 48be
00000270: 15a5 abbe 24da cfbb b185 a23e 99a9 a6be
00000280: 914a 8fbe e190 4f3e 59a8 bc3e 51ff 33be
00000290: d92b 863e 27cc 88bc 464b 93bd d7b2 8c3e
000002a0: 03c9 af3e 3acd 9a3d a317 843e d74d 1e3e
000002b0: 3d49 24bd 5907 c0bc cf0b 493e e535 4dbe
000002c0: 9e25 a0be 6adc aa3d 970e ad3e 6b22 7b3e
000002d0: 0b2a 053d 6b08 393e b739 d63c 77a9 f33c
000002e0: fd4b 20bd cf09 113e 6908 aebe fbf9 ab3e
000002f0: 396e 50be 17e6 5b3e 57bd 38be b1e2 853e
00000300: fb65 1abd b7dc 25be 1d33 833e 2daf 02bd
00000310: 4b49 adbe c0d5 91be 55f6 c13e 1a87 f4bd
00000320: c372 b33e 138b 993e 6977 ad3c bd08 b5be
00000330: 8a80 833d 8f0c 36be 4a44 a0bd 7e92 f03d
00000340: f94b 803e c6e2 d7bd 0142 4fbe 4780 a93e
00000350: 00e6 10be fbf8 87be dc6e febd 60e6 983d
00000360: 040b febd d0ae b3be 52a3 91be f0cc b13d
00000370: 7929 c03e 480a e13d 08ff 3cbe 6f88 70be
00000380: 245b 9fbd 26a5 97be a0c5 f6bd f283 3e3e
00000390: f425 afbe 12c4 7fbe f3cc 9abe 7aff aabe
000003a0: 6382 ab3e de88 86be 2e1e bfbd 6334 45be
000003b0: 7c0c 94be c019 4ebe 95dd 5e3d 118c 703e
000003c0: e0c2 0bbe c96b a13e e5b3 d73b 0d78 2e3e
000003d0: db86 b73e bd33 223e 05f9 923e eed5 ed3d
000003e0: f2cd 5abe 6aa4 32be 4c7d 8dbe 2fec 33be
000003f0: 3229 87be a180 3a3e f82d 19be 13e2 c03e
-0.18052077 -0.325415 0.22585616 0.20950821 0.31504825 0.3262433 -0.035162926 -0.25010368
-0.014436841 0.1827806 -0.13199632 0.0286403 0.1068683 -0.16294567 -0.27145672 -0.29617593
0.20704237 -0.27004844 -0.25420356 -0.25416556 0.042797416 -0.30466762 0.053663682 -0.22662629
-0.035966236 0.031187339 0.117876634 -0.022567527 0.27974948 -0.31475976 -0.045355696 0.10304369
0.27641013 0.32679918 -0.26111415 -0.31635046 0.26139387 -0.020519512 -0.085337624 -0.27195898
-0.0007585158 0.10535453 -0.3001427 0.09687938 -0.21073633 -0.13367863 -0.10087024 -0.1967459
0.15943237 0.30893758 -0.18080486 0.21751352 0.22217573 0.2227921 0.14735068 -0.15011974
-0.085005805 -0.13561738 -0.044419926 -0.16672252 -0.04459132 0.29083285 0.1684456 0.32008037
0.21812086 -0.076838806 0.28476438 0.27131948 -0.010834472 0.2908723 0.11338149 -0.29839006
-0.12275632 0.24282365 0.005246533 -0.0703751 -0.085332856 -0.02544974 0.0088400375 0.07053329
-0.20363778 0.03488381 0.13307284 -0.23058139 -0.1683628 -0.06718592 0.14177947 -0.37154973
0.28045645 0.089070365 0.22597139 0.29977718 0.34360757 -0.079985574 -0.00747888 0.3071473
-0.044971902 -0.35477042 0.33641896 -0.34601906 0.06780164 -0.1456454 -0.32065758 -0.070332274
0.27323493 0.016163783 -0.006083859 0.2616817 -0.109219864 0.36347082 -0.22794035 0.14766444
-0.28276986 0.17236485 0.32135257 0.13422514 0.32605407 -0.31497023 -0.18194166 -0.26027825
-0.2643861 0.08460577 0.0008459261 0.12507667 -0.36196706 0.14212026 -0.25157282 -0.007081002
-0.09185627 -0.28142735 0.366415 -0.3474537 -0.15896061 -0.12343651 0.003554523 0.3764347
-0.36820254 -0.21878456 0.26749793 -0.2839691 0.058472514 -0.1806866 -0.31790864 -0.085671335
-0.30871546 -0.21243952 -0.2465851 0.3622146 -0.16246504 -0.14780618 0.062340062 -0.02746244
-0.32341552 0.3288934 -0.0010986498 -0.19598149 -0.33524385 -0.006343143 0.31742623 -0.32551268
-0.27986577 0.2027011 0.3684719 -0.17577864 0.26205328 -0.01669891 -0.07192092 0.27480194
0.34333047 0.07558675 0.25799283 0.15459381 -0.040108908 -0.023441004 0.19633411 -0.2004009
-0.312787 0.08342822 0.33800194 0.24524848 0.0325108 0.18069617 0.026150567 0.029743893
-0.039134968 0.14163898 -0.3399079 0.33589157 -0.20354547 0.21474491 -0.18040977 0.26149514
-0.037694912 -0.16197477 0.25624934 -0.031905342 -0.3384498 -0.2848339 0.3788325 -0.11939831
0.35048494 0.29988918 0.021175103 -0.3535823 0.06421001 -0.17778228 -0.07825525 0.11746691
0.25057963 -0.105413005 -0.20240022 0.3310568 -0.14150238 -0.26557145 -0.124234885 0.074658155
-0.12404445 -0.3509431 -0.28444916 0.08681667 0.3753164 0.10988289 -0.18456662 -0.23489545
-0.077810556 -0.29618186 -0.12049413 0.1860502 -0.34208643 -0.24977139 -0.3023449 -0.33398038
0.33497915 -0.26276296 -0.09331928 -0.19258265 -0.28915775 -0.2012701 0.054410536 0.23490931
-0.13648558 0.31527546 0.0065827244 0.17037983 0.35845074 0.15840049 0.28705612 0.116130695
-0.21367624 -0.17445531 -0.27634656 -0.17570566 -0.26398617 0.1821313 -0.14958942 0.3767248

actor.lin1.weight f4 [32, 21]
00000000: 6dde 11be 6228 093e 1cb8 583e ac90 a1bd
00000010: 9a0a 053e ccf3 9dbd 907a a53d 8132 c1bc
00000020: 0d6c 4dbd f226 06bc 1bce 20be f8d6 9e3d
00000030: 571e 1c3d b8e9 e7bd 408a 533e 1b63 01be
00000040: 2b9c 45be 1f38 353d 7c8e bc3d 64a4 df3d
00000050: c5dd 52be 09b3 4d3d ac30 393e 2ecf 153e
00000060: f714 52bb 00e3 c83d c012 283e 4205 54be
00000070: 5848 4e3e b8d2 963d 2885 a7bd 124a 573c
00000080: c98f f8bd 245c 923d 30ff 483e 6951 17be
00000090: 2447 b73d 5e8b 293e 721e 14be c0f1 f03d
000000a0: f10d c03c 2525 38be 249c e03b 71b6 48be
000000b0: ae97 503e 8492 9d3b a6db 033e e649 3f3e
000000c0: d2e3 183e bfde 54be d17a 5f3d 5c47 b63d
000000d0: 4b97 60bd 2786 673d b2b0 f4bd 0e8a 0a3e
000000e0: 5cbf bf3b 0fee f53c 4e8c 88bd 967d 45be
000000f0: 9c2b 063e 51eb 09bd 4f6f c0bd ab28 23bd
00000100: 2395 06be 778e 70bd 692b 20be 36f4 3dbe
00000110: 1a69 373e fa9b 8fbd 88ea b63d 6815 1d3e
00000120: aee7 423e 59b2 f63c 9c2c 493e 0686 d0bd
00000130: a665 5bbe 003c 293e 7caf da3d b68c 96bd
00000140: 6a60 febd a9fb 4a3d b755 01be ea97 5d3e
00000150: a8f9 3f3e 96e3 413e 7cb3 ed3d 28f8 2d3e
00000160: 92d4 373e 60a0 f13d 2251 273e 083e 4d3e
00000170: 5acf 543e f32d 1fbe b739 773d dbc2 2abe
00000180: f4e0 e5bd 7a28 233e c9e6 6dbb 99b3 07be
00000190: d148 25be 9783 233d 8b4c 18be b819 1b3e
000001a0: aa25 aebd 515f 203e 4e92 93bd b1c8 2f3e
000001b0: 66f1 85bd 8bc0 233e 1fab cebd 00d4 bcbd
000001c0: 58c3 bb3c 6815 21bd d613 9bbd d4d5 37bd
000001d0: 7e58 b03d 6833 f23c d433 563d 58a1 f9bd
000001e0: 00e6 e03b 3040 13bd 9ab5 db3d a4e8 e9bd
000001f0: c0cf 72bb d63e 3bbe 2c69 513d 5cb0 033d
00000200: 8ccb 37bd 3a61 e93d cc14 79bd 2024 8d3b
00000210: 4caf e2bd 8c1f 04be 7821 c63c 8484 02be
00000220: 4c2f 383d 3e38 4ebe 60f4 a83c 0766 06be
00000230: 4cf9 3a3d 370e eebd a8aa 24bd d085 bd3c
00000240: 8c3f 043d 5364 58be c005 41bd 9453 a1bd
00000250: 7801 cdbc 804c ee3c 5ae0 d03d 6a6d bc3d
00000260: c0b8 113b ea36 97bd f963 1cbe 14ca 7a3d
00000270: 3081 b93c f4b0 113d f32a 573e 28b7 a1bd
00000280: 7649 babd 3058 46be 534c 133e 65a3 593e
00000290: baec 44be 6ff5 23be e60f 863d aa3e cebd
000002a0: 60d7 d23c b42a 2abe bd4f c6bd 8861 7fbd
000002b0: e584 39be 69f2 443e 7484 143d 0e62 b03d
000002c0: 6a57 2dbe 20fe cebd 3168 5c3e 90da 9d3c
000002d0: d86f 6abd b013 483c ab72 29be e1cf e3bd
000002e0: 65b7 1cbe 5c75 4ebd fc46 a2bd 7365 403e
000002f0: 51d1 0a3e 7f54 57be b7ca 19be b45e b2bd
00000300: 10d4 983d 533d ecbd 8e9d 603c e86a 373e
00000310: 29e4 b6bc 3f9f f5bd 1422 a53d 6836 0ebe
00000320: b66f 073e 9827 f33d 562c ccbd 6f8d 353d
00000330: d43e 2a3e a1be c5bd 856c 0dbd 6d09 3fbd
00000340: 1e2f 4e3e 9a84 143e 6859 fc3d a8aa 9bbd
00000350: f876 02be 22c7 393e 97c5 0cbe eca7 113e
00000360: 9c52 8a3d 80ed b83d 1e7b fabd e62f a8bd
00000370: e350 55be b001 df3d 3926 673d ffac 30bd
00000380: b7d6 11bd 76fb 493e 4878 4b3e 991f 02be
00000390: 1e82 50bc a8c3 aebd 5c47 bf3d 1096 3a3e
000003a0: 0499 aabd 2d0b 1dbd bd21 d0bd 099c d8bc
000003b0: 9499 fcbd 477d 6e3d b45d 913d 0958 98bc
000003c0: 347f 423e fb2a 003d 2ec3 0f3e 10b0 2c3e
000003d0: e708 d43c a044 ce3d 84b7 0abe 6548 12be
000003e0: cf0f 31be 44bf cbbd 01c6 1abe 605a cb3d
000003f0: be9e 2cbe 30d1 e73d 0e89 22bc 465f 403e
-0.14245005 0.13394311 0.21163982 -0.07888922 0.12992325 -0.07712516 0.080800176 -0.023583652
-0.050151873 -0.008187996 -0.15703623 0.07755846 0.03811487 -0.11323875 0.20658207 -0.12635462
-0.19297855 0.044242974 0.09206864 0.10920027 -0.20592411 0.05021957 0.18084973 0.14629814
-0.0032055953 0.09808922 0.16413403 -0.2070513 0.20144784 0.0736441 -0.081796944 0.013140218
-0.121368 0.07146481 0.19628596 -0.1477715 0.08949116 0.1655707 -0.14464739 0.1176486
0.023444148 -0.1798292 0.006854551 -0.19600846 0.20370361 0.004808726 0.12876758 0.18680534
0.14930657 -0.20788096 0.054560486 0.089003295 -0.054831784 0.056524422 -0.119477645 0.13529226
0.0058516692 0.030020742 -0.06667386 -0.19286188 0.13102573 -0.03367168 -0.093962304 -0.039833706
-0.13142829 -0.058729615 -0.1564156 -0.1855019 0.17911187 -0.07012172 0.08931452 0.15340197
0.19033691 0.03011434 0.19645923 -0.10181813 -0.21425495 0.16526794 0.10678002 -0.07351057
-0.12420733 0.049556408 -0.12630354 0.21639982 0.1874758 0.18934473 0.116064996 0.16989195
0.17952183 0.11798167 0.16339543 0.20043194 0.20782223 -0.15544872 0.060357776 -0.16675894
-0.11224547 0.1593341 -0.0036300889 -0.13252105 -0.16141059 0.039920416 -0.14872949 0.1514653
-0.085032776 0.1566136 -0.0720564 0.17166401 -0.06540184 0.15991418 -0.100912325 -0.09220123
0.022920296 -0.039327055 -0.07572143 -0.044881657 0.086106285 0.029565528 0.05229552 -0.12188977
0.0068633556 -0.035949886 0.10727997 -0.11421326 -0.0037050098 -0.18285689 0.05112569 0.03215061
-0.04487185 0.113954976 -0.06081085 0.004307285 -0.110685915 -0.12902659 0.024185881 -0.12745863
0.04496698 -0.20138642 0.02062434 -0.13124858 0.045647904 -0.11623805 -0.040201813 0.023135096
0.032287166 -0.2113202 -0.047124624 -0.078772694 -0.025025114 0.029089212 0.10199042 0.092005566
0.0022235364 -0.07383521 -0.15272512 0.061227873 0.02264461 0.035569146 0.21012478 -0.078962624
-0.09096043 -0.19369578 0.14384584 0.21253736 -0.19230929 -0.16011594 0.06546001 -0.10070546
0.025737464 -0.16617852 -0.096831776 -0.062348872 -0.18117101 0.19233097 0.03625913 0.086124524
-0.16927877 -0.10107064 0.21524121 0.019269258 -0.05723557 0.012211725 -0.16547649 -0.11123634
-0.15304334 -0.05040489 -0.079236954 0.187887 0.1355641 -0.21028326 -0.15018736 -0.087094694
0.07462323 -0.11535134 0.013709439 0.17911875 -0.022325592 -0.119932644 0.080631405 -0.13887942
0.13226208 0.11872786 -0.09969394 0.044324335 0.1662553 -0.096555 -0.03452732 -0.04663985
0.20135161 0.14503708 0.123217404 -0.076009095 -0.12740695 0.1814237 -0.1374725 0.14224213
0.06754038 0.090296745 -0.12230514 -0.08212261 -0.20831637 0.10888994 0.056432936 -0.043133732
-0.03560516 0.19724831 0.19870102 -0.12707366 -0.012726335 -0.08533412 0.093397826 0.18221307
-0.08329967 -0.038340736 -0.10162685 -0.02644159 -0.1233398 0.058224943 0.070979506 -0.018596666
0.18993837 0.03129099 0.14039299 0.16864038 0.025883151 0.10071683 -0.13546568 -0.14285429
-0.17291187 -0.099485904 -0.15114595 0.09929347 -0.1685743 0.11319196 -0.009920372 0.18786344

actor.lin1.bias f4 [32]
00000000: 79e6 e7bc 861e babd 6477 b1bd cf01 90bc
00000010: 5caa c83b f607 8a3d b2c9 b8bd ec86 57be
00000020: 003e 84b9 948a 85bd 69c7 4b3d 50cc 9f3d
00000030: 4d1f 3ebe 3407 eabd b6fa 893d 387a a23d
00000040: 4474 8dbb 1baa 39bd 8610 ebbd 94ee 4dbe
00000050: 050b 45be f4d1 3f3e 856f 1f3e 7c42 77bd
00000060: df07 123d 89cf 10bd a795 05be a776 1ebe
00000070: da11 4ebe 5836 21bd 127c 3e3e 1091 50be
-0.02830814 -0.09087853 -0.0866535 -0.017578987 0.006123824 0.067398 -0.09022845 -0.21047562
-0.00025223196 -0.06520572 0.04975072 0.078026414 -0.18566628 -0.11427155 0.067372724 0.079334676
-0.0043168385 -0.04532824 -0.11477761 -0.20110542 -0.19242485 0.18732435 0.15569885 -0.06036614
0.035652038 -0.03535417 -0.13045369 -0.1547495 -0.20123997 -0.039358467 0.18602017 -0.20367837

actor.lin2.weight f4 [32, 32]
00000000: 0159 ae3c 4c34 8a3d a474 ab3d eb63 11be
00000010: e3c9 9bbd e088 a13c 0001 c8ba c013 f83b
00000020: e90c 013e 1072 a23d fc84 b83d be5f 0fbc
00000030: 7688 1a3e 0313 adbd fc59 04be 2de9 aebd
00000040: d7de 6ebd be9d 083e 78a2 993c 0e98 9fbd
00000050: cdea 0e3d b27f 23be ab9d 073e 4c1b 02bd
00000060: 2bf7 32bd 09a0 f23c 9063 25be 46ee b63d
00000070: dcf4 d53d 6003 2e3d f0c7 113e 98e0 6b3d
00000080: 9d13 27be 7851 8ebc 35e8 11be dc74 453d
00000090: b759 033e 48a7 993c 7a35 d43d a0da 853d
000000a0: 1150 2b3e 03ed 18be b1e7 2dbe d557 a9bd
000000b0: 8350 073e 38d6 84bc 4a65 eebd f32e 273e
000000c0: d666 06be 6071 50bc 2653 2abe 8755 033e
000000d0: 00b2 88ba 6e7b f23d 574d 233e f31c 1e3e
000000e0: 0086 8f3a 7b88 30be ca64 a53d 6807 513d
000000f0: 0704 1ebe b869 b6bc e002 25bd 6826 413d
00000100: 49a7 61bb c1e2 ccbc b41d 29be e27a 77bc
00000110: 88f8 013e e9c7 a9bd 9050 453d 8237 e03d
00000120: ee38 5dbd cc61 133e fab3 e8bd c78a 193d
00000130: c529 1b3d 53da 0fbe 94ad f3bd a119 aebc
00000140: d0c9 103e 5174 c2bc 6cd1 af3d c45b 36bd
00000150: 0b43 bbbd 60e1 f9bd 12a5 e83d 0006 29bc
00000160: c0a9 0a3e ac37 b93d 52f0 21bc 6c02 1ebe
00000170: 1c36 eebd 9dda 003e 407d ac3d 80c1 f3bb
00000180: b43f b03d afeb b73c e37d 99bd 72ee f9bd
00000190: de0e 6b3c 8a93 b43d adf3 183e d687 ef3d
000001a0: f1aa 0b3e 32db 093e f762 773b 867d 2a3e
000001b0: 7893 a43d beba df3d 28b5 1e3d b7e8 0cbe
000001c0: 4289 873d d05e f93d 5d43 66bd 20c2 88bc
000001d0: 3c00 933b 6eed 48bc 8e08 15be eb2c 003e
000001e0: f5c4 17bd 8482 b7bb 5b19 403d 80af e93b
000001f0: 7f58 ed3c b1cc 0a3e ba91 803d 6b41 9abd
00000200: 2861 023e 9c47 d73d 2070 bc3d b32c 793d
00000210: 4cc5 f93d bbf7 e1bd b859 283d 9035 e4bc
00000220: e70c 1e3e 1c0d 0ebe 1e63 c4bd f1c4 edbc
00000230: c87a 1bbe 5e3c 30be e008 82bd 768d 96bd
00000240: 12b2 02bc 5436 cf3d da09 83bd 6656 b23d
00000250: 2725 f0bd b09e 1c3e b467 12bd 4da2 2d3e
00000260: 37a5 cd3c a18a 8bbc cc6a 183e f5df 2f3e
00000270: fc71 e63b d4ad 7a3d 04c8 f53d 51a4 153e
00000280: d16d 58bd 9ec4 093e 2359 9dbd c292 0f3e
00000290: 03c1 d8bd c43a 893d 8a47 ec3d 039d 0c3e
000002a0: 8552 223e 4752 db3c 086a bdbd aa3f 86bd
000002b0: d0af 1e3c 92a9 a73d a1e9 2dbe 2eb1 01be
000002c0: 529f ffbd e834 f33d 30d6 15be c044 d4bb
000002d0: 9e67 143e dc24 c43d 5d81 203e d99b 133e
000002e0: 799f 363d aaa3 9dbd 9f68 0ebe fb13 193e
000002f0: 21f2 25bd a0fa fe3b ea5d 28be 68c5 80bd
00000300: 1e75 1bbc 8a18 8c3d 17a0 d8bc 525e 2a3c
00000310: d3e6 3dbd 70ff 21be 1a64 ea3d eac2 26be
00000320: 225b da3d 19a7 35be dfbb f9bc 1b01 07bd
00000330: 90f3 e33d 24ca 19bd 4696 e9bd 0cb8 0c3e
00000340: 8436 cb3b af9f 77bd 53fb 273d 7888 4ebd
00000350: 5e04 24bc 22d8 c7bd 5c1d 84bd d619 ebbd
00000360: 1c8e c63d 9bb0 0fbd 01cd 803c c002 e53c
00000370: 954a 163d 1966 02be c120 a13c 6181 1a3e
00000380: 5ee9 f0bd 5c35 23be 0e4b 9e3d cca3 0f3e
00000390: 2b1f 11be 3a69 f43d 7343 adbd 7208 f1bd
000003a0: 6280 993d cb7b 02bd ff91 0ebe c59a 29be
000003b0: 0322 1f3e fa8c bd3d f888 cabc f7c4 34bb
000003c0: e8c8 2d3e a7c6 003e ef2d 0c3e 8f49 dbbd
000003d0: f8b3 203e 3ec9 ac3d 1e99 c83d e362 223e
000003e0: 8cf7 f53d 708d c8bc 0338 0ebe f7b0 083e
000003f0: 3290 adbd 3a29 24be 8464 b0bd 9cb4 0dbe
0.021282675 0.06748256 0.08371857 -0.14198272 -0.07606866 0.019718587 -0.0015259087 0.0075707138
0.12602581 0.07931912 0.0900974 -0.008750854 0.15091118 -0.08450892 -0.12924951 -0.085405685
-0.058317985 0.13341424 0.018754229 -0.07792674 0.034891892 -0.1596668 0.1324374 -0.031764314
-0.04369275 0.029617326 -0.16151261 0.08932166 0.10447094 0.042483687 0.14236426 0.057587236
-0.16316076 -0.017372832 -0.14248736 0.04820715 0.12827192 0.018756524 0.10361762 0.0653584
0.16729762 -0.14934163 -0.16982915 -0.08268706 0.13214307 -0.016215429 -0.11640413 0.16326503
-0.13125166 -0.012722343 -0.16633281 0.12825595 -0.0010429025 0.118399486 0.15947472 0.15440731
0.0010949969 -0.17239563 0.080758646 0.051032454 -0.15431224 -0.022267208 -0.040285945 0.047155768
-0.0034431985 -0.025010468 -0.16515237 -0.015104981 0.12692463 -0.08290083 0.048172534 0.10948087
-0.05400937 0.14392775 -0.11362453 0.037485864 0.03788163 -0.14048128 -0.11898342 -0.021252455
0.14139485 -0.023737105 0.08584866 -0.04452111 -0.09143647 -0.1220119 0.1135961 -0.010316372
0.13541317 0.09043822 -0.009883957 -0.15430611 -0.11631414 0.12583394 0.08422327 -0.0074388385
0.086059004 0.02245125 -0.07494714 -0.12203683 0.014346806 0.08817203 0.14936705 0.116958305
0.13639428 0.13462523 0.0037748197 0.16649446 0.0803594 0.1092429 0.038746983 -0.13760649
0.06617977 0.12176287 -0.056216586 -0.016694129 0.004486112 -0.012263639 -0.14554045 0.12517135
-0.037053067 -0.0056002755 0.04689918 0.007131517 0.028972862 0.13554646 0.06277795 -0.07532009
0.12732375 0.10511705 0.09201074 0.060833644 0.121958345 -0.11033579 0.041101187 -0.027857572
0.1543461 -0.13872188 -0.095892176 -0.029024573 -0.15183556 -0.17210528 -0.06349349 -0.073512
-0.007977026 0.10117784 -0.063983634 0.087078854 -0.11725836 0.1529491 -0.03574343 0.16956444
0.025103195 -0.017033877 0.1488449 0.17175277 0.007032631 0.06120093 0.120010406 0.14613463
-0.052839104 0.1345391 -0.07683017 0.14020827 -0.10583689 0.06700662 0.115370825 0.1373177
0.15851791 0.026772631 -0.092487395 -0.06555112 0.009685472 0.0818664 -0.16983654 -0.12665245
-0.1248156 0.118753254 -0.14632487 -0.006477922 0.14492652 0.09577343 0.15674348 0.1441492
0.04458568 -0.07697232 -0.13907097 0.14949028 -0.040514115 0.0077813417 -0.16442075 -0.06287652
-0.009488372 0.06840618 -0.026443524 0.010398464 -0.04636271 -0.15820098 0.11444874 -0.16285291
0.106619135 -0.17739524 -0.030485092 -0.03296004 0.1113044 -0.037546292 -0.114056155 0.13742083
0.006201567 -0.06045502 0.041011166 -0.050423115 -0.010010807 -0.09758021 -0.06450912 -0.11479537
0.09695074 -0.035080533 0.015722753 0.027955413 0.03669222 -0.1273426 0.019668939 0.15088417
-0.11763261 -0.15938324 0.07729159 0.14027327 -0.14172046 0.11934133 -0.084601305 -0.11769189
0.0749519 -0.03185634 -0.1392288 -0.16562946 0.15540318 0.09255405 -0.024723515 -0.002758322
0.16971171 0.1257578 0.13689397 -0.107073896 0.15693653 0.084368214 0.0979483 0.15858035
0.120101064 -0.024481505 -0.13888554 0.13348757 -0.08474769 -0.16031352 -0.08612922 -0.13838428

actor.lin2.bias f4 [32]
00000000: 53ec e9bd d3c8 25be c9b9 aabc bc65 ab3b
00000010: 8ed1 5c3c 046a 233e d576 2e3d 024b 05be
00000020: c8e1 d3bd c166 bfbd 9667 1cbe 514c 113d
00000030: 06ee 8a3d b4aa 16be 7e19 683c dcb8 2f3e
00000040: cf96 b5bd 1471 cd3d 1149 c7bd a204 31bc
00000050: e4a6 d5bb d8e2 b5bc 9d8f 6e3d 3120 afbc
00000060: 8ba3 8cbd 7ebe 07be 84f9 a63d 706d 913c
00000070: 5973 0abd 7b71 acbd 5ac6 c9bd 82b1 723c
-0.114220284 -0.1618989 -0.020840542 0.0052306335 0.013477696 0.1595841 0.042593796 -0.13016894
-0.10345799 -0.093457706 -0.1527389 0.03547317 0.067836806 -0.14713556 0.014166234 0.17160362
-0.08866655 0.100313336 -0.09730733 -0.010804327 -0.006520139 -0.022202894 0.05824243 -0.021377655
-0.06867131 -0.13256261 0.0815306 0.01775238 -0.03380141 -0.08420082 -0.09852286 0.014812829

actor.lin3.weight f4 [1, 32]
00000000: 5ae7 c8bd a3a4 e3bd b49b b93d d887 fa3d
00000010: 2a25 073e d848 b5bd 1b31 afbd d0fb f83d
00000020: 063a 223e 40b2 0f3b d0e4 b8bc c73b 14be
00000030: 490b 46bd 10e9 953d 042f c83d d8af 353e
00000040: 930c 4e3d f99f 04be 7e7d 063c db1e 243d
00000050: 881e a03d f814 1fbd d161 a7bd 30f8 eb3d
00000060: 88e1 f63d 40f4 97bb 14d9 a03d aef1 f7bd
00000070: b34f 043d 6d99 173e e83b 1dbe 5896 02be
-0.09809752 -0.11115386 0.09062901 0.122329414 0.1319777 -0.088517845 -0.08554288 0.121574044
0.15842447 0.0021926314 -0.022570044 -0.14475928 -0.048350606 0.07319844 0.097745925 0.1774286
0.05030496 -0.1295165 0.008208631 0.04006849 0.078183234 -0.038838357 -0.08172954 0.115219474
0.120547354 -0.004637271 0.07853904 -0.121066436 0.03230257 0.14804621 -0.15354884 -0.12752664

actor.lin4.weight f4 [32, 32]
00000000: 32bb 6d3c e8b3 14be 18c2 da3c 74c6 ca3d
00000010: e9c9 cd3c dba8 313e 76ba 2abe 7d1a 8cbd
00000020: d61b b03d 4cb6 1b3e f0b9 df3d f231 fabd
00000030: b2f5 0dbe 1024 2b3d aeca d63d c0b3 323e
00000040: 35cc dabd 6992 23be 4eca dc3b a051 b03b
00000050: 04b8 e13d 4f02 213e 37b0 313e 3b3e 333e
00000060: be78 1bbe 4d7c 5e3d fc19 bd3d ece1 29bd
00000070: 8952 babd 80da e43b ce52 10be 28b1 bbbc
00000080: a668 c5bd d40f 853d ef61 e4bc ca83 213e
00000090: 90ce cc3d 3d4f cabd c8c5 0c3d fbb7 003e
000000a0: 4f87 2fbe f59f 11be 3e96 05bc 8f93 60bd
000000b0: 665f febd 6ac3 a13d 14f9 0c3d 1756 1fbe
000000c0: 2ceb c23d 4718 18be 5343 123e 7a65 fc3d
000000d0: 96f7 023e f1e7 0dbe 9092 8c3c a3e2 07be
000000e0: 3756 83bc ec32 a33d dadb 1e3e 0d84 eebd
000000f0: 41b3 623d 950e 103e 391d 793d b594 c7bd
00000100: 78e0 f5bc 544a 68bd fa34 963d b8ef 9cbd
00000110: 3c4c e1bd 96c1 b13d 905a 51bc 3b3f ccbd
00000120: 300d fdbc 2c91 113d d00d 4ebc 428e 24be
00000130: 2d63 86bd 18da 14bd f8c5 19be 6ab3 c2bd
00000140: 785e 63bd c67f b23d 5b75 89bd 1c32 1abd
00000150: f55e cbbd 5cf5 88bd aeec b23d ca1f d03d
00000160: 6002 253c 9f10 2b3e 228c 1bbe 82ec 15be
00000170: 03e8 1a3e fdc9 273e 6ed4 05be 423c ffbd
00000180: c8d5 21be 9d19 5fbd 0cb9 9cbd 3f85 08bd
00000190: 028f 4bbc d8d9 87bd 0083 f4ba 0aeb fc3d
000001a0: 2a17 863d a67e 1a3e 27f0 f7bc bfbf 49bd
000001b0: e41e 073e be5c e23d e22d 8dbd e189 1ebe
000001c0: 955a 0a3d acb4 b43d 228e cfbc ada7 0d3e
000001d0: ba76 2f3e 5b80 85bd 8e99 c03d a36d 1d3e
000001e0: cd40 503d 6c18 fd3d 66ef 313e 32c3 b13d
000001f0: 4c41 8c3d 0036 1d3a f70d d3bd 1625 bf3d
00000200: 5773 113d f63a 2d3e 1ea9 1c3e 84d6 a8bd
00000210: db12 703d 98fa ddbc 007e 563b da08 cb3d
00000220: aca9 0cbd 109e a1bd 7433 99bd 24a5 ce3d
00000230: a0ca 82bc 407f e83c 5538 c0bd 124e 31bc
00000240: f3cf bebd 3324 aa3d 6a1f ec3d 7cf7 0fbd
00000250: cbbb 05be 63b5 793d 88c4 103d e000 23bc
00000260: e4a5 e3bd b3a1 49bc 5943 1bbd 5a72 813d
00000270: 385c d7bd 5ad4 a23d e453 f6bd b670 88bd
00000280: 5869 933d c8cf d13d eace 3f3b 0413 923d
00000290: 2fd3 41bd 8b40 1f3e 602d c4bc 737b bfbd
000002a0: 007e 913a 0d47 4cbc dd82 ff3d d25e 5fbc
000002b0: 263f bebd 6829 453d 2e0c b8bd 382b 9c3d
000002c0: 429d 74bc a766 c93b 3aa1 0cbe 2e9d ad3d
000002d0: b290 33be ddf3 bdbd 0b83 123e 549a e5bd
000002e0: e951 133d 02b1 0d3d cdc3 233e e68e e53d
000002f0: ab6b 69bd 0659 943d 688a 9bbd b567 d8bd
00000300: a39c 033d 9755 0ebd cd67 08be 5da3 3d3d
00000310: 4e38 b4bd 1083 e8bc 202b 2b3c e8e2 613d
00000320: 101a 433d 346e 2c3e 0aed e7bd bfc6 3ebd
00000330: 3f4a 223e 726f 893d 488c 1a3d fcd3 213e
00000340: 5613 23be 10e7 3ebb fcae 33be 7100 073e
00000350: 3ee7 11be a7ee 95bc e078 30bc 6016 043c
00000360: 621e 2b3e b5f6 1b3e 3126 2abe f409 2f3d
00000370: b398 4ebd 39f4 063e 0271 30be 60c7 30be
00000380: 047c fabd 9aed b5bd 841e 983d 0e69 2f3e
00000390: 08f3 b23d 549b 553d 8e48 5dbd 8d41 253e
000003a0: e58e 95bd bd72 22be 4a8e 293e b569 3dbd
000003b0: 8cb3 b6bd a623 9f3d 8086 35bd fb56 94bd
000003c0: a110 c1bc c62c b0bd ee43 5abd f08d 90bc
000003d0: c888 9e3d 2e0c 93bd c26b a4bd 0f56 1d3e
000003e0: 9b0f 073d 8ef3 44bc ace8 073e ea71 f43d
000003f0: 18cd 153e d494 123d 90bc cb3d ccd2 1a3d
0.014509963 -0.14521754 0.02670388 0.09901133 0.025120692 0.1734957 -0.16672692 -0.0684099
0.08599059 0.1520626 0.10924137 -0.122165576 -0.13863257 0.04178244 0.10487877 0.17451382
-0.10683481 -0.1597382 0.006737984 0.005380824 0.11021426 0.15723537 0.17352377 0.17504208
-0.15182778 0.05431776 0.09233472 -0.04147522 -0.090977736 0.006984055 -0.14094087 -0.022911623
-0.09639101 0.064971596 -0.02787873 0.1577293 0.10000336 -0.09878395 0.034368306 0.12570183
-0.1714146 -0.14221175 -0.008153496 -0.054828223 -0.124205396 0.078986004 0.034417227 -0.15560184
0.09517512 -0.14853011 0.14283495 0.123240426 0.12789759 -0.1385801 0.01715973 -0.13270049
-0.016032321 0.07968697 0.15513554 -0.116462804 0.05534673 0.14068063 0.060818885 -0.097451605
-0.030014262 -0.05671151 0.07334323 -0.0766291 -0.11000869 0.08679502 -0.012777939 -0.09972998
-0.030890077 0.035538837 -0.012576535 -0.16069892 -0.06561885 -0.036340803 -0.15016925 -0.09506877
-0.055510014 0.08715777 -0.06711837 -0.037645444 -0.09930221 -0.066874236 0.08736549 0.10162313
0.010071367 0.16705559 -0.15190175 -0.14641002 0.15127568 0.16385646 -0.13069317 -0.12462665
-0.15804207 -0.054467786 -0.076524824 -0.0333302 -0.012424232 -0.06633347 -0.0018654764 0.12349518
0.06547387 0.15087375 -0.03026588 -0.04925513 0.13195378 0.110528454 -0.06893517 -0.15482284
0.033777792 0.08823523 -0.025336329 0.13833494 0.17135134 -0.065186225 0.09404288 0.15373854
0.05084305 0.12358174 0.1737648 0.08679809 0.06848392 0.00059971213 -0.10305398 0.093332455
0.035510387 0.16917023 0.15298888 -0.082440406 0.058611732 -0.027097031 0.003272891 0.09913798
-0.0343415 -0.07891476 -0.07480517 0.10090092 -0.01596576 0.02838099 -0.093857445 -0.010821836
-0.09317007 0.08307686 0.11529429 -0.03514813 -0.13059919 0.060964 0.035343677 -0.009948939
-0.111156255 -0.0123066185 -0.037906025 0.06320639 -0.10515636 0.07950659 -0.120277196 -0.06662123
0.07197827 0.10244709 0.0029267618 0.07132533 -0.04732054 0.15551965 -0.023947418 -0.09349718
0.0011100173 -0.012468112 0.12476132 -0.013633447 -0.09289388 0.04813519 -0.08986698 0.07625431
-0.014930071 0.0061462703 -0.13733378 0.08477245 -0.17535666 -0.09275029 0.14307801 -0.112110764
0.035966787 0.034592636 0.15992661 0.11208896 -0.056987446 0.072435424 -0.07594758 -0.105666555
0.032131802 -0.034749594 -0.13320847 0.046298373 -0.08799802 -0.028382808 0.0104472935 0.055148035
0.047632277 0.16838914 -0.113245085 -0.046576258 0.15848635 0.0671071 0.03773144 0.15803522
-0.15925345 -0.0029129423 -0.1754722 0.13183762 -0.14248368 -0.018302275 -0.010771006 0.008061975
0.16710809 0.1523083 -0.16616131 0.0427341 -0.050438594 0.13179101 -0.17230609 -0.17263556
-0.12230685 -0.088832095 0.074276954 0.17129919 0.08737761 0.052150086 -0.05402427 0.16138287
-0.073026456 -0.15864082 0.16558185 -0.04624339 -0.089209646 0.07770471 -0.044317722 -0.07243153
-0.0235675 -0.0860229 -0.05328744 -0.017645806 0.07740933 -0.071800575 -0.08028366 0.1536486
0.032973867 -0.012020959 0.13272351 0.1193579 0.14629018 0.035786465 0.09948075 0.037798688

actor.lin4.bias f4 [32]
00000000: d107 54bd 6bf6 21be 8a26 ad3d 10bb e83d
00000010: fe86 133e 42e2 2fbc c96f 7d3d c432 983d
00000020: 9233 00be d116 05bd ec34 0b3e 7cd0 183d
00000030: a341 16be 51dd 2bbe 08ff 40bb 0944 943c
00000040: 0099 0ebe 8082 19bd 65d6 09bd da4e fbbd
00000050: 903c c03d a13c 09be aec1 ccbd b56e 0b3d
00000060: 94c3 423d 38a2 d63d 27d3 213d 2681 0e3e
00000070: 9f56 95bd 81bf af3c 9073 ffbd 6185 c83c
-0.051765267 -0.15816657 0.08454616 0.11363804 0.14406964 -0.010735096 0.061874185 0.07431558
-0.12519673 -0.032492463 0.13594407 0.0373082 -0.14673476 -0.16783644 -0.0029448885 0.018098848
-0.13925552 -0.03747797 -0.03365173 -0.12270899 0.093865514 -0.13402034 -0.09997879 0.034041125
0.0475498 0.104801595 0.03950801 0.13916454 -0.07291912 0.02145362 -0.12473214 0.024477663

actor.bilin.weight f4 [16, 32, 32]
00000000: aea3 5f3c db73 4b3d 1233 b6bd 0687 bfbd
00000010: f3a1 443d 8935 d5bc 97a2 df3d 7107 3dbd
00000020: 20b7 023c 386b a1bd c8d2 b93d da55 acbd
00000030: bf56 d33c 77d6 0bbe c9a1 04bd 2896 a9bc
00000040: 989b f63d 25d7 babd cf99 e03c f43a 6cbd
00000050: 64a8 c93d 486b 6d3d c3f3 05be e260 45bc
00000060: a00d a83b 4494 bcbb b4d4 b33d b20e aabd
00000070: fc86 adbd efc2 073d 6446 e9bd 48a2 22be
00000080: 24c6 b33d b499 06be 9dd5 25be 0456 ad3d
00000090: 5eec 473d 7895 8dbc c87f 92bc 478f 7e3d
000000a0: 7caf f4bd d5a6 03be d1a8 df3c 56f6 96bd
000000b0: 2cc1 fb3d 34b3 2cbe c3c3 493d c439 0bbd
000000c0: d3ed 263d 3708 cdbd cfd3 233d ce24 843d
000000d0: 512a 4fbd 38b7 26be 5cc1 f03d 021d eebd
000000e0: da0a a33d a37d 7ebd 3bab 14be dc3e 2b3e
000000f0: ecc7 0e3e ed64 adbd a517 debd ba08 f23d
00000100: 68e3 de3c ef01 263e 92c7 dd3d ca11 f23d
00000110: d6f6 9c3d b44a 1dbd 5336 083e 4e1f ae3d
00000120: 0efd d23d 292e 153e 37a7 cfbd 09dd 183e
00000130: 808a 50bd 364e a53d 60cd d8bb 8671 66bd
00000140: a443 20be 4885 b23c 400f 0bbe b13e e3bd
00000150: 9855 2abd c285 9d3d d02f 2e3c 10aa b73c
00000160: 53c1 a9bd 4838 133d eb62 13be 68cf da3c
00000170: ec6e 943d 3b8b 1e3e 74e0 503d d7a1 1b3e
00000180: f480 df3d 25c2 38bd e037 553c a411 bbbb
00000190: 07a6 dc3c 9cf4 f43d 6a4e b4bd 6ea0 723c
000001a0: dcd9 b8bd dbfe 5c3d 3a46 90bd 10c2 24bd
000001b0: 5050 c7bd 6116 3fbd b35e 293d 9781 d43d
000001c0: 0349 30be 091a 1b3e 857f cebd 660a 17be
000001d0: 966a c9bd 77ae 2d3e 0446 2c3e 2463 043e
000001e0: 9bd9 173e e029 07be e23a 54bc 0966 8ebc
000001f0: bc33 dd3d 1b9f 123d 3c74 10be 1508 21be
00000200: cbd5 87bc fc9a 91bc f506 a5bd e8f9 0fbe
00000210: 37e4 ddbd 489b 2a3e 4d11 38bd ba7c 103e
00000220: da5a 9b3d 1756 e13c 022e 033e b8e4 75bd
00000230: e8da d4bd d02c d53c f0df 27be f12e 0fbd
00000240: 390b 183e 6c22 243d 87dc fdbd 94d9 483d
00000250: 7c76 293e 1031 07be 8211 5c3c b20f 1c3e
00000260: 201e adbd 3aaa b2bd dd4b 0d3c e889 033e
00000270: 73dc 153d 6060 343e 1e7d 2cbe d88e 2a3e
00000280: 02f6 2e3e bf13 083e 9fc7 183e 767a edbd
00000290: b536 81bd e689 95bb 3ea4 a13c 64dd 283e
000002a0: 2739 273e 7ad2 2dbe f49a 233e f92d 163e
000002b0: e406 aa3d b754 c6bd 601d 033e 38d2 adbd
000002c0: f393 d4bd e1cd 2b3e ebcd 06be 602b f2bd
000002d0: 7c4a fb3d fabe 1bbe 48a0 ba3d f6c1 fdbd
000002e0: 542d 693d b6bc 143b 4560 3abd 82e9 043e
000002f0: 5f78 0dbe e7de 65bd dac4 b7ba 01fc 17bd
00000300: b504 bcbd 7016 1b3d 26b4 ad3d 00cc 26be
00000310: 8d07 043c 422a c1bc 169a b13b 347d bf3d
00000320: 6aab b53d 238c 1d3d 928d 23be 2543 00be
00000330: c67a 66bc 1edd 303e 264e cebb fd42 973d
00000340: f695 bb3b 342a 2d3d 296d 84ba 0048 7cbb
00000350: d608 87bd a539 253e e76e 833d ac76 b73d
00000360: d5d0 95bd 181a ca3d 6c02 f73d c824 d73d
00000370: ede8 3ebd 1294 8e3d b2d3 40bd d068 863d
00000380: 5c1f a63b 9674 f5bd 9a0a cf3d 8581 33be
00000390: 29a5 12be 1315 683d bfcc 26be 3adb 1c3e
000003a0: 3826 323d 4ab8 063e 835b 33be 9a6c ab3d
000003b0: 2802 90bd dc41 cd3d f2b8 71bc 9425 30be
000003c0: 2637 8d3d abf1 1abe 42cc 0c3e 8acb e5bd
000003d0: c46f 293e 4bbc 223e 4e49 ffbd ec3a 043e
000003e0: c088 e83c dcce d23d b413 0dbe 8169 69bd
000003f0: 3989 93bd acad aa3d 5a67 e0bd 3526 e0bd
0.013649864 0.049671035 -0.0889646 -0.093519256 0.04800601 -0.026026504 0.109196834 -0.046149675
0.007978231 -0.078817785 0.090734065 -0.084148124 0.0257982 -0.1365603 -0.032380853 -0.020701483
0.12041396 -0.09123067 0.027417092 -0.05767341 0.09846571 0.05796364 -0.13081269 -0.012047024
0.0051285774 -0.0057549793 0.08780804 -0.08303584 -0.08473012 0.033144888 -0.11390379 -0.15882218
0.08778027 -0.1314457 -0.16194768 0.08463672 0.0488094 -0.017283186 -0.017883196 0.06214836
-0.119475335 -0.1285661 0.027302178 -0.073712036 0.12292704 -0.16865236 0.04925896 -0.033990636
0.04075415 -0.100113325 0.03999692 0.064523324 -0.050577465 -0.1628083 0.117556304 -0.116266266
0.07961054 -0.062131535 -0.14518444 0.16723198 0.13943452 -0.08466516 -0.108443536 0.11818071
0.027208045 0.16211675 0.10829081 0.11819799 0.07664268 -0.03840132 0.13301973 0.08502065
0.103021726 0.1456839 -0.101393156 0.14928068 -0.050913334 0.08071558 -0.0066162795 -0.056260608
-0.15650803 0.02179207 -0.13580036 -0.11095942 -0.041585535 0.07691528 0.010631517 0.02241996
-0.08288827 0.035942346 -0.14393203 0.026710227 0.07247719 0.154828 0.050995305 0.15198456
0.10913268 -0.045107026 0.01301381 -0.00570889 0.026934637 0.11960718 -0.08804019 0.014808757
-0.090259284 0.053953987 -0.07044645 -0.040224135 -0.09732115 -0.0466522 0.041350078 0.1037628
-0.17215352 0.1514665 -0.10082916 -0.1475006 -0.09834783 0.16961084 0.16823584 0.12928444
0.14829104 -0.13199568 -0.012953492 -0.017382639 0.10800883 0.035796266 -0.1410684 -0.1572574
-0.016581437 -0.017774098 -0.080579676 -0.14060175 -0.10834544 0.16660798 -0.044938374 0.1411008
0.07585688 0.027506871 0.1281052 -0.060032576 -0.103933156 0.026022345 -0.16394019 -0.034956876
0.14848031 0.04007189 -0.12395578 0.049035624 0.16549104 -0.1320231 0.013431909 0.15240362
-0.084530115 -0.087238744 0.008624044 0.12845576 0.03658719 0.17614889 -0.16844603 0.16656053
0.17086032 0.13288783 0.149199 -0.11595623 -0.06309263 -0.004563558 0.019731637 0.16490704
0.16330396 -0.16974822 0.15977079 0.14665975 0.083020955 -0.09684127 0.12804174 -0.08487362
-0.103797816 0.16777755 -0.13164489 -0.118246794 0.12270066 -0.1520957 0.091126025 -0.12390511
0.056927994 0.0022695488 -0.045501966 0.12979701 -0.13815449 -0.05612078 -0.0014020458 -0.037105564
-0.09180585 0.037863195 0.08481626 -0.16288757 0.008058441 -0.02357972 0.00541998 0.093500525
0.08870585 0.038463723 -0.15971974 -0.12525614 -0.014067357 0.1727185 -0.006295937 0.07385824
0.005724664 0.042276576 -0.0010103333 -0.0038495064 -0.06593482 0.16135271 0.06417637 0.08958182
-0.07315222 0.09868258 0.12061009 0.10505062 -0.046608854 0.06961836 -0.04707689 0.0656296
0.0050696563 -0.11985128 0.10109444 -0.17529877 -0.14320816 0.056660723 -0.16289042 0.15318003
0.04349348 0.13156238 -0.17515378 0.083703235 -0.07031661 0.10022327 -0.014753567 -0.17201835
0.06895284 -0.15131252 0.13749793 -0.112204626 0.16546541 0.1589214 -0.12465154 0.12913102
0.02838552 0.102933615 -0.13777047 -0.056985382 -0.072039075 0.083339065 -0.10957213 -0.109447874

actor.bilin.bias f4 [16]
00000000: 70a0 983d a18a bbbc d8a3 00be c67e e0bd
00000010: 2549 1bbd fd64 5ebd 9cea 0d3e d0d0 e53d
00000020: 09a8 a9bd 9931 d0bc 3b51 32be 2619 253e
00000030: 8f01 b13c 377b 31be fe67 203e c8a1 213e
0.07452476 -0.022893252 -0.12562501 -0.1096168 -0.037911553 -0.05429553 0.13859028 0.112214684
-0.08284003 -0.025414275 -0.174138 0.16122875 0.021607189 -0.17332159 0.1566467 0.15784371

critic.conv1.bias f4 [21]
00000000: 6e12 83ba 0000 0000 0000 0000 6e12 833a
00000010: 6d12 833a 6e12 833a 6e12 83ba 6e12 833a
00000020: 6e12 83ba 6e12 83ba 0000 0000 0000 0000
00000030: 6d12 83ba 6e12 833a 6d12 833a 6e12 83ba
00000040: 6d12 833a 6e12 833a 0000 0000 0000 0000
00000050: 0000 0000
-0.0009999999 0.0 0.0 0.0009999999 0.0009999998 0.0009999999 -0.0009999999 0.0009999999
-0.0009999999 -0.0009999999 0.0 0.0 -0.0009999998 0.0009999999 0.0009999998 -0.0009999999
0.0009999998 0.0009999999 0.0 0.0 0.0

critic.conv1.lin.weight f4 [21, 21]
00000000: 9a9c 8d3d f314 08bd fdff 113e 71a5 2b3e
00000010: 762a 1abe 8643 aebe b015 28be ee59 a2bd
00000020: 493c 053e 8790 eebc d57d 943e 5091 bebe
00000030: a9f0 f33c 2e50 803d 752a 763e aa33 943d
00000040: 11ae b73e a69c 85bd ecb9 b8be 5994 c93c
00000050: 03b7 9c3e 829f 0a3e c653 473e 2e51 a7be
00000060: 7810 74be 1253 673e 1074 99be 50a1 03bd
00000070: 8328 afbe 92ba 0d3e 4c12 70be b874 193d
00000080: feae 043e 84c0 8dbe 715e b0be 9c87 64be
00000090: 5e5a 4e3e 6e2e 45be 1248 703e a8c8 a63d
000000a0: 1149 61be 4828 59bd 26e1 5f3e 00b1 6ebb
000000b0: 9ebc 91be f0f5 bdbe 246b bc3d 3749 ab3e
000000c0: 417f 47be 54ab 90be 89b3 a4be 2020 0bbd
000000d0: b600 85be cefb adbe 460b 2c3e 2bbd 20be
000000e0: 8f31 0bbe 38b9 783d a3f5 a83e 3eee 0c3e
000000f0: adfb 48be 02da 5d3e e2df 25be ae3b a1bd
00000100: d7ea 333e 3948 48be 4f00 b43e f30e 7c3e
00000110: d493 20be abbc 983e fa24 99bd b649 a23d
00000120: 7dd9 9bbe 9736 bf3c f7bb acbe 52a3 09bc
00000130: bb85 1f3e 55b7 913e 373f 66be 4337 4a3e
00000140: e7ff 5fbe 1acd 86bd 7ad9 94bd e7cc cc3c
00000150: 99b0 413e b5e4 76be dd8f 92be 0ee0 bebd
00000160: 52c2 5f3c f589 3ebe b7fc a63e 99a2 3f3e
00000170: 8588 173e 17d0 a9be 4637 f6bd 1f32 4a3e
00000180: 1c9c cd3b ef28 543e 619c 8a3e 8006 8abe
00000190: c94c 79be 3987 a33e 8787 823e 67cc 313e
000001a0: c379 583d 45e5 083d 99bb a9be 7ee0 59be
000001b0: 79b5 bd3e 0f70 ba3e b6a2 96bd a035 2cbe
000001c0: 119c 773e 4f8a 9cbe da21 dbbd b19b 193e
000001d0: 5d8e c13e d12c 803e 72fa 31be 62b9 9f3d
000001e0: 3f62 563e 0e35 8fbd cc40 7ebe 9fb0 4f3e
000001f0: 42a5 c13d 3350 b6be dd36 523d e668 28be
00000200: 4514 2dbe afb5 b13e 7c80 1bbe f505 4fbe
00000210: 9a5f 8e3d ad63 26be 35ba 293e 6bb8 2ebd
00000220: 78c5 74be dbb0 6cbe 0fb4 a03e 656e ac3b
00000230: 6b4e a93e 77f9 d5bc 2da9 8a3e fe1d d6bd
00000240: 539a be3e 49a7 bd3c 9940 d93c 5293 18bc
00000250: 95b5 0dbd f99d ddbc d358 a23e 6cc8 84be
00000260: 81aa aebe 6f28 8cbe 4e95 fd3d ae86 b6be
00000270: 1ef5 bbbd 7ffb 7ebe d110 ad3e b0a0 12be
00000280: 9392 0b3e e5c4 6abe 6b59 373e 692d 84bc
00000290: eded 46bd 67c9 7d3e 7c3d 06be edba 56be
000002a0: f720 dbbc 1127 763e cbea 29bd 18de b5be
000002b0: 03b6 7cbd ce8e a6be 89b9 3a3e 0e53 97be
000002c0: 4ffb ac3e b99d 913e 04fe bbbe 7507 083e
000002d0: 0b25 61be 1d85 853e 7525 9e3e 9591 5f3d
000002e0: 7512 abbe 122b d33d 05a4 0d3d 6a73 8abd
000002f0: 5e55 e2bd baab 8cbd bfd7 ac3e 12d5 143c
00000300: 708c 92be da3e febd 2284 1fbe 5173 92be
00000310: 00bf 06be cdc4 0dbe a281 b4bd 40f7 2ebe
00000320: 710e 95be ba55 913d b1d8 813e 396d 683e
00000330: e7c4 81bc 05a2 543d 12a1 ad3d e237 f0bd
00000340: 1d9f b43e ba5e c1be ca78 093e e654 173e
00000350: 4f26 74be ac4e 9e3d 6e26 103e 3b46 5fbe
00000360: 013e babe 6044 83bd 08cd 2cbe 5596 97be
00000370: 1b55 bcbe 020a a9be 45f7 a63e fa45 b9be
00000380: 8f08 1dbe f15b be3e f041 8dbd 089d 9f3d
00000390: 9c0a 94be 385e 743d ea39 213e f257 163e
000003a0: d336 b53e 20b6 c53d 927b 183e 0f09 4abe
000003b0: 58f4 9bbd b3fe 11be 6644 2d3e 5ac3 0f3e
000003c0: 40fe 8bbe f6b7 29be c4ad dbbd b68c 4d3e
000003d0: a994 54be 0f09 a4be 2277 aabe ea8a 3abe
000003e0: 5042 a83c 779c b33e 2898 653d 8624 b6be
000003f0: 8a2c 75be 3f2d 2c3e ffcc 8f3e f12a 0ebe
0.06914635 -0.033223104 0.14257808 0.1676233 -0.1505526 -0.3403589 -0.16414523 -0.07927309
0.13011278 -0.02912165 0.29002252 -0.3722024 0.029777842 0.06265293 0.24039634 0.07236417
0.3587499 -0.06524019 -0.36079347 0.02460687 0.30608377 0.1353741 0.19465551 -0.32679123
-0.23834407 0.22590283 -0.2997136 -0.03213626 -0.34210595 0.13840702 -0.2344448 0.037464827
0.12957379 -0.2768594 -0.34447053 -0.22317356 0.2015166 -0.19255993 0.23464993 0.08143741
-0.22000529 -0.05301693 0.21863231 -0.0036421418 -0.28464216 -0.37101698 0.09200123 0.33454296
-0.19482137 -0.28255713 -0.32168224 -0.033966184 -0.25977105 -0.33981174 0.16801175 -0.15697162
-0.13593124 0.060723513 0.32999906 0.13762757 -0.19627257 0.21665195 -0.16198686 -0.07872711
0.17570053 -0.19558801 0.35156485 0.24615078 -0.15681392 0.29831442 -0.07477756 0.079242155
-0.30439368 0.02334146 -0.33737156 -0.008400755 0.15578358 0.28460184 -0.22485052 0.19747643
-0.21874963 -0.06582089 -0.07268043 0.025000049 0.18915023 -0.24110682 -0.28625384 -0.09320079
0.013657169 -0.18607314 0.3261468 0.1871437 0.14798172 -0.33166572 -0.12022261 0.19745682
0.006274713 0.2071874 0.27072433 -0.26958084 -0.24345697 0.31939104 0.25494024 0.1736313
0.052850496 0.033421773 -0.33150938 -0.21277043 0.37052515 0.3641362 -0.073552534 -0.16817331
0.24180628 -0.3057427 -0.10699816 0.15000798 0.37803927 0.25034192 -0.17380694 0.07799031
0.20935915 -0.06992541 -0.24829406 0.2028222 0.094553486 -0.35608062 0.051321853 -0.16446266
-0.16902263 0.34708926 -0.15185732 -0.20217116 0.06951828 -0.16248961 0.16574939 -0.042656343
-0.23903453 -0.2311434 0.31387374 0.0052621835 0.3306764 -0.02611993 0.27082196 -0.10454939
0.37227115 0.023151057 0.02652006 -0.009312468 -0.034597 -0.027052866 0.31708393 -0.2593416
-0.3411446 -0.27374598 0.12381993 -0.35649627 -0.09177612 -0.24900626 0.33801892 -0.1431911
0.13630132 -0.22926672 0.17905204 -0.016134934 -0.048566747 0.2478386 -0.13109392 -0.20969744
-0.026749117 0.2403834 -0.04148368 -0.35521007 -0.061697017 -0.32530826 0.18234839 -0.29555553
0.33785483 0.28440645 -0.36717236 0.13284095 -0.21986787 0.2607812 0.30887952 0.054582197
-0.3341252 0.103109494 0.03458025 -0.06760295 -0.11051439 -0.06868692 0.3375835 0.009084003
-0.2862277 -0.12414332 -0.15577748 -0.28603604 -0.13158798 -0.13844605 -0.08813788 -0.17086506
-0.2911258 0.07096429 0.25360635 0.22697915 -0.01584096 0.051912326 0.08477987 -0.11729409
0.35277644 -0.37767583 0.13424984 0.1477848 -0.23842739 0.07729849 0.1407716 -0.21804135
-0.3637543 -0.06409526 -0.16875088 -0.29606882 -0.3678368 -0.33015448 0.32610527 -0.361862
-0.15335296 0.3717952 -0.06897342 0.07793623 -0.28914344 0.059660167 0.15744749 0.14681986
0.3539339 0.09653878 0.14890888 -0.19730018 -0.07614964 -0.14257316 0.16920623 0.14039364
-0.27342415 -0.16574082 -0.107265025 0.20073208 -0.20759834 -0.3203816 -0.33294016 -0.18217054
0.020539433 0.3508031 0.05605331 -0.3557474 -0.23942772 0.16814135 0.28086087 -0.13883568
