saved_files/ckpt/nyc4/a2c_gnn_test_vdvp.pth (torch, 286706 bytes, 55 tensors)

log_rate f4 [16, 16]
0	0x41a00000	20.0
1	0x41a00000	20.0
2	0x41a00000	20.0
3	0x41a00000	20.0
4	0x41a00000	20.0
5	0x41a00000	20.0
6	0x41a00000	20.0
7	0x41a00000	20.0
8	0x41a00000	20.0
9	0x41a00000	20.0
10	0x41a00000	20.0
11	0x41a00000	20.0
12	0x41a00000	20.0
13	0x41a00000	20.0
14	0x41a00000	20.0
15	0x41a00000	20.0
16	0x41a00000	20.0
17	0x41a00000	20.0
18	0x41a00000	20.0
19	0x41a00000	20.0
20	0x41a00000	20.0
21	0x41a00000	20.0
22	0x41a00000	20.0
23	0x41a00000	20.0
24	0x41a00000	20.0
25	0x41a00000	20.0
26	0x41a00000	20.0
27	0x41a00000	20.0
28	0x41a00000	20.0
29	0x41a00000	20.0
30	0x41a00000	20.0
31	0x41a00000	20.0
32	0x41a00000	20.0
33	0x41a00000	20.0
34	0x41a00000	20.0
35	0x41a00000	20.0
36	0x41a00000	20.0
37	0x41a00000	20.0
38	0x41a00000	20.0
39	0x41a00000	20.0
40	0x41a00000	20.0
41	0x41a00000	20.0
42	0x41a00000	20.0
43	0x41a00000	20.0
44	0x41a00000	20.0
45	0x41a00000	20.0
46	0x41a00000	20.0
47	0x41a00000	20.0
48	0x41a00000	20.0
49	0x41a00000	20.0
50	0x41a00000	20.0
51	0x41a00000	20.0
52	0x41a00000	20.0
53	0x41a00000	20.0
54	0x41a00000	20.0
55	0x41a00000	20.0
56	0x41a00000	20.0
57	0x41a00000	20.0
58	0x41a00000	20.0
59	0x41a00000	20.0
60	0x41a00000	20.0
61	0x41a00000	20.0
62	0x41a00000	20.0
63	0x41a00000	20.0
64	0x41a00000	20.0
65	0x41a00000	20.0
66	0x41a00000	20.0
67	0x41a00000	20.0
68	0x41a00000	20.0
69	0x41a00000	20.0
70	0x41a00000	20.0
71	0x41a00000	20.0
72	0x41a00000	20.0
73	0x41a00000	20.0
74	0x41a00000	20.0
75	0x41a00000	20.0
76	0x41a00000	20.0
77	0x41a00000	20.0
78	0x41a00000	20.0
79	0x41a00000	20.0
80	0x41a00000	20.0
81	0x41a00000	20.0
82	0x41a00000	20.0
83	0x41a00000	20.0
84	0x41a00000	20.0
85	0x41a00000	20.0
86	0x41a00000	20.0
87	0x41a00000	20.0
88	0x41a00000	20.0
89	0x41a00000	20.0
90	0x41a00000	20.0
91	0x41a00000	20.0
92	0x41a00000	20.0
93	0x41a00000	20.0
94	0x41a00000	20.0
95	0x41a00000	20.0
96	0x41a00000	20.0
97	0x41a00000	20.0
98	0x41a00000	20.0
99	0x41a00000	20.0
100	0x41a00000	20.0
101	0x41a00000	20.0
102	0x41a00000	20.0
103	0x41a00000	20.0
104	0x41a00000	20.0
105	0x41a00000	20.0
106	0x41a00000	20.0
107	0x41a00000	20.0
108	0x41a00000	20.0
109	0x41a00000	20.0
110	0x41a00000	20.0
111	0x41a00000	20.0
112	0x41a00000	20.0
113	0x41a00000	20.0
114	0x41a00000	20.0
115	0x41a00000	20.0
116	0x41a00000	20.0
117	0x41a00000	20.0
118	0x41a00000	20.0
119	0x41a00000	20.0
120	0x41a00000	20.0
121	0x41a00000	20.0
122	0x41a00000	20.0
123	0x41a00000	20.0
124	0x41a00000	20.0
125	0x41a00000	20.0
126	0x41a00000	20.0
127	0x41a00000	20.0
128	0x41a00000	20.0
129	0x41a00000	20.0
130	0x41a00000	20.0
131	0x41a00000	20.0
132	0x41a00000	20.0
133	0x41a00000	20.0
134	0x41a00000	20.0
135	0x41a00000	20.0
136	0x41a00000	20.0
137	0x41a00000	20.0
138	0x41a00000	20.0
139	0x41a00000	20.0
140	0x41a00000	20.0
141	0x41a00000	20.0
142	0x41a00000	20.0
143	0x41a00000	20.0
144	0x41a00000	20.0
145	0x41a00000	20.0
146	0x41a00000	20.0
147	0x41a00000	20.0
148	0x41a00000	20.0
149	0x41a00000	20.0
150	0x41a00000	20.0
151	0x41a00000	20.0
152	0x41a00000	20.0
153	0x41a00000	20.0
154	0x41a00000	20.0
155	0x41a00000	20.0
156	0x41a00000	20.0
157	0x41a00000	20.0
158	0x41a00000	20.0
159	0x41a00000	20.0
160	0x41a00000	20.0
161	0x41a00000	20.0
162	0x41a00000	20.0
163	0x41a00000	20.0
164	0x41a00000	20.0
165	0x41a00000	20.0
166	0x41a00000	20.0
167	0x41a00000	20.0
168	0x41a00000	20.0
169	0x41a00000	20.0
170	0x41a00000	20.0
171	0x41a00000	20.0
172	0x41a00000	20.0
173	0x41a00000	20.0
174	0x41a00000	20.0
175	0x41a00000	20.0
176	0x41a00000	20.0
177	0x41a00000	20.0
178	0x41a00000	20.0
179	0x41a00000	20.0
180	0x41a00000	20.0
181	0x41a00000	20.0
182	0x41a00000	20.0
183	0x41a00000	20.0
184	0x41a00000	20.0
185	0x41a00000	20.0
186	0x41a00000	20.0
187	0x41a00000	20.0
188	0x41a00000	20.0
189	0x41a00000	20.0
190	0x41a00000	20.0
191	0x41a00000	20.0
192	0x41a00000	20.0
193	0x41a00000	20.0
194	0x41a00000	20.0
195	0x41a00000	20.0
196	0x41a00000	20.0
197	0x41a00000	20.0
198	0x41a00000	20.0
199	0x41a00000	20.0
200	0x41a00000	20.0
201	0x41a00000	20.0
202	0x41a00000	20.0
203	0x41a00000	20.0
204	0x41a00000	20.0
205	0x41a00000	20.0
206	0x41a00000	20.0
207	0x41a00000	20.0
208	0x41a00000	20.0
209	0x41a00000	20.0
210	0x41a00000	20.0
211	0x41a00000	20.0
212	0x41a00000	20.0
213	0x41a00000	20.0
214	0x41a00000	20.0
215	0x41a00000	20.0
216	0x41a00000	20.0
217	0x41a00000	20.0
218	0x41a00000	20.0
219	0x41a00000	20.0
220	0x41a00000	20.0
221	0x41a00000	20.0
222	0x41a00000	20.0
223	0x41a00000	20.0
224	0x41a00000	20.0
225	0x41a00000	20.0
226	0x41a00000	20.0
227	0x41a00000	20.0
228	0x41a00000	20.0
229	0x41a00000	20.0
230	0x41a00000	20.0
231	0x41a00000	20.0
232	0x41a00000	20.0
233	0x41a00000	20.0
234	0x41a00000	20.0
235	0x41a00000	20.0
236	0x41a00000	20.0
237	0x41a00000	20.0
238	0x41a00000	20.0
239	0x41a00000	20.0
240	0x41a00000	20.0
241	0x41a00000	20.0
242	0x41a00000	20.0
243	0x41a00000	20.0
244	0x41a00000	20.0
245	0x41a00000	20.0
246	0x41a00000	20.0
247	0x41a00000	20.0
248	0x41a00000	20.0
249	0x41a00000	20.0
250	0x41a00000	20.0
251	0x41a00000	20.0
252	0x41a00000	20.0
253	0x41a00000	20.0
254	0x41a00000	20.0
255	0x41a00000	20.0

actor.conv1.bias f4 [21]
0	0xbd4201fb	-0.04736517
1	0xbd698e7a	-0.057020642
2	0xbd988678	-0.07447523
3	0xbb18de1b	-0.0023325745
4	0x3c9fc384	0.019502409
5	0xbd3b0819	-0.04566202
6	0x3d8431b8	0.064547956
7	0x3d9828c6	0.07429652
8	0x3d4bf1e3	0.049791228
9	0xbd7fabc3	-0.062419664
10	0xbdcb3d6e	-0.09923826
11	0x3cef0b8d	0.029180313
12	0x3d1b752e	0.037953548
13	0xbd01a780	-0.03165388
14	0x3cbf7ec2	0.023375873
15	0x3d792b3f	0.06083226
16	0x3d1ee015	0.03878792
17	0x3dbf391b	0.09337064
18	0x3d1aa3d7	0.037753906
19	0x3d5b599a	0.053552248
20	0xba4e9984	-0.0007881152

actor.conv1.lin.weight f4 [21, 21]
0	0x3e9347d5	0.2876574
1	0xbdf888f1	-0.121354945
2	0x3d0e1e00	0.03469658
3	0x3d871092	0.065949574
4	0x3e8e64b2	0.278112
5	0xbea900b4	-0.3300835
6	0xbec67a1c	-0.38765037
7	0x3cf30ba4	0.029668637
8	0xbe867385	-0.2626001
9	0x3d7b8da2	0.06141437
10	0xbd5f425f	-0.054506656
11	0xbdbd3810	-0.09239209
12	0xbe928904	-0.2862016
13	0xbe1bde8d	-0.15221615
14	0x3d600cd9	0.054699752
15	0xbed67e0a	-0.41893035
16	0x3dbca3ee	0.092109546
17	0x3e93de22	0.2888041
18	0x3dfb55a6	0.122721955
19	0x3d96cee6	0.073636815
20	0xbdaa4b4f	-0.08315145
21	0xbe371ec6	-0.17882833
22	0xbdf1194d	-0.11772404
23	0xbe82dbc4	-0.25558293
24	0xbbf2e686	-0.0074127344
25	0xbea1bd0d	-0.31589547
26	0xbeac5e2d	-0.336656
27	0xbe871858	-0.2638576
28	0xbb8ee715	-0.004361043
29	0x3e75203f	0.23938082
30	0x3da4f000	0.08053589
31	0x3e614c74	0.22001821
32	0x3e13a226	0.14417323
33	0xbe93b579	-0.2884939
34	0xbda8c65a	-0.082409576
35	0x3e8d9190	0.27650118
36	0xbe291c29	-0.16514648
37	0xbe2dd8c5	-0.16977222
38	0x3d756998	0.059915155
39	0xbed4b4be	-0.41544145
40	0x3e204a0d	0.15653248
41	0xbe924dfa	-0.28575116
42	0xbcc5e2be	-0.02415597
43	0x3dc9033c	0.0981507
44	0xbd87eae5	-0.066365995
45	0x3deb8fcb	0.11502036
46	0x3e4f46c4	0.20241839
47	0x3c970076	0.018432837
48	0xbeac9955	-0.33710733
49	0xbbb5492d	-0.005532405
50	0xbe60e0c3	-0.2196074
51	0x3da55bdc	0.080741614
52	0xbe8fc519	-0.2808006
53	0x3e03aaf2	0.12858179
54	0xbcb38a61	-0.02191657
55	0x3df7ebb4	0.12105504
56	0xbe8ffc96	-0.28122395
57	0xbda5290c	-0.0806447
58	0x3e86254e	0.26200336
59	0xbe3773f1	-0.17915322
60	0xbec38f3d	-0.3819522
61	0x3d8af20b	0.06784447
62	0x3e16fddb	0.14745276
63	0x3dbe4682	0.09290792
64	0x3ebd444b	0.36966166
65	0xbe82f873	-0.25580177
66	0x3e3bad74	0.18327886
67	0xbe021aa6	-0.12705478
68	0x3eb2858f	0.34867522
69	0x3e8230f8	0.25427985
70	0xbcea84fe	-0.028627869
71	0xbce963bd	-0.028489942
72	0x3e846097	0.25854942
73	0xbe8d61c4	-0.27613652
74	0xbc0da713	-0.008645791
75	0xbe22dd26	-0.15904674
76	0x3e7ab5d8	0.2448343
77	0xbe9a62e8	-0.30153584
78	0xbe91cb0c	-0.28475225
79	0xbeba3b23	-0.36373243
80	0x3d1f2c82	0.038860805
81	0xbea6c99c	-0.3257569
82	0xbdb791e8	-0.08963376
83	0xbd295185	-0.04133751
84	0x3ee252d8	0.4420383
85	0x3eb4cf88	0.35314584
86	0x3ec05d25	0.37571064
87	0x3eb378c1	0.35053065
88	0xbd43d68b	-0.047812026
89	0x3e9fd517	0.31217262
90	0x3eba2301	0.3635483
91	0x3ee601e6	0.44923323
92	0x3ef702ec	0.48244417
93	0x3e2345c5	0.15944584
94	0x3db0184c	0.08598384
95	0x3eb24985	0.34821716
96	0x3eaab5c6	0.33341807
97	0x3eb3e695	0.35136858
98	0xbea68514	-0.32523406
99	0x3ec590f8	0.38587165
100	0x3e895d20	0.2682886
101	0xbd1b3b5b	-0.037898403
102	0x3ec1c774	0.37847483
103	0x3eb9d65a	0.3629635
104	0x3e9d2247	0.30690214
105	0x3dd13974	0.102160364
106	0xbe837ab3	-0.2567955
107	0x3bbb8ea4	0.005723791
108	0xbe15bdde	-0.1462321
109	0xbd8625d8	-0.06550187
110	0x3e1105f8	0.14162433
111	0xbba2242a	-0.0049481587
112	0x3da7ba51	0.08189834
113	0xbe8d65e1	-0.2761679
114	0x3e646139	0.22302713
115	0xbe7f73a8	-0.24946463
116	0xbe3fd806	-0.1873475
117	0x3e887ae4	0.26656258
118	0x3e8675e5	0.2626182
119	0xbe93db1a	-0.288781
120	0x3dda77d9	0.106673904
121	0xbe729bfc	-0.23692316
122	0x3e873f04	0.26415265
123	0xbd993950	-0.074816346
124	0xbec95797	-0.39324638
125	0xbe875fb2	-0.26440197
126	0x3dca646d	0.09882436
127	0x3dff7ec6	0.12475352
128	0x3eb92177	0.36158344
129	0xbe2ba09b	-0.16760485
130	0x3e7a8a54	0.2446683
131	0xbcfc7b7b	-0.030820599
132	0x3f057fdd	0.5214823
133	0xbb0cb1f1	-0.0021468366
134	0x3d4a53c6	0.0493963
135	0x3f118f48	0.56859255
136	0x3e070e8b	0.13189141
137	0x3d9dacce	0.076989755
138	0x3e39242a	0.18080202
139	0x3dc79f39	0.09747166
140	0x3e44c642	0.19216254
141	0x3e8e1732	0.27752072
142	0x3df1736a	0.117895916
143	0x3efae858	0.4900539
144	0x3ebf5a28	0.3737347
145	0xbe56d110	-0.20978189
146	0xbd4e1ca0	-0.050320268
147	0xbdbb119e	-0.091342196
148	0x3eb1005a	0.3457058
149	0x3eae725b	0.3407162
150	0x3edd4a84	0.43220913
151	0x3f003f7b	0.50096864
152	0xbacc1fee	-0.0015573481
153	0x3ee998af	0.456243
154	0x3e8c48c7	0.27399275
155	0x3e154686	0.14577684
156	0x3ecd6f13	0.40123805
157	0x3db641cd	0.08899269
158	0xbe6b92ee	-0.23005268
159	0x3e5527ae	0.20815918
160	0x3e5c4c3d	0.21513458
161	0xbc752d89	-0.01496447
162	0x3ef301df	0.47462365
163	0x3ea3faff	0.32027432
164	0x3dd5d97a	0.10441871
165	0x3ce31473	0.027719712
166	0x3e96f9e8	0.29487538
167	0x3ed747d5	0.4204699
168	0x3b8ba4ba	0.0042615803
169	0x3e197215	0.14984925
170	0x3e0028d6	0.12515578
171	0x3ee0a979	0.43879297
172	0x3f0aef38	0.5427127
173	0x3e2039b9	0.1564702
174	0x3efca20e	0.49342388
175	0x3f058188	0.52150774
176	0x3ca2cd5f	0.01987332
177	0xbdb3677a	-0.08759971
178	0x3effae1d	0.49937525
179	0x3e139c9a	0.14415208
180	0xbe80ba77	-0.2514226
181	0x3ed0eb79	0.4080465
182	0x3edb4a04	0.42829907
183	0x3ecf7654	0.40519965
184	0x3e034a8a	0.12821403
185	0x3eaae9dd	0.3338155
186	0x3ebeb9d1	0.37251142
187	0xbdd6fe4a	-0.104977205
188	0x3da1b373	0.07895555
189	0x3e50bd61	0.20384742
190	0xbeaa6417	-0.33279487
191	0x3e7ee7a6	0.24893054
192	0x3e3dfe89	0.18554129
193	0x3cd6b5ec	0.026209794
194	0xbe8aac04	-0.27084363
195	0xbeb90fb5	-0.36144796
196	0x3e83fb4a	0.25777656
197	0x3e749d90	0.2388823
198	0x3d84748a	0.064675406
199	0x3e950d52	0.29111725
200	0xbe9d9f39	-0.3078554
201	0x3d844090	0.06457627
202	0xbeb9e42b	-0.3630689
203	0xba857afb	-0.0010183746
204	0xbd6e2771	-0.058143083
205	0x3e3bde23	0.18346457
206	0xbe65a828	-0.22427428
207	0xbeb8a1fa	-0.36061078
208	0x3d92915d	0.07156632
209	0xbdd3a6c7	-0.10334545
210	0xbcb0b4a4	-0.021570511
211	0xbea62511	-0.32450154
212	0x3e32f3de	0.1747584
213	0x3e6488f5	0.2231787
214	0xbe2e7e90	-0.17040467
215	0xbea0a7dd	-0.3137807
216	0x3e375a41	0.17905523
217	0xbea6123f	-0.32435796
218	0xbe4f764d	-0.20259972
219	0xbecb64dc	-0.39725387
220	0xbe8ea7b5	-0.27862325
221	0xbdfb2099	-0.12262077
222	0x3db0059a	0.085948184
223	0xbe859780	-0.26092148
224	0x3e4f9533	0.20271759
225	0xbdfd995d	-0.12382767
226	0x3d602ed1	0.054732148
227	0xbe299677	-0.16561304
228	0x3ea244d8	0.3169315
229	0xbe26b35a	-0.16279355
230	0x3dd9850e	0.10621081
231	0x3e82e8b5	0.25568166
232	0x3ddd04ec	0.107919544
233	0x3e0afef9	0.13573827
234	0xbe8e44a9	-0.2778676
235	0x3e4cb2c0	0.19990063
236	0x3ec79738	0.38982558
237	0x3d17e946	0.0370877
238	0x3e1db6d4	0.15401775
239	0xbe1691a5	-0.14703996
240	0x3e0e6566	0.13905868
241	0x3da9dff8	0.08294672
242	0xbdf99ca6	-0.121880814
243	0x3d912990	0.070880055
244	0x3c807c00	0.015684128
245	0xbec60687	-0.38676855
246	0x3e487899	0.19577254
247	0xbdbb2a31	-0.09138907
248	0x3db3bd46	0.087763354
249	0xbe989183	-0.29798517
250	0xbdb37cb8	-0.087640226
251	0x3c27a0f2	0.010231243
252	0x3ecc196d	0.39863148
253	0xbcab079d	-0.020877654
254	0x3e8be9aa	0.2732671
255	0x3e9dadde	0.30796713

actor.lin1.weight f4 [32, 21]
0	0xbdca43e6	-0.09876232
1	0xbe39eccb	-0.18156736
2	0xbe5cddbb	-0.21568958
3	0x3e0daea8	0.13836157
4	0xbdec47a1	-0.115371
5	0xbd40b695	-0.047049124
6	0xbdad45a8	-0.084605515
7	0xbe0ea7ff	-0.13931273
8	0x3d8aada5	0.06771401
9	0xbdf36629	-0.1188472
10	0x3cc8ea08	0.024525657
11	0x3d4d9f2f	0.050200637
12	0xbe35e53c	-0.17763227
13	0xbd814c2b	-0.06313356
14	0xbe288639	-0.16457452
15	0xbe0ffe49	-0.14061846
16	0xbe1399a7	-0.14414082
17	0xbdc9bc2c	-0.09850344
18	0xbe0aee9d	-0.13567586
19	0x3caf69d1	0.021412762
20	0xbc5983f0	-0.013276085
21	0x3ebafb97	0.36520073
22	0x3e895bab	0.2682775
23	0xbc910433	-0.017702198
24	0x3dc5fc3b	0.0966725
25	0x3eae78fb	0.34076676
26	0x3ebe5235	0.37172094
27	0x3c9e5e28	0.019332007
28	0x3eb96bbc	0.36215007
29	0x3ec940d9	0.39307287
30	0x3e8e86e3	0.27837285
31	0x3ebf7cad	0.37399808
32	0xbdfc3aa8	-0.12315875
33	0xbe2bcf7e	-0.1677837
34	0xbdec6f8d	-0.11544714
35	0xbdf434b1	-0.119241126
36	0xbea399e8	-0.3195336
37	0xbc9e6bce	-0.019338515
38	0x3e4b5c23	0.19859366
39	0x3dfbfae2	0.123037115
40	0x3e235c92	0.15953282
41	0xbe153d3f	-0.14574145
42	0x3ebe7ef9	0.37206247
43	0x3d99d6bc	0.075116605
44	0x3d216039	0.039398406
45	0x3eaa3ca4	0.3324939
46	0x3e10c576	0.14137825
47	0x3ed148d8	0.40875888
48	0x3e6aad8a	0.22917762
49	0x3eae1f65	0.34008327
50	0x3e59a2e8	0.2125355
51	0x3e908588	0.28226876
52	0x3e18239d	0.14857335
53	0xbdafecc4	-0.08590081
54	0xbce4a881	-0.02791238
55	0xbe8a609a	-0.27026826
56	0xbe4c66ff	-0.19961165
57	0xbdac3298	-0.084080875
58	0x3e2150af	0.15753435
59	0x3db76e19	0.08956546
60	0x3d115f93	0.035491537
61	0x3e17a20c	0.1480791
62	0x3d8814a2	0.066445604
63	0x3e7a06f7	0.2441672
64	0x3e642572	0.22279909
65	0x3deb40a8	0.114869416
66	0x3ef1ae5a	0.47203332
67	0x3e97997d	0.2960929
68	0x3e5cf91a	0.215794
69	0x3ebad786	0.36492556
70	0x3e9b0c61	0.30282882
71	0x3ea3c2fc	0.319847
72	0x3f0228b4	0.5084336
73	0x3ed73a3e	0.42036623
74	0xbe657737	-0.22408758
75	0xbd9c9d2b	-0.07647165
76	0xbd8eef41	-0.06979228
77	0xbd56d43d	-0.0524485
78	0x3df5cba4	0.12001732
79	0xb8bd3646	-9.0223315e-05
80	0xbe42bc73	-0.190172
81	0xbe2133e0	-0.15742445
82	0x3df84d1e	0.12124084
83	0xbd99822b	-0.07495531
84	0xbd9c0f08	-0.076200545
85	0x3d4364a0	0.047703385
86	0xbe335606	-0.17513284
87	0x3d71dad9	0.0590466
88	0xbe7e0501	-0.24806596
89	0xbe338d72	-0.17534426
90	0x3d274de2	0.04084576
91	0xbdebaf81	-0.11508084
92	0xbe82d600	-0.25553894
93	0xbd12ba34	-0.03582211
94	0xbdd1d078	-0.102448404
95	0xbe0a8437	-0.13526998
96	0x3d7d954c	0.06190996
97	0xbde2122e	-0.11038624
98	0xbe1be0d3	-0.15222482
99	0x3dc01e26	0.0938075
100	0x3d9d1299	0.07669563
101	0xbc54d022	-0.012989076
102	0xbda4bf11	-0.080442555
103	0x3e0b5736	0.13607487
104	0xbe1ea389	-0.15492071
105	0x3d5a92d6	0.05336269
106	0x3ea73c73	0.32663307
107	0x3dadb663	0.08482053
108	0x3d864812	0.06556715
109	0xbc846085	-0.016159305
110	0x3e6ee08a	0.23327842
111	0x3ebad2e3	0.3648902
112	0x3e5690a2	0.2095361
113	0xbd4e1e6c	-0.05032198
114	0x3e7e3244	0.24823862
115	0x3e0dfaf9	0.1386527
116	0xbdb42e35	-0.08797876
117	0x3d3b7c24	0.045772687
118	0x3c8e0c31	0.017339798
119	0xbe565d28	-0.20933974
120	0xbc8c9050	-0.017158657
121	0x3d9a428d	0.07532225
122	0x3e2a8137	0.16650854
123	0x3db86b45	0.09004835
124	0xbdbd63ca	-0.09247549
125	0xbcd937b6	-0.026515823
126	0xbe5ee6d4	-0.21767741
127	0xbe6eb286	-0.23310289
128	0x3dd6c1c8	0.104861796
129	0xbd8e4ac0	-0.06947851
130	0xbd9eaf8f	-0.07748329
131	0x3e376327	0.17908917
132	0x3dd12a17	0.10213106
133	0xbe5e84a5	-0.21730287
134	0x3de32e20	0.11092782
135	0xbe61a9f5	-0.2203749
136	0x3d6ec5fc	0.05829428
137	0x3a8d848f	0.0010796952
138	0x3cb7fe00	0.022459984
139	0xbda365cf	-0.07978403
140	0x3e3a2106	0.1817666
141	0xbe2d10d2	-0.16900948
142	0xbd385b88	-0.045009166
143	0xbc1670ea	-0.009182194
144	0x3cb89acb	0.022534749
145	0xbd84d423	-0.06485774
146	0xbdafbf11	-0.08581365
147	0x3ecc4644	0.39897358
148	0x3e927967	0.28608248
149	0x3e9a3df0	0.3012538
150	0x3e13b129	0.1442305
151	0x3e4ee26c	0.2020356
152	0x3ed0ca59	0.4077938
153	0x3ee6fa7c	0.4511298
154	0x3e96eea2	0.29478937
155	0x3ed706e8	0.41997457
156	0x3ebbaa35	0.36653295
157	0x3ec332d7	0.38124725
158	0xbda89fbd	-0.08233593
159	0x3c72df0b	0.014823685
160	0xbd1cb36d	-0.03825705
161	0xbe2664d6	-0.16249403
162	0xbe56d6ee	-0.20980427
163	0xbcd7f0a3	-0.026359862
164	0x3e0a3530	0.13496852
165	0xbe3673a5	-0.17817552
166	0x3e071243	0.1319056
167	0xbe07ec22	-0.13273671
168	0xbe208169	-0.15674366
169	0x3deb4030	0.11486852
170	0xbd0baf0a	-0.034102477
171	0x3df76fb1	0.1208185
172	0xbe462c1f	-0.19352768
173	0xbe6851b7	-0.22687422
174	0xbe5de6a3	-0.21670012
175	0x3d1352e1	0.03596771
176	0xbd0a0dce	-0.03370457
177	0x3e1098d8	0.14120805
178	0xbd96a8da	-0.07356425
179	0xbe2152e0	-0.1575427
180	0xbe06d10d	-0.13165684
181	0xbe5823a9	-0.21107353
182	0xbda11e46	-0.07867102
183	0xbe58fc30	-0.21189952
184	0xbdd0724c	-0.101780504
185	0x3c191589	0.009343513
186	0x3d9395b6	0.072062895
187	0x3c13f469	0.00903044
188	0x3e19272e	0.14956352
189	0x3e897bf4	0.2685238
190	0x3ec4dd4d	0.3845009
191	0x3d610190	0.05493313
192	0x3d9ed1c6	0.07754855
193	0x3e40ed0d	0.18840428
194	0x3e18ee65	0.1493469
195	0x3eddc252	0.43312317
196	0x3eaa2e22	0.33238322
197	0x3ed2228d	0.41041985
198	0x3f07c679	0.5303722
199	0x3e2da4c1	0.1695738
200	0xbe56d476	-0.20979485
201	0xbe759855	-0.23983891
202	0xbe1c18e4	-0.1524387
203	0x3db19def	0.086727016
204	0xbc3f0fa5	-0.011661445
205	0xbe88807c	-0.26660526
206	0x3d881c7d	0.06646059
207	0xbc89918a	-0.016793031
208	0x3cb6881b	0.022281697
209	0x3d8ef28e	0.069798574
210	0xbe577b89	-0.21043219
211	0xbde627c5	-0.11238054
212	0x3dd401ac	0.103518814
213	0x3e491db9	0.19640245
214	0xbe73fc24	-0.23826653
215	0x3c9393dd	0.018014843
216	0x3e3f9dcc	0.18712538
217	0x3cbc038e	0.022950914
218	0x3db2943f	0.08719682
219	0xbe10f7a4	-0.14156967
220	0xbe3bdc08	-0.18345654
221	0x3d9f090c	0.077653974
222	0xbe1f2d83	-0.15544705
223	0xbe2593d5	-0.16169675
224	0x3c583ff7	0.013198844
225	0x3e447123	0.19183783
226	0x3d45034e	0.048098855
227	0xbd98e1eb	-0.074649654
228	0xbd3b80ac	-0.045777008
229	0xbe069e66	-0.13146362
230	0xbe23b572	-0.15987185
231	0x3d7769e1	0.06040371
232	0xbded62bd	-0.115910985
233	0xbe65bdda	-0.22435704
234	0xbe721573	-0.23640995
235	0xbe7baca6	-0.24577579
236	0xbdab9aac	-0.08379111
237	0xbe5e359c	-0.21700138
238	0x3dd8c02e	0.1058353
239	0xbe59f34f	-0.21284221
240	0xbde45ed2	-0.11150898
241	0x3ddc0785	0.10743622
242	0x3e2b39d9	0.16721286
243	0x3e5bf696	0.21480784
244	0xbdc52648	-0.09626442
245	0x3c953d5c	0.018217735
246	0x3e350cea	0.17680708
247	0xbcacd31e	-0.021096762
248	0xbe3844dd	-0.1799502
249	0x3e0e8579	0.13918103
250	0x3de65dc6	0.112483546
251	0x3e4ccac2	0.19999221
252	0x3f012d6c	0.50459933
253	0x3eb40ea3	0.35167417
254	0x3e565a38	0.20932853
255	0x3de9b4a9	0.11411411

actor.lin1.bias f4 [32]
0	0x3da228e4	0.079179555
1	0xbbb99b4c	-0.005664265
2	0x3d154760	0.03644502
3	0x3d9a7224	0.07541302
4	0x3e01f8c5	0.12692554
5	0xbc33f942	-0.010984721
6	0xbe3ba926	-0.18326244
7	0x3d54c031	0.0519411
8	0xbdcfaafe	-0.10140036
9	0x3d92da29	0.07170517
10	0xbdb47b59	-0.08812589
11	0x3dbac5dd	0.09119771
12	0x3e05dfde	0.1307368
13	0x3c6c28cb	0.014414023
14	0xbd8cfc6b	-0.068840824
15	0x3c990bdd	0.018682415
16	0x3e3b3db2	0.18285254
17	0x3e4e63a5	0.20155199
18	0x3e452ab3	0.1925457
19	0x3e871edb	0.26390728
20	0xbe64941f	-0.22322129
21	0x3a7ad4c1	0.0009568446
22	0x3e411139	0.18854226
23	0x3df71ae8	0.12065679
24	0xbc987498	-0.018610284
25	0x3c497ee9	0.012298324
26	0xbc4c4c94	-0.0124694295
27	0x3e510d77	0.20415293
28	0x3d9dca0b	0.07704552
29	0x3d40e6a4	0.047094956
30	0x3e5a7674	0.21334249
31	0xbe87ba9d	-0.26509562

actor.lin2.weight f4 [32, 32]
0	0xbda97e73	-0.082760714
1	0x3e35df76	0.17761025
2	0x3ea160c6	0.31519145
3	0x3e9af60d	0.30265847
4	0xbe05f3e0	-0.13081312
5	0x3e25fbf7	0.16209398
6	0xbd895e0c	-0.06707391
7	0x3e995cc6	0.29953593
8	0xbe332bec	-0.17497224
9	0x3e5c9db8	0.2154454
10	0x3db3768d	0.08762846
11	0x3c359a1d	0.011084107
12	0x3eafb567	0.34318087
13	0x3e0b49b3	0.13602333
14	0x3e8bd15a	0.2730816
15	0x3e05df61	0.13073494
16	0xbdf67e1a	-0.12035771
17	0xbd56c417	-0.0524331
18	0x3dc64101	0.09680367
19	0x3eab9870	0.33514738
20	0xbd411880	-0.047142506
21	0x3e509ada	0.20371571
22	0xbd7b9c61	-0.06142843
23	0x3ddc4530	0.10755384
24	0x3d00e9ac	0.031472847
25	0xbda37e40	-0.07983065
26	0xbe12b849	-0.14328112
27	0x3e94f815	0.29095522
28	0x3d8f7749	0.07005174
29	0x3d84b812	0.06480421
30	0x3e3a6af4	0.18204862
31	0xbde263ae	-0.11054169
32	0xbdbb1ee5	-0.09136752
33	0xbe306adb	-0.17228262
34	0xbe09a6e6	-0.13442573
35	0xbd0f28c0	-0.03495097
36	0x3e27c27b	0.16382782
37	0xbd93d3ab	-0.07218107
38	0xbd27a090	-0.04092461
39	0xbe2ea0da	-0.17053548
40	0xbe2a1181	-0.1660824
41	0xbd6037c4	-0.054740682
42	0xbd76976c	-0.060203
43	0x3e0c1afb	0.13682167
44	0xbdd6ab30	-0.1048187
45	0xbdec9dc2	-0.115535274
46	0x3d2d0a74	0.042246297
47	0xbd397030	-0.045273006
48	0x3e323e75	0.17406638
49	0x3d952c0e	0.072837934
50	0xbc8538c8	-0.016262427
51	0x3c769c00	0.015051842
52	0xbe27ef48	-0.16399872
53	0x3d3bcf9c	0.04585229
54	0xbdeae62c	-0.11469683
55	0xbd92a9de	-0.07161306
56	0xbd0c7210	-0.034288466
57	0xbd85bb2f	-0.06529843
58	0xbc944680	-0.018100023
59	0xbd921919	-0.07133693
60	0x3ba00be0	0.004884228
61	0x3c645090	0.013935223
62	0xbcaeb428	-0.02132614
63	0x3dc46196	0.095889255
64	0xbd10a608	-0.03531459
65	0xbda7ea75	-0.08199016
66	0xbd7ba7a2	-0.061439164
67	0xbcb37a03	-0.021908766
68	0xbd29c505	-0.041447658
69	0x3e119f27	0.14220868
70	0x3e3a1384	0.18171507
71	0xbe1d2191	-0.15344836
72	0xbe3b3f7b	-0.18285935
73	0xbe2716f2	-0.16317347
74	0x3c07c064	0.008285616
75	0x3e0c3051	0.13690306
76	0xbca52d6c	-0.02016326
77	0xbd73489d	-0.05939542
78	0xbd8fca09	-0.07020957
79	0x3d13167b	0.03591011
80	0xbd2564bd	-0.040379275
81	0x3ced9dfa	0.029005993
82	0x3e27b835	0.16378863
83	0xbddc7cf8	-0.107660234
84	0xbdf73130	-0.12069929
85	0xbe324b2e	-0.17411491
86	0xbcb0280d	-0.021503473
87	0x3dde0cf1	0.10842312
88	0x3d2aa844	0.041664377
89	0xbdeaa560	-0.11457324
90	0xbdfb5342	-0.122717395
91	0x3dc2001e	0.094726786
92	0x3d3ff1f8	0.04686162
93	0x3d9a7eae	0.075436935
94	0xbdc4bed0	-0.09606707
95	0x3da2de26	0.07952528
96	0xbe01ff88	-0.12695134
97	0x3e863e16	0.26219243
98	0x3de93100	0.11386299
99	0x3da9ef23	0.08297565
100	0x3e2f5e83	0.17125897
101	0x3e4d6b82	0.20060542
102	0xbc93f20b	-0.018059751
103	0x3e34e8ec	0.17666978
104	0xbdd92ad3	-0.10603871
105	0x3e0eb1ff	0.13935088
106	0x3cbe55f6	0.023234349
107	0xbdb941eb	-0.09045776
108	0x3e35de17	0.17760502
109	0xbe1461c4	-0.1449042
110	0xbca03d5a	-0.019560505
111	0x3d594ca6	0.053051613
112	0x3e17276b	0.1476113
113	0x3df43782	0.1192465
114	0x3c1d3a4b	0.009596418
115	0x3eae6cde	0.34067434
116	0xbe0867d7	-0.13320862
117	0x3e353456	0.17695746
118	0xbd6bef54	-0.057601288
119	0x3dce4a48	0.10072762
120	0x3d11efe0	0.035629153
121	0xbe1807ce	-0.14846727
122	0x3d3e52ce	0.046465687
123	0x3e885198	0.2662475
124	0xbe02d39b	-0.12776034
125	0xbdc80f06	-0.097684905
126	0x3ddd86f6	0.108167574
127	0x3e28c06f	0.16479658
128	0xbe069a61	-0.13144828
129	0xbde7a50b	-0.11310776
130	0x3dce8716	0.10084359
131	0x3e4cf336	0.20014653
132	0x3df92026	0.12164335
133	0x3d0e1273	0.034685563
134	0x3d3f0ac4	0.046641126
135	0xbd1e080a	-0.038581885
136	0x3b7949af	0.0038038304
137	0x3e0df683	0.13863568
138	0xbd9f366d	-0.07774053
139	0xbd13682f	-0.03598803
140	0xbc659dac	-0.014014643
141	0xbd407873	-0.04698987
142	0x3deb205a	0.1148078
143	0x3d4b268f	0.04959732
144	0x3dd0ae8f	0.101895444
145	0x3d3f3e46	0.046690248
146	0x3da35adb	0.07976314
147	0xbdcc23a9	-0.09967739
148	0xbd2d4619	-0.04230318
149	0x3e3296a4	0.17440277
150	0x3cf11ba1	0.02943212
151	0xbdb70639	-0.08936734
152	0x3db9b386	0.090674445
153	0xbe36ba82	-0.17844585
154	0xbdfe9f25	-0.12432698
155	0x3e0a8be3	0.13529925
156	0x3dcf739d	0.10129473
157	0xbe14e8d5	-0.14541943
158	0xbde4b0d0	-0.11166537
159	0x3c50ebf8	0.012751572
160	0xbdcf5b06	-0.10124783
161	0x3e962041	0.29321483
162	0x3e5291ac	0.20563382
163	0x3eab84c0	0.33499718
164	0xbd7f8962	-0.062386878
165	0x3e54491c	0.20731014
166	0xbdf10a49	-0.1176954
167	0x3ec4216b	0.38306746
168	0xbe2006ff	-0.15627669
169	0x3e2b9845	0.16757305
170	0xbdebf530	-0.11521375
171	0xbe36bf40	-0.17846394
172	0x3e950e01	0.29112247
173	0xbd125830	-0.035728633
174	0x3deeebea	0.11666091
175	0x3ea016d8	0.31267428
176	0xbdea2c41	-0.11434222
177	0x3e40d72d	0.18832083
178	0xbdf79677	-0.12089246
179	0x3e4d9b26	0.20078716
180	0x3d4ce6d8	0.050024837
181	0x3e3601c7	0.17774116
182	0xbe45e552	-0.1932576
183	0x3c61f0b7	0.013790301
184	0xbe25dd5d	-0.16197725
185	0x3d8022d8	0.06256646
186	0xbe5228e8	-0.20523417
187	0x3d5f8332	0.054568477
188	0xbe4a96f4	-0.19784147
189	0x3db4f10e	0.0883504
190	0x3e9bf044	0.30456746
191	0xbe017a63	-0.12644343
192	0xbe036506	-0.12831506
193	0xbe02df5f	-0.12780522
194	0x3dce235d	0.10065339
195	0x3c171b3e	0.009222804
196	0xbe015d88	-0.12633336
197	0xbd8bf92d	-0.06834636
198	0xbe59a618	-0.21254766
199	0xbe14daa0	-0.14536524
200	0xbca0d798	-0.019634053
201	0x3bc82561	0.0061079715
202	0x3ce26048	0.027633801
203	0x3de48b8a	0.111594275
204	0x3e35b7eb	0.1774594
205	0x3d8d379e	0.06895374
206	0x3c03113f	0.007999717
207	0x3d8379bf	0.064197056
208	0x3c36cf04	0.011157755
209	0xbe37f7c6	-0.17965612
210	0x3e377213	0.1791461
211	0xbe421f14	-0.18957168
212	0xbd8923e8	-0.06696302
213	0x3d9e8749	0.07740647
214	0x3e238223	0.15967612
215	0xbe047400	-0.12934875
216	0xbd5c7f74	-0.053832486
217	0x3e2ba6b6	0.16762814
218	0xbe6df161	-0.2323661
219	0x3e35b617	0.17745243
220	0x3dcb2851	0.09919799
221	0x3d74fae4	0.05980958
222	0xbd128487	-0.03577092
223	0xbe09cba0	-0.13456583
224	0x3e1a1fb9	0.15051164
225	0x3e710365	0.23536451
226	0x3e08bca5	0.13353212
227	0x3eb1fa8d	0.34761468
228	0x3e285433	0.1643837
229	0x3e342956	0.17593893
230	0x3d2ce584	0.04221107
231	0x3ea41c02	0.32052618
232	0x3e145b99	0.14488067
233	0x3e19d420	0.15022326
234	0xbe1583eb	-0.14601104
235	0xbe17c0e6	-0.14819679
236	0x3e3bf434	0.18354875
237	0x3e20a382	0.15687373
238	0xbdac96a3	-0.08427169
239	0x3e8424ef	0.25809428
240	0x3e18496b	0.14871757
241	0x3e6366e9	0.22207226
242	0xbcd87f26	-0.026427817
243	0x3e6f8324	0.2338987
244	0xbda10c28	-0.07863647
245	0x3e6d3930	0.23166347
246	0xbdc438eb	-0.09581169
247	0x3d87ddbd	0.0663409
248	0xbe02d2bb	-0.127757
249	0x3dc59493	0.09647479
250	0xbe3404fa	-0.17580023
251	0x3e86cec4	0.26329625
252	0xbd4dfb40	-0.05028844
253	0x3d960b76	0.07326405
254	0x3e820f81	0.25402454
255	0x3d897f91	0.067137845

actor.lin2.bias f4 [32]
0	0xbdaa44c9	-0.08313901
1	0xbb4f1040	-0.003159538
2	0xbdc20989	-0.09474475
3	0x3e4bac80	0.19890022
4	0xbe521f70	-0.20519805
5	0x3e672051	0.22570921
6	0xbc155298	-0.00911393
7	0x3e339da0	0.17540598
8	0x3cee8729	0.029117184
9	0xbde31bcd	-0.11089287
10	0xbdf8f5e5	-0.12156276
11	0x3e03bbda	0.12864628
12	0x3bb06a43	0.005383761
13	0x3daf0e52	0.08547653
14	0x3e00a9e1	0.12564804
15	0x3e394297	0.18091808
16	0x3d7a4d90	0.061109126
17	0x3e310682	0.17287639
18	0x3d78206f	0.060577806
19	0xbd3f1293	-0.046648573
20	0x3e3b09f1	0.18265511
21	0x399277ee	0.00027936645
22	0x3be1bd63	0.0068890317
23	0x3e1ecb6b	0.15507285
24	0xbddef8d0	-0.10887301
25	0x3de8508a	0.113434866
26	0xbdba8fa2	-0.09109427
27	0x3dd28906	0.102800414
28	0xbd03b68a	-0.032156505
29	0x3d099504	0.033589378
30	0x3db27b91	0.08714975
31	0xbd1be6d4	-0.03806193

actor.lin3.weight f4 [1, 32]
0	0x3ea5d0be	0.3238582
1	0x3e19e0c7	0.15027152
2	0xbe150f57	-0.14556633
3	0x3e3378b3	0.17526512
4	0x3a019bfb	0.00049442024
5	0x3e72bdce	0.23705217
6	0xbdaeb97b	-0.08531471
7	0x3e9f9578	0.31168723
8	0xbdea6d5c	-0.1144664
9	0xbd70bcd3	-0.058773827
10	0x3e8d4d0b	0.27597842
11	0xbdeb675f	-0.11494326
12	0x3ebffe27	0.3749859
13	0x3d8351ab	0.06412061
14	0x3e47d142	0.1951342
15	0x3e551bfd	0.20811458
16	0xbdfee659	-0.12446279
17	0xbcc1c948	-0.023655549
18	0x3e83c990	0.25739717
19	0xbd5e55cc	-0.05428104
20	0x3e8123bd	0.2522258
21	0xbcc23a94	-0.023709573
22	0xbe3a1d96	-0.18175349
23	0xbdce5d4e	-0.1007639
24	0xbda96390	-0.08270943
25	0xbd9e4674	-0.077282816
26	0x3e8c943c	0.27456844
27	0x3e9afad2	0.30269486
28	0xbcdbed47	-0.026846541
29	0x3eb43302	0.35195166
30	0x3e60e1c3	0.21961121
31	0x3eba47ec	0.36382997

actor.lin4.weight f4 [32, 32]
0	0xbd8efe55	-0.06982104
1	0xbe1fd675	-0.15609153
2	0xbc948c15	-0.018133203
3	0xbe4bb6cc	-0.1989395
4	0x3dc5ae64	0.09652403
5	0xbdadd278	-0.08487409
6	0x3e09fd15	0.1347545
7	0xbd4b656d	-0.049657274
8	0x3e0f7a4b	0.14011495
9	0x3dd15fa0	0.10223317
10	0xbe1664cb	-0.14686887
11	0x3cfa656c	0.03056594
12	0xbe2d358d	-0.16914959
13	0xbd9e1451	-0.07718719
14	0xbdadb469	-0.08481676
15	0xbd9fdbd0	-0.07805598
16	0x3dc998e2	0.09843613
17	0x3d8556b6	0.065106794
18	0x3d8a7fea	0.06762679
19	0xbe0393a5	-0.1284929
20	0x3e0b86cf	0.13625644
21	0x3e124236	0.1428307
22	0x3d15b2f0	0.0365476
23	0x3d56f231	0.052477065
24	0x3e054661	0.13015129
25	0x3d4d0a97	0.050058927
26	0xbd0e9bdd	-0.03481661
27	0xbc46e448	-0.012139387
28	0xbe2380f8	-0.15967166
29	0xbdc54265	-0.096318044
30	0x3e0a5a00	0.13510895
31	0xbddb5e39	-0.10711331
32	0xbd4da04d	-0.050201703
33	0x3dd34a33	0.10316887
34	0x3d3379ea	0.04381744
35	0xbdf7df6f	-0.121031635
36	0x3d9b5c6d	0.07585988
37	0x3c663723	0.014051232
38	0x3c56d002	0.013111116
39	0xbe2aece2	-0.16691926
40	0xbe2c3655	-0.16817601
41	0xbd894777	-0.06703084
42	0x3d9dae49	0.07699258
43	0xbdf1323b	-0.11777159
44	0x3d95eb59	0.0732028
45	0x3d8bfef7	0.0683574
46	0xbdfe44ee	-0.12415491
47	0x3da6b6f5	0.08140365
48	0xbe26a4d1	-0.1627381
49	0x3e0bda20	0.13657427
50	0x3e409dc1	0.18810178
51	0x3d8a5f54	0.06756464
52	0xbe07cb3f	-0.13261126
53	0xbc764c10	-0.015032783
54	0x3e118644	0.14211375
55	0xbddb7736	-0.10716097
56	0xbd48c3d4	-0.04901488
57	0xbd91ca1d	-0.07118628
58	0xbd9b7603	-0.07590868
59	0x3d22c93f	0.039742704
60	0x3e3999ad	0.18125029
61	0x3da15502	0.07877542
62	0xbe23a06c	-0.15979165
63	0x3d8d0935	0.06886522
64	0xbdb0dea7	-0.086362176
65	0x3c07ff3b	0.008300598
66	0x3dde3afa	0.10851093
67	0xbd6a6e96	-0.05723437
68	0x3e280e05	0.16411598
69	0x3d502a70	0.05082172
70	0xbd973a6e	-0.073841915
71	0xbe0e6e23	-0.13909201
72	0x3dfffdb6	0.124995634
73	0x3ccafae9	0.024777846
74	0xbdd6a3a7	-0.10480433
75	0x3d69adc8	0.057050496
76	0x3dbd4c98	0.09243125
77	0x3be8b940	0.0071021616
78	0xbe469a44	-0.19394785
79	0xbd733c03	-0.059383404
80	0xbe15bf68	-0.14623797
81	0xbe3e4a1b	-0.18582956
82	0xbae3d5d1	-0.0017382448
83	0xbd6e8cbe	-0.05823969
84	0xbdbe72b1	-0.092992194
85	0x3e07c8ca	0.13260189
86	0xbd42bbd2	-0.0475424
87	0xbe19d821	-0.15023853
88	0x3e2b8b25	0.16752298
89	0x3dd951db	0.10611316
90	0x3c413400	0.011792183
91	0xbe494a8d	-0.19657345
92	0x3dfb30b5	0.122651495
93	0xbded4d36	-0.115869924
94	0x3d2f1f04	0.04275419
95	0xbd098c08	-0.03358081
96	0xbdef66dc	-0.11689541
97	0x398f8c49	0.00027379606
98	0x3d3cfaec	0.046137735
99	0xbe1afe27	-0.15136014
100	0xbdf79d8a	-0.12090595
101	0xbd844813	-0.064590596
102	0xbe2722d5	-0.16321881
103	0x3d856d23	0.06514957
104	0xbe2cb08e	-0.16864225
105	0x3d9a975c	0.07548401
106	0x3d215a28	0.03939262
107	0xbd03d2da	-0.032183506
108	0xbc4dad26	-0.012553489
109	0xbe0cbb0c	-0.13743228
110	0xbcd84725	-0.026401112
111	0x3dc2a684	0.095044166
112	0xbcd91597	-0.026499553
113	0x3d160135	0.036622245
114	0xbdf64362	-0.12024571
115	0x3dbeb291	0.093114026
116	0xbd745581	-0.059651855
117	0x3c7ee4b2	0.015557455
118	0xbdc614d0	-0.096719384
119	0xbe0f9df3	-0.14025097
120	0x3e2241a7	0.15845357
121	0xbd3d6030	-0.04623431
122	0xbddb5147	-0.10708862
123	0xbe57676f	-0.2103555
124	0x3e12e0b3	0.14343528
125	0x3d679170	0.056535184
126	0xbd860328	-0.06543571
127	0x3dcd1e56	0.10015552
128	0xbd516bcc	-0.051128194
129	0xbe245691	-0.16048647
130	0x3c9fb17b	0.019493809
131	0xbd9fff76	-0.07812397
132	0xbd1bb290	-0.038012087
133	0xbe3d938e	-0.18513319
134	0xbd63671d	-0.05551826
135	0xbdb44b18	-0.088033855
136	0x3e68e4ba	0.22743502
137	0xbdb85c9b	-0.09002038
138	0xbe09b094	-0.13446265
139	0x3e155505	0.14583214
140	0xbe1a9f50	-0.15099835
141	0xbe044ec0	-0.12920666
142	0x3e0cb0c5	0.13739307
143	0xbda1795b	-0.07884475
144	0x3cc40db0	0.023932308
145	0xbd4fe550	-0.0507558
146	0xbcf85ee4	-0.030318685
147	0xbbd911e7	-0.0066244486
148	0x3e131c19	0.14366187
149	0xbd1b5d06	-0.03793051
150	0x3d0839b5	0.03325816
151	0xbdf4cfe4	-0.119537145
152	0xbda98e69	-0.08279116
153	0x3d69541c	0.05696498
154	0x3e0867b8	0.13320816
155	0x3b1a458d	0.002353999
156	0xbda1a807	-0.07893377
157	0x3cb583c0	0.02215755
158	0x3e1d0924	0.15335518
159	0x3d5ce36c	0.053927824
160	0xbe1614d3	-0.14656381
161	0xbe2b4ed3	-0.16729288
162	0x3c3f0d16	0.011660835
163	0x3d74dd96	0.059781633
164	0x3c1febe0	0.009760827
165	0x3dcf89a6	0.10133676
166	0xbce3d368	-0.027810767
167	0xbe21a4a4	-0.15785462
168	0xbc2a97d0	-0.0104121715
169	0xbce75a4e	-0.028241303
170	0xbabbde00	-0.0014333129
171	0xbdda0672	-0.106457606
172	0x3db75d9f	0.08953404
173	0x3e247bb1	0.1606281
174	0xbdb3909f	-0.08767819
175	0xbd95e917	-0.07319849
176	0xbd3b1f20	-0.04568398
177	0xbe4d0c23	-0.20024161
178	0x3d2c80c8	0.042115003
179	0x3d93a21e	0.07208656
180	0xbd4c2cb0	-0.049847305
181	0x3e08702c	0.1332404
182	0xbbbaa9c0	-0.0056965053
183	0xbe5059f3	-0.20346813
184	0xbe10f61d	-0.14156385
185	0xbdf78250	-0.12085402
186	0x3e0cedad	0.13762541
187	0xbd16b536	-0.03679391
188	0xbe279066	-0.16363677
189	0xbe2c6d46	-0.1683856
190	0x3d903159	0.07040662
191	0xbd963570	-0.07334411
192	0x3de8b786	0.11363129
193	0x3df1e62f	0.11811482
194	0xbe3baf11	-0.18328501
195	0x3d3921af	0.04519814
196	0xbdfd97ae	-0.12382446
197	0x3cdbd600	0.026835442
198	0x3d7e67ab	0.062110584
199	0xbe38d5ef	-0.18050359
200	0xbe1d5816	-0.15365633
201	0xbd4a9821	-0.049461488
202	0x3e160277	0.14649378
203	0xbcda2de7	-0.026633216
204	0xbda7fc3f	-0.08202409
205	0x3e115628	0.14193022
206	0x3df27f0b	0.11840638
207	0x3dd0b967	0.10191613
208	0xbd7f87ac	-0.062385246
209	0xbe1b943a	-0.15193263
210	0xbe0a5226	-0.135079
211	0x3d71f5df	0.05907237
212	0xbe06b12d	-0.13153525
213	0x3d4affd8	0.049560398
214	0xbd9ce216	-0.0766031
215	0x3d921f1d	0.07134841
216	0x3e207e79	0.15673245
217	0xbe37a4a0	-0.17933893
218	0x3d90b543	0.07065823
219	0x3c95aede	0.01827186
220	0x3c9cdac9	0.019147294
221	0xbd9fab1d	-0.07796309
222	0xbdc96e45	-0.09835485
223	0x3d8a4272	0.06750955
224	0x3e28eb55	0.16496022
225	0xbcab406a	-0.020904738
226	0xbdc391db	-0.09549304
227	0xbe1a51ad	-0.1507022
228	0x3dd1d312	0.102453366
229	0x3d15126c	0.03639452
230	0x3dab71de	0.08371328
231	0xbd13ef6b	-0.036117
232	0xbe212b92	-0.15739277
233	0xbd917cf3	-0.0710391
234	0xbcba8e28	-0.022772864
235	0xbe3c499d	-0.18387456
236	0xbe345a1b	-0.17612498
237	0xbdeed918	-0.11662501
238	0xbe3e5cd6	-0.18590102
239	0xbd1d6f3c	-0.03843616
240	0x3d41ef00	0.04734707
241	0x3cfdce2d	0.030982101
242	0xbbdfa114	-0.006824622
243	0x3cf03a90	0.0293248
244	0xbe350036	-0.17675862
245	0xbd8f42bf	-0.06995153
246	0xbb5935c0	-0.003314361
247	0xbd820dba	-0.063502744
248	0xbd946c15	-0.072471775
249	0x3d3162e4	0.0433072
250	0xbdad71da	-0.08468981
251	0xbdec1e6a	-0.115292385
252	0x3d900dba	0.07033868
253	0xbd892864	-0.06697157
254	0xbd8070df	-0.062715285
255	0xbb3c3b40	-0.002872184

actor.lin4.bias f4 [32]
0	0xbe2398fe	-0.1597633
1	0xbdcb3200	-0.09921646
2	0xbe036de4	-0.12834889
3	0xbe1f4570	-0.15553832
4	0xbd9ba6c6	-0.07600169
5	0xbe0b2d9a	-0.13591614
6	0x3c8c3103	0.017113214
7	0xbdc9b6a6	-0.098492905
8	0xbe4a0b94	-0.19730979
9	0xbe4319ae	-0.19052765
10	0xbe1ed99c	-0.15512699
11	0xbd503f17	-0.050841417
12	0x3d31b042	0.043380983
13	0xbe6eb2e8	-0.23310435
14	0x3e0fe870	0.14053512
15	0xbe0ac9c4	-0.1355353
16	0x3d461b6e	0.048366003
17	0xbd0b83c5	-0.034061212
18	0xbdcc5c01	-0.09978486
19	0x3d061357	0.032733288
20	0xbd6ab65f	-0.05730283
21	0xbe192bd7	-0.1495813
22	0x3db71cef	0.089410655
23	0xbdc1b2e6	-0.0945795
24	0xbe42ca26	-0.19022426
25	0x3d513702	0.05107785
26	0xbe45e516	-0.1932567
27	0x3dd5da50	0.104420304
28	0x3df57f40	0.11987162
29	0x3dd442c5	0.10364298
30	0xbe290a98	-0.16507947
31	0x3c81e4f8	0.015856251

actor.bilin.weight f4 [16, 32, 32]
0	0x3e1d90c8	0.15387261
1	0xbd73344b	-0.059376042
2	0x3d1068a4	0.035256043
3	0xbdb27a21	-0.087147005
4	0x3da1a392	0.07892527
5	0x3c84d300	0.016213894
6	0x3da10c16	0.07863633
7	0xbdd7796f	-0.105212085
8	0x3e27b5b6	0.16377911
9	0x3da69103	0.081331275
10	0xbe0e5a2c	-0.13901585
11	0x3d8a4c87	0.06752878
12	0x3d81e426	0.06342344
13	0xbe142281	-0.14466287
14	0xbe2ffcdd	-0.17186303
15	0xbcf90938	-0.030399904
16	0x3ae2c980	0.0017302483
17	0x3d9a69b2	0.07539691
18	0xbe391970	-0.1807611
19	0x3e0a17e7	0.1348568
20	0x3da6b4c0	0.08139944
21	0xbe050a05	-0.12992103
22	0xbe00261e	-0.1251454
23	0x3df40308	0.11914641
24	0xbe174173	-0.1477106
25	0xbca9d059	-0.02072923
26	0xbdc24c93	-0.094872616
27	0xbe2056ee	-0.15658161
28	0xbdd76585	-0.1051741
29	0x3d25fb54	0.04052289
30	0xbdb9d757	-0.09074276
31	0x3e013763	0.12618785
32	0xbd9e34f9	-0.077249475
33	0x3e13a168	0.1441704
34	0x3dc0c0d6	0.094117805
35	0x3e28a6ad	0.16469832
36	0x3e03b683	0.12862591
37	0xbd715160	-0.058915496
38	0xbe095243	-0.13410287
39	0x3d724221	0.059145097
40	0x3e2bc879	0.16775693
41	0xbcad7d9c	-0.02117806
42	0xbbfe26b0	-0.0077560768
43	0x3e554023	0.20825247
44	0x3d39dede	0.04537856
45	0xbd87b203	-0.0662575
46	0xbd91e43a	-0.07123609
47	0x3c5237a0	0.012830645
48	0xbd667c10	-0.05627066
49	0xbbc1544a	-0.0058999406
50	0x3d118a5d	0.035532344
51	0x3df54856	0.119766876
52	0xbd602ab0	-0.05472821
53	0xbe0be109	-0.13660063
54	0x3e5ea24a	0.21741596
55	0x3ccfa258	0.025345966
56	0x3bfa0218	0.007629644
57	0x3e2b5861	0.16732933
58	0x3df771d2	0.120822564
59	0xbde859ac	-0.113452286
60	0x3dfe4997	0.1241638
61	0xbd39d4f8	-0.04536912
62	0xbc80cd38	-0.015722856
63	0xbddf810c	-0.109132856
64	0xbe2982c3	-0.16553788
65	0xbe041812	-0.12899807
66	0xbe412ba7	-0.18864308
67	0xbe059a0b	-0.13047044
68	0x3c69f423	0.014279398
69	0x3e284857	0.16433845
70	0x3d19110d	0.037369777
71	0xbdde5ed9	-0.108579345
72	0xbde96da9	-0.11397869
73	0x3dadc1e3	0.084842466
74	0x3d38b830	0.04509753
75	0xbd7bab04	-0.06144239
76	0xbd06d6f0	-0.032919824
77	0x3de7f1ce	0.113254175
78	0x3de69ede	0.1126077
79	0xbd950015	-0.07275406
80	0xbe00674c	-0.12539405
81	0xba668d00	-0.00087948143
82	0xbcab7318	-0.020928904
83	0xbe4ade3c	-0.19811338
84	0xbdf5a690	-0.1199466
85	0x3d7ed7d0	0.062217534
86	0x3e063df1	0.13109566
87	0xbe1c5360	-0.1526618
88	0x3d655854	0.05599244
89	0xbd559e55	-0.05215295
90	0xbdfbd60e	-0.12296687
91	0xbd4363e4	-0.047702685
92	0xbe089705	-0.1333886
93	0xbe3548cb	-0.1770355
94	0x3e282eaf	0.16424058
95	0x3d6266e4	0.055273905
96	0x3db78367	0.0896061
97	0x3e271ff9	0.1632079
98	0xbd8fe88a	-0.07026775
99	0xbdbb7d31	-0.09154738
100	0x3d95e4d4	0.07319036
101	0x3d5072ec	0.050890848
102	0xbd4963cc	-0.04916744
103	0xbcbba550	-0.022905976
104	0x3e1f1efa	0.1553916
105	0x3e16df73	0.14733677
106	0x3c45c3d0	0.012070611
107	0xbdb36d57	-0.08761089
108	0xbe0958e8	-0.13412821
109	0x3cf11ba2	0.029432122
110	0xbe2c7fd7	-0.16845642
111	0xbbc5b060	-0.0060329884
112	0xbd829b91	-0.06377328
113	0xbe01e87a	-0.12686339
114	0x3e2b5b4a	0.16734043
115	0x3e1a456f	0.1506555
116	0xbe1684b6	-0.14699063
117	0xbe20ba4c	-0.15696067
118	0x3d74101b	0.059585672
119	0xbdac794c	-0.08421573
120	0xbdd54d05	-0.10415081
121	0xbe2a9a0b	-0.16660325
122	0x3da7c186	0.081912085
123	0xbd8a8a50	-0.06764662
124	0xbde9b44a	-0.114113405
125	0xbe22c57e	-0.1589565
126	0x3e28fe84	0.1650334
127	0x3c4b0f16	0.0123937335
128	0x3c194330	0.009354398
129	0x3db2bcc9	0.08727414
130	0x3ce2e70a	0.027698059
131	0x3c3465a8	0.011010565
132	0x3ddf7d5d	0.10912583
133	0xbd5b7fbe	-0.05358862
134	0x3cf894d2	0.0303444
135	0xbd9d2825	-0.076736726
136	0x3d33ac88	0.04386571
137	0xbc97a193	-0.018509662
138	0x3bcf3720	0.00632371
139	0xbd799051	-0.060928646
140	0x3cd20360	0.025636375
141	0x3c959191	0.018257888
142	0xbdbca9c6	-0.09212069
143	0x3e190a2b	0.14945285
144	0x3dea6412	0.11444868
145	0x3e0cf534	0.13765413
146	0xbcf9dcde	-0.030500825
147	0xbe15e188	-0.14636815
148	0x3d9629ab	0.07332166
149	0x3e2937e0	0.16525221
150	0xbc4e1454	-0.012578089
151	0xbdf2c2c5	-0.118535556
152	0x3e395080	0.18097115
153	0xbde1a95c	-0.11018631
154	0x3da39cbf	0.07988881
155	0x3dbdff13	0.09277167
156	0x3b90df0a	0.0044211196
157	0xbc8decdb	-0.017324856
158	0x3d619d6d	0.055081774
159	0xbdd27e79	-0.10278029
160	0x3df10782	0.1176901
161	0xbe00ddb5	-0.12584575
162	0xbdfd19e5	-0.123584546
163	0x3d1518d8	0.036400646
164	0xbde08b5a	-0.10964079
165	0xbe215a76	-0.15757164
166	0xbc6fff60	-0.0146482885
167	0x3de085d2	0.10963024
168	0xbe163df2	-0.14672068
169	0x3d7da551	0.061925236
170	0x3d0093a0	0.031390786
171	0x3e0a284f	0.13491939
172	0x3dc13df2	0.09435643
173	0x3e0869ed	0.13321657
174	0x3e35007b	0.17675965
175	0xbca341e8	-0.019928887
176	0xbd7c71d4	-0.061631992
177	0xbd854496	-0.06507222
178	0xbde1355d	-0.10996506
179	0x3e1e154b	0.1543781
180	0xbd98ea5c	-0.074665755
181	0x3d270988	0.040780574
182	0xbe14355b	-0.14473478
183	0xbe092117	-0.13391529
184	0x3ddc78c6	0.10765223
185	0x3e1cd0fd	0.15314098
186	0xbe04aed7	-0.12957321
187	0xbe2b2545	-0.16713436
188	0x3cbe2d30	0.023214906
189	0x3e192d35	0.14958651
190	0xbe2bf272	-0.16791704
191	0x3cea45a8	0.028597668
192	0x3e14492b	0.14481036
193	0x3d0db3ff	0.034595486
194	0x3b9444ad	0.0045247884
195	0x3c99f00f	0.018791227
196	0x3cbef149	0.023308413
197	0x3dcb65ca	0.09931524
198	0x3e14eccc	0.14543456
199	0x3e2627a7	0.16226064
200	0xbcd338f5	-0.025783995
201	0xbd8cdc2b	-0.06877931
202	0x3c076904	0.008264784
203	0x3e25121c	0.1612019
204	0xbe315d74	-0.17320806
205	0xbcaecd11	-0.021338018
206	0x3d8196df	0.063276045
207	0x3d382cbc	0.044964537
208	0xbd1f331c	-0.0388671
209	0x3e38c2d4	0.18043071
210	0x3dca3100	0.09872627
211	0x3de90046	0.11377005
212	0xbda8e13c	-0.08246085
213	0xbcf5b600	-0.02999401
214	0x3dd7beb7	0.10534423
215	0xbd828128	-0.06372291
216	0x3e2baa74	0.16764241
217	0x3e177014	0.14788848
218	0x3d953096	0.07284658
219	0x3e2c8a64	0.16849667
220	0x3e237a3d	0.15964599
221	0xbe11fce8	-0.14256632
222	0xbdce1c9e	-0.10064052
223	0x3c917f2a	0.017760832
224	0xbe05d984	-0.13071257
225	0x3d585aa9	0.052820835
226	0x3cc55b88	0.024091497
227	0xbe0dc906	-0.13846216
228	0x3d09d1b8	0.03364727
229	0x3dfede56	0.12444751
230	0xbe32f8de	-0.17477748
231	0xbbbe0228	-0.005798597
232	0x3d3251bc	0.04353498
233	0x3da031c6	0.078219935
234	0xbdc494fd	-0.0959873
235	0x3dc0c80e	0.094131574
236	0xbcc0c1a0	-0.023529828
237	0x3dd19262	0.102329984
238	0xbe303d7a	-0.17210951
239	0xbb232980	-0.0024896562
240	0x3dbd15fa	0.09232707
241	0xbddbd055	-0.107330956
242	0x3d147534	0.036244586
243	0xbdac4e48	-0.084133685
244	0x3da4287a	0.08015533
245	0xbddc55d4	-0.10758558
246	0x3ddc75a2	0.10764624
247	0xbd892cec	-0.06698021
248	0xbd2a6438	-0.041599482
249	0xbd3d1072	-0.04615826
250	0xbe10d411	-0.14143397
251	0x3e0ab637	0.13546072
252	0xbd236d50	-0.03989917
253	0x3e0d5cfa	0.13804999
254	0x3e13c7b9	0.14431657
255	0xbd7c871a	-0.06165228

actor.bilin.bias f4 [16]
0	0xbd99970b	-0.07499512
1	0xbe0ebe45	-0.1393977
2	0x3d6f3f9d	0.058410276
3	0xbc027e78	-0.007964723
4	0x3e8cfce2	0.27536684
5	0xbdf05da5	-0.11736611
6	0x3e2a806f	0.16650556
7	0x3dbc4146	0.091921374
8	0x3e08f929	0.13376297
9	0x3e7608dd	0.24026819
10	0x3d098d16	0.033581816
11	0x3e22464d	0.1584713
12	0xbce58e5c	-0.028021984
13	0xbdee3cae	-0.116326675
14	0xbd0713c6	-0.03297784
15	0x3db3b18d	0.087740995

critic.conv1.bias f4 [21]
0	0xbe69fe3a	-0.22850886
1	0xbd5f6308	-0.054537803
2	0x3ebba550	0.3664956
3	0x3cea38b2	0.028591488
4	0xbe9278c0	-0.2860775
5	0x3e918033	0.2841812
6	0xbe979b44	-0.29610646
7	0xbd55dfc8	-0.052215368
8	0xbd0fce32	-0.035108753
9	0x3e91a42c	0.28445566
10	0xbd304f9b	-0.043044668
11	0x3e5c8c63	0.21537928
12	0xbe57b03a	-0.21063319
13	0xbe728b97	-0.23686062
14	0x3e562605	0.20912941
15	0x3e5af49b	0.21382372
16	0xbe6b2faa	-0.22967401
17	0x3ebf7d38	0.37400222
18	0xbe71e16c	-0.23621148
19	0xbebcc32c	-0.36867654
20	0xbe9d0af2	-0.30672413

critic.conv1.lin.weight f4 [21, 21]
0	0x3e9f4f6c	0.31115282
1	0x3e9f019e	0.3105592
2	0x3e8ace07	0.2711031
3	0xbdea68f9	-0.11445803
4	0x3e465f98	0.19372404
5	0x3dde5246	0.10855536
6	0x3d76bbb3	0.060237598
7	0x3ecaf6a8	0.3964131
8	0xbcb08b79	-0.02155088
9	0x3ecef1c3	0.40418825
10	0x3ea7f12d	0.3280119
11	0xbeb5f25f	-0.35536477
12	0xbe35034f	-0.17677043
13	0x3ddf5ccf	0.10906374
14	0xbebbd85b	-0.36688504
15	0xbe8e0cec	-0.27744234
16	0xbe4a5b07	-0.19761287
17	0x3e57e2d6	0.21082625
18	0x3e6c2d69	0.23064198
19	0xbe0b648d	-0.13612576
20	0x3dede38e	0.11615668
21	0x3e396ae8	0.18107188
22	0xbdaa5a3b	-0.08317991
23	0xbe4b683c	-0.19863981
24	0xbc35c780	-0.011094928
25	0xbec5afc5	-0.38610664
26	0xbeb6dfc0	-0.35717583
27	0xbd54adb8	-0.051923484
28	0x3daee08c	0.08538923
29	0x3e3d0722	0.18459752
30	0xbeb90b11	-0.36141255
31	0xbbc4ce46	-0.006006035
32	0xbe68dcad	-0.22740431
33	0xbdd3c720	-0.103407145
34	0xbe963765	-0.29339138
35	0xbec7ffb4	-0.39062274
36	0x3e4dd1f3	0.2009962
37	0xbe4c8e6c	-0.19976205
38	0x3e2e8f10	0.17046762
39	0xbeabff5b	-0.33593258
40	0xbdaf5dc7	-0.085628085
41	0x3e3e19e5	0.18564565
42	0xbc3a46d7	-0.011369429
43	0x3ef47cdb	0.47751507
44	0xbdc968d7	-0.0983445
45	0x3ed666c9	0.41875294
46	0xbccbf861	-0.02489871
47	0x3e5ad990	0.21372056
48	0xbe34a2a5	-0.17640169
49	0x3e6bfc7d	0.23045535
50	0xbeb57103	-0.35437784
51	0x3e219180	0.1577816
52	0xbea43577	-0.3207204
53	0x3e361528	0.17781508
54	0x3ebf5225	0.3736736
55	0x3e4bbd26	0.19896373
56	0x3e00bd52	0.1257222
57	0xbe99b264	-0.30018914
58	0xbe34562d	-0.17610998
59	0xbe862f45	-0.2620794
60	0x3e73f7cc	0.23824996
61	0xbacabade	-0.0015467068
62	0xbe8339b6	-0.25629967
63	0x3e9a2946	0.30109614
64	0xbc82e821	-0.015979828
65	0xbe5f9c5e	-0.21836993
66	0xbe1651ca	-0.14679638
67	0xbd9634fe	-0.07334326
68	0xbcae3578	-0.02126573
69	0x3d91dd1d	0.07122252
70	0x3eab8ecd	0.33507386
71	0xbddb7890	-0.10716355
72	0xbccaa3fa	-0.024736393
73	0x3dc28e40	0.09499788
74	0x3da770c0	0.08175802
75	0xbe7f9eca	-0.24962917
76	0xbe50be7d	-0.20385166
77	0xbe8d2782	-0.27569205
78	0x3e81422b	0.25245795
79	0xbe55e7d1	-0.20889212
80	0xbdbaa53d	-0.09113548
81	0xbe83b972	-0.2572742
82	0xbebfe0cd	-0.37476197
83	0x3eb7fea4	0.35936463
84	0xbe48241d	-0.19545026
85	0xbe7ae417	-0.24501072
86	0xbd833504	-0.06406596
87	0xbe8cc5db	-0.27494702
88	0x3ea54fb3	0.32287368
89	0xbe66a5e4	-0.2252422
90	0x3c1c329c	0.009533551
91	0x3e9a8f34	0.3018738
92	0xbe8b9db8	-0.27268767
93	0xbe226207	-0.15857707
94	0xbeb9c332	-0.36281735
95	0xbe42417e	-0.18970296
96	0x3e9aa48c	0.30203664
97	0xbeacb97c	-0.33735263
98	0x3d59165d	0.052999843
99	0x3e1a0ff0	0.15045142
100	0x3ea93ac2	0.3305264
101	0x3ea79107	0.32727835
102	0x3e574841	0.21023656
103	0xbe3fa23c	-0.18714231
104	0xbcfced9b	-0.030875018
105	0x3db7aefd	0.08968923
106	0xbd9733d1	-0.0738293
107	0x3e56eee6	0.2098957
108	0x3e2d7086	0.16937456
109	0xbc7d311d	-0.015453604
110	0xbe38c050	-0.18042111
111	0xbe338b9d	-0.17533727
112	0xbb8c9a34	-0.0042908434
113	0xbde615aa	-0.11234601
114	0xbe1a6646	-0.15078077
115	0xbebb67db	-0.36602673
116	0x3df8e9cf	0.121539705
117	0xbe89dc6d	-0.26925984
118	0xbe29c6ca	-0.16579738
119	0xbcb4b353	-0.022058165
120	0x3eabb47f	0.33536145
121	0x3ddb5136	0.10708849
122	0x3dce74f2	0.10080899
123	0xbe317ccf	-0.17332767
124	0x3e9072d3	0.28212604
125	0x3d42f00b	0.047592204
126	0xbe3e83dc	-0.18604988
127	0x3e2a48e6	0.16629371
128	0xbe9c648f	-0.3054547
129	0xbed42bf2	-0.41439778
130	0x3e88341e	0.26602262
131	0x3e2b4b07	0.1672784
132	0x3eb80a9a	0.35945588
133	0x3e9cf94d	0.3065895
134	0x3ec00683	0.37504968
135	0xbce8aa0a	-0.028401393
136	0xbeaf2928	-0.34211087
137	0x3eb19e1b	0.34690937
138	0x3d9b2735	0.075758375
139	0xbea4822f	-0.32130572
140	0xbdfb5016	-0.122711346
141	0xbea37fe8	-0.31933522
142	0x3e57e90d	0.21084996
143	0x3ed50508	0.416054
144	0x3e211ddd	0.15734048
145	0x3e9a6a70	0.3015933
146	0xbdaceea2	-0.08443953
147	0x3dfea77a	0.12434287
148	0xbe1fdb63	-0.15611033
149	0x3e531c06	0.20616159
150	0x3de0d965	0.10978965
151	0xbec4d2e3	-0.38442144
152	0x3db62400	0.08893585
153	0xbecd0af9	-0.40047434
154	0x3dc37670	0.095440745
155	0xbe00579e	-0.12533423
156	0xbebb6db3	-0.3660713
157	0xbd6cf4c3	-0.05785061
158	0xbe416a35	-0.18888171
159	0xbeb7de90	-0.3591199
160	0x3d51d220	0.05122578
161	0x3e0000f6	0.12500367
162	0xbdebe1a4	-0.11517647
163	0xbe7ed193	-0.24884634
164	0xbebac7ed	-0.36480656
165	0x3e876ca1	0.26450065
166	0xbe83dcda	-0.25754434
167	0x3dc7f7dc	0.09764072
168	0xbd5c6e0f	-0.053815898
169	0x3e6354b5	0.22200282
170	0x3e9f06e6	0.3105995
171	0x3ea71ae6	0.3263771
172	0xbe0037eb	-0.12521331
173	0x3c4e4111	0.012588755
174	0xbbef7789	-0.007307951
175	0xbe917708	-0.28411126
176	0x3e94aec3	0.29039583
177	0xbd8c19c9	-0.06840856
178	0xbe4fe7a9	-0.20303215
179	0x3e9b7e29	0.3036969
180	0xbe3502c8	-0.17676842
181	0x3e0b5c4d	0.13609429
182	0x3eb8fdd2	0.3613115
183	0xbe5f1391	-0.21784808
184	0xbe5b918a	-0.21442237
185	0xbe4a9587	-0.19783603
186	0x3e340b3c	0.1758241
187	0x3ea7b1af	0.3275275
188	0x3e82b3be	0.25527757
189	0x3e0bd26b	0.13654487
190	0x3eec8b02	0.46199805
191	0xbe3e56b6	-0.18587765
192	0xbbff115c	-0.007784052
193	0x3e8f10ab	0.27942404
194	0x3d9b675a	0.07588072
195	0xbe2b1e4c	-0.16710776
196	0x3dd27afe	0.10277365
197	0x3e8b5c69	0.2721894
198	0x3e68ba42	0.22727302
199	0x3e402c97	0.1876701
200	0xbdd35947	-0.10319763
201	0xbec0c982	-0.37653738
202	0x3a6bb480	0.0008991435
203	0xbe2f6920	-0.17129946
204	0x3c98c97f	0.018650768
205	0x3e2561c2	0.16150573
206	0xbbdfc4ca	-0.006828879
207	0x3dc54175	0.096316256
208	0x3ce82f71	0.028342934
209	0x3d40542e	0.04695528
210	0x3d2bef87	0.041976478
211	0xbe41fdc6	-0.18944463
212	0x3e81abbd	0.25326338
213	0xbe77ac9d	-0.2418694
214	0x3dad5e2a	0.08465226
215	0xbdad0d6a	-0.08449824
216	0x3e22851e	0.15871093
217	0xbe25bb18	-0.16184652
218	0xbec29ee6	-0.38011855
219	0xbece0f62	-0.4024611
220	0xbe0bc87b	-0.13650696
221	0x3d33c7d9	0.04389176
222	0xbe56af82	-0.20965388
223	0xbe6f95ed	-0.23397036
224	0xbe7b5b51	-0.24546553
225	0xbe659d21	-0.22423221
226	0x3ea023d7	0.31277344
227	0xbeba1d76	-0.36350602
228	0x3dc3b1cc	0.095553964
229	0xbe8e877f	-0.2783775
230	0x3e0ada92	0.1355994
231	0xbe80fe2a	-0.25193912
232	0x3e8eb869	0.2787507
233	0x3e3d318b	0.1847593
234	0x3ecd8acd	0.4014496
235	0x3ec2b0fa	0.38025647
236	0xbdccd979	-0.10002417
237	0x3e9a6292	0.30153328
238	0x3db6411c	0.088991374
239	0x3e731e0f	0.23741935
240	0x3d385a6b	0.045008104
241	0x3dbff446	0.09372763
242	0xbd860f84	-0.06545928
243	0xbe55ed66	-0.20891342
244	0x3d866ddd	0.065639235
245	0x3eab54b4	0.3346306
246	0x3b694cda	0.0035598786
247	0xbc7959ae	-0.015219135
248	0x3e26eb30	0.16300654
249	0x3dfe8df4	0.12429419
250	0xbe05e0d8	-0.13074052
251	0x3eae5fb3	0.34057388
252	0x3e761d59	0.24034633
253	0xbe3218b2	-0.17392233
254	0xbe5d61be	-0.21619317
255	0x3e6eaf6d	0.23309107
