saved_files/ckpt/nyc4/a2c_gnn_test_vdvp.pth (torch, 66201 bytes, 46 tensors)

actor.gamma_rate f4 [16, 16]
000000 f5 ff f9 44 06 00 fa 44 ff ff f9 44 04 00 fa 44
       1999.9987 2000.0007 1999.9999 2000.0005
000010 fb ff f9 44 f9 ff f9 44 02 00 fa 44 fc ff f9 44
       1999.9994 1999.9991 2000.0002 1999.9995
000020 f9 ff f9 44 ff ff f9 44 fd ff f9 44 02 00 fa 44
       1999.9991 1999.9999 1999.9996 2000.0002
000030 02 00 fa 44 0a 00 fa 44 02 00 fa 44 04 00 fa 44
       2000.0002 2000.0012 2000.0002 2000.0005
000040 01 00 fa 44 fe ff f9 44 fd ff f9 44 00 00 fa 44
       2000.0001 1999.9998 1999.9996 2000.0
000050 fd ff f9 44 fe ff f9 44 fd ff f9 44 ff ff f9 44
       1999.9996 1999.9998 1999.9996 1999.9999
000060 01 00 fa 44 ff ff f9 44 ff ff f9 44 03 00 fa 44
       2000.0001 1999.9999 1999.9999 2000.0004
000070 fe ff f9 44 02 00 fa 44 02 00 fa 44 fd ff f9 44
       1999.9998 2000.0002 2000.0002 1999.9996
000080 00 00 fa 44 01 00 fa 44 09 00 fa 44 03 00 fa 44
       2000.0 2000.0001 2000.0011 2000.0004
000090 ff ff f9 44 01 00 fa 44 fe ff f9 44 ff ff f9 44
       1999.9999 2000.0001 1999.9998 1999.9999
0000a0 05 00 fa 44 01 00 fa 44 01 00 fa 44 fd ff f9 44
       2000.0006 2000.0001 2000.0001 1999.9996
0000b0 01 00 fa 44 fe ff f9 44 04 00 fa 44 04 00 fa 44
       2000.0001 1999.9998 2000.0005 2000.0005
0000c0 ff ff f9 44 fe ff f9 44 01 00 fa 44 04 00 fa 44
       1999.9999 1999.9998 2000.0001 2000.0005
0000d0 01 00 fa 44 ff ff f9 44 fa ff f9 44 00 00 fa 44
       2000.0001 1999.9999 1999.9993 2000.0
0000e0 fc ff f9 44 fb ff f9 44 00 00 fa 44 01 00 fa 44
       1999.9995 1999.9994 2000.0 2000.0001
0000f0 01 00 fa 44 fc ff f9 44 02 00 fa 44 02 00 fa 44
       2000.0001 1999.9995 2000.0002 2000.0002
000100 fd ff f9 44 04 00 fa 44 04 00 fa 44 fd ff f9 44
       1999.9996 2000.0005 2000.0005 1999.9996
000110 fd ff f9 44 01 00 fa 44 ff ff f9 44 f9 ff f9 44
       1999.9996 2000.0001 1999.9999 1999.9991
000120 fc ff f9 44 02 00 fa 44 04 00 fa 44 fe ff f9 44
       1999.9995 2000.0002 2000.0005 1999.9998
000130 fe ff f9 44 fd ff f9 44 02 00 fa 44 fc ff f9 44
       1999.9998 1999.9996 2000.0002 1999.9995
000140 ff ff f9 44 ff ff f9 44 02 00 fa 44 0a 00 fa 44
       1999.9999 1999.9999 2000.0002 2000.0012
000150 fe ff f9 44 01 00 fa 44 06 00 fa 44 02 00 fa 44
       1999.9998 2000.0001 2000.0007 2000.0002
000160 05 00 fa 44 05 00 fa 44 01 00 fa 44 03 00 fa 44
       2000.0006 2000.0006 2000.0001 2000.0004
000170 f8 ff f9 44 06 00 fa 44 ff ff f9 44 03 00 fa 44
       1999.999 2000.0007 1999.9999 2000.0004
000180 04 00 fa 44 ff ff f9 44 02 00 fa 44 ff ff f9 44
       2000.0005 1999.9999 2000.0002 1999.9999
000190 f9 ff f9 44 00 00 fa 44 00 00 fa 44 01 00 fa 44
       1999.9991 2000.0 2000.0 2000.0001
0001a0 02 00 fa 44 fd ff f9 44 ff ff f9 44 01 00 fa 44
       2000.0002 1999.9996 1999.9999 2000.0001
0001b0 00 00 fa 44 f9 ff f9 44 fe ff f9 44 01 00 fa 44
       2000.0 1999.9991 1999.9998 2000.0001
0001c0 ff ff f9 44 04 00 fa 44 05 00 fa 44 00 00 fa 44
       1999.9999 2000.0005 2000.0006 2000.0
0001d0 fd ff f9 44 fe ff f9 44 01 00 fa 44 ff ff f9 44
       1999.9996 1999.9998 2000.0001 1999.9999
0001e0 ff ff f9 44 00 00 fa 44 fe ff f9 44 05 00 fa 44
       1999.9999 2000.0 1999.9998 2000.0006
0001f0 02 00 fa 44 fd ff f9 44 ff ff f9 44 ff ff f9 44
       2000.0002 1999.9996 1999.9999 1999.9999
000200 01 00 fa 44 02 00 fa 44 ff ff f9 44 fe ff f9 44
       2000.0001 2000.0002 1999.9999 1999.9998
000210 ff ff f9 44 07 00 fa 44 ff ff f9 44 03 00 fa 44
       1999.9999 2000.0009 1999.9999 2000.0004
000220 02 00 fa 44 05 00 fa 44 fe ff f9 44 f7 ff f9 44
       2000.0002 2000.0006 1999.9998 1999.9989
000230 01 00 fa 44 02 00 fa 44 05 00 fa 44 fc ff f9 44
       2000.0001 2000.0002 2000.0006 1999.9995
000240 03 00 fa 44 ff ff f9 44 03 00 fa 44 03 00 fa 44
       2000.0004 1999.9999 2000.0004 2000.0004
000250 fd ff f9 44 00 00 fa 44 fc ff f9 44 02 00 fa 44
       1999.9996 2000.0 1999.9995 2000.0002
000260 fe ff f9 44 04 00 fa 44 02 00 fa 44 fc ff f9 44
       1999.9998 2000.0005 2000.0002 1999.9995
000270 05 00 fa 44 ff ff f9 44 fe ff f9 44 fd ff f9 44
       2000.0006 1999.9999 1999.9998 1999.9996
000280 ff ff f9 44 04 00 fa 44 03 00 fa 44 fd ff f9 44
       1999.9999 2000.0005 2000.0004 1999.9996
000290 0b 00 fa 44 ff ff f9 44 fe ff f9 44 04 00 fa 44
       2000.0013 1999.9999 1999.9998 2000.0005
0002a0 06 00 fa 44 ff ff f9 44 fd ff f9 44 ff ff f9 44
       2000.0007 1999.9999 1999.9996 1999.9999
0002b0 01 00 fa 44 00 00 fa 44 01 00 fa 44 fd ff f9 44
       2000.0001 2000.0 2000.0001 1999.9996
0002c0 02 00 fa 44 ff ff f9 44 fa ff f9 44 ff ff f9 44
       2000.0002 1999.9999 1999.9993 1999.9999
0002d0 01 00 fa 44 06 00 fa 44 04 00 fa 44 02 00 fa 44
       2000.0001 2000.0007 2000.0005 2000.0002
0002e0 03 00 fa 44 05 00 fa 44 04 00 fa 44 00 00 fa 44
       2000.0004 2000.0006 2000.0005 2000.0
0002f0 04 00 fa 44 01 00 fa 44 06 00 fa 44 ff ff f9 44
       2000.0005 2000.0001 2000.0007 1999.9999
000300 06 00 fa 44 ff ff f9 44 00 00 fa 44 fe ff f9 44
       2000.0007 1999.9999 2000.0 1999.9998
000310 fe ff f9 44 02 00 fa 44 00 00 fa 44 fe ff f9 44
       1999.9998 2000.0002 2000.0 1999.9998
000320 02 00 fa 44 fe ff f9 44 fc ff f9 44 fc ff f9 44
       2000.0002 1999.9998 1999.9995 1999.9995
000330 ff ff f9 44 00 00 fa 44 01 00 fa 44 fe ff f9 44
       1999.9999 2000.0 2000.0001 1999.9998
000340 01 00 fa 44 02 00 fa 44 fe ff f9 44 fa ff f9 44
       2000.0001 2000.0002 1999.9998 1999.9993
000350 03 00 fa 44 fb ff f9 44 00 00 fa 44 06 00 fa 44
       2000.0004 1999.9994 2000.0 2000.0007
000360 0a 00 fa 44 01 00 fa 44 01 00 fa 44 fe ff f9 44
       2000.0012 2000.0001 2000.0001 1999.9998
000370 03 00 fa 44 fe ff f9 44 02 00 fa 44 fd ff f9 44
       2000.0004 1999.9998 2000.0002 1999.9996
000380 02 00 fa 44 02 00 fa 44 ff ff f9 44 02 00 fa 44
       2000.0002 2000.0002 1999.9999 2000.0002
000390 02 00 fa 44 fe ff f9 44 fe ff f9 44 01 00 fa 44
       2000.0002 1999.9998 1999.9998 2000.0001
0003a0 02 00 fa 44 01 00 fa 44 ff ff f9 44 06 00 fa 44
       2000.0002 2000.0001 1999.9999 2000.0007
0003b0 08 00 fa 44 fd ff f9 44 fe ff f9 44 03 00 fa 44
       2000.001 1999.9996 1999.9998 2000.0004
0003c0 ff ff f9 44 04 00 fa 44 03 00 fa 44 01 00 fa 44
       1999.9999 2000.0005 2000.0004 2000.0001
0003d0 00 00 fa 44 06 00 fa 44 fc ff f9 44 01 00 fa 44
       2000.0 2000.0007 1999.9995 2000.0001
0003e0 03 00 fa 44 fa ff f9 44 02 00 fa 44 02 00 fa 44
       2000.0004 1999.9993 2000.0002 2000.0002
0003f0 ff ff f9 44 f7 ff f9 44 01 00 fa 44 02 00 fa 44
       1999.9999 1999.9989 2000.0001 2000.0002

actor.conv1.bias f4 [21]
000000 99 a7 ae bc 7a 26 2e bc 56 2e 7b bd d5 7a 99 bb
       -0.021320151 -0.010629291 -0.061323486 -0.004683832
000010 ee 0a 0e 3d 5a 2a 82 bc 08 cd a5 3d 60 b1 b0 3d
       0.034678392 -0.015889335 0.08095747 0.086275816
000020 92 cc a9 3d f1 64 0e bb 47 25 3e bd 75 dd 2f 3c
       0.08290972 -0.0021727646 -0.04642227 0.010733952
000030 0a 35 44 3d c8 73 bd bb 00 00 00 00 00 00 00 00
       0.047902144 -0.0057816245 0.0 0.0
000040 4d 35 8b 3c 9c 5b c1 3d 8d 83 a8 3c a8 06 71 3d
       0.01699319 0.09441301 0.02057054 0.05884424
000050 e2 a4 3a bb
       -0.0028479625

actor.conv1.lin.weight f4 [21, 21]
000000 cc b4 a2 3e 21 79 b5 bd 79 87 8f 3d 94 f6 da 3d
       0.31778562 -0.08860994 0.07008261 0.10691562
000010 ba 99 9f 3e 27 bf 97 be 75 18 b7 be 3e 69 72 3d
       0.31171972 -0.29638025 -0.35760847 0.059182398
000020 df 1f 6e be d1 9f ba 3d a1 12 c7 bc 27 6e 77 bd
       -0.23254345 0.09112514 -0.024300875 -0.060407784
000030 33 25 86 be 69 e6 cf bd 51 3b e2 3d ed f2 c2 be
       -0.26200256 -0.10151369 0.1104647 -0.38075963
000040 bb 2a a3 3d 28 be 9a 3e 4c 07 09 3e e2 e7 a4 3d
       0.079671346 0.30223203 0.1338169 0.08052041
000050 e3 bd 8e bd ca f1 15 be 07 6a 89 bd 9b a2 42 be
       -0.06969812 -0.14643016 -0.06709676 -0.19007342
000060 3c 44 1d 3d 5e bd 98 be 77 f1 9a be 59 52 6c be
       0.03839515 -0.29831976 -0.30262348 -0.23078288
000070 2f 66 e8 3c e5 24 8b 3e fd 49 e7 3d b2 3c 81 3e
       0.028369037 0.27176586 0.11293409 0.2524162
000080 ee 66 53 3e 46 0c 6f be 7d b9 e4 bc 76 79 a6 3e
       0.20644733 -0.23344526 -0.027920479 0.32514542
000090 c3 27 f8 bd 36 3b 2d be 60 61 c3 3d 45 ba bf be
       -0.12116959 -0.16917118 0.09540057 -0.374468
0000a0 6e b4 4a 3e 13 14 82 be 32 a2 38 bc f8 36 ed 3d
       0.19795391 -0.2540594 -0.011269139 0.1158275
0000b0 9d 81 6c bd 4a aa 0b 3e 22 83 49 3e 73 93 ec 3c
       -0.057740796 0.13639179 0.1967893 0.028878903
0000c0 e2 a0 a8 be e1 b0 e2 3b 75 11 54 be a7 e5 bf 3d
       -0.32935244 0.0069180583 -0.20709784 0.093699746
0000d0 6d 2f 89 be cb b4 2e 3e ed d5 7a 3c af cb 29 3e
       -0.26793995 0.17061155 0.015309793 0.16581605
0000e0 1e a8 5b be 5b 4d 0f bd 16 13 85 3e 97 d6 34 be
       -0.2145085 -0.03498588 0.25991124 -0.17659985
0000f0 6f 67 c0 be 89 f2 87 3d 18 c2 1c 3e 4a 50 97 3d
       -0.37578914 0.06638057 0.15308416 0.07388361
000100 90 77 b6 3e 7b 88 91 be 37 53 2e 3e f9 2f 0a be
       0.35638094 -0.2842444 0.17023931 -0.13494863
000110 8d 8c a8 3e 29 31 71 3e 08 aa 44 bd f7 66 42 bd
       0.32919732 0.2355391 -0.048013717 -0.047461476
000120 79 3a 75 3e 4f 1f 97 be 36 16 fd bc 76 f7 3b be
       0.23948087 -0.29516074 -0.03089438 -0.18356118
000130 5d 6e 5c 3e ad cb 7a be f5 6a 3f be 26 12 8e be
       0.21526475 -0.24491759 -0.18693145 -0.2774822
000140 97 14 fe 3d 84 f6 73 be ea b3 38 bd cd 26 a4 3b
       0.12406271 -0.23824507 -0.045093454 0.005009508
000150 62 28 f2 3e d3 47 be 3e 9d d9 ca 3e 63 85 c4 3e
       0.47296435 0.37164173 0.3961915 0.38383016
000160 a7 bf 32 bd 2f 7e b0 3e 5d ec c7 3e 3d 5b f5 3e
       -0.043639805 0.3447127 0.39047518 0.47921172
000170 7c 10 03 3f 9f a3 42 3e a8 3e ef 3d a0 b7 bd 3e
       0.5119703 0.19007729 0.116818726 0.37054157
000180 7b db a6 3e bd d5 ba 3e 66 33 90 be d9 0e c0 3e
       0.32589325 0.36491194 -0.28164214 0.37511328
000190 32 92 5f 3e e3 9f cb bd 24 6e a3 3e 4a 48 a2 3e
       0.21833113 -0.09942605 0.31919968 0.31695777
0001a0 72 4d 8f 3e a9 83 fd 3d c8 5a 74 be 56 30 ce 3c
       0.27988774 0.12378628 -0.23862755 0.025169533
0001b0 73 ec 08 be 61 63 73 bd b1 8c 28 3e 10 38 8b 3c
       -0.13371448 -0.059420947 0.1645992 0.016994506
0001c0 4e 9d d4 3d 13 6f 82 be 5b 71 7a 3e df 4d 69 be
       0.10381566 -0.25475368 0.24457304 -0.22783612
0001d0 38 fc 08 be d2 58 a0 3e ec ac a7 3e d6 d5 5a be
       -0.13377464 0.31317765 0.32749116 -0.21370634
0001e0 d5 ef 28 3e a4 d3 78 be b5 97 88 3e 20 c4 81 bd
       0.16497739 -0.24299484 0.26678243 -0.06336236
0001f0 09 3f c1 be d8 93 89 be 4c 86 03 3e ce 53 13 3e
       -0.37743405 -0.26870608 0.12844199 0.14387438
000200 ce be c3 3e 9c c3 08 be ea be 7e 3e 0c 21 9d 3a
       0.3823151 -0.13355869 0.24877515 0.0011987998
000210 4b 15 0c 3f 6a 88 d9 3c d2 08 9f 3d c0 13 19 3f
       0.5471999 0.026554305 0.07765354 0.5979576
000220 62 4a 25 3e 63 84 ce 3d 98 02 36 3e fa 96 e8 3d
       0.16141656 0.100838445 0.17774427 0.113569215
000230 30 70 71 3e 04 a4 8b 3e 20 07 90 3d 20 1d dd 3e
       0.23577952 0.27273571 0.07032609 0.43186283
000240 97 7e a2 3e 0d 96 82 be 9a 1e 9e bd 19 9a 7f bd
       0.31737205 -0.25505105 -0.077206805 -0.06240282
000250 75 7f ba 3e f4 9b b9 3e 3a 81 ec 3e 1b cf 00 3f
       0.36425367 0.36251795 0.46192342 0.5031602
000260 6b 74 ef 3c b3 4a f6 3e 35 8d 9a 3e 85 83 31 3e
       0.029230317 0.48103866 0.30185857 0.17335327
000270 bf 1e dc 3e f6 56 f1 3d db 9b 55 be 75 3a 52 3e
       0.42992207 0.117841646 -0.20860235 0.20530112
000280 09 e8 6c 3e 9b 18 03 3d dc 05 f1 3e 8f bf 8b 3e
       0.2313539 0.032005887 0.47074783 0.27294585
000290 31 5f 3c 3d 5e af f1 bc 65 9c 7e 3e 18 44 c9 3e
       0.04598922 -0.029502567 0.24864347 0.39309764
0002a0 4b a9 18 3d cc 34 3b 3e e9 62 25 3e 06 64 f7 3e
       0.037270825 0.18281859 0.16151012 0.483185
0002b0 51 2d 0d 3f af cf 44 3e bc c9 05 3f 18 bd 0d 3f
       0.5514727 0.1921985 0.5226095 0.5536666
0002c0 6c 16 53 3d cf bf 60 bd 45 44 08 3f 1f 81 3f 3e
       0.051535055 -0.054870423 0.5322917 0.187016
0002d0 e3 8c 6f be a7 95 d8 3e 17 ee f1 3e 4f 52 cc 3e
       -0.23393588 0.42301676 0.4725196 0.39906546
0002e0 89 37 a5 3d a6 95 8d 3e d4 51 a2 3e ae cd 19 be
       0.08067233 0.27653235 0.31703055 -0.15019867
0002f0 01 d7 57 3d f5 f7 76 3e 95 16 89 be 44 ee 9b 3e
       0.052695278 0.24118026 -0.2677504 0.3045522
000300 6f ca 6f 3e 7e 71 8d 3d 03 90 6d be 79 04 a6 be
       0.23417066 0.069064125 -0.23199467 -0.32425287
000310 41 2f 97 3e 37 5a 8d 3e 4d fc d0 3d 96 2a a8 3e
       0.2952824 0.2760789 0.102043726 0.3284499
000320 c9 ca 8d be f8 57 d0 3d 74 3b a0 be 05 bd 55 3d
       -0.27693775 0.10173029 -0.3129536 0.052182216
000330 77 a0 8c bb 5a 98 6b 3e 6a 9d 44 be 73 33 a9 be
       -0.00429159 0.23007336 -0.19200674 -0.33047065
000340 02 60 c1 3d e1 34 a5 bd 3c df 24 bc 7f c6 88 be
       0.0944214 -0.080667265 -0.010062989 -0.2671394
000350 14 1f 6d 3e 2a ce 89 3e 40 06 2e be e6 ba 9a be
       0.23156387 0.26915103 -0.16994572 -0.30220717
000360 53 b8 3d 3e 3a 82 9f be 04 04 47 be 00 83 c5 be
       0.18527345 -0.31154042 -0.19435126 -0.38576508
000370 99 00 89 be bf e1 81 bd 7d f7 00 3e bc f4 58 be
       -0.26758268 -0.06341886 0.1259441 -0.21187109
000380 a4 91 8a 3e a0 22 a4 bd 89 ee d8 3c 89 0c 52 be
       0.2706424 -0.08014417 0.02648093 -0.20512594
000390 1d bf 8c 3e 81 dd 50 be 84 3c 90 3d 24 1e 5b 3e
       0.27489558 -0.20396997 0.070427924 0.21398216
0003a0 ee 04 b9 3d 2d 1b 06 3e 86 50 9c be 6a bd 25 3e
       0.090341434 0.13096304 -0.30530185 0.16185537
0003b0 ad 4d b2 3e 48 bf 8b bb 83 1b e6 3d 2c 1c 41 be
       0.34824887 -0.004264746 0.11235716 -0.18858403
0003c0 06 54 c7 3d d5 f2 28 3d 9e 64 e9 bd 91 43 a9 3d
       0.09732823 0.041247208 -0.11396144 0.082648404
0003d0 80 b5 1f 3d eb a2 b4 be 7d 23 6c 3e ed 32 9c bd
       0.03899145 -0.35280547 0.23060413 -0.07626901
0003e0 75 d0 e1 3d f2 3b b8 be 0d ba 03 be ed bf 8a bc
       0.11026088 -0.35983235 -0.12863941 -0.01693722
0003f0 5c 36 b8 3e b4 d5 22 bd 00 96 84 3e 7f 4f 91 3e
       0.35978973 -0.039754584 0.2589569 0.28380963

actor.lin1.weight f4 [32, 21]
000000 16 8c d0 bd 98 ef bb bd 3d b1 16 be 5b 67 64 3e
       -0.10182969 -0.09176558 -0.14716049 0.22305052
000010 08 31 2d bd e8 75 a1 bc 25 99 1f bc e6 1a b0 bd
       -0.042283088 -0.019709542 -0.009741102 -0.085988805
000020 ba 64 16 3e 81 ae f2 bd 03 ef a6 3d 58 25 0f 3e
       0.14686862 -0.1184969 0.081510566 0.1397909
000030 86 da e8 bd c4 42 75 bc d8 f6 f3 bd 9d 2f 04 be
       -0.11369805 -0.014969531 -0.11912316 -0.12908788
000040 d3 82 be bd 70 30 5e bd bc 45 c9 bd 55 98 ed 3d
       -0.093022965 -0.054245412 -0.09827754 0.11601321
000050 3f 81 1d 3c 41 a0 c1 3e 23 74 a0 3e 26 30 c2 3c
       0.009613334 0.37817577 0.31338605 0.0237046
000060 c3 38 fb 3d 33 e2 a8 3e fb 3a d8 3e 8b dc 36 3c
       0.12266686 0.32985076 0.422325 0.01116098
000070 74 37 b5 3e b2 2b cd 3e 1a 3e a5 3e 69 6d d9 3e
       0.3539387 0.400724 0.32273942 0.42466286
000080 42 4e df bd f4 e6 11 be 4a ef a0 bd 83 04 bc bd
       -0.10903598 -0.14248258 -0.07858141 -0.09180548
000090 16 94 a6 be 27 d5 4c bd 92 ae 23 3e 00 33 eb 3d
       -0.32534856 -0.050007965 0.15984562 0.11484337
0000a0 26 29 18 3e ad c6 19 be a6 cd c4 3e c7 d0 d0 3d
       0.14859447 -0.15017195 0.38438147 0.10196071
0000b0 94 cc 6d 3d 91 75 ad 3e 63 04 be 3d e3 9f e9 3e
       0.05805643 0.3387876 0.092781805 0.45629796
0000c0 65 35 43 3e dc 39 94 3e 01 dd 3e 3e 95 1a 9e 3e
       0.19063337 0.28950393 0.18638994 0.30879655
0000d0 08 f6 3d 3e ed ea b1 bd ed a8 0c bd fa 9d 6c be
       0.18550885 -0.08687387 -0.034340788 -0.23107138
0000e0 d0 15 33 be 03 6d c3 bd 60 3b da 3d 5b 4d 8e 3c
       -0.1748879 -0.09542277 0.10655856 0.01737087
0000f0 6b fe cf bb 24 be dc 3d db 21 17 3d dd 1d 7a 3e
       -0.0063474677 0.10778454 0.03689752 0.24425454
000100 96 38 87 3e 15 70 10 3e bf 74 fd 3e df 9a 8b 3e
       0.2641036 0.14105256 0.49503133 0.27266595
000110 c4 41 8f 3e ff 49 b3 3e 67 56 8e 3e a1 c0 a5 3e
       0.27979863 0.35017392 0.27800295 0.32373527
000120 e8 f4 0a 3f ce 32 ee 3e d0 44 52 be 9d 37 45 bd
       0.5427995 0.46523136 -0.20534062 -0.04814874
000130 46 e2 a4 bc 10 2e 81 bc af 0f f4 3d 06 87 0a bd
       -0.020127427 -0.015769035 0.11917054 -0.033820175
000140 34 4f 72 be d5 99 33 be cd e3 d0 3d 90 0a b5 bd
       -0.23663026 -0.17539151 0.101996996 -0.08839905
000150 21 67 5c bd 90 9a bc 3d 55 e5 10 be e9 0a d1 3d
       -0.05380929 0.09209168 -0.14149983 0.10207159
000160 1d f0 65 be de 78 0a be d0 51 8a 3d 2e d3 b2 bd
       -0.22454877 -0.1352267 0.06753886 -0.087316856
000170 2c 02 6a be ff a7 1c bc d2 a3 ac bd 8a a6 08 be
       -0.22852391 -0.009561538 -0.08429684 -0.1334478
000180 24 2b b0 3d 94 b4 e8 bd 44 d3 15 be 28 e8 c8 3d
       0.086019784 -0.113625675 -0.14631373 0.09809905
000190 d9 81 d0 3d 47 77 68 3c 4a c5 87 bd 70 0a 26 3e
       0.101810165 0.014188594 -0.06629427 0.16214919
0001a0 77 17 01 be b7 40 3d 3d 21 bc b4 3e 63 34 e6 3d
       -0.12606607 0.046204295 0.3529978 0.11240461
0001b0 05 55 a8 3d e7 3c d9 bc a1 db 97 3e 64 d0 b8 3e
       0.08219341 -0.026518298 0.2965975 0.3609649
0001c0 b0 0b 45 3e ab c3 52 bd e1 d3 8a 3e d0 73 34 3e
       0.1924274 -0.051456135 0.27114776 0.17622304
0001d0 f3 a9 25 bd 06 76 a1 3d fa 1b a3 3d 81 8f 23 be
       -0.04044528 0.07883839 0.079643205 -0.15972711
0001e0 33 42 3a bc fc 47 2b 3d e8 c2 ff 3d c3 d2 93 3d
       -0.011368322 0.041816697 0.12488347 0.07217934
0001f0 46 84 e5 bd f5 ec 27 bd 30 9e 3f be d8 cc 69 be
       -0.1120687 -0.040997464 -0.18712687 -0.22832048
000200 63 50 e1 3d 75 4f 74 bd f3 27 80 bd 87 47 39 3e
       0.11001661 -0.05964609 -0.0625762 0.18093692
000210 13 25 e0 3d e2 2c 52 be 96 b7 f3 3d 2b 90 40 be
       0.10944571 -0.20524934 0.119002506 -0.18804996
000220 35 21 52 3d c0 0d 4a bc d6 55 cc 3c 72 f9 b2 bd
       0.0513012 -0.01233238 0.024943274 -0.08738984
000230 be f2 32 3e de eb 27 be 4b 58 62 bd 11 d3 f5 3b
       0.17475411 -0.1639857 -0.055259984 0.0075019677
000240 66 14 24 3d 13 90 54 bd f8 68 3f bd db e2 ce 3e
       0.040058516 -0.051895212 -0.046730965 0.40407452
000250 15 72 a7 3e 37 da ad 3e 0d 25 29 3e c1 d4 24 3e
       0.32704225 0.33955547 0.1651804 0.16096784
000260 6b 8f f0 3e 25 c4 d2 3e 66 b7 72 3e 34 bd cb 3e
       0.4698442 0.4116527 0.23702773 0.39792788
000270 4a c7 c9 3e cd 7b d6 3e 74 6a 53 bd df 73 12 3d
       0.39409858 0.41891328 -0.051615193 0.035755035
000280 06 55 09 3c 9a 81 04 be b8 71 61 be a5 4d 95 bd
       0.008382088 -0.12940064 -0.22016037 -0.072902
000290 48 16 8c 3d bc 07 5e be 5a 8a c5 3d e0 ce 1f be
       0.06840187 -0.21682638 0.09645529 -0.1560626
0002a0 b8 f5 0a be 00 e4 13 3e 03 64 15 bc 39 1f 21 3e
       -0.13570297 0.14442444 -0.009118083 0.15734567
0002b0 4d 46 2b be d1 24 46 be 67 d2 3b be 63 6f 80 3d
       -0.16726036 -0.19349982 -0.18341981 0.06271245
0002c0 5b 6f 99 39 ab 46 38 3e e3 c5 12 bd 48 d8 f5 bd
       0.000292654 0.17995708 -0.03583325 -0.12004143
0002d0 e1 25 de bd 93 bc 14 be 6c fc b3 bc d5 11 33 be
       -0.108470686 -0.1452506 -0.02197095 -0.17487271
0002e0 93 6f 8b bd 0f c8 f5 3c df e1 c1 3d 84 65 f1 3c
       -0.068083905 0.030002622 0.094669096 0.029467352
0002f0 48 11 2e 3e ab fc 90 3e 4b 45 d0 3e b0 8f 62 3d
       0.1699878 0.2831777 0.40677866 0.055312812
000300 fa 1e a0 3d 4e f3 23 3e 81 bc 3f 3e 28 01 d4 3e
       0.07818408 0.16010782 0.18724252 0.41407132
000310 e6 4d a4 3e d6 5c cd 3e 23 d8 10 3f 0b 0d 50 3e
       0.32090682 0.4010989 0.565798 0.20317475
000320 9e 9b 6f be 8b 45 80 be a1 ee 06 be 66 b7 d4 3d
       -0.23399207 -0.25053057 -0.13176967 0.10386543
000330 f5 ac 2d bc 74 ed 96 be 2c 32 0c 3d 3a c1 c3 bc
       -0.010600318 -0.29478037 0.034227535 -0.023895849
000340 7a 0c 01 3c ad 00 81 3d 1d 00 52 be 61 f4 ba bd
       0.00787651 0.06298957 -0.20507856 -0.09128643
000350 84 12 ae 3d 66 64 39 3e 86 16 5c be da 25 10 3d
       0.08499625 0.18104705 -0.21492967 0.035192348
000360 49 af 57 3e bc ec 2f 3d 94 51 e0 3d d7 d4 0a be
       0.2106296 0.042950377 0.1095306 -0.13557754
000370 03 15 51 be f1 4a d2 3d 9a 9b 0d be 30 70 1b be
       -0.20418172 0.102682 -0.13828889 -0.15179515
000380 00 5d c1 3c ac 53 4f 3e 26 4d 68 3d c3 83 1f bd
       0.023603916 0.20246762 0.0567142 -0.038944017
000390 08 b0 c1 bc 29 50 d1 bd 2e d5 e0 bd 91 db 2c 3d
       -0.023643509 -0.102203675 -0.10978161 0.042201582
0003a0 ab 35 35 be 2e e2 92 be 60 d8 93 be a0 66 8d be
       -0.17696254 -0.28688186 -0.2887602 -0.2761736
0003b0 22 49 17 be 13 3f 74 be 1c 91 ac 3d b6 fb 6e be
       -0.14773992 -0.23852186 0.08426115 -0.23338208
0003c0 70 cb f7 bd 58 16 93 3d 74 16 ef 3d 2c 8d 2c 3e
       -0.120993495 0.07181996 0.116742045 0.16850728
0003d0 86 2e f9 bd 53 31 12 b8 72 4f 37 3e fc da 9b bc
       -0.12167077 -3.485505e-05 0.179014 -0.019025318
0003e0 71 f8 3c be 2d 7f 04 3e 38 87 c1 3d 65 a4 3f 3e
       -0.18454148 0.12939139 0.09449619 0.18715055
0003f0 28 03 0c 3f ec 3b cc 3e 69 28 80 3e ea 21 11 3e
       0.54692316 0.39889467 0.2503083 0.14173093

actor.lin1.bias f4 [32]
000000 fc fe 3c 3e ad 28 28 3c ec 5a 29 3d 78 b4 b0 3d
       0.18456644 0.010263604 0.041346475 0.08628172
000010 06 58 2c 3e 45 74 ac bb ce 4a 2b be a3 f6 96 3d
       0.16830453 -0.005262884 -0.16727754 0.07371261
000020 91 3e 97 bd 3e 98 60 3d 62 f4 81 bd e9 23 ec 3c
       -0.073849805 0.05483269 -0.063454404 0.028825717
000030 73 b2 22 3e 80 15 ab 3d 94 d4 1c bd f5 56 e4 3c
       0.15888385 0.0835371 -0.038288668 0.027873496
000040 09 69 1a 3e 46 55 5b 3e 81 e3 39 3e 4b 09 94 3e
       0.1507913 0.21419248 0.18153192 0.2891334
000050 73 ce 4c be 01 9a 78 3c 33 2c 29 3e cc ab 0c 3e
       -0.20000629 0.015173436 0.16520767 0.1373741
000060 98 74 98 bc dd a8 34 bd bf a5 69 bd 3c ee 64 3e
       -0.018610284 -0.044106353 -0.057042833 0.22356504
000070 64 b0 3b 3d a4 e6 40 3d e4 90 60 3e 79 2d 57 be
       0.045822516 0.047094956 0.21930271 -0.2101344

actor.lin2.weight f4 [32, 32]
000000 fc 68 02 be 91 54 0d 3e 32 fa 88 3e c0 c2 b1 3e
       -0.12735361 0.13801791 0.26753384 0.34718895
000010 aa 27 38 be a8 d0 fb 3d 4a cf 9e bc c1 07 a0 3e
       -0.1798388 0.122956574 -0.019385953 0.31255916
000020 f5 4a 1f be 19 56 62 3e f7 a0 7e 3d 27 13 eb 3c
       -0.15555938 0.22103156 0.062165227 0.028695656
000030 8e fd c4 3e 6f 50 ff 3d dd c0 86 3e 96 1b ef 3d
       0.38474697 0.12466513 0.26319018 0.116751835
000040 c0 62 11 be 05 99 20 bd cf 31 21 3e 42 82 b9 3e
       -0.14197826 -0.03920843 0.15741657 0.3623219
000050 77 ef fa bc 98 fe 84 3e 6d 2f c7 3c 4d 95 12 3e
       -0.030631764 0.2597549 0.024314607 0.14314766
000060 ac e9 00 3d f0 f9 bc bd 65 1a 7b bd 45 c7 74 3e
       0.031472847 -0.09227359 -0.06130447 0.2390414
000070 60 e6 e6 3d 12 b8 84 3d 22 01 5f 3e 7c 5b ce bd
       0.11274409 0.06480421 0.21777776 -0.10076043
000080 e5 1e bb bd db 6a 30 be e6 a6 09 be c0 28 0f bd
       -0.09136752 -0.17228262 -0.13442573 -0.03495097
000090 7b c2 27 3e ab d3 93 bd 90 a0 27 bd da a0 2e be
       0.16382782 -0.07218107 -0.04092461 -0.17053548
0000a0 81 11 2a be c4 37 60 bd 6c 97 76 bd fb 1a 0c 3e
       -0.1660824 -0.054740682 -0.060203 0.13682167
0000b0 30 ab d6 bd c2 9d ec bd 74 0a 2d 3d 30 70 39 bd
       -0.1048187 -0.115535274 0.042246297 -0.045273006
0000c0 75 3e 32 3e 0e 2c 95 3d c8 38 85 bc 00 9c 76 3c
       0.17406638 0.072837934 -0.016262427 0.015051842
0000d0 48 ef 27 be 9c cf 3b 3d 2c e6 ea bd de a9 92 bd
       -0.16399872 0.04585229 -0.11469683 -0.07161306
0000e0 10 72 0c bd 2f bb 85 bd 80 46 94 bc 19 19 92 bd
       -0.034288466 -0.06529843 -0.018100023 -0.07133693
0000f0 e0 0b a0 3b 90 50 64 3c 28 b4 ae bc 96 61 c4 3d
       0.004884228 0.013935223 -0.02132614 0.095889255
000100 54 41 8b bd 0b 03 33 bd 7e 71 26 bc 15 ac 90 3c
       -0.0679957 -0.043704074 -0.010158895 0.01766018
000110 39 84 22 bc 1c a7 2f 3e 71 0a 19 3e 7e 62 18 be
       -0.00991922 0.17153591 0.1494539 -0.14881322
000120 b9 cb 1a be 52 22 e6 bd 88 89 4e bd 69 04 0f 3e
       -0.15116777 -0.11237015 -0.05042413 0.13966526
000130 10 0c 50 bd d7 b4 bc bd 60 19 a9 bc 01 21 97 3d
       -0.050792754 -0.0921418 -0.020641983 0.07379342
000140 95 60 24 bc c1 9f 08 3d 54 91 e8 3d 26 07 db bd
       -0.010032793 0.03335548 0.11355844 -0.10694723
000150 30 31 f7 bd 85 6e 0d be 12 7c 6c bd 04 43 d8 3d
       -0.12069929 -0.13811691 -0.05773551 0.10559657
000160 44 a8 2a 3d 39 57 b4 bd 73 e0 f2 bd 5f 5d e7 3d
       0.041664377 -0.08805699 -0.118592165 0.11297106
000170 ef b6 31 bc ae 7e 9a 3d f0 f1 8b bd 26 de a2 3d
       -0.010846837 0.075436935 -0.06833255 0.07952528
000180 33 0b 30 be 4b 42 64 3e 84 64 88 3d 50 26 03 3e
       -0.17191772 0.22290914 0.06659797 0.12807584
000190 39 2f fa 3d 8b 8c 25 3e 81 32 f1 3c 89 7a 42 3e
       0.12216038 0.16166894 0.029443027 0.18992056
0001a0 f6 c2 b1 bd f4 5e 14 3e 98 c3 1a bb 64 d2 96 bd
       -0.08679764 0.14489347 -0.0023615118 -0.073643476
0001b0 19 b7 5f 3e 7a 4f 20 be fe a4 ef bc 74 69 1f 3d
       0.2184719 -0.15655318 -0.02925348 0.038918927
0001c0 b0 47 01 3e a6 6f 07 3e de 1a 8f 3d 13 23 bc 3e
       0.12625003 0.13226184 0.069875464 0.3674551
0001d0 5b 0c e7 bd 20 2e 6e 3e 2e 1e dd 3c d5 9f 0c 3e
       -0.112816535 0.23259783 0.02699193 0.13732846
0001e0 e0 ef 11 3d 31 79 24 be cf 65 03 3e 98 fb 5b 3e
       0.035629153 -0.16061856 0.12831806 0.21482694
0001f0 69 69 af bd 06 0f c8 bd a5 f2 12 3e 95 71 32 3e
       -0.08565027 -0.097684905 0.14350374 0.1742614
000200 98 7a 13 be 9c fc 32 be 53 cc 63 3d 8b 2e 19 3e
       -0.14402235 -0.17479175 0.05561478 0.14959161
000210 26 20 f9 3d 31 37 83 bb 82 0f 81 3d dc 42 b5 bd
       0.12164335 -0.004004382 0.06301786 -0.08850643
000220 08 85 93 bc 86 c7 90 3d 78 ec 4c bd e3 78 47 bd
       -0.01800777 0.07069306 -0.0500302 -0.04869927
000230 94 14 0f bd ab d2 88 bd 0c bc 7f 3d f6 68 08 bc
       -0.034931734 -0.06680807 0.062435195 -0.008325806
000240 22 ac d4 3d e1 c5 a2 bc 9f 7b ed 3d d4 b4 dd bd
       0.10384394 -0.019869747 0.115958445 -0.10825506
000250 d4 05 3b bd e8 ee fe 3d 40 22 84 3b 73 fa 22 be
       -0.045659855 0.124479115 0.004032403 -0.15915851
000260 86 b3 b9 3d 0a 17 14 be df 34 ae bd e5 0f da 3d
       0.090674445 -0.14461914 -0.08506178 0.10647563
000270 a5 bc 17 3e d5 e8 14 be b4 7e 3c be 98 0f ad bc
       0.14818056 -0.14541943 -0.18407708 -0.0211256
000280 79 8a 15 be 4d d3 81 3e 32 dd 21 3e 3a 36 c2 3e
       -0.14603604 0.25356522 0.15807036 0.37931997
000290 59 7c e4 bd 98 c9 2b 3e 54 ba 95 bd b5 80 c9 3e
       -0.1115653 0.1677612 -0.0731093 0.39356008
0002a0 bf 37 0c be 5d 4c 31 3e a3 0d 10 be 63 0c 27 be
       -0.1369314 0.17314287 -0.14067702 -0.16313319
0002b0 f7 33 aa 3e 26 95 41 bd f5 21 da 3d 89 e4 98 3e
       0.3324277 -0.04726138 0.10651008 0.29861858
0002c0 93 77 0b be 80 3d 4e 3e 20 11 82 bd 2b 7a 68 3e
       -0.13619833 0.20140648 -0.063509226 0.22702853
0002d0 98 ed 8e 3d e1 40 6e 3e ec 44 eb bd 18 fa 47 3d
       0.06978911 0.23266937 -0.11487755 0.048822492
0002e0 5d dd 25 be a0 48 3b 3d e4 ef 02 be e0 83 24 3b
       -0.16197725 0.045723557 -0.12786824 0.0025103018
0002f0 95 e1 23 be 0e f1 b4 3d 3c 5a ae 3e 97 97 ef bd
       -0.16004021 0.0883504 0.34053218 -0.11698835
000300 c8 1e 0e be d6 4b 36 be e9 b7 80 ba 74 04 25 3c
       -0.1387893 -0.17802367 -0.0009820434 0.0100718625
000310 88 5d 01 be 2b 2e 7e bd 4f f0 2c be 81 e4 35 be
       -0.12633336 -0.062055748 -0.16888545 -0.17762949
000320 98 d7 a0 bc a5 0c 3a 3d 61 ef 80 bd 10 5a d9 3d
       -0.019634053 0.045422215 -0.06295658 0.10612881
000330 4b 1c f0 3d 48 4a 53 3d ae cc f3 3c 92 9b b3 bc
       0.117241465 0.051584512 0.029760685 -0.021924768
000340 42 8f 5b 3c 47 33 37 be b9 43 1d 3e 1f f7 39 be
       0.013400855 -0.17890655 0.15357865 -0.18160675
000350 e8 23 89 bd 4c e7 a0 3d 33 b9 12 3e 52 88 2b be
       -0.06696302 0.078566164 0.1432846 -0.16751221
000360 74 7f 5c bd 77 fe 27 3e f3 e9 42 be 0e 56 c4 3d
       -0.053832486 0.16405664 -0.19034557 0.09586726
000370 30 fc 7e 3d e4 fa 74 3d 71 00 1b be a0 cb 09 be
       0.062252223 0.05980958 -0.15136887 -0.13456583
000380 2a f2 d8 3d 64 7c 48 3e 10 ef af 3d e3 cd c8 3e
       0.10593064 0.19578701 0.085905194 0.3921958
000390 a7 42 ec 3d 4b fe 0b 3e 11 08 b8 3d 33 ce aa 3e
       0.115361504 0.13671224 0.089859135 0.33360443
0003a0 26 45 28 3e f1 87 1f 3e a3 8e 2f be 32 c0 05 be
       0.16432628 0.15579201 -0.17144255 -0.13061598
0003b0 b3 8f 66 3e 3c 06 15 3e f3 ed c0 bd bf f2 79 3e
       0.22515754 0.1455316 -0.09420385 0.24409007
0003c0 92 13 02 3e 87 08 71 3e ec 46 0c 3d 25 aa 85 3e
       0.12702778 0.23538409 0.034247324 0.26106372
0003d0 fc f5 7d bd ee 4f 93 3e 6c a7 24 bc af 18 d1 3d
       -0.062002167 0.2877192 -0.010049682 0.10209786
0003e0 bb d2 02 be f1 e6 ab 3d 86 3b c0 bd f5 71 58 3e
       -0.127757 0.08393658 -0.09386353 0.21137221
0003f0 c4 b3 f6 bb 76 0b 96 3d 5c 65 94 3e c2 7a 9d 3d
       -0.007528754 0.07326405 0.2898358 0.0768943

actor.lin2.bias f4 [32]
000000 73 31 77 bd 40 10 4f bb be 4c da bd 7a 92 65 3e
       -0.060349893 -0.003159538 -0.10659169 0.22419158
000010 65 15 2b be d3 66 7e 3e 1b 41 85 bd 4a 4a 4b 3e
       -0.1670738 0.24843912 -0.065065585 0.19852558
000020 20 d4 72 3d 8d 80 c8 bd 7c 9d c6 bd 2a b8 f4 3d
       0.05928433 -0.09790144 -0.096980065 0.11949189
000030 e7 d4 e8 3c 52 0e af 3d 9f fd 1a 3e 3f 08 53 3e
       0.028421832 0.08547653 0.15135811 0.20608614
000040 97 ed 83 3d d1 a8 25 3e 4c 93 af 3d 6f e0 73 bc
       0.06441801 0.1617768 0.085730165 -0.014885052
000050 a5 1d 54 3e ee 77 92 39 04 a9 28 bc 52 ef 09 3e
       0.20714433 0.00027936645 -0.010294203 0.134702
000060 b5 a6 d1 bd 97 ba b4 3d b7 e6 87 bd ef 66 00 3e
       -0.10236875 0.08824652 -0.06635802 0.12539266
000070 00 e9 92 ba 8d a7 69 3d 81 b7 e4 3d b7 94 71 bc
       -0.0011208355 0.057044555 0.11167813 -0.014744929

actor.lin3.weight f4 [1, 32]
000000 8a 23 b6 3e c7 e0 19 3e 62 7a 0c be 7d d9 49 3e
       0.3557399 0.15027152 -0.1371856 0.19711871
000010 57 e0 0c bd 22 c9 83 3e 19 58 ad 3b dd 40 ab 3e
       -0.034393635 0.2573939 0.005290043 0.33447924
000020 ce e5 fa bd d2 60 b8 bd 8e ad a1 3e 5a 77 bc bd
       -0.12250863 -0.09002842 0.31577724 -0.09202452
000030 a9 78 d1 3e ab 51 83 3d b8 c3 5e 3e cf ad 5f 3e
       0.4091237 0.06412061 0.21754348 0.21843646
000040 e7 16 04 be 1f c0 d3 ba b3 db 92 3e 62 7c bc bd
       -0.12899362 -0.0016155279 0.28683242 -0.09203412
000050 79 bd 93 3e 94 3a c2 bc 42 65 d8 bd 3c f8 bd bd
       0.28855494 -0.023709573 -0.105661884 -0.092758626
000060 24 67 b9 bd 77 51 a9 bc e2 f6 93 3e ec 07 a9 3e
       -0.09052876 -0.020668728 0.28899294 0.33013856
000070 e4 15 6d bd 33 8e c2 3e 6a 89 79 3e 29 74 d0 3e
       -0.057882205 0.37999114 0.24368826 0.40713623

actor.convp.bias f4 [21]
000000 70 1f b3 3e 9f cb 14 3e 2c 13 af bd 00 00 00 00
       0.34984922 0.145308 -0.085485786 0.0
000010 a6 49 e9 3d c7 fe 8b bd 55 8a 0b bd 1d c8 8f be
       0.113910004 -0.06835704 -0.03406747 -0.28082362
000020 cb cd 0c be 83 c2 ac 3e 39 e2 15 3e 2d 29 27 3e
       -0.13750379 0.3374215 0.14637078 0.16324301
000030 97 91 c0 3d 0f 71 55 3e 7f 65 a3 be 14 d1 c6 3e
       0.09402769 0.2084391 -0.31913373 0.3883139
000040 8c a7 17 bc b4 79 c8 bc 36 05 d5 bc 2a a7 2b 3f
       -0.009256255 -0.024472095 -0.026003461 0.6705195
000050 0b 33 22 bd
       -0.03959946

actor.convp.lin.weight f4 [21, 21]
000000 04 0a 6b 3e 27 14 e9 3d 47 11 29 bd 7a 08 6d 3e
       0.2295304 0.11380797 -0.041276243 0.23147765
000010 b3 7f 9b 3c 9c 3b 37 bd 9d 0b 8c 3e 0b 86 90 be
       0.01898179 -0.044734582 0.2735261 -0.28227267
000020 c3 e7 6e 3e 95 5a dd be 4c aa 7c 3e 05 1f aa 3d
       0.23330598 -0.4323317 0.24674338 0.08306698
000030 32 f2 0f 3e 63 d9 2a be 8d 20 13 3e 50 75 22 3d
       0.14057234 -0.16684489 0.14367886 0.03966266
000040 ac 83 d4 3c 54 82 ef 3e 78 e6 5d 3e 8d a1 9c 3e
       0.025941692 0.4677912 0.21669948 0.30592003
000050 ab a5 ec bd 4d 56 77 3e fd cd 01 be d9 c0 07 be
       -0.11555036 0.24154015 -0.12676235 -0.1325716
000060 12 c1 f3 bc 35 5b 67 3d 1a be ef bb 70 e9 63 be
       -0.029755149 0.056483466 -0.007316363 -0.22257018
000070 c2 ef 44 be ee 73 84 bd f3 65 0c 3c 14 9e bd bd
       -0.19232085 -0.06467424 0.008569228 -0.09258667
000080 f9 06 b9 3e f6 60 9e bd 17 3e 4d bd f2 b5 18 bd
       0.36138132 -0.077333376 -0.05010804 -0.03728289
000090 0d f3 a3 3e 35 66 f1 bb b7 db 3f 3e 15 85 2d be
       0.3202137 -0.0073669204 0.18736158 -0.16945298
0000a0 e4 02 15 3e 52 53 b1 bd cc cc 65 bd 8e 88 8e be
       0.14551884 -0.0865847 -0.056103513 -0.27838558
0000b0 09 5c 8d 3e 79 0e 9b be bf 0b 96 be c9 96 83 be
       0.2760928 -0.3028448 -0.29305837 -0.25700977
0000c0 5c 51 65 3e 24 08 96 be 37 51 17 3e de af e6 bd
       0.22394317 -0.29303086 0.14777075 -0.11264013
0000d0 cb 6d 69 3e be 87 29 3e dd e1 c3 bd 12 e0 43 be
       0.22795789 0.16555688 -0.095645644 -0.19128445
0000e0 59 ea 98 3d a4 20 a8 bd c3 46 15 be 4a ca 88 3e
       0.07466573 -0.08209351 -0.14577775 0.26716834
0000f0 8b 74 59 3e 70 41 21 be 94 ce 33 be 7c 33 9a bd
       0.21235864 -0.15747619 -0.17559272 -0.07529351
000100 a4 af 9b bd b9 75 a3 be 22 a1 9b be 9f 43 7b be
       -0.0760186 -0.31925753 -0.30396372 -0.24537514
000110 cc 34 8b be 58 57 e9 bd 36 ef 41 3e 22 eb 9d be
       -0.27188718 -0.113936126 0.18938908 -0.30843455
000120 60 30 d2 3d 9c 91 23 be 70 be fc bc fe c7 11 3e
       0.10263133 -0.15973514 -0.030852526 0.14236447
000130 c8 5a 95 be f0 44 06 3d c0 9e 93 3d 37 0d ab be
       -0.29170823 0.032780588 0.072080135 -0.3340852
000140 43 5a 44 be e2 4f 04 3e 8c 79 24 be 42 4a 38 3e
       -0.19175057 0.12921098 -0.16061991 0.17997077
000150 45 34 1e 3e fb 11 87 be ca 0c 70 3e be 09 88 3e
       0.15449627 -0.26380906 0.23442379 0.26569933
000160 2f d9 b3 be cb 38 5f be a7 70 b7 bd 78 ff 4a 3d
       -0.35126635 -0.21799009 -0.089570336 0.04956004
000170 d3 28 f7 bc 04 74 9f 3e bb ad ac 3e 90 32 d5 3e
       -0.030170834 0.311432 0.33726296 0.4164014
000180 89 da 18 3e 4b 63 97 3e 35 27 81 bd 65 ea 84 3e
       0.14927115 0.29567942 -0.06306306 0.2596008
000190 5c 64 3e be a8 4a 5b 3d 81 6c c2 be 67 e2 a1 3e
       -0.18592972 0.053537995 -0.37973407 0.31618044
0001a0 63 7e 34 bd 6e 97 9c 3c b7 25 ef 3d 2a 65 e7 bd
       -0.044065844 0.019115176 0.116771154 -0.112985924
0001b0 4f 0f 2e bd 6f b9 26 3e 4d 66 2f be 69 9c 27 be
       -0.04249507 0.16281675 -0.17128868 -0.1636826
0001c0 ab 99 8d 3d 2d 62 83 be b7 be 8d 3e a2 16 28 be
       0.069140755 -0.2566084 0.27684566 -0.16414884
0001d0 59 c0 46 3e 5f 69 89 be a2 b8 a4 3d 9e be bd be
       0.19409312 -0.26838204 0.080430284 -0.37059492
0001e0 9e bc 1d 3d 55 e2 ae 3b 6a 47 48 3d bb 49 08 bc
       0.038509957 0.0053370395 0.04889623 -0.00831836
0001f0 4e 20 86 be 5f 5b 59 be 85 f0 60 be 11 65 35 3e
       -0.26196522 -0.21226262 -0.21966751 0.17714335
000200 e5 78 b8 bb b1 83 83 3e ed e4 38 bd 96 1d c0 be
       -0.005629646 0.2568641 -0.045140196 -0.37522572
000210 c1 af 7e bd a3 83 2a be bc a4 c1 be 0e 3a 30 3d
       -0.06217933 -0.16651778 -0.37820995 0.043024115
000220 50 90 97 bc 4e 85 bb be 54 0a ae be da 5b a6 bd
       -0.01850143 -0.3662514 -0.33992255 -0.08122988
000230 e9 e8 90 3e d8 19 4e 3e 69 37 22 3c 93 ef f0 bd
       0.28302696 0.20127046 0.009900906 -0.11764445
000240 ff c4 71 3d 6e b0 4d be a5 90 59 3e c9 00 6f be
       0.05902576 -0.20086834 0.21246584 -0.23340143
000250 cf 16 88 3e e1 22 4b 3e 20 13 b6 3e dc 5b 69 be
       0.26579902 0.19837524 0.35561466 -0.22788948
000260 60 23 8a be c3 d2 2e 3e 18 e7 18 3e 4f 81 89 3e
       -0.26980114 0.17072587 0.14931905 0.26856467
000270 f8 ac f5 bd 70 9b 8e 3e 64 77 6b bb 9c fc 0b bc
       -0.11995882 0.27852964 -0.0035929317 -0.0085441135
000280 af 6c 82 be d5 dd a6 3e 9a 78 9f 3e 58 9a 40 bb
       -0.25473544 0.3259112 0.311467 -0.002938887
000290 db 5f cc 3d 79 43 7e 3e b5 81 5d bd c5 55 a6 be
       0.099792205 0.24830426 -0.054078776 -0.32487312
0002a0 2e ad 87 3e 6d 76 aa be f8 35 40 bc 14 17 92 3e
       0.26499313 -0.33293477 -0.011731617 0.28533232
0002b0 bb f1 78 3e 3f 79 b6 bd a1 57 41 3d 0f 0f e5 b9
       0.24310963 -0.089098446 0.04720271 -0.00043689503
0002c0 23 6f 42 be a9 bc cc be 52 a5 05 bd df 6d 6b 3e
       -0.18987708 -0.39987686 -0.032628365 0.22991131
0002d0 43 3e a6 be 3e b4 54 3e 6d 6e 7a 3e 81 d3 8a be
       -0.32469377 0.20771882 0.24456187 -0.2711449
0002e0 b0 25 98 bd 4f 12 89 3e c5 9c de 3d 4f 04 76 be
       -0.07429063 0.2677178 0.10869745 -0.24025081
0002f0 61 50 b8 be 53 a6 91 ba eb 22 a9 3e 0d 2d 79 3e
       -0.35998824 -0.001111219 0.33034453 0.24333592
000300 ae 44 e2 3d 6c ea 18 3e 98 79 68 be a2 74 84 be
       0.11048256 0.14933175 -0.22702634 -0.25870234
000310 d5 43 67 3e 85 9f 24 3e 35 c9 24 be 86 1b 0b be
       0.2258447 0.16076477 -0.1609238 -0.13584718
000320 78 56 9b 3d 33 63 57 be a8 f8 ab 3e 05 a9 9d bd
       0.07584852 -0.21033935 0.33588147 -0.076982535
000330 2c 49 8a bd ef 4c a6 3d 12 7a 2e bd 72 2b 78 be
       -0.06752238 0.08120143 -0.042596884 -0.24235323
000340 a1 a1 71 be 2b d5 8b 3d c6 64 78 be 95 f6 30 3f
       -0.23596813 0.06827768 -0.24257192 0.69126254
000350 7f c1 11 3d 6b af e3 3c 8d 69 39 be ae d2 a1 bd
       0.035584923 0.027793607 -0.1810667 -0.07901512
000360 d3 7a 39 3e 58 e6 1c 3e f7 8b 95 be 42 40 e1 be
       0.1811326 0.15322244 -0.29208347 -0.43994337
000370 33 98 48 be 24 ce dd be 91 69 16 3e c5 04 be bd
       -0.1958931 -0.43321335 0.14688708 -0.092782535
000380 e8 0a 8e 3e 19 77 35 be e5 f5 0f 3e 52 23 cc be
       0.27742696 -0.17721213 0.14058645 -0.39870697
000390 51 cb 98 bd 48 28 df bd 67 61 3c be bd 21 9a bd
       -0.074606545 -0.10896355 -0.18396531 -0.07525966
0003a0 db 03 f1 3d 86 cf 39 3d 79 d4 47 3e 4f 49 a0 bc
       0.117683135 0.045363925 0.19514646 -0.019566206
0003b0 73 99 3e be db de 96 be bf 29 57 bd 5a dd 7a be
       -0.18613224 -0.294669 -0.052530047 -0.24498501
0003c0 dc 94 3e be 6a 8d 75 3e 22 7a 90 3e b2 b5 c6 bd
       -0.18611473 0.23979726 0.2821818 -0.097026244
0003d0 4f 33 38 be 7f f9 61 3e 6e 1f a6 3e 89 90 94 3e
       -0.17988323 0.22067831 0.32445854 0.29016522
0003e0 6d 8e 72 be 2f a0 87 3e 9a a9 2e be 2c 1f 2f be
       -0.23687144 0.26489398 -0.17056885 -0.17101735
0003f0 33 b5 9a 3d 8c dd 5f 3d 97 cc 7c 3e f8 86 52 3e
       0.07554092 0.054654643 0.2468742 0.20559299

actor.lin1p.weight f4 [8, 21]
000000 7c da 28 3d ca 01 04 be 57 f2 4b be e5 01 29 3e
       0.041223988 -0.12891307 -0.19916664 0.16504629
000010 6f 9b 8e bd 54 fe a5 bd 52 0a 49 be 5d 21 1a bd
       -0.0696324 -0.0810515 -0.19632843 -0.037629474
000020 36 e7 1c be f2 ac 84 bd 07 37 b4 3d 92 1d 15 be
       -0.15322575 -0.06478299 0.08799558 -0.14562061
000030 93 16 ed 3c e9 49 10 39 f2 b1 5b bc 1d 79 f4 bd
       0.028941428 0.00013760444 -0.013409125 -0.11937163
000040 c1 40 87 3d c5 90 a6 3d b7 46 8f 3d 4e 62 78 3d
       0.06604148 0.08133081 0.0699591 0.060640626
000050 34 7e fb bd c9 ad d0 3c 10 03 db bd aa 25 71 3c
       -0.12279931 0.025473492 -0.106939435 0.0147184525
000060 91 95 2f be 11 21 21 be 4a 4e ac bd 12 35 a8 bd
       -0.17146899 -0.1573527 -0.0841337 -0.08213247
000070 e6 78 e2 3d 37 21 9b bd 5b 0e 7f 3d a9 3e 15 be
       0.11058216 -0.075746946 0.06226955 -0.14574684
000080 d7 6f 49 3d 90 8b e2 bd 23 ee 4e bd 60 1b 29 3e
       0.049178924 -0.11061776 -0.050520074 0.16514349
000090 ce e9 d8 bb e1 11 4f be 1a 3d 37 be 55 41 08 3e
       -0.0066196686 -0.20221664 -0.17894402 0.13306172
0000a0 f0 1e 81 3d 29 79 b0 bc 19 d6 3c be fd 32 85 3e
       0.06304729 -0.021542149 -0.18441047 0.26015463
0000b0 40 fe 34 be 80 d1 86 3d 37 75 85 3c 48 5c 96 bb
       -0.17675114 0.06582928 0.016291244 -0.0045886375
0000c0 c9 31 4c bd be d8 bd 3d b4 a6 2f 3e 1c 1a 75 3d
       -0.049852166 0.09269856 0.17153436 0.059839353
0000d0 40 81 31 bc 8d 7d 1c 3e bc ba 20 3e 4c 59 c2 3d
       -0.010834038 0.15282269 0.15696234 0.09489688
0000e0 7d f7 c2 3d d0 da 58 bb 44 a7 01 3e e9 a1 cf bc
       0.09519861 -0.0033089407 0.12661463 -0.02534576
0000f0 5b bf be 3d ed fd 80 3d 7a 8e ff bd fd 41 26 3e
       0.09313842 0.062984325 -0.12478347 0.1623611
000100 91 3d 7e 3d 9d 69 bf bd 2c bb 9b 3d 51 99 8f bd
       0.062070433 -0.09346316 0.076040596 -0.07011665
000110 10 f5 9a bd 64 c5 3c be 04 01 b2 bc 67 f7 2a 3e
       -0.07566273 -0.18434674 -0.021729 0.16695939
000120 56 43 21 3e b1 89 c8 3d 1a f8 03 3e db db ef 3b
       0.15748343 0.097918876 0.12887612 0.00731991
000130 96 8a 81 3d 9d 4c 04 be 18 de 36 3e e2 a6 89 bd
       0.06325261 -0.1291985 0.1785816 -0.067212835
000140 54 ad 30 3d 9f c5 b2 3d f0 b3 da 3c 1d 72 91 bd
       0.04313405 0.087290995 0.026697129 -0.071018435
000150 f1 23 16 bc 21 52 a3 bc 66 dc 37 bd a5 4d 0e be
       -0.009163843 -0.019936623 -0.044887923 -0.13896807
000160 76 f4 a9 3d 8d 10 d6 bd 20 a4 0a be 9b 67 42 be
       0.0829858 -0.104523756 -0.13539171 -0.18984835
000170 e5 59 1f bd b6 b9 83 3e bb 51 04 be bc 9c 1a 3e
       -0.03890409 0.25727624 -0.12921803 0.15098852
000180 fa 6b 07 3e 13 68 42 3e 9d aa 6a 3d 32 8d 93 bd
       0.13224784 0.18985014 0.057291616 -0.07204665
000190 4c 51 d1 3d 89 d6 a7 bd ed ef a5 3d 60 c3 d9 3d
       0.10220584 -0.08195216 0.08102403 0.10632968
0001a0 12 b4 05 be e2 27 d6 3d f9 6a d6 bc f7 b2 1c be
       -0.13056973 0.10456826 -0.026174055 -0.15302645
0001b0 0a ad 59 3e 9c 53 a7 3b 81 80 4f 3e aa 90 69 bb
       0.21257415 0.0051064026 0.20263864 -0.0035639205
0001c0 8f 6a ab 3a 7b 2c 8f 3d 8a 46 0c 3e 8b 6c f1 bd
       0.0013078022 0.06990906 0.13698784 -0.11788281
0001d0 00 f9 96 3e 2e 64 89 3d 8c ac 22 be 6f 02 02 3c
       0.29486847 0.06708561 -0.15886134 0.0079351505
0001e0 a2 01 28 3e 8b a2 f4 3c b2 e0 8d 3d cd 8a ac bd
       0.16406873 0.029862663 0.06927623 -0.08424912
0001f0 e9 88 6e 3d bc 47 e8 bc 71 65 31 bc 8c f8 28 3d
       0.058236036 -0.028354518 -0.010827408 0.041252658
000200 92 bd 9c bd ec 68 89 bd 7b 8a 0c be 86 5f 43 3e
       -0.07653345 -0.067094654 -0.13724701 0.19079408
000210 57 16 59 be 68 45 12 be b8 71 59 3c 8f c3 aa 3d
       -0.21199928 -0.14284289 0.013271742 0.08338081
000220 79 5d 31 3e 21 31 d0 3d 7a 37 8e bd e1 58 4f be
       0.17320813 0.101656206 -0.06944175 -0.20248748
000230 60 e2 27 3e 22 1d f2 bd ef 1e 9a 3d 54 62 f3 3d
       0.16394949 -0.11821963 0.07525431 0.11883989
000240 a8 60 e8 3d 79 71 51 be 13 4a 46 be 31 f2 a4 3c
       0.11346561 -0.20453443 -0.19364195 0.020135017
000250 82 d1 f3 3e fb 03 79 bd 4d 87 57 3d 51 d1 74 bd
       0.4762078 -0.06079481 0.052619267 -0.059769932
000260 d6 a8 80 bc 0b d3 0e be 90 93 19 3d 1e 74 76 bd
       -0.015705507 -0.13947694 0.037494242 -0.06016933
000270 7c 58 a2 3e 12 00 3b 3c 5a 34 93 be 5d 4d 64 3d
       0.31708133 0.011413591 -0.2875088 0.055737842
000280 6c a6 95 bb 1a d0 25 3b dc d4 38 3d 92 84 3a 3d
       -0.004566958 0.002530104 0.045124874 0.045536585
000290 cb 90 9f bc fe db 60 3b 4b 64 7a 3d 5c df 8e bd
       -0.019478222 0.0034310813 0.061130803 -0.06976196

actor.lin1p.bias f4 [8]
000000 58 07 20 3e 54 37 a7 bd 47 da 11 bf 75 cb db 3d
       0.15627801 -0.0816485 -0.5697369 0.10732166
000010 e1 8f 8e 3e 55 43 48 3e 6d d7 c0 bd 1e a4 c7 3e
       0.27844146 0.19556935 -0.09416089 0.389924

actor.bilinp.weight f4 [8, 8]
000000 1e 3f 8e 3e b5 15 61 be 3f 84 b2 bd 25 57 21 be
       0.2778253 -0.21980937 -0.0871663 -0.15755899
000010 ef 99 98 3e b1 01 89 be 31 03 7a be a6 20 50 bd
       0.29804942 -0.26759103 -0.2441528 -0.050812386
000020 d0 9c 61 be 76 e0 a6 be 0e 42 0a 3e f6 15 9a be
       -0.22032475 -0.32593125 0.1350176 -0.3009488
000030 3f fd 0a 3e 26 2d 97 3e 9c ea d4 3d 80 0c 3c 3e
       0.13573168 0.29526633 0.10396311 0.18364143
000040 d9 16 8f 3e b9 af 98 3e 9b 51 67 3e 1b bf 12 be
       0.2794712 0.29821566 0.22589724 -0.14330713
000050 52 1d 84 be d6 af 7e bc 18 34 10 3e c9 64 9c bd
       -0.2580362 -0.015544852 0.14082372 -0.07636411
000060 55 8c 3d 3e 2b 1d 21 3e c4 90 c9 bc 10 70 98 bd
       0.18510564 0.15733783 -0.024605162 -0.07443249
000070 a2 51 39 3e 81 b5 e2 3b 2d 2f 28 be 1c bf 8e bd
       0.18097547 0.0069186096 -0.16424246 -0.06970045
000080 73 a0 27 be be df 07 be d5 0b f7 be 87 c1 4b 3e
       -0.163698 -0.13268945 -0.48251215 0.19898044
000090 23 28 92 3e 43 b4 9f 3e 05 24 b5 3d c4 25 0d 3e
       0.28546247 0.31192216 0.08844761 0.13783938
0000a0 47 2a 3e 3d 6d ad 15 3e 4b 3c 10 be cf d8 9b 3d
       0.046427038 0.14616938 -0.140855 0.07609712
0000b0 ce 42 98 3e fb 97 23 be 58 ef 93 3e 05 67 d2 3e
       0.29738468 -0.15975945 0.28893542 0.41094223
0000c0 9c 68 63 3b b9 b0 66 be c4 ac d8 bd e2 da f3 3d
       0.0034699803 -0.22528352 -0.105798274 0.11906983
0000d0 2f 45 0b 3e 09 07 ad be 09 33 0d 3e 41 00 51 3e
       0.1360061 -0.3379443 0.13789 0.20410253
0000e0 23 3d c6 3d f5 f5 37 3e 5c 36 ce 3e 39 11 39 be
       0.0967963 0.17964919 0.40275848 -0.18072976
0000f0 38 a6 f2 be 64 5e 4a bd d1 6f 88 3e cd 35 97 be
       -0.4739244 -0.049406424 0.2664781 -0.29533234

critic.conv1.bias f4 [21]
000000 44 b3 a6 be 00 00 00 00 14 ed c5 3e ca 12 24 3e
       -0.32558644 0.0 0.3865744 0.16022792
000010 b0 46 54 be dd e5 88 3e 95 c5 b3 be 35 6a 09 3b
       -0.2073009 0.26737872 -0.3511168 0.0020967845
000020 73 20 d7 3b d2 12 5d 3e 20 66 2c bb c7 5a 3f 3e
       0.0065651475 0.2158921 -0.0026305988 0.18686973
000030 68 97 79 be c0 b2 8b be 81 8d 99 3e 0a a1 00 3e
       -0.24374163 -0.27284813 0.2999077 0.12561432
000040 24 02 58 be ae 54 cf 3e 67 7b 82 be ff e5 aa be
       -0.21094567 0.40494293 -0.25484774 -0.33378598
000050 65 3a a7 be
       -0.3266174
