saved_files/ckpt/nyc4/a2c_gnn_test_pre-fp.pth (torch, 81741 bytes, 48 tensors)

actor.variance f4 [16, 16]
00000000: edf0 833f 6d20 783f 6c70 7e3f 8f5e 7d3f
00000010: a0cc 803f f4ae 7f3f a490 7f3f 69ea 7f3f
00000020: 57ae 803f 805b 7c3f be9a 7f3f ee21 803f
00000030: a48b 813f 73cb 7e3f 65ce 803f d943 763f
00000040: c050 833f 1c58 7f3f 6015 773f 1b8a 833f
00000050: 9596 793f 09c1 803f cb89 713f 2e67 763f
00000060: a3db 833f 8a1c 7f3f 0355 843f d663 813f
00000070: c6fa 803f 7a1d 733f b1bb 833f 72a1 823f
00000080: 5975 7f3f c6b0 7a3f 4f23 823f e2e0 7c3f
00000090: dd5f 803f 418a 773f b1fd 7c3f 509d 803f
000000a0: 5b25 823f cc71 7c3f 6098 823f d7b1 773f
000000b0: 58ed 7e3f f2f9 843f b9a1 803f af1c 7d3f
000000c0: 1205 803f 1b40 7a3f 7c37 7a3f 6c0b 7a3f
000000d0: c316 7e3f 7460 733f 38f6 7a3f 9943 7f3f
000000e0: d4d7 7e3f b8d3 793f 2c42 7d3f 363d 833f
000000f0: 8515 7d3f 5d46 7d3f 7b2c 823f eb7f 753f
00000100: 6109 7a3f 9885 803f 0afc 843f 904e 833f
00000110: a12b 823f 4aef 823f 2297 753f dde7 793f
00000120: 9a63 813f 1cd1 833f 6a4a 813f b347 833f
00000130: adb6 7b3f ed5d 833f 571e 813f f771 843f
00000140: a6cb 7c3f e1b3 7d3f 2b42 7b3f 082c 803f
00000150: d588 803f 68d9 803f 8c7b 7a3f 9b1b 7f3f
00000160: 9417 823f e0e4 823f a945 813f d288 7e3f
00000170: 66a9 7f3f dd36 833f a348 803f ee4c 813f
00000180: 9e42 793f bf3b 773f b900 7a3f 1491 7d3f
00000190: 3687 7f3f 6aaf 823f 6235 773f 42c8 803f
000001a0: a2a4 7d3f e729 773f 8540 7f3f ec15 813f
000001b0: 68ea 773f 3105 803f d208 813f dba4 823f
000001c0: 43ee 813f 8a3e 803f 2ab3 803f f33d 803f
000001d0: abb7 813f 4db8 7d3f d716 7b3f 3e8c 7f3f
000001e0: 32cf 773f 8dab 813f 6753 803f 9b5d 7f3f
000001f0: 3717 7b3f acca 813f d8d8 843f d358 7d3f
00000200: 8e2a 7b3f 3fc0 773f 7eb4 7c3f cac7 7f3f
00000210: f230 833f 712e 813f c2b5 803f c1fe 7c3f
00000220: 255d 803f 2a84 823f 78dd 773f 3f35 7d3f
00000230: 55f1 7c3f d69c 7e3f 52d0 723f c508 813f
00000240: 8cdc 813f 725e 813f 3692 823f 6c24 7f3f
00000250: e4e0 813f d1dc 7a3f 2541 733f 386a 7d3f
00000260: f7d9 823f 9e6d 7b3f 5205 863f 5a48 803f
00000270: ce94 773f 84bc 7f3f d11b 7c3f c86d 823f
00000280: 437f 823f 879b 803f 6a6d 813f 725f 813f
00000290: a07a 833f f590 803f 42a4 823f 32d3 7b3f
000002a0: e071 823f 63b0 813f 171f 803f ce43 7a3f
000002b0: 24e0 813f 4026 7f3f a288 7f3f 474e 7c3f
000002c0: f516 7e3f 9670 7d3f 67e5 813f ba81 783f
000002d0: 4896 813f 8819 7f3f fffe 843f af81 7c3f
000002e0: 4f0a 7e3f 0d29 7e3f fb48 823f 715e 7a3f
000002f0: db2a 7e3f 3b73 793f f49b 833f 9806 863f
00000300: a946 7b3f e9f4 7a3f 96e8 783f 720f 7c3f
00000310: 9f49 823f 5893 7c3f b92a 803f d13a 813f
00000320: 64ff 793f 0fb4 7c3f ba81 803f 3970 7c3f
00000330: 3299 843f c3e3 7e3f 6e4a 823f 8962 7c3f
00000340: e59c 7c3f 383e 773f c421 7d3f c07b 853f
00000350: 7a58 7e3f 4819 7d3f 65b9 7a3f 3f93 7a3f
00000360: 4675 843f 93f8 803f 2855 803f f02c 7b3f
00000370: 972c 803f 413c 823f ca7d 813f 5040 7d3f
00000380: 21c8 803f 1e1e 813f 0059 7e3f ed73 7e3f
00000390: bc52 7b3f 5ca6 853f 7594 803f d076 803f
000003a0: 8b86 7a3f 03f8 823f c7d4 7b3f 384b 813f
000003b0: 9bea 7d3f 5def 813f f8cf 783f f302 803f
000003c0: 57a4 813f b980 7c3f c5f1 803f 9c52 803f
000003d0: 3dae 7f3f 53bc 813f 0fff 823f 341c 7f3f
000003e0: 9ad1 7d3f 4cce 753f c912 803f 7dc3 773f
000003f0: 37f9 7d3f c2fe 843f 10d9 793f 2f99 823f
1.03079 0.9692448 0.9939029 0.9897241 1.0062447 0.9987633 0.9983008 0.99967057
1.0053204 0.9857712 0.9984549 1.0010355 1.012074 0.9952919 1.0062987 0.9619728
1.0259018 0.9974382 0.9651699 1.0276521 0.97495395 1.005891 0.9435088 0.9625119
1.0301403 0.9965292 1.0338444 1.0108593 1.007653 0.9496685 1.0291654 1.0205519
0.99788433 0.97925985 1.0167025 0.98780644 1.0029255 0.96695334 0.988246 1.0048008
1.016765 0.9861114 1.0202751 0.9675574 0.9958091 1.0388777 1.0049354 0.9887189
1.0001547 0.9775407 0.9774091 0.9767368 0.9925348 0.9506905 0.9803195 0.9971252
0.9954808 0.9758868 0.98929095 1.0253055 0.9886096 0.9893549 1.0169824 0.9589831
0.9767056 1.004077 1.0389416 1.025835 1.0169564 1.0229275 0.95933735 0.9761942
1.0108521 1.029819 1.0100834 1.0256256 0.98325616 1.0263039 1.0087384 1.0347279
0.9874824 0.991026 0.9814784 1.0013437 1.0041758 1.0066347 0.9784477 0.996515
1.0163445 1.0226097 1.0099384 0.9942752 0.99867857 1.0251118 1.0022167 1.0101602
0.97367275 0.9657554 0.9765735 0.99049497 0.9981569 1.0209782 0.9656583 1.0061114
0.99079335 0.9654831 0.99707824 1.0084815 0.9684205 1.0001584 1.0080817 1.020656
1.0150837 1.0019085 1.0054677 1.0018905 1.0134176 0.99109346 0.98081726 0.9982337
0.9680053 1.0130478 1.0025452 0.99752206 0.980823 1.0139976 1.0378675 0.9896366
0.9811181 0.9677772 0.9871291 0.9991423 1.0249312 1.0092298 1.0055468 0.98826224
1.0028425 1.0196583 0.9682231 0.9890937 0.98805743 0.9945806 0.9484912 1.0080801
1.014543 1.0106947 1.020087 0.9966495 1.0146756 0.9799319 0.9502128 0.989902
1.0222768 0.9821414 1.0470374 1.002208 0.9671143 0.99897027 0.98479944 1.0189753
1.0195087 1.0047463 1.0111516 1.0107253 1.0271797 1.0044237 1.0206378 0.98369133
1.0191002 1.0131954 1.0009488 0.9775971 1.0146527 0.9966774 0.9981786 0.9855694
0.9925378 0.9899992 1.0148133 0.9707295 1.0123987 0.9964833 1.0390319 0.9863538
0.9923448 0.9928139 1.0178522 0.97800356 0.9928414 0.9744145 1.0281968 1.0470762
0.98154694 0.98029953 0.972299 0.9846107 1.0178717 0.9866233 1.0013038 1.0096074
0.9765532 0.9871225 1.003959 0.9860874 1.0359251 0.99566287 1.0178964 0.9858785
0.986769 0.96579313 0.9887965 1.042839 0.99353755 0.988667 0.9793914 0.9788093
1.0348289 1.0075859 1.0025988 0.98115444 1.0013608 1.0174638 1.0116513 0.9892626
1.0061074 1.0087316 0.99354553 0.9939564 0.9817312 1.0441394 1.0045305 1.0036259
0.97861546 1.0231937 0.9837155 1.010108 0.99186105 1.0151173 0.97192335 1.00009
1.0128278 0.98633915 1.0073782 1.002521 0.9987524 1.0135597 1.0234088 0.9965241
0.9914795 0.9601791 1.0005733 0.96782666 0.99208397 1.0390246 0.97596836 1.0202998

actor.prices f4 [16, 16]
00000000: d2f4 483d 561c f1bb e454 a43c d217 483b
00000010: cbcf 94bc 3f5a 4b3c 155b 45ba 7e36 f8bb
00000020: 2e20 123c f2b0 35bb 81ce 11bd f068 43bc
00000030: 764d 06bc 3b4f e1bc 7f0b 37bb d9a0 5cbc
00000040: d676 ef3b 3560 52bd 24b4 bd3c 4c4b 40bc
00000050: c371 243d afab c73c 6f77 273c aaaa 3bbc
00000060: 591f 383b efaa 96bb b0ce 43ba 4b4f 08bd
00000070: c056 fa3b a939 02bd d19a 333c ed36 ee3b
00000080: c6aa 3d3c b004 c3bb 6a44 173d e173 ad3b
00000090: ede7 2cbc e376 a2bb c240 d93b 9ae0 88bc
000000a0: e0be 4d3c de42 bf3c 296e 163d d260 6e3c
000000b0: bffb c33c 47c4 a7bc eb05 643b 94ff 0d3d
000000c0: f979 e33c fc36 883c 53ed abbc 4adf 8bbc
000000d0: d349 b0bc 0938 443c 573e 5e3d 3385 863c
000000e0: d727 3d3d 74be 86b8 b872 213c 842d 9d3c
000000f0: faf0 a73c 37ba 82bc 182f 9d3c 0c85 c93c
00000100: 5cb9 053c 2d6f cf3c 819a fb3c d347 cc3c
00000110: 0bcc 3d3b 22a5 583c 86bc 58ba 3a8b 0d3d
00000120: a183 c23b 8c42 06bb 4828 b5bc 02b3 693c
00000130: 0e7e 96bc b4b6 90bc 716b 093c f59b c43c
00000140: 783e 063c 5583 9a3c 649c a9bc b8ff cd3b
00000150: 1ef8 693c aeb0 403c 390a 173d 1086 553c
00000160: bdd7 a03c 5956 26bd b359 023d eb52 d53c
00000170: dd72 8d3c 32f8 98bc 4243 aa3c 4d9e 04bc
00000180: 46fb 273d fc33 7c3d dfe3 26bc 5797 853c
00000190: 5b6d 8b3b 661a bfb9 4035 263c a1ca 873c
000001a0: 481b 1dba 2542 cf3c 2f20 043d c69a 913c
000001b0: cc8f 893b 07e0 b1bc 9061 f93b f034 a83c
000001c0: 39f5 d33b d89f 4c39 9358 a0bb a226 9b3c
000001d0: 80f7 04bc 6ba0 d9bc dc7b de3c fb0a ca39
000001e0: 5797 033d 0152 1d3b 8676 2abc 322b f2bb
000001f0: 47e9 9dbc 804a e0bc c245 edbc db62 a33c
00000200: c6d0 633c 00f0 95bc 179e 91bc 02a9 81bc
00000210: 94aa 623b 64c1 05bc c42e 473c 619f 14bd
00000220: 9fc5 503c 2c75 5f3c 60a4 823c a434 93bd
00000230: 2b6e 523c a9d2 4ebc 0f70 df3c d5ac 4dbb
00000240: 4f81 d23c ad93 5f3d 607c 5cbb b60e b4ba
00000250: 251a 043d b44d a0b9 4b89 1a3d bc24 2cbc
00000260: 4a54 21bd 8bb8 cb3b 6be2 043d 2e91 563c
00000270: ac70 843b 0a31 bcbc 8fac b13c 0d63 a53c
00000280: b183 0f3c 6821 dcbc 3544 8ebc 81d2 87bc
00000290: 8860 9d3c 9299 b0bc 244e 953d 4ea3 6e3c
000002a0: bddb 0a3d 2c60 073d 8e0e 4fba f9ce fcbb
000002b0: 7f2d bb3a 01a3 9bbc 22bf fcbc 276f eabc
000002c0: 35a9 40bc 7cf5 c3bc 488a a9ba 9c6d 5f3d
000002d0: 3978 57bd b839 3f3c f952 af3c d8fa f0ba
000002e0: b401 f83c 2414 233d 6010 a73c 2366 71bc
000002f0: ea71 e4bb 53ab 613b 4b0a 2f3d f92e 0a3d
00000300: 07f1 313c 8f1a a4bc 4038 bc3c 204f eb3b
00000310: a89d 99bc 97de bbbb 7e71 a1bc 929b bb3c
00000320: 8f82 acbc 6bca 40bc 9133 b23b 9bd6 00bd
00000330: 654c 91bc 54ea 2fbc cc64 a6bc d374 9a3b
00000340: 64ca 75bb 565e df3c eaac 283b 0a78 8439
00000350: 65ab de3b 9b6b 2b3d 9b44 30bc 37be 9cbb
00000360: b7fb 6a3c 4692 0e3c 72ac ba3c b06e e73c
00000370: 0487 bfbc b0ea 3c3c d2a3 13bb 5093 f63c
00000380: e45f b4bc 82d5 633d fd20 5d3c f019 323d
00000390: 932c cdbc c022 72bc b8e5 763c 381f f23c
000003a0: 140b 45bc 201a 2abd 202a babb a0f1 a5bb
000003b0: e898 c5bb 52bf f63c bcf4 b9bc 3652 b1bc
000003c0: 2aff 1dbc 6ce5 64bc 3667 17bd 2780 a3bc
000003d0: dfe0 4dbc 94da 40bb dded 793b 8e18 9c3c
000003e0: cf6a 4c3c be61 14bd a194 353c be98 1cbd
000003f0: 635b d7bc 24a5 ab3c 7cd0 943c c960 a4bc
0.049061604 -0.0073581142 0.02006001 0.0030531776 -0.01816549 0.012411653 -0.0007528526 -0.0075748553
0.008918805 -0.0027723876 -0.035597328 -0.0119268745 -0.008197179 -0.0275036 -0.0027930436 -0.013466083
0.0073078675 -0.05136128 0.023157187 -0.011736702 0.040147554 0.024373857 0.010221346 -0.011454264
0.0028094857 -0.0045980136 -0.00074694585 -0.033278745 0.007639736 -0.03179327 0.010962204 0.0072697313
0.01157636 -0.0059514865 0.03693048 0.005293355 -0.010553342 -0.00495802 0.006630034 -0.01670866
0.012557715 0.023347314 0.03672615 0.014549451 0.023923753 -0.020479335 0.0034793566 0.034667566
0.027768122 0.016627781 -0.020987188 -0.017074246 -0.021519577 0.01197625 0.05425867 0.016420936
0.046180572 -6.4250926e-05 0.009854011 0.019186743 0.020500649 -0.015957935 0.019187495 0.024599575
0.008161869 0.025321567 0.030713322 0.024936592 0.002896073 0.0132229645 -0.0008267838 0.034556605
0.0059361015 -0.0020486442 -0.022113934 0.01426387 -0.018370654 -0.017665245 0.008387432 0.024000147
0.008193605 0.018861452 -0.020704456 0.0062865876 0.014280347 0.011760874 0.036874983 0.013032451
0.019634122 -0.04060969 0.031823825 0.026040515 0.017266685 -0.018673036 0.020784024 -0.0080943825
0.041011117 0.061573014 -0.010186165 0.016307516 0.0042549795 -0.00036450027 0.010144532 0.016576113
-0.000599314 0.025300095 0.032257255 0.017773997 0.00419805 -0.02171327 0.0076105073 0.020533055
0.006468442 0.00019514502 -0.0048933714 0.01893932 -0.008115649 -0.026565751 0.02715867 0.00038536623
0.03212675 0.0024005177 -0.010404235 -0.007390403 -0.019276274 -0.027379274 -0.028963927 0.019944599
0.013904756 -0.018302917 -0.017775578 -0.01582766 0.0034586536 -0.008163784 0.012157146 -0.036284808
0.012742429 0.013638776 0.01594752 -0.07187775 0.012843649 -0.0126234675 0.027275113 -0.0031383533
0.025696425 0.054584194 -0.003364347 -0.0013737294 0.032251496 -0.00030575471 0.03772859 -0.010506805
-0.039387025 0.0062170676 0.03244249 0.013096137 0.004041752 -0.022972602 0.021688728 0.020188833
0.008759425 -0.026871398 -0.017366508 -0.016579868 0.019211069 -0.021557603 0.07290295 0.014565302
0.033900965 0.0330507 -0.0007898592 -0.0077151028 0.0014280527 -0.018998625 -0.030852858 -0.028617455
-0.011759092 -0.023920767 -0.0012934888 0.05454789 -0.052604888 0.011671476 0.02140187 -0.0018385304
0.03027425 0.03981413 0.02039355 -0.014733824 -0.0069715874 0.0034434393 0.042734426 0.033736203
0.010860688 -0.020032195 0.02297604 0.0071810633 -0.018751934 -0.005733322 -0.019707438 0.02290133
-0.021058349 -0.01176701 0.005438276 -0.031454664 -0.017736623 -0.0107370205 -0.020311736 0.0047136336
-0.0037504667 0.027266663 0.002573783 0.00025266438 0.006795334 0.041850667 -0.010758544 -0.0047834176
0.01434224 0.0087018665 0.022787306 0.028251022 -0.02337981 0.011530563 -0.0022528064 0.030099541
-0.02201838 0.05562354 0.013496635 0.043481767 -0.025045669 -0.014778793 0.015069418 0.029555902
-0.012026567 -0.04152882 -0.005681291 -0.0050642043 -0.0060301907 0.030120526 -0.022699706 -0.021645647
-0.009643355 -0.013970714 -0.036963664 -0.019958569 -0.0125658205 -0.0029427158 0.0038136162 0.019054677
0.012476637 -0.036226027 0.011082799 -0.038231604 -0.026288694 0.020952769 0.01816582 -0.020065682

actor.conv1.bias f4 [22]
00000000: 7bf4 783d ba72 a0bc 28b9 44bc 683f 2fbc
00000010: 3ecc 953d 7e14 b6bc eeb6 073d 72ed 8fbc
00000020: 4cb9 5a3d 156e 23bc 0c06 883c e813 ba3b
00000030: 9242 7d3d 813a d3ba 42c0 113d 85b4 543d
00000040: 0759 783d e0d9 a0bd 4fe2 79bc ac75 46bc
00000050: fc74 9a3d 3525 4b3d
0.06078003 -0.019585956 -0.012007035 -0.01069627 0.07314347 -0.022226568 0.03313344 -0.017569277
0.05339937 -0.009974976 0.016604446 0.0056786425 0.061831065 -0.0016115458 0.035583742 0.05192997
0.060631778 -0.07854056 -0.01525171 -0.012113016 0.07541844 0.04959603

actor.conv1.lin.weight f4 [22, 22]
00000000: 571f 683e db50 65be 7db0 93be 8728 f3bd
00000010: 1b90 c33d 4eda b6bd bf74 c3bc f2c7 093f
00000020: bcfe f4bd bef5 123e e2e9 a53e e466 09be
00000030: 4eec 3dbe fed4 a43d a452 493e af9f c8bc
00000040: ffc2 173e cb75 f73d b5b6 943e 5b9f 823e
00000050: 91c0 a2bc d1fa ad3d 0cc2 da3c 7248 153e
00000060: c032 bfbe e876 043e 6be6 b73d deb8 513e
00000070: 9db8 90be 1673 a5be e364 74bd b756 a13e
00000080: ff88 493d 2dae bbbe f09e 803c a5c6 943e
00000090: 43fa 67be 2064 9bbe 5bae 0dbe 762f 1bbe
000000a0: 37ec 94bd 9aae bf3d f09e 82be cb61 073e
000000b0: dc3a a4bd ddd6 813e b9ae 3abe 5722 6c3e
000000c0: e3c7 84be 891e 723d 7a13 b4be b9d5 823e
000000d0: cff5 453e 449f 6fbe 1581 9b3c be09 bb3b
000000e0: 39e1 a1bd 81b5 cabd 8d0c 273d d4b2 acbe
000000f0: fc6c b6be e2ba 18be 1e99 c3bd dcac 243e
00000100: 50aa 55be 4402 ecbc 2e42 6cbd c182 c03d
00000110: e799 5dbe 1d9a 9f3d 6d1f c93d 1b3f a6be
00000120: 2480 f8bd 8c2f 513e 3bbd 583e 3c7c 42bc
00000130: abe4 8dbd dbc6 34be 5c54 93be 4016 823e
00000140: 0d10 26bd 5332 3bbe 7da8 b03e 9557 b43e
00000150: 8b2a b0be d4b7 c1bb 50ab 2dbe 7bab babe
00000160: bdb0 99bd 798f a2bd 6e18 93be 636a 80bd
00000170: ddea 973c 93c8 8a3e 1957 533e 1e9a c43e
00000180: c888 a73e 9a3d a3be ea72 e93d eef5 df3e
00000190: d8c2 9f3d 1425 c03e 7412 88be b234 853e
000001a0: f68c 5b3e 7649 d53e be96 d1bd cc46 02be
000001b0: 20bf a1bd ca58 d33e 9ae9 c83d e47d 583d
000001c0: 214d 243e a991 c6be 7420 0bbe 7da1 ac3e
000001d0: 3397 2cbe 62fb 683d 8e17 823d 74d8 29be
000001e0: 37de 133e 3124 51be 6eeb 533e f1d0 a13e
000001f0: 89af dfbd c72a a3be a1ce 93be 20e1 a8bc
00000200: 2776 c8bc f3aa 6bbd 12de 86be 8a1b 7fbd
00000210: 559c 753e 63d3 613e d6e1 54be a3d7 c93d
00000220: 746b 363e 8b75 8bbe 362e b73e 6d8d 87be
00000230: ff79 913e e6d3 83be 286e 9ebc 8a33 28bd
00000240: 861c 553d 736d 60be d498 3abe 4dc2 73be
00000250: c9f4 6ebe 8f5e 583e 1820 c33c 0032 3c3e
00000260: 828b 503e a186 aabc 40b4 25be e771 10be
00000270: a6db 923d b03c f1bc f8d4 ddbd acc4 193c
00000280: 0c7c 9e3e b4d8 8d3e 10cf 1dbe f4ee 81be
00000290: a90c dc3d b333 a3be 3d11 47be b816 053e
000002a0: e69c 26be 1852 27bd a4d3 70be 709e 92bc
000002b0: 40a9 aa3d cc37 adbd 4f3c 91be 3dcd 81bb
000002c0: 0f64 56be bf41 be3d b56c ce3e b0be 5cbd
000002d0: 7bc7 a23e d54f 4d3d 98a5 0ebd f538 993e
000002e0: 959e b23e 77e3 01be 7d85 c53d 125a 143c
000002f0: f1ac 8c3c 485b e0bd a08e 473e 0dd5 9b3e
00000300: 3b18 f2bc 0209 d33c cfd5 163e 24af 993b
00000310: cc5e 23be e6ce 2dbb 1711 bbbe aa27 c53c
00000320: fdf7 9a3d e1d8 fdbd a425 a63e 0fb2 11be
00000330: 2a67 12be 3381 ab3e 4db4 213e 7178 03bb
00000340: 34ac b8be 6b98 863e 2d3d 2f3c d851 ebbb
00000350: 3f87 50be f5cb 753d c1a8 5b3d 17b5 83be
00000360: 2779 b1be 7d3e 143e 234c e93c 95d8 bdbe
00000370: d2bd c43e c227 293e e92c 11be 92bc 4d3e
00000380: a021 e63d 3047 913d 7869 cd3e af2b c23e
00000390: 6bc1 4fbb 91c6 c13e 000e a2bd fab6 5cbe
000003a0: e27a 78be a6c2 2d3d db9f 31be 0d37 473e
000003b0: 7f47 aa3e cbd8 7abe 08d5 9c3e 6a5c 7c3e
000003c0: d893 0f3e 6f5d 75be 1b3a 0ebe 6a02 623e
000003d0: 77df ad3b 5bbe 9a3e 1c53 413e 42fe 1f3e
000003e0: 1ba2 8f3e 060b 0fbc bc47 e13d 75cb fc3c
000003f0: 551c 913d b5f7 b5be 22d2 9b3d b6d7 8dbc
0.22668205 -0.22394125 -0.28845587 -0.11872964 0.0954897 -0.08928357 -0.02385938 0.5382072
-0.11962649 0.14351556 0.32405 -0.13418156 -0.18547174 0.080484375 0.19660431 -0.024490206
0.14820479 0.12083014 0.29045644 0.25512204 -0.019867213 0.08495105 0.026703857 0.14578417
-0.37343407 0.12935984 0.089794956 0.20480677 -0.2826585 -0.32314366 -0.059666526 0.3151147
0.049202915 -0.36656323 0.015700787 0.29057804 -0.22654061 -0.30349827 -0.13836043 -0.15154824
-0.07271617 0.093594745 -0.25511885 0.13220899 -0.08019039 0.2535924 -0.18230714 0.23059975
-0.2593375 0.05911115 -0.3517111 0.25553682 0.1933205 -0.23400599 0.01898245 0.0057079485
-0.07904286 -0.098979004 0.040783454 -0.33730185 -0.35630023 -0.1491504 -0.09550689 0.16081566
-0.2086575 -0.028809674 -0.0576803 0.09399939 -0.2164074 0.07793067 0.09820447 -0.3247002
-0.12133816 0.20428294 0.21165936 -0.01187044 -0.069283806 -0.17653982 -0.287753 0.254076
-0.04054265 -0.18280916 0.34503546 0.3522307 -0.34407458 -0.0059118066 -0.16959882 -0.36458954
-0.07504413 -0.079375215 -0.28729576 -0.06270292 0.018544609 0.2710615 0.20638694 0.38398832
0.32721543 -0.31882936 0.11398871 0.43742317 0.07800835 0.37528288 -0.2657658 0.26016766
0.21440491 0.4165761 -0.1023383 -0.1272232 -0.07897782 0.41278678 0.09810181 0.052854434
0.16045047 -0.38783005 -0.13586599 0.33716956 -0.16854553 0.056880362 0.06352149 -0.16586477
0.14440237 -0.20423962 0.20695278 0.31604722 -0.109221525 -0.31868574 -0.28868583 -0.02061516
-0.024470402 -0.057536077 -0.263413 -0.062282123 0.23985417 0.22053294 -0.20789275 0.098555826
0.17814428 -0.27238116 0.35777444 -0.26475087 0.28413388 -0.25747603 -0.019339636 -0.041064776
0.052029155 -0.21916752 -0.18222362 -0.23804589 -0.23335566 0.21129821 0.023819014 0.18378448
0.20365718 -0.02081615 -0.16182041 -0.1410595 0.07170801 -0.029447883 -0.10831636 0.009385269
0.30954015 0.27704394 -0.1541102 -0.2537762 0.10744602 -0.3187538 -0.1944017 0.12996948
-0.1627079 -0.040849775 -0.23518234 -0.017897815 0.08333063 -0.08457908 -0.28366324 -0.003961234
-0.20936607 0.09289884 0.40317312 -0.05389279 0.31792817 0.050124962 -0.03482589 0.29926267
0.34886613 -0.12684427 0.096446015 0.009054678 0.017172309 -0.109549105 0.19488001 0.30435982
-0.02955257 0.025761131 0.14729999 0.004690068 -0.15954131 -0.0026521026 -0.36536476 0.024066765
0.07566831 -0.12394882 0.32450593 -0.1422808 -0.14297166 0.3349701 0.15791436 -0.0020060802
-0.3606888 0.2628816 0.010695738 -0.0071813874 -0.20364092 0.06000896 0.053627733 -0.25724098
-0.34662744 0.14476962 0.028478688 -0.370793 0.3842607 0.16519073 -0.14177288 0.20091465
0.11236882 0.07093656 0.4011953 0.37923953 -0.003170098 0.37846807 -0.079128265 -0.21554175
-0.24265626 0.04242196 -0.17346136 0.19454594 0.33257672 -0.24496762 0.3063128 0.24644628
0.14021242 -0.23961423 -0.13889353 0.22071233 0.00530618 0.30223355 0.1887936 0.15624335
0.28053364 -0.008730656 0.1100001 0.030858735 0.07085482 -0.35540548 0.07608439 -0.017314773

actor.lin1.weight f4 [32, 22]
00000000: 02ed 023e e4e8 d73d 44ee 58be 2cbd 04be
00000010: 2a31 893d 0f6d 56be aa64 7f3c d682 c53d
00000020: b9fa 073e 8168 aa3d 8ce9 fb3d a9a0 0c3e
00000030: 176a 19be 2f30 6a3d ea79 6dbd 8cc0 6bbd
00000040: aa17 19be bd90 a1bd 5676 93bd 92bc 90bc
00000050: a23c 5bbe cfac 00be 9183 7ebc 5bbf 31be
00000060: 626d 103e 645f 223e 9aea cebd 7f12 903d
00000070: 95c9 603c 7de2 273e e642 f33c 7523 383e
00000080: adc7 6a3e 1165 32be 220b 0bbe 24f4 d8bd
00000090: d2b4 683e 3c60 74bd 201c 963d 762a 543e
000000a0: b9dd 4abc ad32 27be 2eaa ec3d 55eb 4f3e
000000b0: 163f 5cbe 37a8 3d3e a256 51be 0b9e e2bc
000000c0: ec42 35be b3f7 d73b cddc 28bc 3f56 1d3e
000000d0: 7a16 783d 8a88 c0bd 0bf4 213d e116 a63d
000000e0: 7cbd 91bc 2517 513e aee1 9c3a c49e 4f3b
000000f0: 9850 053e 7f04 863d 0964 433e 329a b73d
00000100: fbfb 2dbe 7389 c4bd e1da bebd 914b 263a
00000110: ebc6 f7bd ccb6 073d 349e 3dbe e444 143e
00000120: 25e0 303e 5fa1 0cbd bca5 873d 771d 43be
00000130: 7d4f ff3d d70f fc3d e40d 1bbd a1f0 b7bd
00000140: bff1 9dbd a38d 16be 8a7e 1abe 9666 e13d
00000150: 2569 4a3d ea68 a7bd 8178 4f3d 8431 ffbd
00000160: 9a92 ab3d 0ac4 f4bc f2a2 a03d 5a80 1d3d
00000170: a2f5 87bc 51d8 0cbe f691 9c3d e094 91bd
00000180: 967d 373d 78b2 393c dbea c4bd f0b3 2f3e
00000190: 13f2 7fbe 7601 253e 8292 33be a2df 933c
000001a0: bac0 193e 331d 53be adeb 203e 36a9 3fbe
000001b0: 6bde 6a3d ebd9 813d 84a4 bebd f179 ca3d
000001c0: 5346 76bd 0018 bfbd 358c 1abe 96bd 08be
000001d0: f738 0c3e 23ad 0c3c 8c56 793d 63eb 56be
000001e0: 8cc3 57bd 5ab5 01bd d6f8 06be 34d9 19be
000001f0: 24a3 7c3b b68e aabd 3107 243e 7a73 14be
00000200: b3f7 8fbd 2e6d 3a3e a9be e93d 9437 3dbe
00000210: af68 433e 4e87 a13c 033c 043d 927a 27be
00000220: b020 dd3d 0eb5 d03d 57c0 523e 3338 92bb
00000230: 50cf 4e3e f2dd 113d c72e 443e 88f8 4e3e
00000240: 3cc3 bf3d 8823 8f3d 4494 2a3c 1edf 4ebd
00000250: e799 d1bd 3e0a 5a3e d3f5 ae3c e549 0ebe
00000260: 64fd c3bd 61e0 023e f2f1 7d3d c65d 14be
00000270: e375 9bbd cbcb 1a3e f3b0 38bd 8544 413e
00000280: 6659 b73c d2ee 493e 633a 7a3e 2ea6 723e
00000290: dc16 f2bd 4dbd 103e ecda 0e3e 70fc 42be
000002a0: 0216 d53d 5c63 323e 0798 02be 4e5c 4e3e
000002b0: 7b35 813c f03e eb3d 76a4 8fbd 2c9c 32be
000002c0: 3d2d 863d 5f64 fdbd 0344 0fbe 55f9 da3d
000002d0: b5fe 133e 7a21 bdbd 2d45 413d c4cd 193e
000002e0: c6c6 03be b304 db3d 983f 363e 408a 013c
000002f0: 842f f83d 19ca 00be 8966 2b3e 6dfd 59bc
00000300: 6a22 4abe c67a eebd c08b 16bd 1a58 9dbd
00000310: 2aa0 9f3d 8ee2 3fbe 504c 273e 5679 1fbe
00000320: 04c6 5e3d 0a23 53be 0415 483e e1e6 b03d
00000330: de09 c13d 011f 553e 0a43 f03d 4d26 ac3d
00000340: 05b3 cf3d aedb 713d 69a4 3d3e a437 febd
00000350: 24e0 473e 0344 f43d 08fe 023e 8617 a83d
00000360: 3afa 5cbd fec6 7f3e 26f3 143e 2963 66bc
00000370: a2a3 a23d a035 7e3d e81f 0cbe 2d03 28be
00000380: 8e3e b4bd 3291 09bc 21ac c93d b2b8 16be
00000390: 2ea5 543e b5c4 26bd e9a8 02be 6000 13be
000003a0: ecd6 35be 7876 053e 2fa8 283d 6319 82b9
000003b0: 6843 453e ced0 55bc 630c 4b3e 871e 11bd
000003c0: 9818 29be b59e 613d 6715 99bc e253 493e
000003d0: 8274 60bc 1a2b f33c 2a2b 60be 0064 52be
000003e0: 04fb 0bbe 045e 48be a70e ca3c 177a fbbd
000003f0: 6779 433e 7692 083e efa6 38be b363 de3d
0.12785724 0.10542467 -0.21184641 -0.12962788 0.066988304 -0.2094004 0.015587965 0.096440956
0.13279237 0.08320714 0.12300405 0.13733162 -0.14981876 0.057174858 -0.057977594 -0.057556674
-0.14950433 -0.07888935 -0.07200305 -0.017668042 -0.21409848 -0.12565921 -0.015534298 -0.17358153
0.14104226 0.15856701 -0.101033404 0.07034778 0.013719936 0.16394992 0.029694986 0.17982276
0.22927733 -0.17421366 -0.13578466 -0.10593441 0.22725227 -0.05966209 0.07329583 0.20719323
-0.012381964 -0.16327925 0.11555897 0.20304616 -0.2150844 0.185212 -0.20443204 -0.027663251
-0.1770131 0.0065908073 -0.010306549 0.15364932 0.06056831 -0.09401043 0.039539378 0.081098326
-0.017790549 0.20418985 0.0011969113 0.0031680325 0.13019025 0.06543826 0.19081129 0.08964957
-0.16990654 -0.09596529 -0.093190916 0.0006343658 -0.120984875 0.033133313 -0.18517381 0.14479405
0.17273004 -0.034333583 0.06623408 -0.19054209 0.12466333 0.12307709 -0.037855044 -0.08981443
-0.07712125 -0.14702468 -0.15087333 0.11005895 0.04941668 -0.08174308 0.05065203 -0.12460616
0.083775714 -0.029878635 0.07843579 0.038452484 -0.016596619 -0.13754393 0.07645027 -0.07108474
0.044797502 0.011334054 -0.096151076 0.17158484 -0.24994688 0.16113839 -0.17536357 0.018050972
0.15014926 -0.20616607 0.15714903 -0.18716893 0.05734102 0.06340393 -0.093087226 0.0988654
-0.06012566 -0.093307495 -0.15092547 -0.13353571 0.13693605 0.008586201 0.060873553 -0.2098823
-0.052676722 -0.03166709 -0.13180861 -0.15024263 0.0038549388 -0.08328001 0.16018368 -0.14497176
-0.07029667 0.18205711 0.11413319 -0.18478233 0.19082902 0.019717839 0.032283794 -0.1635535
0.1079725 0.101907834 0.20581184 -0.004462266 0.20196271 0.035612054 0.19158469 0.20211995
0.0936341 0.06989199 0.010411326 -0.05050575 -0.10234433 0.2129297 0.021357452 -0.13895376
-0.09569815 0.12780906 0.061998315 -0.14488897 -0.075908445 0.15116803 -0.045090627 0.18873794
0.022381496 0.19720009 0.24436335 0.23696205 -0.11820766 0.14134713 0.139507 -0.1904161
0.10404588 0.17420715 -0.12753306 0.20152399 0.015772572 0.11486614 -0.0701379 -0.17442387
0.06551597 -0.1237266 -0.13990788 0.106920876 0.14452632 -0.09234901 0.04718511 0.150199
-0.12868795 0.10694256 0.17797697 0.0079064965 0.12118438 -0.12577094 0.16738333 -0.01330505
-0.1973969 -0.11644511 -0.03675437 -0.0768282 0.07794221 -0.18738768 0.16337705 -0.1557363
0.05438806 -0.20618835 0.19539267 0.08637787 0.0942571 0.20812608 0.11731537 0.08405743
0.10141567 0.059047394 0.18519749 -0.12412956 0.19519097 0.11927035 0.12792218 0.08207612
-0.053949572 0.24978253 0.14545879 -0.014061728 0.07941367 0.06206286 -0.13684046 -0.16407461
-0.08800994 -0.008396434 0.09847284 -0.14718893 0.20766136 -0.04071494 -0.12759747 -0.14355612
-0.17757767 0.13033473 0.041176017 -0.00024814447 0.19263995 -0.013050271 0.19828944 -0.035429504
-0.16513288 0.055082995 -0.018686963 0.19660905 -0.013699653 0.029683638 -0.21891466 -0.2054596
-0.13669974 -0.19567114 0.02466519 -0.12279146 0.1908928 0.1333712 -0.1803243 0.1085886

actor.lin1.bias f4 [32]
00000000: 2de6 a8bc be24 0bbc ad5f 423e 5aaa 1f3c
00000010: d613 11bc c247 d43c 90ab 443e e503 03be
00000020: 98f3 35be 0b06 b8bd 6202 03be ffc5 8c3d
00000030: 97a6 1f3e 1aa9 0e3e 7ac1 7ebc bc2a 65be
00000040: 8486 a0bd 1886 8c3d b16b 813c 6966 d4bb
00000050: bb0b 283e 9616 0bbe ee5d 3c3e f054 4f3d
00000060: 8036 f53d c249 11be f9e0 63bd 4eca 29be
00000070: 1947 25bd 84f7 3bbd 13d8 40be 56e9 133e
-0.020617569 -0.008492647 0.1898181 0.009745205 -0.008854827 0.025913123 0.19206071 -0.12794454
-0.17768705 -0.089855276 -0.12793878 0.06873702 0.15590893 0.13931695 -0.015549058 -0.22379583
-0.07838157 0.06861514 0.015798422 -0.006481935 0.16410725 -0.13582835 0.18395206 0.050618112
0.11973286 -0.14188293 -0.055634473 -0.1658108 -0.040351007 -0.045890346 -0.18832426 0.1444448

actor.lin2.weight f4 [32, 32]
00000000: d8a1 133e a117 82bd abe5 df3c 63d6 083e
00000010: 130b f63d 3f40 233e d04f ecbb 310c be3d
00000020: 8cf2 813d 8cb0 95bd d14e 16be 23a5 163e
00000030: 8f03 273e cf35 0f3d 17d5 383d a7a0 003e
00000040: d05c 04bc c6d7 013e 38e9 1d3e fb94 193d
00000050: 6aed 963d 3ab2 cebc 6eda c33d 53ad 9c3b
00000060: b1f3 053e a5d9 ebbd 4540 553c 6101 403e
00000070: ce3f c03d 1088 3b3e f5d5 04be 765f 13be
00000080: 86cd 59bd 7b22 bf3c 64a8 eebd a4c5 20bd
00000090: a32b 17be 512f ee3d faed 2abd 996e 943d
000000a0: aeca 21bd c352 1cbd dfa8 823d fab4 1e3e
000000b0: e990 b0bd 856c 0c3e 764f c3bd a081 2fbc
000000c0: 5865 373d 2f81 033e f1b9 343e c937 243e
000000d0: fa2c 26be 0e95 0e3d 5d5f a43d 3be2 e53d
000000e0: f062 e7bd 2a02 d53d 106f 20be b3c6 1dbe
000000f0: 1ca4 9e3a c463 3a3d 75ef 03be 3c26 f8bd
00000100: f3c7 dcbc 77de d1bd 0143 023e 8124 273e
00000110: 6de5 0d3d 4f79 a4bd ffcc aa3d dc66 183e
00000120: 1027 ce3d b401 abbc a74d 2c3e 59cc c83d
00000130: 7280 23be 57a3 1ebe ecaa 3bbd c5eb a33d
00000140: 8636 be3d 4cd2 bd3d f78d 3a3e 4821 92bc
00000150: 7e47 a33d a679 f2bd 153b 193e e674 acbd
00000160: 15c5 673d eb38 f1bd 826a 2cbe 144b b3bb
00000170: d0cf a0bd 8f79 f13d 2e26 84bd 26ed f63d
00000180: 143c 073e 2cea 86bc 8150 cfbd 87ab b7bd
00000190: bb81 9ebd 1d93 f03d fb93 92bd c42d c2bd
000001a0: de79 05be 9b85 3ebe 5605 2ebe 6535 163e
000001b0: 0e72 d7bd 3e79 babd 1a1f 0dbe a47c a03d
000001c0: 6046 9abb 6add 0ebd f02e b8bd 642a c9bd
000001d0: 44d8 00be b325 213e defd f03b a16e 20be
000001e0: b0c9 5637 6d56 4d3d 8fad 8bbd 3c1b 113e
000001f0: dadd 373d 6c58 bbbd caf9 d63d 2d60 b23c
00000200: 3e3f 9e3d 8d29 dd3d 4e6d debc 3b6b b0bd
00000210: 1eab b2bd fcda fb3d 5cb4 3b3e 77e6 d53d
00000220: 31d9 09be e4d5 433e a553 533d 79e1 293e
00000230: 082d 2c3e e0ce cc3a b667 1abd 47f0 363e
00000240: 0d95 303e aa57 a63d b181 39be 174a 36bd
00000250: de55 553d 37a8 bdbd f3e0 d7bc 0dc2 94bd
00000260: 81ce b83d 4395 843c 5478 743e 56ba 3f3e
00000270: af51 e33c f243 67bc 7984 043d fe32 953d
00000280: 57df 023e 8443 71bd dad5 353d 6e22 f53d
00000290: 5297 683d f286 fd3d 3861 1a3e a454 45be
000002a0: 4804 15be 701c ac3d 0e5c 033e d066 40bc
000002b0: 1e90 2cbe b7d8 8dbd 0c90 d13d c7f0 09be
000002c0: c01f 43bd e2f0 70bd 3b96 1cbe b459 213e
000002d0: 0e3c adbb db54 d33d 04d3 143e 9d86 8f3c
000002e0: aa63 0fbd 0af7 49be adf4 2fbe 7721 ef3d
000002f0: 10c7 ebbd 84ff a2bd 8e47 18be d89e 0a3e
00000300: f4d6 d1bc 1e6a 083e 1764 cdbd 6022 903d
00000310: 5c5b c93c e7f0 253e aa15 d43c 830a 54bd
00000320: aab3 213e bb40 d43d 9451 aabd 3a59 f8bd
00000330: 1eb6 c8bd f0c6 97bc 3ce4 393c 114c 79bd
00000340: 82b4 e83d a238 04be b43b 34be b97c 363d
00000350: 7e74 fd3d 7bb7 f93d d7ac 1abe 7359 a73d
00000360: 50cd f63d 7bd8 59bd e56e f83d f35b 45be
00000370: d2d1 26be 875a c9bd adaf 783d 62ee babd
00000380: 821d 123d 2bd5 1bbe 67bd d53d 7bb8 dc3d
00000390: eb02 5a3d b486 12bd 50ca 04be cca0 39ba
000003a0: 853f 39bc 3a45 c5bd 4223 68bd 20c6 b43d
000003b0: 85c0 83bc 75ff babd dfca 2abd ac16 f83d
000003c0: 4b87 33be d28b 113c cb6d 98bd 4b78 e03d
000003d0: 1c71 c4bd 5e15 1d3d dd5c dc3b a762 a23d
000003e0: 0165 06be 0f22 053e 08fa 243c 40b6 3cbd
000003f0: d08c 2fbe 878c 873d e0b1 943c ed07 993d
0.14417207 -0.06352163 0.027331194 0.13363032 0.12013831 0.15942477 -0.007211663 0.09279669
0.0634509 -0.07309064 -0.14678504 0.14711432 0.16309951 0.034963425 0.045125093 0.12561284
-0.008078769 0.12679967 0.15420997 0.037495594 0.07369502 -0.02523147 0.095631465 0.004781404
0.13081242 -0.11516122 0.013015811 0.18750526 0.0938717 0.18313622 -0.12972243 -0.14391884
-0.053174518 0.023331871 -0.11653212 -0.039250985 -0.1476274 0.11630119 -0.04173086 0.07247657
-0.03949993 -0.038164865 0.06379866 0.15498725 -0.086213894 0.13713272 -0.0953664 -0.010712057
0.044774383 0.12842248 0.17649056 0.16036905 -0.16228095 0.03481012 0.080260016 0.11224791
-0.11298168 0.104008034 -0.15667367 -0.15407829 0.0012103352 0.0455053 -0.12884314 -0.12116668
-0.026950812 -0.1024751 0.12720872 0.16322519 0.034642626 -0.0803095 0.08339881 0.14882988
0.10066044 -0.020874836 0.16826497 0.09804601 -0.15966967 -0.15491997 -0.0458173 0.08003954
0.09287743 0.092686266 0.18218218 -0.017838135 0.079726204 -0.11839609 0.14963944 -0.08420734
0.056584436 -0.11778434 -0.16837505 -0.0054715965 -0.07852137 0.117907636 -0.06452595 0.12056951
0.13206512 -0.016469084 -0.10122777 -0.08968263 -0.07739588 0.1174681 -0.07157131 -0.09481385
-0.1303477 -0.18605654 -0.16994223 0.14668806 -0.10519801 -0.09105156 -0.13781396 0.07836273
-0.0047080964 -0.034879126 -0.089933276 -0.098225385 -0.12582499 0.15737037 0.007354482 -0.15667202
1.2802353e-05 0.05013125 -0.06820213 0.14170545 0.04488931 -0.091477245 0.10496862 0.021774376
0.07726906 0.10798941 -0.02715173 -0.086142026 -0.08724044 0.12297627 0.1833052 0.10444348
-0.13461758 0.19124562 0.05159344 0.16589917 0.16814053 0.0015625618 -0.037696563 0.17865096
0.17244358 0.08122189 -0.1811588 -0.04450425 0.052083842 -0.092606 -0.026352381 -0.07263575
0.090237625 0.016184455 0.23874027 0.18723425 0.02774891 -0.0141153205 0.0323529 0.072851166
0.1278051 -0.05890228 0.044393398 0.119694576 0.056784935 0.123792544 0.15076149 -0.19270569
-0.14552414 0.084038615 0.12828085 -0.011743262 -0.16851851 -0.06926101 0.10232553 -0.13470756
-0.0476377 -0.058823474 -0.15291683 0.15756875 -0.0052867 0.10318919 0.14533621 0.017520243
-0.035007156 -0.19723144 -0.1718318 0.11676305 -0.115125775 -0.07958892 -0.14871046 0.13537157
-0.025615193 0.1332173 -0.10028856 0.070378065 0.024579696 0.16205178 0.025889236 -0.051767837
0.15791193 0.10363909 -0.08316341 -0.121263936 -0.09800361 -0.018527478 0.011345919 -0.06086356
0.11362554 -0.12912229 -0.176009 0.04455254 0.12375735 0.12193199 -0.15104996 0.08171358
0.12050879 -0.053184967 0.121305265 -0.19273357 -0.16290978 -0.0983172 0.060714412 -0.09127499
0.035672672 -0.15218036 0.10436516 0.10777374 0.05322544 -0.035772994 -0.12967801 -0.00070811505
-0.011306648 -0.096323445 -0.05667425 0.08826852 -0.016083011 -0.09130756 -0.04169738 0.12113699
-0.17532079 0.008883433 -0.07442816 0.10960444 -0.095918864 0.038350455 0.0067249374 0.07928973
-0.13124467 0.13001274 0.010069378 -0.046072245 -0.1714356 0.066186 0.018151224 0.07472215

actor.lin2.bias f4 [32]
00000000: 14ad d63d e1ff b8bd ffa1 11bd e44a 11be
00000010: 4635 7f3d daa1 023e c0d1 d93c cc41 32be
00000020: 172b f63c 10a8 173e bb3f d5bd 4cd2 09bb
00000030: 9660 003d b00f b2bd 536e 763b f073 6ebd
00000040: f4e6 4dbd a795 9a3d a20e a2bd 5bfc b5bc
00000050: a658 273e 2aca a5bd acf5 f8bd 1f59 febb
00000060: 677c 583e 7856 e0bc c0ff ce3d 29e1 ba3d
00000070: 1c05 a9bd d84f 783d 36f0 443e 991b b03d
0.10482231 -0.0903318 -0.035554882 -0.14188725 0.062306665 0.12757054 0.026589274 -0.17407912
0.030049844 0.14810205 -0.10412546 -0.0021029888 0.03134211 -0.086943984 0.003760238 -0.058216035
-0.050269082 0.07548075 -0.07912947 -0.022215059 0.1634241 -0.080952 -0.12156233 -0.007762089
0.21141206 -0.027384982 0.10107374 0.09124977 -0.08252928 0.06062302 0.19232258 0.08599014

actor.lin3.weight f4 [1, 32]
00000000: a82a 993d e0ab e2bd b33d e7bd ff42 5b3d
00000010: 26a1 3a3e 9782 d0bd b637 19be 8d36 aabd
00000020: f504 2ebe bb25 11be 6dd9 49bd 708c cd3d
00000030: b6fe 9b3d cdec 15be 6bc9 b9bd ffa7 9ebd
00000040: 6e1f 713d 43c9 013e 7506 6fbd a2c1 38be
00000050: d36a 6e3e 1cea 0cbe 6705 a13d 7419 4e3d
00000060: 7a4b ef3d c20a 3ebd fb00 26be db89 15be
00000070: 2d64 34bd 6143 d1bd d1a6 8f3e 67d9 6e3d
0.07478839 -0.11067939 -0.11291065 0.05353069 0.18225536 -0.10181158 -0.14962658 -0.08311186
-0.16994078 -0.1417455 -0.04927962 0.10036552 0.07616942 -0.14641114 -0.090716206 -0.077468865
0.058867864 0.12674432 -0.058355767 -0.18042615 0.23282938 -0.1376118 0.078623585 0.050317243
0.11684318 -0.04639698 -0.16211312 -0.14603369 -0.044040848 -0.1021793 0.28056958 0.0583128

critic.conv1.bias f4 [22]
00000000: 82c5 bb3d 0988 d33c bb40 123c 2168 8f3b
00000010: cbc5 83bc 7a6d 14bc a57b 6ebd 107b b43d
00000020: 2ff8 1dbd 9fd9 24bd c9dc 2abd 999e 7bbc
00000030: 281d 14bd 67a6 02bc 54a1 793d 407a 703b
00000040: 0000 0000 a991 0bbc c937 633d 8d78 e4bb
00000050: 163e 983d f530 d4ba
0.09168531 0.025821703 0.008926566 0.004376427 -0.016085526 -0.009059304 -0.058223385 0.08812535
-0.038566764 -0.040246602 -0.041714463 -0.015357637 -0.036160618 -0.007974244 0.06094487 0.003669396
0.0 -0.008518615 0.055473123 -0.0069723786 0.07433717 -0.0016188907

critic.conv1.lin.weight f4 [22, 22]
00000000: e112 a73e 9544 293e 3b9d a5bd c599 8e3e
00000010: ad19 a9be c05b d7bd 014b 153e 8bc4 523e
00000020: aafb a2be 875a a03e a774 9e3e 56f8 b73e
00000030: 4841 373e fa53 ad3d defe 713d 66fb a4be
00000040: 81a1 97be 4ea9 87be 3bec 56bd ea8e 05bd
00000050: bd42 683e 455f 0cbe 0e27 7f3e 908e ad3e
00000060: 731a 49be 4305 363e 03aa d53d 43dd 973e
00000070: d05f 47bd e519 3f3e 2e7c bfbe b6ce 8fbe
00000080: f4cc 0abd 61ac 8dbe f36c 9b3e a072 b3bd
00000090: 33ae 8e3c 66eb 5ebe 40a1 b2be 5fb5 853e
000000a0: 84f9 953d 08fa 343d 10dc 85be b721 e2bd
000000b0: e201 acbd 7856 953e fd1f 7d3e eab9 973e
000000c0: 34f9 1e3d fb14 aa3e 3ec2 1b3d 5ea4 563e
000000d0: b48f a63e 10a2 91be 8ad1 b5be 5160 783e
000000e0: a614 53be 6987 97be 69eb 893d 603c dd3d
000000f0: 51b3 b93e 55d7 98be 8f6f 4b3c 3974 a83e
00000100: 1642 b63e 4877 fa3c a33b b7be d56d db3d
00000110: 7e2c b23e 914f 07be 331a a73d 50f1 9ebe
00000120: ba2a c43e b17f d6bd 6ba7 0b3b d62c 2fbe
00000130: 29c6 b8be 020e 8c3c fd0b 263e a255 01bd
00000140: 1366 b13e 909b 923e 3e0a 833c 4784 803e
00000150: 8437 febd 98bd babe a2b1 c4be 12cd 0a3e
00000160: a068 6fbd 3c70 9ebe b6f4 8a3d a2f0 5cbe
00000170: c6c3 21be b516 963e 210a 64bd ffe3 f23d
00000180: 88c4 e83d f3c5 57bd 505f f73d 43f5 93bd
00000190: 150d d8bd 4d3f 89be 86e0 af3c 1192 01be
000001a0: 19d2 9d3e 09cd 19be 61d9 463e 4903 bbbe
000001b0: 14a1 8e3d a3cc 973a 1962 a73e 0c9c 86bc
000001c0: 2f8d babe 37fc bdbe 28dd e03b 9ea3 0b3e
000001d0: 00e7 2ebe 65eb 723e fcba 9abe e5ec 883d
000001e0: 39ed ac3d 98aa 90be c9ef 483e 9ffd 8cbe
000001f0: 253c afbe 4be8 6c3e 9af2 0c3e cc4f e9bd
00000200: 03bc 31be 257e 22be 9f01 823e 2ce2 a8be
00000210: a866 993d 2c14 183e 0ae6 99be af04 c2be
00000220: c686 5d3e 1f30 f73c 78b0 753e 1a45 9b3d
00000230: 8e56 6d3e 9281 f83d 0ec2 57bd e5d5 723e
00000240: e4bd 75be d699 23be 3bc4 403e 028a 863e
00000250: 0e8c 9f3d c911 08be 3ee6 893d edbe bbbe
00000260: 88dc b2be 7cff 75be c0ff 3f3e f16d b0be
00000270: 8c5a a8bd 60dc 473e dbd2 5d3d 09f6 a23b
00000280: 5506 823e 1ff7 d73d 9655 4c3e a809 503c
00000290: a689 93be 840f bdbd 791e d8be 594e 35bd
000002a0: c29e 0dbf 32a2 61be c76f 3abe ab62 b1be
000002b0: f7d8 a3be a97b 4c3e 4846 263d cd81 193e
000002c0: 4fab 903d e6d6 5d3e 5140 7ebb 8b7b 063e
000002d0: e032 8cbe f941 a7bc 8e5c 12be a62b 743d
000002e0: 8adb 523e 28fc 903e 1909 b6bd 0969 9fbe
000002f0: 5686 753d 86fb 52be 871a 9a3e 7973 e93c
00000300: 90b3 6dbe e697 b03e f949 973e 9514 8c3e
00000310: 08cf adbd b3f7 463e 1933 bcbd a796 13be
00000320: 4145 833e ca50 5e3e 764f 19bb 5fc9 663e
00000330: d6bc 2c3e 33e8 69be d839 333d be17 f9bc
00000340: c9c6 26be 5ef6 4b3d 3ff9 18be c119 8a3d
00000350: e5e0 843e 65f4 f03d 2a0f ac3e 074e e03d
00000360: 8811 3bbd ead1 1cbe 7f79 373e 717b a0be
00000370: b9ca 613e 6916 6bbe a355 0fbe 9d88 a6be
00000380: 417e bdbd e775 d4bd 3b7f 9fbe 61f0 79be
00000390: e8f2 12be 07ff 7fbe 68d8 b33e 61f2 15be
000003a0: d32a f43d c2c5 cc3e 715d 2f3e 8d41 2a3e
000003b0: bb0d 15bc aa78 fd3c 6c3e 43be 6604 ad3e
000003c0: 24da 13be 81ae 933d 5942 483d 7395 bebd
000003d0: 5e58 8fbd cdfb ec3d 620f 41be 03b4 0fbe
000003e0: 37c1 a83d f847 54be 1028 b43d 1adf 80bd
000003f0: 4007 7ebe 601c 9c3e be10 9d3e bd02 063d
0.3263159 0.16530068 -0.0808663 0.27851692 -0.33027402 -0.10515547 0.14579393 0.20582788
-0.3183263 0.31319067 0.30948374 0.35931653 0.17895997 0.08463283 0.05908095 -0.32223052
-0.29615405 -0.26496357 -0.05247138 -0.032606997 0.22681709 -0.13708217 0.24917242 0.3389783
-0.19638996 0.17775445 0.10432818 0.29660997 -0.04867536 0.18662222 -0.3739943 -0.28087395
-0.033886865 -0.27670577 0.3035656 -0.08762097 0.017417049 -0.21769485 -0.3488865 0.26114938
0.07322982 0.04418376 -0.26144457 -0.11041587 -0.083987966 0.29167533 0.24719234 0.2963403
0.038811877 0.33219132 0.03802704 0.20961139 0.32531512 -0.28443956 -0.35511428 0.24255492
-0.20613346 -0.29595497 0.06734354 0.10802531 0.3626962 -0.29851785 0.012416734 0.3290117
0.35597295 0.030574456 -0.35787687 0.10714308 0.3479957 -0.13213946 0.08159294 -0.31043482
0.38313848 -0.10473574 0.0021309506 -0.17106947 -0.36088684 0.017096523 0.1621551 -0.031575806
0.3464819 0.2863431 0.015996095 0.2510092 -0.124129325 -0.36472774 -0.38416773 0.1355479
-0.058449388 -0.30945003 0.06784956 -0.21576169 -0.15797338 0.293142 -0.055673722 0.11859893
0.1136561 -0.052679013 0.12078726 -0.07224514 -0.1054937 -0.26806107 0.021469366 -0.12653376
0.30824354 -0.15019621 0.19418861 -0.36525944 0.06964317 0.0011581372 0.3269203 -0.01643183
-0.3643584 -0.37106487 0.0068623014 0.13636634 -0.17080307 0.23722608 -0.30220783 0.06685809
0.08443684 -0.28255153 0.19622721 -0.27537248 -0.34225574 0.23135488 0.1376442 -0.11392173
-0.17356877 -0.15868433 0.25391862 -0.32985055 0.07490283 0.14851445 -0.30058318 -0.37894198
0.21633443 0.030174313 0.23993099 0.075815395 0.23177549 0.121340886 -0.0526753 0.23714407
-0.23998219 -0.15976653 0.18824856 0.26277167 0.07790385 -0.13288034 0.06733368 -0.36669102
-0.34933877 -0.24023241 0.18749905 -0.3445888 -0.082203954 0.1951766 0.054156166 0.0049731773
0.25395456 0.105451815 0.19954523 0.012697615 -0.28815955 -0.09231475 -0.4221075 -0.04426417
-0.5532037 -0.22034529 -0.18206702 -0.3464559 -0.3200147 0.19969048 0.04059437 0.14990921
0.070639245 0.21664008 -0.003879566 0.13133065 -0.27382565 -0.0204172 -0.1429312 0.05961194
0.2059156 0.2831738 -0.08888454 -0.31134823 0.059942566 -0.20603761 0.30098364 0.028497444
-0.23213029 0.3449089 0.29548624 0.27359453 -0.08486754 0.19430427 -0.091894336 -0.14412938
0.25638774 0.21710506 -0.002339331 0.22537754 0.1686891 -0.22842483 0.043756336 -0.030406829
-0.16286768 0.0497955 -0.1493883 0.067431934 0.2595283 0.117653646 0.3360532 0.109523825
-0.045671016 -0.15314451 0.17917441 -0.31344178 0.22049989 -0.22957768 -0.13997512 -0.32526103
-0.09252597 -0.103740506 -0.31151757 -0.24408104 -0.14350474 -0.24999629 0.35126042 -0.14643241
0.119222306 0.39994627 0.17125489 0.16626568 -0.009097512 0.030941326 -0.19066781 0.33792418
-0.14438683 0.07211018 0.0488914 -0.09305849 -0.069992766 0.11571465 -0.18853524 -0.14033513
0.08239978 -0.20730579 0.08796704 -0.06292553 -0.24807453 0.30490398 0.30676836 0.032717455

critic.lin1.weight f4 [32, 22]
00000000: 1d5c 2dbd 90af 3abc d116 753d 8ae3 c63d
00000010: 4ee9 143e ce5d cd3d b0f4 74bd 0bc2 72be
00000020: 6bb2 093e 74ee f63c 412b 363e 5e2f 293e
00000030: ede2 403d 5655 32bd b208 50be 7154 5cbc
00000040: 2d81 693d dab9 c93c ed81 abbd d3b3 91bc
00000050: 2ebc 84bd ae81 8b3d d0ee f6bc 80ea b0bc
00000060: d02a 7a3c 90db 1e3d dc55 853d ce70 a6bd
00000070: 4654 c6bd 0025 4f3e e715 f0bd ebf4 fcbd
00000080: f46f 4bbe 48c1 29be 5e42 343e 304a 0ebe
00000090: e0ad 4d3c a84d 6dbd 52c2 f7bd 882f 283d
000000a0: 4c35 f33d 0526 c6bd 5eb4 3f3e 8411 3fbe
000000b0: 7d7e cebd 1d50 ec3d 65cd bbbd 1345 163e
000000c0: 283d 2a3e a40a 1e3d 45eb 303d d573 5e3d
000000d0: 17b7 30be 4bee 6a3d cc0a 45be 7ce5 4dbe
000000e0: 5f70 1ebe b418 17be 8965 0a3e 2e96 323e
000000f0: d5a3 a63d 58d2 89bd 92e5 063e 6717 3c3e
00000100: dd93 2b3e c946 3a3e 02fc 5cbe 11e3 953d
00000110: 7090 5e3d 8f13 d93d af14 b4bd ec27 2a3e
00000120: c119 d13d e2eb 2c3d 1090 e4bc 38cb b6bd
00000130: 80b7 2cbe 2c40 353a 21fd ce3c f8fe d63d
00000140: 3255 99bd f977 8f3d 196a cb3c 6433 173d
00000150: 38ea b4bc 384b 12be 4b5b 023e 072b ce3d
00000160: 49b6 f63d 958e f63d e72b 5fbc 7bfc 9d3d
00000170: 78bb 3e3e d420 5fbe a5fb 26bd ee6f 263e
00000180: 4c36 32bd 5e92 00be 73ec 0d3e b2ab d53c
00000190: b178 1cbe 4ace ef3c a7b1 ce3d 69bc 29be
000001a0: a406 c23d 2d72 96bd f6de 92bd d879 1d3e
000001b0: 1071 5f3d 87b1 87bd 0567 503e b00e d5bb
000001c0: bb5c c7bc 83dd 09bd 5bb7 0fbd b9f9 c1bd
000001d0: 20fd f8b8 f0bd b23d 3463 2abd e94c 393d
000001e0: 720d fc3d 1835 4abe 1ed1 093e 20af 573d
000001f0: 16b4 e33b d833 b43d 74fb 3cbe 8f45 c6bd
00000200: 7c75 14be 97a1 213e 32da 723d a5bb 14be
00000210: 0894 22bd 74ef c43d 60cd 873b b7e5 44be
00000220: 4889 f93c 90e8 3d3d 20ef 94bd e22f 14be
00000230: b02b 0f3e 9c28 49bd 9f28 dcbd 0f75 2dbe
00000240: d444 4f3e 560e 2bbe 4cbc 19bd 7cea b0bd
00000250: f47e 40be aacb 4fbe 3116 d9bd 00d9 df3d
00000260: 0b23 23be ce6c dbbd 5df8 bfbd 5bed 06be
00000270: 3863 fe3d 12a4 1ebe e866 423e 3656 02be
00000280: b4bc 493e 0017 4bbc 7365 3dbe 962d 0bbe
00000290: 6c12 123e 6084 d5bd 7081 a33d b85c bf3d
000002a0: d0df 18be ef49 25be 7488 033e 8927 bfbd
000002b0: b956 3abe 2c46 54bd e4c4 d43d 3f92 07be
000002c0: 59f1 283c e9f2 0a3e 1f98 11be 0514 d9bd
000002d0: 90ef 303e 39a7 443d bd6d c6bd e354 bd3d
000002e0: db29 c73c 14f2 3fbd 124f b13d a8d6 90be
000002f0: 39c7 1abe ba34 84bd b9be 153e d0db ae3d
00000300: 9bef 33be 2e7e 52bc 0bac 963d fa14 f7bd
00000310: f8d3 db3d 952e 6f3b 5420 403e 3cca 633d
00000320: 4cb9 a8bd ca9f a63d cac6 54be a73b a73c
00000330: d3c4 3d3e e6fb 7d3d bce4 173d 6e32 103e
00000340: a948 ec3b f2cb 9ebc 9946 37be 0d30 263e
00000350: 6b8e 75bd 7e19 d1bc b7e6 e93d 26a4 d13d
00000360: 1a50 f23b 2895 d7bc 7f87 113d b963 8ebd
00000370: a0f9 583e dd29 ddbd 8fb2 31be 8438 3fbd
00000380: 57e4 52be 0c89 42bd 5301 52be 96d4 46be
00000390: d060 633c 12d5 363e 78b3 1a3e a448 13be
000003a0: 7c8f 30be f815 9abd 90a5 153e f0b7 a53d
000003b0: 4c57 ec3d 7ffa 46be 4475 aa3d b4a6 b83d
000003c0: 28d1 d4bc 086b a33c 06f1 8c3e 57ce cd3d
000003d0: b148 f2bd 1468 7abd b9c2 153d 60c0 4fbe
000003e0: adaa 66be aa86 283e 8af1 3cbd 3d59 5c3e
000003f0: 7629 28bd 3c9e e7bd 5f81 b0ba 8a92 5ebd
-0.042324174 -0.011394396 0.059836213 0.097113684 0.14542124 0.100276574 -0.059803665 -0.23706834
0.13446967 0.030143 0.17789938 0.16521975 0.047091413 -0.043538414 -0.20315817 -0.013447867
0.057007957 0.024624754 -0.08374391 -0.017785942 -0.06481205 0.06811844 -0.030143172 -0.021596193
0.015268996 0.03878361 0.06510517 -0.081269845 -0.09684043 0.20228958 -0.117229275 -0.12351402
-0.19866925 -0.16577637 0.17603442 -0.13895488 0.012553662 -0.057935387 -0.120976105 0.041060954
0.118754 -0.096752204 0.18721148 -0.18659025 -0.100827195 0.11538718 -0.09170035 0.14674787
0.16624892 0.038584366 0.04319312 0.054309685 -0.17257343 0.05735616 -0.192424 -0.20107073
-0.15472554 -0.14755517 0.13515295 0.17440102 0.08136717 -0.06729573 0.13173512 0.18368302
0.16755624 0.18191065 -0.21580508 0.073187 0.054336965 0.10599434 -0.087930076 0.16616791
0.1020999 0.042217143 -0.027900726 -0.0892548 -0.16866875 0.00069141644 0.025267186 0.1049785
-0.07486953 0.07005305 0.024830865 0.036914244 -0.02208434 -0.14286506 0.12730138 0.100668006
0.12046487 0.12038914 -0.013621307 0.077141725 0.18626201 -0.21789867 -0.04076733 0.16253635
-0.043508813 -0.12555835 0.1385973 0.026082847 -0.15280415 0.029273171 0.10092478 -0.16575779
0.09473923 -0.07345996 -0.07171433 0.15378511 0.054551184 -0.066256575 0.20351799 -0.006501995
-0.02433621 -0.033658516 -0.03508697 -0.09471459 -0.0001187271 0.08727634 -0.041598514 0.045239363
0.12307252 -0.19746816 0.13458678 0.052657247 0.006948958 0.08798951 -0.18455297 -0.09681236
-0.14497942 0.15784298 0.05929012 -0.14524706 -0.039691955 0.096159846 0.0041443557 -0.19228254
0.030460969 0.046364367 -0.07272172 -0.14471391 0.13981509 -0.049110994 -0.10749935 -0.16939186
0.202411 -0.16704687 -0.03753309 -0.08638474 -0.18798429 -0.20292535 -0.10599936 0.10930061
-0.15931337 -0.10714112 -0.093735434 -0.13176481 0.12421268 -0.15492275 0.18984568 -0.127282
0.19700891 -0.01239562 -0.18495731 -0.13591608 0.1426484 -0.10425639 0.079836726 0.093438566
-0.14929128 -0.16141485 0.12845021 -0.093337126 -0.18197145 -0.051824734 0.103891164 -0.13239382
0.010311448 0.13569225 -0.14218186 -0.105995215 0.17278886 0.04801104 -0.096889 0.092447065
0.02431195 -0.046861723 0.086576596 -0.2828877 -0.1511506 -0.06455369 0.14623536 0.0853802
-0.17571871 -0.012847466 0.07357033 -0.12064548 0.10733789 0.003649627 0.18762332 0.055612788
-0.082384676 0.08135946 -0.20778957 0.020414187 0.18532114 0.062007807 0.037083372 0.14081737
0.00721081 -0.019384358 -0.17898025 0.16229267 -0.059950273 -0.025524851 0.114209585 0.10236387
0.0073948028 -0.02631624 0.03552961 -0.06952614 0.21188974 -0.107990004 -0.17353271 -0.046684757
-0.20594917 -0.04749398 -0.20508318 -0.19417033 0.013878062 0.17854717 0.15107524 -0.14383179
-0.17242235 -0.075237215 0.14613938 0.08091724 0.11540088 -0.19431494 0.08323148 0.09016171
-0.02597864 0.019948497 0.27527636 0.10049122 -0.11830271 -0.061134413 0.036562655 -0.20288229
-0.22526045 0.1645762 -0.046128787 0.21518417 -0.041055165 -0.11309478 -0.001346629 -0.05433897

critic.lin1.bias f4 [32]
00000000: 645a 47be 762a 0dbe 72d0 fdbd a7e7 9c3d
00000010: 9d02 293c 9f78 443c 80dc e33d 418a 26be
00000020: 1561 57be 53d3 b13b 4412 43bd 8858 1e3e
00000030: 1b3f 3e3e 393f 9f3d c17f 133e 0d47 b2bd
00000040: 66c6 0ebe aa2a 0f3e 82c8 b9bd 2a42 8dbc
00000050: 703a f03d 92a5 f33d 7232 5abe d006 5e3d
00000060: 0651 573d 2c11 40be 9629 8abe 149a 4c3c
00000070: fc5c bebd a6ec 4ebc 2c63 f23d 9a3e 08be
-0.19468075 -0.13785729 -0.123932734 0.07661372 0.010315564 0.011991649 0.111260414 -0.16263677
-0.21033128 0.005426803 -0.04762484 0.1546346 0.1857876 0.07775731 0.14404203 -0.08704958
-0.1394287 0.13981119 -0.09071447 -0.017243464 0.11729896 0.118968144 -0.21308306 0.054205716
0.052567504 -0.1875655 -0.26984853 0.012487907 -0.09295079 -0.012629664 0.11835322 -0.1330513
