saved_files/ckpt/nyc4/a2c_gnn_test_imitate-1.pth (torch, 90321 bytes, 60 tensors)

actor.gamma_rate f4 [16, 16]
0	0x41a02357	20.017256
1	0x419fffcd	19.999903
2	0x41a02e98	20.02275
3	0x41a03337	20.025007
4	0x41a007c9	20.003801
5	0x41a00e76	20.007061
6	0x419ff25f	19.993345
7	0x419fff25	19.999582
8	0x41a00b27	20.005445
9	0x41a020fc	20.016106
10	0x41a02b1d	20.021051
11	0x419fd80f	19.980497
12	0x41a015d9	20.010668
13	0x41a019ba	20.012562
14	0x41a0046e	20.002163
15	0x41a00934	20.004494
16	0x41a01228	20.008865
17	0x41a00fc6	20.007702
18	0x41a016be	20.011105
19	0x41a05aa8	20.044266
20	0x41a026bb	20.018911
21	0x419ffb16	19.9976
22	0x41a028ec	20.019981
23	0x419ff87d	19.996332
24	0x419ff1cc	19.993065
25	0x41a00a4b	20.005026
26	0x41a02551	20.01822
27	0x41a03e25	20.030344
28	0x419ffbbe	19.997921
29	0x419ffb7d	19.997797
30	0x41a00ecf	20.00723
31	0x419fff08	19.999527
32	0x41a0124a	20.00893
33	0x419fd4ea	19.978962
34	0x41a00dd4	20.006752
35	0x41a02057	20.01579
36	0x419ff762	19.995792
37	0x419fc616	19.971722
38	0x41a001c7	20.000868
39	0x419ffb8f	19.997831
40	0x41a02597	20.018354
41	0x41a00ec9	20.00722
42	0x41a0164f	20.010893
43	0x41a01071	20.008028
44	0x419fdc51	19.982576
45	0x419ffaf0	19.997528
46	0x41a000a0	20.000305
47	0x41a01b35	20.013285
48	0x41a01a52	20.012852
49	0x41a0079d	20.003717
50	0x41a0180e	20.011745
51	0x419ffc8e	19.998318
52	0x419ff377	19.99388
53	0x41a00478	20.002182
54	0x419fe556	19.98698
55	0x419fdd36	19.983013
56	0x419fe731	19.987886
57	0x419ff9a1	19.99689
58	0x419fe66b	19.987509
59	0x41a00bed	20.005823
60	0x419ff113	19.992712
61	0x419fd27f	19.977781
62	0x41a013d3	20.00968
63	0x41a04572	20.033909
64	0x419ff0ef	19.992643
65	0x419fdb11	19.981966
66	0x419fd291	19.977816
67	0x419fd1a2	19.97736
68	0x41a0263f	20.018675
69	0x419fd225	19.97761
70	0x41a00f23	20.007391
71	0x419fe92f	19.98886
72	0x41a016a6	20.011059
73	0x419fffea	19.999958
74	0x419ff59e	19.99493
75	0x419fe375	19.986063
76	0x41a00ad5	20.00529
77	0x419ffd0a	19.998554
78	0x41a0140c	20.009789
79	0x41a02462	20.017765
80	0x419ff514	19.994667
81	0x41a02c97	20.021772
82	0x41a016b2	20.011082
83	0x419ffe88	19.999283
84	0x419ffd46	19.998669
85	0x41a021fa	20.01659
86	0x419ff2f0	19.993622
87	0x419ffc91	19.998323
88	0x41a00677	20.003157
89	0x41a010da	20.008228
90	0x419ff719	19.995653
91	0x419fd265	19.977732
92	0x41a0319a	20.02422
93	0x419fded3	19.9838
94	0x419ff98a	19.996845
95	0x41a01a12	20.01273
96	0x41a020f2	20.016087
97	0x419fd310	19.978058
98	0x41a0186b	20.011923
99	0x41a04275	20.03245
100	0x419ff795	19.99589
101	0x41a0242c	20.017662
102	0x41a023e8	20.017532
103	0x41a01b1b	20.013235
104	0x419ff7d0	19.996002
105	0x419ff0ec	19.992638
106	0x41a01185	20.008554
107	0x419fe6f6	19.987774
108	0x41a0181b	20.01177
109	0x419fc264	19.969917
110	0x419fd2a0	19.977844
111	0x419fe717	19.987837
112	0x419fcd88	19.975357
113	0x41a0325f	20.024595
114	0x41a018a9	20.012041
115	0x41a015a3	20.010565
116	0x41a00bcf	20.005766
117	0x41a0011f	20.000547
118	0x419fccbe	19.974972
119	0x419fbaee	19.966274
120	0x419fc414	19.970741
121	0x41a00678	20.003159
122	0x41a00495	20.002237
123	0x419ff24e	19.993313
124	0x419fff3b	19.999624
125	0x419fea84	19.98951
126	0x41a00123	20.000555
127	0x41a00d98	20.006638
128	0x419ff5eb	19.995077
129	0x419fe57d	19.987055
130	0x41a020b4	20.015968
131	0x419fdee4	19.983833
132	0x419ff80c	19.996117
133	0x419ff384	19.993904
134	0x41a0023b	20.00109
135	0x41a0159a	20.010548
136	0x41a0125f	20.00897
137	0x419fd7a1	19.980288
138	0x41a01446	20.0099
139	0x419fd580	19.979248
140	0x41a01aae	20.013027
141	0x41a01e32	20.014744
142	0x419fd7b9	19.980333
143	0x41a05bc8	20.044815
144	0x419fd31f	19.978086
145	0x41a0286f	20.019743
146	0x419fe42b	19.98641
147	0x41a01a69	20.012896
148	0x41a02235	20.016703
149	0x419fed9d	19.991022
150	0x41a00947	20.00453
151	0x41a02b85	20.02125
152	0x41a0443a	20.033314
153	0x419fcdca	19.975483
154	0x41a017d7	20.01164
155	0x419fea68	19.989456
156	0x419fdf3c	19.984001
157	0x419fc9e8	19.973587
158	0x41a01f7b	20.015371
159	0x41a00904	20.004402
160	0x41a00869	20.004107
161	0x41a013be	20.00964
162	0x419fdc53	19.98258
163	0x41a001a7	20.000807
164	0x41a02245	20.016733
165	0x41a04b27	20.036695
166	0x419fe5fa	19.987293
167	0x419fef26	19.991772
168	0x419ff095	19.992472
169	0x419fdd24	19.982979
170	0x41a0025b	20.00115
171	0x419fe5ed	19.987268
172	0x419fc4ca	19.971088
173	0x41a0037c	20.001701
174	0x419fe08f	19.984648
175	0x41a007df	20.003843
176	0x41a02774	20.019264
177	0x41a015e6	20.010693
178	0x419fcdc8	19.97548
179	0x419ff500	19.994629
180	0x41a033ea	20.025349
181	0x419fd942	19.981083
182	0x41a021e5	20.01655
183	0x41a01657	20.010908
184	0x419ff4fa	19.994617
185	0x419ff715	19.995646
186	0x419fe1bc	19.985222
187	0x419fed91	19.991
188	0x41a01288	20.009048
189	0x419ff8f1	19.996553
190	0x41a0029d	20.001276
191	0x419ffaca	19.997456
192	0x419feb84	19.989998
193	0x419fff30	19.999603
194	0x419ffbcf	19.997953
195	0x41a000cd	20.000391
196	0x41a051f3	20.040014
197	0x419ff2ec	19.993614
198	0x41a00ecf	20.00723
199	0x419fee39	19.99132
200	0x419ffe2e	19.999111
201	0x419fcbbe	19.974483
202	0x41a0178a	20.011494
203	0x41a014db	20.010183
204	0x419fc77c	19.972404
205	0x419ff719	19.995653
206	0x41a03904	20.02784
207	0x41a02f76	20.023174
208	0x41a01dc1	20.014528
209	0x41a0120a	20.008808
210	0x41a00345	20.001596
211	0x419ff09c	19.992485
212	0x419fe0f9	19.98485
213	0x41a01801	20.01172
214	0x41a01356	20.009441
215	0x41a01af7	20.013166
216	0x419ff5a5	19.994944
217	0x419fe9dc	19.98919
218	0x41a0292a	20.0201
219	0x419ff909	19.9966
220	0x41a00f2b	20.007406
221	0x419fe3a9	19.986162
222	0x41a002c0	20.001343
223	0x41a00965	20.004587
224	0x419feb45	19.989878
225	0x419fec3f	19.990355
226	0x41a00f6e	20.007534
227	0x41a00608	20.002945
228	0x41a01928	20.012283
229	0x41a008d3	20.004309
230	0x419ff778	19.995834
231	0x419fe69a	19.987598
232	0x41a02462	20.017765
233	0x41a03228	20.02449
234	0x419feff0	19.992157
235	0x419fdf3f	19.984007
236	0x419fec26	19.990307
237	0x419fed0a	19.990742
238	0x41a00437	20.002058
239	0x419fdcd0	19.982819
240	0x419ff3f5	19.99412
241	0x419fde58	19.983566
242	0x41a01142	20.008427
243	0x419ff4d4	19.994545
244	0x41a02835	20.019632
245	0x419fedb6	19.99107
246	0x41a03bdb	20.029226
247	0x41a00e7e	20.007076
248	0x419ffa0e	19.997097
249	0x41a01e47	20.014784
250	0x419fbd96	19.967571
251	0x41a01023	20.00788
252	0x41a01442	20.009892
253	0x419fdac4	19.98182
254	0x41a02732	20.019138
255	0x419fd303	19.978033

actor.conv1.bias f4 [21]
0	0xbcaea799	-0.021320151
1	0xbc2e267a	-0.010629291
2	0xbd7b2e56	-0.061323486
3	0xbb997ad5	-0.004683832
4	0x3d0e0aee	0.034678392
5	0xbc822a5a	-0.015889335
6	0x3da5cd08	0.08095747
7	0x3db0b160	0.086275816
8	0x3da9cc92	0.08290972
9	0xbb0e64f1	-0.0021727646
10	0xbd3e2547	-0.04642227
11	0x3c2fdd75	0.010733952
12	0x3d44350a	0.047902144
13	0xbbbd73c8	-0.0057816245
14	0x00000000	0.0
15	0x00000000	0.0
16	0x3c8b354d	0.01699319
17	0x3dc15b9c	0.09441301
18	0x3ca8838d	0.02057054
19	0x3d7106a8	0.05884424
20	0xbb3aa4e2	-0.0028479625

actor.conv1.lin.weight f4 [21, 21]
0	0x3ea2b4cc	0.31778562
1	0xbdb57921	-0.08860994
2	0x3d8f8779	0.07008261
3	0x3ddaf694	0.10691562
4	0x3e9f99ba	0.31171972
5	0xbe97bf27	-0.29638025
6	0xbeb71875	-0.35760847
7	0x3d72693e	0.059182398
8	0xbe6e1fdf	-0.23254345
9	0x3dba9fd1	0.09112514
10	0xbcc712a1	-0.024300875
11	0xbd776e27	-0.060407784
12	0xbe862533	-0.26200256
13	0xbdcfe669	-0.10151369
14	0x3de23b51	0.1104647
15	0xbec2f2ed	-0.38075963
16	0x3da32abb	0.079671346
17	0x3e9abe28	0.30223203
18	0x3e09074c	0.1338169
19	0x3da4e7e2	0.08052041
20	0xbd8ebde3	-0.06969812
21	0xbe15f1ca	-0.14643016
22	0xbd896a07	-0.06709676
23	0xbe42a29b	-0.19007342
24	0x3d1d443c	0.03839515
25	0xbe98bd5e	-0.29831976
26	0xbe9af177	-0.30262348
27	0xbe6c5259	-0.23078288
28	0x3ce8662f	0.028369037
29	0x3e8b24e5	0.27176586
30	0x3de749fd	0.11293409
31	0x3e813cb2	0.2524162
32	0x3e5366ee	0.20644733
33	0xbe6f0c46	-0.23344526
34	0xbce4b97d	-0.027920479
35	0x3ea67976	0.32514542
36	0xbdf827c3	-0.12116959
37	0xbe2d3b36	-0.16917118
38	0x3dc36160	0.09540057
39	0xbebfba45	-0.374468
40	0x3e4ab46e	0.19795391
41	0xbe821413	-0.2540594
42	0xbc38a232	-0.011269139
43	0x3ded36f8	0.1158275
44	0xbd6c819d	-0.057740796
45	0x3e0baa4a	0.13639179
46	0x3e498322	0.1967893
47	0x3cec9373	0.028878903
48	0xbea8a0e2	-0.32935244
49	0x3be2b0e1	0.0069180583
50	0xbe541175	-0.20709784
51	0x3dbfe5a7	0.093699746
52	0xbe892f6d	-0.26793995
53	0x3e2eb4cb	0.17061155
54	0x3c7ad5ed	0.015309793
55	0x3e29cbaf	0.16581605
56	0xbe5ba81e	-0.2145085
57	0xbd0f4d5b	-0.03498588
58	0x3e851316	0.25991124
59	0xbe34d697	-0.17659985
60	0xbec0676f	-0.37578914
61	0x3d87f289	0.06638057
62	0x3e1cc218	0.15308416
63	0x3d97504a	0.07388361
64	0x3eb67790	0.35638094
65	0xbe91887b	-0.2842444
66	0x3e2e5337	0.17023931
67	0xbe0a2ff9	-0.13494863
68	0x3ea88c8d	0.32919732
69	0x3e713129	0.2355391
70	0xbd44aa08	-0.048013717
71	0xbd4266f7	-0.047461476
72	0x3e753a79	0.23948087
73	0xbe971f4f	-0.29516074
74	0xbcfd1636	-0.03089438
75	0xbe3bf776	-0.18356118
76	0x3e5c6e5d	0.21526475
77	0xbe7acbad	-0.24491759
78	0xbe3f6af5	-0.18693145
79	0xbe8e1226	-0.2774822
80	0x3dfe1497	0.12406271
81	0xbe73f684	-0.23824507
82	0xbd38b3ea	-0.045093454
83	0x3ba426cd	0.005009508
84	0x3ef22862	0.47296435
85	0x3ebe47d3	0.37164173
86	0x3ecad99d	0.3961915
87	0x3ec48563	0.38383016
88	0xbd32bfa7	-0.043639805
89	0x3eb07e2f	0.3447127
90	0x3ec7ec5d	0.39047518
91	0x3ef55b3d	0.47921172
92	0x3f03107c	0.5119703
93	0x3e42a39f	0.19007729
94	0x3def3ea8	0.116818726
95	0x3ebdb7a0	0.37054157
96	0x3ea6db7b	0.32589325
97	0x3ebad5bd	0.36491194
98	0xbe903366	-0.28164214
99	0x3ec00ed9	0.37511328
100	0x3e5f9232	0.21833113
101	0xbdcb9fe3	-0.09942605
102	0x3ea36e24	0.31919968
103	0x3ea2484a	0.31695777
104	0x3e8f4d72	0.27988774
105	0x3dfd83a9	0.12378628
106	0xbe745ac8	-0.23862755
107	0x3cce3056	0.025169533
108	0xbe08ec73	-0.13371448
109	0xbd736361	-0.059420947
110	0x3e288cb1	0.1645992
111	0x3c8b3810	0.016994506
112	0x3dd49d4e	0.10381566
113	0xbe826f13	-0.25475368
114	0x3e7a715b	0.24457304
115	0xbe694ddf	-0.22783612
116	0xbe08fc38	-0.13377464
117	0x3ea058d2	0.31317765
118	0x3ea7acec	0.32749116
119	0xbe5ad5d6	-0.21370634
120	0x3e28efd5	0.16497739
121	0xbe78d3a4	-0.24299484
122	0x3e8897b5	0.26678243
123	0xbd81c420	-0.06336236
124	0xbec13f09	-0.37743405
125	0xbe8993d8	-0.26870608
126	0x3e03864c	0.12844199
127	0x3e1353ce	0.14387438
128	0x3ec3bece	0.3823151
129	0xbe08c39c	-0.13355869
130	0x3e7ebeea	0.24877515
131	0x3a9d210c	0.0011987998
132	0x3f0c154b	0.5471999
133	0x3cd9886a	0.026554305
134	0x3d9f08d2	0.07765354
135	0x3f1913c0	0.5979576
136	0x3e254a62	0.16141656
137	0x3dce8463	0.100838445
138	0x3e360298	0.17774427
139	0x3de896fa	0.113569215
140	0x3e717030	0.23577952
141	0x3e8ba404	0.27273571
142	0x3d900720	0.07032609
143	0x3edd1d20	0.43186283
144	0x3ea27e97	0.31737205
145	0xbe82960d	-0.25505105
146	0xbd9e1e9a	-0.077206805
147	0xbd7f9a19	-0.06240282
148	0x3eba7f75	0.36425367
149	0x3eb99bf4	0.36251795
150	0x3eec813a	0.46192342
151	0x3f00cf1b	0.5031602
152	0x3cef746b	0.029230317
153	0x3ef64ab3	0.48103866
154	0x3e9a8d35	0.30185857
155	0x3e318385	0.17335327
156	0x3edc1ebf	0.42992207
157	0x3df156f6	0.117841646
158	0xbe559bdb	-0.20860235
159	0x3e523a75	0.20530112
160	0x3e6ce809	0.2313539
161	0x3d03189b	0.032005887
162	0x3ef105dc	0.47074783
163	0x3e8bbf8f	0.27294585
164	0x3d3c5f31	0.04598922
165	0xbcf1af5e	-0.029502567
166	0x3e7e9c65	0.24864347
167	0x3ec94418	0.39309764
168	0x3d18a94b	0.037270825
169	0x3e3b34cc	0.18281859
170	0x3e2562e9	0.16151012
171	0x3ef76406	0.483185
172	0x3f0d2d51	0.5514727
173	0x3e44cfaf	0.1921985
174	0x3f05c9bc	0.5226095
175	0x3f0dbd18	0.5536666
176	0x3d53166c	0.051535055
177	0xbd60bfcf	-0.054870423
178	0x3f084445	0.5322917
179	0x3e3f811f	0.187016
180	0xbe6f8ce3	-0.23393588
181	0x3ed895a7	0.42301676
182	0x3ef1ee17	0.4725196
183	0x3ecc524f	0.39906546
184	0x3da53789	0.08067233
185	0x3e8d95a6	0.27653235
186	0x3ea251d4	0.31703055
187	0xbe19cdae	-0.15019867
188	0x3d57d701	0.052695278
189	0x3e76f7f5	0.24118026
190	0xbe891695	-0.2677504
191	0x3e9bee44	0.3045522
192	0x3e6fca6f	0.23417066
193	0x3d8d717e	0.069064125
194	0xbe6d9003	-0.23199467
195	0xbea60479	-0.32425287
196	0x3e972f41	0.2952824
197	0x3e8d5a37	0.2760789
198	0x3dd0fc4d	0.102043726
199	0x3ea82a96	0.3284499
200	0xbe8dcac9	-0.27693775
201	0x3dd057f8	0.10173029
202	0xbea03b74	-0.3129536
203	0x3d55bd05	0.052182216
204	0xbb8ca077	-0.00429159
205	0x3e6b985a	0.23007336
206	0xbe449d6a	-0.19200674
207	0xbea93373	-0.33047065
208	0x3dc16002	0.0944214
209	0xbda534e1	-0.080667265
210	0xbc24df3c	-0.010062989
211	0xbe88c67f	-0.2671394
212	0x3e6d1f14	0.23156387
213	0x3e89ce2a	0.26915103
214	0xbe2e0640	-0.16994572
215	0xbe9abae6	-0.30220717
216	0x3e3db853	0.18527345
217	0xbe9f823a	-0.31154042
218	0xbe470404	-0.19435126
219	0xbec58300	-0.38576508
220	0xbe890099	-0.26758268
221	0xbd81e1bf	-0.06341886
222	0x3e00f77d	0.1259441
223	0xbe58f4bc	-0.21187109
224	0x3e8a91a4	0.2706424
225	0xbda422a0	-0.08014417
226	0x3cd8ee89	0.02648093
227	0xbe520c89	-0.20512594
228	0x3e8cbf1d	0.27489558
229	0xbe50dd81	-0.20396997
230	0x3d903c84	0.070427924
231	0x3e5b1e24	0.21398216
232	0x3db904ee	0.090341434
233	0x3e061b2d	0.13096304
234	0xbe9c5086	-0.30530185
235	0x3e25bd6a	0.16185537
236	0x3eb24dad	0.34824887
237	0xbb8bbf48	-0.004264746
238	0x3de61b83	0.11235716
239	0xbe411c2c	-0.18858403
240	0x3dc75406	0.09732823
241	0x3d28f2d5	0.041247208
242	0xbde9649e	-0.11396144
243	0x3da94391	0.082648404
244	0x3d1fb580	0.03899145
245	0xbeb4a2eb	-0.35280547
246	0x3e6c237d	0.23060413
247	0xbd9c32ed	-0.07626901
248	0x3de1d075	0.11026088
249	0xbeb83bf2	-0.35983235
250	0xbe03ba0d	-0.12863941
251	0xbc8abfed	-0.01693722
252	0x3eb8365c	0.35978973
253	0xbd22d5b4	-0.039754584
254	0x3e849600	0.2589569
255	0x3e914f7f	0.28380963

actor.lin1.weight f4 [32, 21]
0	0xbdd08c16	-0.10182969
1	0xbdbbef98	-0.09176558
2	0xbe16b13d	-0.14716049
3	0x3e64675b	0.22305052
4	0xbd2d3108	-0.042283088
5	0xbca175e8	-0.019709542
6	0xbc1f9925	-0.009741102
7	0xbdb01ae6	-0.085988805
8	0x3e1664ba	0.14686862
9	0xbdf2ae81	-0.1184969
10	0x3da6ef03	0.081510566
11	0x3e0f2558	0.1397909
12	0xbde8da86	-0.11369805
13	0xbc7542c4	-0.014969531
14	0xbdf3f6d8	-0.11912316
15	0xbe042f9d	-0.12908788
16	0xbdbe82d3	-0.093022965
17	0xbd5e3070	-0.054245412
18	0xbdc945bc	-0.09827754
19	0x3ded9855	0.11601321
20	0x3c1d813f	0.009613334
21	0x3ec1a041	0.37817577
22	0x3ea07423	0.31338605
23	0x3cc23026	0.0237046
24	0x3dfb38c3	0.12266686
25	0x3ea8e233	0.32985076
26	0x3ed83afb	0.422325
27	0x3c36dc8b	0.01116098
28	0x3eb53774	0.3539387
29	0x3ecd2bb2	0.400724
30	0x3ea53e1a	0.32273942
31	0x3ed96d69	0.42466286
32	0xbddf4e42	-0.10903598
33	0xbe11e6f4	-0.14248258
34	0xbda0ef4a	-0.07858141
35	0xbdbc0483	-0.09180548
36	0xbea69416	-0.32534856
37	0xbd4cd527	-0.050007965
38	0x3e23ae92	0.15984562
39	0x3deb3300	0.11484337
40	0x3e182926	0.14859447
41	0xbe19c6ad	-0.15017195
42	0x3ec4cda6	0.38438147
43	0x3dd0d0c7	0.10196071
44	0x3d6dcc94	0.05805643
45	0x3ead7591	0.3387876
46	0x3dbe0463	0.092781805
47	0x3ee99fe3	0.45629796
48	0x3e433565	0.19063337
49	0x3e9439dc	0.28950393
50	0x3e3edd01	0.18638994
51	0x3e9e1a95	0.30879655
52	0x3e3df608	0.18550885
53	0xbdb1eaed	-0.08687387
54	0xbd0ca8ed	-0.034340788
55	0xbe6c9dfa	-0.23107138
56	0xbe3315d0	-0.1748879
57	0xbdc36d03	-0.09542277
58	0x3dda3b60	0.10655856
59	0x3c8e4d5b	0.01737087
60	0xbbcffe6b	-0.0063474677
61	0x3ddcbe24	0.10778454
62	0x3d1721db	0.03689752
63	0x3e7a1ddd	0.24425454
64	0x3e873896	0.2641036
65	0x3e107015	0.14105256
66	0x3efd74bf	0.49503133
67	0x3e8b9adf	0.27266595
68	0x3e8f41c4	0.27979863
69	0x3eb349ff	0.35017392
70	0x3e8e5667	0.27800295
71	0x3ea5c0a1	0.32373527
72	0x3f0af4e8	0.5427995
73	0x3eee32ce	0.46523136
74	0xbe5244d0	-0.20534062
75	0xbd45379d	-0.04814874
76	0xbca4e246	-0.020127427
77	0xbc812e10	-0.015769035
78	0x3df40faf	0.11917054
79	0xbd0a8706	-0.033820175
80	0xbe724f34	-0.23663026
81	0xbe3399d5	-0.17539151
82	0x3dd0e3cd	0.101996996
83	0xbdb50a90	-0.08839905
84	0xbd5c6721	-0.05380929
85	0x3dbc9a90	0.09209168
86	0xbe10e555	-0.14149983
87	0x3dd10ae9	0.10207159
88	0xbe65f01d	-0.22454877
89	0xbe0a78de	-0.1352267
90	0x3d8a51d0	0.06753886
91	0xbdb2d32e	-0.087316856
92	0xbe6a022c	-0.22852391
93	0xbc1ca7ff	-0.009561538
94	0xbdaca3d2	-0.08429684
95	0xbe08a68a	-0.1334478
96	0x3db02b24	0.086019784
97	0xbde8b494	-0.113625675
98	0xbe15d344	-0.14631373
99	0x3dc8e828	0.09809905
100	0x3dd081d9	0.101810165
101	0x3c687747	0.014188594
102	0xbd87c54a	-0.06629427
103	0x3e260a70	0.16214919
104	0xbe011777	-0.12606607
105	0x3d3d40b7	0.046204295
106	0x3eb4bc21	0.3529978
107	0x3de63463	0.11240461
108	0x3da85505	0.08219341
109	0xbcd93ce7	-0.026518298
110	0x3e97dba1	0.2965975
111	0x3eb8d064	0.3609649
112	0x3e450bb0	0.1924274
113	0xbd52c3ab	-0.051456135
114	0x3e8ad3e1	0.27114776
115	0x3e3473d0	0.17622304
116	0xbd25a9f3	-0.04044528
117	0x3da17606	0.07883839
118	0x3da31bfa	0.079643205
119	0xbe238f81	-0.15972711
120	0xbc3a4233	-0.011368322
121	0x3d2b47fc	0.041816697
122	0x3dffc2e8	0.12488347
123	0x3d93d2c3	0.07217934
124	0xbde58446	-0.1120687
125	0xbd27ecf5	-0.040997464
126	0xbe3f9e30	-0.18712687
127	0xbe69ccd8	-0.22832048
128	0x3de15063	0.11001661
129	0xbd744f75	-0.05964609
130	0xbd8027f3	-0.0625762
131	0x3e394787	0.18093692
132	0x3de02513	0.10944571
133	0xbe522ce2	-0.20524934
134	0x3df3b796	0.119002506
135	0xbe40902b	-0.18804996
136	0x3d522135	0.0513012
137	0xbc4a0dc0	-0.01233238
138	0x3ccc55d6	0.024943274
139	0xbdb2f972	-0.08738984
140	0x3e32f2be	0.17475411
141	0xbe27ebde	-0.1639857
142	0xbd62584b	-0.055259984
143	0x3bf5d311	0.0075019677
144	0x3d241466	0.040058516
145	0xbd549013	-0.051895212
146	0xbd3f68f8	-0.046730965
147	0x3ecee2db	0.40407452
148	0x3ea77215	0.32704225
149	0x3eadda37	0.33955547
150	0x3e29250d	0.1651804
151	0x3e24d4c1	0.16096784
152	0x3ef08f6b	0.4698442
153	0x3ed2c425	0.4116527
154	0x3e72b766	0.23702773
155	0x3ecbbd34	0.39792788
156	0x3ec9c74a	0.39409858
157	0x3ed67bcd	0.41891328
158	0xbd536a74	-0.051615193
159	0x3d1273df	0.035755035
160	0x3c095506	0.008382088
161	0xbe04819a	-0.12940064
162	0xbe6171b8	-0.22016037
163	0xbd954da5	-0.072902
164	0x3d8c1648	0.06840187
165	0xbe5e07bc	-0.21682638
166	0x3dc58a5a	0.09645529
167	0xbe1fcee0	-0.1560626
168	0xbe0af5b8	-0.13570297
169	0x3e13e400	0.14442444
170	0xbc156403	-0.009118083
171	0x3e211f39	0.15734567
172	0xbe2b464d	-0.16726036
173	0xbe4624d1	-0.19349982
174	0xbe3bd267	-0.18341981
175	0x3d806f63	0.06271245
176	0x39996f5b	0.000292654
177	0x3e3846ab	0.17995708
178	0xbd12c5e3	-0.03583325
179	0xbdf5d848	-0.12004143
180	0xbdde25e1	-0.108470686
181	0xbe14bc93	-0.1452506
182	0xbcb3fc6c	-0.02197095
183	0xbe3311d5	-0.17487271
184	0xbd8b6f93	-0.068083905
185	0x3cf5c80f	0.030002622
186	0x3dc1e1df	0.094669096
187	0x3cf16584	0.029467352
188	0x3e2e1148	0.1699878
189	0x3e90fcab	0.2831777
190	0x3ed0454b	0.40677866
191	0x3d628fb0	0.055312812
192	0x3da01efa	0.07818408
193	0x3e23f34e	0.16010782
194	0x3e3fbc81	0.18724252
195	0x3ed40128	0.41407132
196	0x3ea44de6	0.32090682
197	0x3ecd5cd6	0.4010989
198	0x3f10d823	0.565798
199	0x3e500d0b	0.20317475
200	0xbe6f9b9e	-0.23399207
201	0xbe80458b	-0.25053057
202	0xbe06eea1	-0.13176967
203	0x3dd4b766	0.10386543
204	0xbc2dacf5	-0.010600318
205	0xbe96ed74	-0.29478037
206	0x3d0c322c	0.034227535
207	0xbcc3c13a	-0.023895849
208	0x3c010c7a	0.00787651
209	0x3d8100ad	0.06298957
210	0xbe52001d	-0.20507856
211	0xbdbaf461	-0.09128643
212	0x3dae1284	0.08499625
213	0x3e396466	0.18104705
214	0xbe5c1686	-0.21492967
215	0x3d1025da	0.035192348
216	0x3e57af49	0.2106296
217	0x3d2fecbc	0.042950377
218	0x3de05194	0.1095306
219	0xbe0ad4d7	-0.13557754
220	0xbe511503	-0.20418172
221	0x3dd24af1	0.102682
222	0xbe0d9b9a	-0.13828889
223	0xbe1b7030	-0.15179515
224	0x3cc15d00	0.023603916
225	0x3e4f53ac	0.20246762
226	0x3d684d26	0.0567142
227	0xbd1f83c3	-0.038944017
228	0xbcc1b008	-0.023643509
229	0xbdd15029	-0.102203675
230	0xbde0d52e	-0.10978161
231	0x3d2cdb91	0.042201582
232	0xbe3535ab	-0.17696254
233	0xbe92e22e	-0.28688186
234	0xbe93d860	-0.2887602
235	0xbe8d66a0	-0.2761736
236	0xbe174922	-0.14773992
237	0xbe743f13	-0.23852186
238	0x3dac911c	0.08426115
239	0xbe6efbb6	-0.23338208
240	0xbdf7cb70	-0.120993495
241	0x3d931658	0.07181996
242	0x3def1674	0.116742045
243	0x3e2c8d2c	0.16850728
244	0xbdf92e86	-0.12167077
245	0xb8123153	-3.485505e-05
246	0x3e374f72	0.179014
247	0xbc9bdafc	-0.019025318
248	0xbe3cf871	-0.18454148
249	0x3e047f2d	0.12939139
250	0x3dc18738	0.09449619
251	0x3e3fa465	0.18715055
252	0x3f0c0328	0.54692316
253	0x3ecc3bec	0.39889467
254	0x3e802869	0.2503083
255	0x3e1121ea	0.14173093

actor.lin1.bias f4 [32]
0	0x3e3cfefc	0.18456644
1	0x3c2828ad	0.010263604
2	0x3d295aec	0.041346475
3	0x3db0b478	0.08628172
4	0x3e2c5806	0.16830453
5	0xbbac7445	-0.005262884
6	0xbe2b4ace	-0.16727754
7	0x3d96f6a3	0.07371261
8	0xbd973e91	-0.073849805
9	0x3d60983e	0.05483269
10	0xbd81f462	-0.063454404
11	0x3cec23e9	0.028825717
12	0x3e22b273	0.15888385
13	0x3dab1580	0.0835371
14	0xbd1cd494	-0.038288668
15	0x3ce456f5	0.027873496
16	0x3e1a6909	0.1507913
17	0x3e5b5546	0.21419248
18	0x3e39e381	0.18153192
19	0x3e94094b	0.2891334
20	0xbe4cce73	-0.20000629
21	0x3c789a01	0.015173436
22	0x3e292c33	0.16520767
23	0x3e0cabcc	0.1373741
24	0xbc987498	-0.018610284
25	0xbd34a8dd	-0.044106353
26	0xbd69a5bf	-0.057042833
27	0x3e64ee3c	0.22356504
28	0x3d3bb064	0.045822516
29	0x3d40e6a4	0.047094956
30	0x3e6090e4	0.21930271
31	0xbe572d79	-0.2101344

actor.lin2.weight f4 [32, 32]
0	0xbe0268fc	-0.12735361
1	0x3e0d5491	0.13801791
2	0x3e88fa32	0.26753384
3	0x3eb1c2c0	0.34718895
4	0xbe3827aa	-0.1798388
5	0x3dfbd0a8	0.122956574
6	0xbc9ecf4a	-0.019385953
7	0x3ea007c1	0.31255916
8	0xbe1f4af5	-0.15555938
9	0x3e625619	0.22103156
10	0x3d7ea0f7	0.062165227
11	0x3ceb1327	0.028695656
12	0x3ec4fd8e	0.38474697
13	0x3dff506f	0.12466513
14	0x3e86c0dd	0.26319018
15	0x3def1b96	0.116751835
16	0xbe1162c0	-0.14197826
17	0xbd209905	-0.03920843
18	0x3e2131cf	0.15741657
19	0x3eb98242	0.3623219
20	0xbcfaef77	-0.030631764
21	0x3e84fe98	0.2597549
22	0x3cc72f6d	0.024314607
23	0x3e12954d	0.14314766
24	0x3d00e9ac	0.031472847
25	0xbdbcf9f0	-0.09227359
26	0xbd7b1a65	-0.06130447
27	0x3e74c745	0.2390414
28	0x3de6e660	0.11274409
29	0x3d84b812	0.06480421
30	0x3e5f0122	0.21777776
31	0xbdce5b7c	-0.10076043
32	0xbdbb1ee5	-0.09136752
33	0xbe306adb	-0.17228262
34	0xbe09a6e6	-0.13442573
35	0xbd0f28c0	-0.03495097
36	0x3e27c27b	0.16382782
37	0xbd93d3ab	-0.07218107
38	0xbd27a090	-0.04092461
39	0xbe2ea0da	-0.17053548
40	0xbe2a1181	-0.1660824
41	0xbd6037c4	-0.054740682
42	0xbd76976c	-0.060203
43	0x3e0c1afb	0.13682167
44	0xbdd6ab30	-0.1048187
45	0xbdec9dc2	-0.115535274
46	0x3d2d0a74	0.042246297
47	0xbd397030	-0.045273006
48	0x3e323e75	0.17406638
49	0x3d952c0e	0.072837934
50	0xbc8538c8	-0.016262427
51	0x3c769c00	0.015051842
52	0xbe27ef48	-0.16399872
53	0x3d3bcf9c	0.04585229
54	0xbdeae62c	-0.11469683
55	0xbd92a9de	-0.07161306
56	0xbd0c7210	-0.034288466
57	0xbd85bb2f	-0.06529843
58	0xbc944680	-0.018100023
59	0xbd921919	-0.07133693
60	0x3ba00be0	0.004884228
61	0x3c645090	0.013935223
62	0xbcaeb428	-0.02132614
63	0x3dc46196	0.095889255
64	0xbd8b4154	-0.0679957
65	0xbd33030b	-0.043704074
66	0xbc26717e	-0.010158895
67	0x3c90ac15	0.01766018
68	0xbc228439	-0.00991922
69	0x3e2fa71c	0.17153591
70	0x3e190a71	0.1494539
71	0xbe18627e	-0.14881322
72	0xbe1acbb9	-0.15116777
73	0xbde62252	-0.11237015
74	0xbd4e8988	-0.05042413
75	0x3e0f0469	0.13966526
76	0xbd500c10	-0.050792754
77	0xbdbcb4d7	-0.0921418
78	0xbca91960	-0.020641983
79	0x3d972101	0.07379342
80	0xbc246095	-0.010032793
81	0x3d089fc1	0.03335548
82	0x3de89154	0.11355844
83	0xbddb0726	-0.10694723
84	0xbdf73130	-0.12069929
85	0xbe0d6e85	-0.13811691
86	0xbd6c7c12	-0.05773551
87	0x3dd84304	0.10559657
88	0x3d2aa844	0.041664377
89	0xbdb45739	-0.08805699
90	0xbdf2e073	-0.118592165
91	0x3de75d5f	0.11297106
92	0xbc31b6ef	-0.010846837
93	0x3d9a7eae	0.075436935
94	0xbd8bf1f0	-0.06833255
95	0x3da2de26	0.07952528
96	0xbe300b33	-0.17191772
97	0x3e64424b	0.22290914
98	0x3d886484	0.06659797
99	0x3e032650	0.12807584
100	0x3dfa2f39	0.12216038
101	0x3e258c8b	0.16166894
102	0x3cf13281	0.029443027
103	0x3e427a89	0.18992056
104	0xbdb1c2f6	-0.08679764
105	0x3e145ef4	0.14489347
106	0xbb1ac398	-0.0023615118
107	0xbd96d264	-0.073643476
108	0x3e5fb719	0.2184719
109	0xbe204f7a	-0.15655318
110	0xbcefa4fe	-0.02925348
111	0x3d1f6974	0.038918927
112	0x3e0147b0	0.12625003
113	0x3e076fa6	0.13226184
114	0x3d8f1ade	0.069875464
115	0x3ebc2313	0.3674551
116	0xbde70c5b	-0.112816535
117	0x3e6e2e20	0.23259783
118	0x3cdd1e2e	0.02699193
119	0x3e0c9fd5	0.13732846
120	0x3d11efe0	0.035629153
121	0xbe247931	-0.16061856
122	0x3e0365cf	0.12831806
123	0x3e5bfb98	0.21482694
124	0xbdaf6969	-0.08565027
125	0xbdc80f06	-0.097684905
126	0x3e12f2a5	0.14350374
127	0x3e327195	0.1742614
128	0xbe137a98	-0.14402235
129	0xbe32fc9c	-0.17479175
130	0x3d63cc53	0.05561478
131	0x3e192e8b	0.14959161
132	0x3df92026	0.12164335
133	0xbb833731	-0.004004382
134	0x3d810f82	0.06301786
135	0xbdb542dc	-0.08850643
136	0xbc938508	-0.01800777
137	0x3d90c786	0.07069306
138	0xbd4cec78	-0.0500302
139	0xbd4778e3	-0.04869927
140	0xbd0f1494	-0.034931734
141	0xbd88d2ab	-0.06680807
142	0x3d7fbc0c	0.062435195
143	0xbc0868f6	-0.008325806
144	0x3dd4ac22	0.10384394
145	0xbca2c5e1	-0.019869747
146	0x3ded7b9f	0.115958445
147	0xbdddb4d4	-0.10825506
148	0xbd3b05d4	-0.045659855
149	0x3dfeeee8	0.124479115
150	0x3b842240	0.004032403
151	0xbe22fa73	-0.15915851
152	0x3db9b386	0.090674445
153	0xbe14170a	-0.14461914
154	0xbdae34df	-0.08506178
155	0x3dda0fe5	0.10647563
156	0x3e17bca5	0.14818056
157	0xbe14e8d5	-0.14541943
158	0xbe3c7eb4	-0.18407708
159	0xbcad0f98	-0.0211256
160	0xbe158a79	-0.14603604
161	0x3e81d34d	0.25356522
162	0x3e21dd32	0.15807036
163	0x3ec2363a	0.37931997
164	0xbde47c59	-0.1115653
165	0x3e2bc998	0.1677612
166	0xbd95ba54	-0.0731093
167	0x3ec980b5	0.39356008
168	0xbe0c37bf	-0.1369314
169	0x3e314c5d	0.17314287
170	0xbe100da3	-0.14067702
171	0xbe270c63	-0.16313319
172	0x3eaa33f7	0.3324277
173	0xbd419526	-0.04726138
174	0x3dda21f5	0.10651008
175	0x3e98e489	0.29861858
176	0xbe0b7793	-0.13619833
177	0x3e4e3d80	0.20140648
178	0xbd821120	-0.063509226
179	0x3e687a2b	0.22702853
180	0x3d8eed98	0.06978911
181	0x3e6e40e1	0.23266937
182	0xbdeb44ec	-0.11487755
183	0x3d47fa18	0.048822492
184	0xbe25dd5d	-0.16197725
185	0x3d3b48a0	0.045723557
186	0xbe02efe4	-0.12786824
187	0x3b2483e0	0.0025103018
188	0xbe23e195	-0.16004021
189	0x3db4f10e	0.0883504
190	0x3eae5a3c	0.34053218
191	0xbdef9797	-0.11698835
192	0xbe0e1ec8	-0.1387893
193	0xbe364bd6	-0.17802367
194	0xba80b7e9	-0.0009820434
195	0x3c250474	0.0100718625
196	0xbe015d88	-0.12633336
197	0xbd7e2e2b	-0.062055748
198	0xbe2cf04f	-0.16888545
199	0xbe35e481	-0.17762949
200	0xbca0d798	-0.019634053
201	0x3d3a0ca5	0.045422215
202	0xbd80ef61	-0.06295658
203	0x3dd95a10	0.10612881
204	0x3df01c4b	0.117241465
205	0x3d534a48	0.051584512
206	0x3cf3ccae	0.029760685
207	0xbcb39b92	-0.021924768
208	0x3c5b8f42	0.013400855
209	0xbe373347	-0.17890655
210	0x3e1d43b9	0.15357865
211	0xbe39f71f	-0.18160675
212	0xbd8923e8	-0.06696302
213	0x3da0e74c	0.078566164
214	0x3e12b933	0.1432846
215	0xbe2b8852	-0.16751221
216	0xbd5c7f74	-0.053832486
217	0x3e27fe77	0.16405664
218	0xbe42e9f3	-0.19034557
219	0x3dc4560e	0.09586726
220	0x3d7efc30	0.062252223
221	0x3d74fae4	0.05980958
222	0xbe1b0071	-0.15136887
223	0xbe09cba0	-0.13456583
224	0x3dd8f22a	0.10593064
225	0x3e487c64	0.19578701
226	0x3dafef10	0.085905194
227	0x3ec8cde3	0.3921958
228	0x3dec42a7	0.115361504
229	0x3e0bfe4b	0.13671224
230	0x3db80811	0.089859135
231	0x3eaace33	0.33360443
232	0x3e284526	0.16432628
233	0x3e1f87f1	0.15579201
234	0xbe2f8ea3	-0.17144255
235	0xbe05c032	-0.13061598
236	0x3e668fb3	0.22515754
237	0x3e15063c	0.1455316
238	0xbdc0edf3	-0.09420385
239	0x3e79f2bf	0.24409007
240	0x3e021392	0.12702778
241	0x3e710887	0.23538409
242	0x3d0c46ec	0.034247324
243	0x3e85aa25	0.26106372
244	0xbd7df5fc	-0.062002167
245	0x3e934fee	0.2877192
246	0xbc24a76c	-0.010049682
247	0x3dd118af	0.10209786
248	0xbe02d2bb	-0.127757
249	0x3dabe6f1	0.08393658
250	0xbdc03b86	-0.09386353
251	0x3e5871f5	0.21137221
252	0xbbf6b3c4	-0.007528754
253	0x3d960b76	0.07326405
254	0x3e94655c	0.2898358
255	0x3d9d7ac2	0.0768943

actor.lin2.bias f4 [32]
0	0xbd773173	-0.060349893
1	0xbb4f1040	-0.003159538
2	0xbdda4cbe	-0.10659169
3	0x3e65927a	0.22419158
4	0xbe2b1565	-0.1670738
5	0x3e7e66d3	0.24843912
6	0xbd85411b	-0.065065585
7	0x3e4b4a4a	0.19852558
8	0x3d72d420	0.05928433
9	0xbdc8808d	-0.09790144
10	0xbdc69d7c	-0.096980065
11	0x3df4b82a	0.11949189
12	0x3ce8d4e7	0.028421832
13	0x3daf0e52	0.08547653
14	0x3e1afd9f	0.15135811
15	0x3e53083f	0.20608614
16	0x3d83ed97	0.06441801
17	0x3e25a8d1	0.1617768
18	0x3daf934c	0.085730165
19	0xbc73e06f	-0.014885052
20	0x3e541da5	0.20714433
21	0x399277ee	0.00027936645
22	0xbc28a904	-0.010294203
23	0x3e09ef52	0.134702
24	0xbdd1a6b5	-0.10236875
25	0x3db4ba97	0.08824652
26	0xbd87e6b7	-0.06635802
27	0x3e0066ef	0.12539266
28	0xba92e900	-0.0011208355
29	0x3d69a78d	0.057044555
30	0x3de4b781	0.11167813
31	0xbc7194b7	-0.014744929

actor.lin3.weight f4 [1, 32]
0	0x3eb6238a	0.3557399
1	0x3e19e0c7	0.15027152
2	0xbe0c7a62	-0.1371856
3	0x3e49d97d	0.19711871
4	0xbd0ce057	-0.034393635
5	0x3e83c922	0.2573939
6	0x3bad5819	0.005290043
7	0x3eab40dd	0.33447924
8	0xbdfae5ce	-0.12250863
9	0xbdb860d2	-0.09002842
10	0x3ea1ad8e	0.31577724
11	0xbdbc775a	-0.09202452
12	0x3ed178a9	0.4091237
13	0x3d8351ab	0.06412061
14	0x3e5ec3b8	0.21754348
15	0x3e5fadcf	0.21843646
16	0xbe0416e7	-0.12899362
17	0xbad3c01f	-0.0016155279
18	0x3e92dbb3	0.28683242
19	0xbdbc7c62	-0.09203412
20	0x3e93bd79	0.28855494
21	0xbcc23a94	-0.023709573
22	0xbdd86542	-0.105661884
23	0xbdbdf83c	-0.092758626
24	0xbdb96724	-0.09052876
25	0xbca95177	-0.020668728
26	0x3e93f6e2	0.28899294
27	0x3ea907ec	0.33013856
28	0xbd6d15e4	-0.057882205
29	0x3ec28e33	0.37999114
30	0x3e79896a	0.24368826
31	0x3ed07429	0.40713623

actor.convp.bias f4 [21]
0	0xbb21b720	-0.0024675801
1	0x3d22f1c1	0.039781336
2	0xbcd3ecc1	-0.025869729
3	0x00000000	0.0
4	0xbcdfac8d	-0.027303958
5	0xbc9b0828	-0.018924788
6	0xbbe2c17f	-0.006920039
7	0xbcf28fed	-0.029609645
8	0xbcada360	-0.021196067
9	0x3d05bae0	0.03264892
10	0xbce3b4bf	-0.027796147
11	0x3d2081cb	0.03918628
12	0x3d2c9d75	0.04214235
13	0x3cc6ae0d	0.024252916
14	0xbc07b6d8	-0.008283339
15	0x3cd981e3	0.026551193
16	0xbc423495	-0.011853357
17	0xbc7ea180	-0.015541434
18	0xbc67eef1	-0.014156089
19	0x3c872c65	0.016500661
20	0xbc40223d	-0.011726913

actor.convp.lin.weight f4 [21, 21]
0	0x3eac4d44	0.336527
1	0x3eb4d8e0	0.35321712
2	0x3de9eed8	0.11422509
3	0x3ec16734	0.3777405
4	0x3e357cfb	0.17723458
5	0x3d89bead	0.06725822
6	0x3eb36380	0.3503685
7	0xbe4a5f55	-0.19762929
8	0x3eac364c	0.33635175
9	0xbea75d1a	-0.32688218
10	0x3eb45f0f	0.35228774
11	0x3d0b01cc	0.03393726
12	0x3e657a62	0.22409967
13	0xbdaa0cb6	-0.08303206
14	0x3dcd40f4	0.100221545
15	0xbdb228d9	-0.08699197
16	0x3d8f1bb5	0.069877066
17	0x3ebb0600	0.36528015
18	0x3eb1db57	0.34737656
19	0x3e97d011	0.2965093
20	0xbdde83b8	-0.10864967
21	0x3e87e6f4	0.2654339
22	0xbe796002	-0.2435303
23	0xbe98076d	-0.29693165
24	0xbe6dbbb1	-0.2321613
25	0xbe092333	-0.13392334
26	0xbd8f9989	-0.070117064
27	0xbe63351f	-0.22188233
28	0xbe25d612	-0.16194943
29	0xbd2a2246	-0.041536592
30	0x3d07d14f	0.033158597
31	0xbd8bf265	-0.068333425
32	0x3ecce373	0.4001728
33	0xbdd35464	-0.103188306
34	0xbd27d1d1	-0.04097158
35	0xbd9b34f7	-0.075784616
36	0x3ed490e6	0.415168
37	0xbd12f8d0	-0.035881817
38	0x3eb69e24	0.35667527
39	0xbea00b5f	-0.31258675
40	0x3e90dbdd	0.28292742
41	0xbdcd7132	-0.10031356
42	0xbda721aa	-0.08160718
43	0xbe895d61	-0.26829055
44	0x3e9e9ee5	0.30980602
45	0xbe901fd7	-0.28149292
46	0xbe8c417a	-0.27393705
47	0xbe88c418	-0.26712108
48	0x3e523c8b	0.20530908
49	0xbea258f7	-0.317085
50	0x3dfb5bb1	0.12273348
51	0xbe0d25dd	-0.13783975
52	0x3e4f441f	0.2024083
53	0x3e34ba68	0.17649233
54	0xbdd6de7b	-0.104916535
55	0xbe4c6524	-0.19960457
56	0x3dabd6fd	0.08390615
57	0xbd8efa37	-0.069813184
58	0xbe013a0e	-0.12619802
59	0x3e97dc7c	0.29660404
60	0x3e825388	0.25454354
61	0xbdf7d290	-0.121007085
62	0xbdfadc00	-0.12248993
63	0xbd9a337c	-0.07529351
64	0xbd9bafa4	-0.0760186
65	0xbea375b9	-0.31925753
66	0xbe9ba122	-0.30396372
67	0xbe7b439f	-0.24537514
68	0xbe8b34cc	-0.27188718
69	0xbde95758	-0.113936126
70	0x3e41ef36	0.18938908
71	0xbe9deb22	-0.30843455
72	0x3dd23060	0.10263133
73	0xbe23919c	-0.15973514
74	0xbcfcbe70	-0.030852526
75	0x3e11c7fe	0.14236447
76	0xbe955ac8	-0.29170823
77	0x3d0644f0	0.032780588
78	0x3d939ec0	0.072080135
79	0xbeab0d37	-0.3340852
80	0xbe445a43	-0.19175057
81	0x3e044fe2	0.12921098
82	0xbe24798c	-0.16061991
83	0x3e384a42	0.17997077
84	0x3e0f4936	0.13992772
85	0xbebeac9b	-0.37241063
86	0x3e22a286	0.1588231
87	0x3e78bae2	0.2429004
88	0xbe9fdb48	-0.31221986
89	0xbe577c28	-0.21043456
90	0xbdc804f2	-0.09766568
91	0x3d04ec17	0.032451715
92	0xbd363e79	-0.044493172
93	0x3e97e1f6	0.29664582
94	0x3ea50e7c	0.32237613
95	0x3ea2f46f	0.31827113
96	0x3df95974	0.12175265
97	0x3e93d701	0.28874972
98	0xbcd25465	-0.025675008
99	0x3e560a32	0.20902327
100	0xbe29e277	-0.16590296
101	0xbca07575	-0.019587258
102	0xbea5cecd	-0.3238434
103	0x3e887b41	0.26656535
104	0x3ba85378	0.0051369034
105	0x3cf92785	0.030414352
106	0x3e7301b1	0.23731114
107	0xbd89165c	-0.06693718
108	0x3b2bcf43	0.0026216067
109	0x3e444adb	0.1916918
110	0xbe243d29	-0.16038956
111	0xbe1bfadc	-0.15232414
112	0x3da39258	0.07986897
113	0xbe7b217c	-0.24524492
114	0x3e938c3b	0.28817925
115	0xbe1c86c2	-0.15285781
116	0x3e5f578e	0.21810743
117	0xbe02c62c	-0.12770909
118	0x3e4d8b94	0.20072776
119	0xbeb127c1	-0.34600642
120	0x3d86689d	0.06562922
121	0x3d11cf26	0.035597943
122	0x3d91b7a8	0.07115108
123	0xbc3ec0c8	-0.011642642
124	0xbe89f25d	-0.2694272
125	0xbe3cb3fc	-0.18428034
126	0xbe579e13	-0.21056394
127	0x3e4e2bed	0.20133944
128	0x3ca8d717	0.020610375
129	0x3e90cecf	0.28282782
130	0xbccb479b	-0.024814418
131	0xbeb82d49	-0.3597205
132	0xbd4e8a37	-0.05042478
133	0xbe209b5d	-0.15684266
134	0xbebcddd2	-0.36887985
135	0x3d55c0ea	0.05218593
136	0xbc19e053	-0.009391862
137	0xbeae00a5	-0.33984867
138	0xbea241c3	-0.31690797
139	0xbd666ac0	-0.05625415
140	0x3e9f2099	0.31079558
141	0x3e6ab52a	0.22920671
142	0x3d1a1e4b	0.037626546
143	0xbdb4c427	-0.088264756
144	0x3db4ccf9	0.08828158
145	0xbe306550	-0.17226148
146	0x3e76d1d3	0.24103479
147	0xbe77f862	-0.24215844
148	0x3df6a86d	0.120438434
149	0x3e2df523	0.16988043
150	0x3ea19140	0.3155613
151	0xbe8e754a	-0.2782386
152	0xbe91fd8b	-0.2851375
153	0x3e3ad5f3	0.18245678
154	0x3e21e803	0.15811162
155	0x3e8692e6	0.2628395
156	0xbe027459	-0.12739696
157	0x3e8aa0c1	0.2707577
158	0x3d823e88	0.06359583
159	0xbd8a051d	-0.067392565
160	0xbead4a4c	-0.33845747
161	0x3e8bcdb4	0.27305377
162	0x3eb3b59d	0.35099497
163	0xbdb76b70	-0.08956039
164	0x3e1b9b84	0.15196043
165	0x3e0f8563	0.14015727
166	0xbd25a4fc	-0.040440544
167	0xbeaf44ea	-0.34232265
168	0x3e946ed8	0.28990817
169	0xbeaa5338	-0.33266616
170	0x3d09e738	0.033667773
171	0x3eabd18f	0.33558318
172	0x3e990c18	0.2989204
173	0xbd33c33c	-0.043887362
174	0x3daec639	0.08533902
175	0x3cf0a210	0.029374152
176	0xbe278a6e	-0.163614
177	0xbebfcf27	-0.37462732
178	0xbbfb838f	-0.007675595
179	0x3e90999e	0.282422
180	0xbe9d38f7	-0.30707523
181	0x3e7220d3	0.23645334
182	0x3e9d61e9	0.30738762
183	0xbe662d8c	-0.22478312
184	0xbd110de0	-0.035413623
185	0x3ea82d43	0.32847032
186	0x3de674de	0.112527594
187	0xbe476a43	-0.1947413
188	0xbe8e429d	-0.27785197
189	0x3c930dc8	0.017950907
190	0x3e9f86a8	0.31157422
191	0x3e4bcc95	0.1990226
192	0x3d69a9f3	0.05704684
193	0x3e0cd71a	0.1375393
194	0xbe68dfb5	-0.22741587
195	0xbe82f53c	-0.25577724
196	0x3e734122	0.23755315
197	0x3e368204	0.17823035
198	0xbe1195a1	-0.14217235
199	0xbdf05588	-0.11735064
200	0x3d3c10ac	0.045914337
201	0xbe4482b5	-0.19190486
202	0x3ec758c8	0.38934922
203	0xbda02996	-0.07820432
204	0xbd99296c	-0.07478604
205	0x3dd7bce6	0.105340764
206	0xbccc162d	-0.024912918
207	0xbe64f7f2	-0.22360209
208	0xbe59c06d	-0.21264811
209	0x3d9e5481	0.077309616
210	0xbd9e3e7d	-0.077267624
211	0x3ea58ae8	0.3233254
212	0x3d901c5c	0.07036659
213	0x3de4d217	0.11172884
214	0xbcf41605	-0.029795656
215	0x3db057e1	0.086105116
216	0x3eb13111	0.34607747
217	0x3ea3c08b	0.31982836
218	0xbe021194	-0.12702018
219	0xbe8c7ef4	-0.27440608
220	0xbcfa950e	-0.030588653
221	0xbe99280d	-0.2991337
222	0xbe4bdb35	-0.1990784
223	0xbe9fe9de	-0.31233114
224	0xbe95b31f	-0.2923822
225	0xbe9d0c55	-0.3067347
226	0xbe56b09e	-0.20965812
227	0xbe973538	-0.2953279
228	0x3dce6381	0.100775726
229	0x3e1c7855	0.15280278
230	0xbd2ee5d9	-0.04269967
231	0xbdd403b8	-0.10352272
232	0x3e9a922d	0.30189648
233	0x3db82b69	0.08992655
234	0x3e9185b1	0.2842231
235	0x3d0c1920	0.03420365
236	0xbe4084d5	-0.18800671
237	0xbea60712	-0.3242727
238	0xbdbaf37e	-0.09128474
239	0xbe8c81d0	-0.2744279
240	0xbe5cdec6	-0.21569356
241	0x3e583d8a	0.21117225
242	0x3e2a1b67	0.16612016
243	0xbdda80e8	-0.10669118
244	0xbe4b7ab1	-0.19871022
245	0x3e8beb60	0.27328014
246	0x3e8c0e71	0.27354768
247	0x3ebdf989	0.37104443
248	0xbeb6a52a	-0.35672885
249	0x3ebcbcd4	0.36862814
250	0xbe9be22c	-0.30445993
251	0xbe7277a0	-0.23678446
252	0x3d188faf	0.037246402
253	0x3d5bf241	0.05369783
254	0x3e5a8c54	0.21342593
255	0x3e3d7cc9	0.18504633

actor.lin1p.weight f4 [8, 21]
0	0x3daaba3f	0.08336305
1	0xbdfd061e	-0.123546824
2	0xbe2e885e	-0.17044207
3	0x3e46c42c	0.19410771
4	0xbd3f8259	-0.04675517
5	0xbd81f70c	-0.063459486
6	0xbe3b70f5	-0.18304808
7	0x3b96e39e	0.004604771
8	0xbe0c468f	-0.13698791
9	0x3c7c5520	0.015401155
10	0x3e232ed3	0.15935831
11	0xbde1a4d1	-0.11017764
12	0x3d977f7c	0.073973626
13	0x3d28d52f	0.041218933
14	0x3ca75c02	0.020429615
15	0xbdac6fb0	-0.0841974
16	0x3dd459f4	0.1036872
17	0x3dec1c7b	0.1152887
18	0x3de4486f	0.11146628
19	0x3ddce74e	0.10786305
20	0xbdd1f4ee	-0.10251795
21	0x3d6caa48	0.05777958
22	0xbcf190b0	-0.029487938
23	0xbb59f314	-0.0033256458
24	0xbe58318a	-0.21112648
25	0xbdf88060	-0.121338606
26	0xbe07bb53	-0.13255052
27	0xbe06d2b6	-0.13166317
28	0x3e0fff67	0.14062272
29	0xbd96b6a7	-0.07359057
30	0x3ddf41a2	0.1090119
31	0xbe1d5ee1	-0.15368225
32	0x3daa893e	0.08326958
33	0xbdb4c5c0	-0.0882678
34	0xbc202025	-0.009773289
35	0x3e47957f	0.19490622
36	0x3c59d1b7	0.013294629
37	0xbe3837ca	-0.17990032
38	0xbe22efb3	-0.1591175
39	0x3e31986f	0.17343305
40	0x3d9d6b6a	0.07686503
41	0x3acc656e	0.0015594193
42	0xbe3a3d70	-0.18187499
43	0x3d224ea2	0.03962577
44	0xbe60f645	-0.21968944
45	0x3d0cc6f9	0.034369443
46	0x3d48adec	0.04899399
47	0xbd968b34	-0.0735077
48	0x3e2c9b5b	0.16856138
49	0x3d92bb03	0.07164576
50	0x3e3d7d28	0.18504775
51	0xbd0a1cff	-0.03371906
52	0x3d152a33	0.036417197
53	0x3def5a14	0.11687103
54	0xbdb73c32	-0.08947028
55	0xbdec0db5	-0.11526052
56	0x3e1c2fd6	0.15252623
57	0xbdec494d	-0.115374185
58	0x3dcc57d6	0.09977691
59	0x3dadf67c	0.08494279
60	0x3e28e48e	0.16493437
61	0x3d923b10	0.071401715
62	0x3deaa0a7	0.11456423
63	0x3e111847	0.14169417
64	0x3e0e802d	0.13916083
65	0xbb4bf2e4	-0.0031120116
66	0x3dd55835	0.10417215
67	0xbd9ecfe4	-0.07754496
68	0xbd4e1537	-0.0503132
69	0xbe325803	-0.17416386
70	0x3bdf0a0f	0.006806619
71	0x3e453a43	0.19260506
72	0x3e11efce	0.14251634
73	0x3dcd54dd	0.10025952
74	0x3e1bd9e7	0.15219842
75	0x3df55c7c	0.119805306
76	0x3dfa81e0	0.12231803
77	0xbe44e811	-0.19229151
78	0x3e5ffe62	0.21874383
79	0xbe071583	-0.131918
80	0x3db326a3	0.08747604
81	0x3e42a31f	0.19007538
82	0x3cc4447a	0.023958433
83	0xbdcb319f	-0.09921574
84	0xbd5dfd96	-0.054196917
85	0x3d8ac4f9	0.06775851
86	0xbd2fc884	-0.042915836
87	0xbe199615	-0.14998658
88	0x3cddf62b	0.027094921
89	0xbd8740a1	-0.06604124
90	0xbe2b1005	-0.1670533
91	0xbe203f8a	-0.15649238
92	0xbced04b4	-0.028932907
93	0x3e6251d4	0.22101527
94	0xbdc13a98	-0.09435004
95	0x3dc15285	0.094395675
96	0x3e39557c	0.18099016
97	0x3e6c1396	0.23054346
98	0x3da9b4a3	0.08286407
99	0xbd0df58a	-0.034657992
100	0x3e2862f0	0.16443992
101	0xbd73a98e	-0.05948787
102	0x3da3e1dc	0.08002064
103	0x3daabe68	0.08337098
104	0xbe42e478	-0.19032466
105	0x3d837a06	0.064197585
106	0x3e591d14	0.21202499
107	0xbe5070ae	-0.20355484
108	0x3e557563	0.2084556
109	0xbdcc285c	-0.099686354
110	0x3e3b520f	0.18293022
111	0xbe140903	-0.14456563
112	0xbbc478c9	-0.005995844
113	0x3c47e23c	0.012199935
114	0x3dcf92a6	0.10135393
115	0xbe2f7157	-0.1713308
116	0x3e679fb5	0.22619517
117	0x3dcb2389	0.09918887
118	0xbe1cc104	-0.15308005
119	0xbd1ea39e	-0.038730256
120	0x3e452c48	0.19255173
121	0x3daae292	0.08343996
122	0x3d5f5976	0.054528676
123	0xbe307c48	-0.1723491
124	0x3d8f2f2d	0.0699142
125	0xbe1608c6	-0.14651784
126	0xbade5ff9	-0.0016965858
127	0x3d54ea01	0.051980976
128	0xbd8744c4	-0.06604913
129	0xbd6b331a	-0.05742178
130	0xbe028132	-0.12744597
131	0x3e4dcb24	0.20097023
132	0xbe509d25	-0.20372446
133	0xbe08b3b2	-0.13349798
134	0x3cba8f5d	0.022773439
135	0x3dbc8635	0.092052855
136	0x3e39d33e	0.18146989
137	0x3de4fed6	0.111814186
138	0xbd754579	-0.059880707
139	0xbe454e14	-0.19268066
140	0x3e322498	0.17396772
141	0xbddddf02	-0.10833551
142	0x3daf26ca	0.0855232
143	0x3e04320e	0.1290972
144	0x3dfd6b59	0.123739906
145	0xbe4c2fd1	-0.19940116
146	0xbe4b8446	-0.19874677
147	0x3b691c7e	0.0035569961
148	0xbe39af99	-0.18133391
149	0xbe4cbdb4	-0.19994241
150	0xbd26017c	-0.04052876
151	0x3decd29f	0.1156361
152	0x3de36e57	0.1110503
153	0x3e3fcc66	0.18730316
154	0x3c551d59	0.013007485
155	0x3e38cc97	0.18046795
156	0x3e52ee26	0.20598659
157	0x3e18a51b	0.14906733
158	0xbe5590c5	-0.20856006
159	0x3d6f1275	0.05836721
160	0xbd0bfa5c	-0.03417431
161	0x3d50aa0c	0.05094342
162	0x3e3c6325	0.18397196
163	0x3dad5315	0.08463112
164	0xbe07d6b2	-0.13265494
165	0x3d553be9	0.052059088
166	0xbdd53dc3	-0.10412171
167	0xbe0003fb	-0.12501518

actor.lin1p.bias f4 [8]
0	0x3e1552ac	0.14582318
1	0xbd392d4d	-0.045209218
2	0xbe33d133	-0.17560272
3	0xbdfdeca1	-0.12398649
4	0x3d720e02	0.05909539
5	0x3b0f8e66	0.0021904944
6	0xbdac1ab3	-0.0840353
7	0x3d45216d	0.04812758

actor.bilinp.weight f4 [8, 8]
0	0x3e8e29a4	0.27766144
1	0xbe5acfd6	-0.21368346
2	0xbd8d5533	-0.06901016
3	0xbe30facc	-0.17283171
4	0x3e97dbc0	0.29659843
5	0xbe8e1696	-0.27751607
6	0xbe73b622	-0.23799947
7	0xbde7a52a	-0.113107994
8	0xbe5fd89d	-0.21859975
9	0xbea3e0b3	-0.3200737
10	0x3e0e7d29	0.13914932
11	0xbeb41ace	-0.351767
12	0x3ddee4df	0.108834974
13	0x3e282c05	0.16423042
14	0x3dd4ed4e	0.10396825
15	0x3d108f27	0.03529277
16	0x3e9c4e11	0.3052831
17	0x3ea8e9c9	0.32990864
18	0x3dfe5a51	0.1241957
19	0xbd6cfd01	-0.05785847
20	0xbe64748c	-0.22310084
21	0x3d18ba0c	0.037286803
22	0x3e1b6104	0.15173727
23	0x3e893cae	0.26804107
24	0x3e47d369	0.1951424
25	0x3e33fc83	0.17576794
26	0x3dbb7ea1	0.09155012
27	0xbda0a024	-0.078430444
28	0x3e7f6ea8	0.24944556
29	0x3cde7428	0.027154997
30	0xbe212377	-0.15736185
31	0xbe5d27db	-0.21597235
32	0xbe2f35bd	-0.17110343
33	0xbddbd7d1	-0.10734523
34	0xbea7b008	-0.3275149
35	0x3e394c42	0.18095496
36	0x3ea578a8	0.32318616
37	0x3e8325c6	0.25614756
38	0x3dc3a042	0.09552051
39	0xbe081073	-0.13287525
40	0x3d599d68	0.05312863
41	0x3e3bbe95	0.1833442
42	0x3ddfe2a3	0.109318994
43	0x3d89c109	0.06726272
44	0x3eb5280e	0.35382122
45	0xbe2b7004	-0.1674195
46	0x3e9762df	0.2956762
47	0x3ea389da	0.3194111
48	0x3c1d227a	0.009590739
49	0xbe67056e	-0.22560665
50	0xbdc1a619	-0.09455509
51	0x3e008984	0.12552458
52	0x3e123040	0.14276218
53	0xbea9f6a3	-0.3319598
54	0x3e12ba20	0.14328814
55	0x3e57798a	0.21042457
56	0x3e39614a	0.18103519
57	0x3eae2dba	0.34019262
58	0x3e1e418e	0.15454695
59	0xbe0ae7d1	-0.13564993
60	0xbe5a09d3	-0.2129281
61	0x3e9c4444	0.30520833
62	0x3e8be803	0.27325448
63	0xbdce6615	-0.10078064

critic.conv1.bias f4 [21]
0	0xbe50c6ce	-0.20388338
1	0x00000000	0.0
2	0x3eb5b442	0.35489088
3	0x3ded14af	0.11576211
4	0xbe868f81	-0.2628136
5	0x3e85d44e	0.26138538
6	0xbe93aeef	-0.288444
7	0xbce64e2e	-0.02811345
8	0xbc5eab30	-0.013590619
9	0x3e88928b	0.26674303
10	0xbc0bd8b7	-0.008535556
11	0x3e4a4b48	0.1975528
12	0xbe4cb27b	-0.1998996
13	0xbe6c7ce5	-0.23094518
14	0x3e55960f	0.20858024
15	0x3e40fdad	0.1884677
16	0xbe84d0d5	-0.25940576
17	0x3eb6c182	0.3569451
18	0xbe70293a	-0.23453227
19	0xbebc793d	-0.36811247
20	0xbe973862	-0.29535204

critic.conv1.lin.weight f4 [21, 21]
0	0x3ea45bb5	0.32101217
1	0x3eaeda76	0.34151047
2	0x3e998db5	0.29990926
3	0xbdcfb434	-0.10141793
4	0x3e4e81b5	0.20166667
5	0x3df2ca2c	0.118549675
6	0x3d8f5b38	0.069998205
7	0x3ed006a7	0.40630075
8	0xbc3fa036	-0.011695912
9	0x3ed3fdae	0.4140448
10	0x3eacfd66	0.33787078
11	0xbeaf7d69	-0.34275368
12	0xbe2423d7	-0.16029297
13	0x3dfeabc3	0.12435105
14	0xbeb18523	-0.34671888
15	0xbe80a545	-0.2512609
16	0xbe2abdb5	-0.1667393
17	0x3e7c5905	0.24643333
18	0x3e8b05c0	0.27152824
19	0xbdb3507a	-0.08755584
20	0x3e2d6a87	0.16935168
21	0x3e711076	0.23541436
22	0xbcecfd90	-0.028929502
23	0xbe13d58c	-0.1443693
24	0x3d312a00	0.043252945
25	0xbea9dc74	-0.33176005
26	0xbe9b0d0e	-0.30283397
27	0x3b1e7780	0.0024180114
28	0x3e0f159e	0.1397309
29	0x3e74ac06	0.23893747
30	0xbe9d387b	-0.30707154
31	0x3d45fc68	0.048336416
32	0xbe317491	-0.17329623
33	0xbd4bcbd8	-0.049754947
34	0xbe74bad6	-0.23899397
35	0xbead93d3	-0.33901843
36	0x3e81ac17	0.25326607
37	0xbe167e2e	-0.14696571
38	0x3e654812	0.22390774
39	0xbe90748d	-0.2821392
40	0xbcff1430	-0.031137556
41	0x3e768206	0.24073038
42	0xbc4668de	-0.012109963
43	0x3ef00ed7	0.46886322
44	0xbdd84519	-0.10560054
45	0x3ed21f3a	0.4103945
46	0xbd01789b	-0.03160916
47	0x3e57121b	0.21003
48	0xbe36624a	-0.17810932
49	0x3e6ab90b	0.22922151
50	0xbeb5e804	-0.35528576
51	0x3e20c4af	0.15700029
52	0xbea49793	-0.32146892
53	0x3e39cf7b	0.18145554
54	0x3ec069df	0.37580773
55	0x3e53de7c	0.2069034
56	0x3e0733a5	0.13203295
57	0xbe97b59f	-0.29630753
58	0xbe32f018	-0.17474401
59	0xbe88c151	-0.2670999
60	0x3e66b38b	0.22529428
61	0xbc463070	-0.012096509
62	0xbe86fff5	-0.26367155
63	0x3ea785a0	0.32719135
64	0x3d5804f8	0.052739114
65	0xbe1c3470	-0.15254378
66	0xbdc6d437	-0.097084455
67	0xbcebfd58	-0.028807327
68	0x3c12ac79	0.0089522535
69	0x3dc7b0b4	0.097505
70	0x3eb9cc91	0.36288884
71	0xbda60af1	-0.08107556
72	0x3ab1c6f8	0.0013563326
73	0x3df7ff9d	0.12109301
74	0x3e02c95c	0.12772125
75	0xbe9283aa	-0.28616077
76	0xbe9ad18d	-0.30238
77	0xbeb89442	-0.36050612
78	0x3e28ada8	0.16472495
79	0xbe8085b8	-0.2510202
80	0xbe252cd0	-0.16130376
81	0xbea4d8c9	-0.32196644
82	0xbec478a5	-0.38373294
83	0x3ea2c6c3	0.31792268
84	0xbe717279	-0.23578824
85	0xbe6de0df	-0.23230313
86	0xbd56bd71	-0.05242676
87	0xbe8485de	-0.25883383
88	0x3eab085b	0.33404812
89	0xbe599d92	-0.21251515
90	0x3abce761	0.0014412218
91	0x3e8c7231	0.2743087
92	0xbe9d2f8d	-0.3070034
93	0xbe49ec90	-0.19719148
94	0xbece0a5e	-0.40242285
95	0xbe335065	-0.17511137
96	0x3ea190eb	0.31555876
97	0xbea22482	-0.31668478
98	0x3d9591f2	0.073032275
99	0x3e329631	0.17440106
100	0x3eb447e6	0.35211104
101	0x3ead284e	0.33819813
102	0x3e5e1c50	0.21690488
103	0xbe3e05c1	-0.18556882
104	0xbd014b94	-0.031566218
105	0x3dacbda6	0.0843461
106	0xbdc30c13	-0.09523787
107	0x3e432a59	0.19059123
108	0x3e1bd7e1	0.1521907
109	0xbcf4a704	-0.029864796
110	0xbe47107c	-0.19439882
111	0xbe3dd095	-0.18536599
112	0xbc416eff	-0.011806249
113	0xbdf2b10b	-0.118501745
114	0xbe200f04	-0.15630728
115	0xbebe2911	-0.37140706
116	0x3dd2cfa5	0.10293511
117	0xbe92e0ae	-0.28687042
118	0xbe364412	-0.17799404
119	0xbd08f799	-0.033439253
120	0x3ea5f1e7	0.3241112
121	0x3dc7a91d	0.09749053
122	0x3da31ded	0.07964692
123	0xbe4cc510	-0.19997048
124	0x3e848ea3	0.25890073
125	0x3cce2e98	0.025168702
126	0xbe40a5dd	-0.18813272
127	0x3e2f5f6c	0.17126244
128	0xbe9a4aee	-0.30135292
129	0xbed104ef	-0.40824077
130	0x3e8b0996	0.2715575
131	0x3e2dcfb3	0.16973762
132	0x3eb7cd1e	0.3589868
133	0x3e9c4cb2	0.30527264
134	0x3ebf1c3e	0.37326235
135	0xbcf95eb6	-0.03044067
136	0xbeb03b72	-0.34420353
137	0x3eaaf316	0.33388585
138	0x3d872050	0.0659796
139	0xbeb07e37	-0.34471294
140	0xbe11a01f	-0.14221238
141	0xbeaf7f47	-0.34276792
142	0x3e46125f	0.19342946
143	0x3ed0baa2	0.4076739
144	0x3e20bc4a	0.15696827
145	0x3e9c7f9b	0.30566105
146	0xbda8664a	-0.08222635
147	0x3e1d63f6	0.15370163
148	0xbe04c8bf	-0.12967204
149	0x3e6e93ea	0.23298612
150	0x3e0971e5	0.13422354
151	0xbeb93f40	-0.36181068
152	0x3df2bb3c	0.118521184
153	0xbebdef9f	-0.3709688
154	0x3dff96e7	0.12479954
155	0xbdc48eb8	-0.09597534
156	0xbeac6742	-0.3367253
157	0xbce96778	-0.02849172
158	0xbe416a35	-0.18888171
159	0xbeb7de90	-0.3591199
160	0x3d51d220	0.05122578
161	0x3e0000f6	0.12500367
162	0xbdebe1a4	-0.11517647
163	0xbe7ed193	-0.24884634
164	0xbebac7ed	-0.36480656
165	0x3e876ca1	0.26450065
166	0xbe83dcda	-0.25754434
167	0x3dc7f7dc	0.09764072
168	0xbd979b6f	-0.074026935
169	0x3e7290d1	0.23688056
170	0x3ea136b4	0.31487048
171	0x3ead7083	0.33874902
172	0xbdf3e13f	-0.11908197
173	0x3c4a7854	0.01235779
174	0xbca21eb2	-0.019790027
175	0xbe9a46c1	-0.30132106
176	0x3e8ae167	0.27125093
177	0xbdb5024b	-0.08838328
178	0xbe64955e	-0.22322604
179	0x3ea9459a	0.33060914
180	0xbe2266d5	-0.1585954
181	0x3e1039cc	0.14084548
182	0x3eb5a750	0.35479212
183	0xbe5c5f98	-0.21520841
184	0xbe73f54a	-0.23824039
185	0xbe535937	-0.20639502
186	0x3e2ec9fe	0.17069241
187	0x3ea53a8f	0.3227124
188	0x3e80b870	0.25140715
189	0x3e11217b	0.14172928
190	0x3ee525c2	0.4475537
191	0xbe4ac78a	-0.1980268
192	0xbc8cf9c8	-0.017208949
193	0x3e8d4b65	0.27596584
194	0x3d9e687f	0.07734775
195	0xbe27485a	-0.16336194
196	0x3ddc03a4	0.10742882
197	0x3e8def8b	0.2772182
198	0x3e6df9a9	0.23239769
199	0x3e4576b1	0.19283558
200	0xbdf094aa	-0.117471054
201	0xbec81506	-0.3907854
202	0xbbf71051	-0.007539787
203	0xbe37da25	-0.1795431
204	0x3bcc2f53	0.0062312274
205	0x3e175d6c	0.14781731
206	0xbcbc391b	-0.022976449
207	0x3da0506f	0.078278415
208	0x3c189346	0.0093124565
209	0x3cdb3c6a	0.026762206
210	0x3db2392f	0.08702313
211	0xbe21fa55	-0.1581815
212	0x3e962212	0.2932287
213	0xbe4fd361	-0.20295478
214	0x3df8d4b6	0.121499464
215	0xbd283826	-0.041069172
216	0x3e50382d	0.2033393
217	0xbdf11fd5	-0.117736496
218	0xbeab8e8c	-0.33507192
219	0xbeb70f69	-0.35753945
220	0xbdbb4f85	-0.091460265
221	0x3dce7675	0.10081188
222	0xbe56af82	-0.20965388
223	0xbe6f95ed	-0.23397036
224	0xbe7b5b51	-0.24546553
225	0xbe659d21	-0.22423221
226	0x3ea023d7	0.31277344
227	0xbeba1d76	-0.36350602
228	0x3dc3b1cc	0.095553964
229	0xbe8e877f	-0.2783775
230	0x3e0ada92	0.1355994
231	0xbe7c430f	-0.24634956
232	0x3e8a2ba5	0.26986423
233	0x3e297d86	0.1655179
234	0x3ec8be5d	0.39207736
235	0x3ec200cd	0.37891236
236	0xbdbdf7cb	-0.092757784
237	0x3e9d8537	0.30765697
238	0x3dc29f73	0.09503069
239	0x3e790019	0.24316444
240	0x3d4f425d	0.0506004
241	0x3dcb53f7	0.099281244
242	0xbdaa97fe	-0.083297715
243	0xbe6a98fe	-0.22909924
244	0x3ce03409	0.027368562
245	0x3e93acbe	0.2884273
246	0xbd188a75	-0.037241418
247	0xbdcc41f7	-0.09973519
248	0x3daa75c7	0.083232455
249	0x3d2a4a94	0.04157503
250	0xbe55c292	-0.20875004
251	0x3e8abf12	0.270989
252	0x3e41d19f	0.1892762
253	0xbe4921c2	-0.19641784
254	0xbe72c6b9	-0.23708619
255	0x3e51eef3	0.20501308
