saved_files/ckpt/nyc4/a2c_gnn_test_price-variable.pth (torch, 286706 bytes, 55 tensors)

log_rate f4 [16, 16]
20.0 20.0 20.0 20.0 20.0 20.0 20.0 20.0
20.0 20.0 20.0 20.0 20.0 20.0 20.0 20.0
20.0 20.0 20.0 20.0 20.0 20.0 20.0 20.0
20.0 20.0 20.0 20.0 20.0 20.0 20.0 20.0
20.0 20.0 20.0 20.0 20.0 20.0 20.0 20.0
20.0 20.0 20.0 20.0 20.0 20.0 20.0 20.0
20.0 20.0 20.0 20.0 20.0 20.0 20.0 20.0
20.0 20.0 20.0 20.0 20.0 20.0 20.0 20.0
20.0 20.0 20.0 20.0 20.0 20.0 20.0 20.0
20.0 20.0 20.0 20.0 20.0 20.0 20.0 20.0
20.0 20.0 20.0 20.0 20.0 20.0 20.0 20.0
20.0 20.0 20.0 20.0 20.0 20.0 20.0 20.0
20.0 20.0 20.0 20.0 20.0 20.0 20.0 20.0
20.0 20.0 20.0 20.0 20.0 20.0 20.0 20.0
20.0 20.0 20.0 20.0 20.0 20.0 20.0 20.0
20.0 20.0 20.0 20.0 20.0 20.0 20.0 20.0
20.0 20.0 20.0 20.0 20.0 20.0 20.0 20.0
20.0 20.0 20.0 20.0 20.0 20.0 20.0 20.0
20.0 20.0 20.0 20.0 20.0 20.0 20.0 20.0
20.0 20.0 20.0 20.0 20.0 20.0 20.0 20.0
20.0 20.0 20.0 20.0 20.0 20.0 20.0 20.0
20.0 20.0 20.0 20.0 20.0 20.0 20.0 20.0
20.0 20.0 20.0 20.0 20.0 20.0 20.0 20.0
20.0 20.0 20.0 20.0 20.0 20.0 20.0 20.0
20.0 20.0 20.0 20.0 20.0 20.0 20.0 20.0
20.0 20.0 20.0 20.0 20.0 20.0 20.0 20.0
20.0 20.0 20.0 20.0 20.0 20.0 20.0 20.0
20.0 20.0 20.0 20.0 20.0 20.0 20.0 20.0
20.0 20.0 20.0 20.0 20.0 20.0 20.0 20.0
20.0 20.0 20.0 20.0 20.0 20.0 20.0 20.0
20.0 20.0 20.0 20.0 20.0 20.0 20.0 20.0
20.0 20.0 20.0 20.0 20.0 20.0 20.0 20.0
00000000: 0000 a041 0000 a041 0000 a041 0000 a041
00000010: 0000 a041 0000 a041 0000 a041 0000 a041
00000020: 0000 a041 0000 a041 0000 a041 0000 a041
00000030: 0000 a041 0000 a041 0000 a041 0000 a041
00000040: 0000 a041 0000 a041 0000 a041 0000 a041
00000050: 0000 a041 0000 a041 0000 a041 0000 a041
00000060: 0000 a041 0000 a041 0000 a041 0000 a041
00000070: 0000 a041 0000 a041 0000 a041 0000 a041
00000080: 0000 a041 0000 a041 0000 a041 0000 a041
00000090: 0000 a041 0000 a041 0000 a041 0000 a041
000000a0: 0000 a041 0000 a041 0000 a041 0000 a041
000000b0: 0000 a041 0000 a041 0000 a041 0000 a041
000000c0: 0000 a041 0000 a041 0000 a041 0000 a041
000000d0: 0000 a041 0000 a041 0000 a041 0000 a041
000000e0: 0000 a041 0000 a041 0000 a041 0000 a041
000000f0: 0000 a041 0000 a041 0000 a041 0000 a041
00000100: 0000 a041 0000 a041 0000 a041 0000 a041
00000110: 0000 a041 0000 a041 0000 a041 0000 a041
00000120: 0000 a041 0000 a041 0000 a041 0000 a041
00000130: 0000 a041 0000 a041 0000 a041 0000 a041
00000140: 0000 a041 0000 a041 0000 a041 0000 a041
00000150: 0000 a041 0000 a041 0000 a041 0000 a041
00000160: 0000 a041 0000 a041 0000 a041 0000 a041
00000170: 0000 a041 0000 a041 0000 a041 0000 a041
00000180: 0000 a041 0000 a041 0000 a041 0000 a041
00000190: 0000 a041 0000 a041 0000 a041 0000 a041
000001a0: 0000 a041 0000 a041 0000 a041 0000 a041
000001b0: 0000 a041 0000 a041 0000 a041 0000 a041
000001c0: 0000 a041 0000 a041 0000 a041 0000 a041
000001d0: 0000 a041 0000 a041 0000 a041 0000 a041
000001e0: 0000 a041 0000 a041 0000 a041 0000 a041
000001f0: 0000 a041 0000 a041 0000 a041 0000 a041
00000200: 0000 a041 0000 a041 0000 a041 0000 a041
00000210: 0000 a041 0000 a041 0000 a041 0000 a041
00000220: 0000 a041 0000 a041 0000 a041 0000 a041
00000230: 0000 a041 0000 a041 0000 a041 0000 a041
00000240: 0000 a041 0000 a041 0000 a041 0000 a041
00000250: 0000 a041 0000 a041 0000 a041 0000 a041
00000260: 0000 a041 0000 a041 0000 a041 0000 a041
00000270: 0000 a041 0000 a041 0000 a041 0000 a041
00000280: 0000 a041 0000 a041 0000 a041 0000 a041
00000290: 0000 a041 0000 a041 0000 a041 0000 a041
000002a0: 0000 a041 0000 a041 0000 a041 0000 a041
000002b0: 0000 a041 0000 a041 0000 a041 0000 a041
000002c0: 0000 a041 0000 a041 0000 a041 0000 a041
000002d0: 0000 a041 0000 a041 0000 a041 0000 a041
000002e0: 0000 a041 0000 a041 0000 a041 0000 a041
000002f0: 0000 a041 0000 a041 0000 a041 0000 a041
00000300: 0000 a041 0000 a041 0000 a041 0000 a041
00000310: 0000 a041 0000 a041 0000 a041 0000 a041
00000320: 0000 a041 0000 a041 0000 a041 0000 a041
00000330: 0000 a041 0000 a041 0000 a041 0000 a041
00000340: 0000 a041 0000 a041 0000 a041 0000 a041
00000350: 0000 a041 0000 a041 0000 a041 0000 a041
00000360: 0000 a041 0000 a041 0000 a041 0000 a041
00000370: 0000 a041 0000 a041 0000 a041 0000 a041
00000380: 0000 a041 0000 a041 0000 a041 0000 a041
00000390: 0000 a041 0000 a041 0000 a041 0000 a041
000003a0: 0000 a041 0000 a041 0000 a041 0000 a041
000003b0: 0000 a041 0000 a041 0000 a041 0000 a041
000003c0: 0000 a041 0000 a041 0000 a041 0000 a041
000003d0: 0000 a041 0000 a041 0000 a041 0000 a041
000003e0: 0000 a041 0000 a041 0000 a041 0000 a041
000003f0: 0000 a041 0000 a041 0000 a041 0000 a041

actor.conv1.bias f4 [21]
-0.008348773 0.0 -0.03314347 0.0 0.060000032 0.0 0.10645803 0.111608125
0.10824791 -0.009092042 -0.03204981 -0.010311661 0.033928398 0.0 0.0 0.0
-0.0066347276 0.06870047 0.0025892034 0.08607094 -0.011766463
00000000: 4bc9 08bc 0000 0000 72c1 07bd 0000 0000
00000010: 98c2 753d 0000 0000 ab06 da3d cd92 e43d
00000020: 15b1 dd3d caf6 14bc a946 03bd 3ef2 28bc
00000030: 81f8 0a3d 0000 0000 0000 0000 0000 0000
00000040: 2168 d9bb d5b2 8c3d a0af 293b f645 b03d
00000050: 1fc8 40bc

actor.conv1.lin.weight f4 [21, 21]
0.32805222 -0.07654834 0.07863165 0.11510208 0.32109427 -0.28929284 -0.34742045 0.069605924
-0.22219127 0.10127815 -0.014111923 -0.06418336 -0.2761524 -0.10964574 0.10690724 -0.3818213
0.07662771 0.30261567 0.135244 0.08776633 -0.0614938 -0.14404422 -0.066218436 -0.18866828
0.04415551 -0.28750825 -0.29727072 -0.22860795 0.030765235 0.27436945 0.11532 0.25480232
0.21195707 -0.22523946 -0.022505403 0.3341758 -0.117672056 -0.16420893 0.09788647 -0.374468
0.19795391 -0.2540594 -0.023355562 0.11661925 -0.04402932 0.1392374 0.20455761 0.021675924
-0.33620918 -0.0049833627 -0.21880782 0.08156709 -0.2799955 0.16169491 0.0031672788 0.14724515
-0.23111705 -0.04669283 0.25530112 -0.17838234 -0.38124138 0.058818545 0.13781734 0.03429413
0.34904954 -0.2912528 0.15326378 -0.16204223 0.29278573 0.19657794 -0.08713707 -0.087103724
0.19980666 -0.33475038 -0.03672898 -0.2047862 0.19808647 -0.26260012 -0.23102558 -0.32046473
0.082849145 -0.27538303 -0.07544896 -0.019995332 0.46557826 0.3732995 0.40958104 0.38749403
-0.035281844 0.33708152 0.3860452 0.47150114 0.5057838 0.182396 0.109515674 0.37497404
0.32976636 0.3645221 -0.2712154 0.38031343 0.23218407 -0.07970017 0.33719817 0.33435124
0.29798463 0.117081136 -0.23871268 0.034735233 -0.12948342 -0.059082687 0.1558474 0.009688318
0.096767336 -0.2610918 0.23790601 -0.23453951 -0.13493317 0.31139013 0.31595573 -0.21769036
0.15480348 -0.23882104 0.28174815 -0.05520737 -0.37565368 -0.25859168 0.1208954 0.1454233
0.39579287 -0.12995225 0.25713366 -0.0066381753 0.54262984 0.018656638 0.07130866 0.59010917
0.1539563 0.10553238 0.18183854 0.11348517 0.24672322 0.27845812 0.08465064 0.45220143
0.3359927 -0.23715456 -0.058559675 -0.06996477 0.36572495 0.37598392 0.46549305 0.51147026
0.02136625 0.47644868 0.29394042 0.16698802 0.4220583 0.110366665 -0.20405346 0.20926681
0.23118435 0.042847134 0.47638324 0.28717256 0.0662376 -0.010931811 0.26649678 0.41170895
0.029676914 0.18428826 0.17490542 0.48670253 0.55975515 0.18429998 0.517992 0.5457149
0.045139723 -0.06276571 0.52478606 0.1916788 -0.22984739 0.4230198 0.48357606 0.4049277
0.09507019 0.29696256 0.33579382 -0.13217981 0.071469806 0.22421813 -0.28795105 0.2912147
0.21870019 0.054124396 -0.25001428 -0.34071013 0.2781473 0.25925297 0.08497701 0.311488
-0.27619046 0.0962411 -0.33140403 0.030646345 -0.02647828 0.2151293 -0.19260988 -0.32894638
0.10322921 -0.07168173 0.0032948642 -0.25616887 0.24547604 0.28248417 -0.15433428 -0.2861393
0.20601985 -0.29968697 -0.17857 -0.3727998 -0.2540685 -0.056856364 0.13524885 -0.20737845
0.27638105 -0.07772989 0.030654017 -0.20400368 0.27610037 -0.203233 0.06924571 0.21367118
0.08203324 0.11322451 -0.3156676 0.15591471 0.3478382 -0.0049924525 0.11199656 -0.18910639
0.09709244 0.04093623 -0.1228053 0.08194926 0.041940853 -0.35229874 0.23268466 -0.06616322
0.11677091 -0.35953632 -0.13067088 -0.018738167 0.3694987 -0.03241796 0.25399688 0.28400996
00000000: 76f6 a73e 60c5 9cbd a109 a13d a4ba eb3d
00000010: 7866 a43e 311e 94be 18e1 b1be 8d8d 8e3d
00000020: 1c86 63be eb6a cf3d b235 67bc 9172 83bd
00000030: d963 8dbe f28d e0bd 2ff2 da3d 157e c3be
00000040: fdee 9c3d 71f0 9a3e 677d 0a3e d5be b33d
00000050: ece0 7bbd 5480 13be 889d 87bd 4232 41be
00000060: 68dc 343d 4834 93be de33 98be 3418 6abe
00000070: 6007 fc3c 277a 8c3e e42c ec3d 7375 823e
00000080: 460b 593e 2ca5 66be 405d b8bc 1719 ab3e
00000090: 0cfe f0bd 6326 28be b478 c83d 45ba bfbe
000000a0: 6eb4 4a3e 1314 82be 2a54 bfbc 13d6 ee3d
000000b0: 1758 34bd 4094 0e3e 8d77 513e b591 b13c
000000c0: 9c23 acbe 7a4b a3bb 280f 60be a50c a73d
000000d0: 925b 8fbe 5a93 253e 1f92 4f3b 6fc7 163e
000000e0: f3a9 6cbe fb40 3fbd d4b6 823e dca9 36be
000000f0: 1232 c3be b7eb 703d fd1f 0d3e 0078 0c3d
00000100: 9fb6 b23e 161f 95be 2ef1 1c3e 66ee 25be
00000110: 03e8 953e ba4b 493e ec74 b2bd 7063 b2bd
00000120: 1e9a 4c3e 6764 abbe 2071 16bd 79b3 51be
00000130: 2ed7 4a3e 8673 86be f891 6cbe f413 a4be
00000140: d0ac a93d 01ff 8cbe fc84 9abd 40cd a3bc
00000150: 4660 ee3e 1d21 bf3e 9bb4 d13e 9e65 c63e
00000160: b283 10bd f395 ac3e b7a7 c53e 9968 f13e
00000170: 0c7b 013f 04c6 3a3e c149 e03d 99fc bf3e
00000180: 23d7 a83e a4a2 ba3e bfdc 8abe 71b8 c23e
00000190: a9c1 6d3e d839 a3bd 3da5 ac3e 1630 ab3e
000001a0: 7191 983e 3cc8 ef3d 1971 74be 8846 0e3d
000001b0: 4d97 04be b000 72bd 7696 1f3e c0bb 1e3c
000001c0: f42d c63d d3ad 85be a29d 733e 202b 70be
000001d0: ec2b 0abe 876e 9f3e f3c4 a13e 39ea 5ebe
000001e0: ce84 1e3e 818d 74be 4b41 903e 2021 62bd
000001f0: ae55 c0be 2166 84be 0298 f73d d8e9 143e
00000200: 5da5 ca3e 3412 05be 06a7 833e 0d85 d9bb
00000210: cae9 0a3f ced5 983c 460a 923d 6511 173f
00000220: b8a6 1d3e 5c21 d83d e233 3a3e ea6a e83d
00000230: 03a5 7c3e 1092 8e3e 515d ad3d f286 e73e
00000240: 3c07 ac3e a5d8 72be 45dc 6fbd b049 8fbd
00000250: 4d40 bb3e f780 c03e 1b55 ee3e b7ef 023f
00000260: 4608 af3c 15f1 f33e 5c7f 963e e8fe 2a3e
00000270: 0718 d83e eb07 e23d 64f3 50be 0a4a 563e
00000280: 97bb 6c3e 7a80 2f3d 81e8 f33e 4808 933e
00000290: 94a7 873d 571b 33bc 4472 883e 84cb d23e
000002a0: 001d f33c 10b6 3c3e 681a 333e 1331 f93e
000002b0: 1d4c 0f3f 22b9 3c3e 209b 043f f9b3 0b3f
000002c0: 6ee4 383d 4f8b 80bd 6158 063f 7347 443e
000002d0: 1d5d 6bbe 0d96 d83e 4897 f73e af52 cf3e
000002e0: 29b4 c23d 7a0b 983e 2bed ab3e 255a 07be
000002f0: c35e 923d 7099 653e 526e 93be 181a 953e
00000300: f1f2 5f3e 8bb1 5d3d df01 80be 8f71 aebe
00000310: 5369 8e3e cebc 843e 6d08 ae3d 5b7b 9f3e
00000320: d668 8dbe 0e1a c53d caad a9be 0b0e fb3c
00000330: fae8 d8bc db4a 5c3e 863b 45be a96b a8be
00000340: d669 d33d dfcd 92bd a6ee 573b 9128 83be
00000350: 125e 7b3e c4a1 903e ce09 1ebe da80 92be
00000360: def6 523e 9270 99be 0edb 36be 9edf bebe
00000370: 4415 82be 38e2 68bd ad7e 0a3e 045b 54be
00000380: d181 8d3e d930 9fbd 221e fb3c 57e6 50be
00000390: 075d 8d3e 501c 50be b2d0 8d3d 9ecc 5a3e
000003a0: 0b01 a83d 40e2 e73d 2f9f a1be 1ba8 1f3e
000003b0: d917 b23e ba97 a3bb 745e e53d 1ba5 41be
000003c0: 67d8 c63d c0ac 273d 5881 fbbd 03d5 a73d
000003d0: 2cca 2b3d 8060 b4be e344 6e3e 9580 87bd
000003e0: 9625 ef3d 2515 b8be 96ce 05be c980 99bc
000003f0: ef2e bd3e b2c8 04bd e10b 823e c169 913e

actor.lin1.weight f4 [32, 21]
-0.084401846 -0.09994132 -0.14964639 0.22393757 -0.057653952 -0.00981755 -0.022553507 -0.09947089
0.1346514 -0.10271132 0.088897705 0.1328327 -0.12580386 -0.012718662 -0.10560561 -0.11767322
-0.122045815 -0.06813044 -0.09094733 0.09924597 0.021527195 0.3647237 0.30608526 0.0029143076
0.117421165 0.33969644 0.39776498 0.019851934 0.36305708 0.4091274 0.30361837 0.41180372
-0.11826911 -0.14312552 -0.088560544 -0.11089396 -0.3298689 -0.04331578 0.17316005 0.122166075
0.16354689 -0.13860025 0.3708965 0.094591334 0.037186857 0.33360326 0.10269386 0.43160883
0.19944772 0.29868773 0.19489694 0.28962836 0.17265314 -0.095996805 -0.03478154 -0.24105677
-0.19387293 -0.09987844 0.11329728 0.030690972 0.0010266887 0.12278847 0.048516136 0.2304273
0.25673944 0.120001495 0.48963526 0.28288293 0.25454035 0.3593552 0.28747422 0.3325794
0.52319896 0.45208737 -0.2140966 -0.048075147 -0.029919673 -0.03466027 0.114924714 -0.026790757
-0.22290488 -0.16754907 0.11754336 -0.0762828 -0.03683088 0.09011428 -0.13544229 0.10115468
-0.21132492 -0.13854817 0.078354225 -0.078261234 -0.21794441 0.0010228299 -0.06570877 -0.124472894
0.09645815 -0.08647607 -0.12449804 0.12055258 0.11351925 0.023367612 -0.044123277 0.1730227
-0.11775724 0.033082373 0.34652817 0.092097685 0.07659988 -0.015859956 0.2728755 0.37004018
0.20230527 -0.042708557 0.2522914 0.16339998 -0.049704622 0.07752319 0.06982923 -0.17994213
-0.015912857 0.049082246 0.13946843 0.07998956 -0.096136 -0.028234528 -0.18909426 -0.21494484
0.121285155 -0.051940605 -0.054673076 0.1868973 0.11632748 -0.19887546 0.12562044 -0.19438109
0.047444835 0.0018904805 0.0343004 -0.07314965 0.18832092 -0.1568394 -0.049877986 0.012916565
0.03769748 -0.04344727 -0.046730965 0.39025238 0.31972355 0.31857112 0.15976684 0.17121959
0.4446748 0.42081174 0.24650042 0.40675187 0.37450427 0.4057617 -0.060434073 0.035697125
-0.0014488365 -0.14840072 -0.22448245 -0.06590711 0.082149744 -0.20901108 0.11200029 -0.14397074
-0.12650314 0.1575369 0.003242055 0.16519122 -0.154706 -0.18618725 -0.17065197 0.075249314
0.012503427 0.18205401 -0.03210298 -0.104704455 -0.09701634 -0.14033963 -0.016692713 -0.17033738
-0.056198876 0.04183977 0.0997984 0.041122258 0.17518562 0.2696037 0.39935467 0.034313664
0.07286897 0.16998528 0.16233127 0.42292124 0.3300781 0.40963122 0.54651755 0.19025496
-0.2430341 -0.25074938 -0.141645 0.08499318 -0.014955481 -0.28796887 0.047597364 -0.01635765
0.023024911 0.07478951 -0.20545658 -0.09679377 0.08781178 0.18187402 -0.21100679 0.03749706
0.21429415 0.047638103 0.113962635 -0.13615134 -0.19705248 0.10411365 -0.13327101 -0.14594254
0.026356384 0.20611243 0.058413193 -0.035814643 -0.012856051 -0.09832912 -0.10978161 0.042201582
-0.16410425 -0.2740238 -0.27590212 -0.2633155 -0.13488166 -0.22566357 0.09711943 -0.22052379
-0.120993495 0.07181996 0.12960033 0.18136556 -0.108812496 0.0128234215 0.19187228 -0.0061670416
-0.17168319 0.14224967 0.10735446 0.20000884 0.53293544 0.3916405 0.22930396 0.13625707
00000000: e0da acbd 09ae ccbd e73c 19be e44f 653e
00000010: 8d26 6cbd cad9 20bc 22c2 b8bc 65b7 cbbd
00000020: 0ee2 093e 505a d2bd 0010 b63d 4c05 083e
00000030: bad2 00be ef61 50bc c147 d8bd a8fe f0bd
00000040: 28f3 f9bd f987 8bbd 9842 babd 7941 cb3d
00000050: cd59 b03c 11bd ba3e 35b7 9c3e f8fd 3e3b
00000060: 827a f03d b1ec ad3e daa7 cb3e 86a0 a23c
00000070: 9ee2 b93e 2679 d13e de73 9b3e f0d7 d23e
00000080: 1337 f2bd 7f8f 12be 3b5f b5bd 5f1c e3bd
00000090: 94e4 a8be e36b 31bd de50 313e 3532 fa3d
000000a0: d678 273e 39ed 0dbe 25e6 bd3e 1ab9 c13d
000000b0: 3f51 183d 0cce aa3e 2951 d23d d5fb dc3e
000000c0: 063c 4c3e 99ed 983e 1093 473e 2b4a 943e
000000d0: fccb 303e f999 c4bd 1777 0ebd 96d7 76be
000000e0: a086 46be 118d ccbd 6808 e83d a26b fb3c
000000f0: f591 863a 8578 fb3d dbb8 463d 22f5 6b3e
00000100: 5a73 833e 58c3 f53d 79b1 fa3e 08d6 903e
00000110: 1d53 823e 68fd b73e d22f 933e d947 aa3e
00000120: 5ef0 053f ff77 e73e 243c 5bbe 72ea 44bd
00000130: 1a1a f5bc edf7 0dbd a65d eb3d 4a78 dbbc
00000140: 2d41 64be fc91 2bbe 93ba f03d 283a 9cbd
00000150: fadb 16bd d68d b83d 62b1 0abe 2f2a cf3d
00000160: 8f65 58be 92df 0dbe 2e78 a03d 6d47 a0bd
00000170: d22c 5fbe 7a10 863a 5292 86bd a5eb febd
00000180: da8b c53d 5e1a b1bd d4f8 febd 45e4 f63d
00000190: c87c e83d 6f6d bf3c 9cba 34bd dd2c 313e
000001a0: b52a f1bd 6281 073d 246c b13e b69d bc3d
000001b0: 66e0 9c3d bdec 81bc 56b6 8b3e e875 bd3e
000001c0: 1d29 4f3e 2bef 2ebd 572c 813e 5352 273e
000001d0: 1397 4bbd 7ac4 9e3d a102 8f3d c042 38be
000001e0: ae5b 82bc 770a 493d d0d0 0e3e 91d1 a33d
000001f0: f3e2 c4bd 194c e7bc eda1 41be 801a 5cbe
00000200: 5a64 f83d acbf 54bd e0f0 5fbd 0162 3f3e
00000210: 1a3d ee3d 02a6 4bbe a5a2 003e d60b 47be
00000220: 8455 423d 00ca f73a 947e 0c3d 7ccf 95bd
00000230: 33d7 403e 829a 20be dc4c 4cbd 00a0 533c
00000240: ac68 1a3d c4f5 31bd f868 3fbd 29cf c73e
00000250: ceb2 a33e c11b a33e eb99 233e 3054 2f3e
00000260: 6aac e33e a374 d73e 9b6a 7c3e c841 d03e
00000270: 06bf bf3e ffbf cf3e b889 77bd 2637 123d
00000280: e3e6 bdba 5cf6 17be bade 65be 4ffa 86bd
00000290: 203e a83d 0007 56be 6860 e53d 116d 13be
000002a0: 0a8a 01be 5a51 213e a878 543b e327 293e
000002b0: 406b 1ebe dfa7 3ebe 64bf 2ebe 501c 9a3d
000002c0: 2ddb 4c3c 5e6c 3a3e 6a7e 03bd 4a6f d6bd
000002d0: 81b0 c6bd 31b5 0fbe 28bf 88bc ec6c 2ebe
000002e0: cb30 66bd 2e60 2b3d 1b63 cc3d d06f 283d
000002f0: dc63 333e 7f09 8a3e 3778 cc3e 7c8c 0c3d
00000300: 543c 953d 9f10 2e3e 2b3a 263e 2289 d83e
00000310: ffff a83e 2fbb d13e 93e8 0b3f 32d2 423e
00000320: eedd 78be 3962 80be 630b 11be e810 ae3d
00000330: d507 75bc a870 93be 74f5 423d 7a00 86bc
00000340: bd9e bc3c 3e2b 993d 3663 52be d03b c6bd
00000350: aad6 b33d 2f3d 3a3e 2a12 58be 8496 193d
00000360: ed6f 5b3e 2c20 433d 3e65 e93d 426b 0bbe
00000370: 20c8 49be 8a39 d53d 3278 08be f671 15be
00000380: 58e9 d73c 230f 533e ac42 6f3d 60b2 12bd
00000390: 30a2 52bc c760 c9bd 2ed5 e0bd 91db 2c3d
000003a0: f20a 28be d94c 8cbe 0b43 8dbe 4ad1 86be
000003b0: 6b1e 0abe 5a14 67be 8de6 c63d fdd0 61be
000003c0: 70cb f7bd 5816 933d f3b5 043e e5b7 393e
000003d0: 16d9 debd 5419 523c 2b7a 443e e514 cabb
000003e0: b8cd 2fbe e6a9 113e a8dc db3d 1ecf 4c3e
000003f0: 756e 083f 1b85 c83e a8ce 6a3e f986 0b3e

actor.lin1.bias f4 [32]
0.15379886 0.035232395 0.066252194 0.11148014 0.17671365 0.02107514 -0.15399146 0.09898171
-0.061176296 0.07971923 -0.06577648 0.04168399 0.18431276 0.093777105 -0.012748219 0.05315316
0.16049498 0.23937246 0.19670747 0.31441987 -0.19484481 0.04049649 0.1694174 0.16331664
-0.018610284 -0.03841358 -0.049181458 0.24865659 0.049033556 0.047094956 0.2442353 -0.2101344
00000000: 737d 1d3e d84f 103d 3baf 873d b34f e43d
00000010: 6cf4 343e c6a5 ac3c f0af 1dbe ecb6 ca3d
00000020: ff93 7abd d643 a33d d2b5 86bd d5bc 2a3d
00000030: 7cbc 3c3e 360e c03d e8dd 50bc 21b7 593d
00000040: cc58 243e 0e1e 753e af6d 493e a4fb a03e
00000050: 6685 47be a6df 253d c17b 2d3e 7a3c 273e
00000060: 9874 98bc 8f57 1dbd 7f72 49bd d59f 7e3e
00000070: 69d7 483d a4e6 403d d218 7a3e 792d 57be

actor.lin2.weight f4 [32, 32]
-0.10502775 0.15030347 0.28267753 0.34898356 -0.15489748 0.12663965 -0.013741225 0.31537157
-0.14940113 0.22842766 0.06583454 0.01583801 0.37860757 0.10746358 0.2653315 0.12036139
-0.15205479 -0.029204788 0.1561383 0.3569799 -0.035793208 0.25150648 0.015629083 0.15116708
0.031472847 -0.09547301 -0.07914397 0.25344074 0.101886965 0.06480421 0.22272883 -0.10076043
-0.09136752 -0.17228262 -0.13442573 -0.03495097 0.16382782 -0.07218107 -0.04092461 -0.17053548
-0.1660824 -0.054740682 -0.060203 0.13682167 -0.1048187 -0.115535274 0.042246297 -0.045273006
0.17406638 0.072837934 -0.016262427 0.015051842 -0.16399872 0.04585229 -0.11469683 -0.07161306
-0.034288466 -0.06529843 -0.018100023 -0.07133693 0.004884228 0.013935223 -0.02132614 0.095889255
-0.0679957 -0.043704074 -0.010158895 0.01766018 -0.00991922 0.17153591 0.1494539 -0.14881322
-0.15116777 -0.11237015 -0.05042413 0.13966526 -0.050792754 -0.0921418 -0.020641983 0.07379342
-0.010032793 0.03335548 0.11355844 -0.10694723 -0.12069929 -0.13811691 -0.05773551 0.10559657
0.041664377 -0.08805699 -0.118592165 0.11297106 -0.010846837 0.075436935 -0.06833255 0.07952528
-0.14952333 0.23517647 0.081707515 0.12993808 0.14704509 0.16532008 0.035103798 0.19276169
-0.08061601 0.15239748 0.0012470484 -0.0865006 0.21238634 -0.17372282 -0.027107095 0.042575117
0.11626399 0.14225814 0.06852042 0.3622415 -0.11797798 0.2244843 0.01832129 0.14527756
0.035629153 -0.16385162 0.11046282 0.22917491 -0.09642679 -0.097684905 0.14859304 0.1742614
-0.14402235 -0.17479175 0.05561478 0.14959161 0.12164335 -0.004004382 0.06301786 -0.08850643
-0.01800777 0.07069306 -0.0500302 -0.04869927 -0.034931734 -0.06680807 0.062435195 -0.008325806
0.10384394 -0.019869747 0.115958445 -0.10825506 -0.045659855 0.124479115 0.004032403 -0.15915851
0.090674445 -0.14461914 -0.08506178 0.10647563 0.14818056 -0.14541943 -0.18407708 -0.0211256
-0.12370479 0.26582438 0.17318586 0.38115638 -0.08666697 0.17142974 -0.067440666 0.3963907
-0.13078032 0.18057987 -0.1370416 -0.17599057 0.32632712 -0.06443895 0.10865753 0.30225697
-0.14623004 0.21141176 -0.06483374 0.2217638 0.06462767 0.22450037 -0.123547286 0.056811485
-0.16197725 0.04251317 -0.14569066 0.016865266 -0.1708836 0.0883504 0.34554458 -0.11698835
-0.1387893 -0.17802367 -0.0009820434 0.0100718625 -0.12633336 -0.062055748 -0.16888545 -0.17762949
-0.019634053 0.045422215 -0.06295658 0.10612881 0.117241465 0.051584512 0.029760685 -0.021924768
0.013400855 -0.17890655 0.15357865 -0.18160675 -0.06696302 0.078566164 0.1432846 -0.16751221
-0.053832486 0.16405664 -0.19034557 0.09586726 0.062252223 0.05980958 -0.15136887 -0.13456583
0.12824613 0.20800298 0.100983106 0.3939874 0.14027119 0.1403466 0.095533386 0.33638927
0.17044945 0.16317251 -0.16780782 -0.14347358 0.21902886 0.12833022 -0.09210061 0.24768224
0.11698321 0.24535698 0.032924477 0.25575 -0.06716359 0.27949163 -0.01871489 0.11006435
-0.127757 0.08073641 -0.111683704 0.22569752 -0.018394865 0.07326405 0.2947983 0.0768943
00000000: ca18 d7bd 27e9 193e 1cbb 903e f9ad b23e
00000010: 729d 1ebe d3ad 013e e022 61bc 6278 a13e
00000020: 9cfc 18be f1e8 693e 42d4 863d b7be 813c
00000030: dad8 c13e de15 dc3d 88d9 873e 0880 f63d
00000040: 40b4 1bbe e13e efbc b8e2 1f3e 12c6 b63e
00000050: e69b 12bd 75c5 803e 9008 803c 8bcb 1a3e
00000060: ace9 003d 5a87 c3bd 3c16 a2bd fcc2 813e
00000070: 1daa d03d 12b8 843d 0713 643e 7c5b cebd
00000080: e51e bbbd db6a 30be e6a6 09be c028 0fbd
00000090: 7bc2 273e abd3 93bd 90a0 27bd daa0 2ebe
000000a0: 8111 2abe c437 60bd 6c97 76bd fb1a 0c3e
000000b0: 30ab d6bd c29d ecbd 740a 2d3d 3070 39bd
000000c0: 753e 323e 0e2c 953d c838 85bc 009c 763c
000000d0: 48ef 27be 9ccf 3b3d 2ce6 eabd dea9 92bd
000000e0: 1072 0cbd 2fbb 85bd 8046 94bc 1919 92bd
000000f0: e00b a03b 9050 643c 28b4 aebc 9661 c43d
00000100: 5441 8bbd 0b03 33bd 7e71 26bc 15ac 903c
00000110: 3984 22bc 1ca7 2f3e 710a 193e 7e62 18be
00000120: b9cb 1abe 5222 e6bd 8889 4ebd 6904 0f3e
00000130: 100c 50bd d7b4 bcbd 6019 a9bc 0121 973d
00000140: 9560 24bc c19f 083d 5491 e83d 2607 dbbd
00000150: 3031 f7bd 856e 0dbe 127c 6cbd 0443 d83d
00000160: 44a8 2a3d 3957 b4bd 73e0 f2bd 5f5d e73d
00000170: efb6 31bc ae7e 9a3d f0f1 8bbd 26de a23d
00000180: a51c 19be 1ad2 703e 4556 a73d 7d0e 053e
00000190: fd92 163e ab49 293e 00c9 0f3d 5263 453e
000001a0: 021a a5bd 160e 1c3e 0074 a33a 3a27 b1bd
000001b0: ce7b 593e 65e4 31be b30f debc 3f63 2e3d
000001c0: d11b ee3d 1eac 113e 6f54 8c3d b877 b93e
000001d0: 709e f1bd 36df 653e 8816 963c a4c3 143e
000001e0: e0ef 113d b8c8 27be 553a e23d d4ac 6a3e
000001f0: 697b c5bd 060f c8bd c628 183e 9571 323e
00000200: 987a 13be 9cfc 32be 53cc 633d 8b2e 193e
00000210: 2620 f93d 3137 83bb 820f 813d dc42 b5bd
00000220: 0885 93bc 86c7 903d 78ec 4cbd e378 47bd
00000230: 9414 0fbd abd2 88bd 0cbc 7f3d f668 08bc
00000240: 22ac d43d e1c5 a2bc 9f7b ed3d d4b4 ddbd
00000250: d405 3bbd e8ee fe3d 4022 843b 73fa 22be
00000260: 86b3 b93d 0a17 14be df34 aebd e50f da3d
00000270: a5bc 173e d5e8 14be b47e 3cbe 980f adbc
00000280: f058 fdbd 221a 883e a257 313e ee26 c33e
00000290: 747e b1bd 478b 2f3e 551e 8abd b9f3 ca3e
000002a0: 47eb 05be eee9 383e a254 0cbe df36 34be
000002b0: 5914 a73e 91f8 83bd d787 de3d 6dc1 9a3e
000002c0: 54bd 15be 537c 583e 8dc7 84bd 0d16 633e
000002d0: 835b 843d 6de3 653e 5c06 fdbd 29b3 683d
000002e0: 5ddd 25be 4a22 2e3d ef2f 15be 0729 8a3c
000002f0: 1cfc 2ebe 0ef1 b43d 38eb b03e 9797 efbd
00000300: c81e 0ebe d64b 36be e9b7 80ba 7404 253c
00000310: 885d 01be 2b2e 7ebd 4ff0 2cbe 81e4 35be
00000320: 98d7 a0bc a50c 3a3d 61ef 80bd 105a d93d
00000330: 4b1c f03d 484a 533d aecc f33c 929b b3bc
00000340: 428f 5b3c 4733 37be b943 1d3e 1ff7 39be
00000350: e823 89bd 4ce7 a03d 33b9 123e 5288 2bbe
00000360: 747f 5cbd 77fe 273e f3e9 42be 0e56 c43d
00000370: 30fc 7e3d e4fa 743d 7100 1bbe a0cb 09be
00000380: f452 033e bcfe 543e 3bd0 ce3d b7b8 c93e
00000390: 40a3 0f3e 05b7 0f3e 02a7 c33d 373b ac3e
000003a0: 4d8a 2e3e b216 273e d0d5 2bbe bdea 12be
000003b0: 1a49 603e ff68 033e 3f9f bcbd 6aa0 7d3e
000003c0: e594 ef3d dc3e 7b3e d1db 063d aaf1 823e
000003d0: 108d 89bd 8719 8f3e f84f 99bc 6b69 e13d
000003e0: bbd2 02be 2259 a53d 6dba e4bd 401d 673e
000003f0: d4b0 96bc 760b 963d ceef 963e c27a 9d3d

actor.lin2.bias f4 [32]
-0.035197083 -0.003159538 -0.10659169 0.24930923 -0.1670738 0.27353847 -0.065065585 0.22361167
0.05321651 -0.0913674 -0.07182397 0.11949189 0.053542368 0.08547653 0.17649058 0.23116751
0.06441801 0.17257944 0.11084118 -0.014885052 0.23226126 0.00027936645 -0.010294203 0.13887632
-0.10236875 0.059748325 -0.041232064 0.15050521 -0.0011208355 0.082146056 0.13679217 0.010370416
00000000: d12a 10bd 4010 4fbb be4c dabd eb4a 7f3e
00000010: 6515 2bbe 3c0d 8c3e 1b41 85bd 75fa 643e
00000020: 8ef9 593d d51e bbbd 7218 93bd 2ab8 f43d
00000030: 3e4f 5b3d 520e af3d f2b9 343e 2db7 6c3e
00000040: 97ed 833d aab8 303e b300 e33d 6fe0 73bc
00000050: e5d5 6d3e ee77 9239 04a9 28bc 9835 0e3e
00000060: b5a6 d1bd a9ba 743d f4e2 28bd 0a1e 1a3e
00000070: 00e9 92ba 313c a83d 3f13 0c3e ade8 293c

actor.lin3.weight f4 [1, 32]
0.359044 0.15027152 -0.1371856 0.20452875 -0.034393635 0.26344422 0.005290043 0.34115025
-0.14416003 -0.096192166 0.31754524 -0.09202452 0.41333616 0.06412061 0.22294778 0.22551434
-0.12899362 -0.012418226 0.29114142 -0.09203412 0.29203442 -0.023709573 -0.105661884 -0.09584325
-0.09052876 -0.014916272 0.2928801 0.33583653 -0.057882205 0.38433775 0.24894617 0.40996465
00000000: 9dd4 b73e c7e0 193e 627a 0cbe fc6f 513e
00000010: 57e0 0cbd 29e2 863e 1958 ad3b 3fab ae3e
00000020: b09e 13be 6600 c5bd 4a95 a23e 5a77 bcbd
00000030: cca0 d33e ab51 833d 6c4c 643e 3bed 663e
00000040: e716 04be d175 4bbc 7d10 953e 627c bcbd
00000050: 8985 953e 943a c2bc 4265 d8bd 7749 c4bd
00000060: 2467 b9bd 6163 74bc 61f4 953e c4f2 ab3e
00000070: e415 6dbd ebc7 c43e bfeb 7e3e e3e6 d13e

actor.lin4.weight f4 [32, 32]
-0.06982104 -0.15609153 -0.018133203 -0.1989395 0.09652403 -0.08487409 0.1347545 -0.049657274
0.14011495 0.10223317 -0.14686887 0.03056594 -0.16914959 -0.07718719 -0.08481676 -0.07805598
0.09843613 0.065106794 0.06762679 -0.1284929 0.13625644 0.1428307 0.0365476 0.052477065
0.13015129 0.050058927 -0.03481661 -0.012139387 -0.15967166 -0.096318044 0.13510895 -0.10711331
-0.037863333 0.1170173 0.04663691 -0.11108238 0.07585988 0.029932644 -0.07011505 -0.15095863
-0.1288338 -0.05563942 0.047164932 -0.11452844 0.08038858 0.102605835 -0.10918052 0.08271482
-0.13438308 0.15054707 0.16653113 0.07975802 -0.13388768 0.0004053436 0.13184921 -0.09200508
-0.04901488 -0.106851496 -0.10412047 0.04918178 0.14774941 0.07877542 -0.14411673 0.032300293
-0.086362176 0.03916867 0.10851093 -0.026829183 0.16411598 0.08353339 -0.04297328 -0.10767461
0.124995634 0.056517065 -0.10480433 0.10758357 0.121705666 0.0071021616 -0.16342945 -0.02777031
-0.14623797 -0.14699198 0.03041707 -0.026743412 -0.092992194 0.16373153 -0.03223802 -0.118924156
0.16752298 0.13834803 0.04575059 -0.16505928 0.15220465 -0.115869924 0.04275419 -0.03358081
-0.11689541 0.010511493 0.06266612 -0.1404762 -0.12090595 -0.05514572 -0.16321881 0.07712552
-0.16864225 0.08944168 0.03939262 -0.032183506 0.004478639 -0.13743228 -0.013527051 0.10822408
-0.026499553 0.047389016 -0.12024571 0.106117085 -0.059651855 0.033762272 -0.096719384 -0.1312409
0.15845357 -0.04623431 -0.10708862 -0.20041563 0.14343528 0.056535184 -0.050171904 0.10015552
-0.051128194 -0.13033983 0.04590911 -0.04693874 -0.038012087 -0.15166396 -0.056662664 -0.055452734
0.16811348 -0.060925562 -0.124877736 0.11033257 -0.13379681 -0.12920666 0.1681167 -0.05345235
0.035998464 -0.025395928 -0.012306582 0.02836285 0.0892297 -0.0103515275 0.022746801 -0.098110646
-0.08279116 0.06277016 0.10345048 0.040878527 -0.10254627 0.02215755 0.17454843 0.053927824
-0.14656381 -0.16729288 0.011660835 0.059781633 0.009760827 0.10133676 -0.027810767 -0.15785462
-0.0104121715 -0.028241303 -0.0014333129 -0.106457606 0.08953404 0.1606281 -0.08767819 -0.07319849
-0.04568398 -0.20024161 0.042115003 0.07208656 -0.049847305 0.1332404 -0.0056965053 -0.20346813
-0.14156385 -0.12085402 0.13762541 -0.03679391 -0.16363677 -0.1683856 0.07040662 -0.07334411
0.13386132 0.118484855 -0.18101972 0.04130747 -0.07625665 0.030238984 0.03658709 -0.18103498
-0.16541077 -0.05200228 0.15168302 -0.0034638166 -0.08945071 0.16202901 0.11885615 0.10205909
-0.02973218 -0.15696456 -0.18286657 0.054287612 -0.12950988 0.044901777 -0.05096136 0.073641755
0.15673245 -0.14394516 0.04312833 0.019844865 -0.014234866 -0.07796309 -0.104736716 0.123340294
0.16496022 0.018775195 -0.09549304 -0.111247346 0.102453366 0.07542531 0.115305886 0.0029108077
-0.15739277 -0.0710391 -0.022772864 -0.15231746 -0.13704029 -0.11662501 -0.1456756 -0.03843616
0.04734707 0.06996754 0.031998158 0.06849159 -0.17675862 -0.030679718 -0.003314361 -0.024528787
-0.072471775 0.08188178 -0.045991585 -0.07595134 0.10918374 -0.06697157 -0.023454547 -0.002872184
00000000: 55fe 8ebd 75d6 1fbe 158c 94bc ccb6 4bbe
00000010: 64ae c53d 78d2 adbd 15fd 093e 6d65 4bbd
00000020: 4b7a 0f3e a05f d13d cb64 16be 6c65 fa3c
00000030: 8d35 2dbe 5114 9ebd 69b4 adbd d0db 9fbd
00000040: e298 c93d b656 853d ea7f 8a3d a593 03be
00000050: cf86 0b3e 3642 123e f0b2 153d 31f2 563d
00000060: 6146 053e 970a 4d3d dd9b 0ebd 48e4 46bc
00000070: f880 23be 6542 c5bd 005a 0a3e 395e dbbd
00000080: 9516 1bbd c4a6 ef3d 5806 3f3d 297f e3bd
00000090: 6d5c 9b3d 4e35 f53c 7b98 8fbd e694 1abe
000000a0: 02ed 03be 29e6 63bd 0430 413d e38d eabd
000000b0: c5a2 a43d 0223 d23d 099a dfbd 6366 a93d
000000c0: b89b 09be 0329 1a3e 2387 2a3e 2c58 a33d
000000d0: da19 09be 4c84 d439 7b03 073e 296d bcbd
000000e0: d4c3 48bd f5d4 dabd 1d3d d5bd d672 493d
000000f0: 9f4b 173e 0255 a13d 5693 13be 504d 043d
00000100: a7de b0bd 546f 203d fa3a de3d e0c8 dbbc
00000110: 050e 283e 8e13 ab3d c004 30bd 8284 dcbd
00000120: b6fd ff3d 707e 673d a7a3 d6bd c654 dc3d
00000130: d240 f93d 40b9 e83b 0d5a 27be 907e e3bc
00000140: 68bf 15be 1185 16be 382d f93c 0015 dbbc
00000150: b172 bebd 3da9 273e 040c 04bd 828e f3bd
00000160: 258b 2b3e 1bab 0d3e f864 3b3d 4d05 29be
00000170: 89db 1b3e 364d edbd 041f 2f3d 088c 09bd
00000180: dc66 efbd 6638 2c3c 1857 803d fed8 0fbe
00000190: 8a9d f7bd 7ae0 61bd d522 27be fcf3 9d3d
000001a0: 8eb0 2cbe 332d b73d 285a 213d dad2 03bd
000001b0: 8cc1 923b 0cbb 0cbe 90a0 5dbc 96a4 dd3d
000001c0: 9715 d9bc fc1a 423d 6243 f6bd ea53 d93d
000001d0: 8155 74bd 4f4a 0a3d d014 c6bd 0464 06be
000001e0: a741 223e 3060 3dbd 4751 dbbd c139 4dbe
000001f0: b3e0 123e 7091 673d 0e81 4dbd 561e cd3d
00000200: cc6b 51bd ce77 05be 310b 3c3d d642 40bd
00000210: 90b2 1bbd cc4d 1bbe 1c17 68bd 6822 63bd
00000220: f125 2c3e 158d 79bd e6bf ffbd 0bf6 e13d
00000230: 0802 09be c04e 04be c926 2c3e daf0 5abd
00000240: 2073 133d 1f0b d0bc 8ca1 49bc 3559 e83c
00000250: 10be b63d 7499 29bc 8057 ba3c 3cee c8bd
00000260: 698e a9bd a48d 803d d8dd d33d 3e70 273d
00000270: c703 d2bd c083 b53c d3bc 323e 6ce3 5c3d
00000280: d314 16be d34e 2bbe 160d 3f3c 96dd 743d
00000290: e0eb 1f3c a689 cf3d 68d3 e3bc a4a4 21be
000002a0: d097 2abc 4e5a e7bc 00de bbba 7206 dabd
000002b0: 9f5d b73d b17b 243e 9f90 b3bd 17e9 95bd
000002c0: 201f 3bbd 230c 4dbe c880 2c3d 1ea2 933d
000002d0: b02c 4cbd 2c70 083e c0a9 babb f359 50be
000002e0: 1df6 10be 5082 f7bd aded 0c3e 36b5 16bd
000002f0: 6690 27be 466d 2cbe 5931 903d 7035 96bd
00000300: f112 093e 30a8 f23d 3c5d 39be 0632 293d
00000310: 722c 9cbd bfb7 f73c 58dc 153d 3c61 39be
00000320: 7161 29be 5800 55bd cb52 1b3e 3301 63bb
00000330: ef31 b7bd efea 253e da6a f33d 5b04 d13d
00000340: e790 f3bc 51bb 20be 6041 3bbe b05c 5e3d
00000350: 3d9e 04be edea 373d dcbc 50bd 7dd1 963d
00000360: 797e 203e 5c66 13be 55a7 303d b391 a23c
00000370: 5b39 69bc 1dab 9fbd 3480 d6bd d699 fc3d
00000380: 55eb 283e 70ce 993c db91 c3bd a6d5 e3bd
00000390: 12d3 d13d 9678 9a3d 7e25 ec3d 40c3 3e3b
000003a0: 922b 21be f37c 91bd 288e babc 1cf9 1bbe
000003b0: 4a54 0cbe 18d9 eebd fc2b 15be 3c6f 1dbd
000003c0: 00ef 413d 244b 8f3d 8010 033d 5245 8c3d
000003d0: 3600 35be 0854 fbbc c035 59bb 98f0 c8bc
000003e0: 156c 94bd a2b1 a73d ac61 3cbd 608c 9bbd
000003f0: ba9b df3d 6428 89bd c023 c0bc 403b 3cbb

actor.lin4.bias f4 [32]
-0.1597633 -0.0977298 -0.098370425 -0.15346585 -0.08257231 -0.13591614 0.0090225935 -0.05965233
-0.17327952 -0.15333778 -0.10560068 -0.03190927 0.074938215 -0.21375258 0.14053512 -0.104499675
0.08005758 -0.015440908 -0.08470677 0.07247542 -0.010983632 -0.1251118 0.12690368 -0.060025197
-0.1648266 0.06950823 -0.15541264 0.09650719 0.11987162 0.0507154 -0.16507947 0.026078152
00000000: fe98 23be 9026 c8bd 6f76 c9bd 2726 1dbe
00000010: ac1b a9bd 9a2d 0bbe 80d3 133c 0056 74bd
00000020: 3070 31be 9404 1dbe 2b45 d8bd 4bb3 02bd
00000030: 3579 993d f5e1 5abe 70e8 0f3e ed03 d6bd
00000040: 3af5 a33d ddfb 7cbc be7a adbd fe6d 943d
00000050: b1f4 33bc 4f1d 00be 0af3 013e fbdc 75bd
00000060: 4ec8 28be 555a 8e3d 7e24 1fbe 90a5 c53d
00000070: 407f f53d f4ba 4f3d 980a 29be d9a1 d53c

actor.bilin.weight f4 [16, 32, 32]
0.15387261 -0.059376042 0.035256043 -0.087147005 0.07892527 0.016213894 0.07863633 -0.105212085
0.16377911 0.081331275 -0.13901585 0.06752878 0.06342344 -0.14466287 -0.17186303 -0.030399904
0.0017302483 0.07539691 -0.1807611 0.1348568 0.08139944 -0.12992103 -0.1251454 0.11914641
-0.1477106 -0.02072923 -0.094872616 -0.15658161 -0.1051741 0.04052289 -0.09074276 0.12618785
-0.077249475 0.15549825 0.067147404 0.16469832 0.15604666 -0.058915496 -0.13520841 0.05062388
0.15196054 -0.020042656 -0.00416255 0.1757622 0.04537856 -0.0662575 -0.07123609 0.012830645
-0.05627066 -0.0058999406 0.035532344 0.119766876 -0.02983004 -0.1097084 0.21741596 0.038662832
0.007629644 0.121132135 0.120822564 -0.14261827 0.1241638 -0.04427977 -0.015722856 -0.13437511
-0.16553788 -0.15596847 -0.15186405 -0.13047044 0.005101502 0.16433845 0.0874529 -0.108579345
-0.11397869 0.13003458 0.04509753 -0.06144239 -0.032919824 0.113254175 0.1126077 -0.10376497
-0.12539405 -0.00087948143 -0.020928904 -0.14953719 -0.1199466 0.062217534 0.13109566 -0.1526618
0.05599244 -0.04226774 -0.11995241 -0.047702685 -0.1333886 -0.16996321 0.16424058 0.055273905
0.0896061 0.1632079 -0.07026775 -0.09149055 0.07319036 0.050890848 -0.04416599 -0.022905976
0.1553916 0.14733677 0.012070611 -0.08761089 -0.13412821 0.029432122 -0.16845642 -0.0060329884
-0.06377328 -0.12686339 0.16734043 0.1506555 -0.14699063 -0.15696067 0.059585672 -0.08421573
-0.10415081 -0.16660325 0.081912085 -0.06764662 -0.114113405 -0.1274476 0.1650334 0.0123937335
0.009354398 0.11469487 0.018520162 0.011010565 0.12704723 -0.05358862 0.06856481 -0.076736726
0.04386571 -0.018509662 0.00632371 -0.060928646 0.025636375 0.018257888 -0.09212069 0.11841802
0.11444868 0.13765413 -0.030500825 -0.14636815 0.07332166 0.16525221 -0.012578089 -0.118535556
0.16942123 -0.08495927 0.05558172 0.090162694 0.0044211196 -0.049325317 0.055081774 -0.10278029
0.1176901 -0.12584575 -0.123584546 0.036400646 -0.10964079 -0.15757164 -0.0146482885 0.10963024
-0.14672068 0.061925236 0.031390786 0.13491939 0.09435643 0.13321657 0.17675965 -0.019928887
-0.061631992 -0.06507222 -0.10996506 0.1543781 -0.074665755 0.040780574 -0.14473478 -0.13391529
0.10765223 0.15314098 -0.12957321 -0.16713436 0.023214906 0.14958651 -0.16791704 0.028597668
0.14481036 0.03348995 0.054607928 0.023792678 0.06152881 0.09931524 0.20538211 0.16226064
-0.025783995 -0.03535989 -0.009534031 0.18239649 -0.14165083 0.0036133546 0.063276045 0.044964537
-0.0388671 0.16842522 0.06806678 0.1292397 -0.095304094 -0.05621771 0.10534423 -0.090735756
0.19589213 0.16780287 0.07284658 0.13821991 0.15964599 -0.12463781 -0.10064052 0.06770825
-0.13071257 0.044299617 0.024091497 -0.13846216 0.03364727 0.12444751 -0.17477748 -0.021714821
0.04353498 0.078219935 -0.0959873 0.094131574 -0.023529828 0.102329984 -0.17210951 -0.0024896562
0.09232707 -0.107330956 0.036244586 -0.084133685 0.08015533 -0.10758558 0.10764624 -0.06698021
-0.041599482 -0.045863926 -0.14143397 0.13546072 -0.03989917 0.13047378 0.14431657 -0.06165228
00000000: c890 1d3e 4b34 73bd a468 103d 217a b2bd
00000010: 92a3 a13d 00d3 843c 160c a13d 6f79 d7bd
00000020: b6b5 273e 0391 a63d 2c5a 0ebe 874c 8a3d
00000030: 26e4 813d 8122 14be ddfc 2fbe 3809 f9bc
00000040: 80c9 e23a b269 9a3d 7019 39be e717 0a3e
00000050: c0b4 a63d 050a 05be 1e26 00be 0803 f43d
00000060: 7341 17be 59d0 a9bc 934c c2bd ee56 20be
00000070: 8565 d7bd 54fb 253d 57d7 b9bd 6337 013e
00000080: f934 9ebd ef3a 1f3e 9484 893d ada6 283e
00000090: b2ca 1f3e 6051 71bd 1374 0abe fc5a 4f3d
000000a0: 8b9b 1b3e 7f30 a4bc 0066 88bb 02fb 333e
000000b0: dede 393d 03b2 87bd 3ae4 91bd a037 523c
000000c0: 107c 66bd 4a54 c1bb 5d8a 113d 5648 f53d
000000d0: 215e f4bc ccae e0bd 4aa2 5e3e eb5c 1e3d
000000e0: 1802 fa3b 2014 f83d d271 f73d 860a 12be
000000f0: 9749 fe3d b45e 35bd 38cd 80bc a199 09be
00000100: c382 29be 33b6 1fbe 4082 1bbe 0b9a 05be
00000110: 802a a73b 5748 283e 821a b33d d95e debd
00000120: a96d e9bd c927 053e 30b8 383d 04ab 7bbd
00000130: f0d6 06bd cef1 e73d de9e e63d bb82 d4bd
00000140: 4c67 00be 008d 66ba 1873 abbc 4720 19be
00000150: 90a6 f5bd d0d7 7e3d f13d 063e 6053 1cbe
00000160: 5458 653d f020 2dbd 9ca9 f5bd e463 43bd
00000170: 0597 08be d60a 2ebe af2e 283e e466 623d
00000180: 6783 b73d f91f 273e 8ae8 8fbd 665f bbbd
00000190: d4e4 953d ec72 503d 66e7 34bd 50a5 bbbc
000001a0: fa1e 1f3e 73df 163e d0c3 453c 576d b3bd
000001b0: e858 09be a21b f13c d77f 2cbe 60b0 c5bb
000001c0: 919b 82bd 7ae8 01be 4a5b 2b3e 6f45 1a3e
000001d0: b684 16be 4cba 20be 1b10 743d 4c79 acbd
000001e0: 054d d5bd 0b9a 2abe 86c1 a73d 508a 8abd
000001f0: 4ab4 e9bd a081 02be 84fe 283e 160f 4b3c
00000200: 3043 193c 25e5 ea3d 98b7 973c a865 343c
00000210: ab18 023e be7f 5bbd b56b 8c3d 2528 9dbd
00000220: 88ac 333d 93a1 97bc 2037 cf3b 5190 79bd
00000230: 6003 d23c 9191 953c c6a9 bcbd 2685 f23d
00000240: 1264 ea3d 34f5 0c3e dedc f9bc 88e1 15be
00000250: ab29 963d e037 293e 5414 4ebc c5c2 f2bd
00000260: c27c 2d3e 20ff adbd a8a9 633d 38a7 b83d
00000270: 0adf 903b 5809 4abd 6d9d 613d 797e d2bd
00000280: 8207 f13d b5dd 00be e519 fdbd d818 153d
00000290: 5a8b e0bd 765a 21be 60ff 6fbc d285 e03d
000002a0: f23d 16be 51a5 7d3d a093 003d 4f28 0a3e
000002b0: f23d c13d ed69 083e 7b00 353e e841 a3bc
000002c0: d471 7cbd 9644 85bd 5d35 e1bd 4b15 1e3e
000002d0: 5cea 98bd 8809 273d 5b35 14be 1721 09be
000002e0: c678 dc3d fdd0 1c3e d7ae 04be 4525 2bbe
000002f0: 302d be3c 352d 193e 72f2 2bbe a845 ea3c
00000300: 2b49 143e c22c 093d 90ac 5f3d dde8 c23c
00000310: a205 7c3d ca65 cb3d b04f 523e a727 263e
00000320: f538 d3bc 88d5 10bd a034 1cbc 25c6 3a3e
00000330: ea0c 11be 08ce 6c3b df96 813d bc2c 383d
00000340: 1c33 1fbd a977 2c3e 9966 8b3d 6957 043e
00000350: cb2e c3bd 8b44 66bd b7be d73d abd3 b9bd
00000360: f297 483e 84d4 2b3e 9630 953d 8589 0d3e
00000370: 3d7a 233e 1c42 ffbd 9e1c cebd 9faa 8a3d
00000380: 84d9 05be 8473 353d 885b c53c 06c9 0dbe
00000390: b8d1 093d 56de fe3d def8 32be 48e3 b1bc
000003a0: bc51 323d c631 a03d fd94 c4bd 0ec8 c03d
000003b0: a0c1 c0bc 6292 d13d 7a3d 30be 8029 23bb
000003c0: fa15 bd3d 55d0 dbbd 3475 143d 484e acbd
000003d0: 7a28 a43d d455 dcbd a275 dc3d ec2c 89bd
000003e0: 3864 2abd d0db 3bbd 11d4 10be 37b6 0a3e
000003f0: 506d 23bd eb9a 053e b9c7 133e 1a87 7cbd

actor.bilin.bias f4 [16]
-0.04654522 -0.09173381 0.046959627 0.009693955 0.2514975 -0.13386956 0.13511457 0.08826794
0.08867921 0.17621885 0.021961277 0.15779272 -0.051519338 -0.1768473 -0.049882606 0.0651137
00000000: 33a6 3ebd f0de bbbd bd58 403d 65d3 1e3c
00000010: 48c4 803e 1a15 09be 795b 0a3e d2c5 b43d
00000020: 729d b53d b772 343e 23e8 b33c 6a94 213e
00000030: f105 53bd 7517 35be b451 4cbd 555a 853d

critic.conv1.bias f4 [21]
-0.17096375 0.0 0.3701426 0.0 -0.2893949 0.28117964 -0.30327487 0.0
-0.06453658 0.29101032 0.0 0.21666072 -0.19906777 -0.23005067 0.2037031 0.22825153
-0.24365945 0.37170973 -0.23790613 -0.3665483 -0.30853453
00000000: 1f11 2fbe 0000 0000 5583 bd3e 0000 0000
00000010: 912b 94be c7f6 8f3e d846 9bbe 0000 0000
00000020: c12b 84bd 4eff 943e 0000 0000 4fdc 5d3e
00000030: 6cd8 4bbe 6792 6bbe 8c97 503e c5ba 693e
00000040: dd81 79be bd50 be3e aa9d 73be 38ac bbbe
00000050: 3df8 9dbe

critic.conv1.lin.weight f4 [21, 21]
0.3315045 0.37039208 0.3248327 -0.081122145 0.21906543 0.12919237 0.08077275 0.4167462
-0.0012007236 0.42455688 0.34836268 -0.359971 -0.17716433 0.11327995 -0.35699734 -0.25914213
-0.17101923 0.24421443 0.26893353 -0.09413762 0.15861587 0.23541436 -0.028929502 -0.1443693
0.043252945 -0.33176005 -0.30283397 0.0024180114 0.1397309 0.23893747 -0.30707154 0.048336416
-0.17329623 -0.049754947 -0.23899397 -0.33901843 0.25326607 -0.14696571 0.22390774 -0.2821392
-0.031137556 0.24073038 -0.0047901114 0.48391286 -0.09151677 0.42494577 -0.018934958 0.22009373
-0.16992413 0.23701355 -0.3478031 0.16436034 -0.31414238 0.20106149 0.39601412 0.22451243
0.14923704 -0.27750126 -0.16147234 -0.25181147 0.24163182 0.003822717 -0.2461929 0.28819278
-0.041739255 -0.24998276 -0.17121261 -0.08822268 -0.032485902 0.05778575 0.32347527 -0.12006694
-0.037635505 0.08209449 0.054925382 -0.2643883 -0.2429611 -0.28365222 0.2418361 -0.22578923
-0.08845243 -0.23419893 -0.3578947 0.35809383 -0.20005304 -0.24961965 -0.068985544 -0.27995378
0.31763023 -0.23000953 0.0048903166 0.29720625 -0.27733016 -0.16318695 -0.36741948 -0.19862068
0.294275 -0.34164098 0.049212668 0.1475975 0.3264228 0.31557843 0.19797033 -0.20288178
-0.048415013 0.09148772 -0.07494785 0.2086473 0.16912019 -0.014920472 -0.17896824 -0.17363061
-0.0025168906 -0.11056027 -0.1489858 -0.36422876 0.12404703 -0.26585782 -0.16177924 -0.01769886
0.3413215 0.10517584 0.08953073 -0.18978077 0.26847863 0.03931128 -0.18760796 0.16044903
-0.31195104 -0.41830537 0.26283622 0.16467045 0.35749072 0.30487037 0.37345788 -0.029974075
-0.34367344 0.31797373 0.04769732 -0.3582073 -0.1543714 -0.35480776 0.18178639 0.39529842
0.14340174 0.29248396 -0.099593565 0.17825505 -0.10265809 0.26159367 0.1622133 -0.33555287
0.14395812 -0.34618464 0.14935294 -0.07142204 -0.31209826 -0.0039384067 -0.18888171 -0.3591199
0.05122578 0.12500367 -0.11517647 -0.24884634 -0.36480656 0.26450065 -0.25754434 0.09764072
-0.08296247 0.1894791 0.27481905 0.29773968 -0.15450068 -0.017012669 -0.036936868 -0.3132828
0.26125196 -0.097576566 -0.23218577 0.29230288 -0.19550245 0.11477139 0.33693767 -0.2480632
-0.23604973 -0.21447521 0.16096677 0.31294826 0.23568392 0.13502595 0.46822006 -0.18056056
-0.006500781 0.27896237 0.07445589 -0.16857728 0.10125786 0.27066997 0.22575454 0.18615146
-0.10321331 -0.3774563 -0.000790808 -0.17376187 0.013638047 0.15359542 -0.017198062 0.08382998
0.014539151 0.032556593 0.08935684 -0.14869662 0.29954723 -0.1989786 0.130671 -0.039366007
0.206301 -0.115760624 -0.33273816 -0.35508072 -0.08912656 0.08450106 -0.20965388 -0.23397036
-0.24546553 -0.22423221 0.31277344 -0.36350602 0.095553964 -0.2783775 0.1355994 -0.26946324
0.2740011 0.17724793 0.3893686 0.3646975 -0.117679864 0.28378594 0.07140534 0.21986881
0.027470075 0.076200455 -0.06401853 -0.20928794 0.057266362 0.31527585 -0.029523214 -0.06307481
0.110239014 0.066880345 -0.18409422 0.28777012 0.20384954 -0.18639986 -0.22654738 0.21605353
00000000: f5ba a93e 08a4 bd3e 7950 a63e 5e23 a6bd
00000010: b052 603e 014b 043e 2f6c a53d c25f d53e
00000020: 9961 9dba 855f d93e 985c b23e 1e4e b8be
00000030: 916a 35be 52ff e73d 5bc8 b6be 47ae 84be
00000040: aa1f 2fbe 5913 7a3e a8b1 893e 39cb c0bd
00000050: 336c 223e 7610 713e 90fd ecbc 8cd5 13be
00000060: 002a 313d 74dc a9be 0e0d 9bbe 8077 1e3b
00000070: 9e15 0f3e 06ac 743e 7b38 9dbe 68fc 453d
00000080: 9174 31be d8cb 4bbd d6ba 74be d393 adbe
00000090: 17ac 813e 2e7e 16be 1248 653e 8d74 90be
000000a0: 3014 ffbc 0682 763e 5ef6 9cbb 6dc3 f73e
000000b0: 256d bbbd 7e92 d93e 7c1d 9bbc 4060 613e
000000c0: 9700 2ebe aeb3 723e 3f13 b2be 144e 283e
000000d0: 45d7 a0be 10e3 4d3e 5dc2 ca3e 96e6 653e
000000e0: 98d1 183e a514 8ebe 0159 25be 6fed 80be
000000f0: 556e 773e 8c86 7a3b fe19 7cbe 018e 933e
00000100: c8f6 2abd 7bfb 7fbe 5c52 2fbe 18ae b4bd
00000110: f00f 05bd c0b0 6c3d 8d9e a53e a8e5 f5bd
00000120: b027 1abd 2821 a83d 70f9 603d e75d 87be
00000130: cbca 78be dd3a 91be e2a3 773e 4b35 67be
00000140: 8c26 b5bd d8d1 6fbe f93d b7be 1358 b73e
00000150: b4da 4cbe 4b9c 7fbe 4b48 8dbd 1a56 8fbe
00000160: 6ea0 a23e 9e87 6bbe f33e a03b 6b2b 983e
00000170: 38fe 8dbe 7b1a 27be 681e bcbe 3863 4bbe
00000180: 36ab 963e 91eb aebe 3993 493d cd23 173e
00000190: e420 a73e 7f93 a13e bcb8 4a3e 3ec0 4fbe
000001a0: d24e 46bd ea5d bb3d 427e 99bd a3a7 553e
000001b0: d82d 2d3e ff74 74bc 7343 37be 39cc 31be
000001c0: 6bf2 24bb 6c6d e2bd bc8f 18be 317c babe
000001d0: 5f0c fe3d 841e 88be 75a9 25be 33fd 90bc
000001e0: b1c1 ae3e 6e66 d73d e35b b73d e455 42be
000001f0: 0876 893e dd04 213d 4d1c 40be c04c 243e
00000200: 0cb8 9fbe 1f2c d6be 7892 863e 5f9f 283e
00000210: 0609 b73e f817 9c3e df35 bf3e 318c f5bc
00000220: f7f5 afbe 74cd a23e 445e 433d f266 b7be
00000230: 8913 1ebe 5da9 b5be 3626 3a3e 8e64 ca3e
00000240: e8d7 123e 75c0 953e b6f7 cbbd 7e88 363e
00000250: 683e d2bd 9bef 853e 3e1b 263e 96cd abbe
00000260: c269 133e 1d3f b1be faef 183e b845 92bd
00000270: 58cb 9fbe c00d 81bb 356a 41be 90de b7be
00000280: 20d2 513d f600 003e a4e1 ebbd 93d1 7ebe
00000290: edc7 babe a16c 873e dadc 83be dcf7 c73d
000002a0: 3ae8 a9bd cf06 423e 15b5 8c3e 5671 983e
000002b0: 6d35 1ebe 275e 8bbc 1d4b 17bd 9a66 a0be
000002c0: d1c2 853e 39d6 c7bd 1bc2 6dbe b9a8 953e
000002d0: cb31 48be 430d eb3d 1883 ac3e 4804 7ebe
000002e0: 05b7 71be 649f 5bbe 79d4 243e c13a a03e
000002f0: 2057 713e 3e44 0a3e 8aba ef3e dee4 38be
00000300: 8104 d5bb 28d4 8e3e 547c 983d 869f 2cbe
00000310: 4860 cf3d 4195 8a3e 332c 673e 7d9e 3e3e
00000320: 8061 d3bd f441 c1be 3a4e 4fba a2ee 31be
00000330: 1d72 5f3c 1e48 1d3e f3e2 8cbc 0daf ab3d
00000340: 9f35 6e3c 105a 053d b800 b73d ed43 18be
00000350: 415e 993e 0cc1 4bbe 9ece 053e 403e 21bd
00000360: 9240 533e e813 edbd a85c aabe 24cd b5be
00000370: fc87 b6bd e40e ad3d 82af 56be ed95 6fbe
00000380: 515b 7bbe 219d 65be d723 a03e 761d babe
00000390: ccb1 c33d 7f87 8ebe 92da 0a3e 16f7 89be
000003a0: df49 8c3e 7b80 353e 525b c73e a1b9 ba3e
000003b0: 2402 f1bd 644c 913e f73c 923d 4a25 613e
000003c0: ec08 e13c fc0e 9c3d 261c 83bd 944f 56be
000003d0: 2290 6a3d d66b a13e abda f1bc 5e2d 81bd
000003e0: fec4 e13d 90f8 883d 3283 3cbe 9b56 933e
000003f0: efbd 503e 9bdf 3ebe 09fc 67be 233d 5d3e
