saved_files/ckpt/nyc4/a2c_gnn_test_vdfp.pth (torch, 79821 bytes, 48 tensors)

actor.gamma_rate f4 [16, 16]
0	0x44f9feb7	1999.9598
1	0x44f9ff3a	1999.9758
2	0x44fa015c	2000.0425
3	0x44fa0001	2000.0001
4	0x44fa00b7	2000.0223
5	0x44f9ff1a	1999.9719
6	0x44fa0192	2000.0491
7	0x44fa00bd	2000.0231
8	0x44f9ff5a	1999.9797
9	0x44f9ff4c	1999.978
10	0x44f9ffb0	1999.9902
11	0x44fa0052	2000.01
12	0x44f9fed1	1999.963
13	0x44f9fd3f	1999.914
14	0x44fa0007	2000.0009
15	0x44f9ff4b	1999.9779
16	0x44fa0106	2000.032
17	0x44fa0136	2000.0378
18	0x44fa00a8	2000.0205
19	0x44fa0227	2000.0673
20	0x44fa00a7	2000.0204
21	0x44fa011d	2000.0348
22	0x44f9fefb	1999.9681
23	0x44f9fdc9	1999.9308
24	0x44f9ff6d	1999.982
25	0x44f9ffa5	1999.9889
26	0x44fa004f	2000.0096
27	0x44fa00ca	2000.0247
28	0x44fa02b4	2000.0845
29	0x44fa00a8	2000.0205
30	0x44fa018a	2000.0481
31	0x44fa0117	2000.034
32	0x44f9fedf	1999.9647
33	0x44fa013a	2000.0383
34	0x44fa0097	2000.0184
35	0x44fa0096	2000.0183
36	0x44f9ffa8	1999.9893
37	0x44f9ff4e	1999.9783
38	0x44fa0107	2000.0321
39	0x44fa01b2	2000.053
40	0x44fa0130	2000.0371
41	0x44fa0060	2000.0117
42	0x44fa0094	2000.0181
43	0x44f9ffa0	1999.9883
44	0x44fa00f4	2000.0298
45	0x44f9ff8e	1999.9861
46	0x44f9ff9f	1999.9882
47	0x44fa01d2	2000.0569
48	0x44f9ff7e	1999.9841
49	0x44fa0042	2000.008
50	0x44fa005c	2000.0112
51	0x44f9ff18	1999.9717
52	0x44f9ff7d	1999.984
53	0x44fa007e	2000.0154
54	0x44fa014b	2000.0404
55	0x44fa0085	2000.0162
56	0x44f9fe44	1999.9458
57	0x44f9fd79	1999.921
58	0x44f9ff36	1999.9753
59	0x44f9ff34	1999.9751
60	0x44f9ff0f	1999.9706
61	0x44f9fee8	1999.9658
62	0x44fa0108	2000.0322
63	0x44fa0195	2000.0494
64	0x44f9ff45	1999.9772
65	0x44f9ff76	1999.9832
66	0x44fa0048	2000.0088
67	0x44fa00a8	2000.0205
68	0x44f9fe73	1999.9515
69	0x44fa00f3	2000.0297
70	0x44f9fedd	1999.9645
71	0x44fa00d3	2000.0258
72	0x44fa01b4	2000.0532
73	0x44fa00ee	2000.029
74	0x44f9ffaf	1999.9901
75	0x44f9ffe6	1999.9968
76	0x44fa018d	2000.0485
77	0x44f9fe8c	1999.9546
78	0x44f9ff2f	1999.9745
79	0x44fa00bc	2000.023
80	0x44fa0086	2000.0164
81	0x44fa0166	2000.0437
82	0x44fa01e1	2000.0587
83	0x44f9fddb	1999.933
84	0x44fa0101	2000.0314
85	0x44f9fdab	1999.9271
86	0x44fa00b4	2000.022
87	0x44f9ffa0	1999.9883
88	0x44f9ff75	1999.983
89	0x44fa0155	2000.0416
90	0x44f9ff57	1999.9794
91	0x44f9fdf3	1999.9359
92	0x44fa00a3	2000.0199
93	0x44f9ffdf	1999.996
94	0x44f9fd98	1999.9248
95	0x44f9ff14	1999.9712
96	0x44fa0034	2000.0063
97	0x44fa012b	2000.0365
98	0x44f9feaa	1999.9583
99	0x44fa00a7	2000.0204
100	0x44f9fead	1999.9586
101	0x44f9fe50	1999.9473
102	0x44f9fffa	1999.9993
103	0x44fa0066	2000.0125
104	0x44f9ff10	1999.9707
105	0x44f9ff7e	1999.9841
106	0x44fa02b8	2000.085
107	0x44f9ff40	1999.9766
108	0x44f9fefb	1999.9681
109	0x44f9ff87	1999.9852
110	0x44fa00c7	2000.0243
111	0x44fa0218	2000.0654
112	0x44fa019a	2000.05
113	0x44f9fe1a	1999.9407
114	0x44f9fffa	1999.9993
115	0x44f9ff1b	1999.972
116	0x44fa00f8	2000.0303
117	0x44fa007b	2000.015
118	0x44f9feab	1999.9584
119	0x44f9ff7f	1999.9843
120	0x44f9ffb9	1999.9913
121	0x44fa00d0	2000.0254
122	0x44f9ff09	1999.9698
123	0x44fa0193	2000.0492
124	0x44fa021a	2000.0657
125	0x44f9ff9b	1999.9877
126	0x44f9fe7a	1999.9524
127	0x44f9ff60	1999.9805
128	0x44fa0086	2000.0164
129	0x44fa003a	2000.0071
130	0x44f9ff0b	1999.9701
131	0x44fa00ee	2000.029
132	0x44fa0155	2000.0416
133	0x44fa00b7	2000.0223
134	0x44fa0130	2000.0371
135	0x44fa028b	2000.0795
136	0x44f9ff43	1999.9769
137	0x44f9fea0	1999.957
138	0x44fa0046	2000.0085
139	0x44fa01bf	2000.0546
140	0x44fa0211	2000.0646
141	0x44f9feb6	1999.9597
142	0x44f9ffad	1999.9899
143	0x44f9ff15	1999.9713
144	0x44f9ff55	1999.9791
145	0x44f9fe44	1999.9458
146	0x44fa0191	2000.049
147	0x44fa004b	2000.0092
148	0x44fa0143	2000.0394
149	0x44fa0046	2000.0085
150	0x44f9ff44	1999.977
151	0x44fa012a	2000.0364
152	0x44f9fdd1	1999.9318
153	0x44f9ff5c	1999.98
154	0x44f9ff46	1999.9773
155	0x44f9ffbc	1999.9917
156	0x44fa020f	2000.0643
157	0x44fa0066	2000.0125
158	0x44fa004e	2000.0095
159	0x44fa020c	2000.064
160	0x44f9fed0	1999.9629
161	0x44f9ffcf	1999.994
162	0x44f9ffe0	1999.9961
163	0x44f9ffe6	1999.9968
164	0x44f9fe9b	1999.9564
165	0x44f9ff44	1999.977
166	0x44fa00b7	2000.0223
167	0x44fa0133	2000.0375
168	0x44f9ff92	1999.9866
169	0x44fa0089	2000.0167
170	0x44fa0056	2000.0105
171	0x44fa00ab	2000.0209
172	0x44fa0028	2000.0049
173	0x44fa0081	2000.0157
174	0x44f9ff29	1999.9738
175	0x44f9ffba	1999.9915
176	0x44f9fff2	1999.9983
177	0x44f9fe6d	1999.9508
178	0x44f9ffb5	1999.9908
179	0x44fa02b7	2000.0848
180	0x44fa0047	2000.0087
181	0x44fa019b	2000.0502
182	0x44fa00e4	2000.0278
183	0x44f9fedb	1999.9642
184	0x44f9fef7	1999.9677
185	0x44fa0087	2000.0165
186	0x44fa00f5	2000.0299
187	0x44fa0127	2000.036
188	0x44fa0166	2000.0437
189	0x44f9feb7	1999.9598
190	0x44f9fe2e	1999.9431
191	0x44f9feab	1999.9584
192	0x44f9ffdc	1999.9956
193	0x44fa00f9	2000.0304
194	0x44fa00c2	2000.0237
195	0x44f9fe70	1999.9512
196	0x44fa009d	2000.0192
197	0x44f9fdeb	1999.9349
198	0x44f9ffcf	1999.994
199	0x44f9fec3	1999.9613
200	0x44fa011d	2000.0348
201	0x44f9fef2	1999.967
202	0x44fa0031	2000.006
203	0x44fa0121	2000.0353
204	0x44fa0003	2000.0004
205	0x44f9ff57	1999.9794
206	0x44fa0133	2000.0375
207	0x44f9ff48	1999.9775
208	0x44fa0111	2000.0333
209	0x44f9ff0c	1999.9702
210	0x44fa0010	2000.002
211	0x44fa01d9	2000.0577
212	0x44fa0052	2000.01
213	0x44fa002d	2000.0055
214	0x44fa020b	2000.0638
215	0x44f9ff05	1999.9694
216	0x44fa00af	2000.0214
217	0x44f9ff76	1999.9832
218	0x44fa0044	2000.0083
219	0x44f9feda	1999.9641
220	0x44fa0020	2000.0039
221	0x44fa016a	2000.0442
222	0x44fa0041	2000.0079
223	0x44fa0158	2000.042
224	0x44fa0111	2000.0333
225	0x44f9ff3e	1999.9763
226	0x44f9fe6a	1999.9504
227	0x44f9ff20	1999.9727
228	0x44f9ff22	1999.9729
229	0x44f9ff3a	1999.9758
230	0x44f9fe70	1999.9512
231	0x44f9fe38	1999.9443
232	0x44fa009b	2000.0189
233	0x44fa0115	2000.0338
234	0x44fa01f5	2000.0612
235	0x44fa0064	2000.0122
236	0x44f9ffed	1999.9977
237	0x44f9ff70	1999.9824
238	0x44f9ff5a	1999.9797
239	0x44fa00b7	2000.0223
240	0x44fa0124	2000.0356
241	0x44f9fec8	1999.9619
242	0x44f9ff1b	1999.972
243	0x44fa00ac	2000.021
244	0x44fa0032	2000.0061
245	0x44fa0119	2000.0343
246	0x44f9ff2d	1999.9742
247	0x44fa001e	2000.0037
248	0x44f9ffcc	1999.9937
249	0x44f9ffea	1999.9973
250	0x44f9ff55	1999.9791
251	0x44fa004c	2000.0093
252	0x44fa00fb	2000.0306
253	0x44fa034f	2000.1034
254	0x44f9ff61	1999.9806
255	0x44f9fe62	1999.9495

actor.prices f4 [16, 16]
0	0x3f7f95db	0.99838036
1	0x3f881e78	1.0634298
2	0x3f89c31b	1.0762666
3	0x3f82067c	1.0158229
4	0x3f6ac6e5	0.9170974
5	0x3f8bce91	1.0922414
6	0x3f81ce5f	1.0141104
7	0x3f873247	1.0562218
8	0x3f7b7d17	0.98237747
9	0x3f829bde	1.0203817
10	0x3f785594	0.9700558
11	0x3f818713	1.0119346
12	0x3f7a72d6	0.97831476
13	0x3f73faa2	0.9530431
14	0x3f7fe974	0.99965596
15	0x3f8be083	1.092789
16	0x3f8a80c1	1.0820543
17	0x3f82bb17	1.0213345
18	0x3f6ff6c6	0.9373592
19	0x3f835075	1.0258929
20	0x3f6dd1ce	0.9289826
21	0x3f75e478	0.9605174
22	0x3f74ec3d	0.9567297
23	0x3f7f0039	0.99609715
24	0x3f82385b	1.0173448
25	0x3f78cb96	0.9718565
26	0x3f757c7d	0.9589308
27	0x3f8668a9	1.050069
28	0x3f4f32e8	0.8093705
29	0x3f650ef4	0.8947594
30	0x3f5d95d4	0.86556745
31	0x3f77666a	0.96640646
32	0x3f723a9b	0.94620675
33	0x3f8b2b2b	1.0872549
34	0x3f83784c	1.0271087
35	0x3f67b2ed	0.90507394
36	0x3f704cc7	0.9386715
37	0x3f85a5c4	1.0441213
38	0x3f8a7cb5	1.0819308
39	0x3f784b2a	0.9698969
40	0x3f8305c8	1.0236139
41	0x3f80e572	1.0070021
42	0x3f86a65b	1.0519518
43	0x3f85a973	1.0442337
44	0x3f84708e	1.0346849
45	0x3f8428ad	1.0324913
46	0x3f89735c	1.073833
47	0x3f7252f9	0.94657856
48	0x3f86faa8	1.0545244
49	0x3f88ba4f	1.0681857
50	0x3f7439ee	0.95400894
51	0x3f6d302b	0.92651623
52	0x3f5a8608	0.85360765
53	0x3f8118e5	1.0085722
54	0x3f664dfe	0.89962757
55	0x3f7df531	0.9920226
56	0x3f894e7b	1.0727075
57	0x3f7c7e90	0.9863062
58	0x3f70bcf4	0.9403832
59	0x3f71827d	0.94339734
60	0x3f82f8c4	1.0232167
61	0x3f83827c	1.0274196
62	0x3f8bec26	1.0931442
63	0x3f7d4409	0.9893194
64	0x3f806bc6	1.003289
65	0x3f812d57	1.0091962
66	0x3f816ef1	1.0111982
67	0x3f82dbc4	1.0223317
68	0x3f82f243	1.0230182
69	0x3f85c3a7	1.0450333
70	0x3f6c9eea	0.92429984
71	0x3f7c6dde	0.98605144
72	0x3f87e6b4	1.061728
73	0x3f82832a	1.0196278
74	0x3f81e18b	1.0146955
75	0x3f842d43	1.0326313
76	0x3f80b8e4	1.0056424
77	0x3f76a984	0.9635241
78	0x3f759910	0.9593668
79	0x3f84bf11	1.0370809
80	0x3f7fe934	0.99965215
81	0x3f94448c	1.1583419
82	0x3f7f46ba	0.99717295
83	0x3f723674	0.9461434
84	0x3f765e63	0.9623777
85	0x3f888096	1.0664241
86	0x3f8487e7	1.0353974
87	0x3f830c3a	1.0238106
88	0x3f7731f0	0.96560574
89	0x3f71db94	0.94475675
90	0x3f86353d	1.0484997
91	0x3f7b3718	0.9813094
92	0x3f828dff	1.0199584
93	0x3f7c3e42	0.985325
94	0x3f8b0572	1.0861037
95	0x3f765a16	0.9623121
96	0x3f7d3750	0.98912525
97	0x3f6ab2f2	0.916793
98	0x3f6b308c	0.9187095
99	0x3f68be02	0.9091493
100	0x3f7944b8	0.9737048
101	0x3f81f3b6	1.01525
102	0x3f81c982	1.013962
103	0x3f80f35b	1.0074266
104	0x3f87ec33	1.0618957
105	0x3f882761	1.0637017
106	0x3f7a7924	0.97841096
107	0x3f7b194f	0.9808549
108	0x3f777c6f	0.96674246
109	0x3f71a367	0.9438996
110	0x3f77402b	0.9658229
111	0x3f8abbdb	1.0838579
112	0x3f833113	1.0249351
113	0x3f875371	1.0572339
114	0x3f7b2cba	0.9811512
115	0x3f61526b	0.88016385
116	0x3f71b5f5	0.9441827
117	0x3f8314dc	1.0240741
118	0x3f795605	0.9739688
119	0x3f80c97d	1.0061489
120	0x3f861828	1.0476122
121	0x3f88382b	1.0642141
122	0x3f770e40	0.9650612
123	0x3f73a7f5	0.9517816
124	0x3f7d1897	0.98865646
125	0x3f6f02a1	0.93363386
126	0x3f8bce08	1.0922251
127	0x3f5f6ad8	0.87272406
128	0x3f8204bc	1.0157695
129	0x3f735738	0.9505496
130	0x3f853a47	1.040841
131	0x3f798c74	0.9747994
132	0x3f722c12	0.94598496
133	0x3f861120	1.0473976
134	0x3f81a407	1.0128182
135	0x3f849b7a	1.0359948
136	0x3f74f8b6	0.95692
137	0x3f7f1f27	0.9965691
138	0x3f884c9a	1.0648377
139	0x3f82abb6	1.0208652
140	0x3f7dfb9f	0.9921207
141	0x3f7c4f73	0.9855873
142	0x3f8ce03a	1.1005929
143	0x3f8766b2	1.0578215
144	0x3f856ece	1.042444
145	0x3f803a4f	1.0017794
146	0x3f71ffcb	0.94530934
147	0x3f6e8708	0.9317479
148	0x3f8e0a5e	1.1096914
149	0x3f66a103	0.90089434
150	0x3f8945b2	1.0724394
151	0x3f84a68e	1.0363328
152	0x3f83963d	1.0280224
153	0x3f868098	1.0507994
154	0x3f830998	1.0237303
155	0x3f87c58f	1.0607165
156	0x3f8227f1	1.0168439
157	0x3f81e36d	1.014753
158	0x3f82bd69	1.0214053
159	0x3f734727	0.95030445
160	0x3f8479e0	1.0349693
161	0x3f80aba0	1.0052376
162	0x3f6eebed	0.93328744
163	0x3f89e309	1.0772411
164	0x3f869517	1.0514249
165	0x3f7fdf18	0.9994979
166	0x3f7d7004	0.9899905
167	0x3f855e5e	1.0419424
168	0x3f802a3c	1.0012889
169	0x3f86d6b1	1.0534269
170	0x3f895633	1.0729431
171	0x3f6f60f6	0.93507326
172	0x3f863dda	1.0487626
173	0x3f7fe92b	0.9996516
174	0x3f8470a2	1.0346873
175	0x3f637283	0.88846606
176	0x3f83aff3	1.028807
177	0x3f73d275	0.95243007
178	0x3f8a99b5	1.0828158
179	0x3f8ceeb1	1.1010343
180	0x3f6da0a0	0.9282322
181	0x3f84f4ef	1.0387248
182	0x3f7e85cf	0.99422926
183	0x3f7ba697	0.9830107
184	0x3f825b4b	1.018411
185	0x3f847dc5	1.0350882
186	0x3f8241be	1.0176313
187	0x3f7ba77b	0.9830243
188	0x3f8a12e1	1.0787011
189	0x3f5ae4d0	0.8550539
190	0x3f860b6d	1.0472237
191	0x3f8ab684	1.0836949
192	0x3f7c2551	0.9849444
193	0x3f702029	0.9379907
194	0x3f8465f1	1.034361
195	0x3f6bf402	0.921692
196	0x3f7a8f4e	0.97874916
197	0x3f840962	1.0315363
198	0x3f872106	1.0556953
199	0x3f6a67e5	0.9156478
200	0x3f700fca	0.9377409
201	0x3f71e124	0.9448416
202	0x3f6ddc44	0.92914224
203	0x3f7a6731	0.9781371
204	0x3f78b65e	0.9715327
205	0x3f6be15d	0.9214075
206	0x3f87c3ef	1.0606669
207	0x3f7c97f6	0.98669374
208	0x3f7ef12c	0.9958675
209	0x3f761773	0.9612953
210	0x3f732158	0.94972754
211	0x3f63b5a5	0.8894904
212	0x3f7ca4af	0.9868879
213	0x3f5a7f56	0.8535055
214	0x3f81c64b	1.0138639
215	0x3f8534a5	1.0406691
216	0x3f82c3ae	1.0215967
217	0x3f73cc94	0.95234036
218	0x3f7f84ef	0.99812216
219	0x3f75a0fe	0.9594878
220	0x3f81f3b9	1.0152503
221	0x3f857f18	1.0429411
222	0x3f6b48fc	0.9190824
223	0x3f80cea6	1.0063064
224	0x3f749248	0.9553571
225	0x3f7ba76a	0.9830233
226	0x3f889da1	1.0673105
227	0x3f6e57dc	0.9310281
228	0x3f8c1bc3	1.0945972
229	0x3f86fe87	1.0546426
230	0x3f8be375	1.0928789
231	0x3f655f2c	0.89598346
232	0x3f73f8a7	0.9530129
233	0x3f800829	1.000249
234	0x3f76103a	0.9611851
235	0x3f823ff0	1.0175762
236	0x3f720d7a	0.94551814
237	0x3f71cf68	0.944571
238	0x3f7e0d28	0.99238825
239	0x3f864a28	1.0491381
240	0x3f831595	1.0240961
241	0x3f77697b	0.96645325
242	0x3f879b48	1.0594263
243	0x3f819d8b	1.0126203
244	0x3f72edf5	0.94894344
245	0x3f8964bf	1.073387
246	0x3f7a5c8a	0.97797453
247	0x3f6af983	0.91786975
248	0x3f898a65	1.074536
249	0x3f6e1ba2	0.93010914
250	0x3f82446e	1.0177133
251	0x3f75cd60	0.960165
252	0x3f7d4e54	0.98947644
253	0x3f74ce7d	0.95627576
254	0x3f6cd75c	0.9251611
255	0x3f838a9a	1.0276673

actor.conv1.bias f4 [21]
0	0x3d095045	0.033523817
1	0xbd610ad9	-0.054941986
2	0xbcd4f0d1	-0.025993736
3	0xbd24b436	-0.040210925
4	0xbd3f15c1	-0.046651606
5	0xbd194243	-0.037416708
6	0x3dc87573	0.09788027
7	0x00000000	0.0
8	0xbd2995a7	-0.041402485
9	0xbda611db	-0.081088744
10	0xbd0b26b1	-0.033972446
11	0x00000000	0.0
12	0x3d379be9	0.044826422
13	0xbd0d5599	-0.03450546
14	0xbd953c87	-0.07286935
15	0xbd939ac3	-0.07207253
16	0xbd457f23	-0.04821695
17	0x3bec80f0	0.007217519
18	0xbbe7f7cc	-0.0070791002
19	0xbcedde48	-0.029036656
20	0xbcb69d58	-0.022291824

actor.conv1.lin.weight f4 [21, 21]
0	0xbecc4f22	-0.39904124
1	0x3c4b7c31	0.012419746
2	0xbe96d841	-0.29461864
3	0x3ea9c399	0.33157042
4	0xbda80b37	-0.08205264
5	0xbeabb125	-0.33533588
6	0xbea2f673	-0.3182865
7	0xbdd194e2	-0.10233475
8	0xbe21396c	-0.15744561
9	0xbc7ace46	-0.0153079685
10	0x3e5aff32	0.21386412
11	0xbe3d9e39	-0.18517388
12	0x3de9b8e7	0.114122204
13	0xbe290e46	-0.16509351
14	0xbc9a2dd1	-0.018820675
15	0x3e497d1a	0.19676629
16	0x3e6ba628	0.23012602
17	0xbcaed13a	-0.021340001
18	0xbeafb270	-0.34315825
19	0xbe780c3f	-0.24223422
20	0x3ddcadba	0.10775323
21	0xbe9d0908	-0.30670953
22	0x3e81111c	0.25208366
23	0xbe643caf	-0.22288774
24	0xbdcc4a3f	-0.09975099
25	0xbe8bc31a	-0.27297288
26	0x3e82f8b5	0.25580373
27	0xbdc1d905	-0.09465221
28	0xbe4eff2f	-0.20214532
29	0x3e3d83db	0.1850733
30	0xbdb55908	-0.08854872
31	0xbea1021d	-0.31446925
32	0x3e8cc0cc	0.27490842
33	0xbcca6e9f	-0.024710951
34	0x3eb5053f	0.35355565
35	0x3e10931f	0.14118622
36	0xbe859f87	-0.26098272
37	0xbde0a410	-0.109687924
38	0x3ead1eb6	0.33812493
39	0xbead7b92	-0.3388334
40	0xba896e71	-0.0010485185
41	0xbd80649d	-0.062691905
42	0xbdf64b85	-0.12026123
43	0x3dc55e73	0.096371554
44	0xbcd651fc	-0.02616214
45	0x3d22a754	0.039710358
46	0xbe6b0f58	-0.22955072
47	0x3ea79861	0.32733443
48	0x3e26e279	0.1629733
49	0xbeb1cd52	-0.3472696
50	0xbe7c53f4	-0.246414
51	0x3e47ae40	0.19500065
52	0x3de042d2	0.10950245
53	0xbdbd54be	-0.09244679
54	0x3e01c7a7	0.12673818
55	0x3d999f4d	0.07501087
56	0x3c81b49d	0.015833193
57	0xbe944615	-0.28959718
58	0xbe4720df	-0.19446133
59	0xbb06be4e	-0.0020560208
60	0xbeb94baf	-0.36190554
61	0xbe3d5de1	-0.18492843
62	0x3e0c8574	0.13722783
63	0xbdbafd68	-0.09130365
64	0x3e395fa1	0.18102886
65	0x3e7daf30	0.2477386
66	0x3e6ebf78	0.23315227
67	0x3e475a71	0.19468094
68	0xbe110000	-0.14160156
69	0x3ecbc1c3	0.39796266
70	0x3e5b139c	0.21394199
71	0x3de2a0c1	0.110658176
72	0xbde1ac84	-0.11019233
73	0x3ccf282d	0.025287712
74	0xbddc4d56	-0.10756938
75	0x3dae38e5	0.085069455
76	0x3ea99325	0.33120075
77	0xbd5f9724	-0.0545875
78	0x3ed397f6	0.41326874
79	0xbe2d49b9	-0.16922654
80	0x3e8501cd	0.25977936
81	0x3de36ce4	0.111047536
82	0xbcc6158e	-0.0241802
83	0x3e3ad833	0.18246536
84	0x3ee91dfb	0.45530686
85	0xbe63d79a	-0.22250214
86	0xbe71fd71	-0.23631836
87	0xbe1ce7db	-0.15322821
88	0xbe7b7716	-0.24557146
89	0x3ee032b7	0.43788692
90	0x3eb2d26f	0.34926173
91	0x3c3b2334	0.011421967
92	0x3c15df75	0.009147515
93	0xbe05d4d1	-0.13069464
94	0xbe11c9eb	-0.14237182
95	0x3eac1f32	0.3361755
96	0xbe875487	-0.26431677
97	0x3e26ace2	0.16276887
98	0xbe73a264	-0.23792416
99	0x3ea9d3eb	0.33169493
100	0x3e014b90	0.12626481
101	0xbddf6e65	-0.10909728
102	0x3e78a290	0.24280763
103	0x3eb86baf	0.36019656
104	0x3eb7fded	0.35935917
105	0xbe718582	-0.23586085
106	0x3e43f4bc	0.19136328
107	0x3ed59ebd	0.4172267
108	0x3ea03ab0	0.31294775
109	0x3edc7828	0.43060422
110	0x3de6d397	0.11270826
111	0x3dc52e03	0.09627917
112	0x3e293cff	0.16527174
113	0x3ebc39e0	0.36762905
114	0x3e94ee48	0.29088044
115	0x3e454529	0.19264664
116	0xbe865621	-0.26237586
117	0xbe8c991b	-0.2746056
118	0x3e148701	0.14504625
119	0x3e8c5ed5	0.274161
120	0x3e8372eb	0.25673613
121	0xbe40f976	-0.18845162
122	0x3e450ce3	0.19243197
123	0x3de6ea13	0.11275115
124	0x3e7c17a9	0.246184
125	0x3e76d27a	0.24103728
126	0xbe57022d	-0.20996924
127	0xbe91701d	-0.28405848
128	0xbe0b15a7	-0.13582478
129	0xbe80087b	-0.2500647
130	0x3e689371	0.22712494
131	0x3eb31cc0	0.34982872
132	0x3d7589a2	0.05994571
133	0xbeac9fd3	-0.33715686
134	0xbea554ce	-0.32291263
135	0xbe8e2dcd	-0.27769318
136	0xbe8bae98	-0.27281642
137	0xbdc7d601	-0.09757615
138	0x3ecd2f7e	0.40075296
139	0x3ebf300b	0.3734134
140	0xbe7c133b	-0.24616711
141	0xbefbaed2	-0.49156815
142	0xbd4e3b5c	-0.05034958
143	0x3d4e0bff	0.05030441
144	0xbe997d6c	-0.29978502
145	0x3e5340d4	0.20630199
146	0xbe73dfe9	-0.23815884
147	0xbc968490	-0.018373758
148	0xbb73e000	-0.0037212372
149	0xbe6fee03	-0.23430638
150	0xbe925ecd	-0.28587952
151	0x3c034200	0.008011341
152	0xbe901bb0	-0.28146124
153	0xbe92719f	-0.2860231
154	0x3e90543d	0.2818927
155	0x3d8aacc4	0.06771234
156	0xbebbfb71	-0.36715272
157	0xbe7f6c3e	-0.24943635
158	0x3de15acc	0.11003646
159	0xbe48e358	-0.19617975
160	0xbe822279	-0.25416926
161	0x3eafd50d	0.34342232
162	0xbe48b189	-0.19598974
163	0x3d84cb98	0.06484145
164	0xbe41b75f	-0.18917607
165	0x3eb689b1	0.35651925
166	0x3d020c10	0.031749785
167	0xbea717fe	-0.32635492
168	0xbeb2c7ce	-0.34918064
169	0x3e5d4fdb	0.21612494
170	0x3e27a92e	0.1637313
171	0xbea56758	-0.32305408
172	0xbeaead30	-0.34116507
173	0xbe30db54	-0.17271167
174	0xbd4830d0	-0.048874676
175	0x3e64652c	0.22304219
176	0x3e300624	0.17189842
177	0xbea59df5	-0.32347074
178	0xbe98f216	-0.29872197
179	0xbe097b1b	-0.13425867
180	0x3ea8b85c	0.32953155
181	0xbd046c42	-0.032329805
182	0xbeaf2f63	-0.3421584
183	0x3e79131e	0.24323699
184	0x3bb77c72	0.005599552
185	0x3d12c884	0.035835758
186	0xbe49e574	-0.19716436
187	0x3df63efc	0.12023732
188	0x3ed389ad	0.41315976
189	0xbd3839cf	-0.044977006
190	0x3e25426c	0.16138619
191	0xbea56c40	-0.3230915
192	0x3b924533	0.0044638156
193	0xbebeda52	-0.3727594
194	0x3e4a015e	0.19727084
195	0xbdebfbb4	-0.11522618
196	0x3e3d98d0	0.18515325
197	0x3e4fafa7	0.2028185
198	0x3da1f1cd	0.07907448
199	0xbea22127	-0.31665918
200	0x3e10226c	0.14075631
201	0x3e70fab9	0.23533143
202	0xbeaf7e8c	-0.34276235
203	0xbec69f88	-0.38793588
204	0x3e01f32a	0.12690416
205	0x3e2c444f	0.16822933
206	0xbd702b99	-0.058635328
207	0xbeabb8c2	-0.33539397
208	0xbea06986	-0.31330508
209	0xbe7b7051	-0.24554564
210	0x3c0acdf3	0.008471954
211	0x3e84d1b3	0.25941238
212	0xbe2f6228	-0.17127287
213	0x3e50d61d	0.20394178
214	0x3d2785d0	0.040899098
215	0xbe9cddf8	-0.306381
216	0xbe89140b	-0.26773104
217	0xbe2be199	-0.16785277
218	0xbc401dab	-0.011725823
219	0xbd8f753b	-0.07004782
220	0x3a470c32	0.0007593065
221	0x3dd9028a	0.105961874
222	0xbe4e9099	-0.20172347
223	0xbe8b4b2a	-0.27205783
224	0x3def73b1	0.11691988
225	0xbece9802	-0.40350348
226	0x3dc11928	0.09428626
227	0xbe9db149	-0.3079932
228	0x3e21fcda	0.15819111
229	0xbe2642df	-0.16236447
230	0xbd4761e7	-0.04867735
231	0x3d14c7e8	0.036323458
232	0xbec0be62	-0.3764525
233	0xbe748ff9	-0.23883046
234	0xbdfa89c8	-0.12233311
235	0x3dd8391c	0.10557768
236	0x3d9747c0	0.07386732
237	0x3cf7ba90	0.030240327
238	0x3eb8e437	0.36111614
239	0xbdd627a8	-0.104567826
240	0xbe52d6ca	-0.20589748
241	0xbca559c0	-0.020184398
242	0xbeb24022	-0.34814554
243	0xbebfa49d	-0.37430277
244	0xbe411f71	-0.1885965
245	0x3eaf924b	0.342913
246	0x3eaa263f	0.33232304
247	0xbe02b28c	-0.12763423
248	0xbeb3c82f	-0.35113665
249	0xbdf0e40c	-0.117622465
250	0xbe680566	-0.2265831
251	0xbe73336b	-0.23750083
252	0xbe61a451	-0.22035338
253	0xbeaa4275	-0.33253828
254	0x3e20a489	0.15687765
255	0x3e6d8d12	0.23198345

actor.lin1.weight f4 [32, 21]
0	0x3e72bf2e	0.23705742
1	0x3e861ab3	0.26192245
2	0x3deee324	0.116644174
3	0x3e6a644e	0.22889826
4	0x3e394831	0.18093945
5	0x3d11383c	0.03545402
6	0x3eb250a8	0.3482716
7	0x3c2828c1	0.010263623
8	0x3e30b025	0.17254694
9	0x3de14efa	0.11001392
10	0x3ea5d70c	0.3239063
11	0x3d38da31	0.04512996
12	0x3dbe6579	0.09296698
13	0x3ea64965	0.3247787
14	0x3e0311a2	0.12799695
15	0xbdcf1614	-0.10111633
16	0x3cf79475	0.030222157
17	0x3e7c3010	0.2462771
18	0xbdcbb59f	-0.09946751
19	0x3e5e60bf	0.21716593
20	0x3e56a3d1	0.20960928
21	0x3c924a0d	0.017857576
22	0x3e0d218d	0.1378233
23	0xbe16277d	-0.14663501
24	0xbdf54cc9	-0.11977536
25	0xbe2dd961	-0.16977455
26	0xbe767cc5	-0.24071033
27	0xbdc0b207	-0.09408956
28	0x3e27df59	0.16393794
29	0x3e02f93b	0.12790386
30	0x3e865d4b	0.26243052
31	0xbd09ebbd	-0.033672083
32	0xbda699bd	-0.08134792
33	0x3e47c853	0.19510011
34	0xbeac1883	-0.3361245
35	0xbdb385f4	-0.08765784
36	0xbc8d57fe	-0.017253872
37	0xbd4c5720	-0.049887776
38	0xbdf9a1d0	-0.121890664
39	0xbe6d157f	-0.23152731
40	0x3d88e80d	0.06684885
41	0x3e1ea660	0.15493155
42	0x3eb7c378	0.35891318
43	0x3e55c57d	0.20876117
44	0x3e8a32cd	0.26991883
45	0xbc741e03	-0.0148997335
46	0x3e74ed6b	0.23918693
47	0xbc0c87a0	-0.008577257
48	0x3ed2d122	0.4117518
49	0x3de4c712	0.11170782
50	0x3ebe5fa1	0.37182334
51	0x3ed37651	0.41301206
52	0x3ed0ed48	0.4080603
53	0x3ea0a8a6	0.3137867
54	0x3e090311	0.13380076
55	0x3d4ed99a	0.05050049
56	0x3e73fcf7	0.23826967
57	0x3e987909	0.29779842
58	0x3e69a497	0.22816692
59	0xbdbc20a0	-0.0918591
60	0x3e2392db	0.1597399
61	0x3e747095	0.23871072
62	0x3e4874c7	0.19575797
63	0xbdd66551	-0.10468543
64	0x3dc1cb6c	0.09462628
65	0x3e286df9	0.16448201
66	0xbe3ae196	-0.18250117
67	0x3d81f8d8	0.06346291
68	0x3d53aeca	0.051680364
69	0xbda9dec3	-0.082944416
70	0x3dbaa3c3	0.09113266
71	0xbd9d2cfd	-0.076745965
72	0x3d67b48e	0.056568675
73	0x3b2ea2b7	0.0026647279
74	0xbe657d27	-0.22411023
75	0xbe6ed5ac	-0.23323697
76	0xbde16961	-0.110064276
77	0xbe12c8db	-0.14334433
78	0xbe14c473	-0.14528064
79	0x3d98cbf8	0.07460779
80	0xbe2b7ef3	-0.16747646
81	0xbd861d3c	-0.06548545
82	0x3dbbf5ba	0.09177728
83	0xbe273a3f	-0.16330813
84	0x3ed60974	0.41804087
85	0x3d8196d9	0.063276
86	0x3e45a6e3	0.19301943
87	0xbcfa268b	-0.030535957
88	0x3e2a69f4	0.1664198
89	0x3e62e47e	0.22157475
90	0x3e9d35ab	0.30705008
91	0x3e8a065e	0.26957983
92	0x3c56e05e	0.013115017
93	0x3ee07287	0.43837377
94	0x3e1ea315	0.15491898
95	0x3e7c9fe9	0.24670376
96	0x3dad3309	0.08457
97	0xbd14d8ba	-0.0363395
98	0x3e9bbd9c	0.30418098
99	0x3e0a9c54	0.13536197
100	0x3d9ced62	0.07662465
101	0xbde499de	-0.1116216
102	0xbd85ff8f	-0.065428846
103	0x3df9da6a	0.12199862
104	0x3cadb57b	0.0212047
105	0x3ee601fe	0.44923395
106	0xbd18e693	-0.037329268
107	0x3dee9651	0.11649764
108	0x3e50027e	0.2031345
109	0xbdb1090f	-0.08644306
110	0x3e86ef3f	0.26354405
111	0x3eae80ca	0.34082633
112	0x3eed2f8e	0.46325344
113	0x3e89c8a7	0.26910898
114	0x3e91f9b3	0.28510818
115	0x3eeb7305	0.4598619
116	0x3ccb3f0d	0.024810338
117	0x3e9d7681	0.30754474
118	0x3d096069	0.03353921
119	0xbd929f46	-0.07159285
120	0x3e197d5f	0.14989232
121	0x3e7fa5bf	0.24965571
122	0x3e457bb7	0.19285475
123	0x3da89cf0	0.082330585
124	0x3e144544	0.14479548
125	0x3d20e7a6	0.039283417
126	0x3dfdc73c	0.123915166
127	0x3eb5ffb5	0.3554665
128	0x3ec1cb9b	0.3785065
129	0x3dd715ba	0.10502191
130	0xbd85ec53	-0.06539216
131	0x3e3328bd	0.17496009
132	0x3eb9d965	0.3629867
133	0x3e84bfea	0.2592767
134	0x3dd6b17b	0.104830705
135	0x3ea5b5e8	0.32365346
136	0x3e810449	0.25198582
137	0x3bdd9783	0.0067624464
138	0xbd566edc	-0.052351817
139	0x3e946a05	0.28987136
140	0xbd47a1a9	-0.048738156
141	0x3df8f586	0.12156205
142	0x3d3ec877	0.046577897
143	0x3d21e9fd	0.03952979
144	0x3d009c28	0.031398922
145	0x3de70ef7	0.11282151
146	0x3d9a2fd7	0.07528656
147	0x3e5405b2	0.20705298
148	0x3d68a722	0.056800015
149	0x3dbc1fab	0.09185728
150	0xbdd64425	-0.10462216
151	0xbd719472	-0.05897946
152	0xbdfc8dca	-0.123317316
153	0x3d4d123d	0.05006622
154	0x3e90bd24	0.28269303
155	0xbe945a70	-0.28975248
156	0xbe27780e	-0.16354391
157	0xbcfbce35	-0.030737976
158	0x3e778c3b	0.24174587
159	0xbda606d5	-0.08106772
160	0xbe2124d8	-0.15736711
161	0xbd53c9dd	-0.051706184
162	0x3ca38928	0.019962862
163	0xbe0228ef	-0.12710927
164	0xbc5d2da3	-0.01349965
165	0xbe6f2c11	-0.23356654
166	0xbd370efa	-0.044692017
167	0x3c038b50	0.00802882
168	0x3c1245c0	0.0089277625
169	0xbd91d376	-0.07120411
170	0xbb85ffe0	-0.0040893406
171	0x3ddf164a	0.10892923
172	0xbcf8b3d8	-0.030359194
173	0xbd5c8a88	-0.05384305
174	0xbe5c45d8	-0.21511018
175	0x3cd15170	0.025551528
176	0x3e12cfe9	0.14337124
177	0xbe3d49f0	-0.18485236
178	0xbe0f89b4	-0.14017373
179	0xbe239037	-0.15972982
180	0xbbf60560	-0.007507965
181	0xbe5ab146	-0.21356687
182	0xbcc2bd58	-0.023771927
183	0x3dfd041e	0.12354301
184	0xbd2eefbc	-0.042709097
185	0x3db8114a	0.089876726
186	0xbdc257ad	-0.09489379
187	0x3d11e394	0.035617426
188	0xbe1ebe82	-0.1550236
189	0x3e59cf36	0.21270451
190	0x3e6f8fc2	0.23394683
191	0x3db6322b	0.088962875
192	0x3e1f3982	0.15549281
193	0x3d677017	0.05650338
194	0x3e8767e6	0.26446456
195	0x3e58e4a6	0.21180972
196	0x3e310e78	0.17290676
197	0x3e924d62	0.28574663
198	0x3e57f1ff	0.21088408
199	0x3e2fb8bf	0.17160319
200	0xbd281b98	-0.04104194
201	0x3e265bfd	0.16246028
202	0x3e4502db	0.1923937
203	0x3e8e7bdf	0.2782888
204	0xbd58301b	-0.052780252
205	0x3e90df07	0.28295156
206	0x3e934683	0.28764734
207	0x3cb61666	0.022227477
208	0xbc696818	-0.014246009
209	0x3e0954c4	0.13411242
210	0x3ea16d96	0.3152892
211	0x3d99c5e6	0.07508449
212	0x3ebfe031	0.37475732
213	0x3e83b910	0.2572713
214	0xbd0a1cae	-0.033718757
215	0xbd2047ea	-0.039131083
216	0x3e3606bf	0.17776011
217	0x3ecd63e2	0.40115267
218	0x3deed858	0.11662358
219	0x3e0480da	0.12939778
220	0x3e4c66fb	0.19961159
221	0xbda449ef	-0.08021914
222	0x3e7167b8	0.23574722
223	0x3e5d7519	0.216267
224	0xbc7ed21f	-0.015553026
225	0x3d619d36	0.05508157
226	0x3e9c0247	0.30470487
227	0xbd9b0994	-0.07570186
228	0xbcedf031	-0.029045196
229	0x3e5e03ce	0.21681139
230	0x3e5df8ed	0.21676989
231	0xbe63b43c	-0.22236723
232	0x3d13a879	0.03604934
233	0xbe060293	-0.1308692
234	0xbd886f11	-0.06661809
235	0xbe5a59e3	-0.21323352
236	0x3c035872	0.0080166925
237	0x3e116e6a	0.14202276
238	0xbd6a2ca8	-0.057171494
239	0x3e40ed50	0.18840528
240	0xbe4f263e	-0.20229432
241	0x3db95e00	0.09051132
242	0x3d99528e	0.07486449
243	0x3e09e9d3	0.13468103
244	0xbe071d1e	-0.13194701
245	0x3e473dd9	0.19457187
246	0xbb95b3b8	-0.0045685433
247	0xbe1408c8	-0.14456475
248	0x3e6432f9	0.2228507
249	0x3e38a3fa	0.18031302
250	0xbd1ee6f2	-0.038794465
251	0xbde830bd	-0.11337421
252	0x3dde7895	0.10862843
253	0x3e87b4c0	0.2650509
254	0x3eb5e44a	0.35525733
255	0x3e904dbc	0.28184307

actor.lin1.bias f4 [32]
0	0x3e2271e9	0.15863766
1	0x3cb75f56	0.022384327
2	0xbdef371c	-0.11680433
3	0xbdf702a9	-0.12061054
4	0x3d968fb5	0.07351629
5	0xbd8da9e6	-0.06917171
6	0x3d85d9e6	0.065357015
7	0x3d4e9512	0.050435133
8	0xbe18de5f	-0.14928578
9	0xbdd389a4	-0.10328987
10	0xbd6bcfb7	-0.05757114
11	0x3e05f06b	0.13079993
12	0xbe21d7d7	-0.15804993
13	0x3e5b1622	0.21395162
14	0x3dfde75a	0.123976424
15	0xbdb87824	-0.0900729
16	0xbe7f4d05	-0.24931724
17	0xbe4e8b15	-0.20170243
18	0xbdbdbc7b	-0.092644654
19	0x3e305134	0.17218477
20	0xbdb0b27e	-0.08627795
21	0xbdc0c7af	-0.094130866
22	0x3cce4d52	0.025183354
23	0x3e639274	0.22223836
24	0x3d8e8c3b	0.069603406
25	0x3e415e98	0.18883741
26	0xbb0287bd	-0.0019917332
27	0xbe4de938	-0.20108497
28	0xbe836b4a	-0.25667793
29	0xbd96bbe0	-0.07360053
30	0x3e345d15	0.17613633
31	0xbe64cc09	-0.22343458

actor.lin2.weight f4 [32, 32]
0	0x3d511934	0.051049426
1	0xbd0027b8	-0.03128788
2	0xbdfa88c9	-0.12233121
3	0x3e02a7b7	0.1275929
4	0xbe26a57f	-0.16274069
5	0xbdc6c38b	-0.097052656
6	0xbddd9303	-0.10819056
7	0x3dc651ee	0.096835956
8	0xbd704c64	-0.0586666
9	0xbe1a43a8	-0.15064871
10	0xbdcdfc89	-0.10057933
11	0xbe0d8a69	-0.1382233
12	0xbb5d4a00	-0.0033766031
13	0xbe29bf39	-0.16576852
14	0x3a97fc00	0.0011595488
15	0xbe08b86d	-0.13351603
16	0xbd18752c	-0.03722112
17	0xbe12d128	-0.143376
18	0x3e0cb492	0.13740757
19	0xbda84e28	-0.08218032
20	0x3b8ba0f6	0.0042611314
21	0xbe2c758e	-0.16841719
22	0xbc0ec740	-0.008714497
23	0xbd2b5d59	-0.04183707
24	0x3bf13bc0	0.007361859
25	0x3bc961c0	0.006145686
26	0xbc2af330	-0.010433957
27	0x3accb960	0.0015619211
28	0x3e175785	0.1477948
29	0xbd2b0738	-0.04175493
30	0xbd49e408	-0.049289733
31	0xbd51bc04	-0.051204696
32	0xbe14d14e	-0.14532968
33	0x3e198f87	0.14996158
34	0x3cc12f99	0.023582267
35	0x3e1af853	0.1513379
36	0xbe3ebf43	-0.18627648
37	0xbd28d80a	-0.041221656
38	0xbd825307	-0.063634925
39	0xbd4f37d4	-0.05059035
40	0x3d0da6cc	0.034582898
41	0x3db92c6d	0.09041677
42	0xbdcfe4e9	-0.10151083
43	0x3e05b2fa	0.13056555
44	0x3d26a6e0	0.04068649
45	0x3b07940c	0.0020687608
46	0xbda5510e	-0.080721006
47	0x3e18af7b	0.1491069
48	0x3a883397	0.0010391352
49	0x3d42815c	0.047486648
50	0xbd84d4dc	-0.06485912
51	0x3cd70743	0.02624858
52	0x3e055013	0.13018827
53	0xbb2b32c3	-0.0026122786
54	0x3cf959a8	0.03043826
55	0x3cc122fc	0.023576252
56	0xbdc845e3	-0.09778955
57	0xbe115ff4	-0.1419676
58	0xbda239d2	-0.079211846
59	0x3c14d6ab	0.009084384
60	0xbd1486e4	-0.036261454
61	0xbe0119cb	-0.12607495
62	0x3c5b9984	0.0134033
63	0x3db07b9b	0.08617326
64	0x3e84bf4e	0.25927204
65	0x3e5d15d0	0.21590352
66	0x3e423686	0.18966112
67	0x3db52f21	0.0884688
68	0x3d916b06	0.07100491
69	0x3eb5d75f	0.35515878
70	0x3e37042b	0.17872684
71	0xbd3877ef	-0.045036253
72	0xbc864418	-0.016389892
73	0x3e69d39a	0.22834626
74	0x3e9476cb	0.28996882
75	0xbd6939c7	-0.056939866
76	0x3e8e7e71	0.27830842
77	0x3d8262e9	0.06366522
78	0x3df68293	0.12036624
79	0xbde5e3ad	-0.11225066
80	0x3de04b22	0.109518304
81	0xbd748e1c	-0.05970584
82	0x3e998d83	0.29990777
83	0xbe3745dd	-0.17897744
84	0x3e128d6a	0.14311758
85	0x3e97e795	0.2966887
86	0x3cf5c451	0.030000838
87	0xbdec9633	-0.11552086
88	0x3e0c29f2	0.13687876
89	0xbe0020a9	-0.12512459
90	0x3d06da21	0.032922868
91	0x3e3b6ec3	0.18303971
92	0x3d93e1aa	0.072207764
93	0x3da1f03b	0.079071485
94	0x3e1960ea	0.14978376
95	0x3e13d17c	0.1443538
96	0xbde983f4	-0.11402121
97	0xbe0fa3c9	-0.14027323
98	0x3e0c3a1d	0.13694043
99	0x3e308a4c	0.17240256
100	0x3de9d36e	0.1141728
101	0xbd06c5e1	-0.032903556
102	0xbd99c1a4	-0.07507637
103	0xbe2e95d1	-0.17049338
104	0xbcafe708	-0.021472469
105	0xbe3457d1	-0.17611624
106	0xbdd82a7a	-0.10554977
107	0x3ce17125	0.027519772
108	0x3e0a53f6	0.13508591
109	0x3e2af671	0.16695572
110	0xbc6c40aa	-0.014419714
111	0xbe1d64ee	-0.15370533
112	0xbbe9d1e0	-0.0071356148
113	0x3e2a4141	0.16626455
114	0xbddafe4b	-0.10693034
115	0xbda54049	-0.08068902
116	0xbe32b23f	-0.17450808
117	0xbe34c36c	-0.17652673
118	0x3e1ed363	0.15510325
119	0xbcab095d	-0.020878488
120	0xbc6d0e20	-0.0144687
121	0x3d7b2811	0.061317507
122	0xbcd0b721	-0.025477948
123	0x3da926c6	0.082593486
124	0x3e22bdb2	0.15892676
125	0x3d106890	0.03525597
126	0xba539900	-0.000807181
127	0xbd92429b	-0.0714161
128	0x3e051ca7	0.12999211
129	0x3e1b7f1d	0.15185209
130	0xbe1569be	-0.14591119
131	0xbda04a28	-0.07826644
132	0xbe092cda	-0.13396016
133	0xbe2aa514	-0.16664535
134	0xbd6cc6c8	-0.05780676
135	0x3df2591e	0.11833404
136	0xbd20d584	-0.039266124
137	0x3cc01ec8	0.023452178
138	0xbdb023c7	-0.08600574
139	0x3e33761f	0.17525528
140	0x3e1af127	0.15131055
141	0x3e34d321	0.17658664
142	0xbe16a333	-0.14710693
143	0x3dd2f166	0.10299949
144	0xbe06f5b0	-0.1317966
145	0xbde86a08	-0.11348349
146	0xbd9a306c	-0.07528767
147	0xbd4e0a04	-0.05030252
148	0xbe01b0af	-0.12665056
149	0xbd2408e8	-0.040047556
150	0xbce17518	-0.027521655
151	0x3db5b65a	0.088726714
152	0xbd3152cc	-0.043291852
153	0xbde5ff0f	-0.11230289
154	0xbe13f070	-0.14447188
155	0xbd9142ca	-0.07092817
156	0xbc3b6960	-0.011438698
157	0xbdef47c6	-0.116836116
158	0x3e15eacf	0.14640354
159	0x3d7bdcc0	0.06148982
160	0x3dbcf4a6	0.092263505
161	0xbd82795c	-0.06370804
162	0x3d214688	0.039373904
163	0x3cee92a0	0.02912265
164	0xbd91791d	-0.07103179
165	0xbc3081a0	-0.0107730925
166	0x3cc2d1c8	0.023781672
167	0xbd8b4327	-0.06799918
168	0x3d4b1a24	0.049585477
169	0x3e1222df	0.14271115
170	0xbe1ee9fc	-0.15518945
171	0xbd9e3960	-0.07725787
172	0xbc66a620	-0.014077693
173	0xbcf10658	-0.02942197
174	0xbaf2ad80	-0.0018514842
175	0xbe28b134	-0.16473848
176	0xbdfdf79b	-0.124007426
177	0xbdab1656	-0.083538696
178	0xbe147139	-0.14496316
179	0x3da9fb36	0.08299868
180	0x3dfd057e	0.12354563
181	0x3d4ff008	0.05076602
182	0x3d505b40	0.050868273
183	0x3c93b308	0.018029705
184	0xbdab5808	-0.083664
185	0x3da0b1ca	0.078464106
186	0x3da57d0e	0.08080493
187	0xbe28d0da	-0.1648592
188	0xbda2025a	-0.07910605
189	0x3d5aa97c	0.05338429
190	0x3e2b753f	0.16743945
191	0x3c6b2380	0.014351726
192	0xbd01e118	-0.031708807
193	0x3e068017	0.131348
194	0xbd6c5da0	-0.057706475
195	0xbd0fe8c4	-0.035134092
196	0x3de7900e	0.11306773
197	0xbe03c4ba	-0.12868014
198	0x3dfe1afa	0.12407489
199	0xbe075d42	-0.13219169
200	0x3e33ff41	0.1757784
201	0xbe16598d	-0.14682598
202	0xbdf44d1e	-0.119287714
203	0xbe19725c	-0.14985031
204	0x3dbc607a	0.09198089
205	0xbe19d008	-0.15020764
206	0xbd6037be	-0.05474066
207	0xbce9cff8	-0.02854155
208	0x3df902b6	0.1215872
209	0x3d083174	0.033250287
210	0x3d93c362	0.07215001
211	0x3db361ce	0.08758889
212	0xbdba664e	-0.09101544
213	0xbd3d4874	-0.046211675
214	0xbd9cba30	-0.076527
215	0xbe32f137	-0.17474829
216	0x3db931b2	0.09042682
217	0x3ba63ec0	0.0050733984
218	0xbd92e49d	-0.07172511
219	0x3c1d8f10	0.009616628
220	0x3dcfbba6	0.10143213
221	0xbdde5840	-0.10856676
222	0x3e1a720b	0.15082566
223	0xbe1fec3a	-0.15617457
224	0x3e0baf90	0.1364119
225	0x3e8ff167	0.28113863
226	0x3e06397b	0.13107865
227	0xbda0c455	-0.07849947
228	0x3d74f900	0.059807777
229	0x3d58e831	0.05295581
230	0x3e7a98d0	0.24472356
231	0x3d331f9c	0.043731317
232	0xbd9b1cf1	-0.075738795
233	0x3e30d4f3	0.17268734
234	0xbdc2c065	-0.095093526
235	0xbe1995b8	-0.1499852
236	0x3e2222b9	0.15833558
237	0x3e0356c6	0.1282607
238	0x3d83b4b6	0.06430952
239	0x3d825744	0.06364301
240	0x3db004c0	0.08594656
241	0xbcb2e050	-0.021835476
242	0xbe07bc23	-0.13255362
243	0x3e01fd1d	0.12694211
244	0x3d8821ea	0.066470936
245	0x3d1c4a5f	0.038156863
246	0xbd5e2001	-0.05422974
247	0xbd9c699f	-0.07637333
248	0x3e2acc8c	0.16679591
249	0xbdd811e2	-0.10550286
250	0xbda0292b	-0.07820352
251	0x3e1586de	0.14602229
252	0x3c52c9ce	0.012865497
253	0x3da77b57	0.08177822
254	0xbda7c642	-0.081921116
255	0x3cbb41b8	0.022858486

actor.lin2.bias f4 [32]
0	0xbddc2aef	-0.107503764
1	0x3d99332c	0.074804634
2	0xbda21ddd	-0.07915852
3	0xbd98c1ba	-0.074588254
4	0xbdab036f	-0.08350264
5	0xbe2b4056	-0.16723761
6	0xbdc7022e	-0.097172126
7	0xbe3008c1	-0.1719084
8	0x3e056e2f	0.13030313
9	0x3e93a982	0.28840262
10	0xbdd51e90	-0.1040622
11	0x3df53152	0.11972298
12	0xbe014fe2	-0.12628129
13	0x3de7b857	0.11314457
14	0xbdd91879	-0.10600371
15	0x3d255e1b	0.04037295
16	0xbdc50bd4	-0.09621397
17	0x3dce8907	0.1008473
18	0x3df3d6d2	0.11906208
19	0xbe157bb9	-0.14597978
20	0x3d8bf877	0.068345
21	0xbda615bc	-0.08109614
22	0x3cd477c1	0.02593601
23	0x3b91e72a	0.0044526057
24	0x3db9710f	0.09054767
25	0xbd015f3d	-0.031584967
26	0xbd4972ba	-0.049181677
27	0x3d5961a3	0.05307163
28	0xbe29556a	-0.16536489
29	0xbda18784	-0.07887176
30	0x3dc9ec5a	0.098595336
31	0xbdede67b	-0.11616226

actor.lin3.weight f4 [1, 32]
0	0xbdfe4463	-0.124153875
1	0xbd99d49d	-0.07511256
2	0x3ea49643	0.3214589
3	0xbdb39d55	-0.08770243
4	0xbe04ad0a	-0.12956634
5	0xbe204e0a	-0.1565477
6	0xbdf3d6cd	-0.119062044
7	0x3d8e7d00	0.069574356
8	0xbc81af23	-0.015830582
9	0xbdacdaa7	-0.08440142
10	0xbd2181a9	-0.039430294
11	0x3e76768e	0.24068663
12	0x3ba6c0a0	0.0050888807
13	0xbcc2b789	-0.023769157
14	0xbdc185d8	-0.09449357
15	0x3e80a916	0.25129002
16	0xbe0d34d7	-0.13789688
17	0xbd649256	-0.05580362
18	0x3e237870	0.15963912
19	0x3e15e517	0.14638172
20	0x3e6812bf	0.22663401
21	0x3ddd656c	0.1081036
22	0x3e3af8f5	0.18259032
23	0x3e86b12a	0.2630704
24	0xbdb94d9c	-0.09048006
25	0xbdc12d8c	-0.094325155
26	0x3eb17c5f	0.346652
27	0xbdb90c76	-0.0903558
28	0x3e3912bf	0.18073557
29	0xbdde0b3e	-0.10841988
30	0x3e5faee5	0.2184406
31	0xbd27fa08	-0.041009933

critic.conv1.bias f4 [21]
0	0x00000000	0.0
1	0x3eac7cf3	0.3368908
2	0xbebfbd80	-0.37449265
3	0xbb5111c8	-0.0031901468
4	0xbc753c40	-0.014967978
5	0xbdded43b	-0.108803235
6	0x3d4985ee	0.04919999
7	0xbea6ef97	-0.32604668
8	0xbd45becc	-0.04827766
9	0x3c123132	0.008922862
10	0x3d41eb1a	0.04734335
11	0x3ddf4c74	0.10903254
12	0xbc0496fe	-0.00809264
13	0x3e8bdf68	0.27318883
14	0xbd17222a	-0.036897816
15	0x3e710e97	0.23540722
16	0xbd0ea2d0	-0.03482324
17	0xbc955c55	-0.018232504
18	0xbb052185	-0.0020314169
19	0xbeba1a88	-0.36348367
20	0xbbe7091d	-0.007050647

critic.conv1.lin.weight f4 [21, 21]
0	0xbe9c110e	-0.30481762
1	0xbd61fa40	-0.055170298
2	0xbe900761	-0.2813063
3	0xbea34da4	-0.31895173
4	0xbe9a9b77	-0.30196735
5	0x3e9d5097	0.30725548
6	0x3d821b50	0.06352866
7	0xbe9dc9e4	-0.30818093
8	0xbdf4b908	-0.119493544
9	0x3e6956e6	0.22787055
10	0xbd88bf50	-0.06677115
11	0xbda288e8	-0.07936269
12	0xbe1a979f	-0.15096901
13	0xbdc907bc	-0.09815928
14	0x3e4a758a	0.197714
15	0xbe397065	-0.18109281
16	0xbd73e298	-0.05954227
17	0xbd5796c8	-0.05263403
18	0xbda6e1ac	-0.08148512
19	0xbeb24e85	-0.3482553
20	0x3e97f641	0.29680064
21	0xbd57d88a	-0.052696742
22	0x3e5a0510	0.21290994
23	0x3e14737b	0.14497177
24	0x3ea16625	0.31523243
25	0xbe0439d5	-0.12912686
26	0xbd3106b0	-0.04321927
27	0xbec7681b	-0.38946614
28	0xbc9af544	-0.01891578
29	0xbea19762	-0.31560808
30	0xbebbe01f	-0.36694428
31	0x3e53219b	0.20618288
32	0x3eb915bd	0.36149397
33	0x3e1b0cde	0.15141627
34	0xbd683045	-0.05668666
35	0x3cdd655f	0.027025877
36	0x3e80dc1b	0.25167927
37	0xbe2ad8b3	-0.16684227
38	0xbe5dedeb	-0.2167279
39	0x3e181bff	0.1485443
40	0xbe82b55f	-0.25529
41	0xbd2c99b3	-0.042138766
42	0xbe3477b9	-0.17623796
43	0xbec464e2	-0.38358217
44	0xbf11397c	-0.5672834
45	0xbe1e7ce3	-0.15477328
46	0x3c8ffa60	0.017575443
47	0xbd87e065	-0.06634597
48	0x3e1f30a3	0.15545897
49	0x3e0c5294	0.13703376
50	0x3ea37ff5	0.3193356
51	0xbec30987	-0.38093206
52	0x3e7cd691	0.24691226
53	0xbe451c87	-0.19249164
54	0x3e924649	0.28569248
55	0x3e832378	0.25612998
56	0x3e2f173e	0.1709871
57	0xbdf9cc70	-0.121971965
58	0xbda3eb1b	-0.08003827
59	0x3d9b00bc	0.075684994
60	0x3e97e601	0.29667667
61	0xbc8a5b78	-0.016889319
62	0x3e900303	0.28127298
63	0x3e8c6d99	0.27427366
64	0xbe0b4cb6	-0.13603482
65	0x3d29d401	0.04146195
66	0xbdd7393a	-0.10508962
67	0xbd8343a9	-0.064093895
68	0x3b810bb6	0.0039381636
69	0xbec9d1dc	-0.39417922
70	0x3dc8a29b	0.097966395
71	0xbdad1707	-0.08451658
72	0xbdb78647	-0.08961158
73	0xbdafdf1b	-0.08587476
74	0xbe272308	-0.16321957
75	0x3e27f6f1	0.16402794
76	0xbe08f0a7	-0.13373052
77	0xbe9e6088	-0.30933022
78	0xbe6dd006	-0.23223886
79	0xbeb19642	-0.3468495
80	0xbdf2af2c	-0.11849818
81	0x3cb9bd40	0.02267325
82	0xbebb68dc	-0.3660344
83	0x3d267050	0.040634453
84	0xbc3c648f	-0.011498584
85	0xbd99fcdd	-0.07518933
86	0x3e219d89	0.15782751
87	0xbe8a1b83	-0.26974115
88	0x3d89adbe	0.06722592
89	0xbba46401	-0.005016804
90	0xbc3ba879	-0.011453741
91	0xbea0e0d1	-0.3142152
92	0xbddb6b5c	-0.107138366
93	0xbd89e5e1	-0.06733299
94	0xbe8814a2	-0.26578242
95	0xbe4fe812	-0.20303372
96	0xbebd7231	-0.37001184
97	0xbddbfb2c	-0.107412666
98	0x3e4dab42	0.20084861
99	0xbe9fc8c8	-0.3120787
100	0x3eb40153	0.3515726
101	0xbe457bf9	-0.19285573
102	0x3e5d48ee	0.21609852
103	0xbe037d60	-0.12840796
104	0xbe16106a	-0.14654699
105	0xbdcdba59	-0.100453086
106	0x3d9902f2	0.07471265
107	0x3e2d1652	0.16903046
108	0xbeae0286	-0.339863
109	0x3e52772c	0.20553273
110	0xbe48336f	-0.1955087
111	0xbe5eed72	-0.21770266
112	0x3edf6dfe	0.43638605
113	0x3edbdb09	0.42940548
114	0x3ea627e6	0.32452315
115	0x3ed6bd2b	0.419412
116	0xbd40bcbc	-0.04705499
117	0x3e7d946c	0.2476365
118	0xbe811048	-0.25207734
119	0xbe7092ea	-0.23493543
120	0xbdfbff7d	-0.1230459
121	0xbd21898d	-0.03943782
122	0x3ea6f54d	0.32609025
123	0xbe918915	-0.28424898
124	0x3e03cf40	0.12872028
125	0x3e8862ad	0.26637784
126	0xbe98115b	-0.2970074
127	0x3e229f93	0.15881185
128	0xbede2be0	-0.4339285
129	0xbe8b8bcf	-0.27255103
130	0xbdf80bf2	-0.121116534
131	0x3ea93630	0.33049154
132	0xbe44ac21	-0.19206287
133	0x3deedbce	0.11663018
134	0xbeb2d7cd	-0.34930268
135	0x3d4646fb	0.048407536
136	0xbea59dbd	-0.32346907
137	0xbe092d10	-0.13396096
138	0x3e6b12e0	0.22956419
139	0x3e02d1ca	0.1277534
140	0x3e5a85d2	0.21340111
141	0x3eafb132	0.34314877
142	0xbc6ec44a	-0.014573166
143	0xbaba26bb	-0.0014202216
144	0xbdf82f4d	-0.12118397
145	0x3dc8dcd0	0.09807742
146	0x3e51d2e2	0.20490602
147	0x3e8d1c3a	0.27560598
148	0xbeab8c3e	-0.33505434
149	0xbf31c29d	-0.6943758
150	0xbe9e97c5	-0.30975166
151	0x3db1e696	0.08686559
152	0xbe9bc909	-0.30426815
153	0xbe4c8ae5	-0.19974859
154	0xbe746e2d	-0.23870154
155	0xbc6f75f8	-0.014615528
156	0xbe785f2c	-0.24255055
157	0xbd7512e9	-0.059832487
158	0x3bd16079	0.0063896743
159	0x3e75e9eb	0.24015014
160	0x3da2ac4b	0.079430185
161	0xbe7ac8c6	-0.24490651
162	0xbe00c1a1	-0.12573864
163	0x3eddcdad	0.4332098
164	0xbdb09a83	-0.08623221
165	0x3e798986	0.24368867
166	0xbb670f5c	-0.0035256958
167	0x3e997969	0.2997544
168	0xbe364ff7	-0.17803942
169	0x3e9b3c0a	0.30319244
170	0xbe7e1d1f	-0.24815796
171	0xbe48d9eb	-0.19614379
172	0xbd763247	-0.060106542
173	0xbdbb452b	-0.09144052
174	0xbe393c04	-0.180893
175	0xbe935b14	-0.28780425
176	0x3e412fe5	0.18865927
177	0x3d9725c1	0.07380248
178	0xbe177cc3	-0.14793687
179	0xbcb0de29	-0.02159031
180	0xbcd34b15	-0.025792638
181	0x3df5115d	0.119662024
182	0x3db1569a	0.08659096
183	0xbe9efadb	-0.31050763
184	0x3e423a19	0.18967475
185	0xbe95b3ed	-0.29238835
186	0xbec9eb47	-0.39437315
187	0xbe949b00	-0.29024506
188	0xbe3ec431	-0.18629529
189	0xbe4265e7	-0.18984185
190	0xbe4a902f	-0.19781564
191	0xbe7a95cd	-0.24471207
192	0x3d5682f8	0.052370995
193	0x3dd4ba03	0.103870414
194	0x3e71a5cc	0.23598403
195	0xbdf1baaf	-0.11803185
196	0xbe9709ab	-0.29499564
197	0x3ea272e8	0.31728292
198	0xbeb7f4e0	-0.35929012
199	0x3e8049c1	0.2505627
200	0x3eac852b	0.3369535
201	0xbe6b7a2d	-0.22995825
202	0xbddfc500	-0.10926247
203	0xbce7cdc1	-0.028296353
204	0x3e7c0dfd	0.24614711
205	0xbe398d3d	-0.18120284
206	0x3c18760b	0.009305487
207	0xbcaf413f	-0.021393416
208	0x3d7bc927	0.06147113
209	0x3e3831c2	0.17987731
210	0x3de87ff7	0.11352532
211	0x3ebe73d1	0.37197736
212	0xb95be99e	-0.00020972497
213	0x3c976979	0.01848291
214	0xbea80be9	-0.32821587
215	0x3d840b0d	0.0644742
216	0x3e959b3c	0.29219997
217	0xbd99aa3e	-0.07503174
218	0xbebc33bc	-0.3675822
219	0x3e1b62a8	0.15174353
220	0xbceb28b9	-0.028705942
221	0xbe8ada98	-0.271199
222	0xbdc79af2	-0.0974635
223	0x3e830a4d	0.25593796
224	0x3d609621	0.054830674
225	0x3e5ee857	0.21768318
226	0xbdf3976c	-0.11894116
227	0xbedf46fa	-0.43608838
228	0xbe07c9c2	-0.13260558
229	0xbe27386b	-0.16330115
230	0x3e9a8fba	0.3018778
231	0xbdcd064a	-0.10010965
232	0xbddc4e51	-0.10757125
233	0x3eba9eb0	0.36449194
234	0x3e965c88	0.2936747
235	0x3ddefdae	0.10888229
236	0xbe35af81	-0.1774273
237	0xbdc827c0	-0.09773207
238	0xbe7b3fb9	-0.24536027
239	0x3e279559	0.16365565
240	0x3eb9b70e	0.36272472
241	0xbdc2cd76	-0.09511845
242	0xbdf0014e	-0.11718999
243	0xbd9b6512	-0.07587637
244	0xbe15a086	-0.14612016
245	0x3dd94654	0.10609117
246	0x3d42a3ab	0.047519367
247	0xbdfc39c1	-0.12315703
248	0xbcfe86c5	-0.031070122
249	0x3e953f1f	0.2914972
250	0xbe29e665	-0.16591795
251	0xbe643f64	-0.22289807
252	0xbe627e23	-0.2211843
253	0xbe46aeb3	-0.1940258
254	0x3e5f834d	0.21827431
255	0x3e56f91a	0.20993462

critic.lin1.weight f4 [32, 21]
0	0xbe0b670e	-0.13613531
1	0x3c90e275	0.017686108
2	0x3e33cf54	0.17559558
3	0xbe56e2c5	-0.20984943
4	0xbbfdd49b	-0.007746292
5	0x3d1f9edd	0.038969863
6	0x3defe384	0.11713317
7	0x3d9b6037	0.07586711
8	0xbe042c0c	-0.12907428
9	0xbd8a7533	-0.06760635
10	0x3ce4c87b	0.027927628
11	0xbd12a1fa	-0.035799004
12	0x3e32bf6f	0.17455839
13	0x3d2d771a	0.042349912
14	0xbd50426d	-0.0508446
15	0xbc3e37bc	-0.011609968
16	0x3db63a68	0.08897859
17	0x3d97cf1d	0.074125506
18	0x3e4f12d7	0.2022203
19	0x3e1fa16b	0.1558892
20	0xbe22f1d0	-0.15912557
21	0x3e397435	0.18110736
22	0x3c69a8b4	0.014261413
23	0x3dfe1353	0.124060296
24	0x3d93ee2a	0.072231606
25	0x3cd2ebab	0.02574714
26	0xbdf3b354	-0.118994385
27	0x3d0a4758	0.033759445
28	0xbe98ec57	-0.29867813
29	0x3dc82b53	0.097738884
30	0x3e06b97b	0.13156693
31	0x3d5384b1	0.051640216
32	0xbe45c4e7	-0.19313394
33	0x3dc2ebfa	0.09517665
34	0x3d31c9ba	0.043405272
35	0xbe656ab5	-0.22403987
36	0xbd97976e	-0.0740193
37	0x3e0626cf	0.13100742
38	0xbdc9a582	-0.09846021
39	0xbe03a749	-0.12856783
40	0xbc7b0306	-0.015320545
41	0x3e1a7cbf	0.1508665
42	0xb9011f4a	-0.00012314055
43	0x3e851d1a	0.25998765
44	0x3d19abd0	0.03751737
45	0x3df06c76	0.11739437
46	0x3e46f99f	0.1943116
47	0xbe26dbaf	-0.1629474
48	0x3e147872	0.14499071
49	0xbe35c8ff	-0.17752455
50	0xbc5b794a	-0.013395617
51	0xbdf2e031	-0.11859167
52	0xbe56bbc7	-0.20970069
53	0x3dc5f2c0	0.096654415
54	0x3e87d1fd	0.26527396
55	0x3df9bad6	0.12193839
56	0x3d8561d4	0.065128
57	0xbe2ef8ee	-0.17087147
58	0xbdf3b6e6	-0.119001195
59	0xbe15b728	-0.1462065
60	0xbe49ebb1	-0.19718815
61	0xbe81544b	-0.25259623
62	0xbc988f36	-0.018622976
63	0xbd7f00af	-0.06225651
64	0xbcc5fa3c	-0.024167173
65	0x3dc2bb04	0.09508327
66	0xbd9415ac	-0.07230696
67	0xbd629ece	-0.05532723
68	0xbdc4ef26	-0.096159264
69	0x3cb6fa11	0.022336038
70	0xbbc4f44f	-0.006010569
71	0x3dc9cda2	0.098536745
72	0x3e236ab9	0.1595868
73	0xbe3fb6ad	-0.18722029
74	0x3cbe1166	0.023201656
75	0xbdbd87df	-0.09254431
76	0xbd8ac627	-0.06776076
77	0x3e3bd71b	0.18343775
78	0x3e332bfb	0.17497246
79	0x3d28f598	0.04124984
80	0xbe4dbf01	-0.20092393
81	0xbc9151d3	-0.017739212
82	0x3d9cfd94	0.07665554
83	0x3dd72e42	0.1050687
84	0xbd96a80a	-0.0735627
85	0xbd336a59	-0.043802593
86	0x3e4a7294	0.1977027
87	0xbcacf8fb	-0.021114817
88	0xbd90eb45	-0.07076124
89	0x3df5144b	0.11966761
90	0xbd034696	-0.032049738
91	0xbdabea5e	-0.08394311
92	0x3e13c358	0.14429986
93	0xbdac7a57	-0.08421772
94	0xbd87a94f	-0.0662409
95	0x3e1644d7	0.14674698
96	0xbd42a75a	-0.04752288
97	0xbdd0c25e	-0.101933226
98	0xbd8ec5f1	-0.06971348
99	0x3e291b38	0.1651429
100	0xbe20a5d7	-0.15688263
101	0x3db947c6	0.09046893
102	0xbe510c8d	-0.20414944
103	0xbeadac99	-0.33920744
104	0xbdee5b9b	-0.11638566
105	0xbce6a980	-0.028156996
106	0xbd80754c	-0.062723726
107	0xbde8baff	-0.11363792
108	0xbdec287e	-0.11531161
109	0x3e2045a5	0.15651567
110	0x3c7ef320	0.015560895
111	0xbe2f314a	-0.17108646
112	0xbd8fa7e4	-0.070144445
113	0xbe477bee	-0.19480869
114	0x3e1f847b	0.15577881
115	0x3d781934	0.06057091
116	0xbddb8e5f	-0.107205145
117	0x3e0bef0b	0.13665406
118	0xbdce12df	-0.10062193
119	0xbe1c8f7a	-0.15289107
120	0xbdb051cc	-0.086093515
121	0x3e05cfe5	0.13067587
122	0xbbb12c20	-0.0054068714
123	0xbd9fd516	-0.07804315
124	0x39177000	0.00014442205
125	0x3e07d8f3	0.13266353
126	0xbe0ae6ea	-0.13564649
127	0x3b19ea40	0.002348557
128	0x3e290c31	0.16508557
129	0x3e14e909	0.14542021
130	0xbe236ee0	-0.15960264
131	0xbda189ee	-0.07887636
132	0x3df5086e	0.119644985
133	0x3e4f884b	0.20266835
134	0x3da6c202	0.08142473
135	0x3c92eb28	0.017934397
136	0xbdfc3330	-0.12314451
137	0xbdfa5414	-0.12223068
138	0xbe1838dc	-0.1486544
139	0xbdcf420f	-0.101200216
140	0xbe35c8e2	-0.17752412
141	0xbdc2feed	-0.095212795
142	0x3a711000	0.00091958046
143	0xbd17f444	-0.037098184
144	0x3e43533f	0.19074725
145	0xbe4981a7	-0.19678365
146	0xbd68d750	-0.056845963
147	0xbd8cfe17	-0.06884401
148	0x3e32a254	0.17444736
149	0x3e22e54f	0.15907787
150	0xbdc31e3b	-0.095272504
151	0xbe4e37c1	-0.20138456
152	0x3e12af6b	0.14324729
153	0x3d67c5a2	0.05658496
154	0x3d3816d7	0.044943657
155	0xbe4a9acb	-0.19785611
156	0xbe3581bd	-0.17725272
157	0xbd3dd47f	-0.04634523
158	0xbd2d51fe	-0.042314522
159	0x3b144aca	0.0022627586
160	0xbd32afd2	-0.043624707
161	0x3dde085b	0.108414374
162	0x3e38675b	0.18008177
163	0x3d923d60	0.071406126
164	0xbe41a6b7	-0.18911253
165	0x3e07464a	0.13210407
166	0xbe1823b9	-0.14857377
167	0x3d353a86	0.044245265
168	0xbe07964a	-0.13240924
169	0xbe593c14	-0.21214324
170	0xbe353900	-0.17697525
171	0x3cc47338	0.023980722
172	0x3e0052e8	0.12531626
173	0xbca139a5	-0.019680807
174	0xbd755616	-0.05989655
175	0x3e1327d3	0.1437066
176	0xbdc7cf8d	-0.09756384
177	0x3e218117	0.157719
178	0x3e007ae2	0.12546876
179	0x3d39d05e	0.04536473
180	0x3df85a5d	0.121266104
181	0xbe05fc1e	-0.13084456
182	0x3deed6ad	0.1166204
183	0xbe3eb6bb	-0.18624394
184	0xbc6c90f2	-0.0144388545
185	0xbe4976a3	-0.19674163
186	0x3e061d6d	0.13097163
187	0xbe54bf35	-0.20776065
188	0x3e1f32b7	0.1554669
189	0x3d9e358e	0.077250585
190	0x3e2c27b0	0.16812015
191	0xbe12b11e	-0.14325377
192	0xbd8bdc5b	-0.06829139
193	0xbcdb64e6	-0.02678151
194	0x3e042790	0.12905717
195	0x3dc76d88	0.09737688
196	0xbdbc9faa	-0.09210141
197	0x3d49c3ce	0.049259
198	0x3d9d9a3c	0.076954335
199	0x3d6d6d6f	0.057965692
200	0x3ba75ebf	0.00510773
201	0xbe0e1212	-0.13874081
202	0x3de3ba60	0.111195326
203	0xbe441b14	-0.19150954
204	0xbdc7219e	-0.09723209
205	0x3d85cdc1	0.06533385
206	0x3cb549c8	0.022129908
207	0x3dc40ab6	0.095723554
208	0xbd191809	-0.037376437
209	0xbe6aa14a	-0.2291309
210	0x3cc7dd6d	0.024397576
211	0xbe56ac48	-0.20964158
212	0xbe47ad35	-0.19499667
213	0xbe24e77c	-0.1610393
214	0x3d0313bf	0.032001253
215	0x3c81e73e	0.015857335
216	0xbd1408ab	-0.03614108
217	0xbdcfd682	-0.10148336
218	0x3dd7036d	0.104987
219	0xbd67a4f4	-0.056553796
220	0xbea39724	-0.3195125
221	0x3d98e1ad	0.07464919
222	0x3dfbdaf2	0.1229762
223	0x3e5e3a99	0.2170204
224	0x3e44843c	0.19191068
225	0x3e2500a3	0.16113524
226	0xbd39d623	-0.045370232
227	0x3e49f167	0.19720994
228	0xbe259d52	-0.16173294
229	0xbdeb41be	-0.11487149
230	0xbde84278	-0.11340803
231	0x3e825028	0.2545178
232	0xbe3386e2	-0.17531922
233	0x3d6b64a4	0.057469025
234	0xbe752162	-0.23938516
235	0xbd8d03f6	-0.06885521
236	0x3df0179a	0.11723252
237	0x3e56fbc8	0.20994484
238	0xbdbcb4bd	-0.092141606
239	0x3e12948e	0.14314482
240	0x3da8045e	0.08203958
241	0xbd818618	-0.063244045
242	0xbdb94fc5	-0.09048418
243	0xbe1c7ff1	-0.15283181
244	0x3d4f0042	0.050537355
245	0xbdf74f58	-0.120756805
246	0xbe247abb	-0.16062443
247	0x3e244087	0.1604024
248	0x3e08e668	0.13369143
249	0xbc15e521	-0.009148867
250	0x3e241e85	0.16027267
251	0x3e144217	0.14478336
252	0x3e035306	0.1282464
253	0xbe36f81e	-0.17868087
254	0xbe7338c6	-0.23752126
255	0xbbd70307	-0.00656164
