saved_files/ckpt/nyc4/a2c_gnn_test_price-variable.pth (torch, 286706 bytes, 55 tensors)

log_rate f4 [16, 16]
0	0x41a00000	20.0
1	0x41a00000	20.0
2	0x41a00000	20.0
3	0x41a00000	20.0
4	0x41a00000	20.0
5	0x41a00000	20.0
6	0x41a00000	20.0
7	0x41a00000	20.0
8	0x41a00000	20.0
9	0x41a00000	20.0
10	0x41a00000	20.0
11	0x41a00000	20.0
12	0x41a00000	20.0
13	0x41a00000	20.0
14	0x41a00000	20.0
15	0x41a00000	20.0
16	0x41a00000	20.0
17	0x41a00000	20.0
18	0x41a00000	20.0
19	0x41a00000	20.0
20	0x41a00000	20.0
21	0x41a00000	20.0
22	0x41a00000	20.0
23	0x41a00000	20.0
24	0x41a00000	20.0
25	0x41a00000	20.0
26	0x41a00000	20.0
27	0x41a00000	20.0
28	0x41a00000	20.0
29	0x41a00000	20.0
30	0x41a00000	20.0
31	0x41a00000	20.0
32	0x41a00000	20.0
33	0x41a00000	20.0
34	0x41a00000	20.0
35	0x41a00000	20.0
36	0x41a00000	20.0
37	0x41a00000	20.0
38	0x41a00000	20.0
39	0x41a00000	20.0
40	0x41a00000	20.0
41	0x41a00000	20.0
42	0x41a00000	20.0
43	0x41a00000	20.0
44	0x41a00000	20.0
45	0x41a00000	20.0
46	0x41a00000	20.0
47	0x41a00000	20.0
48	0x41a00000	20.0
49	0x41a00000	20.0
50	0x41a00000	20.0
51	0x41a00000	20.0
52	0x41a00000	20.0
53	0x41a00000	20.0
54	0x41a00000	20.0
55	0x41a00000	20.0
56	0x41a00000	20.0
57	0x41a00000	20.0
58	0x41a00000	20.0
59	0x41a00000	20.0
60	0x41a00000	20.0
61	0x41a00000	20.0
62	0x41a00000	20.0
63	0x41a00000	20.0
64	0x41a00000	20.0
65	0x41a00000	20.0
66	0x41a00000	20.0
67	0x41a00000	20.0
68	0x41a00000	20.0
69	0x41a00000	20.0
70	0x41a00000	20.0
71	0x41a00000	20.0
72	0x41a00000	20.0
73	0x41a00000	20.0
74	0x41a00000	20.0
75	0x41a00000	20.0
76	0x41a00000	20.0
77	0x41a00000	20.0
78	0x41a00000	20.0
79	0x41a00000	20.0
80	0x41a00000	20.0
81	0x41a00000	20.0
82	0x41a00000	20.0
83	0x41a00000	20.0
84	0x41a00000	20.0
85	0x41a00000	20.0
86	0x41a00000	20.0
87	0x41a00000	20.0
88	0x41a00000	20.0
89	0x41a00000	20.0
90	0x41a00000	20.0
91	0x41a00000	20.0
92	0x41a00000	20.0
93	0x41a00000	20.0
94	0x41a00000	20.0
95	0x41a00000	20.0
96	0x41a00000	20.0
97	0x41a00000	20.0
98	0x41a00000	20.0
99	0x41a00000	20.0
100	0x41a00000	20.0
101	0x41a00000	20.0
102	0x41a00000	20.0
103	0x41a00000	20.0
104	0x41a00000	20.0
105	0x41a00000	20.0
106	0x41a00000	20.0
107	0x41a00000	20.0
108	0x41a00000	20.0
109	0x41a00000	20.0
110	0x41a00000	20.0
111	0x41a00000	20.0
112	0x41a00000	20.0
113	0x41a00000	20.0
114	0x41a00000	20.0
115	0x41a00000	20.0
116	0x41a00000	20.0
117	0x41a00000	20.0
118	0x41a00000	20.0
119	0x41a00000	20.0
120	0x41a00000	20.0
121	0x41a00000	20.0
122	0x41a00000	20.0
123	0x41a00000	20.0
124	0x41a00000	20.0
125	0x41a00000	20.0
126	0x41a00000	20.0
127	0x41a00000	20.0
128	0x41a00000	20.0
129	0x41a00000	20.0
130	0x41a00000	20.0
131	0x41a00000	20.0
132	0x41a00000	20.0
133	0x41a00000	20.0
134	0x41a00000	20.0
135	0x41a00000	20.0
136	0x41a00000	20.0
137	0x41a00000	20.0
138	0x41a00000	20.0
139	0x41a00000	20.0
140	0x41a00000	20.0
141	0x41a00000	20.0
142	0x41a00000	20.0
143	0x41a00000	20.0
144	0x41a00000	20.0
145	0x41a00000	20.0
146	0x41a00000	20.0
147	0x41a00000	20.0
148	0x41a00000	20.0
149	0x41a00000	20.0
150	0x41a00000	20.0
151	0x41a00000	20.0
152	0x41a00000	20.0
153	0x41a00000	20.0
154	0x41a00000	20.0
155	0x41a00000	20.0
156	0x41a00000	20.0
157	0x41a00000	20.0
158	0x41a00000	20.0
159	0x41a00000	20.0
160	0x41a00000	20.0
161	0x41a00000	20.0
162	0x41a00000	20.0
163	0x41a00000	20.0
164	0x41a00000	20.0
165	0x41a00000	20.0
166	0x41a00000	20.0
167	0x41a00000	20.0
168	0x41a00000	20.0
169	0x41a00000	20.0
170	0x41a00000	20.0
171	0x41a00000	20.0
172	0x41a00000	20.0
173	0x41a00000	20.0
174	0x41a00000	20.0
175	0x41a00000	20.0
176	0x41a00000	20.0
177	0x41a00000	20.0
178	0x41a00000	20.0
179	0x41a00000	20.0
180	0x41a00000	20.0
181	0x41a00000	20.0
182	0x41a00000	20.0
183	0x41a00000	20.0
184	0x41a00000	20.0
185	0x41a00000	20.0
186	0x41a00000	20.0
187	0x41a00000	20.0
188	0x41a00000	20.0
189	0x41a00000	20.0
190	0x41a00000	20.0
191	0x41a00000	20.0
192	0x41a00000	20.0
193	0x41a00000	20.0
194	0x41a00000	20.0
195	0x41a00000	20.0
196	0x41a00000	20.0
197	0x41a00000	20.0
198	0x41a00000	20.0
199	0x41a00000	20.0
200	0x41a00000	20.0
201	0x41a00000	20.0
202	0x41a00000	20.0
203	0x41a00000	20.0
204	0x41a00000	20.0
205	0x41a00000	20.0
206	0x41a00000	20.0
207	0x41a00000	20.0
208	0x41a00000	20.0
209	0x41a00000	20.0
210	0x41a00000	20.0
211	0x41a00000	20.0
212	0x41a00000	20.0
213	0x41a00000	20.0
214	0x41a00000	20.0
215	0x41a00000	20.0
216	0x41a00000	20.0
217	0x41a00000	20.0
218	0x41a00000	20.0
219	0x41a00000	20.0
220	0x41a00000	20.0
221	0x41a00000	20.0
222	0x41a00000	20.0
223	0x41a00000	20.0
224	0x41a00000	20.0
225	0x41a00000	20.0
226	0x41a00000	20.0
227	0x41a00000	20.0
228	0x41a00000	20.0
229	0x41a00000	20.0
230	0x41a00000	20.0
231	0x41a00000	20.0
232	0x41a00000	20.0
233	0x41a00000	20.0
234	0x41a00000	20.0
235	0x41a00000	20.0
236	0x41a00000	20.0
237	0x41a00000	20.0
238	0x41a00000	20.0
239	0x41a00000	20.0
240	0x41a00000	20.0
241	0x41a00000	20.0
242	0x41a00000	20.0
243	0x41a00000	20.0
244	0x41a00000	20.0
245	0x41a00000	20.0
246	0x41a00000	20.0
247	0x41a00000	20.0
248	0x41a00000	20.0
249	0x41a00000	20.0
250	0x41a00000	20.0
251	0x41a00000	20.0
252	0x41a00000	20.0
253	0x41a00000	20.0
254	0x41a00000	20.0
255	0x41a00000	20.0

actor.conv1.bias f4 [21]
0	0xbc08c94b	-0.008348773
1	0x00000000	0.0
2	0xbd07c172	-0.03314347
3	0x00000000	0.0
4	0x3d29d123	0.041459214
5	0x00000000	0.0
6	0x3db3e369	0.087836094
7	0x3dbf6b7a	0.093466714
8	0x3db847b6	0.08998053
9	0xbc14f6ca	-0.009092042
10	0xbd0346a9	-0.03204981
11	0xbc28f23e	-0.010311661
12	0x3c977873	0.018490052
13	0x00000000	0.0
14	0x00000000	0.0
15	0x00000000	0.0
16	0xbbd96821	-0.0066347276
17	0x3d462f85	0.048385162
18	0xbc404083	-0.011734131
19	0x3d8bf7ce	0.06834374
20	0xbc40c81f	-0.011766463

actor.conv1.lin.weight f4 [21, 21]
0	0x3ea7f676	0.32805222
1	0xbd9cc560	-0.07654834
2	0x3da109a1	0.07863165
3	0x3debbaa4	0.11510208
4	0x3ea46678	0.32109427
5	0xbe941e31	-0.28929284
6	0xbeb1e118	-0.34742045
7	0x3d8e8d8d	0.069605924
8	0xbe63861c	-0.22219127
9	0x3dcf6aeb	0.10127815
10	0xbc6735b2	-0.014111923
11	0xbd837291	-0.06418336
12	0xbe8d63d9	-0.2761524
13	0xbde08df2	-0.10964574
14	0x3ddaf22f	0.10690724
15	0xbec37e15	-0.3818213
16	0x3d9ceefd	0.07662771
17	0x3e9af071	0.30261567
18	0x3e0a7d67	0.135244
19	0x3db3bed5	0.08776633
20	0xbd7be0ec	-0.0614938
21	0xbe138054	-0.14404422
22	0xbd879d88	-0.066218436
23	0xbe413242	-0.18866828
24	0x3d34dc68	0.04415551
25	0xbe933448	-0.28750825
26	0xbe9833de	-0.29727072
27	0xbe6a1834	-0.22860795
28	0x3cfc0760	0.030765235
29	0x3e8c7a27	0.27436945
30	0x3dec2ce4	0.11532
31	0x3e827573	0.25480232
32	0x3e590b46	0.21195707
33	0xbe66a52c	-0.22523946
34	0xbcb85d40	-0.022505403
35	0x3eab1917	0.3341758
36	0xbdf0fe0c	-0.117672056
37	0xbe282663	-0.16420893
38	0x3dc878b4	0.09788647
39	0xbebfba45	-0.374468
40	0x3e4ab46e	0.19795391
41	0xbe821413	-0.2540594
42	0xbcbf542a	-0.023355562
43	0x3deed613	0.11661925
44	0xbd345817	-0.04402932
45	0x3e0e9440	0.1392374
46	0x3e51778d	0.20455761
47	0x3cb191b5	0.021675924
48	0xbeac239c	-0.33620918
49	0xbba34b7a	-0.0049833627
50	0xbe600f28	-0.21880782
51	0x3da70ca5	0.08156709
52	0xbe8f5b92	-0.2799955
53	0x3e25935a	0.16169491
54	0x3b4f921f	0.0031672788
55	0x3e16c76f	0.14724515
56	0xbe6ca9f3	-0.23111705
57	0xbd3f40fb	-0.04669283
58	0x3e82b6d4	0.25530112
59	0xbe36a9dc	-0.17838234
60	0xbec33212	-0.38124138
61	0x3d70ebb7	0.058818545
62	0x3e0d1ffd	0.13781734
63	0x3d0c7800	0.03429413
64	0x3eb2b69f	0.34904954
65	0xbe951f16	-0.2912528
66	0x3e1cf12e	0.15326378
67	0xbe25ee66	-0.16204223
68	0x3e95e803	0.29278573
69	0x3e494bba	0.19657794
70	0xbdb274ec	-0.08713707
71	0xbdb26370	-0.087103724
72	0x3e4c9a1e	0.19980666
73	0xbeab6467	-0.33475038
74	0xbd167120	-0.03672898
75	0xbe51b379	-0.2047862
76	0x3e4ad72e	0.19808647
77	0xbe867386	-0.26260012
78	0xbe6c91f8	-0.23102558
79	0xbea413f4	-0.32046473
80	0x3da9acd0	0.082849145
81	0xbe8cff01	-0.27538303
82	0xbd9a84fc	-0.07544896
83	0xbca3cd40	-0.019995332
84	0x3edee0b2	0.43530804
85	0x3eb60596	0.35551137
86	0x3ebd4f7c	0.36974704
87	0x3eb6e0c6	0.35718364
88	0xbd992137	-0.07477038
89	0x3e9a9912	0.30194908
90	0x3eb6891f	0.3565149
91	0x3ee24dbb	0.4419993
92	0x3ef35f15	0.4753348
93	0x3e1ade36	0.15123829
94	0x3da2c3d9	0.07947511
95	0x3ecb8c08	0.39755273
96	0x3eb48fed	0.35266057
97	0x3ec102b3	0.37697372
98	0xbe83bb37	-0.2572877
99	0x3ece8905	0.40338913
100	0x3e83540f	0.2565007
101	0xbd6d8f71	-0.057998125
102	0x3ebf1e58	0.37327838
103	0x3ec29d0a	0.38010436
104	0x3ead6aac	0.33870447
105	0x3defc83c	0.117081136
106	0xbe747119	-0.23871268
107	0x3d0e4688	0.034735233
108	0xbe04974d	-0.12948342
109	0xbd7200b0	-0.059082687
110	0x3e1f9676	0.1558474
111	0x3c1ebbc0	0.009688318
112	0x3dc62df4	0.096767336
113	0xbe85add3	-0.2610918
114	0x3e739da2	0.23790601
115	0xbe702b20	-0.23453951
116	0xbe0a2bec	-0.13493317
117	0x3e9f6e87	0.31139013
118	0x3ea1c4f3	0.31595573
119	0xbe5eea39	-0.21769036
120	0x3e1e84ce	0.15480348
121	0xbe748d81	-0.23882104
122	0x3e90414b	0.28174815
123	0xbd622120	-0.05520737
124	0xbec055ae	-0.37565368
125	0xbe846621	-0.25859168
126	0x3dbab8f6	0.0911731
127	0x3e037f17	0.1284145
128	0x3eb75235	0.35804906
129	0xbe2296fb	-0.15877907
130	0x3e6073a1	0.21919109
131	0xbd266c36	-0.04063054
132	0x3f03819e	0.51369655
133	0xbc2a46ad	-0.010392827
134	0x3d29bd39	0.041440222
135	0x3f0f401a	0.55957186
136	0x3dfee39a	0.12445755
137	0x3e026e34	0.12737352
138	0x3e50b48c	0.20381373
139	0x3e012709	0.12612547
140	0x3e858dbf	0.26084706
141	0x3e99f196	0.30067128
142	0x3ddd11a0	0.10794377
143	0x3ef21c2e	0.47287124
144	0x3ebd3cce	0.36960453
145	0xbe4749a5	-0.19461687
146	0xbca9757a	-0.0206859
147	0xbdcaa57d	-0.09894846
148	0x3eb2cd17	0.34922096
149	0x3eada855	0.3391749
150	0x3edfff48	0.43749452
151	0x3ef2ef91	0.474484
152	0xbc41a73c	-0.011819657
153	0x3ee57ea0	0.4482317
154	0x3e87ff24	0.26561844
155	0x3e0d2adc	0.13785881
156	0x3ec8d83d	0.39227477
157	0x3da720bb	0.0816054
158	0xbe3abbb5	-0.18235667
159	0x3e6c9a41	0.23105718
160	0x3e79b177	0.24384104
161	0x3d692942	0.056924112
162	0x3eff2c91	0.4983869
163	0x3e9ee1c9	0.31031635
164	0x3db1b5aa	0.08677228
165	0x3cb68a42	0.022282723
166	0x3e9df176	0.30848283
167	0x3ee5f335	0.44912115
168	0x3977ee07	0.00023644428
169	0x3e2b85fe	0.16750333
170	0x3e0cd438	0.1375283
171	0x3eeaa16e	0.45826286
172	0x3f05abff	0.5221557
173	0x3e1a3054	0.15057498
174	0x3efa88cf	0.48932502
175	0x3f04565c	0.51694274
176	0x3c7ecf58	0.015552364
177	0xbdbe808c	-0.09301862
178	0x3efdbbb5	0.49557272
179	0x3e5aeb20	0.21378756
180	0xbe549fb5	-0.20764048
181	0x3edf3781	0.43597034
182	0x3efef597	0.49796745
183	0x3edacd87	0.4273493
184	0x3df2f2ea	0.118627384
185	0x3ea2be18	0.31785655
186	0x3ebd2fe1	0.3695059
187	0xbdb784f1	-0.089609034
188	0x3ddffe20	0.10937142
189	0x3e659970	0.22421813
190	0xbe936e52	-0.28795105
191	0x3e951a18	0.2912147
192	0x3e5ff2f1	0.21870019
193	0x3d5db18b	0.054124396
194	0xbe8001df	-0.25001428
195	0xbeae718f	-0.34071013
196	0x3e8e6953	0.2781473
197	0x3e84bcce	0.25925297
198	0x3dae086d	0.08497701
199	0x3e9f7b5b	0.311488
200	0xbe8d68d6	-0.27619046
201	0x3dc51a0e	0.0962411
202	0xbea9adca	-0.33140403
203	0x3cfb0e0b	0.030646345
204	0xbcd8e8fa	-0.02647828
205	0x3e5c4adb	0.2151293
206	0xbe453b86	-0.19260988
207	0xbea86ba9	-0.32894638
208	0x3dd369d6	0.10322921
209	0xbd92cddf	-0.07168173
210	0x3b57eea6	0.0032948642
211	0xbe832891	-0.25616887
212	0x3e7b5e12	0.24547604
213	0x3e90a1c4	0.28248417
214	0xbe1e09ce	-0.15433428
215	0xbe9280da	-0.2861393
216	0x3e52f6de	0.20601985
217	0xbe997092	-0.29968697
218	0xbe36db0e	-0.17857
219	0xbebedf9e	-0.3727998
220	0xbe821544	-0.2540685
221	0xbd68e238	-0.056856364
222	0x3e0a7ead	0.13524885
223	0xbe545b04	-0.20737845
224	0x3e8d81d1	0.27638105
225	0xbd9f30d9	-0.07772989
226	0x3cfb1e22	0.030654017
227	0xbe50e657	-0.20400368
228	0x3e8d5d07	0.27610037
229	0xbe501c50	-0.203233
230	0x3d8dd0b2	0.06924571
231	0x3e5acc9e	0.21367118
232	0x3da8010b	0.08203324
233	0x3de7e240	0.11322451
234	0xbea19f2f	-0.3156676
235	0x3e1fa81b	0.15591471
236	0x3eb217d9	0.3478382
237	0xbba397ba	-0.0049924525
238	0x3de55e74	0.11199656
239	0xbe41a51b	-0.18910639
240	0x3dc6d867	0.09709244
241	0x3d27acc0	0.04093623
242	0xbdfb8158	-0.1228053
243	0x3da7d503	0.08194926
244	0x3d2bca2c	0.041940853
245	0xbeb46080	-0.35229874
246	0x3e6e44e3	0.23268466
247	0xbd878095	-0.06616322
248	0x3def2596	0.11677091
249	0xbeb81525	-0.35953632
250	0xbe05ce96	-0.13067088
251	0xbc9980c9	-0.018738167
252	0x3eb5e086	0.3552286
253	0xbd2c21a0	-0.042024255
254	0x3e6dc910	0.2322123
255	0x3e883652	0.26603943

actor.lin1.weight f4 [32, 21]
0	0xbdacdae0	-0.084401846
1	0xbdccae09	-0.09994132
2	0xbe193ce7	-0.14964639
3	0x3e654fe4	0.22393757
4	0xbd6c268d	-0.057653952
5	0xbc20d9ca	-0.00981755
6	0xbcb8c222	-0.022553507
7	0xbdcbb765	-0.09947089
8	0x3e09e20e	0.1346514
9	0xbdd25a50	-0.10271132
10	0x3db61000	0.088897705
11	0x3e08054c	0.1328327
12	0xbe00d2ba	-0.12580386
13	0xbc5061ef	-0.012718662
14	0xbdd847c1	-0.10560561
15	0xbdf0fea8	-0.11767322
16	0xbdf9f328	-0.122045815
17	0xbd8b87f9	-0.06813044
18	0xbdba4298	-0.09094733
19	0x3dcb4179	0.09924597
20	0x3cb059cd	0.021527195
21	0x3ea2a61c	0.31767356
22	0x3e91212e	0.28345627
23	0xbccc4d4e	-0.024939205
24	0x3db070cf	0.086152665
25	0x3eb178d8	0.3466251
26	0x3eb70f52	0.35753876
27	0x3c6c19e6	0.014410472
28	0x3eb95f52	0.36205536
29	0x3ecefaf0	0.40425825
30	0x3e83065f	0.25590798
31	0x3ebaec29	0.365083
32	0xbd5b7d2b	-0.053586166
33	0xbda34672	-0.07972421
34	0xbc8d76b0	-0.017268509
35	0xbd2dbfdf	-0.04241931
36	0xbe8853a3	-0.2662631
37	0x3cc962e2	0.024583284
38	0x3e757abe	0.23972604
39	0x3e4cba83	0.19993024
40	0x3e7400ec	0.23828477
41	0xbd48ca28	-0.049020916
42	0x3ea68b85	0.3252832
43	0x3d954902	0.07289316
44	0x3c22de9e	0.009940771
45	0x3e9b2ac7	0.30306074
46	0x3ddee256	0.10883014
47	0x3ec901e8	0.39259267
48	0x3e46678b	0.19375436
49	0x3e9833a2	0.29726893
50	0x3e42602d	0.18982
51	0x3e793b3d	0.24339004
52	0x3e026689	0.12734427
53	0xbd05ca12	-0.032663412
54	0x3cdffb89	0.027341621
55	0xbe2f6bce	-0.17130968
56	0xbe01f234	-0.1269005
57	0xbd1a6131	-0.037690345
58	0x3e37face	0.17966768
59	0x3dc448b1	0.09584177
60	0x3d9e2e77	0.07723706
61	0x3e48880e	0.1958315
62	0x3e0b5dfb	0.1361007
63	0x3e3cdf0e	0.18444464
64	0x3e705fc2	0.23474029
65	0x3dbc803b	0.092041455
66	0x3eeacce5	0.45859447
67	0x3e93f844	0.2890035
68	0x3e5c4e75	0.21514304
69	0x3eb4ff99	0.35351256
70	0x3e926ec7	0.2860014
71	0x3ea7bbf1	0.32760575
72	0x3ef4048a	0.47659713
73	0x3ed01653	0.40642032
74	0xbe1972d1	-0.14985205
75	0x3c68e5ac	0.014214914
76	0x3d262e4b	0.040571492
77	0x3d05f788	0.032706767
78	0x3e35d6ce	0.17757723
79	0x3d232a0e	0.03983503
80	0xbe21b698	-0.1579231
81	0xbdbbd361	-0.09171177
82	0x3e42db1e	0.19028899
83	0x3c429236	0.01187568
84	0xbd16dbfa	-0.03683088
85	0x3db88dd6	0.09011428
86	0xbe0ab162	-0.13544229
87	0x3dcf2a2f	0.10115468
88	0xbe58658f	-0.21132492
89	0xbe0ddf92	-0.13854817
90	0x3da0782e	0.078354225
91	0xbda0476d	-0.078261234
92	0xbe5f2cd2	-0.21794441
93	0x3a86107a	0.0010228299
94	0xbd869252	-0.06570877
95	0xbdfeeba5	-0.124472894
96	0x3dc58bda	0.09645815
97	0xbdb11a5e	-0.08647607
98	0xbdfef8d4	-0.12449804
99	0x3df6e445	0.12055258
100	0x3de87cc8	0.11351925
101	0x3cbf6d6f	0.023367612
102	0xbd34ba9c	-0.044123277
103	0x3e312cdd	0.1730227
104	0xbdf12ab5	-0.11775724
105	0xbb993806	-0.004675868
106	0x3ea8ae46	0.3294546
107	0x3d8c49ed	0.06850038
108	0x3d4a8bf3	0.049449872
109	0xbc41f719	-0.011838698
110	0x3e761c22	0.2403417
111	0x3eba9a6e	0.36445946
112	0x3e4d3aea	0.20042005
113	0xbd430c8d	-0.04761939
114	0x3e5b3174	0.21405584
115	0x3e0109a7	0.12601338
116	0x3ba670b2	0.0050793523
117	0x3e07ac80	0.13249397
118	0x3e05b5cc	0.13057631
119	0xbdf80abf	-0.12111425
120	0x3d1c24ed	0.038121153
121	0x3dda942b	0.10672792
122	0x3e490f57	0.19634758
123	0x3e158ce9	0.14604534
124	0xbd097712	-0.03356082
125	0x3d42a7ec	0.047523424
126	0xbe41a1ed	-0.18909426
127	0xbe5c1a80	-0.21494484
128	0x3df8645a	0.121285155
129	0xbd54bfac	-0.051940605
130	0xbd5ff0e0	-0.054673076
131	0x3e3f6201	0.1868973
132	0x3dee3d1a	0.11632748
133	0xbe4ba602	-0.19887546
134	0x3e00a2a5	0.12562044
135	0xbe470bd6	-0.19438109
136	0x3d425584	0.047444835
137	0x3af7ca00	0.0018904805
138	0x3d0c7e94	0.0343004
139	0xbd95cf7c	-0.07314965
140	0x3e40d733	0.18832092
141	0xbe209a82	-0.1568394
142	0xbd4c4cdc	-0.049877986
143	0x3c53a000	0.012916565
144	0x3d1a68ac	0.03769748
145	0xbd31f5c4	-0.04344727
146	0xbd3f68f8	-0.046730965
147	0x3eb060a4	0.3444873
148	0x3e986c8c	0.29770315
149	0x3e94cbcd	0.29061738
150	0x3e03d2ca	0.12873378
151	0x3e35c4ca	0.1775085
152	0x3ecf935e	0.4054212
153	0x3ed48f9d	0.41515818
154	0x3e7b1ff3	0.24523906
155	0x3ecdd36c	0.40200365
156	0x3ea7ffc8	0.32812333
157	0x3eb87ad7	0.3603122
158	0x3b5ac6b9	0.0033382608
159	0x3dc79320	0.09744859
160	0x3d8c4da8	0.06850749
161	0xbda6fd04	-0.08153728
162	0xbe263cfd	-0.16234203
163	0x394fad71	0.0001980567
164	0x3e16249d	0.14662404
165	0xbe091acb	-0.13389127
166	0x3e3c8f3f	0.18414019
167	0xbd66db31	-0.05636138
168	0xbe018a0a	-0.12650314
169	0x3e21515a	0.1575369
170	0x3b5478a8	0.003242055
171	0x3e2927e3	0.16519122
172	0xbe1e6b40	-0.154706
173	0xbe3ea7df	-0.18618725
174	0xbe2ebf64	-0.17065197
175	0x3d9a1c50	0.075249314
176	0x3c4cdb2d	0.012503427
177	0x3e3a6c5e	0.18205401
178	0xbd037e6a	-0.03210298
179	0xbdd66f4a	-0.104704455
180	0xbdc6b081	-0.09701634
181	0xbe0fb531	-0.14033963
182	0xbc88bf28	-0.016692713
183	0xbe2e6cec	-0.17033738
184	0xbd6630cb	-0.056198876
185	0x3d2b602e	0.04183977
186	0x3dcc631b	0.0997984
187	0x3d286fd0	0.041122258
188	0x3e3363dc	0.17518562
189	0x3e62d742	0.22152427
190	0x3ec0a3db	0.37625012
191	0x3bc7edd0	0.0061013475
192	0x3d291ed0	0.04128915
193	0x3e353aeb	0.17698257
194	0x3df873db	0.12131473
195	0x3ed5b04d	0.4173607
196	0x3ea87060	0.32898235
197	0x3ecf2ae7	0.4046242
198	0x3efeda66	0.49776
199	0x3e11e845	0.1424876
200	0xbe355f1d	-0.17712064
201	0xbe3ee4aa	-0.18641916
202	0xbd8d89ce	-0.0691105
203	0x3e1e39f9	0.15451802
204	0x3d4bbd8b	0.04974131
205	0xbe603d4f	-0.21898387
206	0x3debca77	0.115132265
207	0x3d804bd6	0.062644646
208	0x3dcaca04	0.09901813
209	0x3e29dd20	0.16588259
210	0xbe526336	-0.20545658
211	0xbdc63bd0	-0.09679377
212	0x3db3d6aa	0.08781178
213	0x3e3a3d2f	0.18187402
214	0xbe58122a	-0.21100679
215	0x3d199684	0.03749706
216	0x3e5b6fed	0.21429415
217	0x3d43202c	0.047638103
218	0x3de9653e	0.113962635
219	0xbe0b6b42	-0.13615134
220	0xbe49c820	-0.19705248
221	0x3dd5398a	0.10411365
222	0xbe087832	-0.13327101
223	0xbe1571f6	-0.14594254
224	0x3cd7e958	0.026356384
225	0x3e530f23	0.20611243
226	0x3d6f42ac	0.058413193
227	0xbd12b260	-0.035814643
228	0xbc52a230	-0.012856051
229	0xbdc960c7	-0.09832912
230	0xbde0d52e	-0.10978161
231	0x3d2cdb91	0.042201582
232	0xbe280af2	-0.16410425
233	0xbe8c4cd9	-0.2740238
234	0xbe8d430b	-0.27590212
235	0xbe86d14a	-0.2633155
236	0xbe0a1e6b	-0.13488166
237	0xbe67145a	-0.22566357
238	0x3dc6e68d	0.09711943
239	0xbe61d0fd	-0.22052379
240	0xbdf7cb70	-0.120993495
241	0x3d931658	0.07181996
242	0x3e04b5f3	0.12960033
243	0x3e39b7e5	0.18136556
244	0xbdded916	-0.108812496
245	0x3c521954	0.0128234215
246	0x3e447a2b	0.19187228
247	0xbbca14e5	-0.0061670416
248	0xbe2fcdb8	-0.17168319
249	0x3e11a9e6	0.14224967
250	0x3ddbdca8	0.10735446
251	0x3e4ccf1e	0.20000884
252	0x3ef7eed3	0.48424396
253	0x3ebca83a	0.36847097
254	0x3e4d342e	0.20039436
255	0x3dd536bb	0.1041083

actor.lin1.bias f4 [32]
0	0x3e1d7d73	0.15379886
1	0x3c94d618	0.018168494
2	0x3d497098	0.049179643
3	0x3dc1f1a5	0.09469918
4	0x3e34f46c	0.17671365
5	0x3b88dc55	0.0041766562
6	0xbe1daff0	-0.15399146
7	0x3da8dd65	0.08245353
8	0xbd7a93ff	-0.061176296
9	0x3d807e9c	0.06274149
10	0xbd86b5d2	-0.06577648
11	0x3d2abcd5	0.04168399
12	0x3e2b1859	0.16708507
13	0x3dc00e36	0.093777105
14	0xbcf4bfb2	-0.029876564
15	0x3d10b5e4	0.035329714
16	0x3e26a605	0.16274269
17	0x3e636897	0.22207867
18	0x3e496daf	0.19670747
19	0x3e984ea9	0.29747513
20	0xbe457223	-0.19281821
21	0x3cbf93bb	0.023385873
22	0x3e2d7bc1	0.1694174
23	0x3e15f324	0.14643532
24	0xbc987498	-0.018610284
25	0xbd1d578f	-0.03841358
26	0xbd49727f	-0.049181458
27	0x3e6d5f89	0.23180975
28	0x3d48d769	0.049033556
29	0x3d40e6a4	0.047094956
30	0x3e688553	0.22707109
31	0xbe572d79	-0.2101344

actor.lin2.weight f4 [32, 32]
0	0xbdd718ca	-0.10502775
1	0x3e177bc1	0.14793302
2	0x3e92f0d6	0.28699368
3	0x3ea7a770	0.32744932
4	0xbe1e9d72	-0.15489748
5	0x3e1c1c67	0.1524521
6	0xbc6122e0	-0.013741225
7	0x3e9734ee	0.2953257
8	0xbe18fc9c	-0.14940113
9	0x3e54fb50	0.20798993
10	0x3d86d442	0.06583454
11	0x3c81beb7	0.01583801
12	0x3eabf29c	0.33583534
13	0x3ddc15de	0.10746358
14	0x3e943045	0.28943077
15	0x3ddf6811	0.10908521
16	0xbe1bb161	-0.15204383
17	0xbd0fc1a2	-0.035096772
18	0x3e1fe2b8	0.1561383
19	0x3ea0a060	0.31372356
20	0xbd159a02	-0.036523826
21	0x3e6cea45	0.23136242
22	0x3c800890	0.015629083
23	0x3e2fc7a1	0.17165996
24	0x3d00e9ac	0.031472847
25	0xbdc3875a	-0.09547301
26	0xbda2163c	-0.07914397
27	0x3e826488	0.25467324
28	0x3dd0aa1d	0.101886965
29	0x3d84b812	0.06480421
30	0x3e3fe1a6	0.18738422
31	0xbdce5b7c	-0.10076043
32	0xbdbb1ee5	-0.09136752
33	0xbe306adb	-0.17228262
34	0xbe09a6e6	-0.13442573
35	0xbd0f28c0	-0.03495097
36	0x3e27c27b	0.16382782
37	0xbd93d3ab	-0.07218107
38	0xbd27a090	-0.04092461
39	0xbe2ea0da	-0.17053548
40	0xbe2a1181	-0.1660824
41	0xbd6037c4	-0.054740682
42	0xbd76976c	-0.060203
43	0x3e0c1afb	0.13682167
44	0xbdd6ab30	-0.1048187
45	0xbdec9dc2	-0.115535274
46	0x3d2d0a74	0.042246297
47	0xbd397030	-0.045273006
48	0x3e323e75	0.17406638
49	0x3d952c0e	0.072837934
50	0xbc8538c8	-0.016262427
51	0x3c769c00	0.015051842
52	0xbe27ef48	-0.16399872
53	0x3d3bcf9c	0.04585229
54	0xbdeae62c	-0.11469683
55	0xbd92a9de	-0.07161306
56	0xbd0c7210	-0.034288466
57	0xbd85bb2f	-0.06529843
58	0xbc944680	-0.018100023
59	0xbd921919	-0.07133693
60	0x3ba00be0	0.004884228
61	0x3c645090	0.013935223
62	0xbcaeb428	-0.02132614
63	0x3dc46196	0.095889255
64	0xbd8b4154	-0.0679957
65	0xbd33030b	-0.043704074
66	0xbc26717e	-0.010158895
67	0x3c90ac15	0.01766018
68	0xbc228439	-0.00991922
69	0x3e2fa71c	0.17153591
70	0x3e190a71	0.1494539
71	0xbe18627e	-0.14881322
72	0xbe1acbb9	-0.15116777
73	0xbde62252	-0.11237015
74	0xbd4e8988	-0.05042413
75	0x3e0f0469	0.13966526
76	0xbd500c10	-0.050792754
77	0xbdbcb4d7	-0.0921418
78	0xbca91960	-0.020641983
79	0x3d972101	0.07379342
80	0xbc246095	-0.010032793
81	0x3d089fc1	0.03335548
82	0x3de89154	0.11355844
83	0xbddb0726	-0.10694723
84	0xbdf73130	-0.12069929
85	0xbe0d6e85	-0.13811691
86	0xbd6c7c12	-0.05773551
87	0x3dd84304	0.10559657
88	0x3d2aa844	0.041664377
89	0xbdb45739	-0.08805699
90	0xbdf2e073	-0.118592165
91	0x3de75d5f	0.11297106
92	0xbc31b6ef	-0.010846837
93	0x3d9a7eae	0.075436935
94	0xbd8bf1f0	-0.06833255
95	0x3da2de26	0.07952528
96	0xbe191ca5	-0.14952333
97	0x3e6ef2d7	0.23334824
98	0x3db49087	0.08816629
99	0x3dda2979	0.106524415
100	0x3e1692fd	0.14704509
101	0x3e48d2fa	0.19611731
102	0x3d0fc900	0.035103798
103	0x3e2ec22e	0.17066261
104	0xbda51a02	-0.08061601
105	0x3e05eaf3	0.13077907
106	0x3aa37400	0.0012470484
107	0xbdb1273a	-0.0865006
108	0x3e2b70a9	0.16742195
109	0xbe31e465	-0.17372282
110	0x3ae0e1d0	0.0017157141
111	0x3d001381	0.0312686
112	0x3dee28cf	0.11628877
113	0x3e0c6047	0.13708602
114	0x3d8c546f	0.06852042
115	0x3ea1c458	0.3159511
116	0xbdf48c8e	-0.11940871
117	0x3e51082f	0.20413278
118	0x3c961688	0.01832129
119	0x3e2edc33	0.17076187
120	0x3d11efe0	0.035629153
121	0xbe27c8b8	-0.16385162
122	0x3de23a55	0.11046282
123	0x3e6d477f	0.23171805
124	0xbdc57b69	-0.09642679
125	0xbdc80f06	-0.097684905
126	0x3de35f26	0.111021325
127	0x3e327195	0.1742614
128	0xbe137a98	-0.14402235
129	0xbe32fc9c	-0.17479175
130	0x3d63cc53	0.05561478
131	0x3e192e8b	0.14959161
132	0x3df92026	0.12164335
133	0xbb833731	-0.004004382
134	0x3d810f82	0.06301786
135	0xbdb542dc	-0.08850643
136	0xbc938508	-0.01800777
137	0x3d90c786	0.07069306
138	0xbd4cec78	-0.0500302
139	0xbd4778e3	-0.04869927
140	0xbd0f1494	-0.034931734
141	0xbd88d2ab	-0.06680807
142	0x3d7fbc0c	0.062435195
143	0xbc0868f6	-0.008325806
144	0x3dd4ac22	0.10384394
145	0xbca2c5e1	-0.019869747
146	0x3ded7b9f	0.115958445
147	0xbdddb4d4	-0.10825506
148	0xbd3b05d4	-0.045659855
149	0x3dfeeee8	0.124479115
150	0x3b842240	0.004032403
151	0xbe22fa73	-0.15915851
152	0x3db9b386	0.090674445
153	0xbe14170a	-0.14461914
154	0xbdae34df	-0.08506178
155	0x3dda0fe5	0.10647563
156	0x3e17bca5	0.14818056
157	0xbe14e8d5	-0.14541943
158	0xbe3c7eb4	-0.18407708
159	0xbcad0f98	-0.0211256
160	0xbdfd58f0	-0.12370479
161	0x3e86d59b	0.26334843
162	0x3e36d7be	0.17855737
163	0x3eb72ef4	0.3577801
164	0xbdb17e74	-0.08666697
165	0x3e4d5b47	0.20054351
166	0xbd8a1e55	-0.067440666
167	0x3ebfb313	0.3744131
168	0xbe05eb47	-0.13078032
169	0x3e22a707	0.15884028
170	0xbe0c54a2	-0.1370416
171	0xbe3436df	-0.17599057
172	0x3e904598	0.28178096
173	0xbd83f891	-0.06443895
174	0x3e0b054c	0.1357624
175	0x3e94af95	0.29040208
176	0xbe15b860	-0.14621115
177	0x3e5277a3	0.2055345
178	0xbd84c78d	-0.06483374
179	0x3e344b54	0.1760686
180	0x3d81cf03	0.063383125
181	0x3e50c2ac	0.20386761
182	0xbdfd065c	-0.123547286
183	0x3da53b13	0.08067908
184	0xbe25dd5d	-0.16197725
185	0x3d2e224a	0.04251317
186	0xbe152fef	-0.14569066
187	0x3c980dae	0.01856121
188	0xbe2efc1c	-0.1708836
189	0x3db4f10e	0.0883504
190	0x3e9dd426	0.3082592
191	0xbdef9797	-0.11698835
192	0xbe0e1ec8	-0.1387893
193	0xbe364bd6	-0.17802367
194	0xba80b7e9	-0.0009820434
195	0x3c250474	0.0100718625
196	0xbe015d88	-0.12633336
197	0xbd7e2e2b	-0.062055748
198	0xbe2cf04f	-0.16888545
199	0xbe35e481	-0.17762949
200	0xbca0d798	-0.019634053
201	0x3d3a0ca5	0.045422215
202	0xbd80ef61	-0.06295658
203	0x3dd95a10	0.10612881
204	0x3df01c4b	0.117241465
205	0x3d534a48	0.051584512
206	0x3cf3ccae	0.029760685
207	0xbcb39b92	-0.021924768
208	0x3c5b8f42	0.013400855
209	0xbe373347	-0.17890655
210	0x3e1d43b9	0.15357865
211	0xbe39f71f	-0.18160675
212	0xbd8923e8	-0.06696302
213	0x3da0e74c	0.078566164
214	0x3e12b933	0.1432846
215	0xbe2b8852	-0.16751221
216	0xbd5c7f74	-0.053832486
217	0x3e27fe77	0.16405664
218	0xbe42e9f3	-0.19034557
219	0x3dc4560e	0.09586726
220	0x3d7efc30	0.062252223
221	0x3d74fae4	0.05980958
222	0xbe1b0071	-0.15136887
223	0xbe09cba0	-0.13456583
224	0x3e0352f4	0.12824613
225	0x3e52b229	0.20575775
226	0x3dd80e1d	0.10549567
227	0x3ebeaa8c	0.37239492
228	0x3e0fa340	0.14027119
229	0x3e2a83a9	0.16651787
230	0x3dc3a702	0.095533386
231	0x3ea1f143	0.3162938
232	0x3e2e8a4d	0.17044945
233	0x3e121867	0.14267121
234	0xbe2bd5d0	-0.16780782
235	0xbe12eabd	-0.14347358
236	0x3e342c4d	0.17595024
237	0x3e0368ff	0.12833022
238	0xbd8a80ec	-0.06762871
239	0x3e721b62	0.23643258
240	0x3def9a61	0.11699367
241	0x3e75480a	0.23953262
242	0x3d06dbd1	0.032924477
243	0x3e594bb3	0.21220283
244	0xbd8b0c32	-0.067894354
245	0x3e84c35c	0.25930297
246	0xbc994ff8	-0.01871489
247	0x3e0603f3	0.13087444
248	0xbe02d2bb	-0.127757
249	0x3da55922	0.08073641
250	0xbde4ba6d	-0.111683704
251	0x3e688b10	0.22709298
252	0xbc96b0d4	-0.018394865
253	0x3d960b76	0.07326405
254	0x3e84babd	0.2592372
255	0x3d9d7ac2	0.0768943

actor.lin2.bias f4 [32]
0	0xbd46d552	-0.04854328
1	0xbb4f1040	-0.003159538
2	0xbdda4cbe	-0.10659169
3	0x3e6f3e98	0.23363721
4	0xbe2b1565	-0.1670738
5	0x3e844a16	0.25837773
6	0xbd85411b	-0.065065585
7	0x3e5750ad	0.21026869
8	0x3d59f98e	0.05321651
9	0xbdbb1ed5	-0.0913674
10	0xbdb20500	-0.0869236
11	0x3df4b82a	0.11949189
12	0x3d242379	0.04007289
13	0x3daf0e52	0.08547653
14	0x3e241782	0.16024593
15	0x3e5ceae3	0.21573977
16	0x3d83ed97	0.06441801
17	0x3e30b8aa	0.17257944
18	0x3dc33106	0.09530835
19	0xbc73e06f	-0.014885052
20	0x3e5ec2a8	0.21753943
21	0x399277ee	0.00027936645
22	0xbc28a904	-0.010294203
23	0x3e0e3598	0.13887632
24	0xbdd1a6b5	-0.10236875
25	0x3d74baa9	0.059748325
26	0xbd65d98e	-0.05611568
27	0x3e0cb9d5	0.13742764
28	0xba92e900	-0.0011208355
29	0x3d8bd856	0.06828372
30	0x3df99ad3	0.121877335
31	0xbb53c448	-0.0032313038

actor.lin3.weight f4 [1, 32]
0	0x3eb16d3e	0.34653658
1	0x3e19e0c7	0.15027152
2	0xbe0c7a62	-0.1371856
3	0x3e42f1a3	0.1903749
4	0xbd0ce057	-0.034393635
5	0x3e7d5954	0.24741107
6	0x3bad5819	0.005290043
7	0x3ea60051	0.32422116
8	0xbe139eb0	-0.14416003
9	0xbdc50066	-0.096192166
10	0x3e98749d	0.2977647
11	0xbdbc775a	-0.09202452
12	0x3ecb3ced	0.3969492
13	0x3d8351ab	0.06412061
14	0x3e5230cf	0.20526432
15	0x3e59617a	0.2122859
16	0xbe0416e7	-0.12899362
17	0xbc4b75d1	-0.012418226
18	0x3e8a6c0d	0.2703556
19	0xbdbc7c62	-0.09203412
20	0x3e8b6d57	0.27231857
21	0xbcc23a94	-0.023709573
22	0xbdd86542	-0.105661884
23	0xbdc44977	-0.09584325
24	0xbdb96724	-0.09052876
25	0xbc746361	-0.014916272
26	0x3e8e1700	0.27751923
27	0x3ea609ff	0.324295
28	0xbd6d15e4	-0.057882205
29	0x3ebc4cfe	0.3677749
30	0x3e706f4d	0.23479958
31	0x3ec6ad38	0.3880403

actor.lin4.weight f4 [32, 32]
0	0xbd8efe55	-0.06982104
1	0xbe1fd675	-0.15609153
2	0xbc948c15	-0.018133203
3	0xbe4bb6cc	-0.1989395
4	0x3dc5ae64	0.09652403
5	0xbdadd278	-0.08487409
6	0x3e09fd15	0.1347545
7	0xbd4b656d	-0.049657274
8	0x3e0f7a4b	0.14011495
9	0x3dd15fa0	0.10223317
10	0xbe1664cb	-0.14686887
11	0x3cfa656c	0.03056594
12	0xbe2d358d	-0.16914959
13	0xbd9e1451	-0.07718719
14	0xbdadb469	-0.08481676
15	0xbd9fdbd0	-0.07805598
16	0x3dc998e2	0.09843613
17	0x3d8556b6	0.065106794
18	0x3d8a7fea	0.06762679
19	0xbe0393a5	-0.1284929
20	0x3e0b86cf	0.13625644
21	0x3e124236	0.1428307
22	0x3d15b2f0	0.0365476
23	0x3d56f231	0.052477065
24	0x3e054661	0.13015129
25	0x3d4d0a97	0.050058927
26	0xbd0e9bdd	-0.03481661
27	0xbc46e448	-0.012139387
28	0xbe2380f8	-0.15967166
29	0xbdc54265	-0.096318044
30	0x3e0a5a00	0.13510895
31	0xbddb5e39	-0.10711331
32	0xbd1b1695	-0.037863333
33	0x3defa6c4	0.1170173
34	0x3d3f0658	0.04663691
35	0xbde37f29	-0.11108238
36	0x3d9b5c6d	0.07585988
37	0x3cf5354e	0.029932644
38	0xbd8f987b	-0.07011505
39	0xbe1a94e6	-0.15095863
40	0xbe03ed02	-0.1288338
41	0xbd63e629	-0.05563942
42	0x3d413004	0.047164932
43	0xbdea8de3	-0.11452844
44	0x3da4a2c5	0.08038858
45	0x3dd22302	0.102605835
46	0xbddf9a09	-0.10918052
47	0x3da96663	0.08271482
48	0xbe099bb8	-0.13438308
49	0x3e1a2903	0.15054707
50	0x3e2a8723	0.16653113
51	0x3da3582c	0.07975802
52	0xbe0919da	-0.13388768
53	0x39d4844c	0.0004053436
54	0x3e07037b	0.13184921
55	0xbdbc6d29	-0.09200508
56	0xbd48c3d4	-0.04901488
57	0xbddad4f5	-0.106851496
58	0xbdd53d1d	-0.10412047
59	0x3d4972d6	0.04918178
60	0x3e174b9f	0.14774941
61	0x3da15502	0.07877542
62	0xbe139356	-0.14411673
63	0x3d044d50	0.032300293
64	0xbdb0dea7	-0.086362176
65	0x3d206f54	0.03916867
66	0x3dde3afa	0.10851093
67	0xbcdbc8e0	-0.026829183
68	0x3e280e05	0.16411598
69	0x3dab138e	0.08353339
70	0xbd3004c0	-0.04297328
71	0xbddc8482	-0.10767461
72	0x3dfffdb6	0.124995634
73	0x3d677e70	0.056517065
74	0xbdd6a3a7	-0.10480433
75	0x3ddc54c6	0.10758357
76	0x3df940d2	0.121705666
77	0x3be8b940	0.0071021616
78	0xbe275a0d	-0.16342945
79	0xbce37e90	-0.02777031
80	0xbe15bf68	-0.14623797
81	0xbe168511	-0.14699198
82	0x3cf92d38	0.03041707
83	0xbcdb1500	-0.026743412
84	0xbdbe72b1	-0.092992194
85	0x3e27a93d	0.16373153
86	0xbd040c04	-0.03223802
87	0xbdf38e82	-0.118924156
88	0x3e2b8b25	0.16752298
89	0x3e0dab1b	0.13834803
90	0x3d3b64f8	0.04575059
91	0xbe29054d	-0.16505928
92	0x3e1bdb89	0.15220465
93	0xbded4d36	-0.115869924
94	0x3d2f1f04	0.04275419
95	0xbd098c08	-0.03358081
96	0xbdef66dc	-0.11689541
97	0x3c2c3866	0.010511493
98	0x3d805718	0.06266612
99	0xbe0fd8fe	-0.1404762
100	0xbdf79d8a	-0.12090595
101	0xbd61e07a	-0.05514572
102	0xbe2722d5	-0.16321881
103	0x3d9df3fc	0.07712552
104	0xbe2cb08e	-0.16864225
105	0x3db72d33	0.08944168
106	0x3d215a28	0.03939262
107	0xbd03d2da	-0.032183506
108	0x3b92c18c	0.004478639
109	0xbe0cbb0c	-0.13743228
110	0xbc5da090	-0.013527051
111	0x3ddda496	0.10822408
112	0xbcd91597	-0.026499553
113	0x3d421afc	0.047389016
114	0xbdf64362	-0.12024571
115	0x3dd953ea	0.106117085
116	0xbd745581	-0.059651855
117	0x3d0a4a4f	0.033762272
118	0xbdc614d0	-0.096719384
119	0xbe066404	-0.1312409
120	0x3e2241a7	0.15845357
121	0xbd3d6030	-0.04623431
122	0xbddb5147	-0.10708862
123	0xbe4d39c1	-0.20041563
124	0x3e12e0b3	0.14343528
125	0x3d679170	0.056535184
126	0xbd4d810e	-0.050171904
127	0x3dcd1e56	0.10015552
128	0xbd516bcc	-0.051128194
129	0xbe0577ce	-0.13033983
130	0x3d3c0b31	0.04590911
131	0xbd4042d6	-0.04693874
132	0xbd1bb290	-0.038012087
133	0xbe1b4dcc	-0.15166396
134	0xbd68171c	-0.056662664
135	0xbd632268	-0.055452734
136	0x3e2c25f1	0.16811348
137	0xbd798d15	-0.060925562
138	0xbdffbfe6	-0.124877736
139	0x3de1f60b	0.11033257
140	0xbe090208	-0.13379681
141	0xbe044ec0	-0.12920666
142	0x3e2c26c9	0.1681167
143	0xbd5af0da	-0.05345235
144	0x3d137320	0.035998464
145	0xbcd00b1f	-0.025395928
146	0xbc49a18c	-0.012306582
147	0x3ce85935	0.02836285
148	0x3db6be10	0.0892297
149	0xbc299974	-0.0103515275
150	0x3cba5780	0.022746801
151	0xbdc8ee3c	-0.098110646
152	0xbda98e69	-0.08279116
153	0x3d808da4	0.06277016
154	0x3dd3ddd8	0.10345048
155	0x3d27703e	0.040878527
156	0xbdd203c7	-0.10254627
157	0x3cb583c0	0.02215755
158	0x3e32bcd3	0.17454843
159	0x3d5ce36c	0.053927824
160	0xbe1614d3	-0.14656381
161	0xbe2b4ed3	-0.16729288
162	0x3c3f0d16	0.011660835
163	0x3d74dd96	0.059781633
164	0x3c1febe0	0.009760827
165	0x3dcf89a6	0.10133676
166	0xbce3d368	-0.027810767
167	0xbe21a4a4	-0.15785462
168	0xbc2a97d0	-0.0104121715
169	0xbce75a4e	-0.028241303
170	0xbabbde00	-0.0014333129
171	0xbdda0672	-0.106457606
172	0x3db75d9f	0.08953404
173	0x3e247bb1	0.1606281
174	0xbdb3909f	-0.08767819
175	0xbd95e917	-0.07319849
176	0xbd3b1f20	-0.04568398
177	0xbe4d0c23	-0.20024161
178	0x3d2c80c8	0.042115003
179	0x3d93a21e	0.07208656
180	0xbd4c2cb0	-0.049847305
181	0x3e08702c	0.1332404
182	0xbbbaa9c0	-0.0056965053
183	0xbe5059f3	-0.20346813
184	0xbe10f61d	-0.14156385
185	0xbdf78250	-0.12085402
186	0x3e0cedad	0.13762541
187	0xbd16b536	-0.03679391
188	0xbe279066	-0.16363677
189	0xbe2c6d46	-0.1683856
190	0x3d903159	0.07040662
191	0xbd963570	-0.07334411
192	0x3e0912f1	0.13386132
193	0x3df29e78	0.11846632
194	0xbe396411	-0.18104579
195	0x3d291d71	0.041287843
196	0xbd9c2c72	-0.07625665
197	0x3cf78bc7	0.030218018
198	0x3d15dc58	0.03658709
199	0xbe396728	-0.18105757
200	0xbe296171	-0.16541077
201	0xbd55176a	-0.052024283
202	0x3e1b52cb	0.15168302
203	0xbb630133	-0.0034638166
204	0xbdb742d5	-0.08948294
205	0x3e25eaef	0.16202901
206	0x3df35d5f	0.118830435
207	0x3dd0fa1b	0.10203954
208	0xbcf390c7	-0.029732121
209	0xbe20c030	-0.15698314
210	0xbe3b4160	-0.18286657
211	0x3d5e46c2	0.0542667
212	0xbe049e3d	-0.12950988
213	0x3d37c2c5	0.04486348
214	0xbd50bcdc	-0.05096136
215	0x3d96c64c	0.07362041
216	0x3e207e79	0.15673245
217	0xbe13665c	-0.14394516
218	0x3d30a755	0.04312833
219	0x3ca26129	0.01982172
220	0xbc69395b	-0.014234866
221	0xbd9fab1d	-0.07796309
222	0xbdd68a92	-0.10475649
223	0x3dfc99d6	0.123340294
224	0x3e28eb55	0.16496022
225	0x3c99ce70	0.018775195
226	0xbdc391db	-0.09549304
227	0xbde3d5a6	-0.111247346
228	0x3dd1d312	0.102453366
229	0x3d9a7896	0.07542531
230	0x3dec257e	0.115305886
231	0x3b3ec340	0.0029108077
232	0xbe212b92	-0.15739277
233	0xbd917cf3	-0.0710391
234	0xbcba8e28	-0.022772864
235	0xbe1bf91c	-0.15231746
236	0xbe0c544a	-0.13704029
237	0xbdeed918	-0.11662501
238	0xbe152bfc	-0.1456756
239	0xbd1d6f3c	-0.03843616
240	0x3d41ef00	0.04734707
241	0x3d8f4b24	0.06996754
242	0x3d031080	0.031998158
243	0x3d8c4552	0.06849159
244	0xbe350036	-0.17675862
245	0xbcfb5408	-0.030679718
246	0xbb5935c0	-0.003314361
247	0xbcc8f098	-0.024528787
248	0xbd946c15	-0.072471775
249	0x3da7b1a2	0.08188178
250	0xbd3c61ac	-0.045991585
251	0xbd9b8c60	-0.07595134
252	0x3ddf9bba	0.10918374
253	0xbd892864	-0.06697157
254	0xbcc023c0	-0.023454547
255	0xbb3c3b40	-0.002872184

actor.lin4.bias f4 [32]
0	0xbe2398fe	-0.1597633
1	0xbdc82690	-0.0977298
2	0xbdc9766f	-0.098370425
3	0xbe1d2627	-0.15346585
4	0xbda91bac	-0.08257231
5	0xbe0b2d9a	-0.13591614
6	0x3c139de1	0.009009809
7	0xbd745600	-0.05965233
8	0xbe317030	-0.17327952
9	0xbe1c8e10	-0.15288568
10	0xbdd8452b	-0.10560068
11	0xbd02b34b	-0.03190927
12	0x3d997935	0.074938215
13	0xbe5ae1f5	-0.21375258
14	0x3e0fe870	0.14053512
15	0xbdd603ed	-0.104499675
16	0x3da3f53a	0.08005758
17	0xbc7cfbdd	-0.015440908
18	0xbdad7abe	-0.08470677
19	0x3d946dfe	0.07247542
20	0xbc33f4b1	-0.010983632
21	0xbe001eb2	-0.1251171
22	0x3e01f30a	0.12690368
23	0xbd75dcfb	-0.060025197
24	0xbe28c83c	-0.16482633
25	0x3d8e5a55	0.06950823
26	0xbe1f247e	-0.15541264
27	0x3dc5ade4	0.09652308
28	0x3df57f40	0.11987162
29	0x3d4fbaf4	0.0507154
30	0xbe290a98	-0.16507947
31	0x3cd5a1d9	0.026078152

actor.bilin.weight f4 [16, 32, 32]
0	0x3e1d90c8	0.15387261
1	0xbd73344b	-0.059376042
2	0x3d1068a4	0.035256043
3	0xbdb27a21	-0.087147005
4	0x3da1a392	0.07892527
5	0x3c84d300	0.016213894
6	0x3da10c16	0.07863633
7	0xbdd7796f	-0.105212085
8	0x3e27b5b6	0.16377911
9	0x3da69103	0.081331275
10	0xbe0e5a2c	-0.13901585
11	0x3d8a4c87	0.06752878
12	0x3d81e426	0.06342344
13	0xbe142281	-0.14466287
14	0xbe2ffcdd	-0.17186303
15	0xbcf90938	-0.030399904
16	0x3ae2c980	0.0017302483
17	0x3d9a69b2	0.07539691
18	0xbe391970	-0.1807611
19	0x3e0a17e7	0.1348568
20	0x3da6b4c0	0.08139944
21	0xbe050a05	-0.12992103
22	0xbe00261e	-0.1251454
23	0x3df40308	0.11914641
24	0xbe174173	-0.1477106
25	0xbca9d059	-0.02072923
26	0xbdc24c93	-0.094872616
27	0xbe2056ee	-0.15658161
28	0xbdd76585	-0.1051741
29	0x3d25fb54	0.04052289
30	0xbdb9d757	-0.09074276
31	0x3e013763	0.12618785
32	0xbd9e34f9	-0.077249475
33	0x3e1f3aef	0.15549825
34	0x3d898494	0.067147404
35	0x3e28a6ad	0.16469832
36	0x3e1fcab2	0.15604666
37	0xbd715160	-0.058915496
38	0xbe0a7413	-0.13520841
39	0x3d4f5afc	0.05062388
40	0x3e1b9b8b	0.15196054
41	0xbca4307f	-0.020042656
42	0xbb886600	-0.00416255
43	0x3e33fb02	0.1757622
44	0x3d39dede	0.04537856
45	0xbd87b203	-0.0662575
46	0xbd91e43a	-0.07123609
47	0x3c5237a0	0.012830645
48	0xbd667c10	-0.05627066
49	0xbbc1544a	-0.0058999406
50	0x3d118a5d	0.035532344
51	0x3df54856	0.119766876
52	0xbcf45e21	-0.02983004
53	0xbde0aecc	-0.1097084
54	0x3e5ea24a	0.21741596
55	0x3d1e5ceb	0.038662832
56	0x3bfa0218	0.007629644
57	0x3df81420	0.121132135
58	0x3df771d2	0.120822564
59	0xbe120a86	-0.14261827
60	0x3dfe4997	0.1241638
61	0xbd355eb4	-0.04427977
62	0xbc80cd38	-0.015722856
63	0xbe0999a1	-0.13437511
64	0xbe2982c3	-0.16553788
65	0xbe1fb633	-0.15596847
66	0xbe1b8240	-0.15186405
67	0xbe059a0b	-0.13047044
68	0x3ba72a80	0.005101502
69	0x3e284857	0.16433845
70	0x3db31a82	0.0874529
71	0xbdde5ed9	-0.108579345
72	0xbde96da9	-0.11397869
73	0x3e0527c9	0.13003458
74	0x3d38b830	0.04509753
75	0xbd7bab04	-0.06144239
76	0xbd06d6f0	-0.032919824
77	0x3de7f1ce	0.113254175
78	0x3de69ede	0.1126077
79	0xbdd482bb	-0.10376497
80	0xbe00674c	-0.12539405
81	0xba668d00	-0.00087948143
82	0xbcab7318	-0.020928904
83	0xbe192047	-0.14953719
84	0xbdf5a690	-0.1199466
85	0x3d7ed7d0	0.062217534
86	0x3e063df1	0.13109566
87	0xbe1c5360	-0.1526618
88	0x3d655854	0.05599244
89	0xbd2d20f0	-0.04226774
90	0xbdf5a99c	-0.11995241
91	0xbd4363e4	-0.047702685
92	0xbe089705	-0.1333886
93	0xbe2e0ad6	-0.16996321
94	0x3e282eaf	0.16424058
95	0x3d6266e4	0.055273905
96	0x3db78367	0.0896061
97	0x3e271ff9	0.1632079
98	0xbd8fe88a	-0.07026775
99	0xbdbb5f66	-0.09149055
100	0x3d95e4d4	0.07319036
101	0x3d5072ec	0.050890848
102	0xbd34e766	-0.04416599
103	0xbcbba550	-0.022905976
104	0x3e1f1efa	0.1553916
105	0x3e16df73	0.14733677
106	0x3c45c3d0	0.012070611
107	0xbdb36d57	-0.08761089
108	0xbe0958e8	-0.13412821
109	0x3cf11ba2	0.029432122
110	0xbe2c7fd7	-0.16845642
111	0xbbc5b060	-0.0060329884
112	0xbd829b91	-0.06377328
113	0xbe01e87a	-0.12686339
114	0x3e2b5b4a	0.16734043
115	0x3e1a456f	0.1506555
116	0xbe1684b6	-0.14699063
117	0xbe20ba4c	-0.15696067
118	0x3d74101b	0.059585672
119	0xbdac794c	-0.08421573
120	0xbdd54d05	-0.10415081
121	0xbe2a9a0b	-0.16660325
122	0x3da7c186	0.081912085
123	0xbd8a8a50	-0.06764662
124	0xbde9b44a	-0.114113405
125	0xbe0281a0	-0.1274476
126	0x3e28fe84	0.1650334
127	0x3c4b0f16	0.0123937335
128	0x3c194330	0.009354398
129	0x3deae525	0.11469487
130	0x3c97b798	0.018520162
131	0x3c3465a8	0.011010565
132	0x3e0218ab	0.12704723
133	0xbd5b7fbe	-0.05358862
134	0x3d8c6bb5	0.06856481
135	0xbd9d2825	-0.076736726
136	0x3d33ac88	0.04386571
137	0xbc97a193	-0.018509662
138	0x3bcf3720	0.00632371
139	0xbd799051	-0.060928646
140	0x3cd20360	0.025636375
141	0x3c959191	0.018257888
142	0xbdbca9c6	-0.09212069
143	0x3df28526	0.11841802
144	0x3dea6412	0.11444868
145	0x3e0cf534	0.13765413
146	0xbcf9dcde	-0.030500825
147	0xbe15e188	-0.14636815
148	0x3d9629ab	0.07332166
149	0x3e2937e0	0.16525221
150	0xbc4e1454	-0.012578089
151	0xbdf2c2c5	-0.118535556
152	0x3e2d7cc2	0.16942123
153	0xbdadff20	-0.08495927
154	0x3d63a9a8	0.05558172
155	0x3db8a738	0.090162694
156	0x3b90df0a	0.0044211196
157	0xbd4a0958	-0.049325317
158	0x3d619d6d	0.055081774
159	0xbdd27e79	-0.10278029
160	0x3df10782	0.1176901
161	0xbe00ddb5	-0.12584575
162	0xbdfd19e5	-0.123584546
163	0x3d1518d8	0.036400646
164	0xbde08b5a	-0.10964079
165	0xbe215a76	-0.15757164
166	0xbc6fff60	-0.0146482885
167	0x3de085d2	0.10963024
168	0xbe163df2	-0.14672068
169	0x3d7da551	0.061925236
170	0x3d0093a0	0.031390786
171	0x3e0a284f	0.13491939
172	0x3dc13df2	0.09435643
173	0x3e0869ed	0.13321657
174	0x3e35007b	0.17675965
175	0xbca341e8	-0.019928887
176	0xbd7c71d4	-0.061631992
177	0xbd854496	-0.06507222
178	0xbde1355d	-0.10996506
179	0x3e1e154b	0.1543781
180	0xbd98ea5c	-0.074665755
181	0x3d270988	0.040780574
182	0xbe14355b	-0.14473478
183	0xbe092117	-0.13391529
184	0x3ddc78c6	0.10765223
185	0x3e1cd0fd	0.15314098
186	0xbe04aed7	-0.12957321
187	0xbe2b2545	-0.16713436
188	0x3cbe2d30	0.023214906
189	0x3e192d35	0.14958651
190	0xbe2bf272	-0.16791704
191	0x3cea45a8	0.028597668
192	0x3e14492b	0.14481036
193	0x3d092cc2	0.03348995
194	0x3d5fac90	0.054607928
195	0x3cc2e8dd	0.023792678
196	0x3d7c05a2	0.06152881
197	0x3dcb65ca	0.09931524
198	0x3e524f04	0.20537955
199	0x3e2627a7	0.16226064
200	0xbcd338f5	-0.025783995
201	0xbd10d588	-0.03535989
202	0xbc1c34a0	-0.009534031
203	0x3e3ac625	0.18239649
204	0xbe110cea	-0.14165083
205	0x3b6cce08	0.0036133546
206	0x3d8196df	0.063276045
207	0x3d382cbc	0.044964537
208	0xbd1f331c	-0.0388671
209	0x3e2c77a9	0.16842522
210	0x3d8b6699	0.06806678
211	0x3e045769	0.1292397
212	0xbdc32ecb	-0.095304094
213	0xbd6641c0	-0.056215048
214	0x3dd7beb7	0.10534423
215	0xbdb9d3ab	-0.090735756
216	0x3e48980a	0.19589248
217	0x3e2bd484	0.16780287
218	0x3d953096	0.07284658
219	0x3e0d8b13	0.13822584
220	0x3e237a3d	0.15964599
221	0xbdff421c	-0.12463781
222	0xbdce1c9e	-0.10064052
223	0x3d8aaa9f	0.06770825
224	0xbe05d984	-0.13071257
225	0x3d357384	0.044299617
226	0x3cc55b88	0.024091497
227	0xbe0dc906	-0.13846216
228	0x3d09d1b8	0.03364727
229	0x3dfede56	0.12444751
230	0xbe32f8de	-0.17477748
231	0xbcb1e348	-0.021714821
232	0x3d3251bc	0.04353498
233	0x3da031c6	0.078219935
234	0xbdc494fd	-0.0959873
235	0x3dc0c80e	0.094131574
236	0xbcc0c1a0	-0.023529828
237	0x3dd19262	0.102329984
238	0xbe303d7a	-0.17210951
239	0xbb232980	-0.0024896562
240	0x3dbd15fa	0.09232707
241	0xbddbd055	-0.107330956
242	0x3d147534	0.036244586
243	0xbdac4e48	-0.084133685
244	0x3da4287a	0.08015533
245	0xbddc55d4	-0.10758558
246	0x3ddc75a2	0.10764624
247	0xbd892cec	-0.06698021
248	0xbd2a6438	-0.041599482
249	0xbd3bdbd0	-0.045863926
250	0xbe10d411	-0.14143397
251	0x3e0ab637	0.13546072
252	0xbd236d50	-0.03989917
253	0x3e059aeb	0.13047378
254	0x3e13c7b9	0.14431657
255	0xbd7c871a	-0.06165228

actor.bilin.bias f4 [16]
0	0xbd93c3ed	-0.07215104
1	0xbd24e4ae	-0.04025715
2	0x3d51bfd4	0.051208332
3	0xbc80f3cc	-0.015741251
4	0x3e47851e	0.19484374
5	0xbdbd7e66	-0.09252624
6	0x3dd2964c	0.10282573
7	0x3c4db72c	0.012555879
8	0x3d918830	0.07106054
9	0x3e3d7647	0.1850215
10	0xbd10a35c	-0.03531204
11	0x3e35129a	0.17682877
12	0xbdc4e885	-0.09614662
13	0xbe498ec4	-0.19683367
14	0xbd2c07ac	-0.041999504
15	0x3d703f43	0.05865408

critic.conv1.bias f4 [21]
0	0xbe284fb7	-0.16436659
1	0x00000000	0.0
2	0x3eb162ab	0.3464559
3	0x00000000	0.0
4	0xbe7f5c0a	-0.24937454
5	0x3e860a63	0.261798
6	0xbe90040a	-0.28128082
7	0x00000000	0.0
8	0xbd4a18fb	-0.04934023
9	0x3e83e558	0.25760913
10	0x00000000	0.0
11	0x3e3df5f3	0.18550853
12	0xbe4a420d	-0.19751759
13	0xbe5240b9	-0.20532502
14	0x3e493ee2	0.19652894
15	0x3e4e35d3	0.2013772
16	0xbe660dc3	-0.22466187
17	0x3eb471fb	0.3524321
18	0xbe595923	-0.21225409
19	0xbeb22352	-0.34792572
20	0xbe910f20	-0.28331852

critic.conv1.lin.weight f4 [21, 21]
0	0x3eaafea2	0.33397394
1	0x3ebe9609	0.37223843
2	0x3ea903e1	0.33010772
3	0xbd9adc9f	-0.075616114
4	0x3e67c964	0.22635418
5	0x3e099f2f	0.1343963
6	0x3dad1cbd	0.08452747
7	0x3ed6d0e4	0.41956246
8	0x3aaabae3	0.0013025667
9	0x3edaa697	0.42705223
10	0x3eb3a527	0.3508694
11	0xbeb84244	-0.35988057
12	0xbe334b8c	-0.17509288
13	0x3de84ca2	0.113427415
14	0xbeb6bf93	-0.35693035
15	0xbe84aeb3	-0.25914535
16	0xbe315dcb	-0.17320935
17	0x3e766bd6	0.24064574
18	0x3e8761e2	0.26441866
19	0xbdc0c888	-0.09413248
20	0x3e219d86	0.15782747
21	0x3e711076	0.23541436
22	0xbcecfd90	-0.028929502
23	0xbe13d58c	-0.1443693
24	0x3d312a00	0.043252945
25	0xbea9dc74	-0.33176005
26	0xbe9b0d0e	-0.30283397
27	0x3b1e7780	0.0024180114
28	0x3e0f159e	0.1397309
29	0x3e74ac06	0.23893747
30	0xbe9d387b	-0.30707154
31	0x3d45fc68	0.048336416
32	0xbe317491	-0.17329623
33	0xbd4bcbd8	-0.049754947
34	0xbe74bad6	-0.23899397
35	0xbead93d3	-0.33901843
36	0x3e81ac17	0.25326607
37	0xbe167e2e	-0.14696571
38	0x3e654812	0.22390774
39	0xbe90748d	-0.2821392
40	0xbcff1430	-0.031137556
41	0x3e768206	0.24073038
42	0x3b1c172a	0.0023817518
43	0x3ef3c102	0.4760819
44	0xbdc61286	-0.09671502
45	0x3ed87412	0.42276055
46	0xbc5fdfef	-0.01366423
47	0x3e651add	0.22373529
48	0xbe28d791	-0.16488482
49	0x3e79b1a4	0.24384171
50	0xbeae6a5a	-0.34065515
51	0x3e2fa017	0.17150913
52	0xbe9d2f65	-0.30700222
53	0x3e519b81	0.20469476
54	0x3ecbbd2d	0.39792767
55	0x3e6999d0	0.22812581
56	0x3e1e293f	0.15445422
57	0xbe8cbfcb	-0.27490076
58	0xbe259413	-0.16169767
59	0xbe8056a6	-0.25066108
60	0x3e787fb2	0.24267462
61	0x3a97f260	0.0011592619
62	0xbe7e37e2	-0.24826005
63	0x3e938e01	0.28819278
64	0xbd2af6c8	-0.041739255
65	0xbe7ffb7b	-0.24998276
66	0xbe2f525c	-0.17121261
67	0xbdb4ae18	-0.08822268
68	0xbd050ff0	-0.032485902
69	0x3d6cb0c0	0.05778575
70	0x3ea59e8d	0.32347527
71	0xbdf5e5a8	-0.12006694
72	0xbd1a27b0	-0.037635505
73	0x3da82128	0.08209449
74	0x3d60f970	0.054925382
75	0xbe875de7	-0.2643883
76	0xbe78cacb	-0.2429611
77	0xbe913add	-0.28365222
78	0x3e77a3e2	0.2418361
79	0xbe67354b	-0.22578923
80	0xbdb5268c	-0.08845243
81	0xbe6fd1d8	-0.23419893
82	0xbeb73df9	-0.3578947
83	0x3eb75813	0.35809383
84	0xbe4af94f	-0.19821666
85	0xbe666646	-0.22499952
86	0xbd47b91d	-0.048760522
87	0xbe876ef3	-0.26451835
88	0x3ea421c6	0.32057017
89	0xbe657207	-0.22406779
90	0x3c17f522	0.009274753
91	0x3e9944b1	0.2993522
92	0xbe8d0a22	-0.27546793
93	0xbe2530f5	-0.16131957
94	0xbebb2933	-0.3655487
95	0xbe451f1d	-0.1925015
96	0x3e9a4477	0.3013036
97	0xbeac70dc	-0.33679855
98	0x3d576224	0.05258383
99	0x3e1dea56	0.15421423
100	0x3eae60b6	0.3405816
101	0x3ea79830	0.32733297
102	0x3e563533	0.20918731
103	0xbe3e2807	-0.18569957
104	0xbd03075c	-0.03198944
105	0x3dce6e5c	0.10079643
106	0xbda180cc	-0.07885894
107	0x3e53ef20	0.20696688
108	0x3e2e392c	0.17013997
109	0xbc0317b1	-0.008001254
110	0xbe31324a	-0.1730434
111	0xbe2a4229	-0.166268
112	0x3bd24c39	0.006417778
113	0xbdcf6761	-0.1012714
114	0xbe0f0cf4	-0.13969785
115	0xbeb5bc16	-0.3549506
116	0x3e0442a8	0.12916052
117	0xbe8692f5	-0.26283994
118	0xbe2070ea	-0.15668073
119	0xbc37e932	-0.011225032
120	0x3eb095e6	0.34489363
121	0x3dda07e0	0.10646033
122	0x3dbc7c58	0.09203404
123	0xbe3f6048	-0.18689072
124	0x3e894734	0.26812136
125	0x3d1e8f32	0.03871078
126	0xbe4046ac	-0.18776959
127	0x3e2d7fb2	0.16943243
128	0xbe9bc213	-0.30421504
129	0xbed2e371	-0.4118915
130	0x3e87bc7c	0.2651099
131	0x3e2be8ce	0.16788027
132	0x3eb81c7b	0.3595923
133	0x3e9c341f	0.30508515
134	0x3ebf2648	0.37333894
135	0xbcf6bcd5	-0.030119339
136	0xbeb0072e	-0.34380478
137	0x3ea2b4ea	0.3177865
138	0x3d4928e3	0.04911126
139	0xbeb722a0	-0.35768604
140	0xbe1fc400	-0.15602112
141	0xbeb61bf1	-0.35568193
142	0x3e379aae	0.179301
143	0x3ec8b19a	0.39198
144	0x3e111ac8	0.14170372
145	0x3e963ba0	0.29342365
146	0xbdd215db	-0.10258075
147	0x3e36887e	0.17825505
148	0xbdd23e68	-0.10265809
149	0x3e85ef9b	0.26159367
150	0x3e261b3e	0.1622133
151	0xbeabcd96	-0.33555287
152	0x3e1369c2	0.14395812
153	0xbeb13f1d	-0.34618464
154	0x3e18effa	0.14935294
155	0xbd9245b8	-0.07142204
156	0xbe9fcb58	-0.31209826
157	0xbb810dc0	-0.0039384067
158	0xbe416a35	-0.18888171
159	0xbeb7de90	-0.3591199
160	0x3d51d220	0.05122578
161	0x3e0000f6	0.12500367
162	0xbdebe1a4	-0.11517647
163	0xbe7ed193	-0.24884634
164	0xbebac7ed	-0.36480656
165	0x3e876ca1	0.26450065
166	0xbe83dcda	-0.25754434
167	0x3dc7f7dc	0.09764072
168	0xbdb59843	-0.08866932
169	0x3e46e729	0.19424118
170	0x3e902cf7	0.28159305
171	0x3e97bf15	0.29637972
172	0xbe2466f1	-0.16054894
173	0xbcb76fa7	-0.022392107
174	0xbd2f982b	-0.042869728
175	0xbea35239	-0.31898668
176	0x3e82cc4c	0.2554649
177	0xbdd383a5	-0.103278436
178	0xbe739a65	-0.23789366
179	0x3e9010cd	0.28137818
180	0xbe4fdeff	-0.2029991
181	0x3dcec4f1	0.10096157
182	0x3ea8142a	0.32827884
183	0xbe7eb4e9	-0.24873699
184	0xbe6f2912	-0.23355511
185	0xbe56064b	-0.20900838
186	0x3e266169	0.16248097
187	0x3ea330b8	0.31873107
188	0x3e814800	0.25250244
189	0x3e1315f3	0.14363842
190	0x3ee8ea0e	0.4549107
191	0xbe42de18	-0.19030035
192	0xbc20af82	-0.009807469
193	0x3e932212	0.2873693
194	0x3da394d7	0.07987373
195	0xbe25ec4a	-0.16203418
196	0x3de0ca37	0.109760694
197	0x3e8efe41	0.27928355
198	0x3e6ff804	0.23434454
199	0x3e476885	0.19473465
200	0xbdc3382a	-0.09532197
201	0xbebe7f4c	-0.37206495
202	0x3bd1572a	0.0063885646
203	0xbe2ac0be	-0.16675088
204	0x3c85074b	0.01623883
205	0x3e1d4b52	0.15360764
206	0xbc91117a	-0.017708529
207	0x3da7d570	0.08195007
208	0x3bc9ee25	0.0061624222
209	0x3cb6971e	0.022288855
210	0x3db700b8	0.08935684
211	0xbe1843ed	-0.14869662
212	0x3e995e41	0.29954723
213	0xbe4bc10c	-0.1989786
214	0x3e05ce9e	0.130671
215	0xbd213e40	-0.039366007
216	0x3e534092	0.206301
217	0xbded13e8	-0.115760624
218	0xbeaa5ca8	-0.33273816
219	0xbeb5cd24	-0.35508072
220	0xbdb687fc	-0.08912656
221	0x3dad0ee4	0.08450106
222	0xbe56af82	-0.20965388
223	0xbe6f95ed	-0.23397036
224	0xbe7b5b51	-0.24546553
225	0xbe659d21	-0.22423221
226	0x3ea023d7	0.31277344
227	0xbeba1d76	-0.36350602
228	0x3dc3b1cc	0.095553964
229	0xbe8e877f	-0.2783775
230	0x3e0ada92	0.1355994
231	0xbe86c750	-0.26323938
232	0x3e84c610	0.2593236
233	0x3e29fd23	0.1660047
234	0x3ec498af	0.38397738
235	0x3ebe31dc	0.37147415
236	0xbdeaf197	-0.11471861
237	0x3e934f0c	0.28771245
238	0x3d9eb960	0.07750201
239	0x3e6783bd	0.22608848
240	0x3d09eb23	0.03367151
241	0x3da8bf90	0.08239663
242	0xbd62fa8e	-0.05541473
243	0xbe4f43e2	-0.20240739
244	0x3d87b57c	0.06626412
245	0x3ea6ae18	0.32554698
246	0xbcb7a9f0	-0.0224199
247	0xbd7b002b	-0.061279457
248	0x3de4c935	0.1117119
249	0x3d8a084f	0.06739866
250	0xbe413472	-0.18867663
251	0x3e91d733	0.28484496
252	0x3e51d8d0	0.20492864
253	0xbe3db79c	-0.18527073
254	0xbe66b471	-0.2252977
255	0x3e5e82c6	0.21729574
