saved_files/ckpt/nyc4/a2c_gnn_test_imitate.pth (torch, 66201 bytes, 46 tensors)

actor.gamma_rate f4 [16, 16]
0	0x44fa0000	2000.0
1	0x44fa0000	2000.0
2	0x44fa0000	2000.0
3	0x44fa0000	2000.0
4	0x44fa0000	2000.0
5	0x44fa0000	2000.0
6	0x44fa0000	2000.0
7	0x44fa0000	2000.0
8	0x44fa0000	2000.0
9	0x44fa0000	2000.0
10	0x44fa0000	2000.0
11	0x44fa0000	2000.0
12	0x44fa0000	2000.0
13	0x44fa0000	2000.0
14	0x44fa0000	2000.0
15	0x44fa0000	2000.0
16	0x44fa0000	2000.0
17	0x44fa0000	2000.0
18	0x44fa0000	2000.0
19	0x44fa0000	2000.0
20	0x44fa0000	2000.0
21	0x44fa0000	2000.0
22	0x44fa0000	2000.0
23	0x44fa0000	2000.0
24	0x44fa0000	2000.0
25	0x44fa0000	2000.0
26	0x44fa0000	2000.0
27	0x44fa0000	2000.0
28	0x44fa0000	2000.0
29	0x44fa0000	2000.0
30	0x44fa0000	2000.0
31	0x44fa0000	2000.0
32	0x44fa0000	2000.0
33	0x44fa0000	2000.0
34	0x44fa0000	2000.0
35	0x44fa0000	2000.0
36	0x44fa0000	2000.0
37	0x44fa0000	2000.0
38	0x44fa0000	2000.0
39	0x44fa0000	2000.0
40	0x44fa0000	2000.0
41	0x44fa0000	2000.0
42	0x44fa0000	2000.0
43	0x44fa0000	2000.0
44	0x44fa0000	2000.0
45	0x44fa0000	2000.0
46	0x44fa0000	2000.0
47	0x44fa0000	2000.0
48	0x44fa0000	2000.0
49	0x44fa0000	2000.0
50	0x44fa0000	2000.0
51	0x44fa0000	2000.0
52	0x44fa0000	2000.0
53	0x44fa0000	2000.0
54	0x44fa0000	2000.0
55	0x44fa0000	2000.0
56	0x44fa0000	2000.0
57	0x44fa0000	2000.0
58	0x44fa0000	2000.0
59	0x44fa0000	2000.0
60	0x44fa0000	2000.0
61	0x44fa0000	2000.0
62	0x44fa0000	2000.0
63	0x44fa0000	2000.0
64	0x44fa0000	2000.0
65	0x44fa0000	2000.0
66	0x44fa0000	2000.0
67	0x44fa0000	2000.0
68	0x44fa0000	2000.0
69	0x44fa0000	2000.0
70	0x44fa0001	2000.0001
71	0x44fa0000	2000.0
72	0x44fa0000	2000.0
73	0x44fa0000	2000.0
74	0x44fa0000	2000.0
75	0x44fa0000	2000.0
76	0x44fa0000	2000.0
77	0x44fa0000	2000.0
78	0x44fa0000	2000.0
79	0x44fa0000	2000.0
80	0x44fa0000	2000.0
81	0x44fa0000	2000.0
82	0x44fa0000	2000.0
83	0x44fa0000	2000.0
84	0x44fa0000	2000.0
85	0x44fa0000	2000.0
86	0x44fa0000	2000.0
87	0x44fa0000	2000.0
88	0x44fa0000	2000.0
89	0x44fa0000	2000.0
90	0x44fa0000	2000.0
91	0x44fa0000	2000.0
92	0x44fa0000	2000.0
93	0x44fa0000	2000.0
94	0x44fa0000	2000.0
95	0x44fa0000	2000.0
96	0x44fa0000	2000.0
97	0x44fa0000	2000.0
98	0x44fa0000	2000.0
99	0x44fa0000	2000.0
100	0x44fa0000	2000.0
101	0x44fa0000	2000.0
102	0x44f9ffff	1999.9999
103	0x44fa0000	2000.0
104	0x44fa0000	2000.0
105	0x44fa0001	2000.0001
106	0x44fa0000	2000.0
107	0x44fa0000	2000.0
108	0x44fa0000	2000.0
109	0x44fa0000	2000.0
110	0x44fa0000	2000.0
111	0x44fa0000	2000.0
112	0x44fa0000	2000.0
113	0x44fa0000	2000.0
114	0x44fa0000	2000.0
115	0x44fa0000	2000.0
116	0x44fa0000	2000.0
117	0x44fa0000	2000.0
118	0x44fa0000	2000.0
119	0x44fa0000	2000.0
120	0x44fa0000	2000.0
121	0x44fa0000	2000.0
122	0x44fa0000	2000.0
123	0x44fa0000	2000.0
124	0x44fa0000	2000.0
125	0x44fa0000	2000.0
126	0x44fa0000	2000.0
127	0x44fa0000	2000.0
128	0x44fa0000	2000.0
129	0x44fa0000	2000.0
130	0x44fa0000	2000.0
131	0x44fa0000	2000.0
132	0x44fa0000	2000.0
133	0x44fa0000	2000.0
134	0x44fa0000	2000.0
135	0x44fa0000	2000.0
136	0x44fa0000	2000.0
137	0x44fa0000	2000.0
138	0x44fa0000	2000.0
139	0x44fa0000	2000.0
140	0x44fa0000	2000.0
141	0x44fa0000	2000.0
142	0x44fa0000	2000.0
143	0x44fa0000	2000.0
144	0x44fa0000	2000.0
145	0x44fa0000	2000.0
146	0x44fa0000	2000.0
147	0x44fa0000	2000.0
148	0x44fa0000	2000.0
149	0x44fa0000	2000.0
150	0x44fa0000	2000.0
151	0x44fa0000	2000.0
152	0x44fa0000	2000.0
153	0x44fa0000	2000.0
154	0x44fa0000	2000.0
155	0x44f9ffff	1999.9999
156	0x44fa0000	2000.0
157	0x44fa0000	2000.0
158	0x44fa0000	2000.0
159	0x44fa0000	2000.0
160	0x44fa0000	2000.0
161	0x44fa0000	2000.0
162	0x44fa0000	2000.0
163	0x44fa0000	2000.0
164	0x44fa0000	2000.0
165	0x44fa0000	2000.0
166	0x44fa0000	2000.0
167	0x44fa0000	2000.0
168	0x44fa0000	2000.0
169	0x44fa0000	2000.0
170	0x44fa0000	2000.0
171	0x44fa0000	2000.0
172	0x44fa0000	2000.0
173	0x44fa0000	2000.0
174	0x44fa0000	2000.0
175	0x44fa0000	2000.0
176	0x44fa0000	2000.0
177	0x44fa0000	2000.0
178	0x44fa0000	2000.0
179	0x44fa0000	2000.0
180	0x44fa0000	2000.0
181	0x44fa0000	2000.0
182	0x44fa0000	2000.0
183	0x44fa0000	2000.0
184	0x44fa0000	2000.0
185	0x44fa0002	2000.0002
186	0x44fa0000	2000.0
187	0x44fa0000	2000.0
188	0x44fa0000	2000.0
189	0x44fa0000	2000.0
190	0x44fa0000	2000.0
191	0x44fa0000	2000.0
192	0x44fa0000	2000.0
193	0x44fa0000	2000.0
194	0x44fa0000	2000.0
195	0x44fa0000	2000.0
196	0x44fa0000	2000.0
197	0x44fa0000	2000.0
198	0x44fa0000	2000.0
199	0x44fa0000	2000.0
200	0x44fa0000	2000.0
201	0x44fa0000	2000.0
202	0x44fa0000	2000.0
203	0x44fa0000	2000.0
204	0x44fa0000	2000.0
205	0x44fa0000	2000.0
206	0x44fa0000	2000.0
207	0x44fa0000	2000.0
208	0x44fa0000	2000.0
209	0x44fa0000	2000.0
210	0x44fa0000	2000.0
211	0x44fa0000	2000.0
212	0x44fa0000	2000.0
213	0x44fa0000	2000.0
214	0x44fa0000	2000.0
215	0x44fa0000	2000.0
216	0x44fa0000	2000.0
217	0x44fa0000	2000.0
218	0x44fa0000	2000.0
219	0x44fa0000	2000.0
220	0x44fa0000	2000.0
221	0x44fa0000	2000.0
222	0x44fa0000	2000.0
223	0x44fa0000	2000.0
224	0x44fa0000	2000.0
225	0x44fa0000	2000.0
226	0x44fa0000	2000.0
227	0x44fa0000	2000.0
228	0x44fa0000	2000.0
229	0x44fa0000	2000.0
230	0x44fa0000	2000.0
231	0x44fa0000	2000.0
232	0x44fa0000	2000.0
233	0x44fa0000	2000.0
234	0x44fa0000	2000.0
235	0x44fa0000	2000.0
236	0x44fa0000	2000.0
237	0x44fa0000	2000.0
238	0x44fa0000	2000.0
239	0x44fa0000	2000.0
240	0x44fa0000	2000.0
241	0x44fa0000	2000.0
242	0x44fa0000	2000.0
243	0x44fa0000	2000.0
244	0x44fa0000	2000.0
245	0x44fa0000	2000.0
246	0x44fa0000	2000.0
247	0x44fa0000	2000.0
248	0x44fa0000	2000.0
249	0x44fa0000	2000.0
250	0x44fa0000	2000.0
251	0x44fa0000	2000.0
252	0x44fa0000	2000.0
253	0x44fa0000	2000.0
254	0x44fa0000	2000.0
255	0x44fa0000	2000.0

actor.conv1.bias f4 [21]
0	0xbcaea799	-0.021320151
1	0xbc2e267a	-0.010629291
2	0xbd7b2e56	-0.061323486
3	0xbb997ad5	-0.004683832
4	0x3d0e0aee	0.034678392
5	0xbc822a5a	-0.015889335
6	0x3da5cd08	0.08095747
7	0x3db0b160	0.086275816
8	0x3da9cc92	0.08290972
9	0xbb0e64f1	-0.0021727646
10	0xbd3e2547	-0.04642227
11	0x3c2fdd75	0.010733952
12	0x3d44350a	0.047902144
13	0xbbbd73c8	-0.0057816245
14	0x00000000	0.0
15	0x00000000	0.0
16	0x3c8b354d	0.01699319
17	0x3dc15b9c	0.09441301
18	0x3ca8838d	0.02057054
19	0x3d7106a8	0.05884424
20	0xbb3aa4e2	-0.0028479625

actor.conv1.lin.weight f4 [21, 21]
0	0x3ea2b4cc	0.31778562
1	0xbdb57921	-0.08860994
2	0x3d8f8779	0.07008261
3	0x3ddaf694	0.10691562
4	0x3e9f99ba	0.31171972
5	0xbe97bf27	-0.29638025
6	0xbeb71875	-0.35760847
7	0x3d72693e	0.059182398
8	0xbe6e1fdf	-0.23254345
9	0x3dba9fd1	0.09112514
10	0xbcc712a1	-0.024300875
11	0xbd776e27	-0.060407784
12	0xbe862533	-0.26200256
13	0xbdcfe669	-0.10151369
14	0x3de23b51	0.1104647
15	0xbec2f2ed	-0.38075963
16	0x3da32abb	0.079671346
17	0x3e9abe28	0.30223203
18	0x3e09074c	0.1338169
19	0x3da4e7e2	0.08052041
20	0xbd8ebde3	-0.06969812
21	0xbe15f1ca	-0.14643016
22	0xbd896a07	-0.06709676
23	0xbe42a29b	-0.19007342
24	0x3d1d443c	0.03839515
25	0xbe98bd5e	-0.29831976
26	0xbe9af177	-0.30262348
27	0xbe6c5259	-0.23078288
28	0x3ce8662f	0.028369037
29	0x3e8b24e5	0.27176586
30	0x3de749fd	0.11293409
31	0x3e813cb2	0.2524162
32	0x3e5366ee	0.20644733
33	0xbe6f0c46	-0.23344526
34	0xbce4b97d	-0.027920479
35	0x3ea67976	0.32514542
36	0xbdf827c3	-0.12116959
37	0xbe2d3b36	-0.16917118
38	0x3dc36160	0.09540057
39	0xbebfba45	-0.374468
40	0x3e4ab46e	0.19795391
41	0xbe821413	-0.2540594
42	0xbc38a232	-0.011269139
43	0x3ded36f8	0.1158275
44	0xbd6c819d	-0.057740796
45	0x3e0baa4a	0.13639179
46	0x3e498322	0.1967893
47	0x3cec9373	0.028878903
48	0xbea8a0e2	-0.32935244
49	0x3be2b0e1	0.0069180583
50	0xbe541175	-0.20709784
51	0x3dbfe5a7	0.093699746
52	0xbe892f6d	-0.26793995
53	0x3e2eb4cb	0.17061155
54	0x3c7ad5ed	0.015309793
55	0x3e29cbaf	0.16581605
56	0xbe5ba81e	-0.2145085
57	0xbd0f4d5b	-0.03498588
58	0x3e851316	0.25991124
59	0xbe34d697	-0.17659985
60	0xbec0676f	-0.37578914
61	0x3d87f289	0.06638057
62	0x3e1cc218	0.15308416
63	0x3d97504a	0.07388361
64	0x3eb67790	0.35638094
65	0xbe91887b	-0.2842444
66	0x3e2e5337	0.17023931
67	0xbe0a2ff9	-0.13494863
68	0x3ea88c8d	0.32919732
69	0x3e713129	0.2355391
70	0xbd44aa08	-0.048013717
71	0xbd4266f7	-0.047461476
72	0x3e753a79	0.23948087
73	0xbe971f4f	-0.29516074
74	0xbcfd1636	-0.03089438
75	0xbe3bf776	-0.18356118
76	0x3e5c6e5d	0.21526475
77	0xbe7acbad	-0.24491759
78	0xbe3f6af5	-0.18693145
79	0xbe8e1226	-0.2774822
80	0x3dfe1497	0.12406271
81	0xbe73f684	-0.23824507
82	0xbd38b3ea	-0.045093454
83	0x3ba426cd	0.005009508
84	0x3ef22862	0.47296435
85	0x3ebe47d3	0.37164173
86	0x3ecad99d	0.3961915
87	0x3ec48563	0.38383016
88	0xbd32bfa7	-0.043639805
89	0x3eb07e2f	0.3447127
90	0x3ec7ec5d	0.39047518
91	0x3ef55b3d	0.47921172
92	0x3f03107c	0.5119703
93	0x3e42a39f	0.19007729
94	0x3def3ea8	0.116818726
95	0x3ebdb7a0	0.37054157
96	0x3ea6db7b	0.32589325
97	0x3ebad5bd	0.36491194
98	0xbe903366	-0.28164214
99	0x3ec00ed9	0.37511328
100	0x3e5f9232	0.21833113
101	0xbdcb9fe3	-0.09942605
102	0x3ea36e24	0.31919968
103	0x3ea2484a	0.31695777
104	0x3e8f4d72	0.27988774
105	0x3dfd83a9	0.12378628
106	0xbe745ac8	-0.23862755
107	0x3cce3056	0.025169533
108	0xbe08ec73	-0.13371448
109	0xbd736361	-0.059420947
110	0x3e288cb1	0.1645992
111	0x3c8b3810	0.016994506
112	0x3dd49d4e	0.10381566
113	0xbe826f13	-0.25475368
114	0x3e7a715b	0.24457304
115	0xbe694ddf	-0.22783612
116	0xbe08fc38	-0.13377464
117	0x3ea058d2	0.31317765
118	0x3ea7acec	0.32749116
119	0xbe5ad5d6	-0.21370634
120	0x3e28efd5	0.16497739
121	0xbe78d3a4	-0.24299484
122	0x3e8897b5	0.26678243
123	0xbd81c420	-0.06336236
124	0xbec13f09	-0.37743405
125	0xbe8993d8	-0.26870608
126	0x3e03864c	0.12844199
127	0x3e1353ce	0.14387438
128	0x3ec3bece	0.3823151
129	0xbe08c39c	-0.13355869
130	0x3e7ebeea	0.24877515
131	0x3a9d210c	0.0011987998
132	0x3f0c154b	0.5471999
133	0x3cd9886a	0.026554305
134	0x3d9f08d2	0.07765354
135	0x3f1913c0	0.5979576
136	0x3e254a62	0.16141656
137	0x3dce8463	0.100838445
138	0x3e360298	0.17774427
139	0x3de896fa	0.113569215
140	0x3e717030	0.23577952
141	0x3e8ba404	0.27273571
142	0x3d900720	0.07032609
143	0x3edd1d20	0.43186283
144	0x3ea27e97	0.31737205
145	0xbe82960d	-0.25505105
146	0xbd9e1e9a	-0.077206805
147	0xbd7f9a19	-0.06240282
148	0x3eba7f75	0.36425367
149	0x3eb99bf4	0.36251795
150	0x3eec813a	0.46192342
151	0x3f00cf1b	0.5031602
152	0x3cef746b	0.029230317
153	0x3ef64ab3	0.48103866
154	0x3e9a8d35	0.30185857
155	0x3e318385	0.17335327
156	0x3edc1ebf	0.42992207
157	0x3df156f6	0.117841646
158	0xbe559bdb	-0.20860235
159	0x3e523a75	0.20530112
160	0x3e6ce809	0.2313539
161	0x3d03189b	0.032005887
162	0x3ef105dc	0.47074783
163	0x3e8bbf8f	0.27294585
164	0x3d3c5f31	0.04598922
165	0xbcf1af5e	-0.029502567
166	0x3e7e9c65	0.24864347
167	0x3ec94418	0.39309764
168	0x3d18a94b	0.037270825
169	0x3e3b34cc	0.18281859
170	0x3e2562e9	0.16151012
171	0x3ef76406	0.483185
172	0x3f0d2d51	0.5514727
173	0x3e44cfaf	0.1921985
174	0x3f05c9bc	0.5226095
175	0x3f0dbd18	0.5536666
176	0x3d53166c	0.051535055
177	0xbd60bfcf	-0.054870423
178	0x3f084445	0.5322917
179	0x3e3f811f	0.187016
180	0xbe6f8ce3	-0.23393588
181	0x3ed895a7	0.42301676
182	0x3ef1ee17	0.4725196
183	0x3ecc524f	0.39906546
184	0x3da53789	0.08067233
185	0x3e8d95a6	0.27653235
186	0x3ea251d4	0.31703055
187	0xbe19cdae	-0.15019867
188	0x3d57d701	0.052695278
189	0x3e76f7f5	0.24118026
190	0xbe891695	-0.2677504
191	0x3e9bee44	0.3045522
192	0x3e6fca6f	0.23417066
193	0x3d8d717e	0.069064125
194	0xbe6d9003	-0.23199467
195	0xbea60479	-0.32425287
196	0x3e972f41	0.2952824
197	0x3e8d5a37	0.2760789
198	0x3dd0fc4d	0.102043726
199	0x3ea82a96	0.3284499
200	0xbe8dcac9	-0.27693775
201	0x3dd057f8	0.10173029
202	0xbea03b74	-0.3129536
203	0x3d55bd05	0.052182216
204	0xbb8ca077	-0.00429159
205	0x3e6b985a	0.23007336
206	0xbe449d6a	-0.19200674
207	0xbea93373	-0.33047065
208	0x3dc16002	0.0944214
209	0xbda534e1	-0.080667265
210	0xbc24df3c	-0.010062989
211	0xbe88c67f	-0.2671394
212	0x3e6d1f14	0.23156387
213	0x3e89ce2a	0.26915103
214	0xbe2e0640	-0.16994572
215	0xbe9abae6	-0.30220717
216	0x3e3db853	0.18527345
217	0xbe9f823a	-0.31154042
218	0xbe470404	-0.19435126
219	0xbec58300	-0.38576508
220	0xbe890099	-0.26758268
221	0xbd81e1bf	-0.06341886
222	0x3e00f77d	0.1259441
223	0xbe58f4bc	-0.21187109
224	0x3e8a91a4	0.2706424
225	0xbda422a0	-0.08014417
226	0x3cd8ee89	0.02648093
227	0xbe520c89	-0.20512594
228	0x3e8cbf1d	0.27489558
229	0xbe50dd81	-0.20396997
230	0x3d903c84	0.070427924
231	0x3e5b1e24	0.21398216
232	0x3db904ee	0.090341434
233	0x3e061b2d	0.13096304
234	0xbe9c5086	-0.30530185
235	0x3e25bd6a	0.16185537
236	0x3eb24dad	0.34824887
237	0xbb8bbf48	-0.004264746
238	0x3de61b83	0.11235716
239	0xbe411c2c	-0.18858403
240	0x3dc75406	0.09732823
241	0x3d28f2d5	0.041247208
242	0xbde9649e	-0.11396144
243	0x3da94391	0.082648404
244	0x3d1fb580	0.03899145
245	0xbeb4a2eb	-0.35280547
246	0x3e6c237d	0.23060413
247	0xbd9c32ed	-0.07626901
248	0x3de1d075	0.11026088
249	0xbeb83bf2	-0.35983235
250	0xbe03ba0d	-0.12863941
251	0xbc8abfed	-0.01693722
252	0x3eb8365c	0.35978973
253	0xbd22d5b4	-0.039754584
254	0x3e849600	0.2589569
255	0x3e914f7f	0.28380963

actor.lin1.weight f4 [32, 21]
0	0xbdd08c16	-0.10182969
1	0xbdbbef98	-0.09176558
2	0xbe16b13d	-0.14716049
3	0x3e64675b	0.22305052
4	0xbd2d3108	-0.042283088
5	0xbca175e8	-0.019709542
6	0xbc1f9925	-0.009741102
7	0xbdb01ae6	-0.085988805
8	0x3e1664ba	0.14686862
9	0xbdf2ae81	-0.1184969
10	0x3da6ef03	0.081510566
11	0x3e0f2558	0.1397909
12	0xbde8da86	-0.11369805
13	0xbc7542c4	-0.014969531
14	0xbdf3f6d8	-0.11912316
15	0xbe042f9d	-0.12908788
16	0xbdbe82d3	-0.093022965
17	0xbd5e3070	-0.054245412
18	0xbdc945bc	-0.09827754
19	0x3ded9855	0.11601321
20	0x3c1d813f	0.009613334
21	0x3ec1a041	0.37817577
22	0x3ea07423	0.31338605
23	0x3cc23026	0.0237046
24	0x3dfb38c3	0.12266686
25	0x3ea8e233	0.32985076
26	0x3ed83afb	0.422325
27	0x3c36dc8b	0.01116098
28	0x3eb53774	0.3539387
29	0x3ecd2bb2	0.400724
30	0x3ea53e1a	0.32273942
31	0x3ed96d69	0.42466286
32	0xbddf4e42	-0.10903598
33	0xbe11e6f4	-0.14248258
34	0xbda0ef4a	-0.07858141
35	0xbdbc0483	-0.09180548
36	0xbea69416	-0.32534856
37	0xbd4cd527	-0.050007965
38	0x3e23ae92	0.15984562
39	0x3deb3300	0.11484337
40	0x3e182926	0.14859447
41	0xbe19c6ad	-0.15017195
42	0x3ec4cda6	0.38438147
43	0x3dd0d0c7	0.10196071
44	0x3d6dcc94	0.05805643
45	0x3ead7591	0.3387876
46	0x3dbe0463	0.092781805
47	0x3ee99fe3	0.45629796
48	0x3e433565	0.19063337
49	0x3e9439dc	0.28950393
50	0x3e3edd01	0.18638994
51	0x3e9e1a95	0.30879655
52	0x3e3df608	0.18550885
53	0xbdb1eaed	-0.08687387
54	0xbd0ca8ed	-0.034340788
55	0xbe6c9dfa	-0.23107138
56	0xbe3315d0	-0.1748879
57	0xbdc36d03	-0.09542277
58	0x3dda3b60	0.10655856
59	0x3c8e4d5b	0.01737087
60	0xbbcffe6b	-0.0063474677
61	0x3ddcbe24	0.10778454
62	0x3d1721db	0.03689752
63	0x3e7a1ddd	0.24425454
64	0x3e873896	0.2641036
65	0x3e107015	0.14105256
66	0x3efd74bf	0.49503133
67	0x3e8b9adf	0.27266595
68	0x3e8f41c4	0.27979863
69	0x3eb349ff	0.35017392
70	0x3e8e5667	0.27800295
71	0x3ea5c0a1	0.32373527
72	0x3f0af4e8	0.5427995
73	0x3eee32ce	0.46523136
74	0xbe5244d0	-0.20534062
75	0xbd45379d	-0.04814874
76	0xbca4e246	-0.020127427
77	0xbc812e10	-0.015769035
78	0x3df40faf	0.11917054
79	0xbd0a8706	-0.033820175
80	0xbe724f34	-0.23663026
81	0xbe3399d5	-0.17539151
82	0x3dd0e3cd	0.101996996
83	0xbdb50a90	-0.08839905
84	0xbd5c6721	-0.05380929
85	0x3dbc9a90	0.09209168
86	0xbe10e555	-0.14149983
87	0x3dd10ae9	0.10207159
88	0xbe65f01d	-0.22454877
89	0xbe0a78de	-0.1352267
90	0x3d8a51d0	0.06753886
91	0xbdb2d32e	-0.087316856
92	0xbe6a022c	-0.22852391
93	0xbc1ca7ff	-0.009561538
94	0xbdaca3d2	-0.08429684
95	0xbe08a68a	-0.1334478
96	0x3db02b24	0.086019784
97	0xbde8b494	-0.113625675
98	0xbe15d344	-0.14631373
99	0x3dc8e828	0.09809905
100	0x3dd081d9	0.101810165
101	0x3c687747	0.014188594
102	0xbd87c54a	-0.06629427
103	0x3e260a70	0.16214919
104	0xbe011777	-0.12606607
105	0x3d3d40b7	0.046204295
106	0x3eb4bc21	0.3529978
107	0x3de63463	0.11240461
108	0x3da85505	0.08219341
109	0xbcd93ce7	-0.026518298
110	0x3e97dba1	0.2965975
111	0x3eb8d064	0.3609649
112	0x3e450bb0	0.1924274
113	0xbd52c3ab	-0.051456135
114	0x3e8ad3e1	0.27114776
115	0x3e3473d0	0.17622304
116	0xbd25a9f3	-0.04044528
117	0x3da17606	0.07883839
118	0x3da31bfa	0.079643205
119	0xbe238f81	-0.15972711
120	0xbc3a4233	-0.011368322
121	0x3d2b47fc	0.041816697
122	0x3dffc2e8	0.12488347
123	0x3d93d2c3	0.07217934
124	0xbde58446	-0.1120687
125	0xbd27ecf5	-0.040997464
126	0xbe3f9e30	-0.18712687
127	0xbe69ccd8	-0.22832048
128	0x3de15063	0.11001661
129	0xbd744f75	-0.05964609
130	0xbd8027f3	-0.0625762
131	0x3e394787	0.18093692
132	0x3de02513	0.10944571
133	0xbe522ce2	-0.20524934
134	0x3df3b796	0.119002506
135	0xbe40902b	-0.18804996
136	0x3d522135	0.0513012
137	0xbc4a0dc0	-0.01233238
138	0x3ccc55d6	0.024943274
139	0xbdb2f972	-0.08738984
140	0x3e32f2be	0.17475411
141	0xbe27ebde	-0.1639857
142	0xbd62584b	-0.055259984
143	0x3bf5d311	0.0075019677
144	0x3d241466	0.040058516
145	0xbd549013	-0.051895212
146	0xbd3f68f8	-0.046730965
147	0x3ecee2db	0.40407452
148	0x3ea77215	0.32704225
149	0x3eadda37	0.33955547
150	0x3e29250d	0.1651804
151	0x3e24d4c1	0.16096784
152	0x3ef08f6b	0.4698442
153	0x3ed2c425	0.4116527
154	0x3e72b766	0.23702773
155	0x3ecbbd34	0.39792788
156	0x3ec9c74a	0.39409858
157	0x3ed67bcd	0.41891328
158	0xbd536a74	-0.051615193
159	0x3d1273df	0.035755035
160	0x3c095506	0.008382088
161	0xbe04819a	-0.12940064
162	0xbe6171b8	-0.22016037
163	0xbd954da5	-0.072902
164	0x3d8c1648	0.06840187
165	0xbe5e07bc	-0.21682638
166	0x3dc58a5a	0.09645529
167	0xbe1fcee0	-0.1560626
168	0xbe0af5b8	-0.13570297
169	0x3e13e400	0.14442444
170	0xbc156403	-0.009118083
171	0x3e211f39	0.15734567
172	0xbe2b464d	-0.16726036
173	0xbe4624d1	-0.19349982
174	0xbe3bd267	-0.18341981
175	0x3d806f63	0.06271245
176	0x39996f5b	0.000292654
177	0x3e3846ab	0.17995708
178	0xbd12c5e3	-0.03583325
179	0xbdf5d848	-0.12004143
180	0xbdde25e1	-0.108470686
181	0xbe14bc93	-0.1452506
182	0xbcb3fc6c	-0.02197095
183	0xbe3311d5	-0.17487271
184	0xbd8b6f93	-0.068083905
185	0x3cf5c80f	0.030002622
186	0x3dc1e1df	0.094669096
187	0x3cf16584	0.029467352
188	0x3e2e1148	0.1699878
189	0x3e90fcab	0.2831777
190	0x3ed0454b	0.40677866
191	0x3d628fb0	0.055312812
192	0x3da01efa	0.07818408
193	0x3e23f34e	0.16010782
194	0x3e3fbc81	0.18724252
195	0x3ed40128	0.41407132
196	0x3ea44de6	0.32090682
197	0x3ecd5cd6	0.4010989
198	0x3f10d823	0.565798
199	0x3e500d0b	0.20317475
200	0xbe6f9b9e	-0.23399207
201	0xbe80458b	-0.25053057
202	0xbe06eea1	-0.13176967
203	0x3dd4b766	0.10386543
204	0xbc2dacf5	-0.010600318
205	0xbe96ed74	-0.29478037
206	0x3d0c322c	0.034227535
207	0xbcc3c13a	-0.023895849
208	0x3c010c7a	0.00787651
209	0x3d8100ad	0.06298957
210	0xbe52001d	-0.20507856
211	0xbdbaf461	-0.09128643
212	0x3dae1284	0.08499625
213	0x3e396466	0.18104705
214	0xbe5c1686	-0.21492967
215	0x3d1025da	0.035192348
216	0x3e57af49	0.2106296
217	0x3d2fecbc	0.042950377
218	0x3de05194	0.1095306
219	0xbe0ad4d7	-0.13557754
220	0xbe511503	-0.20418172
221	0x3dd24af1	0.102682
222	0xbe0d9b9a	-0.13828889
223	0xbe1b7030	-0.15179515
224	0x3cc15d00	0.023603916
225	0x3e4f53ac	0.20246762
226	0x3d684d26	0.0567142
227	0xbd1f83c3	-0.038944017
228	0xbcc1b008	-0.023643509
229	0xbdd15029	-0.102203675
230	0xbde0d52e	-0.10978161
231	0x3d2cdb91	0.042201582
232	0xbe3535ab	-0.17696254
233	0xbe92e22e	-0.28688186
234	0xbe93d860	-0.2887602
235	0xbe8d66a0	-0.2761736
236	0xbe174922	-0.14773992
237	0xbe743f13	-0.23852186
238	0x3dac911c	0.08426115
239	0xbe6efbb6	-0.23338208
240	0xbdf7cb70	-0.120993495
241	0x3d931658	0.07181996
242	0x3def1674	0.116742045
243	0x3e2c8d2c	0.16850728
244	0xbdf92e86	-0.12167077
245	0xb8123153	-3.485505e-05
246	0x3e374f72	0.179014
247	0xbc9bdafc	-0.019025318
248	0xbe3cf871	-0.18454148
249	0x3e047f2d	0.12939139
250	0x3dc18738	0.09449619
251	0x3e3fa465	0.18715055
252	0x3f0c0328	0.54692316
253	0x3ecc3bec	0.39889467
254	0x3e802869	0.2503083
255	0x3e1121ea	0.14173093

actor.lin1.bias f4 [32]
0	0x3e3cfefc	0.18456644
1	0x3c2828ad	0.010263604
2	0x3d295aec	0.041346475
3	0x3db0b478	0.08628172
4	0x3e2c5806	0.16830453
5	0xbbac7445	-0.005262884
6	0xbe2b4ace	-0.16727754
7	0x3d96f6a3	0.07371261
8	0xbd973e91	-0.073849805
9	0x3d60983e	0.05483269
10	0xbd81f462	-0.063454404
11	0x3cec23e9	0.028825717
12	0x3e22b273	0.15888385
13	0x3dab1580	0.0835371
14	0xbd1cd494	-0.038288668
15	0x3ce456f5	0.027873496
16	0x3e1a6909	0.1507913
17	0x3e5b5546	0.21419248
18	0x3e39e381	0.18153192
19	0x3e94094b	0.2891334
20	0xbe4cce73	-0.20000629
21	0x3c789a01	0.015173436
22	0x3e292c33	0.16520767
23	0x3e0cabcc	0.1373741
24	0xbc987498	-0.018610284
25	0xbd34a8dd	-0.044106353
26	0xbd69a5bf	-0.057042833
27	0x3e64ee3c	0.22356504
28	0x3d3bb064	0.045822516
29	0x3d40e6a4	0.047094956
30	0x3e6090e4	0.21930271
31	0xbe572d79	-0.2101344

actor.lin2.weight f4 [32, 32]
0	0xbe0268fc	-0.12735361
1	0x3e0d5491	0.13801791
2	0x3e88fa32	0.26753384
3	0x3eb1c2c0	0.34718895
4	0xbe3827aa	-0.1798388
5	0x3dfbd0a8	0.122956574
6	0xbc9ecf4a	-0.019385953
7	0x3ea007c1	0.31255916
8	0xbe1f4af5	-0.15555938
9	0x3e625619	0.22103156
10	0x3d7ea0f7	0.062165227
11	0x3ceb1327	0.028695656
12	0x3ec4fd8e	0.38474697
13	0x3dff506f	0.12466513
14	0x3e86c0dd	0.26319018
15	0x3def1b96	0.116751835
16	0xbe1162c0	-0.14197826
17	0xbd209905	-0.03920843
18	0x3e2131cf	0.15741657
19	0x3eb98242	0.3623219
20	0xbcfaef77	-0.030631764
21	0x3e84fe98	0.2597549
22	0x3cc72f6d	0.024314607
23	0x3e12954d	0.14314766
24	0x3d00e9ac	0.031472847
25	0xbdbcf9f0	-0.09227359
26	0xbd7b1a65	-0.06130447
27	0x3e74c745	0.2390414
28	0x3de6e660	0.11274409
29	0x3d84b812	0.06480421
30	0x3e5f0122	0.21777776
31	0xbdce5b7c	-0.10076043
32	0xbdbb1ee5	-0.09136752
33	0xbe306adb	-0.17228262
34	0xbe09a6e6	-0.13442573
35	0xbd0f28c0	-0.03495097
36	0x3e27c27b	0.16382782
37	0xbd93d3ab	-0.07218107
38	0xbd27a090	-0.04092461
39	0xbe2ea0da	-0.17053548
40	0xbe2a1181	-0.1660824
41	0xbd6037c4	-0.054740682
42	0xbd76976c	-0.060203
43	0x3e0c1afb	0.13682167
44	0xbdd6ab30	-0.1048187
45	0xbdec9dc2	-0.115535274
46	0x3d2d0a74	0.042246297
47	0xbd397030	-0.045273006
48	0x3e323e75	0.17406638
49	0x3d952c0e	0.072837934
50	0xbc8538c8	-0.016262427
51	0x3c769c00	0.015051842
52	0xbe27ef48	-0.16399872
53	0x3d3bcf9c	0.04585229
54	0xbdeae62c	-0.11469683
55	0xbd92a9de	-0.07161306
56	0xbd0c7210	-0.034288466
57	0xbd85bb2f	-0.06529843
58	0xbc944680	-0.018100023
59	0xbd921919	-0.07133693
60	0x3ba00be0	0.004884228
61	0x3c645090	0.013935223
62	0xbcaeb428	-0.02132614
63	0x3dc46196	0.095889255
64	0xbd8b4154	-0.0679957
65	0xbd33030b	-0.043704074
66	0xbc26717e	-0.010158895
67	0x3c90ac15	0.01766018
68	0xbc228439	-0.00991922
69	0x3e2fa71c	0.17153591
70	0x3e190a71	0.1494539
71	0xbe18627e	-0.14881322
72	0xbe1acbb9	-0.15116777
73	0xbde62252	-0.11237015
74	0xbd4e8988	-0.05042413
75	0x3e0f0469	0.13966526
76	0xbd500c10	-0.050792754
77	0xbdbcb4d7	-0.0921418
78	0xbca91960	-0.020641983
79	0x3d972101	0.07379342
80	0xbc246095	-0.010032793
81	0x3d089fc1	0.03335548
82	0x3de89154	0.11355844
83	0xbddb0726	-0.10694723
84	0xbdf73130	-0.12069929
85	0xbe0d6e85	-0.13811691
86	0xbd6c7c12	-0.05773551
87	0x3dd84304	0.10559657
88	0x3d2aa844	0.041664377
89	0xbdb45739	-0.08805699
90	0xbdf2e073	-0.118592165
91	0x3de75d5f	0.11297106
92	0xbc31b6ef	-0.010846837
93	0x3d9a7eae	0.075436935
94	0xbd8bf1f0	-0.06833255
95	0x3da2de26	0.07952528
96	0xbe300b33	-0.17191772
97	0x3e64424b	0.22290914
98	0x3d886484	0.06659797
99	0x3e032650	0.12807584
100	0x3dfa2f39	0.12216038
101	0x3e258c8b	0.16166894
102	0x3cf13281	0.029443027
103	0x3e427a89	0.18992056
104	0xbdb1c2f6	-0.08679764
105	0x3e145ef4	0.14489347
106	0xbb1ac398	-0.0023615118
107	0xbd96d264	-0.073643476
108	0x3e5fb719	0.2184719
109	0xbe204f7a	-0.15655318
110	0xbcefa4fe	-0.02925348
111	0x3d1f6974	0.038918927
112	0x3e0147b0	0.12625003
113	0x3e076fa6	0.13226184
114	0x3d8f1ade	0.069875464
115	0x3ebc2313	0.3674551
116	0xbde70c5b	-0.112816535
117	0x3e6e2e20	0.23259783
118	0x3cdd1e2e	0.02699193
119	0x3e0c9fd5	0.13732846
120	0x3d11efe0	0.035629153
121	0xbe247931	-0.16061856
122	0x3e0365cf	0.12831806
123	0x3e5bfb98	0.21482694
124	0xbdaf6969	-0.08565027
125	0xbdc80f06	-0.097684905
126	0x3e12f2a5	0.14350374
127	0x3e327195	0.1742614
128	0xbe137a98	-0.14402235
129	0xbe32fc9c	-0.17479175
130	0x3d63cc53	0.05561478
131	0x3e192e8b	0.14959161
132	0x3df92026	0.12164335
133	0xbb833731	-0.004004382
134	0x3d810f82	0.06301786
135	0xbdb542dc	-0.08850643
136	0xbc938508	-0.01800777
137	0x3d90c786	0.07069306
138	0xbd4cec78	-0.0500302
139	0xbd4778e3	-0.04869927
140	0xbd0f1494	-0.034931734
141	0xbd88d2ab	-0.06680807
142	0x3d7fbc0c	0.062435195
143	0xbc0868f6	-0.008325806
144	0x3dd4ac22	0.10384394
145	0xbca2c5e1	-0.019869747
146	0x3ded7b9f	0.115958445
147	0xbdddb4d4	-0.10825506
148	0xbd3b05d4	-0.045659855
149	0x3dfeeee8	0.124479115
150	0x3b842240	0.004032403
151	0xbe22fa73	-0.15915851
152	0x3db9b386	0.090674445
153	0xbe14170a	-0.14461914
154	0xbdae34df	-0.08506178
155	0x3dda0fe5	0.10647563
156	0x3e17bca5	0.14818056
157	0xbe14e8d5	-0.14541943
158	0xbe3c7eb4	-0.18407708
159	0xbcad0f98	-0.0211256
160	0xbe158a79	-0.14603604
161	0x3e81d34d	0.25356522
162	0x3e21dd32	0.15807036
163	0x3ec2363a	0.37931997
164	0xbde47c59	-0.1115653
165	0x3e2bc998	0.1677612
166	0xbd95ba54	-0.0731093
167	0x3ec980b5	0.39356008
168	0xbe0c37bf	-0.1369314
169	0x3e314c5d	0.17314287
170	0xbe100da3	-0.14067702
171	0xbe270c63	-0.16313319
172	0x3eaa33f7	0.3324277
173	0xbd419526	-0.04726138
174	0x3dda21f5	0.10651008
175	0x3e98e489	0.29861858
176	0xbe0b7793	-0.13619833
177	0x3e4e3d80	0.20140648
178	0xbd821120	-0.063509226
179	0x3e687a2b	0.22702853
180	0x3d8eed98	0.06978911
181	0x3e6e40e1	0.23266937
182	0xbdeb44ec	-0.11487755
183	0x3d47fa18	0.048822492
184	0xbe25dd5d	-0.16197725
185	0x3d3b48a0	0.045723557
186	0xbe02efe4	-0.12786824
187	0x3b2483e0	0.0025103018
188	0xbe23e195	-0.16004021
189	0x3db4f10e	0.0883504
190	0x3eae5a3c	0.34053218
191	0xbdef9797	-0.11698835
192	0xbe0e1ec8	-0.1387893
193	0xbe364bd6	-0.17802367
194	0xba80b7e9	-0.0009820434
195	0x3c250474	0.0100718625
196	0xbe015d88	-0.12633336
197	0xbd7e2e2b	-0.062055748
198	0xbe2cf04f	-0.16888545
199	0xbe35e481	-0.17762949
200	0xbca0d798	-0.019634053
201	0x3d3a0ca5	0.045422215
202	0xbd80ef61	-0.06295658
203	0x3dd95a10	0.10612881
204	0x3df01c4b	0.117241465
205	0x3d534a48	0.051584512
206	0x3cf3ccae	0.029760685
207	0xbcb39b92	-0.021924768
208	0x3c5b8f42	0.013400855
209	0xbe373347	-0.17890655
210	0x3e1d43b9	0.15357865
211	0xbe39f71f	-0.18160675
212	0xbd8923e8	-0.06696302
213	0x3da0e74c	0.078566164
214	0x3e12b933	0.1432846
215	0xbe2b8852	-0.16751221
216	0xbd5c7f74	-0.053832486
217	0x3e27fe77	0.16405664
218	0xbe42e9f3	-0.19034557
219	0x3dc4560e	0.09586726
220	0x3d7efc30	0.062252223
221	0x3d74fae4	0.05980958
222	0xbe1b0071	-0.15136887
223	0xbe09cba0	-0.13456583
224	0x3dd8f22a	0.10593064
225	0x3e487c64	0.19578701
226	0x3dafef10	0.085905194
227	0x3ec8cde3	0.3921958
228	0x3dec42a7	0.115361504
229	0x3e0bfe4b	0.13671224
230	0x3db80811	0.089859135
231	0x3eaace33	0.33360443
232	0x3e284526	0.16432628
233	0x3e1f87f1	0.15579201
234	0xbe2f8ea3	-0.17144255
235	0xbe05c032	-0.13061598
236	0x3e668fb3	0.22515754
237	0x3e15063c	0.1455316
238	0xbdc0edf3	-0.09420385
239	0x3e79f2bf	0.24409007
240	0x3e021392	0.12702778
241	0x3e710887	0.23538409
242	0x3d0c46ec	0.034247324
243	0x3e85aa25	0.26106372
244	0xbd7df5fc	-0.062002167
245	0x3e934fee	0.2877192
246	0xbc24a76c	-0.010049682
247	0x3dd118af	0.10209786
248	0xbe02d2bb	-0.127757
249	0x3dabe6f1	0.08393658
250	0xbdc03b86	-0.09386353
251	0x3e5871f5	0.21137221
252	0xbbf6b3c4	-0.007528754
253	0x3d960b76	0.07326405
254	0x3e94655c	0.2898358
255	0x3d9d7ac2	0.0768943

actor.lin2.bias f4 [32]
0	0xbd773173	-0.060349893
1	0xbb4f1040	-0.003159538
2	0xbdda4cbe	-0.10659169
3	0x3e65927a	0.22419158
4	0xbe2b1565	-0.1670738
5	0x3e7e66d3	0.24843912
6	0xbd85411b	-0.065065585
7	0x3e4b4a4a	0.19852558
8	0x3d72d420	0.05928433
9	0xbdc8808d	-0.09790144
10	0xbdc69d7c	-0.096980065
11	0x3df4b82a	0.11949189
12	0x3ce8d4e7	0.028421832
13	0x3daf0e52	0.08547653
14	0x3e1afd9f	0.15135811
15	0x3e53083f	0.20608614
16	0x3d83ed97	0.06441801
17	0x3e25a8d1	0.1617768
18	0x3daf934c	0.085730165
19	0xbc73e06f	-0.014885052
20	0x3e541da5	0.20714433
21	0x399277ee	0.00027936645
22	0xbc28a904	-0.010294203
23	0x3e09ef52	0.134702
24	0xbdd1a6b5	-0.10236875
25	0x3db4ba97	0.08824652
26	0xbd87e6b7	-0.06635802
27	0x3e0066ef	0.12539266
28	0xba92e900	-0.0011208355
29	0x3d69a78d	0.057044555
30	0x3de4b781	0.11167813
31	0xbc7194b7	-0.014744929

actor.lin3.weight f4 [1, 32]
0	0x3eb6238a	0.3557399
1	0x3e19e0c7	0.15027152
2	0xbe0c7a62	-0.1371856
3	0x3e49d97d	0.19711871
4	0xbd0ce057	-0.034393635
5	0x3e83c922	0.2573939
6	0x3bad5819	0.005290043
7	0x3eab40dd	0.33447924
8	0xbdfae5ce	-0.12250863
9	0xbdb860d2	-0.09002842
10	0x3ea1ad8e	0.31577724
11	0xbdbc775a	-0.09202452
12	0x3ed178a9	0.4091237
13	0x3d8351ab	0.06412061
14	0x3e5ec3b8	0.21754348
15	0x3e5fadcf	0.21843646
16	0xbe0416e7	-0.12899362
17	0xbad3c01f	-0.0016155279
18	0x3e92dbb3	0.28683242
19	0xbdbc7c62	-0.09203412
20	0x3e93bd79	0.28855494
21	0xbcc23a94	-0.023709573
22	0xbdd86542	-0.105661884
23	0xbdbdf83c	-0.092758626
24	0xbdb96724	-0.09052876
25	0xbca95177	-0.020668728
26	0x3e93f6e2	0.28899294
27	0x3ea907ec	0.33013856
28	0xbd6d15e4	-0.057882205
29	0x3ec28e33	0.37999114
30	0x3e79896a	0.24368826
31	0x3ed07429	0.40713623

actor.convp.bias f4 [21]
0	0x3eb2aa2a	0.3489545
1	0x3e1558d9	0.14584674
2	0xbdaff8e2	-0.085923925
3	0x00000000	0.0
4	0x3de858e8	0.113450825
5	0xbd8ca6ef	-0.068677776
6	0xbd0c4019	-0.034240816
7	0xbe8f633b	-0.28005394
8	0xbe0cc114	-0.13745528
9	0x3eac4024	0.33642685
10	0x3e15fb40	0.14646626
11	0x3e26a616	0.16274294
12	0x3dc09e20	0.0940516
13	0x3e551110	0.2080729
14	0xbea2dfd8	-0.31811404
15	0x3ec6d827	0.38836786
16	0xbc17a78c	-0.009256255
17	0xbcc879b4	-0.024472095
18	0xbcd2560f	-0.025675802
19	0x3f2b7b2d	0.66984826
20	0xbd22330b	-0.03959946

actor.convp.lin.weight f4 [21, 21]
0	0x3e6a4e4b	0.22881429
1	0x3de77f84	0.113036186
2	0xbd2c1a49	-0.042017255
3	0x3e6c1d76	0.23058113
4	0x3c948376	0.018129092
5	0xbd3a5176	-0.045487843
6	0x3e8baaaa	0.27278644
7	0xbe90e470	-0.28299284
8	0x3e6e2b4c	0.23258704
9	0xbeddb833	-0.43304595
10	0x3e7bee78	0.24602687
11	0x3da82328	0.082098305
12	0x3e0eded6	0.13952193
13	0xbe2be465	-0.16786344
14	0x3e11f228	0.14252532
15	0x3d1d16cc	0.03835182
16	0x3ccbb8ae	0.024868336
17	0x3eeeea8d	0.46663323
18	0x3e5cbf18	0.21557271
19	0x3e9bfd43	0.3046666
20	0xbdef1556	-0.116739914
21	0x3e776513	0.2415965
22	0xbe017cd0	-0.12645268
23	0xbe077f6a	-0.13232198
24	0xbcf1486e	-0.029453482
25	0x3d68504c	0.056717202
26	0xbbec239d	-0.007206394
27	0xbe63d227	-0.22248136
28	0xbe44dffa	-0.19226065
29	0xbd84546f	-0.06461417
30	0x3c0d5123	0.0086253015
31	0xbdbd8023	-0.09252956
32	0x3eb96ed5	0.3621737
33	0xbd9c9e12	-0.07647337
34	0xbd49e877	-0.04929396
35	0xbd14bbe2	-0.03631199
36	0x3ea47b4e	0.32125324
37	0xbbd727b9	-0.0065660146
38	0x3e40c6d6	0.1882585
39	0xbe2cad15	-0.168629
40	0x3e1604a4	0.14650208
41	0xbdaf6a1c	-0.08565161
42	0xbd67a3d4	-0.056552723
43	0xbe8ec296	-0.27882832
44	0x3e8d221f	0.27565095
45	0xbe9b4800	-0.3032837
46	0xbe96461e	-0.2935037
47	0xbe83d16b	-0.2574571
48	0x3e64dbc8	0.22349465
49	0xbe964304	-0.29348004
50	0x3e16db74	0.14732152
51	0xbde79b60	-0.11308932
52	0x3e68f808	0.22750866
53	0x3e2914b3	0.16511802
54	0xbdc4c793	-0.09608378
55	0xbe4452b2	-0.19172171
56	0x3d980308	0.07422453
57	0xbda90608	-0.082531035
58	0xbe15b99d	-0.14621587
59	0x3e8890cc	0.2667297
60	0x3e5901b1	0.21192051
61	0xbe214170	-0.15747619
62	0xbe33ce94	-0.17559272
63	0xbd9a337c	-0.07529351
64	0xbd9bafa4	-0.0760186
65	0xbea375b9	-0.31925753
66	0xbe9ba122	-0.30396372
67	0xbe7b439f	-0.24537514
68	0xbe8b34cc	-0.27188718
69	0xbde95758	-0.113936126
70	0x3e41ef36	0.18938908
71	0xbe9deb22	-0.30843455
72	0x3dd23060	0.10263133
73	0xbe23919c	-0.15973514
74	0xbcfcbe70	-0.030852526
75	0x3e11c7fe	0.14236447
76	0xbe955ac8	-0.29170823
77	0x3d0644f0	0.032780588
78	0x3d939ec0	0.072080135
79	0xbeab0d37	-0.3340852
80	0xbe445a43	-0.19175057
81	0x3e044fe2	0.12921098
82	0xbe24798c	-0.16061991
83	0x3e384a42	0.17997077
84	0x3e1ebf18	0.15502584
85	0xbe87181d	-0.26385584
86	0x3e6ffcee	0.23436329
87	0x3e880c90	0.26572084
88	0xbeb3aa7d	-0.3509101
89	0xbe5ebaa3	-0.21750884
90	0xbdb66845	-0.089066066
91	0x3d4d26d9	0.050085876
92	0xbcf2da13	-0.029645002
93	0x3e9fb96c	0.31196153
94	0x3eacf313	0.337792
95	0x3ed4d7aa	0.4157079
96	0x3e18161d	0.14852186
97	0x3e970156	0.29493207
98	0xbd83034b	-0.063971125
99	0x3e8468db	0.25861248
100	0xbe3f16f2	-0.18661097
101	0x3d595668	0.05306092
102	0xbec2b969	-0.38032082
103	0x3ea189ad	0.3155035
104	0xbd35ab06	-0.044352554
105	0x3c99fe82	0.018798117
106	0x3dee7045	0.116425075
107	0xbde7f8f5	-0.11326782
108	0xbd2f5956	-0.042809807
109	0x3e266429	0.16249146
110	0xbe2fbb04	-0.17161185
111	0xbe27ef31	-0.16399838
112	0x3d8cf3b0	0.06882417
113	0xbe838bbc	-0.25692546
114	0x3e8d9528	0.2765286
115	0xbe2869bf	-0.16446589
116	0x3e4674ba	0.19380465
117	0xbe89695f	-0.26838204
118	0x3da4b8a2	0.080430284
119	0xbebdbe9e	-0.37059492
120	0x3d1dbc9e	0.038509957
121	0x3baee255	0.0053370395
122	0x3d48476a	0.04889623
123	0xbc0849bb	-0.00831836
124	0xbe86204e	-0.26196522
125	0xbe595b5f	-0.21226262
126	0xbe611df7	-0.21984087
127	0x3e35379f	0.17696999
128	0xbbbe270b	-0.005802994
129	0x3e836cf8	0.25669074
130	0xbd399ab1	-0.04531354
131	0xbec0344f	-0.37539908
132	0xbd7f6585	-0.062352676
133	0xbe2ab115	-0.16669114
134	0xbec1bb75	-0.3783833
135	0x3d2f844a	0.04285077
136	0xbc98fbdb	-0.018674782
137	0xbebb9c07	-0.36642477
138	0xbeae210d	-0.3400959
139	0xbda6b6bc	-0.081403226
140	0x3e90d230	0.2828536
141	0x3e4dec66	0.2010971
142	0x3c1f6056	0.009727558
143	0xbdf14a75	-0.1178178
144	0x3d710f3b	0.058852416
145	0xbe4ddde0	-0.2010417
146	0x3e596333	0.21229248
147	0xbe6eadde	-0.23308513
148	0x3e88613e	0.2663669
149	0x3e4bb072	0.19891527
150	0x3eb660bf	0.35620686
151	0xbe68dda5	-0.227408
152	0xbe89f317	-0.26943275
153	0x3e2f2cb0	0.1710689
154	0x3e193ab2	0.14963797
155	0x3e89ab27	0.2688839
156	0xbdf507c0	-0.11964369
157	0x3e8ec4f0	0.27884626
158	0xbb300fb1	-0.0026864822
159	0xbbf70991	-0.007538982
160	0xbe81e79a	-0.2537201
161	0x3ea76cbd	0.32700148
162	0x3ea01978	0.3126943
163	0xbb0339af	-0.0020023396
164	0x3dce614c	0.10077152
165	0x3e7f3280	0.24921608
166	0xbd593bb7	-0.053035464
167	0xbea5df14	-0.32396758
168	0x3e8788a3	0.26471433
169	0xbeaa7f5a	-0.33300287
170	0xbc40ccd8	-0.011767589
171	0x3e922bd7	0.28549072
172	0x3e78baf6	0.2429007
173	0xbdb6e910	-0.08931172
174	0x3d4057d4	0.04695876
175	0xba3a094d	-0.0007096723
176	0xbe42b86e	-0.19015667
177	0xbecce176	-0.40015763
178	0xbd06c909	-0.032906566
179	0x3e6b93f5	0.2300566
180	0xbea63311	-0.32460836
181	0x3e54e3ef	0.20790075
182	0x3e7a94ff	0.244709
183	0xbe8a7a96	-0.2704665
184	0xbd96ce19	-0.07363529
185	0x3e896c2e	0.26840347
186	0x3ddf4165	0.10901145
187	0xbe751478	-0.2393359
188	0xbeb85061	-0.35998824
189	0xbb05482f	-0.0020337214
190	0x3ea8a770	0.32940245
191	0x3e783690	0.24239564
192	0x3de033a8	0.10947353
193	0x3e17f4f2	0.14839533
194	0xbe696c7a	-0.22795287
195	0xbe84ed60	-0.25962353
196	0x3e66526f	0.22492383
197	0x3e23ad8a	0.15984169
198	0xbe25baa4	-0.16184479
199	0xbe0c0d31	-0.13676907
200	0x3d992faa	0.07479794
201	0xbe589c08	-0.21153271
202	0x3eab56a3	0.33464536
203	0xbda04f6f	-0.07827651
204	0xbd8d2c74	-0.068932444
205	0x3da3ba45	0.079945125
206	0xbd33dbf8	-0.04391095
207	0xbe7983a6	-0.24366626
208	0xbe731384	-0.23737913
209	0x3d891273	0.06692972
210	0xbe787783	-0.2426434
211	0x3f30f96a	0.69130576
212	0x3d11c329	0.03558651
213	0x3ce39be4	0.027784295
214	0xbe397203	-0.18109898
215	0xbda1f3ef	-0.07907855
216	0x3e3968bb	0.18106358
217	0x3e1cd388	0.15315068
218	0xbe95956b	-0.2921556
219	0xbee149b4	-0.44001544
220	0xbe48aaf0	-0.19596457
221	0xbeddc3f0	-0.4331355
222	0x3e167611	0.14693476
223	0xbdbe010e	-0.09277545
224	0x3e8e08c8	0.27741075
225	0xbe34fcb0	-0.17674518
226	0x3e0f020d	0.13965626
227	0xbecbd498	-0.39810634
228	0xbd98d591	-0.074626096
229	0xbde09008	-0.10964972
230	0xbe3d3767	-0.18478166
231	0xbd9a32ba	-0.075292066
232	0x3df070ac	0.117402405
233	0x3d38b8dc	0.04509817
234	0x3e478ffa	0.19488516
235	0xbca1eda3	-0.019766634
236	0xbe3eafac	-0.18621701
237	0xbe96e6e8	-0.29473042
238	0xbd574e86	-0.05256512
239	0xbe7ae6cf	-0.24502109
240	0xbe3e9d18	-0.18614614
241	0x3e7584b6	0.23976406
242	0x3e902417	0.28152534
243	0xbdc82a14	-0.09773651
244	0xbe38ff68	-0.1806618
245	0x3e610264	0.21973568
246	0x3ea591ec	0.32337892
247	0x3e9424f1	0.28934434
248	0xbe738228	-0.2378012
249	0x3e873430	0.26407003
250	0xbe2fae95	-0.17156442
251	0xbe30172c	-0.1719634
252	0x3d9b9cec	0.0759829
253	0x3d6098e6	0.054833315
254	0x3e7cf5b8	0.2470311
255	0x3e52e27c	0.2059421

actor.lin1p.weight f4 [8, 21]
0	0x3d2c296d	0.042031694
1	0xbe03320d	-0.12812062
2	0xbe4b6c12	-0.19865444
3	0x3e299ce2	0.16563752
4	0xbd8cfd89	-0.068842955
5	0xbda4f726	-0.08054952
6	0xbe489233	-0.1958702
7	0xbd17ec03	-0.037090313
8	0xbe1c8188	-0.15283787
9	0xbd83c335	-0.06433717
10	0x3db4d0fb	0.08828922
11	0xbe143fe4	-0.14477497
12	0x3cf292c7	0.029611005
13	0x3a6cb46c	0.00090295705
14	0xbc4f9afc	-0.0126712285
15	0xbdf34442	-0.118782535
16	0x3d89033d	0.06690071
17	0x3da833e7	0.082130246
18	0x3d90e8f3	0.070756815
19	0x3d7b564d	0.0613616
20	0xbdf97395	-0.12180249
21	0x3ccff219	0.025383996
22	0xbddade47	-0.10686927
23	0x3c6f5019	0.014606499
24	0xbe2fcf7f	-0.17168997
25	0xbe2156c4	-0.15755755
26	0xbdad13b2	-0.08451022
27	0xbda8f9a4	-0.0825074
28	0x3de1ec9a	0.11031456
29	0xbd9be9d1	-0.07612956
30	0x3d7e43da	0.062076427
31	0xbe15aed6	-0.14617476
32	0x3d4a3caf	0.04937428
33	0xbde27254	-0.110569626
34	0xbd4dfc02	-0.05028916
35	0x3e290dcf	0.16509174
36	0xbbde05c1	-0.0067755883
37	0xbe4e6ff5	-0.20159896
38	0xbe371786	-0.17880067
39	0x3e080ac6	0.1328536
40	0x3d80a1d4	0.06280866
41	0xbcb06e28	-0.021536902
42	0xbe3bb003	-0.18328862
43	0x3e85c86f	0.2612948
44	0xbe3466dc	-0.17617363
45	0x3d889684	0.066693336
46	0x3c8e0c22	0.01733977
47	0xbb83ccd5	-0.0040222206
48	0xbd49ffa4	-0.049316064
49	0x3dbfef8a	0.0937186
50	0x3e3029bd	0.17203422
51	0x3d768ac7	0.060190942
52	0xbc2d96b1	-0.01059501
53	0x3e1d9c87	0.15391742
54	0x3e21be15	0.15795167
55	0x3dc49b4b	0.09599932
56	0x3dc546e3	0.09632661
57	0xbb089992	-0.0020843488
58	0x3e02d6be	0.1277723
59	0xbcc5969e	-0.024119671
60	0x3dc1212f	0.094301574
61	0x3d833c9f	0.06408047
62	0xbdfd1a2e	-0.12358509
63	0x3e254c48	0.1614238
64	0x3d79f723	0.061026704
65	0xbdc0cb49	-0.094137736
66	0x3d9a2b20	0.07527757
67	0xbd91891f	-0.07106232
68	0xbd9c41e4	-0.07629755
69	0xbe3d67d5	-0.1849664
70	0xbcb821f9	-0.022477137
71	0x3e2a5963	0.16635661
72	0x3e20b7b1	0.15695073
73	0x3dc78549	0.09742219
74	0x3e02fadf	0.12791012
75	0x3bcecaeb	0.006310811
76	0x3d7e973a	0.06215594
77	0xbe054d5d	-0.13017793
78	0x3e35d567	0.17757188
79	0xbd8c05e1	-0.06837059
80	0x3d2c00cf	0.04199296
81	0x3db0a536	0.086252615
82	0x3cd33833	0.025783634
83	0xbd935bc1	-0.07195235
84	0xbc2337b0	-0.009962007
85	0xbcaaed79	-0.020865189
86	0xbd395f74	-0.045257047
87	0xbe0eacff	-0.1393318
88	0x3da8716e	0.0822476
89	0xbdd607ba	-0.104506925
90	0xbe0a9730	-0.13534236
91	0xbe430cfe	-0.19047925
92	0xbd1f026a	-0.03882066
93	0x3e83af40	0.25719643
94	0xbe0427e6	-0.12905845
95	0x3e198e64	0.14995724
96	0x3e067d80	0.13133812
97	0x3e415400	0.188797
98	0x3d669880	0.05629778
99	0xbd95da62	-0.07317044
100	0x3dcfac73	0.10140314
101	0xbda982c7	-0.08276897
102	0x3da4019f	0.08008122
103	0x3dd80ddb	0.10549518
104	0xbe067b73	-0.1313303
105	0x3dd4c1b7	0.10388511
106	0xbcdd9dc9	-0.027052777
107	0xbe1cc797	-0.15310512
108	0x3e59d75e	0.21273562
109	0x3b923189	0.0044614715
110	0x3e4ff29f	0.20307396
111	0xbb4be9f3	-0.0031114786
112	0x3a67bb7e	0.0008839889
113	0x3d903c00	0.07042694
114	0x3e0c6f38	0.13714302
115	0xbdf01cb6	-0.11724226
116	0x3e9674d2	0.29386002
117	0x3d87b5b6	0.066264555
118	0xbe23a2d0	-0.15980077
119	0x3be6835b	0.0070347018
120	0x3e26d00b	0.162903
121	0x3cee97f6	0.029125195
122	0x3d8c5f52	0.068541184
123	0xbdae4875	-0.08509914
124	0x3d6b2d8a	0.057416476
125	0xbcee306b	-0.029075822
126	0xbc316571	-0.010827408
127	0x3d28f88c	0.041252658
128	0xbd9cbd92	-0.07653345
129	0xbd8968ec	-0.067094654
130	0xbe0c8a7b	-0.13724701
131	0x3e435f86	0.19079408
132	0xbe591657	-0.21199928
133	0xbe124568	-0.14284289
134	0x3c5971b8	0.013271742
135	0x3daac38f	0.08338081
136	0x3e315d79	0.17320813
137	0x3dd03121	0.101656206
138	0xbd8e377a	-0.06944175
139	0xbe4f58e1	-0.20248748
140	0x3e27e260	0.16394949
141	0xbdf21d22	-0.11821963
142	0x3d9a1eef	0.07525431
143	0x3df36254	0.11883989
144	0x3de860a8	0.11346561
145	0xbe517179	-0.20453443
146	0xbe464a13	-0.19364195
147	0x3ca59d9d	0.020216757
148	0x3ef40bea	0.4766534
149	0xbd7b4987	-0.061349418
150	0x3d549397	0.051898565
151	0xbd74b521	-0.05974305
152	0xbc883096	-0.01662473
153	0xbe0fc8e4	-0.14041477
154	0x3d178d47	0.036999967
155	0xbd7a5d90	-0.061124384
156	0x3ea2101f	0.31652924
157	0x3c2a2966	0.010385847
158	0xbe92c2da	-0.28664285
159	0x3d6705e8	0.056402117
160	0xbb8535dd	-0.004065259
161	0x3b38b373	0.0028183132
162	0x3d3c231a	0.045931913
163	0x3d3cba7e	0.04607629
164	0xbc9c5831	-0.019085022
165	0x3b666170	0.0035153292
166	0x3d7bee94	0.061506823
167	0xbd8e3ea4	-0.069455415

actor.lin1p.bias f4 [8]
0	0x3e20d28a	0.15705314
1	0xbda746ee	-0.08167826
2	0xbf119c32	-0.5687896
3	0x3dda296c	0.10652432
4	0x3e8e35c8	0.27775407
5	0x3e479d72	0.19493654
6	0xbdc0d76d	-0.09416089
7	0x3ec7be8e	0.3901257

actor.bilinp.weight f4 [8, 8]
0	0x3e8e34be	0.27774614
1	0xbe6115b5	-0.21980937
2	0xbdb3c38c	-0.08777532
3	0xbe22661d	-0.15859266
4	0x3e981312	0.2970205
5	0xbe898a35	-0.26863256
6	0xbe7a0331	-0.2441528
7	0xbd52da78	-0.05147788
8	0xbe619cd0	-0.22032475
9	0xbea719be	-0.32636827
10	0x3e0a299d	0.13492437
11	0xbe99fb52	-0.30074555
12	0x3e0b0110	0.13574624
13	0x3e97449f	0.2954454
14	0x3dd4ea9c	0.10396311
15	0x3e3c5fc9	0.18395914
16	0x3e8f1dbe	0.2795238
17	0x3e9898f6	0.298042
18	0x3e669995	0.22519524
19	0xbe13a6b3	-0.1441906
20	0xbe849065	-0.25891414
21	0xbc86b97e	-0.016445871
22	0x3e103418	0.14082372
23	0xbd9d10e1	-0.07669235
24	0x3e3da832	0.18521193
25	0x3e20c3be	0.1569967
26	0xbcd05135	-0.025429348
27	0xbd9a1849	-0.07524163
28	0x3e387690	0.18013978
29	0x3bc974da	0.006147963
30	0xbe282f2d	-0.16424246
31	0xbd8f7a8d	-0.070057966
32	0xbe27a5a9	-0.16371788
33	0xbe08214b	-0.1329395
34	0xbef7892b	-0.48346838
35	0x3e4ab0a4	0.19793946
36	0x3e91ac3a	0.2845171
37	0x3e9f36b3	0.3109642
38	0x3db52405	0.08844761
39	0x3e0c71f5	0.13715346
40	0x3d3e9419	0.046527956
41	0x3e155705	0.14583977
42	0xbe10f3fe	-0.14155576
43	0x3d9a6f17	0.0754072
44	0x3e97e390	0.29665804
45	0xbe243a10	-0.16037774
46	0x3e93ef58	0.28893542
47	0x3ed2502b	0.41076788
48	0x3b63689c	0.0034699803
49	0xbe66b0b9	-0.22528352
50	0xbdd8acc4	-0.105798274
51	0x3df3dae2	0.11906983
52	0x3e0b452f	0.1360061
53	0xbead0709	-0.3379443
54	0x3e0d3309	0.13789
55	0x3e510041	0.20410253
56	0x3dc691cd	0.09695778
57	0x3e3796f1	0.17928673
58	0x3ecdf4d4	0.40225852
59	0xbe395c0d	-0.18101521
60	0xbef2deef	-0.4743571
61	0xbd4b57a6	-0.049644135
62	0x3e886fd1	0.2664781
63	0xbe96f9a2	-0.2948733

critic.conv1.bias f4 [21]
0	0xbea45c05	-0.32101455
1	0x00000000	0.0
2	0x3ec60397	0.38674614
3	0x3e22756f	0.1586511
4	0xbe580b31	-0.21098019
5	0x3e889e74	0.2668339
6	0xbeb2dc97	-0.34933922
7	0x3b096a35	0.0020967845
8	0x3be16fe0	0.0068797916
9	0x3e5e4eb1	0.21709706
10	0x3acc4239	0.0015583701
11	0x3e401a74	0.18760091
12	0xbe7d1b89	-0.24717535
13	0xbe8a4d92	-0.27012306
14	0x3e991edf	0.29906365
15	0x3e019e9e	0.12658164
16	0xbe57cb70	-0.21073699
17	0x3ece5cad	0.4030508
18	0xbe809a3c	-0.2511767
19	0xbea9e600	-0.3318329
20	0xbea97d34	-0.33103335

critic.conv1.lin.weight f4 [21, 21]
0	0x3eb2d5a6	0.34928626
1	0x3ea7e765	0.32793728
2	0x3e889c82	0.26681906
3	0xbe02b368	-0.1276375
4	0x3e1ba729	0.15200485
5	0x3e09876d	0.13430567
6	0x3db783e2	0.089607015
7	0x3edf4c4d	0.436129
8	0x3c83466f	0.016024796
9	0x3ee28c5c	0.4424771
10	0x3ebb436b	0.36574873
11	0xbe5d4cea	-0.21611372
12	0xbd83b57d	-0.064311005
13	0x3e457a97	0.19285046
14	0xbea389cb	-0.31941065
15	0xbe5f84a7	-0.21827947
16	0xbe590695	-0.21193917
17	0x3e87449b	0.2641953
18	0x3ea196a8	0.31560254
19	0xbd7ea81c	-0.06217204
20	0x3e48fc6e	0.19627544
21	0x3e711076	0.23541436
22	0xbcecfd90	-0.028929502
23	0xbe13d58c	-0.1443693
24	0x3d312a00	0.043252945
25	0xbea9dc74	-0.33176005
26	0xbe9b0d0e	-0.30283397
27	0x3b1e7780	0.0024180114
28	0x3e0f159e	0.1397309
29	0x3e74ac06	0.23893747
30	0xbe9d387b	-0.30707154
31	0x3d45fc68	0.048336416
32	0xbe317491	-0.17329623
33	0xbd4bcbd8	-0.049754947
34	0xbe74bad6	-0.23899397
35	0xbead93d3	-0.33901843
36	0x3e81ac17	0.25326607
37	0xbe167e2e	-0.14696571
38	0x3e654812	0.22390774
39	0xbe90748d	-0.2821392
40	0xbcff1430	-0.031137556
41	0x3e768206	0.24073038
42	0xbcb7e1f6	-0.022446614
43	0x3eedf998	0.46479487
44	0xbdb1d470	-0.08683097
45	0x3ede6fd1	0.43444684
46	0x3a2f4f18	0.0006687506
47	0x3e4e56dc	0.20150322
48	0xbe3c9d6d	-0.18419428
49	0x3e5ea683	0.21743207
50	0xbebb7440	-0.3661213
51	0x3e164fbf	0.14678858
52	0xbea9cc72	-0.33163792
53	0x3e21c252	0.15796784
54	0x3ea5c880	0.32379532
55	0x3e58ae18	0.21160161
56	0x3dcd9520	0.10038209
57	0xbeab6133	-0.33472595
58	0xbde356a1	-0.111005075
59	0xbe66bf68	-0.22533953
60	0x3e6a50db	0.22882406
61	0xbd5ea843	-0.054359686
62	0xbeca4c96	-0.39511555
63	0x3ea05e54	0.31321967
64	0x3d9a6bb4	0.07540074
65	0xbe0674da	-0.13130513
66	0xbdc0e0d9	-0.09417886
67	0xbc6dc5a0	-0.0145124495
68	0xbbc036a4	-0.0058658887
69	0x3dacfd70	0.08446777
70	0x3eb280c9	0.3486388
71	0xbdc27c32	-0.094963446
72	0xbc4f4048	-0.012649603
73	0x3ddb6222	0.10712077
74	0x3c8a73f5	0.016900996
75	0xbed5e242	-0.41774184
76	0xbf091410	-0.5354624
77	0xbf176416	-0.59137094
78	0xbd48989a	-0.048973657
79	0xbedcd254	-0.43129218
80	0xbec60305	-0.3867418
81	0xbee5c40a	-0.44876128
82	0xbeea0d52	-0.45713288
83	0x3ea6f6c6	0.32610148
84	0xbe347aac	-0.1762492
85	0xbeb08305	-0.3447496
86	0xbe0bd362	-0.13654855
87	0xbe858d59	-0.26084402
88	0x3eae92e1	0.34096435
89	0xbc538fad	-0.012912673
90	0x3dfdabb2	0.12386264
91	0x3eb99697	0.36247703
92	0xbe74f858	-0.2392286
93	0xbe0ec780	-0.1394329
94	0xbeaef905	-0.34174362
95	0xbe4f3bda	-0.20237675
96	0x3e424084	0.18969923
97	0xbebf06b9	-0.37309816
98	0x3d4a4470	0.049381673
99	0x3e6f1944	0.23349482
100	0x3ecb6402	0.39724737
101	0x3eb5abe8	0.35482717
102	0x3e4f85de	0.2026591
103	0xbe652ace	-0.2237961
104	0xbe58880e	-0.2114565
105	0x3e091a0b	0.13388841
106	0xbd94e959	-0.0727107
107	0x3e74c4b8	0.23903167
108	0x3e2df3b6	0.169875
109	0xbd41797c	-0.047234997
110	0xbe2d5e2a	-0.16930452
111	0xbe12004b	-0.14257924
112	0x3d15ca04	0.03656961
113	0xbd920896	-0.07130544
114	0xbdd95c72	-0.10613336
115	0xbea47d08	-0.3212664
116	0x3d677399	0.056506727
117	0xbe9eb972	-0.3100086
118	0xbe219cc6	-0.1578246
119	0x3ab29abe	0.0013626439
120	0x3ea1f599	0.3163269
121	0x3d6bff9f	0.057616826
122	0x3cfc8738	0.030826196
123	0xbe7c3c3d	-0.24632354
124	0x3e83c716	0.25737828
125	0x3c913173	0.017723775
126	0xbe5d4c79	-0.21611203
127	0x3e2ad79c	0.16683811
128	0xbe971fd7	-0.2951648
129	0xbef4cefe	-0.47814173
130	0x3e5102d2	0.20411232
131	0xbd002c1b	-0.031292062
132	0x3e843d20	0.25827885
133	0x3e86ecc4	0.26352513
134	0x3eae691e	0.34064573
135	0xbd7bdaa5	-0.061487813
136	0xbebe6c0f	-0.37191817
137	0x3e975e3a	0.29564077
138	0x3dc34440	0.09534502
139	0xbec5bed2	-0.38622147
140	0xbe1be906	-0.1522561
141	0xbec97311	-0.393456
142	0x3e299d57	0.16563927
143	0x3ed2aff0	0.41149855
144	0x3e678a01	0.22611238
145	0x3ec0dddc	0.37669265
146	0x3d886dad	0.06661544
147	0x3e1927d9	0.14956607
148	0xbda34199	-0.07971496
149	0x3e8c96b1	0.27458718
150	0x3e0fb073	0.14032154
151	0xbeb8ffe3	-0.36132726
152	0x3df6cbce	0.120505914
153	0xbebfc4fb	-0.37454972
154	0x3df71eae	0.120663986
155	0xbdcd06f7	-0.10011094
156	0xbeae3823	-0.34027204
157	0xbd05a40d	-0.032627154
158	0xbe416a35	-0.18888171
159	0xbeb7de90	-0.3591199
160	0x3d51d220	0.05122578
161	0x3e0000f6	0.12500367
162	0xbdebe1a4	-0.11517647
163	0xbe7ed193	-0.24884634
164	0xbebac7ed	-0.36480656
165	0x3e876ca1	0.26450065
166	0xbe83dcda	-0.25754434
167	0x3dc7f7dc	0.09764072
168	0xbd6f8936	-0.058480464
169	0x3eae360f	0.34025618
170	0x3ec1404a	0.3774436
171	0x3ea5b1c2	0.3236218
172	0xbe1afe49	-0.15136065
173	0xbde2f14a	-0.110811785
174	0xbd636168	-0.055512816
175	0xbe988306	-0.29787463
176	0x3e8fad2c	0.28061807
177	0xbd98d98b	-0.07463368
178	0xbe548e58	-0.20757425
179	0x3ea414eb	0.3204721
180	0xbdffdcbf	-0.12493276
181	0x3d951237	0.07278865
182	0x3e9fe16d	0.31226674
183	0xbe92136b	-0.2853044
184	0xbe8aaa65	-0.27083126
185	0xbe1d453f	-0.15358447
186	0x3e6b1923	0.22958808
187	0x3eaefbb5	0.34176412
188	0x3e6ed92c	0.23325032
189	0x3e428375	0.1899546
190	0x3ec89f87	0.3918421
191	0xbe3b6859	-0.18301524
192	0xbc4dc600	-0.012559414
193	0x3ea4f37f	0.32217023
194	0x3dbe05fa	0.09278484
195	0xbe001a99	-0.12510146
196	0x3e17612b	0.1478316
197	0x3ea5b323	0.32363233
198	0x3e8f121d	0.27943507
199	0x3e771cf0	0.24132133
200	0xbe188477	-0.14894281
201	0xbed51380	-0.4161644
202	0xbc11e481	-0.008904577
203	0xbe260e6a	-0.16216436
204	0xbc77bc35	-0.015120556
205	0x3e375bec	0.17906159
206	0xbca26680	-0.019824266
207	0x3da9127c	0.08255479
208	0x3d122cb0	0.03568715
209	0x3da19bb0	0.07891023
210	0x3d99be20	0.075069666
211	0xbdfb7968	-0.12279016
212	0x3e9cb25b	0.30604824
213	0xbe4547d5	-0.19265683
214	0x3dd65ce1	0.10466934
215	0xbd564852	-0.052315064
216	0x3e43e781	0.1913128
217	0xbe043905	-0.12912376
218	0xbeb1ad72	-0.3470264
219	0xbebd21bc	-0.369398
220	0xbdd3ca94	-0.10341373
221	0x3da351f9	0.079746194
222	0xbe8234af	-0.2543082
223	0xbe6f95ed	-0.23397036
224	0xbe7b5b51	-0.24546553
225	0xbe659d21	-0.22423221
226	0x3ea023d7	0.31277344
227	0xbeba1d76	-0.36350602
228	0x3dc3b1cc	0.095553964
229	0xbe8e877f	-0.2783775
230	0x3e0ada92	0.1355994
231	0xbe9184b0	-0.28421545
232	0x3e7f2317	0.2491573
233	0x3e064b22	0.13114598
234	0x3eb9b016	0.36267155
235	0x3ebd07df	0.36920068
236	0xbdec574d	-0.11540089
237	0x3e8d454f	0.2759194
238	0x3d6a59e3	0.05721463
239	0x3e537348	0.20649445
240	0x3c4f123f	0.012638628
241	0x3d7bf83e	0.06151604
242	0xbde10371	-0.109869845
243	0xbe73df8f	-0.2381575
244	0xbd184369	-0.037173662
245	0x3e7e9f1d	0.24865384
246	0xbd80a0e9	-0.06280691
247	0xbda1a847	-0.078934245
248	0x3dcf7ae0	0.101308584
249	0x3d2ab33d	0.04167484
250	0xbe732f26	-0.23748454
251	0x3e8078b3	0.25092086
252	0x3e38d36d	0.18049403
253	0xbe698171	-0.22803284
254	0xbe868a47	-0.26277372
255	0x3e3d8587	0.18507968
