saved_files/ckpt/nyc4/a2c_gnn_test_vdvp.pth (torch, 286706 bytes, 55 tensors)

log_rate f4 [16, 16]
0	0x41a00000	20.0
1	0x41a00000	20.0
2	0x41a00000	20.0
3	0x41a00000	20.0
4	0x41a00000	20.0
5	0x41a00000	20.0
6	0x41a00000	20.0
7	0x41a00000	20.0
8	0x41a00000	20.0
9	0x41a00000	20.0
10	0x41a00000	20.0
11	0x41a00000	20.0
12	0x41a00000	20.0
13	0x41a00000	20.0
14	0x41a00000	20.0
15	0x41a00000	20.0
16	0x41a00000	20.0
17	0x41a00000	20.0
18	0x41a00000	20.0
19	0x41a00000	20.0
20	0x41a00000	20.0
21	0x41a00000	20.0
22	0x41a00000	20.0
23	0x41a00000	20.0
24	0x41a00000	20.0
25	0x41a00000	20.0
26	0x41a00000	20.0
27	0x41a00000	20.0
28	0x41a00000	20.0
29	0x41a00000	20.0
30	0x41a00000	20.0
31	0x41a00000	20.0
32	0x41a00000	20.0
33	0x41a00000	20.0
34	0x41a00000	20.0
35	0x41a00000	20.0
36	0x41a00000	20.0
37	0x41a00000	20.0
38	0x41a00000	20.0
39	0x41a00000	20.0
40	0x41a00000	20.0
41	0x41a00000	20.0
42	0x41a00000	20.0
43	0x41a00000	20.0
44	0x41a00000	20.0
45	0x41a00000	20.0
46	0x41a00000	20.0
47	0x41a00000	20.0
48	0x41a00000	20.0
49	0x41a00000	20.0
50	0x41a00000	20.0
51	0x41a00000	20.0
52	0x41a00000	20.0
53	0x41a00000	20.0
54	0x41a00000	20.0
55	0x41a00000	20.0
56	0x41a00000	20.0
57	0x41a00000	20.0
58	0x41a00000	20.0
59	0x41a00000	20.0
60	0x41a00000	20.0
61	0x41a00000	20.0
62	0x41a00000	20.0
63	0x41a00000	20.0
64	0x41a00000	20.0
65	0x41a00000	20.0
66	0x41a00000	20.0
67	0x41a00000	20.0
68	0x41a00000	20.0
69	0x41a00000	20.0
70	0x41a00000	20.0
71	0x41a00000	20.0
72	0x41a00000	20.0
73	0x41a00000	20.0
74	0x41a00000	20.0
75	0x41a00000	20.0
76	0x41a00000	20.0
77	0x41a00000	20.0
78	0x41a00000	20.0
79	0x41a00000	20.0
80	0x41a00000	20.0
81	0x41a00000	20.0
82	0x41a00000	20.0
83	0x41a00000	20.0
84	0x41a00000	20.0
85	0x41a00000	20.0
86	0x41a00000	20.0
87	0x41a00000	20.0
88	0x41a00000	20.0
89	0x41a00000	20.0
90	0x41a00000	20.0
91	0x41a00000	20.0
92	0x41a00000	20.0
93	0x41a00000	20.0
94	0x41a00000	20.0
95	0x41a00000	20.0
96	0x41a00000	20.0
97	0x41a00000	20.0
98	0x41a00000	20.0
99	0x41a00000	20.0
100	0x41a00000	20.0
101	0x41a00000	20.0
102	0x41a00000	20.0
103	0x41a00000	20.0
104	0x41a00000	20.0
105	0x41a00000	20.0
106	0x41a00000	20.0
107	0x41a00000	20.0
108	0x41a00000	20.0
109	0x41a00000	20.0
110	0x41a00000	20.0
111	0x41a00000	20.0
112	0x41a00000	20.0
113	0x41a00000	20.0
114	0x41a00000	20.0
115	0x41a00000	20.0
116	0x41a00000	20.0
117	0x41a00000	20.0
118	0x41a00000	20.0
119	0x41a00000	20.0
120	0x41a00000	20.0
121	0x41a00000	20.0
122	0x41a00000	20.0
123	0x41a00000	20.0
124	0x41a00000	20.0
125	0x41a00000	20.0
126	0x41a00000	20.0
127	0x41a00000	20.0
128	0x41a00000	20.0
129	0x41a00000	20.0
130	0x41a00000	20.0
131	0x41a00000	20.0
132	0x41a00000	20.0
133	0x41a00000	20.0
134	0x41a00000	20.0
135	0x41a00000	20.0
136	0x41a00000	20.0
137	0x41a00000	20.0
138	0x41a00000	20.0
139	0x41a00000	20.0
140	0x41a00000	20.0
141	0x41a00000	20.0
142	0x41a00000	20.0
143	0x41a00000	20.0
144	0x41a00000	20.0
145	0x41a00000	20.0
146	0x41a00000	20.0
147	0x41a00000	20.0
148	0x41a00000	20.0
149	0x41a00000	20.0
150	0x41a00000	20.0
151	0x41a00000	20.0
152	0x41a00000	20.0
153	0x41a00000	20.0
154	0x41a00000	20.0
155	0x41a00000	20.0
156	0x41a00000	20.0
157	0x41a00000	20.0
158	0x41a00000	20.0
159	0x41a00000	20.0
160	0x41a00000	20.0
161	0x41a00000	20.0
162	0x41a00000	20.0
163	0x41a00000	20.0
164	0x41a00000	20.0
165	0x41a00000	20.0
166	0x41a00000	20.0
167	0x41a00000	20.0
168	0x41a00000	20.0
169	0x41a00000	20.0
170	0x41a00000	20.0
171	0x41a00000	20.0
172	0x41a00000	20.0
173	0x41a00000	20.0
174	0x41a00000	20.0
175	0x41a00000	20.0
176	0x41a00000	20.0
177	0x41a00000	20.0
178	0x41a00000	20.0
179	0x41a00000	20.0
180	0x41a00000	20.0
181	0x41a00000	20.0
182	0x41a00000	20.0
183	0x41a00000	20.0
184	0x41a00000	20.0
185	0x41a00000	20.0
186	0x41a00000	20.0
187	0x41a00000	20.0
188	0x41a00000	20.0
189	0x41a00000	20.0
190	0x41a00000	20.0
191	0x41a00000	20.0
192	0x41a00000	20.0
193	0x41a00000	20.0
194	0x41a00000	20.0
195	0x41a00000	20.0
196	0x41a00000	20.0
197	0x41a00000	20.0
198	0x41a00000	20.0
199	0x41a00000	20.0
200	0x41a00000	20.0
201	0x41a00000	20.0
202	0x41a00000	20.0
203	0x41a00000	20.0
204	0x41a00000	20.0
205	0x41a00000	20.0
206	0x41a00000	20.0
207	0x41a00000	20.0
208	0x41a00000	20.0
209	0x41a00000	20.0
210	0x41a00000	20.0
211	0x41a00000	20.0
212	0x41a00000	20.0
213	0x41a00000	20.0
214	0x41a00000	20.0
215	0x41a00000	20.0
216	0x41a00000	20.0
217	0x41a00000	20.0
218	0x41a00000	20.0
219	0x41a00000	20.0
220	0x41a00000	20.0
221	0x41a00000	20.0
222	0x41a00000	20.0
223	0x41a00000	20.0
224	0x41a00000	20.0
225	0x41a00000	20.0
226	0x41a00000	20.0
227	0x41a00000	20.0
228	0x41a00000	20.0
229	0x41a00000	20.0
230	0x41a00000	20.0
231	0x41a00000	20.0
232	0x41a00000	20.0
233	0x41a00000	20.0
234	0x41a00000	20.0
235	0x41a00000	20.0
236	0x41a00000	20.0
237	0x41a00000	20.0
238	0x41a00000	20.0
239	0x41a00000	20.0
240	0x41a00000	20.0
241	0x41a00000	20.0
242	0x41a00000	20.0
243	0x41a00000	20.0
244	0x41a00000	20.0
245	0x41a00000	20.0
246	0x41a00000	20.0
247	0x41a00000	20.0
248	0x41a00000	20.0
249	0x41a00000	20.0
250	0x41a00000	20.0
251	0x41a00000	20.0
252	0x41a00000	20.0
253	0x41a00000	20.0
254	0x41a00000	20.0
255	0x41a00000	20.0

actor.conv1.bias f4 [21]
0	0xbd2f90f6	-0.042862855
1	0xbd5c69b5	-0.053811748
2	0xbd9164ab	-0.07099279
3	0x3c9fc5e6	0.019503545
4	0x3c8622c8	0.016374007
5	0xbd32319b	-0.04350434
6	0x3d71d692	0.05904252
7	0x3d800a9e	0.06252025
8	0x3d3aba7d	0.045588005
9	0xbda1b63e	-0.07896088
10	0xbdcfbe57	-0.10143726
11	0x3c88850e	0.016665008
12	0x3d290e15	0.041273195
13	0xbd021b2f	-0.031764206
14	0x3d1be898	0.038063616
15	0x3d5ce43c	0.0539286
16	0x3d39bf5d	0.045348514
17	0x3da6dd22	0.081476465
18	0x3d202c6c	0.039104864
19	0x3d3428fa	0.04398439
20	0xbb8962a5	-0.0041926675

actor.conv1.lin.weight f4 [21, 21]
0	0x3e98746b	0.2977632
1	0xbde5c119	-0.11218471
2	0x3d335354	0.04378064
3	0x3d99a992	0.07503046
4	0x3e933520	0.2875147
5	0xbea3ce49	-0.3199332
6	0xbec155bd	-0.37760726
7	0x3d23000e	0.039794974
8	0xbe814f6e	-0.25255913
9	0x3d925791	0.07145608
10	0xbd35dd90	-0.04440075
11	0xbdb9a3b1	-0.09064425
12	0xbe8e0656	-0.2773921
13	0xbe10030b	-0.14063661
14	0x3d868215	0.0656778
15	0xbecdecaf	-0.40219638
16	0x3de2d8cb	0.11076506
17	0x3e9b4e59	0.30333212
18	0x3e0b8458	0.13624704
19	0x3da64e47	0.08120399
20	0xbda057dd	-0.078292586
21	0xbe349d3a	-0.17638102
22	0xbde98c2b	-0.11403688
23	0xbe7b78f7	-0.24557863
24	0xbbb528c8	-0.005528543
25	0xbea00880	-0.31256485
26	0xbeab2237	-0.3342454
27	0xbe860586	-0.2617609
28	0xbafa85d4	-0.001911337
29	0x3e779c94	0.24180824
30	0x3da9f342	0.08298351
31	0x3e63ce00	0.22246552
32	0x3e1b0988	0.15140355
33	0xbe9528a8	-0.2913258
34	0xbdb09527	-0.086221986
35	0x3e8bcb31	0.2730346
36	0xbe295720	-0.16537142
37	0xbe2df1b2	-0.1698673
38	0x3d7460c1	0.059662584
39	0xbed4c20d	-0.415543
40	0x3e202f06	0.15642938
41	0xbe925778	-0.28582358
42	0xbc96bfb9	-0.018401967
43	0x3dd1c76f	0.10243117
44	0xbd5b3c32	-0.053524204
45	0x3df81ed4	0.12115255
46	0x3e549166	0.2075859
47	0x3cc81608	0.024424568
48	0xbea9c14a	-0.3315528
49	0x393aee13	0.00017827032
50	0xbe5af9c7	-0.21384345
51	0x3db1269a	0.08649941
52	0xbe8cd2cc	-0.27504575
53	0x3e0c0343	0.13673119
54	0xbcc7bd64	-0.0243823
55	0x3df09e71	0.1174897
56	0xbe9488a2	-0.29010493
57	0xbdb1c769	-0.086806126
58	0x3e82a155	0.25513712
59	0xbe3a1d5c	-0.18175262
60	0xbec35cec	-0.3815683
61	0x3d90785f	0.07054209
62	0x3e1a26e0	0.15053892
63	0x3db4f72b	0.08836206
64	0x3ec3d381	0.38247302
65	0xbe75a5a4	-0.23988968
66	0x3e3f8d6b	0.1870629
67	0xbe01aa7f	-0.12662695
68	0x3eb0c7fc	0.34527576
69	0x3e7fdb63	0.24986033
70	0xbd07d71e	-0.033164136
71	0xbd075083	-0.033035766
72	0x3e81f33c	0.25380886
73	0xbe8fb59c	-0.28068244
74	0x3cb73b96	0.02236728
75	0xbe1f20b0	-0.15539813
76	0x3e7eb823	0.2487493
77	0xbe9b6ff9	-0.30358866
78	0xbe92f23e	-0.2870044
79	0xbebb416b	-0.36573347
80	0x3d15e69c	0.03659688
81	0xbea7ff36	-0.32811898
82	0xbdba29ce	-0.09090005
83	0xbd2f955c	-0.04286705
84	0x3ee488f8	0.4463575
85	0x3eb88151	0.3603616
86	0x3ec388fd	0.3819045
87	0x3eba9ead	0.36449185
88	0xbd2700aa	-0.040772118
89	0x3ea2dc04	0.31808484
90	0x3ebc1a43	0.36738786
91	0x3ee8f7a8	0.45501447
92	0x3ef8f946	0.4862768
93	0x3e278cde	0.1636233
94	0x3db90d8c	0.09035787
95	0x3eb84b21	0.3599482
96	0x3eaebc3b	0.34127983
97	0x3eba4f72	0.36388737
98	0xbea6f1e9	-0.32606438
99	0x3eca3a71	0.39497712
100	0x3e8d9abc	0.27657115
101	0xbd161ac6	-0.036646627
102	0x3ec905be	0.39262193
103	0x3ebb9f1b	0.36644825
104	0x3e9c3807	0.30511495
105	0x3dd1206e	0.102112636
106	0xbe814e07	-0.25254843
107	0x3c01d401	0.007924081
108	0xbe12f981	-0.1435299
109	0xbd86ff40	-0.06591654
110	0x3e113093	0.14178686
111	0xbba24aff	-0.004952788
112	0x3da79ab2	0.08183803
113	0xbe8d6d11	-0.27622274
114	0x3e64551e	0.22298095
115	0xbe7f802f	-0.24951242
116	0xbe351e59	-0.17687358
117	0x3e8f84df	0.2803106
118	0x3e8e55c1	0.277998
119	0xbe8e4319	-0.27785566
120	0x3df092bf	0.117467396
121	0xbe612285	-0.21985824
122	0x3e8a1df6	0.26975983
123	0xbd9a009c	-0.075196475
124	0xbec97623	-0.39347944
125	0xbe877b9f	-0.26461503
126	0x3dd36501	0.10321999
127	0x3e054771	0.13015534
128	0x3ebb12bf	0.3653774
129	0xbe1ef3bf	-0.1552267
130	0x3e80b26b	0.25136122
131	0xbccc1d04	-0.02491618
132	0x3f06820c	0.52542186
133	0x3b6ce696	0.0036148182
134	0x3d5a5e7e	0.05331277
135	0x3f12a64b	0.5728499
136	0x3e0b9b14	0.13633376
137	0x3dae5e35	0.08514062
138	0x3e3f2a53	0.18668489
139	0x3ddc3f69	0.10754282
140	0x3e42179a	0.18954316
141	0x3e91b0ad	0.28455105
142	0x3e0043f3	0.1252592
143	0x3efb3243	0.49061784
144	0x3ec5fac9	0.38667896
145	0xbe53baaa	-0.20676675
146	0xbd5543dc	-0.05206667
147	0xbdb5f2c4	-0.088841945
148	0x3eb0a359	0.34499624
149	0x3eab103b	0.3341082
150	0x3ee1c467	0.44095156
151	0x3f014fdf	0.505125
152	0x3b1dae62	0.002406024
153	0x3eeabd70	0.45847654
154	0x3e8e4340	0.27785683
155	0x3e1758b9	0.14779939
156	0x3ecea4ff	0.40360257
157	0x3dbb78db	0.09153911
158	0xbe6d5ae8	-0.23179209
159	0x3e5bd9a1	0.21469738
160	0x3e672b0c	0.22575015
161	0xbc8f47ca	-0.017490286
162	0x3ef69b23	0.48165235
163	0x3ea7dd99	0.32786253
164	0x3dd6e16e	0.10492216
165	0x3d27b3c0	0.040942907
166	0x3e986afa	0.29769117
167	0x3ed63a34	0.4184128
168	0x3bf4e3d2	0.0074734474
169	0x3e1eada0	0.1549592
170	0x3e028481	0.12745859
171	0x3ee58ac7	0.4483244
172	0x3f0ca883	0.5494463
173	0x3e251bbe	0.16123864
174	0x3efdff56	0.49608868
175	0x3f06add4	0.5260899
176	0x3cb96771	0.022632333
177	0xbdad1785	-0.084517516
178	0x3f00acac	0.50263476
179	0x3e1b2be6	0.15153465
180	0xbe7c4dc5	-0.24639042
181	0x3ed6b561	0.41935256
182	0x3edabcad	0.42722073
183	0x3ed3bd68	0.41355443
184	0x3e0af7d6	0.13571104
185	0x3eab67aa	0.33477527
186	0x3ec55616	0.3854224
187	0xbdd08ba9	-0.10182888
188	0x3d9e0c9f	0.07717251
189	0x3e4a3408	0.19746411
190	0xbeb13ff4	-0.34619105
191	0x3e6fd754	0.23421985
192	0x3e32227a	0.17395964
193	0x3c8c529e	0.017129239
194	0xbe8e1001	-0.27746585
195	0xbebc60db	-0.36792645
196	0x3e80b69c	0.2513932
197	0x3e6e1437	0.23249899
198	0x3d6ecbf4	0.058299974
199	0x3e91c8a4	0.2847339
200	0xbe9dac3b	-0.30795464
201	0x3d840c7c	0.06447694
202	0xbeb9f12d	-0.36316815
203	0xba928104	-0.0011177366
204	0xbd6e8f9b	-0.05824242
205	0x3e3bc416	0.1833652
206	0xbe65c235	-0.22437365
207	0xbeb8aefc	-0.36071002
208	0x3d925d49	0.07146699
209	0xbdd3dadb	-0.10344478
210	0xbcec9c42	-0.028883103
211	0xbea793fd	-0.32730094
212	0x3e2fbe28	0.17162383
213	0x3e60dd82	0.21959499
214	0xbe360f00	-0.1777916
215	0xbea48cb0	-0.32138586
216	0x3e2f5a02	0.17124179
217	0xbea9ecbf	-0.33188435
218	0xbe56f67e	-0.20992467
219	0xbecf2263	-0.40455922
220	0xbe9265ca	-0.28593284
221	0xbdfd83ff	-0.12378692
222	0x3dada3c8	0.084785044
223	0xbe8692d5	-0.262839
224	0x3e4cffe3	0.20019488
225	0xbe019ca6	-0.12657413
226	0x3d52ac7a	0.051434018
227	0xbe2dee93	-0.1698554
228	0x3e9faedf	0.31188104
229	0xbe2c9f12	-0.16857556
230	0x3dc740ee	0.09729181
231	0x3e79229c	0.24329609
232	0x3dc6e48d	0.09711561
233	0x3e06b822	0.13156179
234	0xbe932d66	-0.28745574
235	0x3e3fdf97	0.18737637
236	0x3ec11f11	0.37719014
237	0x3cc820dc	0.024429731
238	0x3e1105a1	0.14162304
239	0xbe2340c1	-0.1594267
240	0x3e01c98b	0.12674539
241	0x3d908271	0.0705613
242	0xbe021ce3	-0.12706332
243	0x3d887867	0.0666359
244	0x3c47e21a	0.012199903
245	0xbec7dfc3	-0.39037904
246	0x3e452718	0.19253194
247	0xbdd12ba9	-0.10213406
248	0x3da2d50e	0.07950793
249	0xbea2b033	-0.31775054
250	0xbdd03f6b	-0.10168346
251	0xbbf4ec3c	-0.0074744504
252	0x3ec91692	0.39275032
253	0xbd0617c9	-0.032737527
254	0x3e866b81	0.26253894
255	0x3e933818	0.28753734

actor.lin1.weight f4 [32, 21]
0	0xbdca5fa7	-0.098815255
1	0xbe3a73b1	-0.18208195
2	0xbe5d50df	-0.21612881
3	0x3e0d2b8d	0.13786145
4	0xbdecec61	-0.11568523
5	0xbd4166aa	-0.04721705
6	0xbdadcf53	-0.084868096
7	0xbe0ed446	-0.13948163
8	0x3d8a12ab	0.06741842
9	0xbdf384fc	-0.11890599
10	0x3cc783ad	0.02435478
11	0x3d4b7bc0	0.049678564
12	0xbe362162	-0.17786172
13	0xbd81b207	-0.06332784
14	0xbe28b2d0	-0.16474462
15	0xbe104197	-0.1408752
16	0xbe1410e3	-0.14459567
17	0xbdca024b	-0.098637186
18	0xbe0b1c28	-0.1358496
19	0x3cad2166	0.02113409
20	0xbc5ad2f1	-0.013355956
21	0x3eb98684	0.3623544
22	0x3e8bdf32	0.27318722
23	0xbb84109a	-0.0040302994
24	0x3dc43f57	0.095823936
25	0x3eb48081	0.3525429
26	0x3ec1b24b	0.3783134
27	0x3ce9be56	0.028533142
28	0x3ebcc44d	0.36868516
29	0x3ecd5fb0	0.40112066
30	0x3e8bb357	0.27285263
31	0x3ebc9367	0.3683121
32	0xbde8faf5	-0.11375991
33	0xbe23ba30	-0.15988994
34	0xbddcdc5d	-0.107842185
35	0xbdf44dcc	-0.11928901
36	0xbe9fc91f	-0.3120813
37	0xbc8ffcc5	-0.017576585
38	0x3e5460af	0.20740007
39	0x3e0a5687	0.1350957
40	0x3e2947b2	0.16531256
41	0xbe0c662b	-0.13710849
42	0x3ebcfb4f	0.36910483
43	0x3da1b6be	0.078961834
44	0x3d418b7b	0.04725216
45	0x3eaa51e0	0.3326559
46	0x3e155183	0.14581876
47	0x3ed17f0f	0.4091725
48	0x3e6c6985	0.23087128
49	0x3eaf7ba1	0.3427401
50	0x3e5b7a6b	0.21433417
51	0x3e8df920	0.2772913
52	0x3e134660	0.14382315
53	0xbda47551	-0.08030189
54	0xbce3d848	-0.027813092
55	0xbe886352	-0.26638275
56	0xbe52e943	-0.20596795
57	0xbda4d26a	-0.08047946
58	0x3e23990b	0.1597635
59	0x3dc8b52b	0.0980018
60	0x3d3c94fe	0.046040528
61	0x3e1b2fa9	0.151549
62	0x3d9ac77f	0.07557582
63	0x3e77a75a	0.24184933
64	0x3e64ed8a	0.22356239
65	0x3dfbd0ac	0.122956604
66	0x3ef1eb02	0.4724961
67	0x3e9b9302	0.30385596
68	0x3e635a64	0.2220245
69	0x3ebd8e72	0.3702274
70	0x3e9dff18	0.30858684
71	0x3ea6cb03	0.3257676
72	0x3f01224a	0.50442946
73	0x3ed52bbe	0.41634935
74	0xbe608fb2	-0.21929815
75	0xbd98e343	-0.07465222
76	0xbd846561	-0.06464649
77	0xbd647f0e	-0.05578523
78	0x3e0264ce	0.12733766
79	0x3abe1d24	0.0014504534
80	0xbe3b73fa	-0.1830596
81	0xbe16fd1d	-0.14744993
82	0x3e007c95	0.12547524
83	0xbd8b1c73	-0.06792536
84	0xbd9c5602	-0.07633592
85	0x3d42c86d	0.047554422
86	0xbe337a55	-0.17527135
87	0x3d714112	0.058899947
88	0xbe7e26bd	-0.24819465
89	0xbe33afe3	-0.17547564
90	0x3d26c66a	0.040716566
91	0xbdebf2fc	-0.11520955
92	0xbe82e6e4	-0.2556678
93	0xbd134377	-0.03595301
94	0xbdd214f9	-0.102579065
95	0xbe0a95cc	-0.13533705
96	0x3d7d14a4	0.061787263
97	0xbde237d9	-0.11045808
98	0xbe1bf74f	-0.1523106
99	0x3dbfee5e	0.09371637
100	0x3d9cce8a	0.07656582
101	0xbc56ed86	-0.013118153
102	0xbda500b7	-0.08056777
103	0x3e0b34bb	0.13594334
104	0xbe1ec539	-0.15504922
105	0x3d566c89	0.0523496
106	0x3ea2a801	0.31768802
107	0x3da9e052	0.08294739
108	0x3d819cd9	0.063287444
109	0xbc842fcf	-0.016136078
110	0x3e6cfe80	0.23143959
111	0x3eba3168	0.3636582
112	0x3e57069c	0.20998615
113	0xbd52b7d0	-0.05144483
114	0x3e79a704	0.24380118
115	0x3e091c35	0.13389666
116	0xbdbfa6ce	-0.09357987
117	0x3d37d211	0.04487807
118	0x3c9598bd	0.018261308
119	0xbe60f396	-0.2196792
120	0xbc9d4c76	-0.019201498
121	0x3d986a67	0.0744217
122	0x3e30ea6b	0.17276923
123	0x3dc8b970	0.098009944
124	0xbdb98e89	-0.090603895
125	0xbc994127	-0.018707825
126	0xbe5e6680	-0.21718788
127	0xbe681d1a	-0.22667351
128	0x3dee63cc	0.116401285
129	0xbd7662aa	-0.060152687
130	0xbd92fc81	-0.071770675
131	0x3e3a6776	0.1820353
132	0x3ddab280	0.106785774
133	0xbe5cd792	-0.21566609
134	0x3de8aa8f	0.113606565
135	0xbe60f0ad	-0.2196681
136	0x3d71e730	0.05905837
137	0x3cac5021	0.021034302
138	0x3d0656fc	0.0327978
139	0xbd97fb33	-0.07420959
140	0x3e3fbb1a	0.18723717
141	0xbe2c9d1c	-0.16856807
142	0xbd35e67f	-0.04440927
143	0xbc0965be	-0.008386074
144	0x3cc04d27	0.02347429
145	0xbd817e9a	-0.063229755
146	0xbdb01120	-0.08597016
147	0x3ecb1ec6	0.39671916
148	0x3e939276	0.28822678
149	0x3e9ef73c	0.31048
150	0x3e13c6ea	0.14431348
151	0x3e587e3c	0.21141905
152	0x3ed3c784	0.41363156
153	0x3eea4524	0.45755875
154	0x3e9a51fb	0.3014067
155	0x3edaaa2f	0.42707965
156	0x3eb99b3c	0.36251247
157	0x3ec13099	0.3773239
158	0xbd9e4c46	-0.07729392
159	0x3c8b0fa6	0.016975235
160	0xbd02da1b	-0.031946283
161	0xbe29ad22	-0.16569951
162	0xbe4df774	-0.20113927
163	0xbcc8ef6c	-0.024528228
164	0x3e12a20f	0.14319633
165	0xbe2b1f0e	-0.16711065
166	0x3e0c31af	0.13690828
167	0xbdff3895	-0.12461964
168	0xbe201a0a	-0.15634933
169	0x3df0cea3	0.11758163
170	0xbcfcae63	-0.030844873
171	0x3dfb4882	0.12269689
172	0xbe45a2b0	-0.19300342
173	0xbe6642eb	-0.22486465
174	0xbe5db258	-0.21650064
175	0x3d150045	0.03637721
176	0xbd091947	-0.033471372
177	0x3e12a7bf	0.14321803
178	0xbd92cf8e	-0.07168494
179	0xbe1f0ba5	-0.15531786
180	0xbe06ae2c	-0.13152379
181	0xbe582ab9	-0.21110047
182	0xbda1e2d4	-0.07904592
183	0xbe593063	-0.21209864
184	0xbdd0af6d	-0.1018971
185	0x3c0a313d	0.008434591
186	0x3d921441	0.071327694
187	0x3c1c8d1b	0.009555127
188	0x3e1b38f8	0.1515845
189	0x3e884b37	0.26619884
190	0x3ec2574d	0.3795723
191	0x3d62a331	0.055331413
192	0x3d973a72	0.073841944
193	0x3e47937e	0.19489858
194	0x3e1d181e	0.15341231
195	0x3ee0a774	0.43877757
196	0x3eacd9f8	0.33760047
197	0x3ed53033	0.41638336
198	0x3f06b04e	0.5261277
199	0x3e28c512	0.16481426
200	0xbe51e816	-0.2049869
201	0xbe6e807e	-0.23291203
202	0xbe1200b0	-0.14258075
203	0x3db62616	0.08893983
204	0xbb847720	-0.004042521
205	0xbe87d041	-0.26526073
206	0x3d95fcbb	0.07323595
207	0xbbe7045a	-0.0070500793
208	0x3ce265f6	0.02763651
209	0x3d9e15d8	0.0771901
210	0xbe57fd5c	-0.21092743
211	0xbddd78d6	-0.10814063
212	0x3de2e553	0.110788964
213	0x3e4a51f5	0.19757827
214	0xbe73104a	-0.23736683
215	0x3c928006	0.017883312
216	0x3e3fdec0	0.18737316
217	0x3cbaf4dd	0.022821838
218	0x3db33836	0.08750956
219	0xbe117911	-0.1420634
220	0xbe3c1694	-0.18367988
221	0x3da6337a	0.08115287
222	0xbe1f1d1e	-0.15538451
223	0xbe25ad50	-0.16179395
224	0x3c56ea3a	0.013117367
225	0x3e44a5ca	0.19203869
226	0x3d47ef2d	0.04881208
227	0xbd993678	-0.07481092
228	0xbd3c1400	-0.04591751
229	0xbe06815d	-0.13135286
230	0xbe23dcfc	-0.16002268
231	0x3d7c955c	0.061665878
232	0xbe005e76	-0.12536034
233	0xbe73944b	-0.23787038
234	0xbe7692cf	-0.2407944
235	0xbe85333b	-0.26015648
236	0xbdd7d79b	-0.1053917
237	0xbe6b8844	-0.230012
238	0x3dbd5e92	0.092465535
239	0xbe67faac	-0.22654217
240	0xbde91d6c	-0.11382565
241	0x3dd88010	0.10571301
242	0x3e1e8bf1	0.15483071
243	0x3e4d5a1f	0.2005391
244	0xbde7124f	-0.11282789
245	0x3b02d7ae	0.001996498
246	0x3e29cf37	0.16582952
247	0xbcec7a47	-0.0288669
248	0xbe448d21	-0.19194461
249	0x3e021842	0.12704566
250	0x3dc793cf	0.09744989
251	0x3e3fb63b	0.18721859
252	0x3f003aed	0.50089914
253	0x3eb5b749	0.35491398
254	0x3e5eb7ec	0.21749848
255	0x3ded17ea	0.11576827

actor.lin1.bias f4 [32]
0	0x3da12ebf	0.07870244
1	0xbbdafea8	-0.0066831894
2	0x3cf273de	0.029596265
3	0x3d910f36	0.070829794
4	0x3e01bf3d	0.12670608
5	0xbcea7cd0	-0.028623968
6	0xbe2bcbf2	-0.16777018
7	0x3d42c052	0.047546692
8	0xbdcab262	-0.09897305
9	0x3d81da53	0.0634047
10	0xbdaa8df2	-0.08327855
11	0x3d9d6ae0	0.076864004
12	0x3e049442	0.12947181
13	0x3c654848	0.013994284
14	0xbdacaafa	-0.08431049
15	0x3c6e1ae8	0.014532782
16	0x3e39f807	0.18161021
17	0x3e48e174	0.19617254
18	0x3e199759	0.14999141
19	0x3e85691e	0.2605676
20	0xbe651e01	-0.22374727
21	0xbb96f41f	-0.004606738
22	0x3e218679	0.15773953
23	0x3dee5c6c	0.11638722
24	0xbc987498	-0.018610284
25	0x3bf51487	0.0074792537
26	0xbae5927d	-0.001751497
27	0x3e4ec37e	0.20191762
28	0x3d87c55e	0.06629442
29	0x3d40e6a4	0.047094956
30	0x3e5bb895	0.21457131
31	0xbe87d8ea	-0.2653268

actor.lin2.weight f4 [32, 32]
0	0xbda97c78	-0.08275694
1	0x3e3c2bcb	0.1837608
2	0x3ea428ad	0.32062283
3	0x3e97755f	0.29581735
4	0xbe05e9ab	-0.13077419
5	0x3e2f04c6	0.17091665
6	0xbd93e63b	-0.07221647
7	0x3e9b3954	0.30317175
8	0xbe3314b6	-0.1748837
9	0x3e602463	0.2188888
10	0x3db83eac	0.08996329
11	0x3ca8d887	0.02061106
12	0x3eac0f2d	0.33605328
13	0x3e0b516c	0.13605279
14	0x3e8efe2d	0.27928296
15	0x3e0547cd	0.13015671
16	0xbdd48f3a	-0.10378881
17	0xbd4f1e52	-0.050566025
18	0x3dcac310	0.099004865
19	0x3ea70e65	0.3262817
20	0xbd45dadf	-0.048304435
21	0x3e4810c8	0.19537652
22	0xbd643986	-0.05571892
23	0x3de17384	0.11008361
24	0x3d00e9ac	0.031472847
25	0xbd960019	-0.073242374
26	0xbe0e26a6	-0.1388193
27	0x3e9a2967	0.30109712
28	0x3da5bdae	0.08092819
29	0x3d84b812	0.06480421
30	0x3e4062b8	0.18787658
31	0xbde2956a	-0.11063655
32	0xbdbb1ee5	-0.09136752
33	0xbe306adb	-0.17228262
34	0xbe09a6e6	-0.13442573
35	0xbd0f28c0	-0.03495097
36	0x3e27c27b	0.16382782
37	0xbd93d3ab	-0.07218107
38	0xbd27a090	-0.04092461
39	0xbe2ea0da	-0.17053548
40	0xbe2a1181	-0.1660824
41	0xbd6037c4	-0.054740682
42	0xbd76976c	-0.060203
43	0x3e0c1afb	0.13682167
44	0xbdd6ab30	-0.1048187
45	0xbdec9dc2	-0.115535274
46	0x3d2d0a74	0.042246297
47	0xbd397030	-0.045273006
48	0x3e323e75	0.17406638
49	0x3d952c0e	0.072837934
50	0xbc8538c8	-0.016262427
51	0x3c769c00	0.015051842
52	0xbe27ef48	-0.16399872
53	0x3d3bcf9c	0.04585229
54	0xbdeae62c	-0.11469683
55	0xbd92a9de	-0.07161306
56	0xbd0c7210	-0.034288466
57	0xbd85bb2f	-0.06529843
58	0xbc944680	-0.018100023
59	0xbd921919	-0.07133693
60	0x3ba00be0	0.004884228
61	0x3c645090	0.013935223
62	0xbcaeb428	-0.02132614
63	0x3dc46196	0.095889255
64	0xbd0fc1f5	-0.03509708
65	0xbdaa3567	-0.08310967
66	0xbd80e432	-0.06293525
67	0xbcb463a0	-0.022020161
68	0xbd2a10b0	-0.04151982
69	0x3e10cfbd	0.14141746
70	0x3e414f74	0.18877965
71	0xbe1ff6e8	-0.15621531
72	0xbe3b5280	-0.1829319
73	0xbe276516	-0.16347155
74	0x3bb05c74	0.005382115
75	0x3e0bf292	0.13666752
76	0xbcbf6bdb	-0.02336686
77	0xbd72d0db	-0.05928121
78	0xbd905e50	-0.07049239
79	0x3d0bdda6	0.034146927
80	0xbd25d58a	-0.04048685
81	0x3ce866b7	0.02836929
82	0x3e22da13	0.15903501
83	0xbddd71ac	-0.10812697
84	0xbdf73130	-0.12069929
85	0xbe32af0d	-0.17449589
86	0xbcd46754	-0.025928177
87	0x3dd9dd5b	0.10637923
88	0x3d2aa844	0.041664377
89	0xbded1dc2	-0.115779415
90	0xbdf8dbb0	-0.12151277
91	0x3dbaabff	0.09114837
92	0x3d1d3f6f	0.038390573
93	0x3d9a7eae	0.075436935
94	0xbdd03335	-0.10166017
95	0x3da2de26	0.07952528
96	0xbe01fe00	-0.1269455
97	0x3e892b3a	0.26790792
98	0x3df38156	0.11889903
99	0x3d9bb67d	0.07603166
100	0x3e2f68d9	0.1712984
101	0x3e560dfd	0.20903774
102	0xbcbeda7e	-0.023297545
103	0x3e37e89b	0.17959826
104	0xbdd8fccb	-0.105950914
105	0x3e11d43e	0.1424112
106	0x3cd029ed	0.025410617
107	0xbda5b889	-0.08091838
108	0x3e2eb875	0.17062552
109	0xbe1459a0	-0.14487314
110	0xbc604a3b	-0.013689573
111	0x3d55b78b	0.052176993
112	0x3e277830	0.16354442
113	0x3df7d4d4	0.121011406
114	0x3c37fbf3	0.011229503
115	0x3eaa01ff	0.33204648
116	0xbe09784b	-0.13424794
117	0x3e2caab3	0.16861992
118	0xbd5bf5ac	-0.053701088
119	0x3dd288e0	0.10280013
120	0x3d11efe0	0.035629153
121	0xbe11bd74	-0.14232427
122	0x3d4f757b	0.050649147
123	0x3e8d2f5a	0.2757519
124	0xbdf18efc	-0.1179485
125	0xbdc80f06	-0.097684905
126	0x3de8afdb	0.11361667
127	0x3e28a7e0	0.16470289
128	0xbe069e11	-0.13146235
129	0xbde22cc2	-0.11043693
130	0x3dd19060	0.102326155
131	0x3e45b244	0.19306284
132	0x3df92026	0.12164335
133	0x3d141999	0.036157224
134	0x3d3e92d5	0.04652675
135	0xbd16f101	-0.036850933
136	0x3b8b4b6f	0.0042509357
137	0x3e091238	0.13385856
138	0xbd9e77e0	-0.07737708
139	0xbd078044	-0.033081308
140	0xbc93d53e	-0.018046018
141	0xbd3ffc4b	-0.046871465
142	0x3dedecfd	0.116174676
143	0x3d390e8f	0.0451799
144	0x3ddb2d70	0.10702026
145	0x3d4217f5	0.04738613
146	0x3da9c834	0.08290139
147	0xbddb4e23	-0.10708263
148	0xbd2bb455	-0.041920025
149	0x3e28b7c5	0.16476353
150	0x3d18718e	0.03721767
151	0xbdb0ef6f	-0.08639418
152	0x3db9b386	0.090674445
153	0xbe2e26e4	-0.17007023
154	0xbdf52327	-0.119695954
155	0x3e097ec0	0.13427258
156	0x3de2f0e4	0.110811025
157	0xbe14e8d5	-0.14541943
158	0xbde6c310	-0.11267674
159	0x3c5364ab	0.012902419
160	0xbdcf585e	-0.101242766
161	0x3e992110	0.29908037
162	0x3e57d651	0.21077849
163	0x3ea81da9	0.3283513
164	0xbd7f5fc8	-0.062347203
165	0x3e5d22f2	0.21595362
166	0xbdf5d115	-0.1200277
167	0x3ec7632a	0.38942844
168	0xbe1feea5	-0.1561838
169	0x3e2ed1b6	0.17072186
170	0xbde6de62	-0.11272885
171	0xbe29cc27	-0.16581784
172	0x3e91b0ab	0.284551
173	0xbd123842	-0.035698183
174	0x3dfb4cc6	0.12270503
175	0x3e9fbafa	0.3119734
176	0xbdc8d4c2	-0.09806205
177	0x3e43580e	0.19076559
178	0xbdea56f0	-0.11442363
179	0x3e4589b9	0.19290818
180	0x3d489b16	0.048976026
181	0x3e2e600c	0.17028826
182	0xbe383ea5	-0.17992647
183	0x3c929009	0.017890947
184	0xbe25dd5d	-0.16197725
185	0x3d955d1e	0.07293151
186	0xbe481cdd	-0.1954226
187	0x3d83fedc	0.06445095
188	0xbe38ed8b	-0.18059365
189	0x3db4f10e	0.0883504
190	0x3e9ecdf0	0.31016493
191	0xbe0192ea	-0.126537
192	0xbe02d928	-0.12778151
193	0xbdbf09c9	-0.09328038
194	0x3e09f8e2	0.13473848
195	0x3da0954f	0.07840978
196	0xbe015d88	-0.12633336
197	0xbd2b29d7	-0.04178795
198	0xbe358ef4	-0.17730314
199	0xbdcb0620	-0.099132776
200	0xbb3581ff	-0.0027695892
201	0x3d727dd4	0.05920203
202	0x3ca9d0cf	0.02072945
203	0x3dadd88c	0.08488569
204	0x3e86ca9b	0.2632645
205	0x3d8e8f45	0.0696092
206	0x3d05985f	0.032616016
207	0x3e0c9e5b	0.13732283
208	0xbcc7cab1	-0.024388643
209	0xbe0cc3b7	-0.13746534
210	0x3e25859d	0.1616425
211	0xbda78b60	-0.081808805
212	0xbd435f99	-0.04769859
213	0x3e294c8b	0.16533105
214	0x3e157036	0.14593586
215	0xbda62f20	-0.08114457
216	0xbd5c7f74	-0.053832486
217	0x3e3a6afd	0.18204875
218	0xbe7c8b2c	-0.24662465
219	0x3e53e053	0.20691042
220	0x3d9b509c	0.075837344
221	0x3d74fae4	0.05980958
222	0x3ca74f30	0.020423502
223	0xbe09cba0	-0.13456583
224	0x3e1a20b5	0.15051539
225	0x3e774d2c	0.24150532
226	0x3e0e42a9	0.13892616
227	0x3eae66b3	0.34062728
228	0x3e285e6f	0.16442274
229	0x3e3d3a09	0.1847917
230	0x3d176cb4	0.0369689
231	0x3ea5f055	0.3240992
232	0x3e1473b8	0.14497268
233	0x3e1d57eb	0.1536557
234	0xbe131599	-0.14363708
235	0xbe0dd8f6	-0.13852295
236	0x3e34a712	0.17641857
237	0x3e20ab35	0.1569031
238	0xbd9fe744	-0.07807782
239	0x3e83dba9	0.25753525
240	0x3e29506b	0.16534583
241	0x3e6565e3	0.22402148
242	0xbcc6508a	-0.024208326
243	0x3e6660be	0.22497842
244	0xbda358c1	-0.07975913
245	0x3e64a490	0.223284
246	0xbdb83f31	-0.08996428
247	0x3d8d08d5	0.0688645
248	0xbe02d2bb	-0.127757
249	0x3dd2bb3a	0.10289617
250	0xbe2f7027	-0.17132626
251	0x3e8c01cf	0.2734513
252	0xbd21281f	-0.039344903
253	0x3d960b76	0.07326405
254	0x3e8517bd	0.25994673
255	0x3d894de1	0.06704307

actor.lin2.bias f4 [32]
0	0xbdb3183c	-0.08744857
1	0xbb4f1040	-0.003159538
2	0xbdcd4172	-0.10022248
3	0x3e46b00b	0.19403093
4	0xbe53edd9	-0.206962
5	0x3e6564ba	0.22401705
6	0x3d23e7f9	0.04001615
7	0x3e2f1301	0.17097093
8	0x3d042a02	0.032266624
9	0xbde33937	-0.11094897
10	0xbe00f0ea	-0.12591901
11	0x3e02bd56	0.12767538
12	0x3ab16b86	0.0013536073
13	0x3daf0e52	0.08547653
14	0x3df877e2	0.12132241
15	0x3e37c70a	0.17947021
16	0x3d4f2eab	0.050581615
17	0x3e28210f	0.16418861
18	0x3d65b91f	0.05608475
19	0xbd42b30b	-0.04753403
20	0x3e368021	0.17822315
21	0x399277ee	0.00027936645
22	0xbcb590e8	-0.022163823
23	0x3e027599	0.12740172
24	0xbde13e6c	-0.10998234
25	0x3df26dda	0.11837359
26	0xbdbe718f	-0.09299003
27	0x3dc97eca	0.09838636
28	0xbd06b282	-0.032885082
29	0x3ce92f11	0.028464826
30	0x3dabfc5d	0.08397744
31	0xbd2d4777	-0.042304482

actor.lin3.weight f4 [1, 32]
0	0x3ea57ee4	0.32323372
1	0x3e19e0c7	0.15027152
2	0xbe0d84a8	-0.13820136
3	0x3e32aaa2	0.17447904
4	0x3bb2f86a	0.005461742
5	0x3e6f33a8	0.23359549
6	0xbd70b1f1	-0.05876345
7	0x3ea03d53	0.31296787
8	0xbde93886	-0.11387734
9	0xbd705528	-0.05867496
10	0x3e8ba044	0.2727071
11	0xbdd89a87	-0.10576349
12	0x3ebdf056	0.37097424
13	0x3d8351ab	0.06412061
14	0x3e451c2e	0.19249031
15	0x3e521a08	0.20517743
16	0xbde2f3d5	-0.110816635
17	0xbcaf04d7	-0.021364613
18	0x3e826716	0.25469273
19	0xbd453563	-0.048146617
20	0x3e803a23	0.25044355
21	0xbcc23a94	-0.023709573
22	0xbe2a313e	-0.16620347
23	0xbdafee6e	-0.08590399
24	0xbda6ca80	-0.081440926
25	0xbd9e5a90	-0.07732117
26	0x3e8c0376	0.2734639
27	0x3e9c3afa	0.30513746
28	0xbcd5f54c	-0.026117943
29	0x3eb2d479	0.3492773
30	0x3e637278	0.22211635
31	0x3eb86ec9	0.36022022

actor.lin4.weight f4 [32, 32]
0	0xbd8efe55	-0.06982104
1	0xbe1fd675	-0.15609153
2	0xbc948c15	-0.018133203
3	0xbe4bb6cc	-0.1989395
4	0x3dc5ae64	0.09652403
5	0xbdadd278	-0.08487409
6	0x3e09fd15	0.1347545
7	0xbd4b656d	-0.049657274
8	0x3e0f7a4b	0.14011495
9	0x3dd15fa0	0.10223317
10	0xbe1664cb	-0.14686887
11	0x3cfa656c	0.03056594
12	0xbe2d358d	-0.16914959
13	0xbd9e1451	-0.07718719
14	0xbdadb469	-0.08481676
15	0xbd9fdbd0	-0.07805598
16	0x3dc998e2	0.09843613
17	0x3d8556b6	0.065106794
18	0x3d8a7fea	0.06762679
19	0xbe0393a5	-0.1284929
20	0x3e0b86cf	0.13625644
21	0x3e124236	0.1428307
22	0x3d15b2f0	0.0365476
23	0x3d56f231	0.052477065
24	0x3e054661	0.13015129
25	0x3d4d0a97	0.050058927
26	0xbd0e9bdd	-0.03481661
27	0xbc46e448	-0.012139387
28	0xbe2380f8	-0.15967166
29	0xbdc54265	-0.096318044
30	0x3e0a5a00	0.13510895
31	0xbddb5e39	-0.10711331
32	0xbd4da7a6	-0.05020871
33	0x3dd313d0	0.10306513
34	0x3d3326a5	0.043738026
35	0xbdf82ff7	-0.121185236
36	0x3d9b5c6d	0.07585988
37	0x3c63f0f5	0.013912429
38	0x3c601876	0.013677707
39	0xbe2ae066	-0.16687164
40	0xbe2c5f12	-0.16833141
41	0xbd899088	-0.0671702
42	0x3db87a0c	0.090076536
43	0xbde745e7	-0.1129263
44	0x3d978175	0.07397739
45	0x3d8bdda9	0.06829388
46	0xbdfe760b	-0.12424859
47	0x3da68a79	0.0813188
48	0xbe26c06e	-0.16284344
49	0x3e0b98cb	0.13632505
50	0x3e47eb69	0.19523396
51	0x3d8a1c7a	0.06743713
52	0xbe07ca80	-0.13260841
53	0xbc78a931	-0.015177057
54	0x3e1be806	0.15225229
55	0xbddb231c	-0.10700056
56	0xbd48c3d4	-0.04901488
57	0xbd8bd117	-0.0682699
58	0xbd9a1a56	-0.075245544
59	0x3d23163e	0.039816134
60	0x3e46dfd4	0.19421321
61	0x3da15502	0.07877542
62	0xbe23aedf	-0.15984677
63	0x3d8d54e9	0.06900961
64	0xbdb0dea7	-0.086362176
65	0x3bc550cb	0.006021594
66	0x3e31e8c4	0.1737395
67	0xbd6da78b	-0.05802111
68	0x3e280e05	0.16411598
69	0x3d3a84c1	0.04553676
70	0xbd90a3e9	-0.070625134
71	0xbe0b1c2c	-0.13584965
72	0x3dfffdb6	0.124995634
73	0x3c9bcb58	0.01901786
74	0xbd86cd84	-0.06582168
75	0x3d9682ea	0.073491886
76	0x3dc27eb4	0.09496823
77	0x3be8b940	0.0071021616
78	0xbe46370d	-0.19356938
79	0xbd23619c	-0.03988801
80	0xbe15bf68	-0.14623797
81	0xbe4a9be2	-0.19786027
82	0x3bb6c108	0.0055772103
83	0xbd6a2b05	-0.057169933
84	0xbdbe72b1	-0.092992194
85	0x3e087629	0.13326325
86	0xbc9b83f1	-0.018983813
87	0xbe18dabd	-0.14927192
88	0x3e2b8b25	0.16752298
89	0x3dea8ad0	0.11452258
90	0x3c7ac66a	0.015306095
91	0xbe473ba3	-0.19456343
92	0x3e07235f	0.13197087
93	0xbded4d36	-0.115869924
94	0x3deeaa4e	0.11653577
95	0xbd098c08	-0.03358081
96	0xbdef66dc	-0.11689541
97	0x39481bc7	0.00019083834
98	0x3d3c6e7e	0.04600381
99	0xbe1b1543	-0.1514483
100	0xbdf79d8a	-0.12090595
101	0xbd847031	-0.06466711
102	0xbe2722d5	-0.16321881
103	0x3d853a45	0.06505255
104	0xbe2cb08e	-0.16864225
105	0x3d9a5c16	0.07537095
106	0x3d215a28	0.03939262
107	0xbd03d2da	-0.032183506
108	0xbc4ff004	-0.0126915015
109	0xbe0cbb0c	-0.13743228
110	0xbcd921e6	-0.026505422
111	0x3dc26e8a	0.0949374
112	0xbcd91597	-0.026499553
113	0x3d15a5c0	0.036535025
114	0xbdf64362	-0.12024571
115	0x3dbe7b59	0.093008704
116	0xbd745581	-0.059651855
117	0x3c7c79fd	0.015409944
118	0xbdc614d0	-0.096719384
119	0xbe0fb114	-0.14032394
120	0x3e2241a7	0.15845357
121	0xbd3d6030	-0.04623431
122	0xbddb5147	-0.10708862
123	0xbe577c8c	-0.21043605
124	0x3e12e0b3	0.14343528
125	0x3d679170	0.056535184
126	0xbd8643fd	-0.065559365
127	0x3dcd1e56	0.10015552
128	0xbd516bcc	-0.051128194
129	0xbe254613	-0.16140012
130	0x3c988533	0.018618202
131	0xbda152f3	-0.078771494
132	0xbd1bb290	-0.038012087
133	0xbe3e8e61	-0.18609
134	0xbd319eaa	-0.043364204
135	0xbdb6790d	-0.08909807
136	0x3e69a0c4	0.22815233
137	0xbdb9fa97	-0.09080999
138	0xbe0a0bd6	-0.13481078
139	0x3e14c861	0.14529563
140	0xbe1b14cd	-0.15144654
141	0xbe044ec0	-0.12920666
142	0x3e0bd3ce	0.13655016
143	0xbda31694	-0.07963291
144	0x3cbe3a55	0.023221174
145	0xbd52b90d	-0.05144601
146	0xbbc7517e	-0.0060827127
147	0xbbf3171a	-0.0074185254
148	0x3e13ba03	0.14426427
149	0xbd1e3e94	-0.038633898
150	0x3d753b02	0.059870727
151	0xbdf6d00e	-0.12051402
152	0xbda98e69	-0.08279116
153	0x3d6349b0	0.055490196
154	0x3e024150	0.12720227
155	0x3abd2ff2	0.0014433844
156	0xbda67941	-0.08128596
157	0x3cb583c0	0.02215755
158	0x3e1c4cdd	0.15263696
159	0x3d5ce36c	0.053927824
160	0xbe1614d3	-0.14656381
161	0xbe2b4ed3	-0.16729288
162	0x3c3f0d16	0.011660835
163	0x3d74dd96	0.059781633
164	0x3c1febe0	0.009760827
165	0x3dcf89a6	0.10133676
166	0xbce3d368	-0.027810767
167	0xbe21a4a4	-0.15785462
168	0xbc2a97d0	-0.0104121715
169	0xbce75a4e	-0.028241303
170	0xbabbde00	-0.0014333129
171	0xbdda0672	-0.106457606
172	0x3db75d9f	0.08953404
173	0x3e247bb1	0.1606281
174	0xbdb3909f	-0.08767819
175	0xbd95e917	-0.07319849
176	0xbd3b1f20	-0.04568398
177	0xbe4d0c23	-0.20024161
178	0x3d2c80c8	0.042115003
179	0x3d93a21e	0.07208656
180	0xbd4c2cb0	-0.049847305
181	0x3e08702c	0.1332404
182	0xbbbaa9c0	-0.0056965053
183	0xbe5059f3	-0.20346813
184	0xbe10f61d	-0.14156385
185	0xbdf78250	-0.12085402
186	0x3e0cedad	0.13762541
187	0xbd16b536	-0.03679391
188	0xbe279066	-0.16363677
189	0xbe2c6d46	-0.1683856
190	0x3d903159	0.07040662
191	0xbd963570	-0.07334411
192	0x3de897bc	0.11357066
193	0x3df173fb	0.117897
194	0xbe3bed94	-0.18352348
195	0x3d384629	0.044988785
196	0xbdfdd6b5	-0.12394468
197	0x3cd9e1ac	0.026596867
198	0x3d7e9072	0.062149473
199	0xbe39116f	-0.18073057
200	0xbe1d4a33	-0.15360336
201	0xbd4b6fdc	-0.049667224
202	0x3e15f16e	0.1464288
203	0xbcdc272f	-0.026874153
204	0xbda85ce8	-0.082208455
205	0x3e1140b0	0.14184833
206	0x3df20d83	0.118189834
207	0x3dd0477a	0.10169883
208	0xbd807dc6	-0.062739894
209	0xbe1bcb82	-0.15214351
210	0xbe0a39b5	-0.13498576
211	0x3d71280a	0.058876075
212	0xbe06a66c	-0.13149422
213	0x3d4a3091	0.049362723
214	0xbd9d2d9e	-0.076747164
215	0x3d91a6e4	0.0711191
216	0x3e207e79	0.15673245
217	0xbe3826bc	-0.17983526
218	0x3d90c432	0.07068671
219	0x3c93e508	0.018053547
220	0x3c9da0d4	0.019241728
221	0xbd9fab1d	-0.07796309
222	0xbdc9d815	-0.098556675
223	0x3d89d978	0.06730932
224	0x3e28eb55	0.16496022
225	0xbcad0fa2	-0.021125618
226	0xbdc391db	-0.09549304
227	0xbe1a8b30	-0.15092158
228	0x3dd1d312	0.102453366
229	0x3d142f45	0.036177892
230	0x3dab19e6	0.08354549
231	0xbd14d28a	-0.0363336
232	0xbe212b92	-0.15739277
233	0xbd917cf3	-0.0710391
234	0xbcba8e28	-0.022772864
235	0xbe3c7fe2	-0.18408158
236	0xbe3492fa	-0.17634192
237	0xbdeed918	-0.11662501
238	0xbe3e97a8	-0.1861254
239	0xbd1d6f3c	-0.03843616
240	0x3d41ef00	0.04734707
241	0x3cfc0886	0.030765783
242	0xbbe6aecb	-0.00703988
243	0x3cee726e	0.029107299
244	0xbe350036	-0.17675862
245	0xbd8fb521	-0.070169695
246	0xbb5935c0	-0.003314361
247	0xbd827f19	-0.06371898
248	0xbd946c15	-0.072471775
249	0x3d3082e3	0.043093573
250	0xbdade244	-0.08490422
251	0xbdec9108	-0.115511
252	0x3d8f9ccd	0.07012329
253	0xbd892864	-0.06697157
254	0xbd80e336	-0.06293337
255	0xbb3c3b40	-0.002872184

actor.lin4.bias f4 [32]
0	0xbe2398fe	-0.1597633
1	0xbdc37edc	-0.09545681
2	0xbdee7a7a	-0.11644454
3	0xbe1f49d3	-0.15555505
4	0xbd9f104c	-0.0776678
5	0xbe0b2d9a	-0.13591614
6	0x3c8a8613	0.016909635
7	0xbdca278f	-0.098708265
8	0xbe4a1a55	-0.19736607
9	0xbe434bab	-0.19071834
10	0xbe1ef942	-0.15524772
11	0xbd50d1af	-0.05098122
12	0x3d30d736	0.04317399
13	0xbe6ec1d5	-0.23316129
14	0x3e0fe870	0.14053512
15	0xbe0b88c5	-0.13626392
16	0x3d45cf63	0.048293483
17	0xbd0bd128	-0.034135014
18	0xbdcc773c	-0.0998368
19	0x3d05512e	0.032548122
20	0xbd6b23f7	-0.057407346
21	0xbe193eff	-0.14965437
22	0x3db6ef15	0.0893232
23	0xbdc1dc90	-0.09465897
24	0xbe42a125	-0.19006784
25	0x3d53b71d	0.051688302
26	0xbe51bc5b	-0.20482008
27	0x3dcf053b	0.101084195
28	0x3df57f40	0.11987162
29	0x3dc786c9	0.09742505
30	0xbe290a98	-0.16507947
31	0x3c816a48	0.01579775

actor.bilin.weight f4 [16, 32, 32]
0	0x3e1d90c8	0.15387261
1	0xbd73344b	-0.059376042
2	0x3d1068a4	0.035256043
3	0xbdb27a21	-0.087147005
4	0x3da1a392	0.07892527
5	0x3c84d300	0.016213894
6	0x3da10c16	0.07863633
7	0xbdd7796f	-0.105212085
8	0x3e27b5b6	0.16377911
9	0x3da69103	0.081331275
10	0xbe0e5a2c	-0.13901585
11	0x3d8a4c87	0.06752878
12	0x3d81e426	0.06342344
13	0xbe142281	-0.14466287
14	0xbe2ffcdd	-0.17186303
15	0xbcf90938	-0.030399904
16	0x3ae2c980	0.0017302483
17	0x3d9a69b2	0.07539691
18	0xbe391970	-0.1807611
19	0x3e0a17e7	0.1348568
20	0x3da6b4c0	0.08139944
21	0xbe050a05	-0.12992103
22	0xbe00261e	-0.1251454
23	0x3df40308	0.11914641
24	0xbe174173	-0.1477106
25	0xbca9d059	-0.02072923
26	0xbdc24c93	-0.094872616
27	0xbe2056ee	-0.15658161
28	0xbdd76585	-0.1051741
29	0x3d25fb54	0.04052289
30	0xbdb9d757	-0.09074276
31	0x3e013763	0.12618785
32	0xbd9e34f9	-0.077249475
33	0x3e185cd2	0.14879158
34	0x3dc2ee70	0.095181346
35	0x3e28a6ad	0.16469832
36	0x3cf41a42	0.029797677
37	0xbd715160	-0.058915496
38	0xbe09569b	-0.13411944
39	0x3d725361	0.059161548
40	0x3e2bd1e7	0.1677929
41	0xbcade1de	-0.021225866
42	0xbbff284d	-0.0077867866
43	0x3e5560c6	0.20837697
44	0x3d39dede	0.04537856
45	0xbd87b203	-0.0662575
46	0xbd91e43a	-0.07123609
47	0x3c5237a0	0.012830645
48	0xbd667c10	-0.05627066
49	0xbbc1544a	-0.0058999406
50	0x3d118a5d	0.035532344
51	0x3df54856	0.119766876
52	0xbd604b66	-0.054759406
53	0xbe0bf10e	-0.13666174
54	0x3e5ea24a	0.21741596
55	0x3ccf5336	0.025308233
56	0x3bfa0218	0.007629644
57	0x3e406274	0.18787557
58	0x3de30027	0.110840134
59	0xbde8162c	-0.11332354
60	0x3dfe4997	0.1241638
61	0xbd42f88f	-0.047600325
62	0xbc80cd38	-0.015722856
63	0xbddf4430	-0.109016776
64	0xbe2982c3	-0.16553788
65	0xbe03014a	-0.1279346
66	0xbe75e528	-0.24013197
67	0xbe059a0b	-0.13047044
68	0xbda087b9	-0.07838387
69	0x3e284857	0.16433845
70	0x3d17fdc7	0.037107255
71	0xbdde5ed9	-0.108579345
72	0xbde96da9	-0.11397869
73	0x3dade63e	0.08491181
74	0x3d38b830	0.04509753
75	0xbd7bab04	-0.06144239
76	0xbd06d6f0	-0.032919824
77	0x3de7f1ce	0.113254175
78	0x3de69ede	0.1126077
79	0xbd938266	-0.07202606
80	0xbe00674c	-0.12539405
81	0xba668d00	-0.00087948143
82	0xbcab7318	-0.020928904
83	0xbe4b20ed	-0.19836779
84	0xbdf5a690	-0.1199466
85	0x3d7ed7d0	0.062217534
86	0x3e063df1	0.13109566
87	0xbe1c5360	-0.1526618
88	0x3da13515	0.07871453
89	0xbd08371c	-0.03325568
90	0xbdfcbcce	-0.12340699
91	0x3ca31a39	0.019909965
92	0xbe089705	-0.1333886
93	0xbe2a2392	-0.16615131
94	0x3e282eaf	0.16424058
95	0x3d6266e4	0.055273905
96	0x3db78367	0.0896061
97	0x3e271ff9	0.1632079
98	0xbd8fe88a	-0.07026775
99	0xbdbb7d6b	-0.09154781
100	0x3d95e4d4	0.07319036
101	0x3d5072ec	0.050890848
102	0xbd498e49	-0.04920796
103	0xbcbba550	-0.022905976
104	0x3e1f1efa	0.1553916
105	0x3e16df73	0.14733677
106	0x3c45c3d0	0.012070611
107	0xbdb36d57	-0.08761089
108	0xbe0958e8	-0.13412821
109	0x3cf11ba2	0.029432122
110	0xbe2c7fd7	-0.16845642
111	0xbbc5b060	-0.0060329884
112	0xbd829b91	-0.06377328
113	0xbe01e87a	-0.12686339
114	0x3e2b5b4a	0.16734043
115	0x3e1a456f	0.1506555
116	0xbe1684b6	-0.14699063
117	0xbe20ba4c	-0.15696067
118	0x3d74101b	0.059585672
119	0xbdac794c	-0.08421573
120	0xbdd54d05	-0.10415081
121	0xbe2a9a0b	-0.16660325
122	0x3da7c186	0.081912085
123	0xbd8a8a50	-0.06764662
124	0xbde9b44a	-0.114113405
125	0xbe23086d	-0.15921183
126	0x3e28fe84	0.1650334
127	0x3c4b0f16	0.0123937335
128	0x3c194330	0.009354398
129	0xbc3d4d30	-0.011554047
130	0xbd850c7e	-0.06496523
131	0x3c3465a8	0.011010565
132	0x3dd6dc06	0.10491185
133	0xbd5b7fbe	-0.05358862
134	0x3cf35806	0.029705059
135	0xbd9d2825	-0.076736726
136	0x3d33ac88	0.04386571
137	0xbc95b204	-0.018273361
138	0x3bcf3720	0.00632371
139	0xbd799051	-0.060928646
140	0x3cd20360	0.025636375
141	0x3c959191	0.018257888
142	0xbdbca9c6	-0.09212069
143	0x3e19c92b	0.15018146
144	0x3dea6412	0.11444868
145	0x3e0cf534	0.13765413
146	0xbcf9dcde	-0.030500825
147	0xbe15e188	-0.14636815
148	0x3d9629ab	0.07332166
149	0x3e2937e0	0.16525221
150	0xbc4e1454	-0.012578089
151	0xbdf2c2c5	-0.118535556
152	0x3e44e3f6	0.19227585
153	0xbde2baa3	-0.110707544
154	0x3d934d95	0.07192532
155	0x3dc08004	0.09399417
156	0x3b90df0a	0.0044211196
157	0xbc874d1f	-0.016516266
158	0x3d619d6d	0.055081774
159	0xbdd27e79	-0.10278029
160	0x3df10782	0.1176901
161	0xbe00ddb5	-0.12584575
162	0xbdfd19e5	-0.123584546
163	0x3d1518d8	0.036400646
164	0xbde08b5a	-0.10964079
165	0xbe215a76	-0.15757164
166	0xbc6fff60	-0.0146482885
167	0x3de085d2	0.10963024
168	0xbe163df2	-0.14672068
169	0x3d7da551	0.061925236
170	0x3d0093a0	0.031390786
171	0x3e0a284f	0.13491939
172	0x3dc13df2	0.09435643
173	0x3e0869ed	0.13321657
174	0x3e35007b	0.17675965
175	0xbca341e8	-0.019928887
176	0xbd7c71d4	-0.061631992
177	0xbd854496	-0.06507222
178	0xbde1355d	-0.10996506
179	0x3e1e154b	0.1543781
180	0xbd98ea5c	-0.074665755
181	0x3d270988	0.040780574
182	0xbe14355b	-0.14473478
183	0xbe092117	-0.13391529
184	0x3ddc78c6	0.10765223
185	0x3e1cd0fd	0.15314098
186	0xbe04aed7	-0.12957321
187	0xbe2b2545	-0.16713436
188	0x3cbe2d30	0.023214906
189	0x3e192d35	0.14958651
190	0xbe2bf272	-0.16791704
191	0x3cea45a8	0.028597668
192	0x3e14492b	0.14481036
193	0x3d0da2a4	0.034578934
194	0x3b8baa61	0.004262254
195	0x3c999b18	0.018750712
196	0x3cb9b47d	0.022669071
197	0x3dcb65ca	0.09931524
198	0x3e149649	0.14510454
199	0x3e2627a7	0.16226064
200	0xbcd338f5	-0.025783995
201	0xbd8d18bd	-0.06889484
202	0x3c080519	0.008301997
203	0x3e24fb70	0.16111541
204	0xbe3193b9	-0.17341508
205	0xbcaf6f60	-0.021415412
206	0x3d8196df	0.063276045
207	0x3d382cbc	0.044964537
208	0xbd1f331c	-0.0388671
209	0x3e38d029	0.18048157
210	0x3dca5355	0.098791756
211	0x3de8c0eb	0.11364921
212	0xbda8d345	-0.082434215
213	0xbcf53c2e	-0.029935922
214	0x3dd7beb7	0.10534423
215	0xbd8260c2	-0.06366111
216	0x3e2b90c5	0.16754444
217	0x3e175e0a	0.14781967
218	0x3d953096	0.07284658
219	0x3e2caf8d	0.16863842
220	0x3e237a3d	0.15964599
221	0xbe11f043	-0.14251809
222	0xbdce1c9e	-0.10064052
223	0x3c908a33	0.017644024
224	0xbe05d984	-0.13071257
225	0x3d586be9	0.052837286
226	0x3cc55b88	0.024091497
227	0xbe0dc906	-0.13846216
228	0x3d09d1b8	0.03364727
229	0x3dfede56	0.12444751
230	0xbe32f8de	-0.17477748
231	0xbbbbe0f6	-0.0057336045
232	0x3d3251bc	0.04353498
233	0x3da031c6	0.078219935
234	0xbdc494fd	-0.0959873
235	0x3dc0c80e	0.094131574
236	0xbcc0c1a0	-0.023529828
237	0x3dd19262	0.102329984
238	0xbe303d7a	-0.17210951
239	0xbb232980	-0.0024896562
240	0x3dbd15fa	0.09232707
241	0xbddbd055	-0.107330956
242	0x3d147534	0.036244586
243	0xbdac4e48	-0.084133685
244	0x3da4287a	0.08015533
245	0xbddc55d4	-0.10758558
246	0x3ddc75a2	0.10764624
247	0xbd892cec	-0.06698021
248	0xbd2a6438	-0.041599482
249	0xbd3d3bcc	-0.046199605
250	0xbe10d411	-0.14143397
251	0x3e0ab637	0.13546072
252	0xbd236d50	-0.03989917
253	0x3e0d5fab	0.13806026
254	0x3e13c7b9	0.14431657
255	0xbd7c871a	-0.06165228

actor.bilin.bias f4 [16]
0	0xbdb149b4	-0.08656636
1	0xbdf27910	-0.11839497
2	0x3dc52bdc	0.09627506
3	0x3aecd017	0.0018067387
4	0x3e8a115b	0.26966366
5	0xbdf02226	-0.11725263
6	0x3e2ad64c	0.1668331
7	0x3dcf6bde	0.10127996
8	0x3deef805	0.116684
9	0x3e8766f6	0.2644574
10	0x3d4bd2fc	0.049761757
11	0x3e18712e	0.14886925
12	0xbb5fa05d	-0.0034122684
13	0xbe038a42	-0.1284571
14	0xbd240260	-0.040041327
15	0x3db19f5f	0.08672976

critic.conv1.bias f4 [21]
0	0xbe6d33ac	-0.23164243
1	0xbd5feed5	-0.054671127
2	0x3ebbf57b	0.36710724
3	0x3d27db7d	0.040980805
4	0xbe94f480	-0.2909279
5	0x3e903e15	0.28172365
6	0xbe97d425	-0.2965404
7	0xbd589e6e	-0.052885465
8	0xbc921bcd	-0.017835522
9	0x3e8d5990	0.27607393
10	0xbd4e7114	-0.05040081
11	0x3e606f08	0.21917355
12	0xbe6f40a7	-0.23364507
13	0xbe72eb98	-0.23722684
14	0x3e5bf3cb	0.21479718
15	0x3e4dfc07	0.20115672
16	0xbe695e85	-0.22789963
17	0x3ec1ceab	0.37852988
18	0xbe742106	-0.23840722
19	0xbebc1214	-0.36732543
20	0xbe9cf55f	-0.30655953

critic.conv1.lin.weight f4 [21, 21]
0	0x3e9aaedd	0.30211535
1	0x3e9b667f	0.30351636
2	0x3e877fbb	0.26464638
3	0xbdf945bb	-0.12171503
4	0x3e3c2371	0.18372895
5	0x3dcd0ec3	0.10012581
6	0x3d52544c	0.051349923
7	0x3ec657a0	0.38738728
8	0xbcfa9642	-0.030589227
9	0x3eca56c3	0.3951932
10	0x3ea350b1	0.318975
11	0xbeb69c86	-0.35666293
12	0xbe37764c	-0.1791622
13	0x3dd7cfc5	0.10537676
14	0xbebe27ba	-0.37139684
15	0xbe8ff024	-0.281129
16	0xbe515584	-0.20442778
17	0x3e562c49	0.20915331
18	0x3e66b014	0.22528106
19	0xbe0de552	-0.1385701
20	0x3ddfdeeb	0.1093119
21	0x3e394819	0.1809391
22	0xbdaa9fb7	-0.083312444
23	0xbe4b8afe	-0.1987724
24	0xbc37f4cf	-0.0112278005
25	0xbec5c12e	-0.38623947
26	0xbeb6f128	-0.35730863
27	0xbd553906	-0.052056335
28	0x3dae9ae7	0.08525639
29	0x3e3ce453	0.18446474
30	0xbeb91c79	-0.36154535
31	0xbbc928cf	-0.006138898
32	0xbe68ff40	-0.2275362
33	0xbdd40bb8	-0.10353798
34	0xbe9648d9	-0.29352453
35	0xbec81021	-0.39074805
36	0x3e4db07d	0.20086856
37	0xbe4cb033	-0.1998909
38	0x3e2e6cd8	0.17033708
39	0xbeac1096	-0.33606404
40	0xbdafa3bf	-0.08576154
41	0x3e3df67c	0.18551058
42	0xbc3cf154	-0.0115321465
43	0x3ef4c4fb	0.47806534
44	0xbdc868fb	-0.097856484
45	0x3ed6c9cc	0.41950834
46	0xbcc84a30	-0.024449438
47	0x3e59bf8f	0.2126448
48	0xbe35106a	-0.17682043
49	0x3e6bba52	0.23020294
50	0xbeb58b6d	-0.35457936
51	0x3e2160cc	0.15759581
52	0xbea44b65	-0.3208877
53	0x3e36485e	0.17801043
54	0x3ebf9b69	0.37423256
55	0x3e497341	0.19672872
56	0x3e015a7a	0.1263217
57	0xbe9ca70a	-0.3059619
58	0xbe374fb0	-0.17901492
59	0xbe877000	-0.26452637
60	0x3e70edda	0.23528233
61	0xba129241	-0.00055912515
62	0xbe833df5	-0.25633207
63	0x3ea8cc00	0.3296814
64	0x37dec934	2.6558155e-05
65	0xbe511e82	-0.20421794
66	0xbe0ca5b1	-0.13735081
67	0xbd42bdcf	-0.047544297
68	0x3bc7c2be	0.006096213
69	0x3dcc238d	0.09967718
70	0x3eba07b2	0.36333996
71	0xbda0edea	-0.078578785
72	0x3b7c394b	0.0038486298
73	0x3dfd18f2	0.123582736
74	0x3da20893	0.07911792
75	0xbe604a08	-0.2190324
76	0xbe346cff	-0.17619704
77	0xbe77ca95	-0.24198373
78	0x3e82bdda	0.2553547
79	0xbe65e4ec	-0.22450608
80	0xbe2583f6	-0.1616362
81	0xbec0ae4c	-0.37632978
82	0xbee951e4	-0.4557029
83	0x3e9e4d1f	0.30918214
84	0xbe4bf864	-0.19918972
85	0xbe86da9d	-0.26338664
86	0xbda10614	-0.078624874
87	0xbe909d35	-0.2824494
88	0x3ea4ec33	0.32211456
89	0xbe59429e	-0.21216819
90	0x3c4981e8	0.0122990385
91	0x3e998142	0.29981428
92	0xbe8d21ac	-0.27564752
93	0xbe25efde	-0.16204783
94	0xbebba7a6	-0.36651343
95	0xbe4aa7f7	-0.19790636
96	0x3e945a5b	0.28975186
97	0xbea81758	-0.3283031
98	0x3d074d3e	0.03303265
99	0x3e250163	0.1611381
100	0x3ea750ba	0.32678777
101	0x3ea73a15	0.326615
102	0x3e608deb	0.21929137
103	0xbe4650a4	-0.193667
104	0xbd1d5728	-0.038413197
105	0x3db99efb	0.09063526
106	0xbd9529c6	-0.07283358
107	0x3e572c61	0.21013023
108	0x3e2c1696	0.16805491
109	0xbc85758c	-0.016291402
110	0xbe39b0b5	-0.18133815
111	0xbe33818d	-0.17529888
112	0xbb669831	-0.0035185928
113	0xbde4522c	-0.111484855
114	0xbe1974f1	-0.14986016
115	0xbebaebd1	-0.3650804
116	0x3df460d7	0.11932533
117	0xbe8d02b3	-0.27541122
118	0xbe2d5047	-0.16925155
119	0xbca2b34a	-0.019860882
120	0x3eab6dca	0.334822
121	0x3de252ca	0.11050947
122	0x3dd734dc	0.10508129
123	0xbe3268d0	-0.17422795
124	0x3e90bc7e	0.28268808
125	0x3d5899c9	0.052881036
126	0xbe3f0a8c	-0.18656367
127	0x3e22e0f8	0.15906131
128	0xbe9ef655	-0.3104731
129	0xbed45548	-0.41471314
130	0x3e892d41	0.26792338
131	0x3e316d01	0.17326738
132	0x3eb92aaf	0.36165377
133	0x3e9d0bc6	0.30673045
134	0x3ebfeb08	0.37484002
135	0xbcec1a73	-0.028821206
136	0xbeaf6acf	-0.34261176
137	0x3eaf1617	0.3419654
138	0x3d983fd2	0.07434048
139	0xbe9f9916	-0.31171483
140	0xbe05c1a0	-0.13062143
141	0xbe9d09a3	-0.30671415
142	0x3e596e57	0.21233498
143	0x3ed47d73	0.4150196
144	0x3e2a728b	0.16645257
145	0x3e97b451	0.29629758
146	0xbdc06662	-0.09394528
147	0x3dfd696a	0.12373622
148	0xbe208672	-0.15676287
149	0x3e526799	0.20547332
150	0x3ddf7c7c	0.109124154
151	0xbec5252e	-0.38504928
152	0x3db4e183	0.088320754
153	0xbecd5b05	-0.40108505
154	0x3dc23860	0.09483409
155	0xbe00f6a3	-0.12594084
156	0xbebbbd48	-0.36667848
157	0xbd6f70eb	-0.058457296
158	0xbe416a35	-0.18888171
159	0xbeb7de90	-0.3591199
160	0x3d51d220	0.05122578
161	0x3e0000f6	0.12500367
162	0xbdebe1a4	-0.11517647
163	0xbe7ed193	-0.24884634
164	0xbebac7ed	-0.36480656
165	0x3e876ca1	0.26450065
166	0xbe83dcda	-0.25754434
167	0x3dc7f7dc	0.09764072
168	0xbd5503a8	-0.05200544
169	0x3e698df7	0.22808062
170	0x3ea26b7b	0.31722626
171	0x3eabdee1	0.3356848
172	0xbdec4c7c	-0.11538026
173	0x3ca82a40	0.020527959
174	0xbb1c0f78	-0.002381293
175	0xbe9035c6	-0.28166026
176	0x3e95c174	0.29249156
177	0xbd884065	-0.06652907
178	0xbe4e0d52	-0.20122269
179	0x3e9c3d94	0.3051573
180	0xbe2d3dc6	-0.16918096
181	0x3e11a031	0.14221264
182	0x3eb9616b	0.36207137
183	0xbe5a235c	-0.21302551
184	0xbe5c2400	-0.21498108
185	0xbe4c993a	-0.19980326
186	0x3e3703d5	0.17872556
187	0x3ea822b3	0.32838973
188	0x3e806520	0.25077152
189	0x3e081918	0.13290823
190	0x3ee74225	0.45167652
191	0xbe47549b	-0.19465868
192	0xbc59432a	-0.013260642
193	0x3e8cea8f	0.27522704
194	0x3d93f2f3	0.07224073
195	0xbe2ed630	-0.17073894
196	0x3dcb0e73	0.09914865
197	0x3e898085	0.26855865
198	0x3e64ff74	0.22363073
199	0x3e3c736e	0.18403408
200	0xbdd8c3a7	-0.10584193
201	0xbec13274	-0.37733805
202	0x3a371514	0.0006984037
203	0xbe2f17a0	-0.17098856
204	0x3c9ae095	0.018905917
205	0x3e278d5d	0.1636252
206	0xbc092e76	-0.008372894
207	0x3dc69f89	0.09698398
208	0x3cda20ce	0.02662697
209	0x3d3dc544	0.046330705
210	0xb86fa2de	-5.7133722e-05
211	0xbe4c7874	-0.19967824
212	0x3e7403b2	0.23829535
213	0xbe80d797	-0.25164482
214	0x3d5c750b	0.05382256
215	0xbdfb7565	-0.122782506
216	0x3df03f84	0.11730865
217	0xbe4fb68d	-0.20284481
218	0xbed82455	-0.4221522
219	0xbee394d1	-0.44449475
220	0xbe36d35f	-0.17854069
221	0x3d4a9fa1	0.04946864
222	0xbe56af82	-0.20965388
223	0xbe6f95ed	-0.23397036
224	0xbe7b5b51	-0.24546553
225	0xbe659d21	-0.22423221
226	0x3ea023d7	0.31277344
227	0xbeba1d76	-0.36350602
228	0x3dc3b1cc	0.095553964
229	0xbe8e877f	-0.2783775
230	0x3e0ada92	0.1355994
231	0xbe8506be	-0.25981706
232	0x3e8b71e8	0.2723534
233	0x3e3a36c5	0.18184955
234	0x3eced48d	0.40396538
235	0x3ec263f8	0.37966895
236	0xbde0e99a	-0.10982056
237	0x3e967ed7	0.29393646
238	0x3da5b9e8	0.080920994
239	0x3e6af9ed	0.22946902
240	0x3d17c89c	0.03705655
241	0x3dafc249	0.08581979
242	0xbd9b9848	-0.07597405
243	0xbe49677b	-0.19668381
244	0x3d5d95d4	0.054097965
245	0x3eac3b12	0.33638817
246	0xbc8ee82c	-0.017444693
247	0xbcd194d9	-0.025583671
248	0x3e1199d8	0.14218843
249	0x3dee0bdc	0.11623356
250	0xbe057f33	-0.13036804
251	0x3ea96789	0.33086804
252	0x3e7d733e	0.24750993
253	0xbe3c030e	-0.1836054
254	0xbe663e61	-0.22484733
255	0x3e696110	0.22790933
