saved_files/ckpt/nyc4/a2c_gnn_test_price-fixed.pth (torch, 76886 bytes, 46 tensors)

log_rate f4 [16, 16]
00000000: 0000 a041 0000 a041 0000 a041 0000 a041
00000010: 0000 a041 0000 a041 0000 a041 0000 a041
00000020: 0000 a041 0000 a041 0000 a041 0000 a041
00000030: 0000 a041 0000 a041 0000 a041 0000 a041
00000040: 0000 a041 0000 a041 0000 a041 0000 a041
00000050: 0000 a041 0000 a041 0000 a041 0000 a041
00000060: 0000 a041 0000 a041 0000 a041 0000 a041
00000070: 0000 a041 0000 a041 0000 a041 0000 a041
00000080: 0000 a041 0000 a041 0000 a041 0000 a041
00000090: 0000 a041 0000 a041 0000 a041 0000 a041
000000a0: 0000 a041 0000 a041 0000 a041 0000 a041
000000b0: 0000 a041 0000 a041 0000 a041 0000 a041
000000c0: 0000 a041 0000 a041 0000 a041 0000 a041
000000d0: 0000 a041 0000 a041 0000 a041 0000 a041
000000e0: 0000 a041 0000 a041 0000 a041 0000 a041
000000f0: 0000 a041 0000 a041 0000 a041 0000 a041
00000100: 0000 a041 0000 a041 0000 a041 0000 a041
00000110: 0000 a041 0000 a041 0000 a041 0000 a041
00000120: 0000 a041 0000 a041 0000 a041 0000 a041
00000130: 0000 a041 0000 a041 0000 a041 0000 a041
00000140: 0000 a041 0000 a041 0000 a041 0000 a041
00000150: 0000 a041 0000 a041 0000 a041 0000 a041
00000160: 0000 a041 0000 a041 0000 a041 0000 a041
00000170: 0000 a041 0000 a041 0000 a041 0000 a041
00000180: 0000 a041 0000 a041 0000 a041 0000 a041
00000190: 0000 a041 0000 a041 0000 a041 0000 a041
000001a0: 0000 a041 0000 a041 0000 a041 0000 a041
000001b0: 0000 a041 0000 a041 0000 a041 0000 a041
000001c0: 0000 a041 0000 a041 0000 a041 0000 a041
000001d0: 0000 a041 0000 a041 0000 a041 0000 a041
000001e0: 0000 a041 0000 a041 0000 a041 0000 a041
000001f0: 0000 a041 0000 a041 0000 a041 0000 a041
00000200: 0000 a041 0000 a041 0000 a041 0000 a041
00000210: 0000 a041 0000 a041 0000 a041 0000 a041
00000220: 0000 a041 0000 a041 0000 a041 0000 a041
00000230: 0000 a041 0000 a041 0000 a041 0000 a041
00000240: 0000 a041 0000 a041 0000 a041 0000 a041
00000250: 0000 a041 0000 a041 0000 a041 0000 a041
00000260: 0000 a041 0000 a041 0000 a041 0000 a041
00000270: 0000 a041 0000 a041 0000 a041 0000 a041
00000280: 0000 a041 0000 a041 0000 a041 0000 a041
00000290: 0000 a041 0000 a041 0000 a041 0000 a041
000002a0: 0000 a041 0000 a041 0000 a041 0000 a041
000002b0: 0000 a041 0000 a041 0000 a041 0000 a041
000002c0: 0000 a041 0000 a041 0000 a041 0000 a041
000002d0: 0000 a041 0000 a041 0000 a041 0000 a041
000002e0: 0000 a041 0000 a041 0000 a041 0000 a041
000002f0: 0000 a041 0000 a041 0000 a041 0000 a041
00000300: 0000 a041 0000 a041 0000 a041 0000 a041
00000310: 0000 a041 0000 a041 0000 a041 0000 a041
00000320: 0000 a041 0000 a041 0000 a041 0000 a041
00000330: 0000 a041 0000 a041 0000 a041 0000 a041
00000340: 0000 a041 0000 a041 0000 a041 0000 a041
00000350: 0000 a041 0000 a041 0000 a041 0000 a041
00000360: 0000 a041 0000 a041 0000 a041 0000 a041
00000370: 0000 a041 0000 a041 0000 a041 0000 a041
00000380: 0000 a041 0000 a041 0000 a041 0000 a041
00000390: 0000 a041 0000 a041 0000 a041 0000 a041
000003a0: 0000 a041 0000 a041 0000 a041 0000 a041
000003b0: 0000 a041 0000 a041 0000 a041 0000 a041
000003c0: 0000 a041 0000 a041 0000 a041 0000 a041
000003d0: 0000 a041 0000 a041 0000 a041 0000 a041
000003e0: 0000 a041 0000 a041 0000 a041 0000 a041
000003f0: 0000 a041 0000 a041 0000 a041 0000 a041
20.0 20.0 20.0 20.0 20.0 20.0 20.0 20.0
20.0 20.0 20.0 20.0 20.0 20.0 20.0 20.0
20.0 20.0 20.0 20.0 20.0 20.0 20.0 20.0
20.0 20.0 20.0 20.0 20.0 20.0 20.0 20.0
20.0 20.0 20.0 20.0 20.0 20.0 20.0 20.0
20.0 20.0 20.0 20.0 20.0 20.0 20.0 20.0
20.0 20.0 20.0 20.0 20.0 20.0 20.0 20.0
20.0 20.0 20.0 20.0 20.0 20.0 20.0 20.0
20.0 20.0 20.0 20.0 20.0 20.0 20.0 20.0
20.0 20.0 20.0 20.0 20.0 20.0 20.0 20.0
20.0 20.0 20.0 20.0 20.0 20.0 20.0 20.0
20.0 20.0 20.0 20.0 20.0 20.0 20.0 20.0
20.0 20.0 20.0 20.0 20.0 20.0 20.0 20.0
20.0 20.0 20.0 20.0 20.0 20.0 20.0 20.0
20.0 20.0 20.0 20.0 20.0 20.0 20.0 20.0
20.0 20.0 20.0 20.0 20.0 20.0 20.0 20.0
20.0 20.0 20.0 20.0 20.0 20.0 20.0 20.0
20.0 20.0 20.0 20.0 20.0 20.0 20.0 20.0
20.0 20.0 20.0 20.0 20.0 20.0 20.0 20.0
20.0 20.0 20.0 20.0 20.0 20.0 20.0 20.0
20.0 20.0 20.0 20.0 20.0 20.0 20.0 20.0
20.0 20.0 20.0 20.0 20.0 20.0 20.0 20.0
20.0 20.0 20.0 20.0 20.0 20.0 20.0 20.0
20.0 20.0 20.0 20.0 20.0 20.0 20.0 20.0
20.0 20.0 20.0 20.0 20.0 20.0 20.0 20.0
20.0 20.0 20.0 20.0 20.0 20.0 20.0 20.0
20.0 20.0 20.0 20.0 20.0 20.0 20.0 20.0
20.0 20.0 20.0 20.0 20.0 20.0 20.0 20.0
20.0 20.0 20.0 20.0 20.0 20.0 20.0 20.0
20.0 20.0 20.0 20.0 20.0 20.0 20.0 20.0
20.0 20.0 20.0 20.0 20.0 20.0 20.0 20.0
20.0 20.0 20.0 20.0 20.0 20.0 20.0 20.0

actor.prices f4 [16, 16]
00000000: a0f5 bd3c dd70 743c 27d9 713d d1d4 293d
00000010: 8cae e9bc 873b 413c 987d 3dbd d05d 093d
00000020: 2bf1 ca3b f7aa 54bd 3d64 d5bc 84b1 db3b
00000030: b3de fabc d037 d8bb b034 3d3c f47c 923d
00000040: 86d2 c63c 8e2b 423d 771f 4dbc 3b59 843a
00000050: fa23 8ebc 31e8 10bd a6ee 633b 866c b23c
00000060: ddaa ecbc 089d 16bd 9ed2 6bbc 3bdc 12bc
00000070: 5398 b7bd f605 babd 87cd a7bd 559d a5bc
00000080: 7a61 29bd bd5d 1b3d d92e 2c3c 80d5 16bd
00000090: d940 b7bc a497 353d 4dcf e43c fc10 b3bc
000000a0: c3b7 333d 5209 143c 70a5 31bb 6a48 5b3d
000000b0: 184a 3e3d 2acd 093d b812 c93d 4e23 42bd
000000c0: ab33 e43c ba0b b33b 2585 abbc f1fd 9ebd
000000d0: 939a d4bd db04 423c 7c19 a2bc 2169 1c3d
000000e0: 17df 613d f192 b2bd 2ce3 5ebd 3512 98bd
000000f0: 1c5e 8d3c 2a46 a23c 85fe 273d b8b5 49bc
00000100: ed37 533d 797f 2a3d b05a 093d 0d47 383c
00000110: a3bd 00bc 99dc c03c faf5 14bd 56d8 b5bc
00000120: 015c 8b3c 8393 8b3d ab2b 793c 6705 943d
00000130: 2e72 17bc 872e 35bd c638 39bd 196c c13b
00000140: 9c5b 563d eff8 783d c3bb 16bd 6ba8 babc
00000150: 0bc2 063c ad39 333d 9381 e9bc 1251 eb3c
00000160: 89b1 8e3b f081 22bd 5e5b 403d e3c2 83bc
00000170: 1054 c2bc 060d 393d 3923 b33d acef 4abc
00000180: 975f c9ba 791f 9ebd 5c46 b0bc 874d 63bd
00000190: c5fa 79bd 457d 0fbd a2b3 4cbc 3ee8 cebc
000001a0: 3665 fa3c a2a5 f4bc e358 f33b 4a3e 833c
000001b0: 7e34 abbc 669e 1d3d e124 c6bd b0e4 313d
000001c0: 1b6b 623d a6a5 e33b 4483 1fbd db57 fbbd
000001d0: f1b7 77bd 3cbc 473d 7603 3dbd ac1e 7fbc
000001e0: 01f6 a1bc e354 703d e65c 24bd 2f72 0c3c
000001f0: fb1e 653c 05e2 42bd 5d07 983d 5e29 5c3c
00000200: 39f2 923b 2574 c3bc a25f 653c c838 063d
00000210: 58a0 22bd 09a1 153d 3440 1bba 3485 493d
00000220: fc59 1fb9 543e 3abc 79b3 623d f6e8 cb3c
00000230: db0a d6bb 9b4c 3f3d e5ca 583d 1b7c 013b
00000240: a2c1 b8bc 8a05 7e3c 217d f1bc 48c4 92bc
00000250: 5e9c bd3d f19e 97bd 0921 143d 1ff5 203c
00000260: 0441 cb3b 8445 833c 3623 ec3c b862 353d
00000270: 7593 71bc 9d1d 193d 903b 04bc 1b05 0a3c
00000280: 10e8 853d e61b 1bb9 4111 c6bb 02b8 6a3d
00000290: 66c5 813d bd8e e53c 5145 093d 6f1e 033c
000002a0: 1579 acbc 1b6c da3c 776f 613d 1e01 12bd
000002b0: ae08 49bb 6581 853c ce8e aabc cd28 7cbd
000002c0: 8bb7 863c a00d 01bd 83bd 0d3d de97 833d
000002d0: 1203 36bd 3d5f 773c 3a60 5d3d 3128 163d
000002e0: f255 f83a 0ac3 993c 011b a53c 1458 84bd
000002f0: 37eb 253d fb80 9fbd caf1 00bd 3088 d33d
00000300: d935 a03c 3f78 29bd 15fa 3a3d 2a19 b7bc
00000310: faea edbb 1841 9f3d 723f 91bc 0ee0 0fbc
00000320: 968e 9cbd 8fb3 4a3c de1f 16bc 71df 8b3c
00000330: 7faa e33a 5ced acbc 64db f33c c4e9 aabc
00000340: 8d79 f73c 4ce4 e8bc ef1a 30bd 189a 91bd
00000350: 2229 4ebd 3ef8 91bd 4334 24bd 20ed 7b3d
00000360: d00b db3c 4415 2dbd f2fd 183d 58c0 82bd
00000370: 5a40 e33a c680 123d 5375 d3bd d669 01bd
00000380: 246f 48ba e84d d1bc 719a a53d 5cf8 5fbd
00000390: e4b6 19bd 6060 a23c 36c8 493d d40c aebd
000003a0: 1220 873b 81e4 923c 4ba9 bdba 594a 02bd
000003b0: 471c a3bd c39e fabc 3fd2 31bd 42f7 3c39
000003c0: 188c 79bc c6a5 97bc e5ac 9c3d 5d37 ca3c
000003d0: 3db6 a1bb e7d2 df3c e112 c5bc 7848 32bd
000003e0: 5782 683d 8cdd 84bd b5d6 e8bc 55ac 533c
000003f0: be22 093d 4323 15bd 00b0 aabc 8005 b93b
0.023188412 0.014919487 0.059044983 0.041462723 -0.028525613 0.011793978 -0.046262354 0.033536732
0.0061933002 -0.051920857 -0.026048774 0.006704511 -0.03062377 -0.0065984502 0.011548206 0.07152739
0.024270307 0.04740482 -0.012519709 0.0010097394 -0.01735114 -0.035377685 0.0034779697 0.021780264
-0.028890068 -0.03677085 -0.014393477 -0.00896364 -0.089646004 -0.09083168 -0.08193498 -0.020216623
-0.041352727 0.037931193 0.010509216 -0.036824703 -0.022369789 0.04433407 0.02793088 -0.021858685
0.04387642 0.009035425 -0.0027106665 0.053535856 0.04645738 0.033642925 0.098180234 -0.04739695
0.027856668 0.0054640444 -0.020937512 -0.07763279 -0.10381045 0.011841978 -0.019787543 0.038186196
0.055144396 -0.08719433 -0.054415867 -0.07425348 0.017256789 0.019808847 0.041014213 -0.0123113915
0.051567007 0.041625474 0.033533752 0.011247409 -0.007857713 0.02354269 -0.036367394 -0.022197884
0.017011644 0.06815245 0.015208165 0.07227593 -0.009243531 -0.044233825 -0.04522016 0.005902779
0.05233346 0.060784277 -0.036800157 -0.022785386 0.008224974 0.043756176 -0.028504169 0.02872518
0.00435466 -0.0396747 0.046962135 -0.01608414 -0.023721725 0.045178436 0.087469526 -0.012386244
-0.0015363571 -0.07720847 -0.021517925 -0.055493858 -0.061030168 -0.035031576 -0.012494 -0.025257226
0.03056584 -0.029864136 0.0074263676 0.016020913 -0.020899054 0.03848114 -0.09675003 0.043430984
0.055277925 0.006947237 -0.038943544 -0.122726165 -0.060478155 0.0487635 -0.04614588 -0.015571278
-0.019770624 0.058674704 -0.040127657 0.008572145 0.013984437 -0.04757883 0.074232794 0.013437597
0.0044844416 -0.023859093 0.013999851 0.032768995 -0.039703697 0.03653053 -0.0005922348 0.049199298
-0.00015196943 -0.011367399 0.05534694 0.024891358 -0.006532056 0.046703916 0.05292787 0.001975781
-0.022553269 0.01550425 -0.029478611 -0.01791586 0.0925834 -0.074033625 0.036164317 0.009824066
0.006202819 0.016024359 0.028825384 0.0442836 -0.014744629 0.037381757 -0.008070841 0.008424069
0.06538403 -0.00014792345 -0.0060445373 0.05730439 0.06336479 0.028022164 0.03351337 0.008002861
-0.02105383 0.026662877 0.05503794 -0.035645597 -0.003067534 0.016297052 -0.020820048 -0.06156235
0.016444942 -0.031507134 0.03460456 0.06425451 -0.04443652 0.01509839 0.054046847 0.036659423
0.0018946512 0.01876976 0.020154478 -0.06462112 0.04050752 -0.07788273 -0.031480588 0.1032871
0.019556927 -0.04137444 0.045648653 -0.022350866 -0.0072606774 0.077760875 -0.017730448 -0.008781446
-0.076443836 0.012371912 -0.009162871 0.017074319 0.0017369537 -0.021109276 0.0297677 -0.020863421
0.030209327 -0.028429173 -0.042994436 -0.07109469 -0.050332196 -0.071274266 -0.040088903 0.061505437
0.026739031 -0.04225661 0.037351556 -0.06384343 0.0017337904 0.03576734 -0.10325112 -0.031595074
-0.0007645956 -0.025549844 0.08086098 -0.054680213 -0.037527934 0.019821346 0.0492632 -0.084985405
0.004123696 0.017931225 -0.0014470009 -0.031809185 -0.07964378 -0.030593282 -0.043413397 0.00018021188
-0.015231155 -0.018511664 0.076501645 0.024684602 -0.0049350546 0.027322246 -0.024056854 -0.043526143
0.056764927 -0.06487569 -0.028422693 0.012919505 0.0334804 -0.03641058 -0.020835876 0.0056464076

actor.conv1.bias f4 [21]
00000000: 0000 0000 9953 b6bc 0000 0000 2856 d73c
00000010: 9627 873c c1ee eb3c 0000 0000 0000 0000
00000020: a637 a4bb 0000 0000 0000 0000 0000 0000
00000030: 776f e8bb cafe a73c 1e15 37bc d741 4dbc
00000040: 28e0 8c3c 0000 0000 0000 0000 2dbc fc3c
00000050: b75a 023d
0.0 -0.02225666 0.0 0.0262862 0.016498368 0.02880037 0.0 0.0
-0.0050115166 0.0 0.0 0.0 -0.007093366 0.020507235 -0.011174468 -0.0125279045
0.01719673 0.0 0.0 0.030851448 0.031824794

actor.conv1.lin.weight f4 [21, 21]
00000000: 2050 aabe a0e0 1bbd 5770 86be b9fe 873e
00000010: a4f9 eebd 5f7c 86be 678a 80be f8e2 3abd
00000020: 78ba 9abd 0822 523d c1bc 8f3e 83a2 41be
00000030: fcba d13d 2863 39be f05c 08bd 3282 1f3e
00000040: 8a80 5b3e dc24 c7bd 94b5 6ebe db20 0fbe
00000050: dee2 5a3e 70e2 aebe d7f1 7b3e 0515 5fbe
00000060: f6cd ddbd 6eed 9abe 0707 563e f6a7 09be
00000070: e1f5 84be 8733 1a3e 4477 fdbd 321b b4be
00000080: e4c3 823e 8556 26bd a21f a93e dfdf ee3d
00000090: 3ce8 98be 71a4 1dbe 06e5 9b3e 6cec bfbe
000000a0: 9518 27bd 05cf d1bd 5845 a9bd ace6 fe3d
000000b0: 40c8 0f3c 20d3 593d 9dbb 42be 759e bb3e
000000c0: 7643 4e3e 8b6d 9ebe 3175 55be 1e3a 6e3e
000000d0: 62a4 163e fc9e afbd a0df f13d b0bd 243d
000000e0: 4073 123c 3290 7fbe cc94 25be b077 183d
000000f0: 1ff5 a5be 9989 16be fa8d 293e 6960 9ebd
00000100: 7d5c 563e 97d9 943e 94a2 823e 40a3 5d3e
00000110: 2205 0dbe fb8e d33e 674c 613e 4d1c 003e
00000120: ca7a c5bd 8ba2 1c3d 5e47 9abd 6c5b f73d
00000130: caa9 b13e 44a3 33bd 2809 d43e 7da8 2dbe
00000140: ce4f 8b3e 03d9 f93d 16ac 58bc 10fd 4d3e
00000150: dcbf ec3e efb8 58be eaee 5bbe a39f 0fbe
00000160: cc79 6fbe e970 db3e 8335 b73e 6051 023c
00000170: 3e96 8b3c 2552 febd 2cb6 0bbe 1b55 b73e
00000180: e658 65be ccf1 393e cdb8 63be ea71 ab3e
00000190: ce63 013e f636 bfbd fb6d 823e bfa6 be3e
000001a0: 4505 c33e 85c9 60be 16c8 613e 8e48 ec3e
000001b0: 9ef4 aa3e 4808 e73e 026f eb3d 079c e73d
000001c0: 7e01 313e e8f2 c43e 7c27 9d3e 78fb 543e
000001d0: 47e4 6cbe cfbf 73be 465e 203e b548 913e
000001e0: b364 833e 816a 42be 2eba 503e 87b5 fa3d
000001f0: 77c8 833e 6db0 843e c019 7fbe 4c60 c0be
00000200: f829 6abe 5c76 a8be e24e 413e 82fe 613e
00000210: c00b 633c 26e6 bcbe 25b7 b8be ed3d a2be
00000220: 72b7 9fbe c908 3ebe 6383 9e3e e3e2 9f3e
00000230: de5a a8be 0290 95be 68fb 9c3d 4e36 153e
00000240: 8783 8abe d279 6b3e af9a 87be 9084 96bc
00000250: 00e0 73bb 03ee 6fbe cd5e 92be 0042 033c
00000260: b01b 90be 9f71 92be 3d54 903e c4ac 8a3d
00000270: 71fb bbbe 3e6c 7fbe cc5a e13d 58e3 48be
00000280: 7922 82be 0dd5 af3e 89b1 48be 98cb 843d
00000290: 5fb7 41be b189 b63e 100c 023d fe17 a7be
000002a0: 48e3 9dbe 3082 6a3e 1312 4d3e 6622 aabe
000002b0: c432 bebe 50be 4abe 1bd9 77bc dc84 7c3e
000002c0: ff2e 5a3e 820d 91be 3e21 85be 92d1 1dbe
000002d0: 6283 9f3e 84be a7bd dea3 c3be 1829 483e
000002e0: bb91 92bd 448b e5bc 9a44 8ebe 073e 3d3d
000002f0: 0c29 ac3e f08f ecbc 4aec 523e 5afd 89be
00000300: 184b 113d 72a5 b1be a6cf 693e 30f3 c0bd
00000310: 6eca 503e 16d6 5f3e 5cfe c23d e5e2 99be
00000320: 462f 343e 969b 633e 219e a9be 0fcc babe
00000330: 366d 193e 2ef3 453e 48be 44bd ad69 a5be
00000340: 41f5 97be b2b2 71be b8e0 68bd ef14 893e
00000350: 0bf4 28be da02 303e 0058 65ba f355 b9be
00000360: 31e6 a7be 9d05 6fbe bce3 9ebd 56e7 09be
00000370: f03b 84bd 4066 c03d 2c37 7abe a118 50be
00000380: d28e 253e 52df b1be ced2 013e 3bbe 9abe
00000390: 3e27 443e b29e 0bbe 40ca 25bc e8c7 143d
000003a0: 62be c0be f98f 74be c889 fabd 1c39 d83d
000003b0: c047 973d 90ba f73c 37e4 b83e a827 d6bd
000003c0: cad6 52be c059 a5bc 2240 b2be 9da4 bfbe
000003d0: 711f 41be 4b92 af3e 3f26 aa3e 8cb2 02be
000003e0: 2fc8 b3be 0ce4 f0bd 6605 68be 6b33 73be
000003f0: 96af 85be 1d52 c5be 4b74 063e c662 383e
-0.33264256 -0.038056016 -0.26257583 0.26561525 -0.11668709 -0.26266763 -0.25105593 -0.04562661
-0.07555097 0.051301986 0.28073695 -0.1890965 0.102407426 -0.18104231 -0.033291757 0.1557701
0.21435753 -0.09723827 -0.23311454 -0.13977377 0.21375605 -0.34157133 0.24603973 -0.21785362
-0.108302996 -0.3025927 0.20901118 -0.13442978 -0.2596884 0.15058719 -0.12376264 -0.35176998
0.25540078 -0.040609855 0.33031946 0.11663794 -0.2986468 -0.1539476 0.3044817 -0.37485063
-0.040794928 -0.10244564 -0.082651794 0.12446341 0.008775771 0.05317986 -0.19016881 0.3664433
0.20142922 -0.3094295 -0.20845486 0.23264357 0.14711145 -0.08575246 0.11810231 0.040219963
0.008938611 -0.2495735 -0.16170043 0.037223518 -0.32413575 -0.14700927 0.16558066 -0.077332325
0.20933719 0.29072258 0.25514662 0.21644306 -0.1377149 0.41320023 0.22001801 0.12510796
-0.09642561 0.03824095 -0.075331435 0.12077984 0.3469985 -0.043856874 0.41413236 -0.16958804
0.27209324 0.12199595 -0.013224622 0.20116067 0.46240127 -0.21164297 -0.21477857 -0.1402574
-0.23386306 0.4285958 0.35783014 0.007953972 0.017039414 -0.124180116 -0.13643712 0.35807118
-0.22397193 0.18158644 -0.22238465 0.33485347 0.12635729 -0.09336655 0.25474533 0.37236592
0.38089958 -0.21951874 0.22048983 0.46149105 0.33389753 0.45123506 0.114957824 0.11309057
0.17285725 0.38466573 0.30694187 0.20799053 -0.23133956 -0.23803638 0.15660962 0.28375784
0.25662765 -0.1898594 0.20383522 0.12241655 0.2573888 0.25915852 -0.24912167 -0.3757347
-0.22867572 -0.329028 0.18877748 0.22069743 0.013857782 -0.3689434 -0.36077228 -0.3168787
-0.31194645 -0.18558039 0.30959615 0.31227788 -0.32881826 -0.29211432 0.076651394 0.14571497
-0.27053472 0.2299569 -0.26485202 -0.018373758 -0.0037212372 -0.23430638 -0.28587952 0.008011341
-0.28146124 -0.2860231 0.2818927 0.06771234 -0.36715272 -0.24943635 0.11003646 -0.19617975
-0.25416926 0.34342232 -0.19598974 0.06484145 -0.18917607 0.35651925 0.031749785 -0.32635492
-0.30837464 0.22901225 0.20026426 -0.3322937 -0.37148106 -0.19799161 -0.015127446 0.24660057
0.2130699 -0.28330618 -0.26001924 -0.15411976 0.31154925 -0.08190635 -0.38210958 0.19546926
-0.07156702 -0.028020509 -0.27786714 0.046201732 0.33625066 -0.028877228 0.2059795 -0.26951104
0.035472006 -0.34696537 0.22833118 -0.09421384 0.20389721 0.21859011 0.095211715 -0.3005592
0.17596158 0.2222732 -0.33128455 -0.3648381 0.14983067 0.19331047 -0.04803303 -0.32307187
-0.296793 -0.23603323 -0.056854934 0.26773784 -0.16499345 0.17188588 -0.000874877 -0.36198387
-0.3279281 -0.23341985 -0.07758281 -0.13467154 -0.06456745 0.09394503 -0.24435109 -0.20321895
0.16167763 -0.34740692 0.12678072 -0.3022326 0.19155595 -0.13634756 -0.010119021 0.036323458
-0.3764525 -0.23883046 -0.12233311 0.10557768 0.07386732 0.030240327 0.36111614 -0.104567826
-0.20589748 -0.020184398 -0.34814554 -0.37430277 -0.1885965 0.342913 0.33232304 -0.12763423
-0.35113665 -0.117622465 -0.2265831 -0.23750083 -0.26110524 -0.3853921 0.131303 0.18006429

actor.lin1.weight f4 [32, 21]
00000000: 494f c83d e73d 793e 7937 473d 5c9b 593e
00000010: c49c 0d3e e955 863c f979 6a3e 3e91 02be
00000020: af54 9b3d a7c2 bbbc e089 4c3e 6580 873c
00000030: e590 8e3d f555 9b3e ad16 e43d 9e86 f8bd
00000040: 8387 273c 8ab6 693e 8c56 e6bd 8f4f 583e
00000050: bc08 6e3e 24c1 663d 4e47 f63d 81b7 20be
00000060: 0997 27be 2c7d 24be ae68 1bbe 0253 ddbd
00000070: ab87 463e 7c62 743d a7ae 4c3e 9895 8ebc
00000080: 663b ccbd e442 2c3d bc58 45be 20f3 1a3c
00000090: 0050 e33b e8dd abbc 5ef4 85bd 630d 2cbe
000000a0: c488 743d 1ea7 b93d 8302 553e 844b 413e
000000b0: fa12 493e 5365 edbc c951 443e 1bf6 f8bc
000000c0: 785b 913e 8bec 19bd 3a5e 893e a10c 8a3e
000000d0: 4411 8d3e 16a4 923e dd96 e53d b0a3 fc3c
000000e0: 8695 643e 59e3 8d3e 756e 543e 397a e2bd
000000f0: 158a 163e 3c9d 6e3e 5231 653e 25ca c7bd
00000100: ba44 fb3d 7add 333e 1731 23be 008c 933d
00000110: 8303 943d b2bd 97bd a1c9 c83d 1292 6abd
00000120: 8e25 833d 085c a23c 04f3 62be 8dc8 42be
00000130: ed0b b8bd a404 05be ffa6 f9bd ae16 c63d
00000140: 3340 25be 929f 6bbd 38d6 e73d 9403 1cbe
00000150: dbed 853e 4e34 3c3d edb7 f73d 3f65 41bd
00000160: 8b2a f23d 186c 4b3e 1d63 313e efef eb3d
00000170: 0778 b9bd 30bb 933e 1224 873c e8ad 5f3e
00000180: 5b55 793d 36af 71bd 397f 933e 766d e63d
00000190: 89c4 603d b780 06be 4777 9ebd 5499 eb3d
000001a0: 3796 473d 7082 973e 0aa1 67bd cd87 333d
000001b0: afeb 3e3e 95ed 08be 8310 773e 90f6 563e
000001c0: 95a9 9f3e 6958 293e 0a81 0d3e 3f99 a53e
000001d0: 4016 a5bb fd00 913e fb79 283c 35be b6bd
000001e0: 1325 013e 6567 693e cbbb 303e 0dbf 8e3d
000001f0: cd0a 0d3e b11e 863d 75a6 ebbc a947 ab3e
00000200: c991 9b3e 6088 b13d 0b0e ebbd e083 1b3e
00000210: ac8b 6e3e 1992 dd3d 01f8 533a beb5 353e
00000220: f0ea ef3d 3007 c8bc da15 a1bd 5ef9 883e
00000230: 8d6f 88bd 3f4b c93d 64b1 bc3c d136 983c
00000240: 39b0 8c3c 4bb1 d73d fee0 c93d 0217 fb3d
00000250: c8ba c83c dcb0 1f3d 7c3f 19be 1c80 15be
00000260: adc8 47be c676 853d 2dbf 513e 0eb4 1dbe
00000270: 614b 54be 6cc1 0abe 4339 3c3e d892 43bd
00000280: a57d 05be 9416 30bd 9843 f6bc a78a 02be
00000290: bc0b 13bd fdf4 56be c7cc e0bd b866 e1bc
000002a0: c045 123c 76d3 91bd e0ff 85bb 4a16 df3d
000002b0: d8b3 f8bc 888a 5cbd d845 5cbe 7051 d13c
000002c0: e9cf 123e f049 3dbe b489 0fbe 3790 23be
000002d0: 6005 f6bb 46b1 5abe 58bd c2bc 1e04 fd3d
000002e0: bcef 2ebd 4a11 b83d ad57 c2bd 94e3 113d
000002f0: 82be 1ebe a8ff 943d 3e14 5e3e 1743 b43c
00000300: ec97 0f3e 67ba 643c 0649 7b3e 7aab bd3d
00000310: 7690 0d3d 31bf 423e cd91 9e3d b385 3f3d
00000320: 3935 8ebd 98c2 0f3e dc8f 2f3e 9643 863e
00000330: 40eb 95bd 52a1 863e 2021 8a3e 38ef 1f3c
00000340: 6421 a0bc 445b 243e c2a9 323e aebe 643d
00000350: 358b 9c3e 19c5 773e 49a1 9cbd 1104 6cbd
00000360: 6566 6b3d 030a 863e eeb2 973c e0a3 9abb
00000370: afe0 983d a4ea dcbd 05f7 5a3e b3fc 483e
00000380: 1094 00bd c651 0e3d 9a54 923e 62b2 c0bd
00000390: 065c 2dbd 191c 593e 6a84 783e a931 fabd
000003a0: 608f 8dbb 4b0a 2ebe e6e7 a4bd 2305 62be
000003b0: da66 3d3c 87e7 4c3e c291 413d d05d 303e
000003c0: 2fa3 3fbe ec0c b63d 5b57 853d 5eae 103e
000003d0: 7836 01be 30aa 423e 4ad8 a1bc 8f3f 29be
000003e0: e845 433e 3bb3 313e 686f 58bd 8ea8 e7bd
000003f0: 296b 27bd 9947 7e3e 2a1a 923e d118 883e
0.097807474 0.2434002 0.048636887 0.21250671 0.13829333 0.016398387 0.22898091 -0.12750718
0.075845115 -0.022919966 0.1997447 0.016540715 0.0696123 0.30339018 0.111371376 -0.12135051
0.01022518 0.2282354 -0.11246976 0.21124099 0.2324552 0.056336537 0.12025319 -0.15695001
-0.16366209 -0.16063374 -0.15176651 -0.10806848 0.1938769 0.059664235 0.199885 -0.017405316
-0.09972267 0.04205598 -0.1927213 0.00945738 0.006937027 -0.020979837 -0.0654075 -0.16801982
0.059700742 0.09065078 0.2080174 0.18876463 0.19636145 -0.02897898 0.19171824 -0.03039079
0.28390098 -0.0375791 0.26829702 0.2696276 0.27552235 0.28640813 0.112104155 0.030839771
0.22322664 0.27712515 0.20745261 -0.11058468 0.14701112 0.23302168 0.22382095 -0.09755353
0.12268968 0.17564955 -0.15936695 0.07204437 0.07227232 -0.074092284 0.09804083 -0.05726821
0.06403647 0.019819275 -0.22163016 -0.19021817 -0.0898665 -0.12990052 -0.12190055 0.096722946
-0.16137771 -0.057525225 0.11320156 -0.1523574 0.26158032 0.04594832 0.12095628 -0.047215696
0.11824521 0.19865453 0.17322965 0.11520373 -0.090560965 0.2885375 0.016496692 0.21843684
0.060872417 -0.059004985 0.28808 0.11251347 0.05487493 -0.13135038 -0.07737594 0.115038544
0.04872724 0.29591703 -0.056550063 0.04383068 0.18644594 -0.1337188 0.24127392 0.20992494
0.31184068 0.16537632 0.13818756 0.3234348 -0.005038053 0.28321066 0.010282989 -0.08922998
0.12611799 0.22793348 0.17259137 0.06970034 0.13773651 0.06548823 -0.028765896 0.3345311
0.30384663 0.086685896 -0.11477288 0.15187025 0.23295468 0.108188815 0.00080859667 0.1774511
0.11714733 -0.02441749 -0.07865496 0.26752752 -0.066619016 0.09828805 0.023033805 0.018580826
0.017173873 0.10531863 0.09857367 0.12260248 0.024503127 0.038987026 -0.14965624 -0.14599651
-0.19510145 0.06516795 0.20483084 -0.15400717 -0.2073188 -0.13550347 0.18381219 -0.047747463
-0.13036211 -0.042990282 -0.030061528 -0.12748204 -0.035899863 -0.20991893 -0.10976558 -0.0275148
0.0089277625 -0.07120411 -0.0040893406 0.10892923 -0.030359194 -0.05384305 -0.21511018 0.025551528
0.14337124 -0.18485236 -0.14017373 -0.15972982 -0.007507965 -0.21356687 -0.023771927 0.12354301
-0.042709097 0.089876726 -0.09489379 0.035617426 -0.1550236 0.07275325 0.2168741 0.022004647
0.14022797 0.013960457 0.24539575 0.09261222 0.034561597 0.19018246 0.07742653 0.046758365
-0.06943745 0.14039075 0.17144722 0.2622344 -0.07320261 0.26294953 0.26978397 0.009761624
-0.019547172 0.1605044 0.1744757 0.05584591 0.30574957 0.2419628 -0.0764795 -0.057621066
0.057470698 0.26179513 0.018517938 -0.0047192425 0.0746473 -0.10786942 0.21383293 0.19627647
-0.031391203 0.034745954 0.2858017 -0.09409024 -0.04232409 0.21202125 0.24269262 -0.12216503
-0.00432007 -0.16996114 -0.080520436 -0.22072272 0.011560166 0.20010196 0.047258146 0.17223287
-0.18714593 0.088891834 0.06510802 0.14129016 -0.12618434 0.19010234 -0.019756455 -0.16528152
0.19069636 0.17353527 -0.05284062 -0.11311446 -0.04087368 0.24832 0.28535587 0.26581433

actor.lin1.bias f4 [32]
00000000: 4baa 573e a0db 69bc 785e 6dbd 0aa9 d8bd
00000010: 74a7 073e 6ae0 37bc 027c f73d c08f 183c
00000020: 5fde 18be 7d97 46bd 3140 54bb 418f 853d
00000030: b74b ccbd 4d08 3c3e 6e18 ee3d 49fe 9fbd
00000040: 5bf8 44be 158b 4ebe c7a2 11bd 5b4a 653d
00000050: 64ce e1bc 5c9f 21bd daf9 a43c fd14 153e
00000060: fd1b b03d 8cde 2b3e d9e0 11bd aec4 03be
00000070: 2e9a 64be 6d7c cdbd cd2a 443e bc73 25be
0.21061055 -0.014273554 -0.05795142 -0.10579117 0.13247472 -0.011222938 0.120841995 0.009311616
-0.14928578 -0.048484314 -0.0032386894 0.06521464 -0.09975379 0.18362541 0.11625753 -0.07812173
-0.19235365 -0.20170243 -0.035555627 0.055979114 -0.027564235 -0.039458618 0.02013867 0.14558788
0.08599088 0.16784114 -0.035614822 -0.12867996 -0.2232444 -0.10033498 0.19156952 -0.1615743

actor.lin2.weight f4 [32, 32]
00000000: 3419 513d b827 00bd c988 fabd b7a7 023e
00000010: 7fa5 26be 8bc3 c6bd 0393 ddbd ee51 c63d
00000020: 644c 70bd a843 1abe 89fc cdbd 698a 0dbe
00000030: 004a 5dbb 39bf 29be 00fc 973a 6db8 08be
00000040: 2c75 18bd 28d1 12be 92b4 0c3e 284e a8bd
00000050: f6a0 8b3b 8e75 2cbe 40c7 0ebc 595d 2bbd
00000060: c03b f13b c061 c93b 30f3 2abc 60b9 cc3a
00000070: 8557 173e 3807 2bbd 08e4 49bd 04bc 51bd
00000080: b2d2 0cbe 878f 193e e7aa e73c 107a 163e
00000090: 304c 38be 1c60 06bd a66d 69bd d437 4fbd
000000a0: cca6 0d3d 292b c83d 1052 bfbd 1cc0 123e
000000b0: a879 463d a45b 463c a9fe a6bd c03f 113e
000000c0: 86bf b53a 5c81 423d c0c6 72bd 1a95 a63d
000000d0: d168 0c3e 64f0 703b bede 563d 4038 e63c
000000e0: dcab b0bd bcff 10be 2a8a a1bd af1f 863c
000000f0: e612 1cbd 4ded 0abe ec86 503d e004 bb3d
00000100: 5447 753e 2aab 813d 691a 0b3e 4675 bf3d
00000110: 2b45 9c3c 25f5 963e dd23 093e aa35 e3bd
00000120: 1844 86bc 80f3 443e 2389 823e 0506 96bd
00000130: 05fd 733e ff2f 873d 52f1 df3d f3a8 e4bd
00000140: b3f8 7fbd 1c8e 74bd f1b6 823e 3963 1fbe
00000150: 27f3 b93d 7c02 7d3e 0c87 303d 05ca a3bd
00000160: 7bd8 0e3e f6e9 11be fc10 073d 034c 043e
00000170: 71c6 ddbc 84f5 593d a3cc 2e3e 6318 aa3d
00000180: f483 e9bd c9a3 0fbe 1d3a 0c3e 4c8a 303e
00000190: 6ed3 e93d e1c5 06bd a4c1 99bd d195 2ebe
000001a0: 08e7 afbc d157 34be 7a2a d8bd 2571 e13c
000001b0: f653 0a3e 71f6 2a3e aa40 6cbc ee64 1dbe
000001c0: e0d1 e9bb 4141 2a3e 4bfe dabd 4940 a5bd
000001d0: 3fb2 32be 6cc3 34be 63d3 1e3e 5d09 abbc
000001e0: 200e 6dbc 1128 7b3d 21b7 d0bc c626 a93d
000001f0: b2bd 223e 9068 103d 0099 53ba 9b42 92bd
00000200: a71c 053e 1d7f 1b3e be69 15be 284a a0bd
00000210: da2c 09be 14a5 2abe c8c6 6cbd 1e59 f23d
00000220: 84d5 20bd c81e c03c c723 b0bd 1f76 333e
00000230: 27f1 1a3e 21d3 343e 33a3 16be 66f1 d23d
00000240: b0f5 06be 086a e8bd 6c30 9abd 040a 4ebd
00000250: afb0 01be e808 24bd 1875 e1bc 5ab6 b53d
00000260: cc52 31bd 0fff e5bd 70f0 13be ca42 91bd
00000270: 6069 3bbc c647 efbd cfea 153e c0dc 7b3d
00000280: a6f4 bc3d 5c79 82bd 8846 213d a092 ee3c
00000290: 1d79 91bd a081 30bc c8d1 c23c 2743 8bbd
000002a0: 241a 4b3d df22 123e fce9 1ebe 6039 9ebd
000002b0: 20a6 66bc 5806 f1bc 80ad f2ba 34b1 28be
000002c0: 9bf7 fdbd 5616 abbd 3971 14be 36fb a93d
000002d0: 7e05 fd3d 08f0 4f3d 405b 503d 08b3 933c
000002e0: 0858 abbd cab1 a03d 0e7d a53d dad0 28be
000002f0: 5a02 a2bd 7ca9 5a3d 3f75 2b3e 8023 6b3c
00000300: 18e1 01bd 1780 063e a05d 6cbd c4e8 0fbd
00000310: 0e90 e73d bac4 03be fa1a fe3d 425d 07be
00000320: 41ff 333e 8d59 16be 1e4d f4bd 5c72 19be
00000330: 7a60 bc3d 08d0 19be be37 60bd f8cf e9bc
00000340: b602 f93d 7431 083d 62c3 933d ce61 b33d
00000350: 4e66 babd 7448 3dbd 30ba 9cbd 37f1 32be
00000360: b231 b93d c03e a63b 9de4 92bd 108f 1d3c
00000370: a6bb cf3d 4058 debd 0b72 1a3e 3aec 1fbe
00000380: e288 f33d bad1 f03d fe1d 943d 4d83 32bd
00000390: 2b75 87bb 41ef c4bc 0b79 4c3e 44f8 40bd
000003a0: f11c 9bbd a4fc 043e cec7 0bbe 9dbb 22be
000003b0: 4462 ee3d b2e3 1a3e b83c 3b3d 60d5 6a3d
000003c0: b4cd c8bd 50e0 b2bc 1d4b 3ebe e554 163e
000003d0: 1943 cf3b 43db 88bc 6dbd 82bc 0d74 34bd
000003e0: b949 093e 5892 e3bd f867 b5bd 4556 ac3d
000003f0: aa15 cfbd 0e18 863d f8aa 45bd 436c 3abd
0.051049426 -0.03128788 -0.12233121 0.1275929 -0.16274069 -0.097052656 -0.10819056 0.096835956
-0.0586666 -0.15064871 -0.10057933 -0.1382233 -0.0033766031 -0.16576852 0.0011595488 -0.13351603
-0.03722112 -0.143376 0.13740757 -0.08218032 0.0042611314 -0.16841719 -0.008714497 -0.04183707
0.007361859 0.006145686 -0.010433957 0.0015619211 0.1477948 -0.04175493 -0.049289733 -0.051204696
-0.13752249 0.14996158 0.028279735 0.14695 -0.17997813 -0.0328065 -0.056989335 -0.05059035
0.034582898 0.09773857 -0.09341824 0.14331096 0.048455864 0.01210681 -0.08154041 0.14184475
0.0013866283 0.047486648 -0.059271574 0.081339076 0.1371186 0.0036764378 0.052458517 0.028102994
-0.086265296 -0.14160055 -0.07887681 0.01637253 -0.03810396 -0.13567086 0.05090992 0.09131789
0.23952991 0.06331475 0.13584293 0.0934854 0.01907595 0.29483905 0.13392587 -0.1109422
-0.016389892 0.19233513 0.25495252 -0.07325367 0.23826988 0.066009514 0.109347 -0.11165037
-0.062493037 -0.05970584 0.25530198 -0.15565194 0.09079581 0.24707979 0.04309754 -0.079975165
0.13949768 -0.14249405 0.032975182 0.12919621 -0.027072163 0.053212658 0.1707025 0.08305433
-0.11402121 -0.14027323 0.13694043 0.17240256 0.1141728 -0.032903556 -0.07507637 -0.17049338
-0.021472469 -0.17611624 -0.10554977 0.027519772 0.13508591 0.16695572 -0.014419714 -0.15370533
-0.0071356148 0.16626455 -0.10693034 -0.08068902 -0.17450808 -0.17652673 0.15510325 -0.020878488
-0.0144687 0.061317507 -0.025477948 0.082593486 0.15892676 0.03525597 -0.000807181 -0.0714161
0.12999211 0.15185209 -0.14591119 -0.07826644 -0.13396016 -0.16664535 -0.05780676 0.11833404
-0.039266124 0.023452178 -0.08600574 0.17525528 0.15131055 0.17658664 -0.14710693 0.10299949
-0.1317966 -0.11348349 -0.07528767 -0.05030252 -0.12665056 -0.040047556 -0.027521655 0.088726714
-0.043291852 -0.11230289 -0.14447188 -0.07092817 -0.011438698 -0.116836116 0.14640354 0.06148982
0.092263505 -0.06370804 0.039373904 0.02912265 -0.07103179 -0.0107730925 0.023781672 -0.06799918
0.049585477 0.14271115 -0.15518945 -0.07725787 -0.014077693 -0.02942197 -0.0018514842 -0.16473848
-0.124007426 -0.083538696 -0.14496316 0.08299868 0.12354563 0.05076602 0.050868273 0.018029705
-0.083664 0.078464106 0.08080493 -0.1648592 -0.07910605 0.05338429 0.16743945 0.014351726
-0.031708807 0.131348 -0.057706475 -0.035134092 0.11306773 -0.12868014 0.12407489 -0.13219169
0.1757784 -0.14682598 -0.119287714 -0.14985031 0.09198089 -0.15020764 -0.05474066 -0.02854155
0.1215872 0.033250287 0.07215001 0.08758889 -0.09101544 -0.046211675 -0.076527 -0.17474829
0.09042682 0.0050733984 -0.07172511 0.009616628 0.10143213 -0.10856676 0.15082566 -0.15617457
0.11891343 0.11758752 0.07232283 -0.04358225 -0.0041338406 -0.024039866 0.19968049 -0.047111765
-0.075738795 0.12987 -0.13650438 -0.15891881 0.116398364 0.15125921 0.045712203 0.057332397
-0.0980486 -0.021835476 -0.18583341 0.14680822 0.0063251373 -0.016706115 -0.015959466 -0.044055987
0.13407029 -0.11111897 -0.08857721 0.08414892 -0.10111554 0.06547557 -0.04825875 -0.045513403

actor.lin2.bias f4 [32]
00000000: ef2a dcbd 06d2 ad3d 096e f5bc bac1 98bd
00000010: 6f03 abbd 5640 2bbe 2e02 c7bd 085e dabd
00000020: 23cd 133e ce75 023e 901e d5bd 49ff 2d3e
00000030: e24f 01be 389b 023e 7918 d9bd c3a1 b93d
00000040: d55a afbd 27b7 243d 9b0a 243e b97b 15be
00000050: 1fc5 f33d 0d88 99bc c03d a03d f62b 5e3d
00000060: dd81 d83d 036d 13bd 6460 8539 fc8d 5c3d
00000070: 3aa8 e4bd 8487 a1bd 3a0d 193e 35cd 17be
-0.107503764 0.084873244 -0.029959695 -0.074588254 -0.08350264 -0.16723761 -0.097172126 -0.10662466
0.14433722 0.12740251 -0.1040622 0.16991915 -0.12628129 0.12754524 -0.10600371 0.09064057
-0.08562247 0.04021373 0.1601967 -0.14597978 0.11902832 -0.018741632 0.07824278 0.054241143
0.105716445 -0.035992634 0.00025439553 0.053846344 -0.11164899 -0.07887176 0.14946452 -0.14824374

actor.lin3.weight f4 [1, 32]
00000000: 6344 febd 47c9 96bd 966f 8c3e 559d b3bd
00000010: 0aad 04be 0a4e 20be cdd6 f3bd 4d18 4c3c
00000020: 4c89 d3bc 7376 f7bc a981 21bd 9b19 483e
00000030: a0c0 a63b 05f1 aebc d885 c1bd f05c 503e
00000040: 9680 14be b42c 29bd f56f d33d 17e5 153e
00000050: 8112 373e 8044 403d 0574 093e 4320 5e3e
00000060: 06b2 cdbd 13b2 e0bd 0e9c 953e 8a23 d5bd
00000070: 172e fc3d 3e0b debd fd7b 2e3e cdb2 e1bd
-0.124153875 -0.07362609 0.27428883 -0.08770243 -0.12956634 -0.1565477 -0.119062044 0.012456966
-0.025822304 -0.030207848 -0.039430294 0.19541018 0.0050888807 -0.021355161 -0.09449357 0.20347953
-0.14502177 -0.041302398 0.103240885 0.14638172 0.17878152 0.046940327 0.13423164 0.21691994
-0.10043721 -0.10971465 0.29220623 -0.10407169 0.123134784 -0.10841988 0.17039485 -0.11020432

critic.conv1.bias f4 [21]
00000000: 0000 0000 76fa b13e 8204 b3be 0000 0000
00000010: 0000 0000 9126 1fbd 1b31 403d f927 a2be
00000020: 0000 0000 0000 0000 1c13 30bc 0000 0000
00000030: 0000 0000 ab4d 893e 0000 0000 a6c1 843e
00000040: f976 edbb 0069 93bc 0000 0000 77ee b7be
00000050: 0000 0000
0.0 0.347614 -0.34964377 0.0 0.0 -0.03885514 0.04692183 -0.31671122
0.0 0.0 -0.0107467435 0.0 0.0 0.26817068 0.0 0.25928992
-0.0072468487 -0.017994404 0.0 -0.35924122 0.0

critic.conv1.lin.weight f4 [21, 21]
00000000: 0e11 9cbe 40fa 61bd 6107 90be a44d a3be
00000010: 779b 9abe 9750 9d3e 501b 823d e4c9 9dbe
00000020: 08b9 f4bd e656 693e 50bf 88bd e888 a2bd
00000030: 9f97 1abe bc07 c9bd 8a75 4a3e 6570 39be
00000040: 98e2 73bd c896 57bd ace1 a6bd 854e b2be
00000050: 41f6 973e 4975 78bd 48d7 6a3e 1ee4 ce3d
00000060: 6c25 a13e b018 0ebe dfc1 d03c eb6f 9dbe
00000070: 0f32 383b 76b2 a2be 2975 bebe 232a 4a3e
00000080: ed1b cc3e 754f 333e f665 22bd 06f3 553d
00000090: 2f49 8e3e b807 21be 0fb9 41be db18 263e
000000a0: ef52 82be 1d88 31bc c599 58be 93c4 e8be
000000b0: 8ab1 16bf 4462 35be 9d5d a6bc e6e9 fd3d
000000c0: 600d 853e 3750 1b3e 07cb 933e 26e2 d1be
000000d0: 95e4 5b3e d839 3dbe f33f 993e ac51 8c3e
000000e0: 81ba 4e3e 8803 59bd 9a33 70bd f9e0 0d3e
000000f0: 5664 a03e 23f0 bdbc 1cba 853e 0333 9b3e
00000100: beee 01be 2859 523d bcf0 b6bd a0f3 52bd
00000110: f065 9a3c 291d bbbe 9c8f ee3d a002 64bd
00000120: 20e1 78bd c892 69bd 45dc 1cbe 9acc 313e
00000130: a7f0 08be 8860 9ebe 06d0 6dbe 4296 b1be
00000140: 2caf f2bd 40bd b93c dc68 bbbe 5070 263d
00000150: 00d9 c7bb 30e8 78bd 522f 2f3e dd10 84be
00000160: f8a7 a73d 00f2 8c3a 4008 bdbb 2a1d 9ebe
00000170: 605c d0bd e08e 7abd fb50 85be 12e8 4fbe
00000180: 3172 bdbe 2cfb dbbd 42ab 4d3e c8c8 9fbe
00000190: 5301 b43e f97b 45be ee48 5d3e 607d 03be
000001a0: 6a10 16be 0d3f 6fbc 2536 943d e04c 743e
000001b0: d1c6 88be 9dda 983e 8ae1 cabd 1496 05be
000001c0: af3a 053f 59c5 033f 9917 d23e b457 013f
000001d0: 6f0d ecbd c897 373e 2926 9bbe a68b 8abe
000001e0: fc3c f2bd 064d 11bc 9717 9c3e d3c3 a2be
000001f0: 56f5 003e dc4e 803e 6437 5abe d0ea 763e
00000200: a52b 86be 1294 42be 5de5 1fbd d03f 253e
00000210: bd22 8fbe 7f9d 163e 3303 8cbe b981 003e
00000220: 1f13 75be 065d 43be 1b2b 553e fd4f 043e
00000230: 322a 423e 7331 933e 9f1e 2f3b 2fa4 04bd
00000240: 6aec a0bd fe99 4e3e 7072 593e 78d2 3c3e
00000250: f032 a0be f071 1ebf 1a4b 99be 34cb db3d
00000260: 5b7c e4be 3743 d1be 7e4a cabe 0a0e 0fbe
00000270: 99fb aebe 3e08 01be 2045 95bc c164 693e
00000280: e9bc 983d bef0 80be 8fd3 09be d3b6 e13e
00000290: 4ecf d1bd 059c 7c3e 2a8c 803b a3b3 8f3e
000002a0: 110b 1dbe cbb3 bb3e 3ca0 5abe 693f 0fbe
000002b0: a473 91bd cc65 9abd 4007 26be 01d8 85be
000002c0: 32dd 563e e04f c93d cc6f fcbd a82f 493d
000002d0: a0aa 703c a2ef 193e 288d cf3d 5026 80be
000002e0: 799a 823e a8f5 88be 4d09 acbe 8369 70be
000002f0: 9a99 03be b574 16be 702a b9bd 1a71 1fbe
00000300: f2a8 0d3e 0a77 2e3e 18ec f13d 5e22 26be
00000310: 4925 8fbe 7bcc b53e 27a7 a3be ebda 953e
00000320: 7e12 7c3e 1e05 8ebe 87b8 14be 6c03 e0bd
00000330: ac5a c63d c426 75be e8dc 81bd 60cc 26bc
00000340: 3835 ee3d be1b 6c3e 0290 ef3d f2ac aa3e
00000350: d411 e8bc 0748 453c 3732 aebe 0fb7 7f3d
00000360: 7aa8 963e 12a7 92bd c98a babe aef4 1e3e
00000370: 06e8 cebc 75bc 9ebe 5c23 f7bd 3c7d 573e
00000380: f0cd 943c 3da5 1c3e 498d 9bbd 1f03 b2be
00000390: 878d 1cbe 8acf efbd 49f5 a23e f195 1abe
000003a0: d5d6 87be 7dae 8b3e aa49 613e 8cf8 a93d
000003b0: 5fab 5ebe 2add 16be 00df 95be 3c32 e63d
000003c0: 7da4 9f3e c480 15be 1ca8 a7bd b8e6 06be
000003d0: 007e f5bd 0040 6d3d 3822 e03d c8c4 9abd
000003e0: f0e2 c53c 4eeb 0b3e 94ec 1bbe b1da 91be
000003f0: 54c3 79be 192a 5fbe 5ad7 763e 428e 5c3e
-0.30481762 -0.055170298 -0.2813063 -0.31895173 -0.30196735 0.30725548 0.06352866 -0.30818093
-0.119493544 0.22787055 -0.06677115 -0.07936269 -0.15096901 -0.09815928 0.197714 -0.18109281
-0.05954227 -0.05263403 -0.08148512 -0.3482553 0.29680064 -0.060658727 0.22933686 0.10102104
0.31473863 -0.13876605 0.02548307 -0.3074945 0.002810601 -0.3177678 -0.3719876 0.19742636
0.39865056 0.17510779 -0.03964802 0.05223372 0.2779021 -0.157256 -0.1891825 0.16220419
-0.25453898 -0.010835675 -0.21152408 -0.45462474 -0.58864653 -0.17713267 -0.02030831 0.12398128
0.25986767 0.15167318 0.28865835 -0.4099285 0.21473916 -0.18479097 0.29931602 0.2740606
0.20188333 -0.052981883 -0.05864296 0.13855352 0.3132655 -0.023185795 0.26118553 0.30312356
-0.12688729 0.051354557 -0.08932635 -0.05150187 0.018847436 -0.36545685 0.11648485 -0.055666566
-0.06076157 -0.057024747 -0.15318401 0.17363206 -0.13373052 -0.30933022 -0.23223886 -0.3468495
-0.11849818 0.02267325 -0.3660344 0.040634453 -0.0060988665 -0.060768306 0.17107895 -0.25794116
0.08186334 0.0010753274 -0.0057688057 -0.30881625 -0.10173869 -0.061171412 -0.26038346 -0.20303372
-0.37001184 -0.107412666 0.20084861 -0.3120787 0.3515726 -0.19285573 0.21609852 -0.12840796
-0.14654699 -0.014602435 0.0723689 0.2385745 -0.26714185 0.2985429 -0.099062994 -0.13045532
0.5204267 0.51473004 0.4103363 0.5052445 -0.11526 0.17928994 -0.3030255 -0.27059668
-0.11828038 -0.0088684615 0.30486748 -0.31790027 0.12593588 0.25060165 -0.21310192 0.24113011
-0.26205173 -0.19001797 -0.039037097 0.16137624 -0.2795619 0.14708517 -0.2734619 0.12549485
-0.23933075 -0.19078454 0.20817225 0.12921138 0.18961409 0.28748664 0.0026721132 -0.03238314
-0.078575924 0.20175931 0.2123506 0.18439662 -0.31288862 -0.61892605 -0.2994011 0.10732117
-0.44626126 -0.40871593 -0.39509958 -0.13970199 -0.3417633 -0.126008 -0.018221438 0.22792341
0.07457907 -0.25183672 -0.1345961 0.44084796 -0.10244618 0.24668892 0.003922959 0.2806674
-0.15336253 0.3666061 -0.21350187 -0.13989033 -0.07102135 -0.075389475 -0.16213703 -0.2614136
0.20982817 0.09829688 -0.12326011 0.049117714 0.014689118 0.15032819 0.10134345 -0.2502923
0.25508478 -0.2674992 -0.33600846 -0.2347775 -0.12851563 -0.14692958 -0.090412974 -0.15570489
0.13833979 0.17037597 0.118126094 -0.16224048 -0.27958134 0.3550757 -0.31963465 0.29268584
0.24616429 -0.2773828 -0.14523517 -0.10938153 0.09685263 -0.23940569 -0.06340963 -0.010180563
0.116312444 0.23057458 0.11697389 0.33335072 -0.028328814 0.012041098 -0.34022686 0.062430438
0.29425412 -0.071607724 -0.3643401 0.15523025 -0.025257122 -0.31003156 -0.12067291 0.21043867
0.018164605 0.15297408 -0.075953074 -0.34768006 -0.15288363 -0.11709507 0.31827763 -0.1509626
-0.2653109 0.27281561 0.22000757 0.0829936 -0.2174506 -0.14732805 -0.29271698 0.1124005
0.31180182 -0.14599901 -0.08186361 -0.1317395 -0.11986923 0.057922363 0.10944027 -0.07557064
0.024156064 0.1366398 -0.15226966 -0.2848716 -0.24390918 -0.21793403 0.24105588 0.21538642

critic.lin1.weight f4 [32, 21]
00000000: 626c febd 8454 153c df36 3a3e 6591 4dbe
00000010: 1c68 d7bb b300 113d d490 d33d 26b1 543d
00000020: a82f f7bd 3460 8ebd d92a 0e3d 60c3 41bd
00000030: a7c4 303e 6d6f 933d c559 69bd 78b5 84bc
00000040: 08fe d33d 83b3 ae3d 13c7 293e c223 2c3e
00000050: bb29 1bbe e196 4b3e c047 983c bd26 063e
00000060: f51a a83d d994 0c3d 8c8b d1bd 2785 4d3d
00000070: 0a12 90be eb00 f23d 164d 1a3e 42a9 533d
00000080: 5730 38be fa98 ea3d 483f 693d d6a8 54be
00000090: 4680 81bd da07 183e 11f2 a6bd b500 e3bd
000000a0: 376e 8a3a 3b66 293e 6702 e83d d854 8f3e
000000b0: 7100 4e3d 6a12 f13d f298 2d3e 069a 0abe
000000c0: 5c97 253e 8746 15be 6e02 843d d362 a0bd
000000d0: 9f6f 06be c851 e03d 8e01 893e a240 fe3d
000000e0: 5b55 a23d d9b9 16be 5426 cdbd 9ae6 ebbd
000000f0: bf0f 32be cc05 71be 1bb0 afb7 7864 85bd
00000100: e008 89ba e6e0 d83d 4327 56bd 639f 54bd
00000110: cdd0 b1bd 510d 3a3d 1876 193d 846a d03d
00000120: d638 2b3e cee1 46be dc34 853d bca9 80bd
00000130: 2a97 73bd ff29 483e 77dd 4a3e cb4c 813d
00000140: 3d77 37be d006 263d b5c5 c03d 199d bd3d
00000150: 0b56 08be cc96 35bd ada2 063e dc63 afbd
00000160: 2a14 2ebe 565b 833d c062 f9bb 70d2 14be
00000170: 72a2 f13d b9a1 f5bd f4df 2abe 57fa 053e
00000180: c04e 903b f0ec 73bd 3eea dfbd c721 213e
00000190: 671e ebbd f3f9 393e 3e1c 87bd cc15 32be
000001a0: ffc9 16be 80a9 e6bc 4c75 80bd ffba e8bd
000001b0: 7e28 ecbd a545 203e 20f3 7e3c 4a31 2fbe
000001c0: e4a7 8fbd ee7b 47be 7b84 1f3e 3419 783d
000001d0: 5f8e dbbd 0bef 0b3e df12 cebd 7a8f 1cbe
000001e0: cc51 b0bd e5cf 053e 202c b1bb 16d5 9fbd
000001f0: 0070 1739 f3d8 073e eae6 0abe 40ea 193b
00000200: 310c 293e 09e9 143e e06e 23be ee89 a1bd
00000210: 6e08 f53d 4b88 4f3e 02c2 a63d 28eb 923c
00000220: 3033 fcbd 1454 fabd dc38 18be 0f42 cfbd
00000230: e2c8 35be edfe c2bd 0010 713a 44f4 17bd
00000240: 3f53 433e a781 49be 50d7 68bd 367f 9ebd
00000250: a2a0 1e3e daed 243e acda bfbd 5a6a 39be
00000260: 04cd 353e a0fe 613d 3f08 ef3d 3e55 55be
00000270: a735 16be 54a2 9fbc ed6d 4cbd d489 0ebb
00000280: 6d97 71bd 8ff1 b43d e434 2f3e e372 123d
00000290: ec26 53be 5f0c 0e3e 5a82 2abe ee6f 353b
000002a0: 80f8 e6bd 4828 45be a262 21be 5591 323d
000002b0: f56a 143e b49a 7ab8 2ff2 24bd 6840 273e
000002c0: 789b 9fbd 7c9d 353e 8e23 143e 5a87 843d
000002d0: f450 0f3e 585e e3bd 0c0f 083e 17f6 2abe
000002e0: b580 8b3b c1b3 34be a8a6 1c3e 9a14 3ebe
000002f0: ed4a 333e 8e87 bc3d 3daf 263e d965 02be
00000300: 8b89 8fbd 9bb4 4d3b 8c6c 133e 25f4 e53d
00000310: e1fd 9cbd 2ebe 783d 1236 b53d d282 c53d
00000320: c1fa 34bd dc47 26be 3b8f 903d a9ea 66be
00000330: b3a6 b1bd da90 393d 9261 953c 39ed c33d
00000340: b240 bfbc 3966 50be cc96 093e 3a8b 6abe
00000350: 3248 47be 6223 08be d64f e33d e96d 243d
00000360: 6976 97bd d35d 24bd 09c2 563e c0fe d4bd
00000370: faac 3dbe 5c7a 883d 6098 073e a320 553e
00000380: b72b 333e 3ed6 1d3e d0ca 31bd 54a1 313e
00000390: 2a56 25be 603d bcbd 5651 1cbe 1341 823e
000003a0: d2e3 4ebe 3f1b 063d e505 67be 1280 66bd
000003b0: 7f07 e63d c554 2f3e 69a7 e8bd c67c 123e
000003c0: e8df 983d c32a 8dbd 9cb0 e4bd 5f98 21be
000003d0: b709 b03d af0c 1ebe 8f98 3abe 2292 283e
000003e0: 48da ef3d f2d2 efbc f04b 2f3e 5b12 e03d
000003f0: 0653 033e 1ef8 36be c638 73be 0703 d7bb
-0.12423016 0.009114388 0.18184994 -0.20074995 -0.00657369 0.035401057 0.10330358 0.051926754
-0.120696366 -0.06951943 0.03470883 -0.047305465 0.17262517 0.07198987 -0.056970377 -0.016199812
0.10351187 0.08530333 0.16579847 0.16810516 -0.15152638 0.19881774 0.0185889 0.13100715
0.08208267 0.03432164 -0.102316946 0.050175812 -0.28138763 0.11816581 0.15068468 0.05167509
-0.1798719 0.11454959 0.056945115 -0.20767531 -0.06323294 0.14846745 -0.08151639 -0.11084119
0.0010561411 0.16542904 0.11328583 0.27994418 0.05029339 0.1177109 0.16952875 -0.13535318
0.1617102 -0.14577685 0.06445776 -0.07831349 -0.13128518 0.109530985 0.26759 0.124146715
0.079264365 -0.14719333 -0.10017076 -0.11518593 -0.17388819 -0.23537368 -2.0943631e-05 -0.065133035
-0.0010454915 0.10589771 -0.052283537 -0.051909816 -0.08682404 0.045422856 0.03746614 0.10176566
0.167209 -0.19422075 0.06504223 -0.06282374 -0.059470333 0.1954727 0.19811045 0.06313475
-0.1791658 0.04053384 0.094127096 0.092584796 -0.13314073 -0.044333264 0.13147993 -0.085639685
-0.1699988 0.06413905 -0.007610649 -0.145334 0.11798562 -0.11993737 -0.16686994 0.13083778
0.004403919 -0.059552133 -0.1093335 0.15735541 -0.11480408 0.18161754 -0.06597184 -0.17391127
-0.14725493 -0.028156996 -0.062723726 -0.11363792 -0.11531161 0.15651567 0.015560895 -0.17108646
-0.070144445 -0.19480869 0.15577881 0.06057091 -0.107205145 0.13665406 -0.10062193 -0.15289107
-0.086093515 0.13067587 -0.0054068714 -0.07804315 0.00014442205 0.13266353 -0.13564649 0.002348557
0.16508557 0.14542021 -0.15960264 -0.07887636 0.119644985 0.20266835 0.08142473 0.017934397
-0.12314451 -0.12223068 -0.1486544 -0.101200216 -0.17752412 -0.095212795 0.00091958046 -0.037098184
0.19074725 -0.19678365 -0.056845963 -0.07739107 0.15490964 0.16106358 -0.0936788 -0.18106976
0.17753989 0.05517447 0.11671495 -0.20833299 -0.14668904 -0.019486584 -0.04990952 -0.0021749632
-0.0589823 0.08835136 0.1711002 0.035754096 -0.20620316 0.13871907 -0.16651288 0.0027685123
-0.11277866 -0.19253647 -0.15760282 0.04359563 0.14493926 -5.9748723e-05 -0.040270027 0.16333163
-0.07793325 0.17735857 0.14466688 0.06471129 0.13995725 -0.11101979 0.1328699 -0.16695438
0.0042572864 -0.17646696 0.1529795 -0.18562546 0.1750905 0.092055425 0.16277786 -0.12734164
-0.07008656 0.0031388167 0.14396876 0.112282075 -0.07665611 0.060728244 0.08848204 0.096440926
-0.04418445 -0.1623835 0.07058569 -0.22550453 -0.086743735 0.045304157 0.018235002 0.09566731
-0.023346279 -0.20351495 0.1343643 -0.22904673 -0.19461134 -0.13294747 0.11099212 0.04014388
-0.07395632 -0.04012854 0.20972456 -0.10400152 -0.18523017 0.06663963 0.1324172 0.20813231
0.17497145 0.15413758 -0.043406308 0.17346698 -0.1614615 -0.09191394 -0.15265402 0.25440273
-0.20204094 0.032740828 -0.22560842 -0.05627448 0.112318985 0.17122181 -0.11360056 0.1430541
0.07464582 -0.06892922 -0.11166498 -0.15780781 0.08595603 -0.15434526 -0.18222259 0.16461995
0.11711556 -0.029275391 0.17118812 0.10941001 0.1282464 -0.17868087 -0.23752126 -0.00656164

critic.lin1.bias f4 [32]
00000000: 66ba 3ebe c339 e4bd 97c8 243e 2e2c 943d
00000010: b293 ae3d 088b da3c 2b6d 363e 39d3 c2bb
00000020: 2f99 27be e811 2cbe c73f 093e ec1b 493d
00000030: 1579 73bd ee62 aabe 92d1 c8bd eaed 82bd
00000040: 412c 20be 042f 5b3e 73a1 d83e 91f0 28be
00000050: 331d b6be e7e3 bbbd 70d4 57bd 57eb 333e
00000060: ba94 8cbc 08da 14bd c098 3f3b 7049 3c3c
00000070: 302f 513c 6e54 dcbc 4636 d83d 70cb a8be
-0.18625793 -0.1114383 0.16092144 0.07234989 0.085242644 0.026677623 0.17815082 -0.00594559
-0.16367029 -0.16803706 0.13403235 0.049098894 -0.059441645 -0.33278602 -0.09805597 -0.06393035
-0.15641882 0.21404654 0.42310676 -0.16498019 -0.35569152 -0.09174328 -0.05269283 0.17570244
-0.017160762 -0.036340743 0.0029235333 0.011492118 0.012767598 -0.026895728 0.10557227 -0.3296771
